IL/Model/model_reacher_46.pt (torch, 292527 bytes, 20 tensors)

policy_net.0.weight f4 [64, 24]
-0.45179594 -1.3244708 0.28240672 0.06720174 0.2706371 -0.18427037 0.3341859 -0.061146375
0.1706206 0.07010889 0.027937513 -0.0024677597 -0.10182234 -0.03831027 0.34431046 0.15856461
0.2593612 0.112479866 -0.29004347 -0.5671172 -0.45374724 -0.06832379 0.20647688 0.025747709
0.03718346 -0.8752963 -0.11319892 0.25672227 0.26777357 0.23480621 0.97372806 -0.3380279
-0.07708341 -0.31646785 0.31128561 0.029077934 -0.020606447 -0.31428516 -0.03574177 -0.11370284
-0.14065547 -0.25169492 -0.31380305 -0.15301037 -0.2777896 0.15763903 -0.09014506 -0.12899525
0.12725091 0.7876621 -0.38994253 1.9014535 -0.03906293 -0.09922488 -0.047880586 0.07849486
0.51543355 -0.06865222 0.10246187 -0.04948398 0.38785642 0.35156712 -0.028992655 -0.09545303
-0.08952009 -0.19278522 0.04754578 0.024648244 0.060303774 0.19257133 -0.11368578 -0.22692582
0.43909255 0.65485644 -0.4043891 -1.4077939 0.3303482 0.17337681 0.31859094 0.083442226
-0.11035212 0.10664669 -0.1170399 -0.6241099 -0.045337465 0.008717996 0.013366686 -0.058727074
-0.09299434 -0.04894811 -0.116020694 -0.38990024 -0.10887753 -0.2527323 -0.08026188 0.096518196
-0.11018456 0.15451466 -0.16714849 0.24964356 0.0142946895 0.11875593 0.07870823 0.07237731
-0.018045671 -0.15268949 -0.17690574 0.50177443 -0.59264576 0.007133491 0.2021385 0.13719575
0.37008384 0.3131845 0.17068039 0.25480914 -0.080141895 -0.18086648 -0.17555751 -0.069354676
-0.400076 -0.31838673 0.3490714 -1.7585406 -0.19050951 -0.1214517 0.27495727 -0.22274967
-0.68423235 0.22246067 -0.29918802 -0.07251551 -0.056901675 -0.20752467 0.16679458 0.1693579
0.20103255 0.13447638 0.27181542 0.28277686 0.112798154 0.044799156 -0.13542046 0.07316782
-0.3195172 3.0891964 0.18336523 -0.68675333 -0.3445883 0.38678345 -0.4668372 0.19884714
0.12240285 0.0027807741 0.25183156 -0.14038418 0.060354177 0.122509144 0.043389194 -0.14903714
0.15541266 0.2039594 0.03356536 0.30456167 0.20067546 -0.097808234 -0.32920343 -0.17736118
-0.019067314 0.39258832 0.65107 1.4612422 -0.16169198 0.25679287 0.17145169 -0.15188815
0.123125546 -0.3520046 0.020668479 0.2910466 -0.2564479 -0.028850153 -0.19512539 -0.033182036
-0.12641548 0.16933006 -0.04629853 -0.04616384 0.14522497 -0.20001425 0.026201282 0.09094542
0.8373161 0.05862362 -0.47950584 -0.45793355 -0.105421774 0.27814868 -0.19937836 0.15501824
0.0342942 0.30044818 -0.021101544 0.06461751 0.05805889 0.10628923 -0.18590586 -0.04972032
-0.10039637 -0.20761123 0.08099077 -0.12164384 0.031189967 0.10884287 -0.053066812 0.21087375
0.21282528 1.3515978 0.20655148 -1.4373214 -0.379621 0.25434065 -0.116470605 0.07811162
0.04763515 0.41210788 0.48065042 -0.23359361 -0.14512394 -0.2942158 0.30004773 0.21592622
0.18215767 0.04795637 0.13966283 -0.22080073 -0.3952067 -0.28349328 -0.07224723 0.059997723
0.5790612 1.6899357 0.33578536 -0.9235703 0.27304533 0.1753612 -0.5406753 -0.03248842
-0.25537813 0.47304577 0.32079598 -0.05682439 0.16788849 0.22029562 -0.36186287 -0.38626546
00000000: cc51 e7be 4288 a9bf 9d97 903e 11a1 893d
00000010: f290 8a3e 5fb1 3cbe 6a1a ab3e 9f74 7abd
00000020: 2bb7 2e3e 4095 8f3d 36dd e43c 23ba 21bb
00000030: 3b88 d0bd 3beb 1cbd 7649 b03e c35e 223e
00000040: feca 843e d85b e63d 9480 94be 982e 11bf
00000050: 8f51 e8be 58ed 8bbd ad6e 533e dcec d23c
00000060: af4d 183d 6b13 60bf d6d4 e7bd 1a71 833e
00000070: 9e19 893e 0a71 703e 3e46 793f fe11 adbe
00000080: e8dd 9dbd 1308 a2be d460 9f3e d934 ee3c
00000090: dace a8bc fce9 a0be f665 12bd 09dd e8bd
000000a0: fd07 10be 28de 80be cbaa a0be c0ae 1cbe
000000b0: 703a 8ebe 206c 213e f99d b8bd 5517 04be
000000c0: 104e 023e 39a4 493f 8ca6 c7be d462 f33f
000000d0: 7300 20bd 6a36 cbbd 6f1e 44bd eac1 a03d
000000e0: 74f3 033f 8999 8cbd 87d7 d13d b7af 4abd
000000f0: 1e95 c63e 9b00 b43e 0182 edbc e17c c3bd
00000100: 4f56 b7bd 7d69 45be 5dbf 423d 1deb c93c
00000110: 1701 773d 6b31 453e 17d4 e8bd 3e5f 68be
00000120: bdd0 e03e aca4 273f 170c cfbe 9732 b4bf
00000130: 6623 a93e b189 313e 5a1e a33e c2e3 aa3d
00000140: 4b00 e2bd 9469 da3d 9db2 efbd abc5 1fbf
00000150: c7b3 39bd edd5 0e3c f2ff 5a3c cd8b 70bd
00000160: d173 bebd d07d 48bd 429c edbd 01a1 c7be
00000170: 2ffb debd 2166 81be 5760 a4bd 55ab c53d
00000180: 71a8 e1bd 1739 1e3e f928 2bbe 90a2 7f3e
00000190: 4634 6a3c 4f36 f33d c831 a13d 8e3a 943d
000001a0: 84d4 93bc a25a 1cbe c726 35be 4a74 003f
000001b0: a2b7 17bf 0fc0 e93b 65fd 4e3e 0b7d 0c3e
000001c0: a17b bd3e b859 a03e d7c6 2e3e 5876 823e
000001d0: 6f21 a4bd 1035 39be 59c5 33be d309 8ebd
000001e0: c3d6 ccbe 9603 a3be 7db9 b23e dc17 e1bf
000001f0: ed14 43be abbb f8bd 33c7 8c3e 7d18 64be
00000200: da29 2fbf bbcc 633e 2c2f 99be 0383 94bd
00000210: bb11 69bd 5981 54be 33cc 2a3e 286c 2d3e
00000220: 7adb 4d3e 2db4 093e 642b 8b3e 21c8 903e
00000230: b802 e73d 527f 373d a9ab 0abe 03d9 953d
00000240: c297 a3be 65b5 4540 18c4 3b3e 11cf 2fbf
00000250: e16d b0be 7b08 c63e 4905 efbe 969e 4b3e
00000260: 58ae fa3d a63d 363b 11f0 803e dfc0 0fbe
00000270: f135 773d 13e6 fa3d deb8 313d 319d 18be
00000280: 7f24 1f3e bcda 503e d57b 093d 82ef 9b3e
00000290: de7d 4d3e af4f c8bd 5a8d a8be 2b9e 35be
000002a0: 0e33 9cbc 5601 c93e 86ac 263f fc09 bb3f
000002b0: 9592 25be 5b7a 833e 0891 2f3e 9188 1bbe
000002c0: 3f29 fc3d f239 b4be f150 a93c 0f04 953e
000002d0: 244d 83be 2857 ecbc f3ce 47be e3e9 07bd
000002e0: 0f73 01be dc64 2d3e 87a3 3dbd 4b16 3dbd
000002f0: dbb5 143e 89d0 4cbe 12a4 d63c 9841 ba3d
00000300: 595a 563f 521f 703d ca81 f5be 4476 eabe
00000310: 5fe7 d7bd 8169 8e3e d729 4cbe 1abd 1e3e
00000320: 1378 0c3d 58d4 993e 25dd acbc 2f56 843d
00000330: 29cf 6d3d 2bae d93d 1b5e 3ebe 89a7 4bbd
00000340: 9d9c cdbd 0a98 54be 7dde a53d 6820 f9bd
00000350: 1a82 ff3c 03e9 de3d 965c 59bd 4aef 573e
00000360: dfee 593e 2801 ad3f 3b82 533e 26fa b7bf
00000370: af5d c2be f038 823e 2488 eebd fcf8 9f3d
00000380: 131d 433d ceff d23e d017 f63e 2a33 6fbe
00000390: 5f9b 14be 74a3 96be db9f 993e c31b 5d3e
000003a0: 8a87 3a3e e66d 443d c603 0f3e 9619 62be
000003b0: 8858 cabe 0826 91be 5bf6 93bd 2cc0 753d
000003c0: 5b3d 143f d04f d83f 0fec ab3e 1a6f 6cbf
000003d0: 99cc 8b3e e391 333e b269 0abf 9412 05bd
000003e0: ecc0 82be 0e33 f23e 5f3f a43e b1c0 68bd
000003f0: f6ea 2b3e 2d95 613e 1746 b9be 96c4 c5be

policy_net.0.bias f4 [64]
-0.09050898 -0.09977253 -0.24090587 -0.014956404 0.13325983 -0.2272969 0.12182912 -0.0071896585
0.15433365 0.1685601 -0.10556252 0.038174327 -0.29479176 -0.31398395 0.25118184 0.0954083
0.14851332 0.26575026 0.09194271 -0.14548916 0.04035323 -0.007529552 -0.19943053 0.08778459
-0.03941878 0.0022467622 0.21384317 0.04564392 0.16968127 0.03467874 -0.11573559 -0.09906278
0.09069491 0.25424126 -0.113695614 -0.06581577 -0.023927871 0.026050285 -0.13441545 0.20311064
0.09204702 -0.26767808 0.038917515 0.00810492 -0.17790045 -0.19807926 0.26690483 -0.0121322395
0.007103222 0.14288512 0.14407459 -0.014205057 0.13795342 0.22670704 0.023790188 0.25261036
-0.1969007 0.0040400536 -0.108850144 0.15908106 0.17425235 -0.21729453 -0.15128449 -0.051806655
00000000: c65c b9bd 8a55 ccbd 07b0 76be b50b 75bc
00000010: 4475 083e 85c0 68be 8c81 f93d 3a97 ebbb
00000020: a409 1e3e 059b 2c3e 2a31 d8bd af5c 1c3d
00000030: f2ee 96be 81c2 a0be e89a 803e 6d65 c33d
00000040: e013 183e 6b10 883e 764c bc3d 1cfb 14be
00000050: 6e49 253d 76ba f6bb 8437 4cbe 68c8 b33d
00000060: 9675 21bd 6a3e 133b b4f9 5a3e 1ef5 3a3d
00000070: edc0 2d3e 4b0b 0e3d c806 edbd 6de1 cabd
00000080: 41be b93d e92b 823e 3fd9 e8bd 6bca 86bd
00000090: 6204 c4bc 6867 d53c 34a4 09be 3cfc 4f3e
000000a0: 2683 bc3d 1a0d 89be f967 1f3d 80ca 043c
000000b0: 892b 36be 4ad5 4abe c0a7 883e 4dc6 46bc
000000c0: 25c2 e83b 7a50 123e 4a88 133e 54bc 68bc
000000d0: a943 0d3e e425 683e a4e3 c23c 2556 813e
000000e0: 56a0 49be 6d62 843b d3ec debd 25e6 223e
000000f0: 356f 323e 7582 5ebe 52ea 1abe 3733 54bd

policy_net.2.weight f4 [128, 64]
-0.20959926 0.04990204 -0.29681513 -0.24242723 0.08801251 0.25675505 0.029463913 0.22237428
0.11233503 0.10748433 -0.09630392 -0.46980277 0.19256473 -0.06501356 0.22175018 0.44273636
-0.20654376 -0.043880064 -0.14678138 0.019980786 -0.17318377 -0.13460717 0.25755137 0.32366964
0.19118032 -0.34964436 -0.37632528 0.47504082 0.032520168 0.13581154 -0.4676023 -0.12960558
-0.2967741 0.08043538 -0.11180299 -0.13370717 0.08248305 0.17175508 -0.38838053 -0.2462968
0.05493991 -0.6600592 -0.21010312 0.8219492 -0.11818054 0.08482697 0.059764683 0.01975789
0.08996932 -0.48624998 -0.06731186 0.13117531 -0.05309437 -0.30314147 0.2588469 0.015410239
-0.115406 0.002425912 0.2624702 0.106648125 -0.16201536 -0.17284334 0.07521212 0.0061320546
-0.58688 0.21080917 0.27801833 0.08361221 -1.6388977 0.056077898 0.17416632 -0.6012091
0.016659753 -0.07117024 0.006789278 -0.11500098 0.14274389 0.21241583 0.071991965 0.12905289
-0.15017918 0.082354814 0.13537101 -0.1342738 0.08945204 0.14350347 -0.2321819 -0.69088376
-0.021822281 0.010948224 0.27379894 0.3026803 0.05862039 -0.021099746 0.03859698 0.0015214606
-0.5514343 -0.2016747 -0.025554888 0.12664779 0.2435556 0.18041615 0.057820063 -0.3342055
-0.48559463 -0.026889024 0.06017143 -0.56971794 0.19827694 0.11201468 0.033317186 0.12824388
0.47483495 0.112812944 -0.46773338 -0.013741755 0.35694373 -0.31149626 0.05110169 0.04983321
0.048859786 -0.22246969 -0.22605184 -0.058364246 0.17597108 0.121100724 -0.115592904 0.10823504
-0.18109593 -0.17648996 -0.35499996 0.20941487 0.070755415 0.32683927 0.1074382 0.07040166
0.13533325 0.15522817 0.08718909 -0.043055147 -0.16123034 -0.57798547 -0.102644704 -0.28843808
-0.21456447 0.17520049 0.46148932 -0.3088571 0.09817137 -0.02394182 -0.18350765 -0.369391
-0.263975 0.4056537 -0.007312312 0.14699969 0.29827154 -0.16602841 -0.10852408 0.23713747
0.13369013 -0.05728623 -0.30779022 0.11888657 -0.012245131 -0.61750746 0.17291565 0.5025641
0.03780487 -0.60389066 -0.11709531 -0.11793292 -0.24134785 0.120073326 -0.04122478 0.11378391
-0.05790447 0.13575865 0.26649016 -0.3482696 0.18359178 -0.12292949 -0.13805367 0.08840982
-0.48166278 -0.10922672 -0.6782726 0.09549282 0.22883114 -0.3425805 -0.13990307 -0.3913788
-0.45536998 0.31622657 -0.46120253 -0.055057235 -0.14563957 -0.02338372 -0.38126448 0.06066927
0.013774053 0.4006071 0.2996922 -0.23095575 -0.22241132 0.029201802 0.059422478 -0.045057636
0.030967062 0.13611506 -0.1521329 -0.62607425 0.118613064 -0.12860431 0.015771935 -0.1274271
-0.478251 0.13115567 -0.07716543 -0.0883418 -0.17683466 0.0058672503 -0.17881617 -0.5881144
0.4925383 0.18828425 -0.002222308 0.15350567 -0.15899478 0.0037901879 0.24288692 -0.43462485
0.020375324 -0.4494543 0.08816369 -0.41258514 -0.09874755 -0.8819154 -0.5608414 0.16307485
-0.41426042 -0.24669555 0.4775073 -0.43833378 0.29614428 0.27849692 0.3134489 0.42201364
-0.20320013 -0.33384013 -0.15422149 -0.4468897 -0.41876784 -0.13585816 0.091049984 0.22231612
00000000: 30a1 56be 1566 4c3d 27f8 97be d83e 78be
00000010: e73f b43d 6675 833e 4e5e f13c 15b6 633e
00000020: e90f e63d bf20 dc3d fd3a c5bd fd89 f0be
00000030: b02f 453e d425 85bd 7b12 633e 57ae e23e
00000040: 3580 53be 95bb 33bd dc4d 16be bfae a33c
00000050: 1657 31be 76d6 09be c6dd 833e 07b8 a53e
00000060: c6c4 433e 9604 b3be b5ad c0be 8d38 f33e
00000070: de33 053d 2e12 0b3e 9269 efbe 53b7 04be
00000080: c6f2 97be 4ebb a43d f7f8 e4bd 88ea 08be
00000090: e0ec a83d 90e0 2f3e d0d9 c6be 3a35 7cbe
000000a0: ac08 613d a4f9 28bf 4625 57be 436b 523f
000000b0: a408 f2bd c3b9 ad3d d0cb 743d 4cdb a13c
000000c0: d641 b83d c2f5 f8be cdda 89bd d252 063e
000000d0: 7b79 59bd 5c35 9bbe 9587 843e 3a7b 7c3c
000000e0: fb59 ecbd 0dfc 1e3b 7e62 863e 556a da3d
000000f0: 5be7 25be d8fd 30be d008 9a3d 67ef c83b
00000100: c53d 16bf 5cde 573e 6b58 8e3e e13c ab3d
00000110: 66c7 d1bf f0b1 653d a858 323e d7e8 19bf
00000120: 097a 883c b4c1 91bd 9778 de3b a285 ebbd
00000130: 742b 123e 8983 593e 8670 933d 7126 043e
00000140: 92c8 19be a4a9 a83d b39e 0a3e 127f 09be
00000150: a232 b73d 93f2 123e 18c1 6dbe c2dd 30bf
00000160: a4c4 b2bc 2e60 333c 602f 8c3e eaf8 9a3e
00000170: ef1b 703d 60d9 acbc de17 1e3d bf6b c73a
00000180: cc2a 0dbf d083 4ebe 7c58 d1bc f5af 013e
00000190: a466 793e 03bf 383e bbd4 6c3d fc1c abbe
000001a0: dc9f f8be 5f46 dcbc 5176 763d 09d9 11bf
000001b0: 1c09 4b3e f467 e53d 9a77 083d 5d52 033e
000001c0: 911d f33e 790a e73d c07a efbe 1925 61bc
000001d0: 54c1 b63e 707c 9fbe 0150 513d e81d 4c3d
000001e0: 3321 483d 18cf 63be 227a 67be 590f 6fbd
000001f0: c331 343e a803 f83d f9bb ecbd 55aa dd3d
00000200: 3671 39be c9b9 34be 8ec2 b5be da70 563e
00000210: 37e8 903d 7a57 a73e 8f08 dc3d bf2e 903d
00000220: cd94 0a3e 22f4 1e3e 3290 b23d 985a 30bd
00000230: 9119 25be dbf6 13bf 6337 d2bd 28ae 93be
00000240: cab6 5bbe c267 333e 5448 ec3e 8522 9ebe
00000250: 120e c93d a321 c4bc 6ee9 3bbe d120 bdbe
00000260: bb27 87be d7b1 cf3e 1e9c efbb 1687 163e
00000270: 0cb7 983e 5a03 2abe df41 debd 2ad4 723e
00000280: 11e6 083e f7a4 6abd ae96 9dbe cd7a f33d
00000290: cd9f 48bc f814 1ebf cd10 313e 0aa8 003f
000002a0: 48d9 1a3d 9498 1abf aacf efbd d186 f1bd
000002b0: e423 77be 01e9 f53d 51db 28bd 8a07 e93d
000002c0: 3d2d 6dbd 5104 0b3e 6671 883e 6550 b2be
000002d0: 7cff 3b3e 75c2 fbbd f15d 0dbe 3510 b53d
000002e0: 819c f6be 42b2 dfbd 46a3 2dbf bd91 c33d
000002f0: b652 6a3e b666 afbe c042 0fbe cd62 c8be
00000300: 4126 e9be 73e8 a13e bd22 ecbe b283 61bd
00000310: 8a22 15be 378f bfbc 1935 c3be 5780 783d
00000320: 91ac 613c 601c cd3e 4271 993e aa7f 6cbe
00000330: cbbf 63be 9e38 ef3c fc64 733d 5b8e 38bd
00000340: a3ae fd3c bf61 0b3e bac8 1bbe 6746 20bf
00000350: 68eb f23d d9b0 03be 2534 813c 407c 02be
00000360: 51dd f4be ac4d 063e e908 9ebd 8cec b4bd
00000370: 2514 35be 1042 c03b 961b 37be aa8e 16bf
00000380: fb2d fc3e 96cd 403e 24a4 11bb 9730 1d3e
00000390: 87cf 22be cd64 783b 59b7 783e 2687 debe
000003a0: 27ea a63c e01e e6be 2a8f b43d 5c3e d3be
000003b0: 283c cabd 35c5 61bf 4d93 0fbf 18fd 263e
000003c0: f119 d4be c29d 7cbe d67b f43e 496d e0be
000003d0: 39a0 973e 2697 8e3e 607c a03e 2c12 d83e
000003e0: b213 50be 18ed aabe 3dec 1dbe bace e4be
000003f0: bd68 d6be 671e 0bbe 6a78 ba3d d6a6 633e

policy_net.2.bias f4 [128]
0.06972486 -0.06378642 0.1671538 0.018750295 0.013091656 0.07691072 -0.032464746 -0.06745827
0.03147844 0.119910434 -0.20278782 0.028417373 -0.058868293 -0.133341 0.08082218 0.06204166
0.045198783 -0.20821981 0.0827385 0.18099204 -0.23223123 0.011194365 -0.14975195 -0.10729908
0.0038933558 -0.090762906 0.03172229 0.017129406 0.0043167537 -0.03320224 -0.04678405 -0.08026918
0.019801209 0.027392078 -0.20799392 -0.20250994 -0.16863541 0.17888002 0.29107484 0.1385375
-0.122030504 -0.25584358 0.07424966 0.048114672 -0.19638124 -0.08004982 0.026277063 0.019481478
0.14622228 -0.2567335 -0.22917564 0.21263231 -0.054196373 0.15720464 0.030918876 -0.001530687
0.10838967 0.0032507025 0.011441483 0.005264151 -0.13022202 -0.09546414 0.11495426 -0.18407395
-0.115524314 -0.06124371 -0.07258422 -0.14942059 0.05480454 0.0129801445 -0.17740415 -0.15600477
0.13737826 -0.0012848807 0.16263364 0.17473719 -0.00017090492 -0.082552366 0.091369756 0.018682284
0.006302061 -0.012673771 -0.013311612 0.054805297 0.012176615 -0.04045173 0.017320465 0.00015687999
0.14695308 0.19107139 0.05276636 -0.02222513 -0.17213526 0.015694462 -0.07219882 -0.08267528
-0.15407756 -0.14732824 -0.1303661 -0.32224575 0.051868167 -0.07906256 -0.019256925 0.06287303
-0.019085338 -0.18691593 -0.00040066722 0.031914335 -0.2119811 0.042922344 -0.12499042 -0.00028983355
-0.081186175 0.08059972 0.044582143 -0.059919037 -0.08174557 0.115631916 -0.22183771 -0.10764923
0.04427104 0.049182627 -0.1552613 0.3014688 -0.07109244 0.04269161 0.1484538 0.0006018923
00000000: e8cb 8e3d 74a2 82bd 5e2a 2b3e 389a 993c
00000010: 637e 563c 5e83 9d3d c1f9 04bd 9027 8abd
00000020: 89ef 003d 9a93 f53d 9ca7 4fbe 8dcb e83c
00000030: e11f 71bd 8b8a 08be 1986 a53d 651f 7e3d
00000040: 5c22 393d 9337 55be cd72 a93d fa55 393e
00000050: 06ce 6dbe 9268 373c 9358 19be 9fbf dbbd
00000060: ac27 7f3b e7e1 b9bd 3bef 013d f852 8c3c
00000070: 8e73 8d3b 12ff 07bd a2a0 3fbd 2b64 a4bd
00000080: 2536 a23c 5a65 e03c 5cfc 54be c45e 4fbe
00000090: c3ae 2cbe 532c 373e c307 953e c6dc 0d3e
000000a0: 21eb f9bd eefd 82be 3510 983d e413 453d
000000b0: 2a18 49be 29f1 a3bd ff42 d73c 9f97 9f3c
000000c0: 4bbb 153e 9372 83be 05ad 6abe 49bc 593e
000000d0: 04fd 5dbd 41fa 203e 9549 fd3c 55a1 c8ba
000000e0: 67fb dd3d bd09 553b 0f75 3b3c e67e ac3b
000000f0: ec58 05be b482 c3bd 246d eb3d e27d 3cbe
00000100: 0398 ecbd afda 7abd 09a7 94bd b601 19be
00000110: ba7a 603d acaa 543c 6fa9 35be b7bf 1fbe
00000120: e3ac 0c3e 7169 a8ba 6f89 263e 4eee 323e
00000130: f134 33b9 3711 a9bd 1120 bb3d 970b 993c
00000140: 8581 ce3b a6a5 4fbc f318 5abc 857b 603d
00000150: 6d80 473c b7b0 25bd a6e3 8d3c 2780 2439
00000160: de7a 163e 38a8 433e 8a21 583d 7a11 b6bc
00000170: 3a44 30be ac91 803c fadc 93bd a851 a9bd
00000180: 82c6 1dbe 37dd 16be b17e 05be 65fd a4be
00000190: b773 543d 8deb a1bd b3c0 9dbc 93c3 803d
000001a0: db58 9cbc e466 3fbe a510 d2b9 9bb8 023d
000001b0: 9311 59be 57cf 2f3d fafa ffbd cdf4 97b9
000001c0: f044 a6bd 7711 a53d c49b 363d aa6d 75bd
000001d0: 396a a7bd 6dd0 ec3d 6d29 63be 3377 dcbd
000001e0: 8d55 353d b973 493d d1fc 1ebe 1e5a 9a3e
000001f0: ea98 91bd 66dd 2e3d 4604 183e 4fc8 1d3a

policy_net.4.weight f4 [128, 128]
-0.13505267 0.14039525 0.12862171 -0.07673177 -0.004628656 0.21142468 0.058227926 0.25181407
-0.54019135 0.033314317 -0.18530819 0.1069867 -0.025602067 0.010938279 0.4231322 -0.34724542
-0.25976878 0.15686238 0.17321195 -0.49422857 0.43257573 0.012313151 0.32146496 -0.30941585
0.07067021 -0.020041076 -0.6473592 0.44123256 0.034030862 -0.2336941 -0.38753763 -0.22894743
0.04788636 0.034239046 0.33467916 -0.53969204 0.019876894 -0.24776423 -0.21429457 -0.1522011
0.2506216 -0.026198793 0.17325994 0.15331693 -0.16316415 -1.0966485 -0.28880936 -0.45021027
0.20749985 0.5892156 0.2873774 0.23335192 0.40733904 -0.3085704 -0.36584187 -0.086743236
-0.07979689 -0.4692172 -0.2964402 -0.0846624 0.28093615 0.30398047 -0.9049185 -0.07385529
-0.10275228 0.12521766 -0.23588347 0.0057193185 -0.1735385 -0.32494795 -0.20184247 -0.25219926
-0.15534602 -0.10423017 -0.113643356 -0.200101 -0.1450247 -0.11853225 0.30368325 -0.30853638
0.27849925 0.14683495 0.20166606 -0.12671661 -0.24594375 0.32606414 -0.09188515 0.1691989
0.059434373 -0.27709785 0.047489055 -0.19108956 -0.006640517 0.30302346 -0.26655993 0.42935207
-0.23571208 0.27018642 -0.31622747 -0.15860614 0.110330954 -0.025701553 -0.2430824 0.3174239
-0.10508325 -0.23154575 0.31640008 0.1537367 0.15435973 -0.41522446 0.021153297 -0.117043026
-0.11080419 0.085224405 -0.18907681 -0.37934038 0.007183957 -0.3730394 0.1193564 0.018887835
0.212173 -0.11597016 -0.4361694 -0.4766562 0.05403864 0.43879077 0.08151996 -0.11850982
0.05728326 -0.05400159 -0.8152768 -0.25189456 -0.3497654 -0.0360384 -0.03564045 0.04751451
-0.3771033 -0.6333176 -0.002733211 0.03362908 -0.5482819 -0.030847577 0.36825153 0.230249
-0.586633 0.14341624 -0.26097196 -0.0036418247 -0.1735406 -0.38016668 -0.14738509 -0.10329603
-0.3046242 0.06687774 -0.1039403 -0.4150126 -0.13123168 0.08557409 -0.11655104 0.14656892
0.018040126 0.042223785 -0.11467237 -0.92685986 -0.2194951 -0.09901685 0.024448182 0.3241648
0.2944752 -0.34555298 -0.08204537 -0.082841404 -0.14258596 -0.51242256 -0.0593154 -0.12249429
-0.61527246 0.16247815 0.35867637 -0.82117003 -0.21892859 0.111717835 -0.14108892 0.39135256
0.12071155 0.015934896 0.0636333 0.008101037 -0.65914834 -0.35251632 -0.13149536 -0.35429847
-0.548252 0.015622062 0.032795765 0.13005106 -0.3094911 -0.28850698 -0.4747913 0.08969633
-0.34966674 -0.060112428 -0.15129712 0.30789 0.19947833 -0.10986766 -0.16955337 0.2884445
-0.2098155 -0.4186025 -0.25205463 0.20253535 -0.33931547 0.01843232 -0.1327166 0.27230677
-0.32348037 -0.076579556 -0.083852574 0.10402003 0.2939061 -0.2900486 0.059111234 -0.5048221
-0.35780087 -0.350661 0.43564698 -0.07555669 -0.38752958 0.03459889 0.11121927 -0.09994339
0.1968386 0.09764524 0.270448 -0.17958048 0.120568134 0.18305312 -0.35204157 -0.03934129
-0.007632864 -0.34126908 0.3064869 0.30627933 -0.2493285 0.035128523 0.021626892 -0.043114547
0.023247015 -0.020577595 0.21919243 -0.24565732 -0.1768267 -0.17785342 -0.4784208 0.14552428
00000000: 3f4b 0abe c6c3 0f3e 69b5 033e 8c25 9dbd
00000010: fbab 97bb b67f 583e 6880 6e3d c6ed 803e
00000020: fb49 0abf 9874 083d 6ec1 3dbe d81b db3d
00000030: 6dbb d1bc 7836 333c c9a4 d83e 27ca b1be
00000040: 6a00 85be 88a0 203e 795e 313e 870b fdbe
00000050: 917a dd3e 19bd 493c 0e97 a43e c16b 9ebe
00000060: 8bbb 903d 2f2d a4bc 55b9 25bf 3ce9 e13e
00000070: f263 0b3d 824d 6fbe 556b c6be 3271 6abe
00000080: 7d24 443d 3e3e 0c3d 115b ab3e 4229 0abf
00000090: ded4 a23c e8b5 7dbe 0970 5bbe 9bda 1bbe
000000a0: 7951 803e da9e d6bc 0e6b 313e 1dff 1c3e
000000b0: 8114 27be fa5e 8cbf d2de 93be f681 e6be
000000c0: d77a 543e d5d6 163f 2123 933e cef3 6e3e
000000d0: be8e d03e f1fc 9dbe a04f bbbe 70a6 b1bd
000000e0: 8d6c a3bd 3d3d f0be 03c7 97be 7b63 adbd
000000f0: ddd6 8f3e 54a3 9b3e bda8 67bf 7141 97bd
00000100: ca6f d2bd 0f39 003e 708b 71be 1f69 bb3b
00000110: 14b4 31be 945f a6be cbaf 4ebe 4320 81be
00000120: 0713 1fbe a176 d5bd d9bd e8bd 47e7 4cbe
00000130: 5b81 14be 09c1 f2bd 5f7c 9b3e 7bf8 9dbe
00000140: 7497 8e3e e75b 163e 8c81 4e3e 00c2 01be
00000150: aed8 7bbe e1f1 a63e 482e bcbd 7a42 2d3e
00000160: 7571 733d c5df 8dbe e283 423d fbac 43be
00000170: b298 d9bb e425 9b3e 8b7a 88be 09d4 db3e
00000180: 825e 71be e055 8a3e 91e8 a1be a669 22be
00000190: 32f5 e13d 108c d2bc 98ea 78be 6385 a23e
000001a0: e335 d7bd 541a 6dbe 31ff a13e 276d 1d3e
000001b0: 7a10 1e3e 4d98 d4be ae49 ad3c 41b4 efbd
000001c0: 4fed e2bd 228a ae3d 5a9d 41be e738 c2be
000001d0: 6667 eb3b 05ff bebe 2171 f43d a9ba 9a3c
000001e0: e143 593e c381 edbd 9851 dfbe 480c f4be
000001f0: 9f57 5d3d 2fa9 e03e f0f3 a63d 47b5 f2bd
00000200: daa1 6a3d c530 5dbd fbb5 50bf 53f8 80be
00000210: 7314 b3be 009d 13bd b8fb 11bd 939e 423d
00000220: af13 c1be 1a21 22bf ac1f 33bb a5be 093d
00000230: 345c 0cbf 0fb4 fcbc 778b bc3e 65c6 6b3e
00000240: 952d 16bf b5db 123e 1e9e 85be aeab 6ebb
00000250: a1b4 31be 35a5 c2be 1eec 16be de8c d3bd
00000260: b4f7 9bbe 32f7 883d a7de d4bd 887c d4be
00000270: 9961 06be 7841 af3d 50b2 eebd 2a16 163e
00000280: e3c8 933c d9f2 2c3d 59d9 eabd b046 6dbf
00000290: 53c3 60be 59c9 cabd 8e47 c83c eef8 a53e
000002a0: 74c5 963e 52ec b0be 6707 a8bd c1a8 a9bd
000002b0: 0e02 12be 202e 03bf b4f4 72bd 49de fabd
000002c0: 7f82 1dbf ac60 263e 6ea4 b73e 3338 52bf
000002d0: d12e 60be 52cc e43d 9d79 10be 5d5f c83e
000002e0: 9e37 f73d e689 823c 2d52 823d 36ba 043c
000002f0: f2bd 28bf 057d b4be b8a6 06be 9c66 b5be
00000300: 3e5a 0cbf adf3 7f3c da54 063d 1b2c 053e
00000310: 9e75 9ebe 30b7 93be d817 f3be b6b2 b73d
00000320: 8507 b3be 7338 76bd a2ed 1abe c2a3 9d3e
00000330: 0c44 4c3e 4c02 e1bd 669f 2dbe ffae 933e
00000340: e0d9 56be 1153 d6be 4e0d 81be 6d65 4f3e
00000350: c2ba adbe 60ff 963c dce6 07be cb6b 8b3e
00000360: 389f a5be bed5 9cbd e6ba abbd 7408 d53d
00000370: dc7a 963e 4081 94be 9f1e 723d 053c 01bf
00000380: ad31 b7be d789 b3be 1f0d df3e 77bd 9abd
00000390: 476a c6be 91b7 0d3d eec6 e33d 1faf ccbd
000003a0: 0f90 493e 3afa c73d 2978 8a3e f2e3 37be
000003b0: 6dec f63d 4772 3b3e cb3e b4be 5524 21bd
000003c0: 1b1d fabb d2ba aebe daeb 9c3e a5d0 9c3e
000003d0: f84f 7fbe ede2 0f3d e12a b13c e198 30bd
000003e0: 8670 be3c 5892 a8bc fb73 603e 988d 7bbe
000003f0: 0f12 35be 351f 36be 92f3 f4be 5104 153e

policy_net.4.bias f4 [128]
-0.15442237 -0.08780611 0.061183836 -0.12141963 -0.07800372 0.058951624 -0.044569753 -0.13250387
-0.073790714 -0.095369674 0.09436309 -0.018569054 0.06760834 -0.16479845 -0.010548355 0.09874698
-0.014606461 -0.012343157 -0.12068848 -0.0014779913 -0.10406476 -0.060086884 -0.19516738 -0.2804841
-0.13328154 0.1518744 -0.06483478 -0.06907913 -0.07465658 0.095435396 0.097925015 -0.09425865
0.11512515 0.16054276 0.05299799 0.021496411 0.072929844 0.15542284 -0.30813247 0.07367946
0.05266151 -0.13332203 0.041229177 0.12677416 -0.13368721 0.123113774 0.15018797 -0.03632055
-0.030964237 -0.18841317 -0.0979362 0.17690265 -0.2662865 0.0750788 0.055693563 -0.2219388
-0.066328235 0.041687205 0.05560694 -0.0011499737 -0.16317496 0.027541598 -0.35264033 0.053836636
-0.007086305 0.038460802 -0.26205343 0.12686832 -0.18176831 -0.17485212 -0.039238743 -0.25485554
0.23179628 -0.0132756615 0.14756773 -0.15974578 -0.20344275 0.20880112 0.18254152 0.071653
-0.51687056 -0.14660285 0.33875763 -0.18689786 -0.1055935 -0.014684762 -0.0557891 0.19049881
-0.24967256 0.059570227 -0.06934187 -0.20565529 -0.11391536 -0.02580783 -0.30081156 0.13936612
-0.23772296 0.07306539 -0.12883127 0.063684955 0.20903641 0.1094523 0.03608244 -0.012410838
-0.24221031 0.01608789 0.023881469 -0.26386493 0.005157298 0.08749953 -0.11963225 0.035668295
-0.09618049 0.1330856 0.10605739 0.16246046 -0.037545253 0.11795074 -0.11563903 0.23513475
-0.17635724 0.13582508 -0.027848622 0.069679976 -0.16219911 -0.042466458 0.054884277 -0.10063263
00000000: e620 1ebe b1d3 b3bd e79b 7a3d dbaa f8bd
00000010: 6ac0 9fbd 4277 713d c68e 36bd 18af 07be
00000020: 961f 97bd 2d51 c3bd 7041 c13d 211e 98bc
00000030: 3e76 8a3d edc0 28be 02d3 2cbc db3b ca3d
00000040: f04f 6fbc f43a 4abc 862b f7bd 29b9 c1ba
00000050: e81f d5bd aa1d 76bd f5d9 47be 9d9b 8fbe
00000060: f57a 08be f684 1b3e 19c8 84bd 5c79 8dbd
00000070: 8de5 98bd a273 c33d e98c c83d ae0a c1bd
00000080: bcc6 eb3d 5265 243e 6c14 593d 3e19 b03c
00000090: 3e5c 953d 2a27 1f3e 8ac3 9dbe 42e5 963d
000000a0: 98b3 573d 9285 08be eddf 283d 16d1 013e
000000b0: 4de5 08be 1323 fc3d e0ca 193e dbc4 14bd
000000c0: b6a8 fdbc 62ef 40be c692 c8bd f825 353e
000000d0: b456 88be eac2 993d ef1e 643d ed43 63be
000000e0: 19d7 87bd 34c0 2a3d 1ac4 633d b7ba 96ba
000000f0: 5617 27be eb9e e13c 468d b4be ce83 5c3d
00000100: 3c34 e8bb 1389 1d3d de2b 86be c5e9 013e
00000110: 7921 3abe 6f0c 33be ceb8 20bd 6d7c 82be
00000120: 015c 6d3e 2982 59bc ff1b 173e 6694 23be
00000130: 4c53 50be f6cf 553e 2aec 3a3e cfbe 923d
00000140: a151 04bf 0f1f 16be a471 ad3e 2762 3fbe
00000150: 6841 d8bd 5b98 70bc 1c83 64bd 1f12 433e
00000160: 2aaa 7fbe e9ff 733d 1c03 8ebd 4d97 52be
00000170: 754c e9bd f16a d3bc f903 9abe feb5 0e3e
00000180: a66d 73be 4fa3 953d 58ec 03be 426d 823d
00000190: a40d 563e 8728 e03d 2ecb 133d d456 4bbc
000001a0: fb05 78be c0ca 833c 12a3 c33c 4e19 87be
000001b0: 8dfe a83b f432 b33d c101 f5bd eb18 123d
000001c0: 47fa c4bd 9747 083e 9e34 d93d 095c 263e
000001d0: 0dc9 19bd 2890 f13d 28d4 ecbd 2ac7 703e
000001e0: fe96 34be bb15 0b3e cb22 e4bc 60b4 8e3d
000001f0: 8617 26be 4ff1 2dbd 56ce 603d 7b18 cebd

policy_net.6.weight f4 [64, 128]
-0.18130551 0.23748533 0.35456568 -0.6544988 -0.07752996 -0.049022473 0.058376003 0.13814352
0.22785926 -0.2646583 -0.26857325 -0.09140842 -0.2707944 -0.2692923 -0.28738126 -0.0023954792
0.16279778 0.06767192 -0.049367715 0.15525194 0.26155046 0.018720096 0.19690898 -0.011407637
-0.3773257 0.27768153 -0.25335646 0.42130348 0.15890042 -0.06200623 -0.57758707 -0.2690776
-0.048079863 -0.38852507 -0.3566153 -0.06766748 0.090485744 -0.6349109 -0.109251104 0.2837912
0.021844327 -0.43226305 0.13518445 0.09392784 -0.34765816 0.29301757 -0.14553444 0.011654046
-0.089835204 0.44658205 -0.38594195 0.085620366 0.24992308 -0.1088687 -0.033159617 0.14649783
0.09573214 0.0003918258 0.4312836 -0.025514228 0.2362369 0.27152327 -0.38588715 -0.050970085
-0.30500388 0.14250138 -0.008174412 0.10714933 -0.047238663 -0.40183404 0.06164935 -0.4614959
0.040368207 -0.011331961 -0.7225033 0.11715226 -0.18525542 -0.38780445 -0.2351434 -0.24683759
0.049513496 0.0016304052 0.22820763 -0.26228362 -0.4676111 -0.20032758 0.32975987 -0.35654286
0.10748919 -0.15854356 0.0048042433 -0.45323175 -0.12598436 -0.10380211 0.12319141 -0.8650853
-0.14631772 0.03026686 -0.18477422 0.06470629 -0.7135122 0.095351726 -0.007386887 0.06195016
-0.31269717 -0.12935483 0.02713308 -0.01717728 0.2701118 0.10880441 -0.049874097 -0.36788684
-0.20074728 -0.14365084 -0.038826957 -0.6720227 0.49959478 -0.5415815 -0.6934158 -0.029937444
-0.036786463 0.1645725 -0.13831374 0.23279947 -0.21061064 -0.32038736 -0.4443247 -0.12606409
-0.05330221 -0.036308058 -0.1475779 -0.05868887 -0.25036415 0.30128264 0.05461073 -0.08442127
-0.3072707 0.031218328 0.068673946 0.018438736 -0.20176747 -0.16226259 0.07153226 0.28772742
0.18745773 -0.19911382 0.046841923 0.10219669 -0.07674419 0.27258682 0.037040193 -0.4631036
-0.97614306 -0.10139644 -0.65984714 -0.552018 0.18036827 -0.041124772 -0.056655657 -0.46098953
-0.03613531 0.07018114 -0.025765799 -0.14475875 -0.072820365 0.011273339 0.022236187 0.17708747
-0.21732865 0.15765306 0.048338056 -0.85896695 -0.34798196 0.13926758 -0.18011492 -0.05766057
-0.106787324 0.01525051 -0.06805626 0.23755632 0.037386436 -0.060741514 0.09123351 0.12642652
-0.20551366 0.15902829 -0.09272851 0.0020410696 -0.0042061387 -0.116017014 -0.00501615 -0.028558688
-0.10169755 -0.27287945 0.24143255 0.0042611263 -0.70346016 -0.022563908 0.07845012 0.2765605
0.22725815 -0.7083418 -0.32505766 -0.18507648 0.20134287 0.19528627 -0.5441607 -0.01671626
0.03545116 -0.16935599 -0.2259281 -0.18517381 -0.506162 0.15542951 4.448449e-05 -0.515592
0.11975667 0.0867971 -0.18894506 -0.11805864 0.038140453 0.2786183 0.012927436 -0.14859426
-0.0552542 -0.15306589 0.06786663 -0.17839192 -0.064384855 0.15815018 -0.3746265 0.13481742
-0.2601504 0.14427547 -0.03247119 0.077139094 -0.2478036 0.39131522 0.024209894 0.18924709
-0.44068235 0.06744078 -0.01226631 -0.44550756 -0.043042555 0.05680581 -0.32671493 -0.45510474
0.020274114 -0.13256322 0.055715177 -0.24828851 0.091492005 0.042243976 -0.3343159 0.3258637
00000000: 27a8 39be 5b2f 733e a289 b53e 3c8d 27bf
00000010: 07c8 9ebd cacb 48bd ad1b 6f3d 7f75 0d3e
00000020: f053 693e 4b81 87be 6f82 89be 5634 bbbd
00000030: 90a5 8abe aee0 89be a323 93be 79fd 1cbb
00000040: 76b4 263e 9397 8a3d cd35 4abd 5dfa 1e3e
00000050: f1e9 853e e35a 993c 82a2 493e 19e7 3abc
00000060: d630 c1be 462c 8e3e f0b7 81be 17b5 d73e
00000070: cbb6 223e 3ffa 7dbd bfdc 13bf 8ac4 89be
00000080: 64ef 44bd c2ec c6be 4896 b6be 3f95 8abd
00000090: 9750 b93d 8589 22bf 0bbf dfbd 154d 913e
000000a0: e0f2 b23c 9551 ddbe cb6d 0a3e 3d5d c03d
000000b0: 4000 b2be 6606 963e fb06 15be 9df0 3e3c
000000c0: 85fb b7bd 67a6 e43e 2f9a c5be bb59 af3d
000000d0: d6eb 7f3e 8ef6 debd 61d2 07bd 8703 163e
000000e0: 360f c43d f86d cd39 34d1 dc3e 3703 d1bc
000000f0: 16e8 713e 1905 8b3e 0093 c5be 02c6 50bd
00000100: 7829 9cbe e2eb 113e f8ed 05bc 1c71 db3d
00000110: 547d 41bd 31bd cdbe 0784 7c3d 3149 ecbe
00000120: 2259 253d b0a9 39bc faf5 38bf 86ed ef3d
00000130: 99b3 3dbe 4e8e c6be 6ec9 70be fec2 7cbe
00000140: aace 4a3d 52b3 d53a 43af 693e 0a4a 86be
00000150: b96a efbe ac22 4dbe 49d6 a83e c98c b6be
00000160: 4b23 dc3d 3e59 22be ea6c 9d3b fe0d e8be
00000170: 0b02 01be 3396 d4bd c74b fc3d 3b76 5dbf
00000180: 50d4 15be 35f2 f73c 7435 3dbe bb84 843d
00000190: bca8 36bf c447 c33d b30d f2bb 73bf 7d3d
000001a0: d819 a0be 9875 04be 3146 de3c 5eb7 8cbc
000001b0: 184c 8a3e d9d4 de3d c848 4cbd aa5b bcbe
000001c0: b290 4dbe 3519 13be 0409 1fbd ae09 2cbf
000001d0: e3ca ff3e 16a5 0abf b383 31bf 5f3f f5bc
000001e0: 67ad 16bd b285 283e 1ea2 0dbe fc62 6e3e
000001f0: 51aa 57be d009 a4be 877e e3be f216 01be
00000200: 6b53 5abd c2b7 14bd a91e 17be be63 70bd
00000210: bb2f 80be b841 9a3e 80af 5f3d 0fe5 acbd
00000220: 9652 9dbe 94bd ff3c eda4 8c3d d50c 973c
00000230: 229c 4ebe 2a28 26be 817f 923d 0251 933e
00000240: ebf4 3f3e 7ee4 4bbe 51dd 3f3d 804c d13d
00000250: 0f2c 9dbd 8090 8b3e 75b7 173d ea1b edbe
00000260: 83e4 79bf f0a8 cfbd beeb 28bf 0d51 0dbf
00000270: 76b2 383e 7372 28bd c30f 68bd d206 ecbe
00000280: 9e02 14bd 21bb 8f3d cc12 d3bc a33b 14be
00000290: d822 95bd d0b3 383c aa28 b63c 6b56 353e
000002a0: 678b 5ebe ce6f 213e 20fe 453d 42e5 5bbf
000002b0: b12a b2be 299c 0e3e 0c70 38be 7d2d 6cbd
000002c0: 50b3 dabd 46dd 793c 1561 8bbd f741 733e
000002d0: 8522 193d 18cc 78bd a2d8 ba3d f475 013e
000002e0: 2c72 52be 50d8 223e 72e8 bdbd 77c3 053b
000002f0: a6d3 89bb 549a edbd 845e a4bb e9f3 e9bc
00000300: ce46 d0bd dbb6 8bbe 183a 773e eba0 8b3b
00000310: f715 34bf f2d7 b8bc 75aa a03d 5699 8d3e
00000320: 5cb6 683e e355 35bf f56d a6be b084 3dbe
00000330: d32c 4e3e 20f9 473e 1e4e 0bbf 8af0 88bc
00000340: 3c35 113d a86b 2dbe b259 67be 349e 3dbe
00000350: d593 01bf ea28 1f3e dc94 3a38 d6fd 03bf
00000360: fc42 f53d aec2 b13d d07a 41be bac8 f1bd
00000370: 2a39 1c3d 0fa7 8e3e 99cd 533c 1829 18be
00000380: 3a52 62bd 4ebd 1cbe a9fd 8a3d 5fac 36be
00000390: 35dc 83bd 1ff2 213e 0bcf bfbe 940d 0a3e
000003a0: 6f32 85be f3bc 133e 8300 05bd 1afb 9d3d
000003b0: 3ac0 7dbe 785a c83e d453 c63c fdc9 413e
000003c0: 1ea1 e1be 641e 8a3d a2f8 48bc 9119 e4be
000003d0: 644d 30bd 36ad 683d 2e47 a7be 7d03 e9be
000003e0: e615 a63c a7be 07be 9935 643d 583f 7ebe
000003f0: 2960 bb3d 0508 2d3d 742b abbe 9bd7 a63e

policy_net.6.bias f4 [64]
-0.053703066 0.29572287 -0.16909958 -0.1424687 -0.4151893 0.2074955 -0.14002965 -0.01847949
-0.04263755 0.16237363 0.37955728 -0.0044412804 0.31987694 0.124594964 0.42149055 0.23563278
-0.10367704 -0.1272053 0.14011912 0.14991191 -0.013337187 0.27264982 -0.039874785 0.066475675
0.13308 0.23260298 0.3321532 -0.022213949 0.2678076 0.14396468 0.21226849 0.06380683
-0.13115002 0.29557943 0.12343406 0.04281484 0.11458524 0.111889124 0.22189936 -0.33249345
0.21629646 -0.03832979 0.0602713 -0.19642594 0.3210188 0.4220686 -0.06304528 0.07660659
-0.1431626 -0.36013213 -0.2540322 0.36327705 -0.2562246 0.01941969 -0.09871961 -0.1947707
0.46221045 0.083614446 0.037349727 -0.23118883 0.107384406 0.22579175 -0.066364236 0.14829819
00000000: bff7 5bbd fd68 973e 7128 2dbe 51e3 11be
00000010: b193 d4be b379 543e ef63 0fbe 4d62 97bc
00000020: b6a4 2ebd 4645 263e 5555 c23e 2988 91bb
00000030: e9c6 a33e a52b ff3d 9ccd d73e b849 713e
00000040: a154 d4bd 1b42 02be 637b 0f3e 8282 193e
00000050: 3784 5abc c298 8b3e be53 23bd 6624 883d
00000060: 2046 083e 7a2f 6e3e fc0f aa3e 07fa b5bc
00000070: 141e 893e 7a6b 133e e95c 593e 28ad 823d
00000080: 314c 06be 3056 973e ffca fc3d 9d5e 2f3d
00000090: abab ea3d 2026 e53d 9639 633e 953c aabe
000000a0: d27c 5d3e b3ff 1cbd 0adf 763d e223 49be
000000b0: 935c a43e 6019 d83e e21d 81bd eae3 9c3d
000000c0: 3799 12be 3d63 b8be 8210 82be 73ff b93e
000000d0: df2f 83be 0b16 9f3c 822d cabd f871 47be
000000e0: d9a6 ec3e 0d3e ab3d 07fc 183d c4bc 6cbe
000000f0: 5bec db3d f435 673e f9e9 87bd 7bdb 173e

policy_net.8.weight f4 [4, 64]
-0.12666404 0.039452065 -0.32170212 0.107251644 0.15588538 0.12896332 0.0074372985 -0.06434662
-0.12340321 0.03581871 0.022422856 0.17372233 -0.07252373 0.2590332 0.06291768 0.09939298
-0.03534716 -0.054196242 -0.094781116 0.14669213 0.13679448 0.13317487 -0.00579067 0.08938587
-0.12207258 -0.12128772 0.066417515 0.09446659 -0.05208852 -0.15322694 -0.038132083 -0.002655852
0.029311167 0.009668789 -0.051483367 -0.09562519 0.0697143 0.04866399 0.009134382 0.001051677
0.10474941 -0.17537871 0.015700378 -0.067265354 -0.051936332 -0.07561964 0.12856656 0.022758778
-0.021870526 0.13888146 -0.07992434 -0.008377799 0.31313348 0.036133524 -0.1485802 -0.14969586
-0.15685646 0.067648016 0.06782263 -0.04431176 0.16982412 -0.086621635 0.00929625 -0.020346478
0.0507322 -0.038393915 0.29874358 -0.028522737 0.2108682 0.121166356 -0.02511014 -0.06647613
0.2824951 0.023211783 -0.044325948 -0.05857735 0.07249466 0.09733542 0.042806517 -0.19662867
0.010642547 -0.05395419 -0.10429814 -0.030457078 0.14824654 0.07161973 -0.044011183 0.08244868
-0.04455628 -0.08777087 0.047339015 0.042061117 -0.06611634 -0.10878572 -0.13119179 0.09301785
0.09370102 0.12328052 -0.11412962 0.057816155 -0.047524646 0.10262439 0.054734446 0.1406025
0.08229557 -0.05909549 0.17082159 -0.052532054 -0.13823904 -0.05120754 0.024065914 0.07155016
0.015328344 -0.11344582 -0.03501659 -0.08265724 0.1855179 0.070959225 -0.057690658 0.011058836
-0.13156171 -0.13905734 -0.09265272 -0.20187034 0.23918192 -0.045866515 0.21032086 0.06956263
0.10941548 0.011582348 -0.007332832 -0.06402283 -0.2460224 -0.06343468 -0.21137504 0.08547611
0.12719108 0.07937806 -0.14266843 -0.05716995 0.16177347 -0.035484735 -0.2032717 -0.023555603
-0.0758459 -0.11848549 0.011353612 -0.07647663 -0.3669687 0.002410812 -0.082392074 -0.026896933
0.14651048 0.16458985 0.1154704 0.12546882 0.14193101 0.123824924 -0.02387201 0.028418409
-0.1372842 -0.035068113 -0.0033952973 -0.07638095 0.22744225 -0.0688836 0.07585544 -0.30626628
-0.33733684 0.08720539 -0.05162406 0.15591075 0.14970894 0.27504775 -0.2444329 0.07056039
0.14071053 -0.056043595 -0.031049976 0.09716442 0.184537 -0.10856284 0.0687208 0.033273093
0.28271544 -0.00079328474 -0.0149519015 0.16069281 -0.3176574 0.10978228 -0.08314067 0.122376174
-0.087050095 -0.15208076 -0.042411197 -0.040897023 0.040519692 -0.0334304 0.10578695 -0.012702396
-0.10501297 0.124572955 0.009648113 -0.05462355 0.045516066 -0.0106649725 0.11515607 -0.055694513
-0.15638664 0.08169631 0.029191233 0.0325012 -0.09152112 0.008980116 -0.10605409 -0.019192846
-0.008440903 0.04238687 -0.03704697 -0.013471096 -0.06900021 -0.04627654 0.010717946 0.016730098
0.038829 0.0027280787 0.040698763 0.00598837 -0.011786893 0.008531883 -0.08399662 -0.00018892935
0.041588116 0.045067023 0.06264512 -0.08630858 -0.04650686 -0.049785253 0.017434074 -0.07136305
-0.018052591 -0.05000533 -0.074666545 -0.10893363 0.038318273 0.15980509 0.0050344625 0.08014181
-0.14197563 -0.032678034 -0.024333714 -0.08712134 0.08464069 -0.083936505 -0.21722677 0.08451496
00000000: 38b4 01be 7d98 213d 24b6 a4be c0a6 db3d
00000010: 6ba0 1f3e f60e 043e 95b4 f33b 29c8 83bd
00000020: d2ba fcbd a4b6 123d 23b0 b73c 44e4 313e
00000030: 5287 94bd 00a0 843e fcda 803d 8c8e cb3d
00000040: 2fc8 10bd e1fc 5dbd 9a1c c2bd 7636 163e
00000050: da13 0c3e fe5e 083e a9bf bdbb f00f b73d
00000060: 3001 fabd b265 f8bd e805 883d b377 c13d
00000070: c65a 55bd 86e7 1cbe 6330 1cbd cd0d 2ebb
00000080: f91d f03c d769 1e3c 39e0 52bd 24d7 c3bd
00000090: 5fc6 8e3d e453 473d 60a8 153c 6dd8 893a
000000a0: dc86 d63d 7a96 33be 149e 803c 6bc2 89bd
000000b0: 31bb 54bd 78de 9abd f4a6 033e 9e70 ba3c
000000c0: d129 b3bc f136 0e3e 5faf a3bd 0943 09bc
000000d0: 0853 a03e bf00 143d 6825 18be df49 19be
000000e0: fb9e 20be 0b8b 8a3d 97e6 8a3d 4080 35bd
000000f0: 60e6 2d3e af66 b1bd 4c4f 183c a8ad a6bc
00000100: 91cc 4f3d f042 1dbd ebf4 983e 84a8 e9bc
00000110: d5ed 573e 1126 f83d c8b3 cdbc a324 88bd
00000120: 33a3 903e a326 be3c 208f 35bd ceee 6fbd
00000130: 1578 943d cb57 c73d e355 2f3d 0759 49be
00000140: 145e 2e3c 12ff 5cbd 439a d5bd 1f81 f9bc
00000150: f1cd 173e 5dad 923d 1245 34bd dbda a83d
00000160: a580 36bd 37c1 b3bd 8ee6 413d 4748 2c3d
00000170: 0168 87bd 0ccb debd 2457 06be 2480 be3d
00000180: 52e6 bf3d 7f7a fc3d cabc e9bd a2d0 6c3d
00000190: 34a9 42bd bc2c d23d 3a31 603d 1afa 0f3e
000001a0: 948a a83d 1d0e 72bd dbeb 2e3e da2b 57bd
000001b0: 898e 0dbe ffbe 51bd e125 c53c e488 923d
000001c0: bc23 7b3c 4856 e8bd 8e6d 0fbd 3348 a9bd
000001d0: 68f8 3d3e 1253 913d 0a4d 6cbd 1f30 353c
000001e0: 1db8 06be 0c65 0ebe b6c0 bdbd 19b7 4ebe
000001f0: 1bec 743e 87de 3bbd 5a5e 573e da76 8e3d
00000200: 3915 e03d e3c3 3d3c 4148 f0bb 671e 83bd
00000210: 4ced 7bbe 0bea 81bd b372 58be 190e af3d
00000220: 613e 023e f790 a23d ac17 12be 0a2b 6abd
00000230: f2a7 253e 7158 11bd 7526 50be aef7 c0bc
00000240: 1855 9bbd 85a8 f2bd 8004 3a3c c89f 9cbd
00000250: 52e3 bbbe b7fe 1d3b 2dbd a8bd f556 dcbc
00000260: d806 163e 3e8a 283e bf7b ec3d e67a 003e
00000270: 5d56 113e ec97 fd3d 3c8f c3bc b9cd e83c
00000280: 3b94 0cbe 95a3 0fbd a383 5ebb 9e6d 9cbd
00000290: 9fe6 683e d812 8dbd 195a 9b3d efce 9cbe
000002a0: 6ab7 acbe bd98 b23d c073 53bd 11a7 1f3e
000002b0: 4d4d 193e 0fd3 8c3e 9e4c 7abe f781 903d
000002c0: 6c16 103e f88d 65bd 855c febc 24fe c63d
000002d0: 44f7 3c3e 3256 debd 7ebd 8c3d 5e49 083d
000002e0: 14c0 903e 70f4 4fba d2f8 74bc a88c 243e
000002f0: fea3 a2be 88d5 e03d a845 aabd 5ca0 fa3d
00000300: 5247 b2bd 0fbb 1bbe 5db7 2dbd a383 27bd
00000310: faf7 253d 51ee 08bd d4a6 d83d b61d 50bc
00000320: 0a11 d7bd 1b20 ff3d 1e13 1e3c f2bc 5fbd
00000330: 0e6f 3a3d 23bc 2ebc f2d6 eb3d ee1f 64bd
00000340: d223 20be 6550 a73d 7422 ef3c fa1f 053d
00000350: 6d6f bbbd 5621 133c e332 d9bd 513a 9dbc
00000360: b74b 0abc db9d 2d3d 90be 17bd dfb5 5cbc
00000370: fb4f 8dbd 788c 3dbd 539a 2f3c 8f0d 893c
00000380: 280b 1f3d 91c9 323b bfb3 263d 173a c43b
00000390: d01d 41bc 50c9 0b3c 6b06 acbd 561b 46b9
000003a0: 4d58 2a3d 3398 383d 164c 803d 8ec2 b0bd
000003b0: fa7d 3ebd 9feb 4bbd e7d1 8e3c ca26 92bd
000003c0: 07e3 93bc 64d2 4cbd c6ea 98bd 9818 dfbd
000003d0: 9ff3 1c3d f2a3 233e 22f8 a43b 6421 a43d
000003e0: 0f62 11be 67d9 05bd 7f57 c7bc ac6c b2bd
000003f0: 1958 ad3d e7e6 abbd b270 5ebe 2e16 ad3d

policy_net.8.bias f4 [4]
0.054177947 -0.02130543 0.102822706 0.20738024
00000000: b2e9 5d3d ba88 aebc b694 d23d 7c5b 543e

inverse_net.0.weight f4 [64, 48]
0.07974859 0.9372339 -0.44928637 0.15688752 -0.12463248 0.22402412 -0.21051058 0.30442664
0.09359367 0.3255003 -0.20378919 -0.20605402 -0.22028479 -0.038965896 -0.034893744 0.15250945
-0.08851912 -0.04416375 0.07481739 0.018686121 -0.029552918 -0.09010914 -0.06583797 -0.13493145
0.2013672 -0.29313213 -0.3441364 -1.4764868 0.040300645 0.042256776 -0.5749444 -0.47792342
-0.0272987 0.28939453 0.12671144 -0.112668276 0.10947749 -0.23505034 -0.034673426 0.08007464
-0.022769518 0.09150916 0.047212943 0.10921265 0.08168288 -0.033405557 -0.1196687 -0.003676406
0.040464696 0.7602643 0.40574107 0.20863628 0.09938315 -0.031644948 -0.025186908 -0.02129162
-0.0034123936 0.15342607 0.07685571 -0.09380803 0.01610975 -0.0058469423 -0.070750244 0.010878053
-0.033928666 -0.100095615 -0.0032079038 0.08586306 -0.125445 0.07918836 -0.16753235 0.21761286
-0.05467001 -1.7371961 -0.43867475 1.1469913 0.04332102 0.0052705077 0.027687654 -0.015316682
-0.0022697174 0.20984384 4.344069 0.009031924 -0.05120566 -0.0018267522 0.08301767 -0.07969526
-0.059773363 0.014308754 -0.041060008 -0.06412513 -0.058915764 -0.1715408 0.09205611 -0.040413246
0.35775298 -1.1315556 0.22441395 0.1083282 -0.32457256 0.25840393 -0.37233064 -0.11827088
0.019747952 -0.089156836 -0.31168857 0.1334293 -0.2842352 0.1393614 0.062818676 -0.07016631
-0.02547884 -0.052340746 -0.10603603 -0.089887224 -0.14611538 -0.18077794 -0.13548309 -0.056376025
0.27795273 0.63373995 -0.35683626 -2.4366925 -0.52701974 -0.33606565 -0.6213315 -0.16122845
-0.11095994 -0.083334565 0.06403097 0.1585384 -0.11564202 0.04312531 -0.19867499 0.048927963
0.04282452 -0.14660728 -0.13857351 -0.1863422 -0.010147636 -0.22472885 -0.16788378 0.06229369
-0.069907956 2.5073018 0.30311757 -0.6182697 0.20748183 -0.5478993 -0.2579501 -0.07431555
-0.043898094 0.11885441 -0.37933305 -0.07527361 0.05912555 0.15706445 -0.08246393 -0.08599605
-0.14785352 -0.02295951 0.072058655 -0.0027086965 -0.074627705 0.10574406 0.22784536 -0.044282578
-0.057464812 0.19371778 1.3356725 -0.38233247 0.22389424 0.58493644 -0.17629586 -0.38864908
-0.14702792 0.058081415 0.08281092 0.10087555 0.19497845 -0.0044466164 -0.1390312 -0.14397204
-0.10888561 -0.12919061 -0.07511178 0.011607684 -0.13550925 0.131163 0.28171334 -0.07956863
-0.45463043 -0.36743155 -1.6107875 1.0928164 0.15592004 -0.28566363 0.3395753 -0.28170103
0.06512065 -0.2420289 -0.13713638 0.17809804 -0.16106047 -0.08163954 -0.03340641 -0.0061079077
-0.14417624 0.026495358 -0.15128289 0.03700611 -0.021602118 -0.19905648 -0.19344638 0.11772635
-0.77917045 -2.7882042 -0.019143876 -1.7153652 0.09280995 0.49044287 0.45844647 0.45256764
-0.034834504 -0.32909378 -0.07575297 -0.05711313 -0.16332996 0.012968944 -0.05464188 -0.007000601
-0.121226594 -0.14148614 0.04860864 -0.03162102 -0.11436704 -0.13168652 -0.11390101 0.061124887
-0.16800974 -0.014011271 -0.8484184 -1.3468608 -0.072268255 0.34895122 0.13908635 0.25791425
-0.0800275 -0.37360036 -0.7735702 -0.43019938 0.10650773 -0.108953334 0.038495384 -0.014733671
00000000: 3b53 a33d 90ee 6f3f dd08 e6be 1fa7 203e
00000010: 503f ffbd 9466 653e 1690 57be cfdd 9b3e
00000020: 0aae bf3d faa7 a63e 1dae 50be d3ff 52be
00000030: 5692 61be b49a 1fbd beec 0ebd 702b 1c3e
00000040: 8349 b5bd 0ce5 34bd dc39 993d a313 993c
00000050: f618 f2bc 248b b8bd 0fd6 86bd 782b 0abe
00000060: 3433 4e3e 6a15 96be a532 b0be 85fd bcbf
00000070: 4a12 253d 7115 2d3d 8e2f 13bf 61b2 f4be
00000080: 86a1 dfbc 852b 943e a5c0 013e a0be e6bd
00000090: bc35 e03d 09b1 70be b905 0ebd 2cfe a33d
000000a0: 2487 babc 2869 bb3d 5c62 413d e2aa df3d
000000b0: 5b49 a73d 44d4 08bd dd14 f5bd dcef 70bb
000000c0: 4fbe 253d aea0 423f 4bbd cf3e c0a4 553e
000000d0: 6589 cb3d 229e 01bd c654 cebc c36b aebc
000000e0: 77a2 5fbb b91b 1d3e 8766 9d3d 6d1e c0bd
000000f0: 98f8 833c b597 bfbb 81e5 90bd dc39 323c
00000100: c9f8 0abd eefe ccbd b23b 52bb f9d8 af3d
00000110: a774 00be 822d a23d 9a8d 2bbe e8d5 5e3e
00000120: a9ed 5fbd 715c debf fa99 e0be 9cd0 923f
00000130: 6271 313d 39b4 ac3b 38d1 e23c d2f2 7abc
00000140: 8abf 14bb 4ee1 563e 9d02 8b40 a3fa 133c
00000150: 07bd 51bd a26f efba 2b05 aa3d 4537 a3bd
00000160: ead4 74bd 446f 6a3c 8a2e 28bd 0954 83bd
00000170: a851 71bd 64a8 2fbe ea87 bc3d 5c88 25bd
00000180: 662b b73e d0d6 90bf c5cc 653e 2ddb dd3d
00000190: 602e a6be 854d 843e 1fa2 bebe 0138 f2bd
000001a0: 75c6 a13c dc97 b6bd a595 9fbe b1a1 083e
000001b0: 4787 91be c1b4 0e3e 14a7 803d 5bb3 8fbd
000001c0: 00b9 d0bc 4063 56bd 6b29 d9bd cb16 b8bd
000001d0: 459f 15be da1d 39be 14bc 0abe 8cea 66bd
000001e0: d24f 8e3e c83c 223f 3eb3 b6be c5f2 1bc0
000001f0: c4ea 06bf cc10 acbe 950f 1fbf 1219 25be
00000200: f73e e3bd 50ab aabd ab22 833d e457 223e
00000210: b9d5 ecbd 2aa4 303d 7571 4bbe b068 483d
00000220: c468 2f3d 3820 16be 37e6 0dbe 7dd0 3ebe
00000230: 4542 26bc 521f 66be bae9 2bbe ab27 7f3d
00000240: e72b 8fbd a277 2040 3a32 9b3e ec46 1ebf
00000250: 1e76 543e 2143 0cbf 0912 84be c032 98bd
00000260: 7dce 33bd f169 f33d f137 c2be 0d29 9abd
00000270: a22d 723d 81d5 203e d9e2 a8bd b21e b0bd
00000280: ea66 17be 9515 bcbc 7d93 933d 6384 31bb
00000290: 69d6 98bd 5790 d83d 4b50 693e a661 35bd
000002a0: 3960 6bbd f45d 463e 51f7 aa3f 15c1 c3be
000002b0: 8844 653e 65be 153f e786 34be 03fd c6be
000002c0: 7d8e 16be c7e6 6d3d c698 a93d d797 ce3d
000002d0: 6ea8 473e ecb4 91bb 325e 0ebe 686d 13be
000002e0: 6bff debd 8b4a 04be 34d4 99bd 282e 3e3c
000002f0: f0c2 0abe 984f 063e bb3c 903e e1f4 a2bd
00000300: 52c5 e8be fd1f bcbe 492e cebf 68e1 8b3f
00000310: 81a9 1f3e 8142 92be d0dc ad3e 1e3b 90be
00000320: fa5d 853d 6dd6 77be 7b6d 0cbe 555f 363e
00000330: 09ed 24be a232 a7bd 29d5 08bd d824 c8bb
00000340: f0a2 13be cb0c d93c e7e9 1abe b893 173d
00000350: edf6 b0bc 76d5 4bbe cf16 46be 831a f13d
00000360: b777 47bf f071 32c0 9ed3 9cbc 1691 dbbf
00000370: 2513 be3d 541b fb3e 7fb9 ea3e f2b6 e73e
00000380: a0ae 0ebd fb7e a8be 6024 9bbd 75ef 69bd
00000390: f83f 27be b27b 543c 2ad0 5fbd 4c65 e5bb
000003a0: a645 f8bd bee1 10be da19 473d 0b85 01bd
000003b0: 4439 eabd d5d8 06be ef44 e9bd 175e 7a3d
000003c0: bf0a 2cbe 888f 65bc f331 59bf ef65 acbf
000003d0: 6101 94bd bca9 b23e a76c 0e3e 560d 843e
000003e0: 75e5 a3bd 8c48 bfbe b208 46bf 1843 dcbe
000003f0: ba20 da3d ed22 dfbd 56ad 1d3d 7f65 71bc

inverse_net.0.bias f4 [64]
-0.10098992 0.18437791 0.14922112 -0.06822292 0.10563204 -0.07658703 -0.02886617 -0.110926144
-0.17470102 0.03882606 -0.13008076 0.09867525 -0.087995574 -0.13775486 -0.046726953 -0.20166422
-0.17690128 0.20261876 0.032824576 -0.038596038 0.082269594 0.1633951 -0.1228531 0.01168434
-0.0123156775 -0.048104383 -0.05321161 -0.045838527 -0.044259857 -0.14175278 -0.25127858 -0.17036436
-0.050944407 0.08219623 -0.089621805 -0.21466996 -0.13543701 -0.035722602 -0.15290754 -0.078765094
0.03806088 -0.028503627 0.022207394 0.19628325 0.106144756 -0.034220483 0.029653182 -0.03556849
-0.018461999 -0.007878331 0.06338947 -0.1301182 0.05362627 -0.24562138 -0.14531599 0.11117134
-0.050047442 -0.1088382 -0.10090777 0.12874827 0.025577825 -0.09325151 0.13200925 -0.025843844
00000000: ced3 cebd 90cd 3c3e 6ccd 183e 75b8 8bbd
00000010: 9c55 d83d a9d9 9cbd bf78 ecbc 3f2d e3bd
00000020: d3e4 32be 1308 1f3d e433 05be 4016 ca3d
00000030: 0637 b4bd 9c0f 0dbe c364 3fbd 1181 4ebe
00000040: 9c25 35be 4b7b 4f3e 1073 063d e116 1ebd
00000050: f67c a83d 0c51 273e 689a fbbd ad6f 3f3c
00000060: b2c7 49bc 1a09 45bd 6bf4 59bd 2ec1 3bbd
00000070: d349 35bd a427 11be 96a7 80be ff73 2ebe
00000080: 15ab 50bd 7f56 a83d a38b b7bd 71d2 5bbe
00000090: 00b0 0abe dd51 12bd cb93 1cbe 984f a1bd
000000a0: bae5 1b3d 7080 e9bc 48ec b53c 7afe 483e
000000b0: 6c62 d93d c72a 0cbd 3beb f23c 44b0 11bd
000000c0: 9e3d 97bc 1d14 01bc 57d2 813d b53d 05be
000000d0: 38a7 5b3d 2c84 7bbe b7cd 14be cdad e33d
000000e0: 8cfe 4cbd 90e6 debd bca8 cebd 96d6 033e
000000f0: 9688 d13c a6fa bebd 6f2d 073e 78b6 d3bc
