IL/Model/model_reacher_56.pt (torch, 292527 bytes, 20 tensors)

policy_net.0.weight f4 [64, 24]
00000000: 9806 03bf c218 aebf adeb 9a3e 16e3 1c3e
00000010: baed 963e 14c8 3abe bc60 be3e 6316 59bd
00000020: c285 333e bff6 be3d 7f65 913c 4dd7 023c
00000030: 7433 c1bd dd4a 17bd d087 ba3e 7473 2f3e
00000040: e919 853e 34fd c13d ed2d adbe d52f 23bf
00000050: bffe fcbe e98b 89bd 6abb 673e 2f86 073d
00000060: df71 fb3d 9716 58bf 76b7 1abe b576 c53e
00000070: 28c9 8e3e f895 6c3e 6fd9 853f bfb9 bbbe
00000080: 1735 99bd 8c6e bfbe 8c2a af3e 665f 6e3c
00000090: f4f9 06bd a670 c5be f2ce 29bd 447b fabd
000000a0: 91c1 1fbe 2950 8ebe 21aa b6be 9089 4ebe
000000b0: 5a2f 9ebe 9f7a 153e ebe6 b2bd d4b3 d2bd
000000c0: 5d64 f53d 6879 6b3f 8830 debe fbb4 0540
000000d0: 4cd5 4abd ce91 c4bd 78e5 583c 3162 c73d
000000e0: 3fe4 0d3f b10b a8bd 8a77 eb3d fa9c 71bd
000000f0: 6475 d63e d41e bd3e 68f1 5fbd d79d f3bd
00000100: 9de4 e1bd 58c5 59be 8be2 073d 9c90 b33c
00000110: 81af 7a3d 1571 423e a82c 02be dbcf 73be
00000120: 6cc5 f13e 04f6 2d3f 7b1e e8be 76f3 bfbf
00000130: a413 ba3e bb41 313e 95d2 ad3e 5d4a d83d
00000140: 85d6 b8bd d2a1 0e3e 6aa8 0bbe 8931 31bf
00000150: 59d2 65bd bcb5 81bc 85bb 203c c108 83bd
00000160: 1326 cabd eda7 5ebd 70cd fdbd 1083 cebe
00000170: af8d f3bd 9309 83be 0430 c6bd b7a7 be3d
00000180: f644 c1bd da2e 783e 60de 3abe 1a65 a33e
00000190: f97b f9b9 fd3f 233e cba9 8a3d 66a0 b33d
000001a0: e2a8 42bc 413d 40be 39e8 50be aa76 033f
000001b0: 91a8 20bf 5dc4 f03a e4c3 603e 30cf 1e3e
000001c0: 7f7a c53e e5c3 a63e 59cf 353e 5dfe 803e
000001d0: a0e7 b5bd 6e5a 44be 2b10 38be 300e 84bd
000001e0: 45f4 c9be 302d 26bf f3f8 c53e bee9 f5bf
000001f0: 3025 3bbe 6157 14be 0d37 963e 3354 75be
00000200: 8d5c 61bf cc83 903e 07c0 92be 9a64 d1bd
00000210: 5bb6 7bbd 622b 54be 1c57 1c3e 4b29 223e
00000220: b01f 4c3e 0aa0 193e 9dc7 9f3e af0e af3e
00000230: 9144 253e 2aae 913d ac79 0fbe 7b30 da3c
00000240: 56ec a6be b836 6540 5227 453e f6e1 3fbf
00000250: 0170 c0be c10e db3e 67b3 e2be 1cc1 6e3e
00000260: 05fd 0d3e 2937 dbbb acdc 8b3e 8e04 0dbe
00000270: 4186 853d 1b0d 053e 574e 9f3d 7eef f1bd
00000280: 87ab 3b3e 1349 683e fcb6 523d 1a0a 9f3e
00000290: b986 413e c0e6 f6bd 6fb2 b7be db86 32be
000002a0: ae82 91bb df25 033f 71ac 383f 05dd c63f
000002b0: 7e16 3ebe 317d 803e 3011 1d3e 7c4b 06be
000002c0: 90f8 213e f309 ccbe b948 613c 0c3f aa3e
000002d0: 715c 8abe a6cc a1bc f20c 59be dcbc 3abd
000002e0: 16ff 09be 8c9d 263e 7304 5dbd 5631 66bd
000002f0: c06e 063e 2b1d 62be ec9b 373c 85e7 af3d
00000300: 7dd7 673f 83c9 0d3e ac26 09bf 60b2 eebe
00000310: e130 d3bd 9a60 913e 0a23 6fbe 63bb 2a3e
00000320: 5fd8 893d cda6 a53e b04a e0bc bd73 c73d
00000330: 3e0f 833d a192 da3d 21b5 44be 0563 62bd
00000340: ca57 d6bd 3bd1 55be fba6 a93d dd41 f7bd
00000350: 493d c93c e4da c03d b3b8 83bd 9818 613e
00000360: b108 843e 77cf c63f 2d06 453e e950 c3bf
00000370: 57c2 d5be cfe7 833e 21b0 3bbe 0ade 9f3d
00000380: 8321 173d 87fb d93e a1c6 063f d912 85be
00000390: 8ac7 0ebe 1f60 9abe 01b1 a53e 9424 733e
000003a0: f1af 4f3e 4d7c 853d 8f60 153e cead 71be
000003b0: b2dc d6be a157 9abe b57d c0bd 0df8 6f3d
000003c0: 6992 213f 1c8e e13f 7ad2 b23e b18a 88bf
000003d0: cbe9 963e bdbc 4f3e 70f0 0fbf 9b89 01bd
000003e0: f60c 87be 1fb4 003f 9a89 b13e a571 3bbd
000003f0: be4f 3c3e 1749 5c3e 6ba5 d4be 29a5 dcbe
-0.51181936 -1.3601305 0.3025793 0.15321001 0.29478246 -0.18240386 0.37183177 -0.052999865
0.17531493 0.09324407 0.017748592 0.007985902 -0.09433642 -0.03693663 0.36431742 0.17133886
0.2599633 0.09472123 -0.338241 -0.6374486 -0.49413106 -0.06716139 0.22630087 0.03308695
0.122775786 -0.8440947 -0.15109047 0.3856713 0.27887845 0.23104084 1.045698 -0.3666515
-0.07480829 -0.37389028 0.34212148 0.014549112 -0.032953218 -0.38562506 -0.041457124 -0.12230542
-0.15601183 -0.27795532 -0.35676673 -0.20169663 -0.308955 0.14597557 -0.0873545 -0.10288206
0.119820334 0.91982126 -0.433964 2.0891712 -0.049519822 -0.095981225 0.013238303 0.097355254
0.554264 -0.08205355 0.1149741 -0.058987595 0.41886437 0.36937582 -0.054673582 -0.1189534
-0.11029933 -0.21266687 0.033175033 0.021919541 0.06120253 0.1898845 -0.12712348 -0.2380976
0.47220933 0.67953515 -0.45335755 -1.4996173 0.3634311 0.1731023 0.33949724 0.10561059
-0.09025291 0.13928917 -0.13638464 -0.6921621 -0.056108806 -0.015833728 0.009810333 -0.06398154
-0.09870543 -0.054359365 -0.123927 -0.40334368 -0.118922584 -0.25593242 -0.09677127 0.09309333
-0.094369814 0.24236622 -0.18248892 0.31913072 -0.00047585348 0.15942378 0.06770667 0.08770828
-0.011881085 -0.18773367 -0.20401086 0.5135294 -0.6275721 0.0018369068 0.21949726 0.15508723
0.3857002 0.3257133 0.17754878 0.25194064 -0.088820696 -0.19175121 -0.17974918 -0.064480186
-0.39444175 -0.649127 0.38666496 -1.9211957 -0.18275905 -0.14486457 0.29338875 -0.239579
-0.88031846 0.28225553 -0.2866213 -0.10224266 -0.061453205 -0.20719674 0.15267605 0.15836065
0.19933963 0.15002456 0.3120698 0.3419089 0.16139437 0.07113297 -0.14011258 0.026634445
-0.32602185 3.5814648 0.19253281 -0.74954164 -0.37585452 0.42784694 -0.44277498 0.23315853
0.1386605 -0.006689925 0.27316797 -0.13771269 0.065197475 0.1299328 0.07778614 -0.11813258
0.18327151 0.22684126 0.05144404 0.31062394 0.18899049 -0.12055731 -0.35878322 -0.17434256
-0.004440627 0.5122966 0.72138125 1.55362 -0.18563268 0.25095513 0.15338588 -0.13114733
0.15817475 -0.3985134 0.013750249 0.33251226 -0.27023652 -0.019750904 -0.21196344 -0.045590267
-0.13476214 0.16271037 -0.05395932 -0.056199394 0.13128185 -0.22081439 0.011206608 0.08589081
0.90563184 0.13846402 -0.53574634 -0.46620464 -0.10312057 0.28394014 -0.2335321 0.16673045
0.06730723 0.3235382 -0.027379364 0.09738872 0.063993916 0.106724985 -0.1920972 -0.055270214
-0.10465963 -0.20880596 0.08283802 -0.12073109 0.024565356 0.0941675 -0.06431713 0.21982038
0.2578788 1.5532063 0.19240637 -1.5259067 -0.41749832 0.25762793 -0.18328907 0.078060225
0.036897194 0.42574713 0.52646834 -0.25990942 -0.13943306 -0.3015146 0.32361606 0.23744422
0.2028196 0.06517849 0.14587615 -0.23601457 -0.41965252 -0.3014498 -0.09398977 0.05858617
0.6311403 1.7621493 0.34926206 -1.0667325 0.29475245 0.20286842 -0.56226254 -0.03162537
-0.26377076 0.5027484 0.34675294 -0.045762677 0.18389794 0.21512257 -0.41532454 -0.43094757

policy_net.0.bias f4 [64]
00000000: 3a9a a5bd cd77 96bd 699d 81be 09f0 76bc
00000010: 6499 0e3e dc22 8cbe 0006 fd3d b737 59bc
00000020: bf9d 2a3e 9952 2b3e d543 d5bd 94a6 133d
00000030: cb47 a8be 7fc6 a8be b787 883e 9590 b03d
00000040: f5ca 103e 32a8 8a3e ba17 c93d 4044 1ebe
00000050: 90f1 133d 4777 27bd 1cb9 5cbe 3a32 ad3d
00000060: c62f 27bd efb1 033d 1dd7 6b3e dc04 723d
00000070: a4ca 2b3e 1616 043d dd44 f2bd 80e8 a5bd
00000080: ff59 d13d d40b 783e d27a d8bd 93f1 9fbd
00000090: 7d14 d0bc 3a48 d23c acfe 02be 4d56 6f3e
000000a0: d960 b73d d643 8dbe 696a 6e3d f203 05bc
000000b0: da30 3ebe 1d9e 69be 6a68 943e 2bf2 8bbc
000000c0: 9744 adbb 9393 2f3e b99a 1e3e 90d0 bcbc
000000d0: 77ed 0e3e 25a2 763e 6e51 d93c fddd 8c3e
000000e0: fdf1 56be 22d7 67bb 3a62 0fbe c359 2a3e
000000f0: f971 593e 7630 6cbe 28b6 1fbe f040 45bd
-0.08086057 -0.07347069 -0.25315407 -0.015071877 0.13925701 -0.27370346 0.1235466 -0.013257912
0.16661738 0.16730727 -0.104133286 0.036047533 -0.32867274 -0.3296394 0.26666042 0.08621327
0.14139922 0.27081448 0.098189786 -0.15455723 0.036119044 -0.040885236 -0.21554989 0.084568456
-0.040817045 0.032152113 0.23031278 0.059086666 0.1677652 0.032247625 -0.11829541 -0.081009865
0.102222435 0.24223262 -0.10570301 -0.078097485 -0.025400395 0.025669206 -0.12792462 0.23372765
0.08954019 -0.27590817 0.05820695 -0.008118616 -0.18573323 -0.22814222 0.28985912 -0.017083248
-0.0052877176 0.17146139 0.1548871 -0.02304867 0.13957773 0.2408529 0.026528087 0.27513114
-0.20990749 -0.0035376032 -0.14002314 0.16635804 0.21234883 -0.23065361 -0.15596831 -0.048157632

policy_net.2.weight f4 [128, 64]
00000000: 440a 5dbe bfa6 9c3d 4efe a7be d16d 72be
00000010: 7075 9d3d 1c46 943e 573d 0d3d 4dff 583e
00000020: 585f ba3d f2fa e03d c3be 84bd f91a 0cbf
00000030: 1cc8 3b3e 5171 c6bd b2b9 363e dc2a f53e
00000040: d51f 74be eb09 55bd 854e 21be fd20 003d
00000050: 7d23 03be 3033 0dbe 763e 333e 9ab2 c13e
00000060: 17a8 593e 98d8 bbbe e68c bbbe d392 093f
00000070: 9bc4 163d ddfb 1d3e e3d8 0cbf 28c4 13be
00000080: 79cf a8be bd83 663d 087b ebbd a07a 1ebe
00000090: 8e8e e63d f2d9 483e 4eb4 8ebe f6e7 91be
000000a0: 26d8 593d 539d 3dbf 1fb7 2cbe 81fd 723f
000000b0: f53c 13be 4993 d33d 284d 6f3d 8359 b83c
000000c0: bde5 ea3d 9a91 17bf 8ab5 81bd 13ed de3d
000000d0: 34d3 83bd c74a 91be c1cf 8b3e 9255 a13c
000000e0: f253 d1bd 420c c83c bf6f 8b3e 4bae 2a3d
000000f0: 4676 52be 6704 f2bd 2552 f53d e2ab 3e3b
00000100: 2091 ffbe f8b2 993e 367f 903e c22a 0c3e
00000110: 832c e9bf 20c8 8ebd d8f4 543e 55d0 0ebf
00000120: 5710 a03c c29c 78bc d5d6 febc 1a65 c2bd
00000130: 2d9e 073e 0987 553e cba4 c93d bebb ff3d
00000140: 1d0d 37be 5d2a 023e f369 493e fce0 7ebe
00000150: 827c a23d 12c5 4c3e eeb9 7cbe 9fc3 43bf
00000160: 38cb 08be 2c83 d63d adba a13e b6e0 983e
00000170: e227 e73d aa37 79bd 227a 9f3d a11a 50bb
00000180: 4541 05bf 6bde 1ebe 2c9e d1bd f5c1 0d3e
00000190: 6aef 753e b9bb bf3e a856 62bd d663 99be
000001a0: 954b 04bf 3540 debd 46ff 523d 1c35 26bf
000001b0: 2462 3e3e 37d9 213e 6c96 933d c2d7 373e
000001c0: a6c6 e03e 5c36 103e 1fd1 f5be 46b2 0bbc
000001d0: 5d02 cf3e a66d c6be 5cd0 033d 2dd1 b43d
000001e0: f0ee 013b c6dc 80be 1d2f 17be c6f4 39bd
000001f0: 6d90 413e 67fc 293e 1477 34bd 910f 813d
00000200: b32d 60be 30d5 9dbd ff03 e2be d578 8d3e
00000210: d843 f23d 4c22 ba3e 4e3e 423d d2fb b23d
00000220: 8cb0 013e 6771 703e d296 853c b52b e9bb
00000230: c10d 65be eca2 45bf 4cb5 2ebd afe7 b6be
00000240: f13d 3fbe d53d 873e 746b 083f 9971 a1be
00000250: fb07 df3d eec5 77bd bc0c 28bd be7a d3be
00000260: 727c a5be c8e5 ea3e f87a f7bc 188e df3d
00000270: 38b8 a53e a0c1 19be 55cd 00be 5938 5f3e
00000280: 987b 493e 5d2f 14bc 9ea1 7fbe 7f4d ed3d
00000290: d388 8abc eebe e6be 2e43 983e 734b 0d3f
000002a0: 443b 913d 1eb9 05bf 355c 42be 099b cbbd
000002b0: 5a4a 0cbe bbe0 133e 18e5 7ebd e368 f03d
000002c0: 8387 adbd 0409 ae3d a77f 663e 82a8 bdbe
000002d0: 2e22 6a3e 53ff f2bd 0c9e 0ebe ba46 2b3e
000002e0: 7a56 0bbf 2183 a3bd 8112 39bf 0c98 e63d
000002f0: 0d64 8f3e c357 bbbe b463 21be 9b49 00bf
00000300: d6e5 dbbe 1753 c63e 2f8a e4be ad0e 6dbd
00000310: 0cdc 5dbe 80ac 5bbd c07e e3be 7f98 e93d
00000320: dfda b03d c1c9 da3e a9fc 923e 7df1 41be
00000330: 5134 7dbe e002 c43c 7bb8 9b3d 9996 8bbd
00000340: f70e fd3c 1610 4f3e de33 01be 6c7e 08bf
00000350: 094e ed3d ab8f cdbd 769b 54bc d08f 11be
00000360: 3978 e3be 84e4 4f3e 63db 02be 0dd2 05be
00000370: 018c 84be 2267 dbbc efba 9dbe 914c 20bf
00000380: a545 1d3f 22db 4e3e 0ed2 04be 8b86 1e3e
00000390: 421c 94be b701 2c3c aec7 433e 811e f9be
000003a0: 5087 c5bc c6e0 fcbe 4595 933d 2db0 f7be
000003b0: 0f02 c7bd 9477 6dbf 8d18 fbbe 9d59 413e
000003c0: db8a 14bf 87f8 8bbe 875d 0f3f 6c77 e4be
000003d0: 2d25 953e cd2b a33e 0356 9e3e e7c9 e03e
000003e0: 3316 94be 2468 c4be 73c5 25be 8f02 05bf
000003f0: 8b68 84be 3dfa 08be 8a96 4f3d 7555 813e
-0.21585947 0.07648992 -0.32811207 -0.23674704 0.07688415 0.2895974 0.034482326 0.2119114
0.091002166 0.10985364 -0.064816974 -0.54728657 0.18338054 -0.09689582 0.17844275 0.47884262
-0.23840268 -0.05201141 -0.15752609 0.03128146 -0.12806506 -0.13789058 0.17504296 0.37831575
0.21255527 -0.36688685 -0.36630934 0.5373966 0.03680859 0.1542811 -0.5501844 -0.14430296
-0.3297079 0.05627798 -0.11498076 -0.15476465 0.11257659 0.1961439 -0.27871937 -0.28497285
0.05318465 -0.7406818 -0.1686673 0.94918066 -0.14378722 0.10330827 0.05842319 0.02250362
0.114696 -0.59206545 -0.06333454 0.10885062 -0.06436768 -0.28377363 0.2730694 0.019694123
-0.102210894 0.024419907 0.27233693 0.041670125 -0.2055293 -0.11817246 0.119785585 0.002909415
-0.4991541 0.30019355 0.28222054 0.13688186 -1.8216709 -0.069717646 0.20796525 -0.5578664
0.019539041 -0.015174093 -0.0311083 -0.0949194 0.13243933 0.20852293 0.09845885 0.12486981
-0.17876096 0.12711473 0.19669323 -0.24890512 0.07933904 0.19997051 -0.24680302 -0.7647037
-0.13358772 0.10474238 0.31587735 0.2985894 0.11286904 -0.0608441 0.07786967 -0.0031754153
-0.5205272 -0.15514533 -0.10235247 0.1384352 0.2401711 0.3744791 -0.055258423 -0.2995898
-0.5167783 -0.1085209 0.05151298 -0.6492479 0.18592125 0.15805517 0.07206425 0.17953399
0.43901557 0.14083236 -0.4801111 -0.00852639 0.4043149 -0.3875553 0.03218113 0.088289596
0.0019826256 -0.25168437 -0.14764066 -0.04539945 0.1890275 0.1660019 -0.044058874 0.06301797
-0.21892433 -0.07706678 -0.44143674 0.2763125 0.118293464 0.3635429 0.0474227 0.08739437
0.12665004 0.2348076 0.016307268 -0.007115806 -0.22368528 -0.77201724 -0.042653367 -0.35723636
-0.18675973 0.26414362 0.5328896 -0.3153198 0.10890194 -0.060491495 -0.04102777 -0.41304582
-0.32321507 0.45878434 -0.030210003 0.10915774 0.3236711 -0.15015268 -0.12578328 0.21798839
0.19676054 -0.009044495 -0.24963996 0.11587047 -0.016910946 -0.45067543 0.29738754 0.5519325
0.07091382 -0.5223559 -0.18980487 -0.0994168 -0.13700238 0.14441197 -0.0622302 0.117387556
-0.084731124 0.08497813 0.22509633 -0.37042624 0.22864601 -0.118651055 -0.13927478 0.16726199
-0.5442883 -0.07983995 -0.7229386 0.112594694 0.2800602 -0.36590394 -0.1576069 -0.50112313
-0.42948788 0.38735268 -0.44636676 -0.057875324 -0.21665972 -0.053631306 -0.4443264 0.114060394
0.08635496 0.4273205 0.2870839 -0.18939777 -0.24726988 0.023927152 0.07603546 -0.068158336
0.030890925 0.2022098 -0.12617442 -0.53317904 0.1158715 -0.10037168 -0.012976518 -0.14215016
-0.4442766 0.20302016 -0.12779002 -0.1306841 -0.25888065 -0.026782576 -0.30806682 -0.6261683
0.61434394 0.2020078 -0.12970755 0.15481012 -0.2892781 0.010498456 0.1911914 -0.48656085
-0.024112374 -0.4939024 0.07206205 -0.483766 -0.097171895 -0.92760587 -0.49042168 0.18881841
-0.58024377 -0.2733805 0.56002086 -0.44622362 0.29129925 0.31869355 0.30924997 0.4390404
-0.28923187 -0.38360703 -0.16188602 -0.5195703 -0.2586101 -0.13376708 0.050680675 0.2526051

policy_net.2.bias f4 [128]
00000000: d364 ab3d 324d babd 7ee5 173e 00ee b53c
00000010: 63bd babb 73db a83d 6a57 0bbd 2cec b4bd
00000020: 1f2f c93c 3112 1c3e dfd3 59be daff 713a
00000030: 536f 96bd a332 05be 418c c83d bf2e 8c3d
00000040: dd6c 703d 1467 79be 9550 ab3d 771c 4c3e
00000050: ecf9 85be 7ac4 5b3c 8168 3ebe 2f3f eabd
00000060: db38 b0bc 6366 edbd 31c9 043d 7087 a33c
00000070: bac2 97bb 7676 edbc 4cc0 5fbd 046f 96bd
00000080: bbce 0cbb cd3d 0a3d ca30 77be 47ee 77be
00000090: d34e 47be b373 4b3e b573 a63e ffb6 153e
000000a0: 7a67 d4bd 8d08 8bbe 6306 973d 0080 8b3d
000000b0: 103b 68be 33d8 cabd 8f27 173d 71f3 7f3c
000000c0: 7771 1e3e 582b 8fbe 07a7 84be 4f29 613e
000000d0: 9a3c b6bd 7f39 283e e4c3 383b 7f37 0c3b
000000e0: ed5a 153e 19e3 a13c 1015 f23b bc4e 9b3c
000000f0: 8e3f 2ebe 6cb3 c9bd 9905 023e 4b00 56be
00000100: cd20 f8bd 0254 62bd f4e2 b8bd 74b5 39be
00000110: 1f16 6c3d 592c a63c d594 4cbe 3594 25be
00000120: db92 323e 3cb4 85bc 6bb2 493e 6273 3f3e
00000130: e26b e3bb 2163 14be 8ed6 cf3d 88a0 e23c
00000140: 9efe 1fba 0e8e eebc 10d4 b4bc 7174 3f3d
00000150: c4f8 413c b85a 42bd a894 4d3c 64f7 85bc
00000160: 16eb 113e 48de 483e 9773 813d ee13 63bc
00000170: 9561 5ebe f99e cf3c 1855 b3bd bc73 cfbd
00000180: 43ff 41be 25ba 2abe ff28 1cbe a136 babe
00000190: eee3 043d 3271 dfbd 2ace 8dbd 55ef 1f3d
000001a0: bf68 98bc 56aa 79be 0655 d83b c973 093d
000001b0: 9dee 68be f147 e63c fc9d dabd b02d 673b
000001c0: 1b53 d8bd c9f0 893d 6e8c 443d 4d7c 77bd
000001d0: 70d1 8cbd 750d eb3d 8e84 79be a964 efbd
000001e0: 2cad 113d d735 7a3d 1572 3cbe 1dbc a03e
000001f0: 98c8 99bd f2e8 013d 915b 013e 8b86 d7bc
0.0836884 -0.09096755 0.14833638 0.022208214 -0.005698846 0.082449816 -0.03401891 -0.08834109
0.024558602 0.15241314 -0.21272229 0.0009231545 -0.07345452 -0.13007598 0.09792376 0.068448536
0.05869757 -0.24355727 0.08364979 0.19932733 -0.26167238 0.013413543 -0.18594553 -0.114378326
-0.021511486 -0.11591794 0.032418434 0.019962043 -0.0046313675 -0.02898715 -0.054626748 -0.07345393
-0.0021485526 0.033750344 -0.24139705 -0.2421199 -0.19463663 0.19868354 0.32510152 0.14620589
-0.10371299 -0.2715496 0.07374265 0.068115234 -0.2267878 -0.09904518 0.03690296 0.015622006
0.15472971 -0.27962756 -0.25908682 0.21988414 -0.088982776 0.16428183 0.0028192932 0.0021395383
0.14585467 0.019761609 0.0073877648 0.018958442 -0.17016432 -0.09848675 0.12697448 -0.2089855
-0.12115631 -0.055255897 -0.09027663 -0.18135625 0.057638284 0.020284818 -0.1997865 -0.16169818
0.17438833 -0.016321294 0.19696967 0.18696359 -0.006940351 -0.1449094 0.10148345 0.027664438
-0.00061033096 -0.029120471 -0.022073776 0.046741907 0.0118390955 -0.047449797 0.012547649 -0.016353317
0.14249834 0.19616044 0.06320875 -0.013859732 -0.21716912 0.025344359 -0.08756465 -0.101294965
-0.18945031 -0.16672571 -0.15250014 -0.36369804 0.032443933 -0.10910262 -0.06924088 0.039046604
-0.018604634 -0.24381384 0.0066019325 0.033557687 -0.22747274 0.028110476 -0.106746644 0.0035275035
-0.10562726 0.06735379 0.047985487 -0.060421277 -0.068758845 0.11477176 -0.24366972 -0.11689121
0.03556554 0.061086502 -0.18402894 0.3139352 -0.07508963 0.031716295 0.12632586 -0.026309272

policy_net.4.weight f4 [128, 128]
00000000: c0f7 cfbd 8596 383e a4b1 043e a12b d83b
00000010: 425c 7abd e3c6 4e3e 8672 8cbd 8cee 8c3e
00000020: 3d14 e9be a65f 3a3d 2a04 7abd 21f7 b83d
00000030: e85d 163d c156 063e e9c7 1b3f 3d7c c7be
00000040: 4a9f 69be 98fd a23e 894d 9b3e a619 e9be
00000050: 6627 ce3e 34a9 5d3d 59ff 633e a423 24be
00000060: c583 84bd aae3 66bd 60a2 58bf 0c1f d53e
00000070: e6ae 16bd 7f33 54be 46fe 00bf d134 8cbe
00000080: 86c7 4d3d 899a 253c 9d90 f03e 300d 22bf
00000090: 8552 eabc 4d5e a4be 1b17 8bbe 5247 b2bd
000000a0: 67ed 823e 474a 5b3d 5557 323e a2de 2b3e
000000b0: a16b adbe 5019 9abf ab9f 29be 664a b7be
000000c0: 13c8 8d3e cecf 0f3f 0a65 c33e bc68 503e
000000d0: 2318 bf3e e8c1 a8be 1159 c0be 5063 cfbd
000000e0: 0a91 aa3b 4aaa f4be 0cfd a9be 7570 73be
000000f0: 5023 953d 0b52 893e c583 81bf 30f9 09bd
00000100: 273d 35bd b352 833e c2da 4fbe 448f c73a
00000110: 4f8f 12be 6534 e6be 2ea6 8fbe 71cc ccbe
00000120: 9076 6dbe 61e2 8cbd 85ea e5bd d65f dcbd
00000130: efd0 dabd 825d 37be 7d61 a43e 0ffe 96be
00000140: a8ab a13e 885d 573e 2d92 8d3e 6be6 e3bd
00000150: 2f00 9fbe 3d9c b03e dfab e2bd 9b10 af3e
00000160: 7085 50bd bc68 e7be c939 123e a2c4 eabd
00000170: 531a bebc 0440 c13e 3144 97be 243c f13e
00000180: 4848 3dbe 6b23 443e 134d c8bd 84c2 40be
00000190: 70b3 223e 471d 4cbd 6f12 bd3c ec02 983e
000001a0: 84e6 abbd 668e 0abf 9be5 b63e 24a0 4b3e
000001b0: c6a6 003e acff 9dbe e625 7a3d d324 c1bd
000001c0: 9b15 60be 5a72 a13d 3004 53be 8adc d8be
000001d0: 3723 e1bd 8b7b 54be b1e4 c93d 1653 c43d
000001e0: f114 683e aa64 83be 79dc f3be 0774 f1be
000001f0: 1b69 ba3d b54d f63e 4a00 db3c c28b 403c
00000200: 283a 2a3d 86f2 e6bd c853 4dbf 7492 a2be
00000210: f59a 98be a40c 6e3c 84e4 20be 6c09 083e
00000220: bea3 adbe 2aa4 1ebf 4392 24be c6a6 eb3d
00000230: d063 04bf cd98 bb3c 626d 233f ddfc 5d3e
00000240: 8344 2dbf 2e3c ac3c 18e6 3fbe 3001 2f3d
00000250: d497 48be b760 dfbe bd95 5abe 0c3f fbbd
00000260: 1c3e aebe 70f2 413d c07f bbbd 03c8 0fbf
00000270: 0cc1 73be 6919 003e 63a3 04be 4b3d 0f3e
00000280: 628b dcbd fa7f c7bd c4e3 8dbd 169b 5ebf
00000290: 86a4 b2bc da6c 93bd dec2 0e3e 9fe0 ad3e
000002a0: 3693 333e e921 b3be 89d6 a13d 1402 c9bd
000002b0: 113e 00be 5a80 d1be 9d86 9dbd c800 5bbe
000002c0: 98e0 3ebf 1a08 5e3e 6f3f cc3e e2ea 66bf
000002d0: 2657 44be f744 b5bc 5ff4 1bbe c47e c03e
000002e0: f05e 5e3e d8d7 9c3b 8243 c63d fea9 7a3d
000002f0: 1a38 64bf ab4a c0be 687a 35be 7cfa 4fbe
00000300: 96dc 07bf 04a0 bf3c 8aab 573d 8352 243e
00000310: 463b 45be 9673 ccbe 11d4 bebe 7649 0f3e
00000320: e664 a6be 2d2f 30bb 64b0 1bbe e23e ac3e
00000330: b530 813e c38d bb3d 2035 1dbe c849 983e
00000340: 292e 54be 01ed 93be 8e72 a7be abb3 883e
00000350: e814 90be df2b 51bc 7969 1bbd 4f40 a13e
00000360: 3217 75be d5eb 2a3b b699 64be fbf3 a33d
00000370: 8eab 8e3e c457 a4be dca4 0f3e 8a90 10bf
00000380: 9767 0bbf 99de d5be 40f5 e23e d32e 9dbd
00000390: 3f46 ddbe c0df 163e e970 513c e527 babd
000003a0: 67c2 513e 1918 0d3e 35bd 503e 2f04 2dbd
000003b0: fcba 6b3e f2a7 893e 7246 94be e8cf b1bd
000003c0: a718 a2bd 0b5b a1be 115e 8c3e 0008 a73e
000003d0: 2c0f a5be d717 753d 036d d83d 3710 b4bd
000003e0: 0ea7 bb3d d960 99b7 39f9 3b3e 2d0d 80be
000003f0: a57f 15be 07ea 24be d7bd 31bf ec39 183e
-0.101546764 0.18026169 0.1295839 0.006596998 -0.06112314 0.20193057 -0.06857781 0.27525747
-0.45523253 0.045501374 -0.061039127 0.09031511 0.03671065 0.13119031 0.60851914 -0.38961974
-0.2281467 0.31834102 0.30332592 -0.4552738 0.40264434 0.054116443 0.22265376 -0.16029221
-0.064704455 -0.05636946 -0.84622765 0.4162525 -0.03678789 -0.20722769 -0.5038799 -0.27384046
0.05023911 0.010107645 0.4698533 -0.6330137 -0.028603802 -0.32103196 -0.27166066 -0.087050095
0.2557175 0.053537633 0.17416127 0.16784146 -0.33871177 -1.2038975 -0.16564815 -0.3579895
0.27691707 0.5617646 0.38163024 0.20352453 0.37323102 -0.3296044 -0.37567952 -0.10126364
0.0052052783 -0.4778617 -0.33200872 -0.23773368 0.07282126 0.26820406 -1.0118338 -0.03368491
-0.044247773 0.25649032 -0.20298293 0.0015225192 -0.1431248 -0.4496185 -0.28056473 -0.39999726
-0.23189759 -0.06879116 -0.11226372 -0.10760467 -0.10684382 -0.17906764 0.32105628 -0.29490706
0.31576276 0.21031773 0.27650586 -0.11127933 -0.31054828 0.344942 -0.11067938 0.34192356
-0.050908506 -0.45197093 0.14279856 -0.11463286 -0.023205912 0.37744153 -0.29544213 0.47116196
-0.18484604 0.19154136 -0.09780326 -0.18824202 0.15888762 -0.04983261 0.023080079 0.2968973
-0.08393577 -0.5412353 0.3572205 0.19885308 0.12563619 -0.30859125 0.0610713 -0.09430852
-0.21883242 0.07883139 -0.20607066 -0.42355758 -0.10993045 -0.20750253 0.098580725 0.0958616
0.22664239 -0.25662738 -0.47629145 -0.47158834 0.091020785 0.4810616 0.026733536 0.011752071
0.04155937 -0.112767264 -0.80205965 -0.3175236 -0.29805723 0.014529381 -0.15712172 0.13284844
-0.33913988 -0.61969244 -0.1607142 0.11506419 -0.517148 0.02290001 0.6383878 0.21678491
-0.67682666 0.02102479 -0.18740118 0.042725742 -0.19589168 -0.43628475 -0.21346183 -0.122678846
-0.3403176 0.047350347 -0.09155226 -0.5616457 -0.2380411 0.12509693 -0.12952952 0.13988225
-0.10768773 -0.097412065 -0.069282085 -0.8695539 -0.021806967 -0.07198496 0.13941523 0.33960435
0.17536625 -0.3498681 0.079022475 -0.098148495 -0.12523676 -0.40918237 -0.07691691 -0.21387017
-0.7456145 0.21682778 0.39892146 -0.9020215 -0.1917387 -0.022127612 -0.15229939 0.37596714
0.21715903 0.004786473 0.09680845 0.061197273 -0.89148104 -0.37556967 -0.17722476 -0.20310396
-0.5307096 0.023391731 0.052653827 0.160471 -0.19260892 -0.39931935 -0.3727117 0.13992867
-0.32498854 -0.0026883588 -0.15204006 0.33641726 0.25232473 0.09157898 -0.15352297 0.2974379
-0.20720734 -0.28891757 -0.32704586 0.26699576 -0.2814095 -0.012766807 -0.037942383 0.31494376
-0.2393463 0.0026080508 -0.22324261 0.0800552 0.2786526 -0.3209821 0.14027733 -0.5647055
-0.5445494 -0.4177139 0.44327736 -0.07674947 -0.43217656 0.14733791 0.012783268 -0.090896405
0.20484315 0.13778724 0.20384677 -0.042240318 0.23020548 0.26885945 -0.28959996 -0.08682233
-0.07914858 -0.31514773 0.27415517 0.3262329 -0.32238138 0.05983719 0.10567667 -0.08792155
0.091627225 -1.828412e-05 0.1835679 -0.25010052 -0.14599474 -0.161049 -0.694303 0.14865845

policy_net.4.bias f4 [128]
00000000: 12f4 30be 9e59 99bd 55cc 8c3d cba7 2dbe
00000010: 3e85 85bd b868 c53d aaf7 13bd 9286 fabd
00000020: 9223 edbd 3eb5 c2bd 8f8d ea3d 78e1 c3bc
00000030: 5f49 cf3c 010a 71be 5969 b2bc 120e 983d
00000040: 2403 8cbc 1a3d 51bd 3f0f 0dbe 1d44 563b
00000050: 52ec f1bd f911 b1bd ca05 5cbe 766d b6be
00000060: 9374 1abe 33e1 473e 3de5 90bd feba dcbd
00000070: b1a6 09be 241c 153e 7faa f23d fdd7 11be
00000080: 32c3 dc3d ece1 403e ffc8 503d cd6c e03a
00000090: 2227 f83c 4f33 f83d 8736 babe 9b50 dc3d
000000a0: 71fc c23d a5ec 34be 9d52 733c 9e19 cc3d
000000b0: 234c 24be 35ec 233e 196a 163e a390 58bd
000000c0: 66f9 4ebb 5544 57be f430 a1bd 5e88 4c3e
000000d0: c39c aabe 61ea 883d 7f5e e23d 12a4 a4be
000000e0: e864 00be 3f1c f23c 628a 913d 1dce 41bd
000000f0: c34f 79be 88bb 82bc d1e3 b3be e132 ad3d
00000100: 5cf7 5ebc 8ce7 a7bc 00df 8fbe 7b04 d73d
00000110: f7b5 57be c67a 8abe 6c85 7ebd 832b a5be
00000120: 6c00 7b3e cfd3 50bc 0342 1b3e a246 54be
00000130: af51 5cbe 3a6b 653e edce 483e 9b42 c23d
00000140: 84e9 23bf f293 35be b46e ca3e 7b37 51be
00000150: 15d2 e4bd 9220 e9bc 45e6 89bd 3e02 473e
00000160: ba0f b0be a2f6 a73d ceb9 f1bd 6e04 51be
00000170: 721e 0ebe 378d 1dbd ce58 babe f060 f33d
00000180: 32ee 84be 1ae4 ec3c 2ff6 f8bd 0a27 983d
00000190: 64ba 4a3e d9cb c13d 145f 96bb 3445 ea3b
000001a0: 827c 95be 633f 6b3c 8431 5b3d 990f a3be
000001b0: 10f6 913b 5949 c03d e4e5 1ebe 20b3 233d
000001c0: aff5 debd c8bb 193e 7626 f03d 9995 0d3e
000001d0: e254 acbd a92a 073e 1540 0ebe d616 8a3e
000001e0: 9b14 5cbe e1a2 f43d bc86 6cbd 2375 bb3d
000001f0: d75b 4fbe c1e3 32bd 12d9 2e3d 2a2f 14be
-0.17280605 -0.07487796 0.06874911 -0.16958539 -0.065195546 0.09639114 -0.036124863 -0.122326985
-0.1157905 -0.095072255 0.114527814 -0.023911223 0.02530354 -0.23538972 -0.02177875 0.07424559
-0.017091341 -0.05108366 -0.13775347 0.0032694407 -0.11812653 -0.08646006 -0.21486583 -0.35630387
-0.15083532 0.195195 -0.07074974 -0.107778534 -0.13442494 0.14561516 0.11848926 -0.14242549
0.10779418 0.18836182 0.050972935 0.0017122269 0.030292097 0.12119161 -0.36369726 0.10757562
0.095208056 -0.17668398 0.0148512395 0.099658236 -0.16044669 0.16008075 0.1468891 -0.05287231
-0.0031581759 -0.2102216 -0.07870665 0.19973895 -0.33322725 0.06685329 0.1105318 -0.32156426
-0.12538493 0.029554484 0.071064726 -0.047315706 -0.24346833 -0.015958562 -0.35134748 0.0845697
-0.01360878 -0.020496152 -0.28099823 0.104989015 -0.21065508 -0.27046794 -0.06213896 -0.3225976
0.2451188 -0.012745812 0.151619 -0.2073007 -0.21515535 0.22404185 0.19610186 0.0948536
-0.6402819 -0.17732218 0.39537585 -0.2043132 -0.111728825 -0.028457914 -0.067333736 0.19434449
-0.34386998 0.08201338 -0.118030176 -0.20411846 -0.13878801 -0.03846475 -0.36395878 0.11883724
-0.2596298 0.028917361 -0.12156331 0.07429321 0.19797665 0.09462709 -0.004588971 0.007149363
-0.29196554 0.014358374 0.05351402 -0.31847838 0.0044543818 0.0938899 -0.15517384 0.03996575
-0.10886704 0.15013039 0.11726086 0.13826598 -0.084146276 0.13199867 -0.13891633 0.26970547
-0.21492235 0.11945129 -0.05774568 0.091532014 -0.20249878 -0.043674234 0.042687483 -0.14471117

policy_net.6.weight f4 [64, 128]
00000000: 9f62 f3bd 3345 6c3e 8c0a bd3e d691 18bf
00000010: 6c87 36be a2a0 23bd dabe 3b3e 06ae 533e
00000020: 8bda ea3d fcd5 bcbe faee 8cbe 8932 d63d
00000030: 9feb bebe 0fba dcbe be7c 69be 466f febd
00000040: fed9 7f3e 060b 00be 2527 bbbb 9d0c 963e
00000050: 5964 c03e 1480 3abd 8906 4c3e de79 8a3c
00000060: 0b2c f9be dd34 5f3e 14c2 0abe df29 013f
00000070: 802a d53d 9411 dabd 0512 1cbf 751e 77be
00000080: c966 00bd 4ecb 13bf 9f58 cbbe 6d95 50bd
00000090: 065c 06b9 8885 44bf 4de6 11be fb5a 433e
000000a0: 7648 253d bffb a6be 61ae 0b3e b5ba 273e
000000b0: 1296 dfbe 201a 893e e9e7 43be 5cea 82bb
000000c0: d9a4 a3bd 5efd 1f3f 9696 f9be df43 ab3d
000000d0: 7633 b23e d73f 4dbc c00a 01bd df81 153e
000000e0: 17cd fb3d d970 953d d580 c93e 3be3 00be
000000f0: 6676 623d 0811 323e 696c 9dbe d841 6dbd
00000100: 32d9 86be 0687 b13d 3640 a2bd 597f 073e
00000110: fa3e 673c dc7c dabe ca1a 6c3d 3a40 1cbf
00000120: 26d1 763c 11d8 2c3d 4b0f 2dbf 4809 973d
00000130: 1749 54be 0729 bcbe 6b95 81be 2e98 80be
00000140: 1f2b f23d 6511 f9ba ae4e 8b3e 403f 37be
00000150: 3efe 00bf 5687 aebe 49d2 d93e cd03 d7be
00000160: f91e 74bd e460 743c 45e5 4a3c 25d1 0bbf
00000170: 8a9d 72be cd7f 4fbe 8133 bd3d ead1 65bf
00000180: e709 e2bd d628 583c 8dca 15be 8b3b d73d
00000190: 6bf5 20bf 7996 0fbb 3036 8abc bd00 643d
000001a0: d411 4abe 20c6 84be 8c5d 093e 7824 c0bc
000001b0: 3e04 963e 5a5a a33d 65e4 023e 4d75 99be
000001c0: db8e 92be bf3b 78be 2d81 eebd 93d7 20bf
000001d0: eaaf 223f aee2 46bf 69f2 35bf f8ce 3bbe
000001e0: ae7f 903c 717f 0d3e 0b1f 8fbe e010 783e
000001f0: 2d8b bbbd 2126 a5be 8310 04bf 7bdf 72be
00000200: 8b67 13be 919b 7d3d 621f 85bd efc8 b43c
00000210: b645 81bd 8475 9b3e c97d 943d 1c59 2dbe
00000220: 8258 9ebe 3d60 ac3d 9168 853d 2bd5 993d
00000230: bbd0 eebd cc2d 3dbe 5836 07bd 1e4c 1d3e
00000240: 0707 da3e de6e 2bbe 59d9 7d3c 5799 583e
00000250: 51e7 b3bd 7815 713e c80e b8bc cb1f eebe
00000260: 394e 59bf d0f7 1dbe 3606 25bf 65a6 1bbf
00000270: 3f06 563e d065 d5bd a44b 0abd 1364 1abf
00000280: bea0 71bd 92c5 dc3d 5ce0 c33d c7b1 5bbe
00000290: da0f 07bd d2dd 823c 11f1 3a3d b49f 873d
000002a0: 37cd 6cbe 13e3 2d3e 151b 183d 9803 49bf
000002b0: 111b 8ebe 9916 363e 763e 54be 9d4f f43c
000002c0: 8ca8 c8bd ac66 89bd 2d9f cb3c b458 9b3e
000002d0: dedb afbb 5750 ecbd bbef 693d 7392 a33c
000002e0: c307 5ebe b7fe 2d3e 8ff3 a6bd 739f 003d
000002f0: 9716 053e a162 79bd e991 8e3d 6437 ccbc
00000300: cc63 2ebd c644 b8be d4f9 323e efc3 74be
00000310: 5240 4abf bcad ccbd 749c 033e 92f9 923e
00000320: 25db 9b3e 1f6e 09bf 289c d0be c57b 17be
00000330: c5e0 123e 65ad 0e3e f1ee 05bf b70a 00bd
00000340: 0d3f 3b3d 3965 5cbc a3bb 89bd d808 3dbe
00000350: 7dc1 f3be bc66 ce3d 9f0f 183e 7fcd efbe
00000360: 908c c13a 8c8b 083e b563 61be 03b9 53be
00000370: f751 383d b42e 1c3e c8a7 0a3d a526 aabd
00000380: 61a3 66be 55f8 d5bd 4a30 933d 572e d6bd
00000390: c56f 2cbd 8922 70ba c997 80be 7153 213e
000003a0: b85c d6be 139d 2f3e c98a 85bd 3b3f fc3c
000003b0: b3d2 2ebe 39db f13e 23be 77bd b269 303e
000003c0: 4ab0 d6be e224 5b3d 031c 77bd b404 f4be
000003d0: 158e acbd dcb2 873e 8aac a0be c4e1 fabe
000003e0: 6a2e 0f3b 77a2 03be e1bd f13d 5ae6 b6be
000003f0: 7cbd 783d c658 00bd 03f6 8bbe 7ab6 8f3e
-0.11884045 0.23073272 0.3692211 -0.5959753 -0.17825097 -0.039948113 0.18334523 0.20671853
0.11467465 -0.36882007 -0.27526075 0.104588576 -0.3728914 -0.431107 -0.22801492 -0.124235675
0.24985501 -0.12504205 -0.0057114535 0.29306498 0.3757656 -0.0455323 0.19924368 0.016903814
-0.48666415 0.2179751 -0.13550597 0.50454515 0.10408497 -0.10647884 -0.60964996 -0.24132712
-0.031348024 -0.57732093 -0.3971605 -0.050923754 -0.00012813517 -0.7676625 -0.14248009 0.19077675
0.040352307 -0.32613942 0.13640739 0.16379817 -0.43669182 0.26777744 -0.19131435 -0.003995223
-0.079904266 0.6249598 -0.487477 0.08362555 0.34804887 -0.012527428 -0.031504393 0.14600323
0.12294977 0.072969146 0.39356104 -0.12586682 0.055288695 0.1738931 -0.30746773 -0.05792412
-0.26337582 0.08668332 -0.079224035 0.13232173 0.014114136 -0.42673385 0.057642736 -0.610355
0.015064513 0.042198244 -0.6760146 0.07374817 -0.20731007 -0.3675005 -0.2530931 -0.25116104
0.11824631 -0.0019002376 0.27208465 -0.17895222 -0.5038794 -0.34087628 0.42543247 -0.41995087
-0.05959985 0.014915679 0.012383764 -0.54616004 -0.23692909 -0.20263596 0.09238339 -0.8977343
-0.11037045 0.01319333 -0.14628048 0.10509404 -0.6287448 -0.0021909757 -0.016871542 0.055664767
-0.19733363 -0.25932407 0.13414592 -0.02345489 0.29300112 0.079762176 0.12782438 -0.29972306
-0.28624615 -0.24241541 -0.11645732 -0.6282894 0.63549674 -0.77689636 -0.71073014 -0.18340671
0.017639007 0.13818146 -0.2795337 0.24225187 -0.09157405 -0.32255653 -0.51587695 -0.23718064
-0.14394967 0.061915938 -0.065001264 0.022068469 -0.063121244 0.30363095 0.07250554 -0.16928524
-0.309269 0.084167935 0.06514085 0.07511362 -0.11660906 -0.18474501 -0.03301081 0.15361068
0.42583486 -0.16741511 0.015493714 0.21152245 -0.087843545 0.23543346 -0.022467986 -0.4650863
-0.84884983 -0.15426564 -0.644626 -0.6080077 0.2090082 -0.1041981 -0.033763543 -0.6030895
-0.058991186 0.10779871 0.095642775 -0.21454535 -0.0329741 0.015974913 0.045640055 0.06622258
-0.23125158 0.16981153 0.037135202 -0.7852111 -0.27755025 0.17782058 -0.20726952 0.029823119
-0.09797773 -0.06709036 0.024856174 0.30341113 -0.0053667864 -0.11538761 0.05711339 0.019967293
-0.21682648 0.16991697 -0.08151924 0.031402063 0.12996899 -0.060885075 0.06961424 -0.024928756
-0.042575642 -0.3598997 0.17478114 -0.23902868 -0.79004395 -0.09994075 0.12852651 0.28706032
0.30440632 -0.53683656 -0.40744138 -0.14793308 0.14343555 0.13933332 -0.5231772 -0.03126022
0.045714427 -0.013451868 -0.06725242 -0.18460405 -0.47608557 0.10078189 0.14849709 -0.4683647
0.0014766622 0.13334483 -0.22010691 -0.20676045 0.045000043 0.15252191 0.033851415 -0.08308152
-0.22523262 -0.10447756 0.07186945 -0.104580574 -0.04209878 -0.00091604196 -0.25115803 0.15754487
-0.41867614 0.17149763 -0.06520612 0.03079187 -0.17072563 0.47237566 -0.060484063 0.1722782
-0.41931373 0.05350197 -0.06032945 -0.47659838 -0.084255375 0.26503646 -0.31381637 -0.4900037
0.0021847733 -0.12854944 0.11803795 -0.3572262 0.06072758 -0.03133466 -0.2733613 0.28068906

policy_net.6.bias f4 [64]
00000000: e3ef abbd 8c69 a13e 2242 5fbe 314b 4cbe
00000010: dd69 ebbe 40cc 7e3e 0241 4cbe 2de7 6dbd
00000020: e71e aebc 5422 2d3e 1cb7 cc3e 6e62 49bc
00000030: ef63 b63e d130 ee3d 25d6 f83e 3926 963e
00000040: b9ee 1bbe 2c31 55be eab7 1b3e 2e1e 223e
00000050: 799d b6bd e22e a03e a587 17bd 7a4e d63d
00000060: 3b21 e93d 8275 803e 3e9b bd3e 6c45 a3bd
00000070: f0ab 8a3e 1b74 5c3e 2444 863e d016 c7ba
00000080: e5f8 06be f346 ad3e 8347 323e 7e85 553d
00000090: e2c6 8c3d d734 d23d 351a 5e3e 4fb9 ccbe
000000a0: 589b 803e 9e17 d5bd c884 3f3d bf6f 72be
000000b0: 7895 bc3e 7485 f13e 15e1 15be 1917 dc3c
000000c0: 4b15 88be 23f7 acbe f10e a4be 0169 d13e
000000d0: 39c4 a2be 6ba8 fd3b 97be 4cbe b5cb 3cbe
000000e0: 0024 053f 08ca de3d bee5 dc3b cf54 7dbe
000000f0: 514a 0b3e da87 783e e189 eebd b0c5 173e
-0.08395364 0.31525838 -0.21802571 -0.19950558 -0.45979205 0.24882603 -0.19946674 -0.058081795
-0.02125497 0.16907626 0.3998345 -0.012291534 0.35623118 0.11630405 0.4860088 0.29326037
-0.15227784 -0.20819539 0.15206876 0.15831825 -0.08916754 0.3128577 -0.036994595 0.10464187
0.11383291 0.2508965 0.37032503 -0.079722255 0.27084303 0.21528666 0.26223862 -0.0015189294
-0.13180883 0.33843192 0.17410092 0.05212926 0.068738714 0.10263985 0.21689685 -0.3998513
0.25118518 -0.10404895 0.04675749 -0.2367544 0.36832786 0.4717213 -0.14636643 0.026866483
-0.26578745 -0.337823 -0.3204265 0.40900424 -0.3179033 0.0077410243 -0.1999458 -0.18437083
0.52008057 0.10878378 0.0067412546 -0.24739383 0.13602568 0.24270573 -0.11647392 0.14821506

policy_net.8.weight f4 [4, 64]
00000000: 64c2 15be 5cc9 093d fd4c b3be 3544 d83d
00000010: fc97 e53d 8bdb d83d 4cad a2bc 0cae 47bd
00000020: b584 12be f30c df3c 5a63 ce3c f779 133e
00000030: be29 81bd 5239 5d3e 903b f53c 12b6 7c3d
00000040: 621b c93c 89cf 45bd b9af 36bd cbac e83d
00000050: e9f2 1b3e 2f2d c93d bfea babc ca0f 593d
00000060: 1dc8 c2bd 5692 c3bd 8d52 343d a12c 803d
00000070: a3aa 03bd 4c72 babd a071 0bbd f0c2 c1bc
00000080: daf8 1e3d 5c2a c63c beb5 65bd 9b77 86bd
00000090: 34e9 9d3d 3f2b 973d beb9 603c 79c1 a5bc
000000a0: 1e8c b13d 53a2 10be b7ae 353d a2f9 a8bd
000000b0: 9c36 19bd eb90 8dbd 4ba2 c33d cdf3 0a3d
000000c0: 8f63 23bd 705d d03d 917b 70bd 8089 85bb
000000d0: ddc7 ac3e ced8 e43c 8d41 ddbd 3d68 b0bd
000000e0: e45c 25be e07c 483d d214 7b3d eee0 15bd
000000f0: 0139 ff3d b3c6 65bd 27c6 eebb 5e90 19bd
00000100: 2860 8a3d c3d3 c6bc e6af 973e 888e 75bc
00000110: b390 2a3e 23e4 b73d e3ba 02ba 6ad8 25bd
00000120: 31ef 863e 3405 763b 0881 e9bc 5d50 aabd
00000130: 12fd 9c3d 9c33 b33d c799 a13c f999 4abe
00000140: 3e7f 313c 709d 4abd 638a a2bd 1c8b 4bbc
00000150: 1dd7 ab3d e1e9 803d c10a d3bc 3d69 4a3d
00000160: eabf 16bd 6e53 a2bd a031 103d 4849 6e3d
00000170: 743d 54bd 3385 bdbd 389e cebd 5b4e ba3d
00000180: 1340 863d 828e e53d df9c c4bd 1384 e83c
00000190: 09c6 21bc 0530 db3d a6d3 fc3c 07c3 ab3d
000001a0: 672d 863d 664a 5ebd 6ad9 ee3d dfdd 9fbd
000001b0: 3184 ddbd 6eb2 60bd 732e 0b3d 4316 aa3d
000001c0: 7db6 833d bfd6 bbbd 21c1 e3bc b863 9fbd
000001d0: aaff 173e 022a 8c3d 1352 a8bd 912b 553b
000001e0: d8ef 02be 08e4 e3bd b007 b6bd 5aee b5bd
000001f0: 6865 b83d 9af4 1fbd 7028 163e 1078 813d
00000200: 4c3c c03d 4f78 a03c f6d7 5c3d d9be e0bd
00000210: a92b 39be 145e 87bd 93f5 30be 7a31 cc3d
00000220: 3840 a03d 7729 c93d 077e d1bd 3c12 8ebd
00000230: 801c ea3d f756 5cbb e8d5 26be 8570 953c
00000240: a22d a9bd 4dba bebd 608a 66bc db97 a1bd
00000250: 57c2 9bbe f175 003c b9db 25bd e0a9 5fbb
00000260: 9669 093e 98e7 fe3d a3bf b03d 8323 e73d
00000270: bb5f c93d d102 d43d 9580 b0bc 1587 f03c
00000280: ce45 08be e120 83bc 3eeb 64bc abd5 7fbd
00000290: db2f 5e3e a2e2 b6bd b47f 283d 5e97 7fbe
000002a0: f6e9 92be 6a6a 8c3d 8e3f 9ebd 7964 2c3e
000002b0: 4753 063e 90ba 803e 15ac 65be ca35 7f3d
000002c0: c018 fb3d 31fe d6bc b42f 0fbd bbe2 b43d
000002d0: a3a6 5c3e 2d42 f1bd 75e4 8a3d 08bd 2b3d
000002e0: 89bb 863e c904 013c 30d3 16bd be6b 483e
000002f0: 5b55 85be c31a ba3d 313b bbbd 6cba 983d
00000300: 3338 a1bd 50de eabd 91c2 b0bb 1d49 6dbd
00000310: 7e7f ea3c 8fda 82bc 7ae8 9a3d ea4e f2bb
00000320: 6921 82bd a94b e23d 3431 ae3c 89d6 53bd
00000330: f556 283d c368 adbc 42c6 d83d 5a16 56bd
00000340: 5f16 06be 9b5d 9e3d d143 9b3c 2e9b 213d
00000350: 4710 04bd 08b7 403c ac67 e4bd 5900 19bc
00000360: 5bbc a73b ca69 893d 873d 99bc abe2 bcbc
00000370: c0c0 14bd 6d9b e0bc 1286 473b ac6d a4bb
00000380: 2c1b e53c 3148 4f3a 50a0 003d 8243 75bc
00000390: 4642 9dbd b512 d23c 5853 c6bd 2f5d 8c3c
000003a0: 6da9 693d bb1f 843d a567 383d 5429 84bd
000003b0: 4e6e 6dbd c531 41bd 964a e23c 3ebe 8abd
000003c0: 8a6e 9abd a0eb 69bd e8ec 8ebd 85ef 96bd
000003d0: 434e 493d af74 e43d 084c 173d 358f 713d
000003e0: 50cf f1bd f44c 9dbc eb77 e5bc 589a 74bd
000003f0: 47eb 673d ec73 88bd 5337 89be 447a a03d
-0.14624935 0.033639297 -0.35019675 0.105598845 0.11210629 0.105887495 -0.019858025 -0.04874997
-0.14308436 0.027227854 0.025193859 0.14401995 -0.0630679 0.21603897 0.029935628 0.061697073
0.02454919 -0.048293624 -0.044601176 0.11361083 0.15229382 0.09823071 -0.022817014 0.052993573
-0.09510825 -0.09549396 0.04402404 0.06258512 -0.032145154 -0.09103832 -0.034043908 -0.023652524
0.038811542 0.02419012 -0.056081526 -0.06565782 0.077104956 0.073812954 0.013716159 -0.020233857
0.08669303 -0.14124422 0.044356074 -0.08250739 -0.037405595 -0.069124065 0.09552439 0.033923913
-0.03988987 0.10174072 -0.058711592 -0.004075229 0.33746234 0.027935412 -0.108035184 -0.08613632
-0.16148716 0.048947215 0.061299153 -0.036591463 0.124620445 -0.056097697 -0.007286805 -0.037491195
0.067566216 -0.024270898 0.29626387 -0.014987595 0.16656761 0.089790605 -0.0004986955 -0.04048959
0.26354364 0.0037539722 -0.02850391 -0.08316109 0.07665457 0.08750078 0.019726647 -0.19785298
0.01083356 -0.04946655 -0.079365514 -0.012423303 0.08390639 0.06294609 -0.025761964 0.04941677
-0.036804117 -0.07926069 0.035203576 0.058175355 -0.05181642 -0.09253921 -0.100887716 0.09096976
0.0655519 0.11208822 -0.09600233 0.02838329 -0.009873875 0.107025184 0.03086264 0.08386808
0.065516286 -0.05427017 0.11662562 -0.078059904 -0.10816229 -0.054857664 0.033979844 0.08305027
0.06431291 -0.09171819 -0.027802052 -0.07782692 0.14843622 0.0684395 -0.082187794 0.0032527188
-0.12786806 -0.11127478 -0.08888185 -0.088833526 0.09003717 -0.03905163 0.14663863 0.06321728
0.09386501 0.019588618 0.053916894 -0.10973901 -0.18083061 -0.06609741 -0.17281179 0.099703744
0.07824749 0.09822362 -0.10229116 -0.06937072 0.11431217 -0.003362117 -0.16292536 0.01824213
-0.08260657 -0.09312878 -0.014071077 -0.07890292 -0.30421707 0.007840619 -0.040492747 -0.0034128353
0.13419184 0.12446517 0.08630302 0.1128607 0.09832712 0.103521 -0.021545688 0.029361287
-0.13307878 -0.016006889 -0.013972102 -0.06245963 0.21697943 -0.089299455 0.041137412 -0.24960086
-0.28694123 0.06856234 -0.07726966 0.16835202 0.13117705 0.25142336 -0.22428925 0.062307157
0.1226058 -0.026244255 -0.034957603 0.08832308 0.21547942 -0.117802 0.06781856 0.04192832
0.26314953 0.007874676 -0.036822498 0.1957235 -0.26041684 0.09087136 -0.09142149 0.07457432
-0.07872047 -0.11468184 -0.005394288 -0.057931054 0.028625246 -0.015973357 0.07563873 -0.007394661
-0.06354029 0.11049587 0.021263696 -0.05171827 0.041098554 -0.021168118 0.1058469 -0.05226741
-0.13094471 0.077326976 0.018953236 0.03945463 -0.032242086 0.011762388 -0.11152586 -0.009338462
0.0051188893 0.06709631 -0.018706096 -0.023057302 -0.036316633 -0.027417863 0.0030444902 -0.0050179567
0.027967058 0.00079071807 0.031402886 -0.014969708 -0.07678656 0.025643686 -0.09683865 0.017134277
0.057046343 0.064513646 0.045020718 -0.06453195 -0.057966523 -0.047166605 0.027623456 -0.06774567
-0.07540615 -0.057109475 -0.0697878 -0.073699035 0.0491469 0.11155068 0.036937743 0.058974463
-0.1180712 -0.019201733 -0.028011283 -0.059717506 0.056620862 -0.06662735 -0.26800022 0.0783582

policy_net.8.bias f4 [4]
00000000: 4c5a 8b3d 10cf d13a dd09 c73d 442e 533e
0.06804332 0.0016007144 0.09718678 0.20623118

inverse_net.0.weight f4 [64, 48]
00000000: 48c0 963d 2355 923f fe5f f7be 9800 313e
00000010: 2f88 d5bd 9757 8a3e 3c87 73be 6e6e 993e
00000020: 6d5f d23d 2f70 b63e c19d 93be c226 53be
00000030: eb9b 80be e0e1 57bc 8c59 f2bc d89b 213e
00000040: 4c83 aabd 1509 20bd 7031 a33d f939 be3c
00000050: 3556 d4bc 29be adbd c52d 67bd b19e 17be
00000060: c653 4b3e 0bae 6abe 7fd6 89be bbb7 e1bf
00000070: bde8 823d ff2e c7ba ee8a 23bf 91ba 10bf
00000080: 1bdb b83b f1e5 a23e ea58 f53d d64e cbbd
00000090: 4df1 1a3e edad 72be fe50 00bd 7fd9 aa3d
000000a0: 0089 9fbc d9cf c13d d242 4d3d c7ed e43d
000000b0: ffb6 aa3d 0b67 f6bc 5083 e5bd c0a9 8abc
000000c0: 646e 173d b5e3 4e3f 27e0 dd3e d10a 4c3e
000000d0: ddac ca3d 7cb1 11bd 4e3c cfbc 8de1 c6bb
000000e0: a332 5fba 681f 2b3e 884c 363d 2c68 a8bd
000000f0: fe48 cf3c 8dfa 08bc 6083 8fbd 9309 3e3c
00000100: 269a 06bd 1478 c9bd 8141 9aba ce71 b33d
00000110: f868 00be ebca 9b3d efaa 2ebe 0d69 613e
00000120: e6a3 66bd 5786 dbbf effc c8be b52e 843f
00000130: 78bb 2b3d b5c8 e9bc 4733 093d da2e 8dbc
00000140: 8c9e 8dbb 9685 643e 3463 9e40 6624 8e3c
00000150: 7794 68bd 5fb9 c9bb f538 aa3d eceb a2bd
00000160: 49d1 72bd 4137 7d3c a437 22bd c9e9 80bd
00000170: ce7b 73bd f271 33be 3c0e b53d d83c 1cbd
00000180: 2b32 cc3e 9a1e abbf 003f 4d3e bebe 313e
00000190: 0d66 cbbe f507 933e 7d72 d8be 0a24 39be
000001a0: eef9 d33c 40e8 a0bd 42ff b5be f9db 183e
000001b0: 370f b4be 7c6f 143e 3802 533d 8bd8 a6bd
000001c0: b6a5 16bd bb57 82bd 5054 f0bd ff75 cfbd
000001d0: d456 22be b981 45be 53c7 16be d514 3fbd
000001e0: 37c7 a13e e862 103f c193 d1be 95f8 21c0
000001f0: d6a2 19bf 8843 84be 92ca 2fbf da6d 18be
00000200: ff27 ecbd 7b69 9cbd 76c1 92bb 52ac 2f3e
00000210: 8642 17be 787d 4b3d 1888 57be 4f0e 183d
00000220: 4f20 fe3c 4f37 22be 8dff 19be 6304 4bbe
00000230: 93fe bcbc a507 73be 6e4d 38be 827e 943d
00000240: d5a0 bfbd 2007 2f40 5d09 ab3e e895 5cbf
00000250: d94f 713e d396 18bf c21a 93be 8417 ddbd
00000260: e77e 39bd d426 f73d b5a0 d9be 504d a5bd
00000270: ab1d 603d f2ee 1b3e 6250 c5bd 331a ccbd
00000280: e242 25be 542b 16bd 4236 6d3d b800 83bc
00000290: 9a73 b8bd d767 cd3d f815 863e 3d8b 41bd
000002a0: 41aa a5bd 4e54 6a3e b87e ac3f dc71 debe
000002b0: 4dbc 803e 1b93 1a3f c698 60be f06a dcbe
000002c0: af91 1fbe 4c98 753d e2cc e03d fa3b e43d
000002d0: 8425 3e3e 3bea 40bd cd89 1cbe 3b60 21be
000002e0: 5a9f fabd 6c47 12be 38b8 b6bd 6302 d7ba
000002f0: d688 1abe 37c8 003e f99e a13e 9a1f a9bd
00000300: 8370 f6be d73b 02bf e2d4 dabf 4398 9b3f
00000310: 92d0 2a3e 01a9 bcbe 0aae df3e 4875 b3be
00000320: ac36 af3d 79ae 89be 5864 0cbe 0911 6a3e
00000330: 5f68 3cbe c6a1 95bd 793e 2dbd d4ed 76bc
00000340: b4eb 1cbe 5180 8d3c 1882 24be 7b6b e03c
00000350: c001 05bd 6d7e 56be 074a 56be 3217 f63d
00000360: ad75 50bf 1f45 51c0 46c8 06bd fe76 f6bf
00000370: 49cd d73d 7f5f 0d3f 43a5 153f 400b ff3e
00000380: c93c 01bd 7b8d b5be 09a0 8ebd 861b c4bc
00000390: 5abe 32be 8cb5 383c 6585 83bd 866b 88bc
000003a0: 611f 06be 1307 1bbe dee6 1d3d 8ebc 2bbd
000003b0: 6ef5 00be f636 12be 3987 05be c8e0 823d
000003c0: a29d 1bbe 5e04 f23d 7995 50bf b896 bcbf
000003d0: a7c3 99bd 2926 bc3e 74ae 1d3e a5e7 963e
000003e0: 0710 f2bd c7b9 d4be ac99 64bf 79e4 fbbe
000003f0: b752 983d b34f eebd 27cc 103d a8ae 94bc
0.073608935 1.1432232 -0.48315424 0.17285383 -0.104263656 0.2701995 -0.23782057 0.29967064
0.10272107 0.35632464 -0.28831294 -0.20620254 -0.25118956 -0.013176411 -0.029583715 0.15782106
-0.08325824 -0.03907116 0.07968414 0.023221003 -0.025920013 -0.08483536 -0.056440134 -0.1480663
0.19856176 -0.22917955 -0.2692146 -1.7634195 0.063920476 -0.0015196501 -0.63883865 -0.5653468
0.005641354 0.31816056 0.1197985 -0.09927146 0.15131111 -0.2369916 -0.03132724 0.08342265
-0.019474506 0.09463472 0.050112553 0.11178165 0.08335685 -0.030078432 -0.112066865 -0.016926646
0.03697051 0.80816203 0.43335077 0.19926001 0.09896252 -0.035569653 -0.02529731 -0.006069368
-0.00085143204 0.167112 0.04450658 -0.08222994 0.02530336 -0.008360517 -0.0700748 0.011598962
-0.03286185 -0.09837356 -0.0011768789 0.08761941 -0.12540042 0.07607063 -0.17057393 0.2201273
-0.05630865 -1.7150372 -0.39255473 1.0326754 0.04192683 -0.028538087 0.033496168 -0.017234255
-0.004321879 0.22316584 4.9496098 0.01735134 -0.056782212 -0.006156131 0.08311645 -0.07955155
-0.05928162 0.015455068 -0.039603844 -0.06294591 -0.05944424 -0.17523935 0.088406056 -0.038143963
0.39882025 -1.3368714 0.20043564 0.17357919 -0.39726296 0.28717008 -0.42274848 -0.18080154
0.025876012 -0.07856798 -0.3554631 0.14927663 -0.35167858 0.14495653 0.051515788 -0.08146771
-0.036779128 -0.063643895 -0.11734831 -0.10129928 -0.15853435 -0.19287767 -0.14724474 -0.046650726
0.315973 0.5640092 -0.4093304 -2.5307972 -0.6001409 -0.25832772 -0.6866847 -0.14885655
-0.11531066 -0.07637306 -0.0044786287 0.17155579 -0.1477147 0.049680203 -0.2104801 0.03712302
0.031021265 -0.15841411 -0.15038891 -0.19825892 -0.02307061 -0.23733385 -0.17998287 0.07250692
-0.09356848 2.7348099 0.3340558 -0.8616624 0.23565616 -0.5960514 -0.28731352 -0.10795501
-0.04528704 0.12067953 -0.42505422 -0.08071387 0.054715794 0.15227869 -0.096344724 -0.099659346
-0.16138795 -0.036662415 0.057913072 -0.015991554 -0.09006424 0.100295715 0.26188636 -0.04725193
-0.08089114 0.22883722 1.3476171 -0.43446243 0.25143662 0.60380715 -0.21933278 -0.43050337
-0.15582918 0.059959695 0.10976578 0.11144252 0.18568999 -0.04709838 -0.15286942 -0.15759365
-0.12237425 -0.14285058 -0.08921856 -0.001640391 -0.15091261 0.12576376 0.315666 -0.08257981
-0.48132715 -0.5087256 -1.7096217 1.2155842 0.16681126 -0.3684769 0.4368747 -0.35050416
0.0855535 -0.26890925 -0.13710153 0.22858061 -0.1839919 -0.073062465 -0.042295907 -0.015071351
-0.15324289 0.0172731 -0.16065252 0.027395 -0.032472372 -0.20946665 -0.20926677 0.12016143
-0.8142956 -3.2698438 -0.03290584 -1.9255064 0.10537202 0.5522384 0.58455294 0.4981327
-0.03155211 -0.35459504 -0.06964118 -0.023938905 -0.17455426 0.011273753 -0.06421927 -0.016652834
-0.13097908 -0.15139417 0.03855025 -0.041927867 -0.12593624 -0.14278778 -0.13039865 0.0639053
-0.15196851 0.11817239 -0.8147808 -1.4733496 -0.07508021 0.36747864 0.1539858 0.29473606
-0.11819463 -0.41547987 -0.89296985 -0.49197748 0.074376516 -0.11636295 0.035350945 -0.018149689

inverse_net.0.bias f4 [64]
00000000: 46f8 ecbd d833 403e 90fe 293e 3953 94bd
00000010: e16c dc3d 05c8 92bd 7b6d 24bd 4059 ecbd
00000020: 4d8d 41be 8700 063d 7bd5 12be dba2 e83d
00000030: bbbf a9bd 3473 0ebe 5dc5 6bbd 45d5 5bbe
00000040: a4b3 40be f297 413e 4eec 463d 43d9 08bd
00000050: 92d5 b73d 8386 2a3e 3b40 05be ea3f 093c
00000060: 490f b0bc 6e8d 83bd 89c9 31bd 5742 35bd
00000070: 6fe2 86bd c63e 1fbe f0d6 80be a6e2 3fbe
00000080: 861f 6ebd 391d af3d b4d8 cbbd c331 56be
00000090: 4824 19be e9c1 28bd 1f51 2bbe d83e b8bd
000000a0: b946 2f3a 5851 f2bc 6957 bf3c 36af 563e
000000b0: ef3e ea3d cbd7 12bd d2bc 013d 4a8f 28bd
000000c0: 34c2 3fbc 3f79 3d3b bd0e 453d 65c3 0abe
000000d0: 61ed a53d 6b24 81be 8b25 f8bd 88a3 d13d
000000e0: 64d9 5ebd 2bcf 02be 4b90 b5bd 0fc3 003e
000000f0: 7ade 973c ce2b e2bd b535 103e d8a0 1fbd
-0.11570792 0.18769777 0.16601014 -0.07242436 0.107629545 -0.07167057 -0.04014347 -0.115404606
-0.18901558 0.032715347 -0.14339249 0.11359187 -0.08288523 -0.13911134 -0.057561267 -0.21468075
-0.18818527 0.18905619 0.0485652 -0.033410322 0.08976282 0.16652875 -0.13012783 0.008377055
-0.021491664 -0.0642346 -0.04340509 -0.04425272 -0.065861575 -0.1555129 -0.25163984 -0.18738803
-0.05813553 0.08550496 -0.09953442 -0.2091742 -0.14955246 -0.041200552 -0.16730164 -0.089963615
0.0006686259 -0.029579803 0.02335711 0.20965275 0.11437785 -0.035850327 0.031674214 -0.041152276
-0.0117040165 0.002891138 0.04810976 -0.135511 0.08101917 -0.25223097 -0.12116536 0.10236269
-0.05440654 -0.12774341 -0.08865412 0.12574409 0.018538702 -0.11043511 0.14082988 -0.038971752
