IL/Model/model_reacher_22.pt (torch, 292527 bytes, 20 tensors)

policy_net.0.weight f4 [64, 24]
00000000: 039e 8dbe 6fd6 94bf 67cd 463e 260e 2bbe
00000010: 1b85 383e 8b3b 1dbe 7b60 903e 8b79 63bd
00000020: 7c5e 423e 7ece 4c3d 91a4 e13c ccd4 9dbb
00000030: 5531 c8bd c832 7c3c 246b 893e a1d6 d33d
00000040: 5ef1 703e 2baf 083e 30cf 46be 66dc cfbe
00000050: 7fa2 b3be 5e62 a6bd a84d 1b3e da37 3e3c
00000060: ec7e 4a3b 997a 0bbf ec5f 2cbd d5e1 df3e
00000070: bc8d 653e 6d15 2f3e 0027 543f 599e 57be
00000080: 048b 82bd a506 88be bbf3 7f3e 424a 163a
00000090: 3e11 e4bc d8e4 74be 0865 483c fa39 78bd
000000a0: 1d2c 9ebd b58f 31be c93a 61be c061 84bd
000000b0: 4886 73be 1626 143e f6c8 c6bd 96ad 10be
000000c0: 8cbf 5f3e 51bd fd3e 90ab 73be 4975 b23f
000000d0: 0588 03bd 4df6 fabd 85e9 22bd 73c1 593d
000000e0: f3b2 b83e 9f95 963a 13d2 2f3d bc53 cebc
000000f0: 73a5 983e f44b 8c3e bfcd 613d 1396 d3bc
00000100: 3234 10bd 6ca8 19be 4280 8c3d 4d86 193c
00000110: 342a e73c 0b41 323e 1385 8dbd 243d 42be
00000120: 29fe ac3e 8b5a a93e 073a 87be ad58 8bbf
00000130: db65 763e 579e 833d 13d7 a03e 0c0c a63d
00000140: fa42 09be 31f3 8c3d c90b 64bd df4e f6be
00000150: 48c7 4abd 83e6 eb3c 73d7 d03c 64a1 22bd
00000160: f01b 8ebd 3568 c1bc 31e0 aabd 2a68 afbe
00000170: 34bc 90bd 1f21 6cbe 4783 34bd 844d bf3d
00000180: bf17 afbd 17ec 163e 8c1b ebbd a1fd 4f3e
00000190: 320a 223d 8568 d63d 84ff 663c 91c0 393d
000001a0: 6e5a 84bd 0675 c1bd 2d63 03be 303d ca3e
000001b0: a27b edbe 604e 003d 41de f43d 5e70 623d
000001c0: 1225 983e 56fc 813e 640b 0a3e 46b0 803e
000001d0: 4845 85bd f93f 2abe 9160 28be f6ef 77bd
000001e0: 548a a7be 887e 7b3e 6c57 2c3e e1ce 95bf
000001f0: f8d2 20be b436 8f3d 280b 253e 2b92 01be
00000200: 9f10 a6be 8baa 073e c7fd 78be dc2b c4bd
00000210: f9b9 e7bd 66d7 5cbe 4f87 3e3e 3703 3d3e
00000220: 8c05 4f3e da51 df3d 037d 543e 7560 3f3e
00000230: d4f6 ac3c 2baa fcbc 00d9 3dbe a284 1a3e
00000240: 9160 95be 4a13 0940 b086 e93d 6132 d2be
00000250: b61d 8bbe 80de 733e 3ddf d6be dadc 193e
00000260: e06b c23d f9c1 ebbc c6d5 253e b521 08be
00000270: d1c3 1f3d 699f 693d 4956 f138 4aa8 42be
00000280: 6feb f03d e2f9 2c3e 5a18 80bc 519e 813e
00000290: 0ff1 483e b766 16bd ca77 69be e0e0 30be
000002a0: cd0b 56bd ab32 a03e c3b2 dd3e 6c3c 8c3f
000002b0: c64e 12be 8723 383e a7de 363e 027f 18be
000002c0: c848 c73d 07fd 92be 491c 833d eec2 483e
000002d0: 66a2 49be e446 f9bb 7f18 49be 0d28 1abd
000002e0: 84c6 0bbe a2b9 213e c38c 59bd 7ff5 3dbd
000002f0: 5618 1c3e d8fd 35be 7684 393d 0bc4 b73d
00000300: d2f4 193f 38ef bc3d 3fc2 c5be f2e5 eebe
00000310: 760a cfbd 23f0 6f3e c0da f6bd 363a e53d
00000320: 637c 923c 0d09 653e bd13 29bc a61f b63c
00000330: 4ef9 0e3d bdf1 003e 73b0 0dbe 02fe 05bc
00000340: 38c6 88bd 533c 42be d67f a13d 48d4 08be
00000350: dc12 2e3d 9e72 1d3e 261b 27bd e600 293e
00000360: 5688 433e 1745 853f a420 4e3e 47a9 91bf
00000370: b662 9bbe f23f 313e 38f4 80bd ba01 7a3d
00000380: da62 4f3d 29b8 ae3e 5416 be3e 4c09 12be
00000390: 2274 f9bd 17cb 8dbe d996 593e 5713 0a3e
000003a0: 25a3 d83d d4b7 8abc afa1 e73d 78a6 3abe
000003b0: 0992 a9be ff1a 6dbe 4e22 5abc d5c3 713d
000003c0: f797 cf3e de1d aa3f e6b3 933e 237d 6cbf
000003d0: a37c 583e 1b9f 173e 161f e9be a020 e4bc
000003e0: e986 76be 1128 a73e 242e 713e b708 bbbd
000003f0: 28ce 1e3e c230 373e 5acd 75be 96f5 8ebe
-0.27659616 -1.162794 0.19414292 -0.16704616 0.18019526 -0.15354745 0.2819861 -0.055535834
0.18981355 0.050001614 0.027544292 -0.004816627 -0.09775034 0.015392967 0.26839554 0.103436716
0.23529574 0.13348071 -0.19414973 -0.40597838 -0.35084912 -0.08124231 0.15166342 0.011609996
0.0030898405 -0.54483944 -0.042083666 0.43726984 0.22417349 0.17098017 0.8287201 -0.21056499
-0.063741714 -0.2656757 0.2499532 0.0005733111 -0.027840253 -0.23915422 0.012231119 -0.060602166
-0.07723258 -0.17339976 -0.21995081 -0.06463957 -0.23781693 0.14467654 -0.09706299 -0.14128718
0.21850413 0.495585 -0.23795915 1.3942043 -0.03211214 -0.122540094 -0.039773483 0.053163003
0.36074027 0.0011488682 0.04292495 -0.025186412 0.29813728 0.27401698 0.055127855 -0.025828397
-0.035206027 -0.15005654 0.06860401 0.009370399 0.028218366 0.17407624 -0.069101475 -0.18968636
0.3378766 0.3307689 -0.2641146 -1.0886437 0.24062292 0.06426685 0.3141409 0.081077665
-0.13404456 0.068823226 -0.0556753 -0.4810705 -0.049506456 0.02879644 0.02549336 -0.039704695
-0.069389224 -0.02360926 -0.08343542 -0.34259158 -0.07067147 -0.2305951 -0.04407051 0.09340957
-0.08549451 0.14738499 -0.114798635 0.20311595 0.039560504 0.10469154 0.014099006 0.04534966
-0.064625606 -0.094461486 -0.12830801 0.39499807 -0.46383387 0.031324744 0.11956454 0.055282943
0.29715782 0.2538783 0.13480908 0.25134486 -0.06507355 -0.16625966 -0.16443087 -0.06053158
-0.32722723 0.24559987 0.16830224 -1.170376 -0.15705478 0.06992856 0.16117537 -0.12653415
-0.32434556 0.1324865 -0.24315558 -0.09578678 -0.11314768 -0.21566543 0.18606304 0.18458258
0.2021696 0.10904284 0.20750813 0.18689139 0.02111379 -0.030842861 -0.1853981 0.15089658
-0.29175237 2.1418023 0.11402643 -0.4105406 -0.27171105 0.23815346 -0.41967192 0.15025654
0.09493232 -0.028779017 0.1619483 -0.13294108 0.039005104 0.05703679 0.000115078474 -0.1900951
0.117636554 0.16892198 -0.015636612 0.25316098 0.19623207 -0.03671905 -0.22799602 -0.17273283
-0.052257348 0.31288657 0.43300447 1.0955939 -0.14287862 0.17982303 0.17858373 -0.148922
0.09730679 -0.2870867 0.06401879 0.1960561 -0.19690856 -0.007607328 -0.19638251 -0.03763585
-0.13649946 0.1579347 -0.053112756 -0.0463767 0.15243658 -0.17772615 0.04529234 0.08972939
0.6013919 0.09225315 -0.3862476 -0.4665981 -0.10109417 0.23431449 -0.12053442 0.111927435
0.017881578 0.22366734 -0.010319647 0.022231888 0.034905724 0.12592216 -0.13836841 -0.008178236
-0.06678432 -0.18968324 0.07885711 -0.13362229 0.042498454 0.15375754 -0.040797375 0.16504249
0.19094977 1.041171 0.20129639 -1.1379784 -0.30348748 0.1730955 -0.06296581 0.061036803
0.05063138 0.34124878 0.3712641 -0.14261359 -0.12180354 -0.27694008 0.2124895 0.1348394
0.10577992 -0.01693336 0.113101356 -0.18227565 -0.33119228 -0.2315483 -0.013313843 0.05902465
0.40545627 1.3290365 0.2884819 -0.92378443 0.21141295 0.14806788 -0.4553153 -0.027847588
-0.24074902 0.32647756 0.23552758 -0.091325216 0.1550833 0.17889693 -0.24004117 -0.27921742

policy_net.0.bias f4 [64]
00000000: efaf e0bd bc72 e1bd cb64 4fbe 0582 dfbc
00000010: 3a56 0e3e 3594 1abe 7edd 043e f834 b9bb
00000020: e078 cd3d bf6e 273e dc98 e4bd dd61 2f3d
00000030: 2155 65be 4bf3 7fbe 0d65 723e e918 e43d
00000040: f4a6 293e 4530 733e 6b06 c33d 1053 06be
00000050: 9600 083d 47f1 653d b57d 28be c96c b13d
00000060: 0521 34bd 5194 20bd 12e4 403e 3cbd 153b
00000070: bbee 3b3e 685e 3b3d 2cf5 b5bd 05c7 03be
00000080: a74e 753d 168d 723e d046 b0bd bc0e 33bd
00000090: c026 d93b cf25 2a3d 0087 03be 383a 1e3e
000000a0: bc34 983d bb12 61be f0f7 0e3d d009 b13a
000000b0: 164c 31be 585f 22be 639f 583e b517 0abb
000000c0: 1206 ff3c 94a8 d63d 5a61 063e 464b b43c
000000d0: 1d39 063e e2ad 373e 4399 b93c b3fe 4c3e
000000e0: 1a7d 1ebe 9e3a ac3c adf4 90bd c02c 103e
000000f0: 1d7b 983d 9bfb 40be ff91 0abe eb83 a0bd
-0.10971057 -0.11008212 -0.20253293 -0.027283678 0.1390008 -0.15095599 0.12975118 -0.0056520663
0.10032821 0.1635084 -0.11161968 0.04281794 -0.22395755 -0.24995153 0.2367136 0.11137564
0.16567594 0.23748882 0.095227085 -0.13117623 0.033203684 0.056138303 -0.16454203 0.08663327
-0.043976802 -0.039203946 0.18837002 0.0022848388 0.18352787 0.04574433 -0.088846534 -0.12868889
0.05988946 0.23686633 -0.086072564 -0.043715224 0.006626934 0.041539963 -0.12844467 0.15451896
0.07431933 -0.21979801 0.03490442 0.0013506953 -0.1731418 -0.15856683 0.21154551 -0.002107126
0.031130824 0.104813725 0.13123074 0.02200855 0.13107724 0.17937425 0.022656089 0.20019035
-0.1547741 0.021024045 -0.07077918 0.14079571 0.07445357 -0.1884598 -0.13532256 -0.07837661

policy_net.2.weight f4 [128, 64]
00000000: 6922 30be 3944 b73d 3f5b 8f3c da4e 88be
00000010: 17e2 893d 6f5e 013e c0fc 88bd bc80 483e
00000020: 18a6 2b3e 24da 903d 295d 0bbe 2423 2dbe
00000030: b0d2 813e 02b8 ee3b 0f38 943e fac7 803e
00000040: 92f1 00be 5ce4 03be 9eae fbbd b288 06bd
00000050: 1a6d 2cbe e667 583c f5b4 9a3e a30d 663e
00000060: b234 2d3e 2b36 92be 9c0c abbe b2c6 673e
00000070: e910 2ebd 59de 443e 629e 4fbe 7b75 40be
00000080: 8219 edbd ecb0 043e a975 1d3e 1c38 86bd
00000090: a85d 9dbd 6296 8b3e fb22 8ebe 23df 50be
000000a0: 91a8 5bbd df85 67be 5d09 40be b09e c33e
000000b0: 0608 94bd 8975 8e3d 3c7b c2bc f120 ed3c
000000c0: ffe9 153e 549a a2be c9ee 663c e1f5 793d
000000d0: d0a2 98bd 4556 7dbe 1b87 2b3e 5daf 913d
000000e0: 1d39 fbbd 28ca 583c cfad 7c3e 4dea 1a3e
000000f0: 3600 11bd 5a04 3fbe a77e f1bd 4887 99bc
00000100: c1a8 96be 7c34 ba3d 05a9 523e 6d43 fe3b
00000110: a0d6 8ebf fe49 d93d a7a6 3fbc 3273 d6be
00000120: bdf6 bfbd cc14 4cbd 0bcb 0cbd 47d6 3cbe
00000130: 15d6 bbbd 75bb e33d 8b88 27bd f637 0d3e
00000140: c8f2 273c 8e8e a23d 319b cc3d 0d61 a4bd
00000150: 86ef 2ebd c9af 683d 43f0 34be 7f93 dbbe
00000160: 93eb 9cbc 2317 153e 767f 523e c9dd c53e
00000170: b143 a7bd ca73 1b3e c17f f03c d8a8 dc3d
00000180: eaa9 a4be e2e4 8abe 2f02 c83c b1a0 a93d
00000190: f060 313e acdb c13d 5836 dcbd 3366 81be
000001a0: 3b11 bdbe c990 f93d 8278 d1bc 8f44 e8be
000001b0: e5f8 2d3e 29bf 853d e7a4 28bd cf64 003e
000001c0: 443d ef3e e5ec b53d 0d26 9dbe e500 b3bd
000001d0: 52af 813e 460d 20be 6376 0b3b 7db0 f23c
000001e0: 321c a23d e9cf 82be af66 a0bd 36a3 64bc
000001f0: 7bb7 b5bc 9cfa db3d 48e5 d9bd 7970 a53d
00000200: 779e 51be b582 5139 f55e 82be b077 b93d
00000210: eae5 00bd e722 5e3e fa6a 323c 907c 183d
00000220: 7a42 143e de4b ca3d 669c b43d 6e4b 94bd
00000230: f305 3ebe 438e 8bbe 6a82 f7bd 3339 05be
00000240: bd1b 06bd 84f4 0f3c fc1b 933e 975b 55be
00000250: 6289 76ba cb46 a7bd fd3b f2bd e60f 76be
00000260: ace4 44be d7a8 5e3e d08e c13d 9400 1a3e
00000270: c320 d23d 6fc5 23be e9cb 333c 08d1 ab3d
00000280: 766d e43d 44a7 cf3a 9752 5d3d f34e 2e3d
00000290: 703c 21be 8b66 0bbf b5bc 9f3d a969 953e
000002a0: 3955 1bbe 776b d1be 5b39 f23c 8bfc 45be
000002b0: eb1d 84be ad69 c33d 979d 03be bbf5 b33d
000002c0: fd8f dfbb cf18 f73d 0857 843e 7b88 a8be
000002d0: 0783 643e 12d9 bdbd 2eac 1fbc 409e 183d
000002e0: 9f39 9bbe c721 ce3c f2e1 3fbe 6ffa 6fbd
000002f0: a38a 833e ef19 22be 9d7f e1bc cc0b b9be
00000300: 3aa4 82be 8423 303e e399 8fbe 8ee9 2bbd
00000310: 9914 8dbc 1cc1 37bc 8ad4 46be e053 3fbd
00000320: 685b 823d e4d4 913e acf0 6d3e ab9e f5bd
00000330: a8b0 31be b1be 063c 9872 fbbd a00f 54bd
00000340: 5d14 243d 4865 ce3b c381 85bd 68e3 eebe
00000350: 6875 c53d b83f acbd 83c3 3c3e 42c7 adbd
00000360: 7ea2 a5be ff4b fc3d 3f85 863d 7a90 6cbd
00000370: 28fa 48be dbb4 053d 8b9d 483e 4fa5 e3be
00000380: 52a3 d83e c1fe 963d 29ac 4c3e bc02 0b3e
00000390: 8f1c 92bd 5f2d 6bbc 9062 77bd ff13 93be
000003a0: a81d 41ba dd1a b1be ee36 073e 2af0 bcbe
000003b0: 21dc 19bd 68b9 39bf 1951 01bf 0f2d 003e
000003c0: 2d1b 88be 0a2a 1cbe 1ecc ad3e bd70 f5be
000003d0: 320c 883e ed39 383e 5f17 683e 1764 913e
000003e0: 1ecd 6bbe d174 5dbd 7c29 bfbd 5759 4abe
000003f0: e8f5 e3bc 51cb 8fbd 574d 783d cef6 a23d
-0.17200626 0.08948559 0.017499564 -0.2662266 0.06732576 0.1263368 -0.06688833 0.19580358
0.16762578 0.07072857 -0.13609757 -0.16907936 0.25356054 0.007285119 0.2894902 0.2515257
-0.12592152 -0.12880081 -0.12289165 -0.032845207 -0.16838494 0.013208365 0.30216184 0.2246614
0.16914633 -0.28556952 -0.33408058 0.2263439 -0.042496596 0.19225444 -0.20275262 -0.18794815
-0.11577131 0.12958115 0.15376915 -0.06553671 -0.07683879 0.2726317 -0.27761063 -0.2039762
-0.053627554 -0.22609662 -0.18753572 0.38207006 -0.07228093 0.06956012 -0.023740403 0.028946372
0.14640044 -0.31758368 0.014095017 0.061025504 -0.07452929 -0.2473994 0.16750757 0.07113526
-0.12266753 0.013231792 0.24675678 0.15128441 -0.03540059 -0.18654004 -0.11791735 -0.018741265
-0.29425624 0.09092042 0.20572288 0.0077595026 -1.1159248 0.10609816 -0.011697448 -0.41884762
-0.093732335 -0.04982452 -0.034373324 -0.18441115 -0.09171692 0.11119739 -0.040901702 0.13790879
0.010250755 0.079373464 0.09990538 -0.080263235 -0.042708896 0.056808267 -0.17669778 -0.42885968
-0.0191553 0.14559607 0.20556435 0.3864577 -0.08167208 0.15180889 0.029357793 0.10774392
-0.32160884 -0.2712775 0.024415104 0.082826026 0.17322135 0.09465727 -0.10752553 -0.25273284
-0.36927208 0.12185819 -0.025570158 -0.45364806 0.16989477 0.065306015 -0.041172888 0.12538455
0.4672643 0.08883075 -0.30693093 -0.08740405 0.2532907 -0.15630063 0.002128028 0.029625172
0.07915534 -0.25549248 -0.07832085 -0.013954928 -0.022182217 0.10741159 -0.10639435 0.08078093
-0.20470606 0.00019980485 -0.2546307 0.09056032 -0.031469263 0.21693002 0.010889763 0.037228167
0.14478484 0.09877752 0.08818893 -0.072409496 -0.18556957 -0.27256975 -0.120854214 -0.13010101
-0.032741297 0.008786324 0.28732288 -0.2083572 -0.0009404627 -0.081677996 -0.11827848 -0.24029502
-0.19227856 0.21744095 0.094510674 0.15039283 0.10260155 -0.15993284 0.010973909 0.08389479
0.111536905 0.0015842696 0.054033842 0.04255576 -0.15745711 -0.54453343 0.07799665 0.29182175
-0.15169229 -0.40902302 0.029568365 -0.19334619 -0.25804076 0.095416404 -0.12853085 0.08787104
-0.0068225847 0.12065279 0.2584765 -0.32916626 0.22315608 -0.092699185 -0.009745641 0.037260294
-0.303174 0.02516259 -0.18738535 -0.05858844 0.2569171 -0.15830205 -0.027526671 -0.36141813
-0.2551592 0.17201048 -0.28047094 -0.041970782 -0.017221736 -0.011215474 -0.19417015 -0.04671085
0.063650906 0.28482735 0.2323634 -0.11993154 -0.17352545 0.008224175 -0.122777164 -0.051772714
0.040058482 0.0062986948 -0.06518891 -0.46657872 0.09641534 -0.08410591 0.18433957 -0.08485271
-0.32350534 0.123191826 0.065683834 -0.05775497 -0.19626677 0.03264318 0.19591348 -0.44462058
0.42312104 0.07372809 0.19987549 0.13575262 -0.07134353 -0.014354079 -0.06039673 -0.28726193
-0.0007366785 -0.34590808 0.13204548 -0.3690198 -0.037563447 -0.7254853 -0.5051437 0.12517188
-0.26583233 -0.15250412 0.33944792 -0.47937575 0.26571804 0.17990847 0.22665165 0.28396675
-0.23027465 -0.054066483 -0.093340844 -0.19760643 -0.027827218 -0.070212014 0.060620632 0.079572305

policy_net.2.bias f4 [128]
00000000: ee7b 4b3d c45e 0dbd 53d5 1a3e bf21 e73c
00000010: 4218 9e3b a8d3 ad3d 72fe 09bd 8c5f 61bd
00000020: 4732 653d a4fc d73d e28e 2cbe 9f62 153d
00000030: e8af 6ebd 926c e5bd a3cc 733d e0f2 093d
00000040: 5fb5 d93c 23c6 d8bd 1e50 e83d 88c7 eb3d
00000050: 6523 37be 160a 6c3d b92a 96bd f055 d6bd
00000060: 5907 053d c0cf e03a e579 463c afcd 143d
00000070: de94 2e3d d972 15bd be7a c8bc 7ad7 10bd
00000080: fc9b 963c 71f1 8d3c b334 edbd ea89 0cbe
00000090: 1415 91bd d4f4 133e 18bd 303e b526 8f3d
000000a0: 22ec 0ebe 1fc3 2bbe 8e53 ed3c 24a2 6e3d
000000b0: e43d 02be 4c02 04bd 1ea9 e43c cb33 1b3d
000000c0: 03df fe3d fe63 3fbe fbfd 2fbe 4d47 e33d
000000d0: 1a27 263a d215 013e db34 003d d908 c9bc
000000e0: 9d34 003d 18c7 d1bc da53 e53c f001 063d
000000f0: 4b87 35bd ad64 b9bd 7b63 cd3d 7ae8 f5bd
00000100: 1e2e e1bd 246b 8fbd 6f44 12bd f490 73bd
00000110: f424 0f3d df1b e83c 6480 04be ec69 ebbd
00000120: fd6a df3d e16b 36bc 83ee f73d dbc3 e13d
00000130: b121 f8bc 1eac 12bd 08b4 a63d 1fdc 723c
00000140: 9fb8 9d3c c458 3c3d c5f6 073c 01b4 093d
00000150: d9ff 913c c26f debb 2744 1a3d 8352 713c
00000160: 550b f33d 5eef c33d eed8 b03c 5e49 5dbd
00000170: 6be1 bcbd 144e 243c c0b6 cdba cb9e 8fbc
00000180: 145b 89bd 4632 debd 9559 dabd c477 70be
00000190: 44ec 963d e74d 3abd 1280 843d eaaf 543d
000001a0: c742 2abc e6ac b7bd d10a 4a3d aff5 2e3c
000001b0: 83ee 14be 5b84 743d 86ab c0bd 3aa2 31bd
000001c0: 38e9 f5bc 6e0d d13d 6bf4 843d f34e a2bc
000001d0: 630a 28bd 55a9 193e 6c49 24be 5c39 80bd
000001e0: 1b44 d5bc 74c2 04bd 25a1 adbd f90d 483e
000001f0: 7b36 a0bd 2b1e 643d 4138 093e 6498 b13b
0.049678735 -0.034514204 0.15120439 0.028214334 0.004824669 0.08487636 -0.033689924 -0.05502276
0.05595615 0.10546234 -0.1685138 0.036471006 -0.058273226 -0.11202349 0.05952133 0.03367889
0.026575742 -0.105846666 0.11343406 0.11512667 -0.17884596 0.057626806 -0.073323674 -0.1046561
0.03247771 0.0017151758 0.012114023 0.036328968 0.04262244 -0.03648648 -0.02447259 -0.035361744
0.018384926 0.017327042 -0.11582317 -0.13724485 -0.070840985 0.14448863 0.17259634 0.06989805
-0.13957265 -0.16773652 0.028970506 0.058260098 -0.12718922 -0.032228753 0.027912673 0.03789119
0.1244488 -0.18690488 -0.1718673 0.11097584 0.0006338224 0.1260598 0.031300407 -0.024540352
0.031300176 -0.02560763 0.027994085 0.03271669 -0.04431848 -0.090524055 0.1002874 -0.12007232
-0.10995124 -0.07002857 -0.035709795 -0.05946441 0.03494735 0.028333602 -0.12939602 -0.11494812
0.10909078 -0.011134119 0.121060394 0.110236846 -0.030289503 -0.035808675 0.08139807 0.014822989
0.019253073 0.04598309 0.008298581 0.03361893 0.017822193 -0.006788225 0.03766265 0.014729145
0.11867396 0.0956714 0.021587815 -0.054025047 -0.092226826 0.010028381 -0.0015694723 -0.017531773
-0.06706825 -0.10849433 -0.10661618 -0.23483187 0.07369283 -0.04548445 0.0646974 0.051925577
-0.0103918975 -0.08968525 0.04932672 0.010678693 -0.1454411 0.059696537 -0.094077155 -0.043367602
-0.030018434 0.1020764 0.064919315 -0.019813037 -0.04102553 0.15006001 -0.16043633 -0.062609404
-0.026033452 -0.032412007 -0.084780015 0.1953658 -0.07822891 0.055692833 0.13400365 0.0054197777

policy_net.4.weight f4 [128, 128]
00000000: 9d64 48bd 0016 303e 76b7 fb3d 2dc0 703c
00000010: 6510 993c 2b9b 063e de08 37bb 1d52 363e
00000020: eb78 d3be 736d 5cbc a40f 6b3e 3617 7e3c
00000030: 213d 213e 0982 efbd 2be3 ab3e 8176 d6be
00000040: 315d ebbd c64c 883e 8385 ce3d c27a b8be
00000050: c098 8d3e be6b 5ebd 75a5 773e 44fb a2bd
00000060: e9e6 14bd 7192 b4bd 4f45 b3be 6303 4d3e
00000070: a147 133d c605 08be 1a0a a9be 67f7 4dbe
00000080: ad14 813e 775c 623d cff9 6a3e e03c 02bf
00000090: 0667 8f3c 5343 18be 0c2d 0fbe bbc7 cfbd
000000a0: f18f 2b3e d652 643b 21de 323e 1a75 d63a
000000b0: 96bd 18be 31d8 3bbf f62c abbe 4225 46be
000000c0: 8cd0 683e b80d 903e 1704 fc3c 2143 103e
000000d0: 3726 583e 76aa 7ebe 8b3b 2dbe a630 cf3c
000000e0: 5541 27bd 02cf b1be 7e57 64bd 0821 c73d
000000f0: 4963 cc3e f5de 6d3e 775e 0bbf 4657 2fbe
00000100: 62ee 57bd 040d 4abe 2975 d3bd 6d92 823d
00000110: 24c1 18be 46c0 9abe fe42 debd 89a0 22be
00000120: 6003 f1bd 54a6 99bd b6de 19be 5997 1abe
00000130: c903 22be 0249 a6bc 2a55 253e d4c4 18bc
00000140: 6582 003d 54c9 0d3e f436 00bc 66aa a03d
00000150: d39e edbd ab5e 913e 7562 59bd 904d 2b3e
00000160: 3989 9f3d ca52 30bd ec88 3abc 029f 09be
00000170: 5292 7dbd 6179 d33c a55c 92be ec39 6f3e
00000180: a9eb 83bd d1cc 8d3e 6c3d 91be 8ea3 8bbd
00000190: 9a03 b33d 96d3 cc3c 4170 0cbe 02b5 963e
000001a0: f7fc d7bd 1715 4f3d 8816 923e c3a4 573c
000001b0: 12b8 a83d c606 adbe 3b0d b7ba bcc4 c8bd
000001c0: 210d 0bbe 8a95 273e 81bd 21be a023 26bd
000001d0: ffd9 ca3b ae5d afbe 3be6 093e 12b2 a5bd
000001e0: 0e3f db3d 7701 27bc 13ab 97be 107d cdbe
000001f0: ad44 08bc 217e c53e f7b2 2b3d 7312 263b
00000200: d4c7 ea3d 71c5 38bc f313 45be e7ed a5be
00000210: 2e0d 203d a546 15be e58b 943d 43ce e63c
00000220: 1418 cbbe 39c0 34bd 3658 ee3c 2914 313e
00000230: 5f04 96be dca1 303c b0ad 2f3e 590f 423e
00000240: 2f10 d3be 8da9 d33c 717e ffbd d9e4 bd3d
00000250: 941f 60bd e25d 79be ced9 48be 248a 13be
00000260: 39ae 30be d987 613a b5bf eb3c 64db 43be
00000270: 5423 4d3d 0030 57bc 2045 fbbd 0d72 083c
00000280: d6fc 233e 5e3a 03bc 99d7 45be a6ef b8be
00000290: 3248 4fbe fc94 90bd b22b 46bd fc4a bc3e
000002a0: 2e06 753d 947c 6bbe a233 76be 7c45 93bd
000002b0: b08b 4dbe 8bb2 c5bd bf80 92bd f768 8fbe
000002c0: 182c 09be ec31 103e 9ae6 873e 1d10 c6be
000002d0: 5944 a3bd b5d2 103e 1bd4 3abe f499 8a3e
000002e0: f5ac e93d 8234 a1bb b23a 423c 942a 88bc
000002f0: 1e07 b1be 969a debd 27ca 02bd fbe6 96be
00000300: 752a b1be 2b79 b83d da11 b73d 411a 343d
00000310: 5527 a5be 3202 68bd 84b2 16bf 1b90 373e
00000320: 441a 86be 46ee a9bd ab15 e5bc ee71 6b3e
00000330: 46e0 7a3d 294b 3cbd 7459 2dbd 97f7 883e
00000340: aa46 6439 f7c3 70be d925 243e 2e28 643e
00000350: a215 bdbe 8f9d ca3d 259f 36be fb36 933e
00000360: 8d0d dfbe d27f 52be 5d60 8dbd b389 2e3e
00000370: ccfd 643e 96c7 1ebe 4dc8 7c3d 1262 f8be
00000380: 6b79 8dbd 3ed8 52be 99f7 d13e 853d 6dbd
00000390: a408 58be 0ad2 24bc 3318 f43d f294 ed3d
000003a0: eec5 81bc e337 f43d 7ae2 c83c 7731 47be
000003b0: 9bf3 ef3d 7501 0a3e d759 bdbe 8e68 85bd
000003c0: e6e4 563d d09f 73be c255 613e 6ea7 bc3e
000003d0: 98e6 e5bd 61c0 e73c 93fd 593d ae84 0fbe
000003e0: c34d 92bd 0a5c 163e 45b9 bd3c 50d3 21be
000003f0: 884c 0dbe 44de 45be be11 c93d 5b6c 5a3e
-0.048924077 0.17195892 0.12290852 0.014694256 0.018684575 0.1314513 -0.002792887 0.17804761
-0.4130319 -0.013453829 0.22955185 0.015508464 0.15745975 -0.11694724 0.33571753 -0.41887286
-0.11492384 0.26621073 0.10084059 -0.36031157 0.27655602 -0.05430197 0.2418421 -0.07958081
-0.036353026 -0.08816994 -0.35013816 0.20020823 0.035956983 -0.13283452 -0.3301552 -0.20113908
0.25211087 0.055263963 0.22946857 -0.5087414 0.01750518 -0.14869432 -0.13982028 -0.101455174
0.16754128 0.0034839413 0.17467548 0.0016361803 -0.14916071 -0.73376757 -0.3343274 -0.1935015
0.22735804 0.28135467 0.030763669 0.14088108 0.21108328 -0.24869713 -0.16917245 0.025291752
-0.04083379 -0.34728247 -0.0557475 0.09723097 0.399195 0.23229583 -0.54441017 -0.17123136
-0.052717574 -0.19731528 -0.10325081 0.06375585 -0.14917427 -0.30224818 -0.108526215 -0.15881552
-0.11768222 -0.07502428 -0.15026364 -0.15096797 -0.15821756 -0.020298485 0.16145769 -0.009324271
0.031374354 0.13846332 -0.007825602 0.07845001 -0.11602559 0.28392538 -0.05307241 0.16728806
0.07789845 -0.043047704 -0.011385184 -0.13439563 -0.06190712 0.025814714 -0.28586307 0.23361939
-0.06441433 0.27695325 -0.28367174 -0.06818305 0.08740921 0.025003236 -0.13714696 0.29434973
-0.10546296 0.050557222 0.28532815 0.013161841 0.082382336 -0.3379423 -0.0013965735 -0.09803149
-0.13579227 0.16365638 -0.15794946 -0.04056132 0.006190538 -0.3425116 0.13466732 -0.08090605
0.10705386 -0.01019322 -0.29622707 -0.40134478 -0.008317155 0.3857279 0.04191872 0.0025340586
0.114638954 -0.011277542 -0.19245891 -0.32408068 0.03907507 -0.1457773 0.07253245 0.028174525
-0.39666808 -0.04412863 0.029094797 0.17292847 -0.2930021 0.010780778 0.171561 0.18951167
-0.41223285 0.025837684 -0.12475289 0.09272165 -0.054717615 -0.2435222 -0.19614336 -0.14408165
-0.1725396 0.0008603312 0.028777936 -0.1912666 0.05008252 -0.013134003 -0.12269044 0.008327973
0.16014418 -0.008009521 -0.19320525 -0.36120337 -0.20242384 -0.070596665 -0.048381515 0.3677596
0.059820347 -0.22996742 -0.24043134 -0.071909875 -0.20072818 -0.09653195 -0.071534626 -0.2800977
-0.13395727 0.14081544 0.26543123 -0.38684168 -0.07972021 0.14142878 -0.18244974 0.27070582
0.11409942 -0.0049195895 0.011854814 -0.016621865 -0.34575742 -0.10869329 -0.03193107 -0.294731
-0.34602705 0.09007486 0.08938952 0.04397035 -0.3225657 -0.05664272 -0.58866143 0.17926066
-0.26191914 -0.082974 -0.027964434 0.2299268 0.06124904 -0.045970116 -0.042321637 0.26751396
0.00021770099 -0.23512255 0.16030063 0.22280952 -0.36930567 0.09893333 -0.17834146 0.28752884
-0.43565026 -0.20556572 -0.069031455 0.17044716 0.22362441 -0.15505823 0.06171446 -0.48512322
-0.06907924 -0.20590302 0.41009215 -0.057919998 -0.21097046 -0.010059843 0.11918678 0.11600675
-0.01584145 0.11924722 0.024522055 -0.19452463 0.11716386 0.13477118 -0.36982605 -0.06514083
0.05246439 -0.23791432 0.2200537 0.3684649 -0.11225623 0.028289976 0.053220343 -0.14015457
-0.07143738 0.14683548 0.023159632 -0.15803266 -0.13798726 -0.19323069 0.09817837 0.21330397

policy_net.4.bias f4 [128]
00000000: 3c21 87bd 349c b2bd cef2 a73c 8d13 26bd
00000010: b73f 75bd 3a50 81bb 4b73 c83c e4c6 4ebd
00000020: 1537 a6bd 59b6 b1bd f3bf be3d 1b02 313d
00000030: 1ca3 763d 0a95 c5bd 2efa cb3c ac1d 9b3d
00000040: 6b9e 16bc af43 083d 8cf0 9abd 9076 f3bc
00000050: b05d 49bd 0cd5 523d 8444 fbbd 88ce ecbd
00000060: 65cc 1ebd e444 cc3d db12 62bd 99f3 b3bc
00000070: 837b 093c 25b1 bc3c a5a7 9a3d 6ce8 efbb
00000080: 969e f03d bdd2 f03d 9a22 363d 02d8 813d
00000090: 270e 733d 77af c73d ec58 33be b6bc 163d
000000a0: a1da 2abd 206c 67bd c884 a73d 0794 bc3d
000000b0: a0d2 94bd 5125 473d 72b6 043e 4749 b63c
000000c0: a198 7cbd ed70 bdbd ae35 5ebd 520f 473d
000000d0: f4c3 11be c176 e63c 0ded 0e3d c198 bdbd
000000e0: daba 60bc 2669 903d 789a ed3c e3f2 4c3d
000000f0: 178d b2bd 113e 893d 18a7 46be 76d8 fb3c
00000100: 2c79 50bc 736d 9d3d 6b7a e3bd 2604 b93d
00000110: f9da a5bd e79d c4bd fde3 32bd 0f85 01be
00000120: cb13 ff3d 6620 eabc 9d90 ce3d 8464 9dbc
00000130: 303a 28be 96f3 0d3e 6c04 0b3e 1297 ec3c
00000140: 5672 86be ed56 c0bc f986 283e 03a3 25be
00000150: f155 65bc 21cb a0bc 70e7 55bb e653 d63d
00000160: eec6 1fbe 1e9b 1d3d 55df bf3a 68f9 1bbe
00000170: bdfd 98bd 53b9 57bd a965 20be 1835 753d
00000180: 9c04 17be bbb8 c33d 9edd f1bd 85be 943d
00000190: 40a8 e93d 46e2 c63d ab3d 053e 1b03 f4bc
000001a0: 4403 32be 56aa 523d 441d 033c 3300 3bbe
000001b0: a402 b6bb 6650 313d b82e d8bd 6955 613c
000001c0: f54e 66bc 465c a83d a1db 783d 1e4b b13d
000001d0: 2aeb a53c e388 ad3d 52bd 86bd e742 de3d
000001e0: 1f2c 1fbe 93c1 a83d 9add 06bd 8a91 6d3d
000001f0: f25d abbd aae8 b1bc 4fb0 663c ae37 283d
-0.06598136 -0.087212 0.02050152 -0.04054599 -0.059875216 -0.0039463313 0.024469038 -0.050482646
-0.08115975 -0.08677358 0.09313955 0.0432149 0.060214147 -0.096475676 0.024899568 0.07574019
-0.009193043 0.033267673 -0.07565412 -0.029719621 -0.049161613 0.05147271 -0.12268928 -0.1156283
-0.038769145 0.09974077 -0.055193763 -0.021966742 0.008391264 0.023033688 0.07551507 -0.007321408
0.11748998 0.11758945 0.044466592 0.06340028 0.05933967 0.09750264 -0.1751439 0.036801063
-0.041712407 -0.0564996 0.08179623 0.092079215 -0.07266736 0.048619572 0.12960222 0.022251738
-0.061668996 -0.092500545 -0.05425041 0.048598595 -0.14234906 0.028132798 0.034894038 -0.09257651
-0.013716424 0.070513055 0.02900432 0.050036322 -0.08718317 0.06701291 -0.19399679 0.030742865
-0.012724202 0.076868914 -0.11107334 0.090339944 -0.08098406 -0.0960043 -0.043674458 -0.12648414
0.12454947 -0.028579902 0.100861765 -0.019212969 -0.16428447 0.13862452 0.13575906 0.02888063
-0.26259106 -0.02347895 0.16457738 -0.16175465 -0.013997541 -0.01962811 -0.0032639168 0.10465221
-0.1560323 0.03847801 0.0014638702 -0.1523186 -0.07470272 -0.052666973 -0.1566378 0.059865087
-0.14747852 0.09556719 -0.11809848 0.07262901 0.11409044 0.09711127 0.13011806 -0.029786637
-0.17384058 0.051431976 0.008002583 -0.18261795 -0.005554514 0.043289565 -0.10555786 0.0137532735
-0.014056911 0.08220725 0.06075633 0.086569056 0.020253737 0.08473375 -0.06579079 0.10852604
-0.15544175 0.08240046 -0.03292618 0.058000125 -0.08367528 -0.021717388 0.014080121 0.041068725

policy_net.6.weight f4 [64, 128]
00000000: 97d4 67be 758a 773e 61b6 723e 3cdb 8cbe
00000010: add6 2cbe a41a e8bd 9069 16be 8806 0e3e
00000020: 0137 913e a890 83bd 66e0 57be 24f1 26be
00000030: 877e 69be 8390 b5be d0aa 44be ef09 e73c
00000040: 8477 343e 0910 873d 16e5 b9be 54ae 393e
00000050: 8ca9 723d 07cf c93b 0346 9b3d cb83 1e3e
00000060: 580d 83be 0f79 063e b0c1 43be ac9c 723e
00000070: d182 513e 32a0 053d 7322 c6be e5e7 1dbe
00000080: e415 713d 4607 343d c52e b3be 438f 34bc
00000090: d0d5 0a3e 5195 0cbf 5ec9 9d3d 670c 843e
000000a0: 9c59 003e f6fd 88bd 7246 233e 5f12 b3bd
000000b0: 243b a1be 8110 053e 86b0 06be 5926 cf3c
000000c0: 06b8 833d d7b4 ddbd f0da b6be ab4d a53d
000000d0: 5f6f e43d 1c3e be3d 93f1 90bc 65d9 a63b
000000e0: 36ee 15be 17f9 c63c 0016 6e3e 9cdc 7bbd
000000f0: 1434 033e 5977 0a3e 1882 c4be 81e7 5dbe
00000100: 5d79 1dbe 13f5 6abe e1fa 3c3c fe4f 923d
00000110: 4d5d 75be 1c21 94be 7a82 c53d 7c18 88be
00000120: 6138 083d ea8b 4cbe 5181 e5be dd8d b33d
00000130: 3ed1 d6bd eed0 aabe ce7e 00bf ef87 8cbe
00000140: b485 2e3e 2c4f f53b 0705 8b3d 855f bebe
00000150: a23f aebe 14a0 2cbe 7df4 6f3e 69f0 1fbe
00000160: abf4 db3d fc3e 413c 6c88 073e 9262 b8bd
00000170: 7c0a 6d3e a8ab fe3c e498 2f3e a1f5 c6be
00000180: 63d9 8ebc 5337 1f3e 1b3c 4fbe c1e1 24bd
00000190: 227d 07bf 318d 543e d0d2 3cbd 0385 d0bd
000001a0: e3b0 88be 5b7a 81bd 1dbc c2bd e546 74bd
000001b0: d31a 1b3e 1050 733c c56c e73d b22a 2dbe
000001c0: dea1 cbbc bc7e 533d 5045 18bd 08e0 c1be
000001d0: 08ec 883e be89 ebbe 5383 f1be 9c46 58be
000001e0: 18a7 9d3d b3a4 183e 61df d93d 1541 c53d
000001f0: 88cd c83d 1ed4 74bd cbb3 bcbd 8491 68bd
00000200: 5bc6 ca3a 5a00 b23d 8a6f edbb 449e 72bd
00000210: 8c26 d7be 0b01 6a3e a4ab 18bd 385d 813b
00000220: 450c 02be a75b 093e 2f98 d43d fa6b 3a3d
00000230: 651b ed3c 6ca6 ebbd 2200 b83d 13ea 0a3e
00000240: b433 f4bd f34a 8abd 2fa6 48ba 3e2e 09bd
00000250: 91f7 15be 61ad e63d 70ab 583e 9d3f 32be
00000260: e725 87bf 55fc 093d 57c9 e1be a7e9 adbe
00000270: c231 8abd 4618 253e 21c9 d33a cb32 bcbe
00000280: 915f d73c 604b 4fbd 5d58 b33d 6c98 88bc
00000290: 7528 7bbd c21f 893c 16c8 f53c 4e2b ec3d
000002a0: b70f 83bc 72a8 a03d 1d46 6e3e 1ea4 c7be
000002b0: e1a3 09be ca4c 2abd 453a 97bc 73ee 4dbd
000002c0: 561f abbd 0a5a 273e 10c9 6ebd 6637 533e
000002d0: 9c04 a1be 37e8 0e3d a7cc eb3d c1c8 d0bc
000002e0: facf d9be 6621 a73d 39f6 58be d467 aa3b
000002f0: 879e 933d 150f 7f3d eb14 a5bb 9926 d0bd
00000300: 788a f63c f455 06be 949a 373e 1e04 263e
00000310: 7038 1abf ee2a 15bc f17a ab3c 731c 7e3e
00000320: afde 633e 70ef c0be e7e8 9abe 16b8 24be
00000330: 5e39 0d3d b83b 5c3d ac1e e5be 092e 8a3c
00000340: 2d25 babd 9d02 23bd 22c3 253d 06e7 3abd
00000350: be22 97be 5157 cc3d f17a 873e 294e d9be
00000360: fdd2 4ebc 14c0 3f3d f804 8c3d ecfe b5bd
00000370: 8acd 8fbd fdd7 7e3d 2ccb 203c 1266 2ebe
00000380: f750 a53d 21c1 e1bd 0a1d 373d 6047 97be
00000390: af3d e9bb c0a7 b83e 48f9 70be 7105 343e
000003a0: e8d1 3bbe 04c2 ae3c 6667 bdbd b5ed 28bd
000003b0: 5305 a5be d92d c73e a93f ef3d 44e4 3b3e
000003c0: c9dc 7abf 74c2 1b3e b931 6abd 4fbf cabe
000003d0: 89d1 b2bd 467b 473d d557 1fbe 4458 f1bd
000003e0: b2ec f73d af4a e9bd 277b c03d bd46 bd3c
000003f0: 6bf8 bbbb 5fe0 ac3d 9309 d6be 2079 f33d
-0.2263969 0.24173911 0.23702385 -0.27511013 -0.16878767 -0.11333206 -0.14688706 0.13869679
0.28362277 -0.06424075 -0.21081695 -0.16302925 -0.22802173 -0.35461816 -0.19205785 0.028202979
0.17623717 0.06594855 -0.3630759 0.18132907 0.059243724 0.006158713 0.07581713 0.15479963
-0.25596118 0.13132118 -0.19116855 0.23692578 0.20460059 0.032623477 -0.38698158 -0.15420492
0.058858767 0.04395225 -0.3499662 -0.011020484 0.13558125 -0.5491534 0.07704423 0.25790712
0.12534183 -0.06689064 0.15944842 -0.087437384 -0.31490433 0.12994577 -0.13153276 0.02528684
0.06431584 -0.10825508 -0.3571391 0.080714546 0.11154055 0.0928919 -0.017693317 0.0050918334
-0.14641652 0.024288697 0.2325058 -0.061489686 0.12812835 0.1352209 -0.38380504 -0.21670343
-0.15378328 -0.22945051 0.011534424 0.071441635 -0.23961373 -0.2893151 0.09644027 -0.2658118
0.033256892 -0.19975248 -0.44825223 0.08767293 -0.104891285 -0.33362526 -0.5019349 -0.2744746
0.17043191 0.0074862447 0.06788068 -0.3718225 -0.34032923 -0.1685794 0.23433109 -0.15619053
0.10740026 0.011794802 0.13235635 -0.09003176 0.2314853 0.031087711 0.17148167 -0.38859275
-0.017437642 0.15548448 -0.20237772 -0.04025436 -0.5292531 0.20756985 -0.046099484 -0.1018162
-0.26697454 -0.063221656 -0.09508536 -0.059637923 0.15146951 0.014850631 0.11300043 -0.16910818
-0.024857458 0.051634535 -0.037175477 -0.37866235 0.26742578 -0.46003526 -0.47170505 -0.21120685
0.07697886 0.14906578 0.10638309 0.09631554 0.09804827 -0.059772603 -0.0921398 -0.0567794
0.0015470491 0.08691473 -0.0072459625 -0.059232965 -0.42021596 0.2285196 -0.037273064 0.00394788
-0.12699993 0.13413869 0.10380589 0.04551313 0.028943727 -0.11506352 0.089844 0.13565855
-0.11923924 -0.06752577 -0.0007654158 -0.033491366 -0.1464522 0.11263538 0.21159148 -0.17407079
-1.0558442 0.03368791 -0.44098923 -0.33967325 -0.06747772 0.16122541 0.0016157964 -0.36757502
0.026290687 -0.050608993 0.08757088 -0.016674243 -0.06131788 0.016738776 0.030002635 0.11531697
-0.015998704 0.078446284 0.23268934 -0.389924 -0.13441421 -0.041577138 -0.018460402 -0.05027623
-0.08355586 0.16342941 -0.058297217 0.20626602 -0.3144883 0.034889426 0.11513644 -0.025486352
-0.42541486 0.08160667 -0.21187676 0.0052003656 0.07207971 0.062270243 -0.005037894 -0.10163612
0.030095324 -0.13118726 0.1793006 0.16212508 -0.60242367 -0.0091044735 0.020932646 0.2481554
0.22252916 -0.37682676 -0.30255815 -0.16085848 0.034478538 0.05376789 -0.44749963 0.016867654
-0.09089122 -0.039797414 0.040469296 -0.045630477 -0.29518694 0.09977592 0.26460984 -0.42442444
-0.012623546 0.04681404 0.06836885 -0.08886513 -0.07021625 0.0622177 0.009814065 -0.17031124
0.080720834 -0.110231645 0.04470543 -0.29546642 -0.007117949 0.36065483 -0.23532593 0.175802
-0.18341792 0.021332748 -0.09248237 -0.04124232 -0.32230625 0.38902166 0.11682064 0.18348795
-0.9799314 0.15210897 -0.057176325 -0.39599082 -0.08731372 0.048701547 -0.15560849 -0.117844135
0.12105693 -0.11391198 0.093984894 0.02310502 -0.005736401 0.08441233 -0.4180418 0.11888337

policy_net.6.bias f4 [64]
00000000: b7ba 8b3c b3c2 023e 1c83 46be 20cb e7bc
00000010: 6537 66be 16b4 ff3d e248 d8bc 7313 d3bb
00000020: e098 90bc 6da7 eb3d 0f45 623e 9839 8038
00000030: 6c9e 5d3e 1c53 2d3d 6832 3f3e 54f6 2a3e
00000040: 74fb 4fbd 5814 133d fc1b d73d 2269 1a3d
00000050: f795 923c 1e38 1b3e 8f36 d6bc 66ff d3bc
00000060: e9a7 5e3d d9f1 2c3e d8c5 453e d4ca 313d
00000070: df57 4e3e a53d bd3d badb e23d b761 2f3e
00000080: ed3f 13be 1055 1c3e 2eb1 9c3d 040a 8f3d
00000090: 845d e13d 6aa5 963c 991d fa3d 9c19 45be
000000a0: cf60 d73d 1098 b6bd d23b 013e 5a6e 18be
000000b0: ead5 5f3e 8938 8f3e 3c62 08bc eb3a 143d
000000c0: 5c5f 883d 70cb 5dbc c855 30be 41d6 3f3e
000000d0: 7d94 b3bd 1a5f 45bb f612 b43d 9ad1 f6bc
000000e0: d089 a13e 4486 043e b866 9e3d d3ac eebd
000000f0: e088 993d fe0b 173e cd22 4fbd 3c8a c83d
0.017056806 0.12769584 -0.19385952 -0.0282951 -0.22482069 0.124855205 -0.02640194 -0.0064415275
-0.017651021 0.11506543 0.22096656 6.114243e-05 0.21642464 0.042315587 0.18671572 0.16695529
-0.050776914 0.035908073 0.105033845 0.03769792 0.017893774 0.15158126 -0.026149062 -0.02587862
0.05435935 0.16889133 0.19313753 0.043406323 0.20150708 0.092402734 0.11077066 0.17127119
-0.14379855 0.15266824 0.07650982 0.06984332 0.11004165 0.018389422 0.122126766 -0.1924805
0.10516512 -0.08915722 0.12620476 -0.14885846 0.21858945 0.2797282 -0.008324202 0.036189
0.06658813 -0.013537273 -0.17220223 0.18734075 -0.08768556 -0.00301165 0.08792679 -0.030129243
0.31550455 0.12941843 0.07734436 -0.11654057 0.0749681 0.14750668 -0.050570298 0.09791991

policy_net.8.weight f4 [4, 64]
00000000: 7c72 dbbd a558 4d3c 1ccf b8be a402 323e
00000010: e00c 7a3e 12da 6f3e a082 5c3a 1232 c6bd
00000020: 4bfa 6cbe 53a6 793c d4e5 943d 0cd8 5f3e
00000030: 6cd7 5ebd 46aa 9f3e 69b7 053d 80ed 993d
00000040: d85d c73b 7a32 b03c 6ba5 06be 5aa0 5f3e
00000050: 9087 3b3e a7c0 223e e0b8 203d c528 853d
00000060: 28d9 38be ab79 febd 29bd 3e3d 8646 4b3e
00000070: a5d5 80bd 7295 563c f425 9ebd a7f4 8c3c
00000080: a23b 08bd b44f b43c dd60 0ebd d8d2 26be
00000090: 8dc6 e23d d15b dd3d 639c 08bd 3ae4 e2bb
000000a0: 68b4 ee3d 2130 66be b0fd f63d 8d57 d3ba
000000b0: 7312 59bd b7a7 a4bd dccf 2d3e 6179 7f3d
000000c0: 0025 1e3d db27 8e3d 657d 89bd cce5 003d
000000d0: 07f1 223e c411 893c 0e8f 01be 62b3 47be
000000e0: bdcc 35be cba4 c13d b502 e13d 6b3f 803d
000000f0: 3f77 0f3e cc8d acbd 0c03 9bbd d05a 0cbd
00000100: ba46 013e fead 173d 9e11 6b3e 64f0 a4bd
00000110: 6299 803e 233f 3f3e 62a9 f5bd d242 f4bd
00000120: ab92 7b3e 74bd a53c c3c6 43bc 30b3 64bd
00000130: 4383 043d e884 8e3d 8f4b 913d e578 9abe
00000140: 979b 54bd a70f f0bd 8353 44be 02cb 8cbd
00000150: f767 e73d 8d1d a73d 0c09 b1bd 6f96 ad3d
00000160: 770b 04be aad7 a3bd 3089 1abd 0f21 f13d
00000170: 476a 97bd eb43 0bbe 94e8 e1bd ebd7 e63c
00000180: 3f62 dd3d 573a 663e c6b3 00be d1af 30bd
00000190: 43fb 01be 566c 2d3e 44e5 963d 86f1 4e3e
000001a0: a645 af3c 01eb 4abe 1c0b 933d b560 f63d
000001b0: 19fb 2abe 56a5 84bd 1ca9 b9bd 0ad0 cdbc
000001c0: 500e d43c 2c91 b9bd 5aaa 133c bd85 d0bd
000001d0: 4da1 173e fd9b 313e 7c19 acbd 4989 87bc
000001e0: 7007 4cbe 9f70 97bd b9ed d7bd a56c 63be
000001f0: 8c0c 123e b864 b2bc b83e 663e 240d c73c
00000200: dba1 17bb e218 e7bb 92d4 0cbe 896c 40be
00000210: 8fd1 ccbe 7451 34be 3101 6cbe ee98 3c3e
00000220: cf60 853e a6ed ac3d 2457 30be 404c eebc
00000230: c622 803e 16a3 9ebd d598 85be c9c7 e0bb
00000240: 47bf babd 6473 03be 49af 21bc 5397 85bd
00000250: af8e 7dbe b249 a9bc 47be e9bd e6b7 f6bd
00000260: a04c 0a3e d66e 4c3e eb56 553e 15b9 cc3d
00000270: 1a1b 103e c39c a73e 5e26 42bd b301 2e3e
00000280: 8c3a 81be 0384 62bd 9465 ad3a 8743 03be
00000290: 7319 863d dd4d c4bd f165 a63d 776f 92be
000002a0: 0172 f4be 198a 78bd 8ccc 7b3d 1dba 823e
000002b0: 5230 663e c697 913e 1a68 c0be a4ce 373d
000002c0: 406a 493e 262a 8fbd 336d 79bd 3417 fb3c
000002d0: b713 793e f31a 96bd fb20 4c3d e9d9 513d
000002e0: 648e 983e 485c 663d 46d0 babb 5d7f 8d3b
000002f0: d4be d4be 8ea1 f63d 2563 abbd e74e aa3e
00000300: 91f0 68be e105 44be bf43 72bd a042 90bd
00000310: 1c02 543d de24 383d e70b 7e3c cd45 72bc
00000320: 6c22 82bd 200d 093e 7c42 553d 33f4 e63d
00000330: 0454 6a3d 7f8c a13c fb13 3a3e 5d45 51bc
00000340: 68e1 25be 9120 0e3e f28e 6c3c 77d0 6c3d
00000350: bb26 7dbd 0384 6bbc e8a2 0fbe 8a6e 55bc
00000360: cd17 4dbd 6863 8dbd 5b43 20bd 2645 ba3b
00000370: 97d9 b3bc 252d 18bd 6bde 033d ed5d 66bc
00000380: d698 213e d6aa 0a3d 8f10 df3d cb4b 7d3b
00000390: 461b 9a3d 85d8 afbd 9d1a 01be 35ed 203d
000003a0: b11e 0f3e f578 443d d4e0 c0bd ad39 bdbd
000003b0: 3b8e 033d 8cae 38bd 721d 12bd 1f98 9bbd
000003c0: 060c 4bbc 2ca8 26bb e2da 03be 92cf 13be
000003d0: 16e5 543d ffdb 813e d150 e23d e8b9 023e
000003e0: 5364 d6bd a4b3 4d3d ed1c 1d3d 1b91 8cbe
000003f0: 3cc0 a73d 1f9e c7bd 3685 79be 02fb 053e
-0.107151955 0.012533342 -0.36095512 0.1738382 0.24418974 0.23423031 0.00084117986 -0.09677519
-0.23142354 0.015237409 0.07270399 0.21859759 -0.05440466 0.31184596 0.032645617 0.07516003
0.006084185 0.021508444 -0.1314904 0.21838513 0.18313432 0.15893804 0.03923881 0.06501917
-0.18051589 -0.1242555 0.046567116 0.19851121 -0.062907495 0.013097154 -0.07722083 0.017206503
-0.033259995 0.022010662 -0.034760345 -0.16291368 0.11073027 0.10808528 -0.033352267 -0.0069241794
0.116555035 -0.22479297 0.12060106 -0.0016124115 -0.05299611 -0.080398016 0.16973823 0.062371615
0.038609505 0.069411956 -0.0671337 0.03146915 0.15912257 0.016732104 -0.12652227 -0.19502023
-0.17753883 0.0945526 0.109868445 0.06262096 0.14010333 -0.08425483 -0.075689405 -0.034266293
0.12624636 0.037031166 0.22955939 -0.080536634 0.25117022 0.18676428 -0.11995198 -0.119268075
0.24567668 0.02023194 -0.011949244 -0.05583495 0.032351743 0.069589436 0.0709449 -0.3017036
-0.051906195 -0.117217354 -0.19172482 -0.06874658 0.112991266 0.08159933 -0.08644304 0.084759586
-0.12894998 -0.08000119 -0.03772849 0.117738836 -0.07393318 -0.13600127 -0.11030689 0.02817913
0.108097546 0.22483192 -0.12568578 -0.04313642 -0.12693505 0.16935858 0.07367948 0.20209321
0.021395516 -0.1981621 0.07179853 0.12030164 -0.16697349 -0.06476848 -0.09065458 -0.025123615
0.025885731 -0.090608925 0.009012783 -0.101817586 0.14807625 0.17344661 -0.08403298 -0.016544955
-0.19924712 -0.07394528 -0.10543389 -0.22209413 0.14262599 -0.021776542 0.22484863 0.024298258
-0.0023137245 -0.007052527 -0.13752964 -0.18791403 -0.4000363 -0.17609197 -0.2304733 0.18417713
0.26050422 0.08443765 -0.17220742 -0.029089093 0.2502653 -0.0774595 -0.26093164 -0.0068597537
-0.091185145 -0.12836987 -0.009868451 -0.065230034 -0.2476146 -0.020665023 -0.11413246 -0.120467946
0.13505793 0.19964156 0.20833938 0.09996239 0.14072838 0.32736787 -0.04739987 0.16992836
-0.2523998 -0.055301677 0.0013229125 -0.12818728 0.06547823 -0.09585164 0.081249125 -0.28600666
-0.47743228 -0.060678575 0.061474368 0.25532618 0.2247937 0.28436106 -0.37579423 0.044874802
0.19669437 -0.06990461 -0.060895156 0.030650713 0.24323927 -0.07329359 0.04983614 0.051233206
0.29796135 0.05624035 -0.0057010977 0.0043181614 -0.4155184 0.12042533 -0.0836852 0.33263323
-0.22748019 -0.19142868 -0.05914664 -0.07043958 0.051759824 0.044957034 0.015505767 -0.01478715
-0.06354222 0.13383913 0.052065358 0.11277046 0.05720903 0.019720314 0.18171684 -0.012772885
-0.16199267 0.1387961 0.014438378 0.057815995 -0.061804514 -0.014374736 -0.14026988 -0.013026843
-0.050071526 -0.06903726 -0.039126735 0.0056845127 -0.02195434 -0.03715243 0.032194536 -0.01406048
0.15780959 0.033854328 0.1089183 0.0038649912 0.07524733 -0.0858622 -0.12607808 0.03928872
0.13976552 0.047966916 -0.094178826 -0.092395164 0.032118063 -0.045088336 -0.035672612 -0.07597374
-0.012393003 -0.0025429828 -0.12876466 -0.1443465 0.051976286 0.25363156 0.11050571 0.1276623
-0.10468354 0.050220147 0.038357664 -0.27454457 0.08190963 -0.09746956 -0.24367222 0.13084033

policy_net.8.bias f4 [4]
00000000: 4fb3 513d 4cb7 7bbd 714c 8b3d ec91 293e
0.051196393 -0.061454102 0.068016894 0.16559571

inverse_net.0.weight f4 [64, 48]
00000000: ed93 c03c c9d0 0c3f 510b 97be df06 893e
00000010: f463 01be c990 a73d f2b2 29be ccb5 5a3e
00000020: 231b ad3d 76ee 843e 3164 42be 4444 1ebe
00000030: b6e0 e2bd 8201 81bb 143f 06bd 9b5c 1e3e
00000040: 59a2 b0bd 771a 2abd 566b 9f3d c652 b53c
00000050: 8e62 d1bc c3f2 b3bd e3b4 99bd 153a a0bd
00000060: 567e 1a3e f3cf 6abe d6a4 b7be 84a3 36bf
00000070: 1952 0f3d b5b2 573d 92a2 dfbe 86aa b4be
00000080: 0aae 30bd 58fd 6b3e 3387 2b3e cc29 d5bd
00000090: 7711 c63d aa14 88be 9964 dbbc a434 b43d
000000a0: 9926 71bc b0a5 cc3d b56e 653d 898b f23d
000000b0: cf44 bb3d 1f1a d0bc 5316 00be 6f42 633d
000000c0: e270 8c3c 6e36 443f 7ccb d93e 3259 1c3e
000000d0: 8f83 db3d 2ceb 203b 8f6c 79bc ba47 1bbc
000000e0: 4ff3 eaba 8db2 ce3d 8711 af3d e28e 99bd
000000f0: 08d5 c3bc 18b3 63bd cf2d 91bd f050 2e3c
00000100: 62f7 0dbd bfa7 d0bd 2ede cfbb 47c5 a63d
00000110: 15b5 01be c3c8 c43d a3fd 0bbe 4406 523e
00000120: 4103 9dbd 01e5 c5bf 5bc5 c0be ff52 bc3f
00000130: e2c0 4e3d 8c9a 5cbd 7525 fa3c 6fa8 10bd
00000140: 4575 0abd 8227 1e3e 09b9 1540 403f 1f3d
00000150: fffa 1abd 8fa4 c33a b290 ac3d 8be0 a0bd
00000160: fd2c 72bd 06c4 633c 8b66 2fbd 9a95 89bd
00000170: ffb5 70bd 9cee 1cbe e159 fe3d 2b41 56bd
00000180: 71a7 9c3e 7573 6abf 6014 733e d5d1 133c
00000190: 700b 41be 116b 613e caa6 71be a5c9 25bd
000001a0: e348 37bb 9457 b9bc df4e 58be 1388 133e
000001b0: 2662 62be 8c50 b53d ac4f c03d 2e36 20bd
000001c0: 33c1 b63b 0ab4 adbc b33f 99bd f974 70bd
000001d0: 0cc5 e9bd a5e2 18be fc34 d6bd 7d1a 45bd
000001e0: 03bf 643e 3910 163f f30d 45be 264b bcbf
000001f0: d92a c5be 8f6e 8ebe 1a23 c8be 899e 3fbe
00000200: 0c87 8cbd 5fca 81bc f886 803d 2994 113e
00000210: 09c9 aebd 880c 783b c4b1 26be 0aa3 ad3d
00000220: f424 a13d aca4 e2bd 5d0c d2bd 7bf7 19be
00000230: 901c da3c 8cf8 40be 17eb 07be d4fa 8d3d
00000240: d43f 99bb 28c5 aa3f d34c 903e 0d1e 49be
00000250: 7f2f 133e 590d c1be f803 3dbe 3c40 adbd
00000260: 0baa 0ebd 0c7d a83d 6da8 82be 8250 8cbd
00000270: 016d 763d c311 113e af8e 56bd abe1 66bd
00000280: 8f49 f2bd b51d f53b f7fc d53d d186 f13c
00000290: 840b 2fbd 577b e03d 5adb 053e 6a14 e3bc
000002a0: 5d1e bd3b fb26 83bc 3135 8c3f a545 a3be
000002b0: 129f 243e 0afb 083f 46f3 91bd 1cca 97be
000002c0: f10a fdbd f519 ac3c 9038 0d3d 21df 903d
000002d0: 35de 113e 0ea5 693c dc5b dfbd 2f68 eabd
000002e0: d2b7 a2bd 277a cabd ef46 2fbd 99f7 323d
000002f0: bf6b d4bd 5424 0a3e 31da 3d3e 6bd1 80bd
00000300: 2f60 92be 964a 1dbe eef0 82bf 78f0 373f
00000310: de71 093e cf42 38be 6f27 843e d300 30be
00000320: 95bf d43d 394b a6bd 818e 82bd 452a c33d
00000330: fd0d cabd 0f06 87bd a7aa 82bc 546d 403c
00000340: 0aa4 00be 2d97 3d3d 2f6e 05be aeb3 703d
00000350: 38e9 123b c22d 33be 8684 0bbe 083c db3d
00000360: 9b49 12bf 76a5 eabf 4d83 7f3c 47bf 84bf
00000370: 0b9c 4e3d 7ce4 923e 7e8c b33e c0f7 9c3e
00000380: 4620 88bd 7915 40be a4f0 62bd 5720 ffbb
00000390: 12d3 14be e596 0c3c 7a8a 0cbd b8f8 603c
000003a0: 9868 ccbd 235a f3bd 4974 943d f45a e3bb
000003b0: 7764 b3bd 767a d6bd 01b2 5ebd 5195 4b3d
000003c0: 1d74 d5bc deea be3b ed7c 14bf f49d 4cbf
000003d0: b44f c5bd 6eaa 903e 7700 ff3d 70f7 363e
000003e0: 7393 cebb c3b2 82be 898f d1be 740d 9cbe
000003f0: d955 b13d eec1 e9bd bd09 853d f2d1 4e3c
0.023508037 0.5500608 -0.2950082 0.26763055 -0.12635785 0.081819125 -0.16572168 0.21358413
0.084524415 0.2596318 -0.18983532 -0.15455729 -0.110780165 -0.0039369473 -0.032775 0.15465014
-0.08624715 -0.041529145 0.077841446 0.022134196 -0.02555969 -0.087865375 -0.075052045 -0.07823578
0.15087256 -0.22930889 -0.35867947 -0.71343255 0.034990404 0.052660663 -0.4367872 -0.3528635
-0.043134727 0.23045862 0.16750793 -0.10408363 0.096713 -0.26578265 -0.026781367 0.08799103
-0.014718675 0.0999254 0.05601378 0.118430205 0.091439836 -0.02540308 -0.12508516 0.055483278
0.01714367 0.76645553 0.4253806 0.152684 0.10718452 0.0024554236 -0.015223636 -0.00947755
-0.0017925295 0.100926496 0.08548265 -0.07497956 -0.023905292 -0.05559072 -0.070888154 0.010639414
-0.03465975 -0.10188245 -0.0063436246 0.081430964 -0.12666734 0.09608605 -0.13670973 0.20510203
-0.07666636 -1.5460511 -0.3765057 1.4712828 0.050476916 -0.053858325 0.030535439 -0.03531688
-0.033803243 0.15444759 2.3394186 0.03887868 -0.037837025 0.0014926362 0.08426036 -0.07855328
-0.059124935 0.013901716 -0.042822402 -0.06717987 -0.058767315 -0.15325397 0.12419487 -0.052308243
0.30596498 -0.91582423 0.23738241 0.009022196 -0.1885202 0.22013499 -0.23598781 -0.040475506
-0.0027967028 -0.022624768 -0.21123837 0.14407377 -0.22107753 0.08853254 0.09390196 -0.03911417
0.0055772304 -0.021204013 -0.07482853 -0.058705304 -0.11414537 -0.14930208 -0.10459325 -0.048120964
0.2233849 0.58618504 -0.19243602 -1.4710433 -0.38509253 -0.27818725 -0.3908928 -0.1871282
-0.06861696 -0.015843568 0.06275743 0.14216675 -0.08534438 0.0037849266 -0.1627875 0.08478363
0.078683764 -0.11066565 -0.10256264 -0.15035813 0.026624948 -0.18844813 -0.13273273 0.06932607
-0.0046767984 1.3341417 0.28183612 -0.1964037 0.14373587 -0.37705496 -0.18458545 -0.08459517
-0.034830134 0.08226976 -0.25519124 -0.06851293 0.060162548 0.14166932 -0.052382167 -0.056367557
-0.118304364 0.007480348 0.1044864 0.02948323 -0.04273559 0.10961025 0.13071957 -0.027719695
0.005771442 -0.016009798 1.0953733 -0.31889072 0.16076306 0.53508055 -0.07126479 -0.29646385
-0.123556025 0.021008471 0.03447777 0.070738085 0.14244922 0.0142605435 -0.10906193 -0.11445653
-0.07945217 -0.0988658 -0.042792257 0.04369316 -0.103721134 0.1349042 0.18540265 -0.06289943
-0.28589007 -0.15360484 -1.0229776 0.718513 0.13422343 -0.17994235 0.25811335 -0.17187814
0.10388104 -0.08119816 -0.06374837 0.09529547 -0.09865949 -0.065929525 -0.015950514 0.011744816
-0.12562576 0.04628675 -0.13030313 0.058765106 0.0022416841 -0.17497924 -0.13624772 0.107048094
-0.57143563 -1.8331745 0.015595269 -1.0370873 0.050441783 0.28689945 0.35068125 0.30657768
-0.06646781 -0.18758191 -0.055405274 -0.0077858376 -0.14533642 0.008580898 -0.03431175 0.013731174
-0.09980887 -0.118824266 0.07248742 -0.0069383327 -0.087593965 -0.10472576 -0.054368977 0.049702946
-0.026056344 0.005826338 -0.5800312 -0.7992852 -0.09634343 0.28255028 0.124512605 0.17867827
-0.0063041984 -0.2552701 -0.4092982 -0.30479014 0.08658952 -0.11413942 0.06495998 0.012623297

inverse_net.0.bias f4 [64]
00000000: 9d4c 42bd a22c 2e3e 83c3 1b3e 5993 4bbd
00000010: f4d7 c33d 43a8 adbd cc52 0ebc 42bc d6bd
00000020: f0ac 0ebe 654b d23d d86a f5bd 7773 603d
00000030: 3921 90bd b4d8 04be d5c6 d23c 6e4b 2fbe
00000040: 0f01 0fbe f854 513e f448 633c 7f5b 7cbd
00000050: 9bc2 693d 2dd4 083e a99b bbbd 2313 81bc
00000060: 4af9 73bc ac56 b6bc e938 b7bd 1c1a a0bd
00000070: 731e 4539 d209 adbd 98fe 49be 7826 1fbe
00000080: a184 66bd a928 9f3d c463 ccbd 36e4 4fbe
00000090: cfbe 00be fb95 84bc 9048 cebd f760 9dbd
000000a0: 63d3 c43d 9c7f ffbc a912 c23b d13c 1d3e
000000b0: 4095 e63d 8a82 79bc 5148 be3c 1609 a1bd
000000c0: d167 14b9 6b34 afbb f96b 693d 14b5 f0bd
000000d0: db03 543c 4a41 4abe e230 0bbe 4104 ba3d
000000e0: 9ca8 39bc 64e3 33bd 460f 01be 1990 043e
000000f0: 71f5 993d ab66 83bd 43d7 e83d 156c a43c
-0.047436345 0.17009214 0.152113 -0.04970107 0.09562674 -0.08479359 -0.0086867325 -0.10485126
-0.13933158 0.102682866 -0.119832695 0.054797616 -0.07037587 -0.1297329 0.025729576 -0.17118618
-0.13965248 0.2044257 0.013872374 -0.061610695 0.057070356 0.13362189 -0.09160549 -0.015756195
-0.014890978 -0.022258125 -0.089464016 -0.0781748 0.00018798727 -0.08449139 -0.19726026 -0.15542018
-0.05627883 0.07771427 -0.09979966 -0.203019 -0.12572788 -0.016184798 -0.10072434 -0.0768451
0.09610631 -0.031188779 0.0059226346 0.15355231 0.11258936 -0.015228877 0.023227843 -0.07863061
-0.00014153055 -0.005346825 0.056987736 -0.11753288 0.012940372 -0.19751468 -0.13592866 0.090828426
-0.0113317035 -0.04391803 -0.12603483 0.12945594 0.07517517 -0.06416067 0.11369183 0.020071069
