IL/Model/model_reacher_14.pt (torch, 292527 bytes, 20 tensors)

policy_net.0.weight f4 [64, 24]
-0.22897227 -1.125412 0.16097982 -0.23680027 0.14372334 -0.13696988 0.24237299 -0.054408498
0.20055772 0.06776534 0.027974067 -0.011921203 -0.10885201 0.025606068 0.22941063 0.07307723
0.21694566 0.13260041 -0.16258289 -0.33824733 -0.29244184 -0.06260535 0.14686184 0.006212648
-0.049866043 -0.4731769 -0.027278388 0.51402485 0.2051013 0.18278621 0.6397319 -0.2072435
-0.04263518 -0.23950395 0.22106208 -0.022653835 -0.05368977 -0.19304033 0.026231404 -0.04233243
-0.05400879 -0.14536516 -0.18759836 -0.03212701 -0.22005317 0.14143364 -0.10484649 -0.14575715
0.20707715 0.36249647 -0.18263113 1.0540794 -0.029452667 -0.09121549 -0.064977445 0.068388276
0.31605023 0.024265561 0.009956185 -0.013427878 0.26036206 0.253982 0.08197016 -0.0037366601
-0.017530862 -0.13587326 0.07600445 0.0066907173 0.021909732 0.17340282 -0.05824043 -0.18296951
0.32733652 0.1772399 -0.21220182 -0.9534721 0.21287608 0.029208029 0.29793215 0.06808169
-0.14743516 0.055984855 -0.033705972 -0.42336142 -0.03435303 0.044721287 0.033675388 -0.029418835
-0.057202667 -0.009371394 -0.063634604 -0.3133782 -0.042534687 -0.21536808 -0.033071898 0.09315365
-0.08835862 0.2043114 -0.11011492 0.0908176 0.049491126 0.07565827 0.0010350255 0.029645553
-0.068438284 -0.086683944 -0.116051584 0.3569675 -0.3990194 0.002897901 0.078711644 0.015581027
0.26221266 0.22522132 0.11661393 0.24991845 -0.05382168 -0.14706843 -0.13934284 -0.051738024
-0.2567205 0.24884355 0.05804011 -0.9088786 -0.14880855 0.08697616 0.19328484 -0.1567712
-0.14324847 0.14617263 -0.21301095 -0.11751641 -0.112681456 -0.1940161 0.18035886 0.17599131
0.18967152 0.09132792 0.1825328 0.1578804 -0.004639693 -0.048672397 -0.18704855 0.164872
-0.2559924 1.7406222 0.08946579 -0.37733206 -0.24865425 0.18045077 -0.39544502 0.12167919
0.08236511 -0.030274702 0.1460324 -0.12540703 0.027773079 0.051044878 0.0093918 -0.18440501
0.12050527 0.1669308 -0.034118854 0.21954283 0.17819709 -0.026959898 -0.19635968 -0.16391137
-0.10819821 0.20082104 0.3216438 0.8624333 -0.14129019 0.15548071 0.11495073 -0.15103857
0.120972425 -0.27745342 0.056804206 0.18409237 -0.18838029 0.0043154624 -0.2003463 -0.039431125
-0.13832133 0.15541868 -0.057252713 -0.051355526 0.15186183 -0.16500586 0.0677839 0.09887715
0.52045846 0.11316388 -0.34041825 -0.4914965 -0.0890263 0.22477734 -0.13457806 0.07860069
0.02020437 0.18984264 -0.000996702 0.013543864 -0.013819427 0.12731232 -0.1157147 0.011712564
-0.05114722 -0.18148829 0.07394376 -0.15457463 0.02567692 0.14991888 -0.060971007 0.15136251
0.19576968 1.0119025 0.1881493 -0.9634931 -0.2834516 0.1988209 -0.024272433 0.088586204
0.066090755 0.3008922 0.30763912 -0.11660658 -0.090750724 -0.2674113 0.18573742 0.11001416
0.083421476 -0.033277117 0.11525552 -0.15147784 -0.29161787 -0.19924395 0.02168192 0.06555713
0.3372363 1.1340334 0.274586 -0.8478118 0.19138427 0.14882194 -0.42071673 -0.041108742
-0.24313137 0.28653404 0.17791615 -0.103119545 0.14977142 0.15174027 -0.1866295 -0.23130645
00000000: b577 6abe 800d 90bf e5d7 243e c57b 72be
00000010: 362c 133e d541 0cbe a030 783e 72db 5ebd
00000020: 015f 4d3e 8ec8 8a3d df29 e53c 2651 43bc
00000030: cded debd d1c3 d13c 9fea 6a3e 84a9 953d
00000040: 0127 5e3e 67c8 073e 217c 26be c12e adbe
00000050: f0ba 95be 3c37 80bd f362 163e 7893 cb3b
00000060: 5640 4cbd 3e44 f2be ed76 dfbc 2297 033f
00000070: 1306 523e 4f2c 3b3e 78c5 233f a437 54be
00000080: 3aa2 2ebd 8640 75be 195e 623e 8994 b9bc
00000090: cee9 5bbd 5dac 45be 3ee3 d63c c564 2dbd
000000a0: 5238 5dbd 9bda 14be c919 40be 9d97 03bd
000000b0: 9e55 61be fbd3 103e c2b9 d6bd 5d41 15be
000000c0: 080c 543e 2399 b93e a803 3bbe 13ec 863f
000000d0: b846 f1bc 30cf babd e512 85bd 270f 8c3d
000000e0: 56d1 a13e 92c8 c63c 441f 233c 9a00 5cbc
000000f0: 2d4e 853e ee09 823e f9df a73d c1e2 74bb
00000100: e29c 8fbc 5c22 0bbe 39a8 9b3d ce3d db3b
00000110: 0a7c b33c 8290 313e 848d 6ebd 5c5c 3bbe
00000120: a798 a73e 607e 353e 6f4b 59be bf16 74bf
00000130: 30fc 593e ad45 ef3c 908a 983e 6a6e 8b3d
00000140: 3ef9 16be 6050 653d 460f 0abd d4c2 d8be
00000150: c3b5 0cbd ab2d 373d 34ef 093d c5ff f0bc
00000160: 584d 6abd 7a8a 19bc dc52 82bd 1c73 a0be
00000170: da38 2ebd 7389 5cbe 6676 07bd 57c7 be3d
00000180: 5df5 b4bd 0237 513e ee83 e1bd 94fe b93d
00000190: 35b7 4a3d b9f2 9a3d b1a9 873a 3bdb f23c
000001a0: 5f29 8cbd 5a87 b1bd 74ac edbd 72c4 b63e
000001b0: 454c ccbe b6ea 3d3b 9233 a13d 9047 7f3c
000001c0: bd40 863e 6ba0 663e 49d3 ee3d 9fea 7f3e
000001d0: 1f74 5cbd 1b99 16be e4af 0ebe 40eb 53bd
000001e0: df70 83be d8d0 7e3e 77bb 6d3d 45ac 68bf
000001f0: 4561 18be 8f20 b23d 76ec 453e a188 20be
00000200: baaf 12be 47ae 153e 8b1f 5abe 72ac f0bd
00000210: 89c5 e6bd 28ac 46be feaf 383e 1137 343e
00000220: 4039 423e 220a bb3d e1e9 3a3e 66ab 213e
00000230: 9108 98bb b55c 47bd a889 3fbe 35d4 283e
00000240: 7011 83be b5cc de3f d739 b73d ab31 c1be
00000250: 389f 7ebe 16c8 383e c577 cabe f032 f93d
00000260: 0aaf a83d a702 f8bc 8489 153e b36a 00be
00000270: 5e84 e33c 6f14 513d 10e0 193c abd4 3cbe
00000280: 78cb f63d e8ef 2a3e 36c0 0bbd d6cf 603e
00000290: 4c79 363e 01db dcbc 8312 49be 62d8 27be
000002a0: 0697 ddbd 08a4 4d3e 7fae a43e 6ec8 5c3f
000002b0: 60ae 10be 5636 1f3e 4a6b eb3d dba9 1abe
000002c0: 64c0 f73d 600e 8ebe 87ab 683d b682 3c3e
000002d0: c3e6 40be b968 8d3b 9527 4dbe 8882 21bd
000002e0: 1ba4 0dbe 1326 1f3e d281 6abd 2c5a 52bd
000002f0: ab81 1b3e 4cf7 28be 49d2 8a3d 1a80 ca3d
00000300: c43c 053f 77c2 e73d 4d4b aebe 6ea5 fbbe
00000310: 6c53 b6bd 082c 663e d5ce 09be 66f9 a03d
00000320: a383 a53c 1c66 423e c5a3 82ba 15e7 5d3c
00000330: e16a 62bc 295e 023e d4fb ecbd 0ee6 3f3c
00000340: bf7f 51bd 11d8 39be d36f 973d d048 1ebe
00000350: 6758 d23c 5684 193e bcbc 79bd c6fe 1a3e
00000360: d977 483e 0586 813f 36aa 403e 7ca7 76bf
00000370: 9120 91be b597 4b3e fbd6 c6bc af6c b53d
00000380: 975a 873d 8b0e 9a3e e082 9d3e 6ecf eebd
00000390: 84db b9bd 22ea 88be f331 3e3e 1b4f e13d
000003a0: e1d8 aa3d 964d 08bd 160b ec3d 021d 1bbe
000003b0: f04e 95be 9b06 4cbe 489e b13c d142 863d
000003c0: 3caa ac3e 0228 913f 8996 8c3e 320a 59bf
000003d0: 3dfa 433e c764 183e 2f68 d7be a461 28bd
000003e0: 6ef7 78be 97b4 923e a72f 363e 5730 d3bd
000003f0: ae5d 193e cd61 1b3e ce1b 3fbe 99db 6cbe

policy_net.0.bias f4 [64]
-0.11585167 -0.113237225 -0.194555 -0.030272031 0.14709294 -0.13724464 0.1382889 0.0032269147
0.08338501 0.16864383 -0.11249602 0.037083406 -0.19704719 -0.22775348 0.23322873 0.12104219
0.17068987 0.2270506 0.10491998 -0.12172875 0.040291674 0.0741804 -0.1584705 0.089153655
-0.032993264 -0.049508642 0.17803502 -0.005935859 0.18908931 0.054881886 -0.0836933 -0.14700973
0.05022592 0.22499713 -0.06302571 -0.043612715 0.01622145 0.04552644 -0.10750617 0.14203152
0.064577155 -0.20050961 0.035741776 0.006240255 -0.16977966 -0.14079364 0.20027497 -0.0033934743
0.038203377 0.09097828 0.12690705 0.03710687 0.11618953 0.15675054 0.04206302 0.17608587
-0.14946045 0.026493352 -0.054957233 0.13848571 0.044577923 -0.17911297 -0.12217958 -0.08847999
00000000: a443 edbd ebe8 e7bd 6d39 47be 0dfd f7bc
00000010: 889f 163e dc89 0cbe 9b9b 0d3e a57a 533b
00000020: c3c5 aa3d f8b0 2c3e 5064 e6bd c5e4 173d
00000030: bdc6 49be 3538 69be 83d3 6e3e f8e4 f73d
00000040: 53c9 2e3e f47f 683e 49e0 d63d ec4c f9bd
00000050: e208 253d e5eb 973d 1746 22be 3196 b63d
00000060: f223 07bd 93c9 4abd d04e 363e 9881 c2bb
00000070: a1a0 413e d4cb 603d 6567 abbd b889 16be
00000080: b2b9 4d3d a665 663e a013 81bd 3fa3 32bd
00000090: d9e2 843c ef79 3a3d 322c dcbd b670 113e
000000a0: 0741 843d 6452 4dbe f865 123d 0e7b cc3b
000000b0: b8da 2dbe 352c 10be e214 4d3e 0d65 5ebb
000000c0: 257b 1c3d d252 ba3d ecf3 013e 60fd 173d
000000d0: c7f4 ed3d 3783 203e 464a 2c3d db4f 343e
000000e0: 290c 19be 9608 d93c d61a 61bd 33cf 0d3e
000000f0: 5797 363d 6469 37be 4a39 fabd ff34 b5bd

policy_net.2.weight f4 [128, 64]
-0.100211225 0.14362198 0.004343392 -0.23152913 0.072281726 0.10122427 -0.06773125 0.14503291
0.14188085 0.03627234 -0.109517835 -0.091362834 0.24357495 0.05954959 0.24212524 0.18336119
-0.09625071 -0.16058978 -0.114463076 -0.014486566 -0.17631917 0.029510401 0.3982309 0.22156353
0.11234321 -0.2319589 -0.26820073 0.1303965 -0.048469312 0.18722488 -0.16657987 -0.27134538
-0.072451614 0.0799943 0.1515175 -0.03443508 -0.080365285 0.18960655 -0.16141199 -0.20688422
0.030623304 -0.13574739 -0.12545347 0.24108177 -0.044680577 0.120696716 -0.06455684 -0.0014626442
0.13753958 -0.19519415 0.01857488 0.09484792 -0.041921325 -0.14225034 0.10252277 0.07907713
-0.13137321 0.03982542 0.20751326 0.10465228 0.038778137 -0.066665746 -0.10116446 0.015326676
-0.28620586 0.20057401 0.23625289 -0.020343252 -0.90087295 0.097656675 -0.031003192 -0.38276407
-0.12053032 -0.031232685 -0.0551756 -0.19079033 -0.094208345 0.11873966 -0.09041932 0.10481593
0.014671909 0.07357746 0.12096939 -0.12028476 -0.019858161 0.036542922 -0.13996638 -0.3157501
0.0026790004 0.099409714 0.13992192 0.3720711 -0.09432522 0.12143584 0.024117509 0.11834085
-0.2383081 -0.22914733 0.0152222775 0.017522406 0.1806046 0.13666391 -0.092061155 -0.1944536
-0.32547587 0.14015898 -0.02787581 -0.36718285 0.13563487 0.069447234 -0.012460455 0.10871733
0.4200042 0.048168696 -0.3070004 -0.10879621 0.23109443 -0.16212273 -0.01046839 0.02722443
0.041362587 -0.20055936 -0.09388574 -0.0036966263 -0.024021983 0.09502565 -0.19705692 0.10900953
-0.17976943 -0.034945957 -0.15055016 0.05862054 -0.039740775 0.16143894 0.022127287 0.008765376
0.13114464 0.0791832 0.04992291 -0.05752002 -0.17009574 -0.28608173 -0.19446681 -0.11528873
-6.599088e-05 -0.04285447 0.20835872 -0.14700744 -0.03408353 -0.09720276 -0.09686516 -0.17289558
-0.13950787 0.07640783 0.06551852 0.10441898 0.057010356 -0.12761353 -0.038988873 0.052957337
0.101426624 0.0064444407 0.03096622 0.02506406 -0.0809614 -0.50601697 0.02790239 0.19165099
-0.18406522 -0.38851222 0.041059114 -0.17636316 -0.22762884 0.047197003 -0.11325772 0.021597072
0.01240317 0.09401725 0.22126639 -0.30937275 0.25129893 -0.0007599549 0.03203218 0.04179938
-0.23768021 0.08418171 -0.092231326 -0.16737327 0.04258202 -0.04517011 0.01706836 -0.33136028
-0.17513297 0.13517998 -0.32988235 -0.080564834 0.004431677 -0.09135299 -0.16186933 -0.06290052
0.09322283 0.24150957 0.22174394 -0.032185394 -0.2117858 -0.0057418006 -0.089200936 -0.055190343
-0.024454385 -0.03752905 -0.056957062 -0.24602626 0.011452117 -0.09319991 0.18739893 -0.03102041
-0.28042284 0.090411514 0.057208396 -0.011407332 -0.13914897 0.06849212 0.15192325 -0.3676537
0.34061876 0.036530968 0.04900428 0.07368878 -0.04227985 -0.037117768 -0.20900142 -0.22671795
0.021321433 -0.31063712 0.125566 -0.26500672 -0.03310233 -0.56739974 -0.37655956 0.12475568
-0.23446572 -0.15155323 0.2525256 -0.48658758 0.23735513 0.18989214 0.11947426 0.23989186
-0.21981725 0.028134793 -0.058180243 -0.11913471 0.10290856 -0.01984665 0.15250352 0.03798303
00000000: 8b3b cdbd a411 133e 0353 8e3b f915 6dbe
00000010: 7108 943d ac4e cf3d aeb6 8abd 8283 143e
00000020: 3749 113e 4e92 143d e34a e0bd 701c bbbd
00000030: b66b 793e 45ea 733d aeef 773e 09c3 3b3e
00000040: 181f c5bd a671 24be 9e6b eabd 1059 6dbc
00000050: 038d 34be ccbf f13c ece4 cb3e 8de1 623e
00000060: 3214 e63d a286 6dbe 9b51 89be a986 053e
00000070: c287 46bd e1b7 3f3e ea93 2abe c8ed 8abe
00000080: 8361 94bd 0dd4 a33d 6727 1b3e cc0b 0dbd
00000090: 8e96 a4bd 3828 423e 2f49 25be 75d9 53be
000000a0: b9dd fa3c 5d01 0bbe e076 00be 24de 763e
000000b0: fb02 37bd d72f f73d 6036 84bd 32b6 bfba
000000c0: 2dd7 0c3e fae0 47be 592a 983c a03f c23d
000000d0: b2b5 2bbd 13aa 11be 75f7 d13d 31f3 a13d
000000e0: b386 06be fb1f 233d 5b7e 543e ef53 d63d
000000f0: d3d5 1e3d 0d88 88bd 502f cfbd bd1c 7b3c
00000100: 9389 92be 4663 4d3e 47ec 713e e4a6 a6bc
00000110: 9c9f 66bf 3900 c83d 68fa fdbc a7f9 c3be
00000120: 9ad8 f6bd b0db ffbc cfff 61bd 8a5e 43be
00000130: 4ef0 c0bd c72d f33d c42d b9bd bca9 d63d
00000140: 7262 703c c8af 963d cdbe f73d db57 f6bd
00000150: 95ad a2bc 08ae 153d 5953 0fbe ffa9 a1be
00000160: 2b92 2f3b 5297 cb3d b147 0f3e 1a80 be3e
00000170: 952d c1bd 5bb3 f83d 1592 c53c b05c f23d
00000180: 0a07 74be 99a5 6abe dc66 793c 268b 8f3c
00000190: 6af0 383e a0f1 0b3e 8f8a bcbd d81e 47be
000001a0: c6a4 a6be d685 0f3e d05b e4bc 64ff bbbe
000001b0: dee3 0a3e 5a3a 8e3d f026 4cbc 31a7 de3d
000001c0: ca0a d73e 8a4c 453d 282f 9dbe 8cd0 debd
000001d0: 05a4 6c3e 8003 26be 9c83 2bbc c505 df3c
000001e0: d16b 293d 6f5f 4dbe 2b47 c0bd 1943 72bb
000001f0: c0c9 c4bc cf9c c23d 4ac9 49be 6340 df3d
00000200: 7a15 38be 7e23 0fbd d229 1abe 171c 703d
00000210: 39c7 22bd 4050 253e 4944 b53c a79c 0f3c
00000220: c84a 063e cd2a a23d f77b 4c3d 1d9a 6bbd
00000230: 942d 2ebe 4e79 92be 4f22 47be 7f1c ecbd
00000240: 9564 8ab8 2b88 2fbd fd5b 553e 1e89 16be
00000250: 2c9b 0bbd 3e12 c7bd 3e61 c6bd 8a0b 31be
00000260: 27db 0ebe b57b 9c3d 932e 863d 9ed9 d53d
00000270: b183 693d 1fad 02be ccb2 1fbd cbe9 583d
00000280: c3b8 cf3d e32b d33b dfac fd3c 2553 cd3c
00000290: 17cf a5bd 548a 01bf 8e93 e43c 2840 443e
000002a0: 987b 3cbe 13eb c6be 9a2d 283d 8b98 34be
000002b0: 8917 69be a551 413d aaf3 e7bd 58ec b03c
000002c0: aa36 4b3c 1e8c c03d a893 623e 1b66 9ebe
000002d0: 41aa 803e b637 47ba 2d34 033d d435 2b3d
000002e0: 7162 73be 7667 ac3d c7e3 bcbd e663 2bbe
000002f0: 7c6a 2e3d 4b04 39bd f2d2 8b3c 0ea8 a9be
00000300: 0f56 33be 9f6c 0a3e 57e6 a8be 2dff a4bd
00000310: 9a37 913b 4717 bbbd 13c1 25be fdd1 80bd
00000320: 9ceb be3d 494e 773e d810 633e d5d4 03bd
00000330: 60de 58be b725 bcbb fbae b6bd 450f 62bd
00000340: 9054 c8bc 10b8 19bd cf4b 69bd 4fee 7bbe
00000350: a9a1 3b3c 98df bebd 81e5 3f3e 841e febc
00000360: 9593 8fbe ac29 b93d 5a53 6a3d d1e5 3abc
00000370: 117d 0ebe 9945 8c3d c591 1b3e 1b3d bcbe
00000380: 9565 ae3e 7fa1 153d b6b8 483d 25ea 963d
00000390: a32d 2dbd cd08 18bd 7804 56be c028 68be
000003a0: 49aa ae3c d40b 9fbe 6094 003e f6ae 87be
000003b0: 4f96 07bd 1c41 11bf 6acc c0be e87f ff3d
000003c0: c817 70be c530 1bbe 094b 813e 0222 f9be
000003d0: 390d 733e 1673 423e ecae f43d 36a6 753e
000003e0: c617 61be f07a e63c 684e 6ebd e6fc f3bd
000003f0: b9c1 d23d 7195 a2bc e229 1c3e 1894 1b3d

policy_net.2.bias f4 [128]
0.054844566 -0.038854215 0.13656034 0.040192034 0.026459083 0.087019205 -0.03712921 -0.041294508
0.05899585 0.10616037 -0.16240175 0.036449034 -0.027692648 -0.093037695 0.06247338 0.040056415
0.010377118 -0.091508605 0.11538223 0.098217614 -0.15401687 0.073781595 -0.048094723 -0.09900937
0.024194017 -0.0039971215 0.04583173 0.019994888 0.056092672 -0.026221482 -0.02843235 -0.032648917
0.008964769 0.010769146 -0.08162783 -0.11393199 -0.040528115 0.12967749 0.13883029 0.06287139
-0.14270274 -0.139014 0.023358556 0.052584887 -0.09248795 -0.032490917 0.02687223 0.038008276
0.120172985 -0.16239448 -0.13757826 0.114582255 0.007323767 0.09762958 0.03646243 -0.024800096
0.010178511 -0.032559305 0.019956658 0.044148833 -0.0131328255 -0.10018682 0.10407327 -0.10718417
-0.09507666 -0.057559963 -0.021264547 -0.028664675 0.036766984 0.04524777 -0.10267614 -0.11420549
0.10736331 -0.01716448 0.09986853 0.093387805 -0.039865587 -0.021750554 0.07289815 0.017395344
0.023567783 0.04493295 0.020416785 0.03884748 0.012357479 0.00768656 0.030555487 0.027426945
0.09618276 0.08006163 -0.0053792573 -0.06353695 -0.06294595 0.012673233 0.0119655775 0.008887385
-0.061865848 -0.09705463 -0.0893997 -0.2019352 0.08006835 -0.031616274 0.07038151 0.043486115
-0.030058647 -0.05302172 0.06734242 0.0050545665 -0.13020493 0.066685036 -0.09130852 -0.05480289
-0.013021831 0.090878256 0.062457748 -0.015060792 -0.024459796 0.14269015 -0.13864282 -0.056454174
-0.047305677 -0.04953751 -0.07501408 0.17344475 -0.0745244 0.046229497 0.12521128 0.00811457
00000000: b2a4 603d 9925 1fbd 79d6 0b3e 67a0 243d
00000010: b8c0 d83c 2037 b23d cc14 18bd 6e24 29bd
00000020: a2a5 713d 9c6a d93d a54c 26be 954b 153d
00000030: b1db e2bc 8c8a bebd 16e4 7f3d 3212 243d
00000040: ca04 2a3c dd68 bbbd 854d ec3d 5126 c93d
00000050: 99b6 1dbe ce1a 973d f9fe 44bd 6dc5 cabd
00000060: 8832 c63c 49fa 82bb 0dba 3b3d 52cc a33c
00000070: 6ec1 653d 6fce d6bc f6ea e8bc dfba 05bd
00000080: f7e0 123c 1271 303c 7e2c a7bd 2d55 e9bd
00000090: cf00 26bd 2dca 043e 8729 0e3e b7c2 803d
000000a0: ab20 12be b059 0ebe 715a bf3c 4063 573d
000000b0: 536a bdbd 3215 05bd 2723 dc3c 91ae 1b3d
000000c0: 411d f63d bd4a 26be 51e1 0cbe 1aaa ea3d
000000d0: 36fc ef3b 04f2 c73d a159 153d 9229 cbbc
000000e0: c5c3 263c e85c 05bd 257c a33c 68d5 343d
000000f0: 102b 57bc bf2e cdbd 5e24 d53d 6083 dbbd
00000100: 8db7 c2bd ffc3 6bbd fd32 aebc 2ed2 eabc
00000110: fa98 163d ba55 393d de47 d2bd 91e4 e9bd
00000120: 4ce1 db3d 869c 8cbc df87 cc3d 1b42 bf3d
00000130: 194a 23bd 382e b2bc a04b 953d ae80 8e3c
00000140: 3911 c13c 9d0b 383d 1a41 a73c 891e 1f3d
00000150: 0677 4a3c 8adf fb3b 804f fa3c 79ae e03c
00000160: 78fb c43d 5af7 a33d 7b44 b0bb a91f 82bd
00000170: cee9 80bd 64a3 4f3c 450b 443c 659c 113c
00000180: 0b67 7dbd 94c4 c6bd 3117 b7bd 1ac8 4ebe
00000190: e0fa a33d 1180 01bd 2e24 903d 7f1e 323d
000001a0: 8d3d f6bc 4e2d 59bd d3ea 893d c7a0 a53b
000001b0: 7154 05be 2a92 883d f6ff babd ff78 60bd
000001c0: 8559 55bc 611e ba3d b2d3 7f3d 8ac1 76bc
000001d0: e95f c8bc 5e1d 123e 62f8 0dbe 7e3c 67bd
000001e0: 99c3 41bd d8e7 4abd fba0 99bd 809b 313e
000001f0: 40a0 98bd 245b 3d3d 6337 003e f9f2 043c

policy_net.4.weight f4 [128, 128]
-0.044080965 0.06837714 0.06688509 -0.03916368 -0.0024145446 0.06476279 -0.07183537 0.09204257
-0.3053708 -0.042540837 0.18699439 -0.055767093 0.08018934 -0.17652224 0.17722468 -0.2889599
-0.029127983 0.28518465 0.090145424 -0.32875904 0.27754694 -0.08175323 0.33989233 0.023064263
-0.05506451 -0.081354216 -0.27219525 0.2517525 -0.015450399 -0.0032991085 -0.3038039 -0.14875567
0.20621294 0.16650206 0.18830226 -0.28447494 0.06375041 -0.15766515 -0.15179266 -0.04573983
0.18935204 0.0329889 0.16300884 -0.027013104 -0.040328376 -0.48738408 -0.2497533 -0.0042145667
0.20383038 0.14177766 0.09775582 0.10829196 0.15952149 -0.25018665 -0.21743073 0.015881812
-0.0055364473 -0.37025014 -0.011239382 0.084630765 0.38669822 0.2780468 -0.33405992 -0.14804426
0.0184247 -0.22778921 -0.050661296 0.09969407 -0.1369329 -0.1680034 -0.04257514 -0.098480836
-0.08666139 -0.072605744 -0.09928868 -0.06170018 -0.090567894 0.028015457 0.13662308 0.072276875
-0.059761286 0.07822685 -0.033554096 0.06787539 -0.058613237 0.23998877 -0.059369277 0.08940109
0.08766648 0.061718144 -0.04241803 -0.12725258 -0.0071358155 0.059620675 -0.22139637 0.22458127
-0.104222424 0.27654314 -0.2668093 -0.082773976 0.10349068 0.043667343 -0.0938167 0.25141194
0.0033087246 0.101127446 0.26581067 0.051615372 0.043142423 -0.13983971 0.046552148 -0.08462277
-0.21963271 0.113678664 -0.07709456 -0.009604506 0.0064050434 -0.28022555 0.098346084 -0.084068954
0.12596704 0.007841124 -0.21451125 -0.2937459 0.07920404 0.32857585 -0.06981815 -0.063708514
0.05752485 0.009352432 0.01870274 -0.30467272 0.08515812 0.011042573 0.03281192 -0.039706204
-0.40597042 0.09158826 -0.079135224 0.035410717 -0.16401376 0.017663443 -0.025941446 0.12611206
-0.30142707 0.034762338 -0.014245686 0.15337166 0.018912219 -0.15892158 -0.10356727 -0.09034784
-0.19061306 -0.047168918 -0.008200638 -0.3166038 -0.08068407 -0.057042588 -0.1148283 -0.023884274
-0.12368605 -0.01483379 -0.14545982 -0.28534445 -0.108225055 -0.057950642 -0.046349637 0.2492915
0.11075793 -0.23778184 -0.35776177 0.02489345 -0.12540664 -0.04359257 -0.0543076 -0.17497852
-0.15220949 0.071136035 0.23867051 -0.28144512 -0.097573355 0.010763755 -0.20457025 0.17506655
0.08173199 -0.009104275 0.0634927 -0.004507988 -0.172217 -0.14689754 -0.04825456 -0.2963978
-0.38524958 0.07670387 0.13749875 -0.002796286 -0.2575653 0.001043386 -0.49032563 0.33274648
-0.24549524 -0.104358755 -0.004491826 0.12752095 0.014274224 0.08532954 -0.05340983 0.24572688
0.04412518 -0.15415679 0.17005445 0.20844857 -0.32535544 0.028071113 -0.07426141 0.21669443
-0.5189622 -0.23567192 -0.13606259 0.17880927 0.14975645 -0.14621653 0.09115645 -0.39204022
-0.040230773 -0.23308513 0.3306431 -0.08197765 -0.20820293 -0.10087112 0.05644023 0.053965356
0.039481245 0.11967728 -0.00240422 -0.19236323 0.047829583 0.21337327 -0.19562323 -0.018243492
-0.02333339 -0.17220922 0.21843278 0.26941034 -0.114003204 0.08724591 -0.041526094 -0.101818874
-0.048675083 0.1382845 -0.008383303 -0.11280865 -0.18013977 -0.14959392 0.035937104 0.17586511
00000000: 3e8e 34bd 5009 8c3d 0dfb 883d 186a 20bd
00000010: 563d 1ebb 5ba2 843d 6c1e 93bd d180 bc3d
00000020: 9059 9cbe 4d3f 2ebd 757b 3f3e 096c 64bd
00000030: 4f3a a43d 3fc2 34be 637a 353e 8df2 93be
00000040: cf9d eebc b903 923e 2a9e b83d 1b53 a8be
00000050: a21a 8e3e 3d6e a7bd 5e06 ae3e 44f1 bc3c
00000060: 538b 61bd 0a9d a6bd 2d5d 8bbe b4e5 803e
00000070: ac23 7dbc db35 58bb 2f8c 9bbe 6853 18be
00000080: 7c29 533e 847f 2a3e 4fd2 403e b3a6 91be
00000090: 938f 823d f972 21be 896f 1bbe b059 3bbd
000000a0: 80e5 413e 5e1f 073d caeb 263e 964a ddbc
000000b0: 5e2f 25bd 688a f9be 54bf 7fbe 591a 8abb
000000c0: e9b8 503e 2a2e 113e 3434 c83d 2dc8 dd3d
000000d0: 9a59 233e 7718 80be 29a6 5ebe 931a 823c
000000e0: 166b b5bb 6d91 bdbe 6325 38bc e552 ad3d
000000f0: 4ffd c53e 265c 8e3e e709 abbe ea98 17be
00000100: 65ef 963c 9341 69be 3882 4fbd 682c cc3d
00000110: 2338 0cbe 1509 2cbe 4563 2ebd 52b0 c9bd
00000120: 877b b1bd 52b2 94bd dd57 cbbd 54b9 7cbd
00000130: a97b b9bd ac80 e53c ece6 0b3e e605 943d
00000140: 40c8 74bd 6635 a03d 0570 09bd 4102 8b3d
00000150: 6f14 70bd 9ebf 753e 332d 73bd eb17 b73d
00000160: 7c8a b33d 2acc 7c3d 87be 2dbd 804e 02be
00000170: 8fd3 e9bb cf34 743d bbb5 62be a2f8 653e
00000180: 9172 d5bd 1097 8d3e 3b9b 88be 6785 a9bd
00000190: ecf2 d33d 87dc 323d f822 c0bd 11b9 803e
000001a0: 30d7 583b e81b cf3d 5618 883e a46a 533d
000001b0: 1cb6 303d 2432 0fbe 77ad 3e3d b44e adbd
000001c0: 66e7 60be 5cd0 e83d c1e3 9dbd 385c 1dbc
000001d0: 66e1 d13b b979 8fbe ac69 c93d 582c acbd
000001e0: 81fd 003e 0f78 003c d6a8 5bbe dd65 96be
000001f0: ba35 a23d 183b a83e d1fc 8ebd 9c79 82bd
00000200: 2d9f 6b3d f13a 193c 7d36 993c 10fe 9bbe
00000210: 6167 ae3d e8eb 343c cb65 063d f9a2 22bd
00000220: 5bdb cfbe a092 bb3d a611 a2bd d40a 113d
00000230: 39f3 27be edb2 903c 2883 d4bc 8523 013e
00000240: a654 9abe f462 0e3d bd66 69bc 760d 1d3e
00000250: cced 9a3c 57bc 22be 141b d4bd 4a08 b9bd
00000260: 1230 43be 3234 41bd f85b 06bc e519 a2be
00000270: b13d a5bd 7da5 69bd 1a2b ebbd f4a8 c3bc
00000280: 1d4f fdbd 6d09 73bc 6bf3 14be ab18 92be
00000290: 19a5 ddbd a75d 6dbd 1ed9 3dbd 4546 7f3e
000002a0: 0ed5 e23d 157d 73be 8d2c b7be 59ed cb3c
000002b0: 996a 00be 1f8e 32bd a571 5ebd 922d 33be
000002c0: cedc 1bbe c5af 913d 0b66 743e 9319 90be
000002d0: 8ad4 c7bd 765a 303c dd7a 51be a544 333e
000002e0: 1a63 a73d 192a 15bc 7608 823d bfb7 93bb
000002f0: a759 30be 4f6c 16be 93a6 45bd 74c1 97be
00000300: 6f3f c5be eb16 9d3d 79cc 0c3e e541 37bb
00000310: 99df 83be 39c2 883a f60b fbbe bf5d aa3e
00000320: 1b63 7bbe 0bba d5bd 2b30 93bb da94 023e
00000330: 6fde 693c 41c1 ae3d 44c4 5abd d49f 7b3e
00000340: 9bbc 343d 47db 1dbe c122 2e3e 8b73 553e
00000350: fd94 a6be 64f5 e53c 5e16 98bd 25e5 5d3e
00000360: b5da 04bf fb53 71be fe53 0bbe c719 373e
00000370: c159 193e c9b9 15be 3cb0 ba3d 7fb9 c8be
00000380: 06c9 24bd dead 6ebe 0d4a a93e e6e3 a7bd
00000390: 2633 55be 8595 cebd df2d 673d c70a 5d3d
000003a0: 16b7 213d 5d19 f53d 1e90 1dbb defa 44be
000003b0: f4e8 433d 867e 5a3e 7551 48be 6073 95bc
000003c0: aa25 bfbc 9d57 30be d8ac 5f3e 27f0 893e
000003d0: 837a e9bd fcad b23d 4417 2abd 6a86 d0bd
000003e0: 865f 47bd 749a 0d3e 1f5a 09bc 3908 e7bd
000003f0: 8f76 38be 262f 19be c932 133d fc15 343e

policy_net.4.bias f4 [128]
-0.03609486 -0.0587839 -0.0033303332 -0.056811813 -0.057593986 -0.0018716594 0.025211288 -0.049427625
-0.07747021 -0.059258558 0.09264308 0.035258174 0.051528428 -0.07786291 0.024158426 0.05421853
-0.024126649 0.028918758 -0.04507531 0.009105171 -0.031140102 0.049010947 -0.10167384 -0.08145952
-0.01777259 0.07654977 -0.055234764 -0.03724223 0.024144527 0.0023243804 0.06111532 0.010491427
0.09342639 0.10701094 0.051810633 0.06765663 0.06388802 0.075299695 -0.14786185 0.042432267
-0.040744204 -0.03317562 0.06373707 0.078537405 -0.059127692 0.020587951 0.13383844 0.041849352
-0.07535322 -0.050569702 -0.07054052 0.008915655 -0.124497 0.0136132 0.04741944 -0.06504091
-0.02170544 0.08829779 0.049618714 0.04266939 -0.08616571 0.06373817 -0.13765524 0.014547616
-0.028585626 0.053582806 -0.027071035 0.07486127 -0.03701649 -0.075813964 -0.06290619 -0.08365348
0.09344509 -0.03344148 0.088574395 -0.003964229 -0.11384184 0.11409842 0.104719736 0.021596318
-0.19121146 -0.04920092 0.14643677 -0.12975779 -0.024299594 -0.00028781826 0.024714958 0.06955619
-0.120054 0.034054246 0.028121479 -0.10844307 -0.042114347 -0.061665244 -0.11074577 0.035183426
-0.11175654 0.07274938 -0.097598426 0.083094455 0.089486666 0.088295095 0.09716867 0.0036657625
-0.15508634 0.08044691 0.025346523 -0.15008144 0.0065954872 0.042118173 -0.06865789 0.027804773
-0.002370028 0.0741597 0.04221378 0.07384491 -0.0289249 0.0699707 -0.04918646 0.08408697
-0.104613 0.09305141 -0.044319246 0.051584218 -0.03297101 -0.017730849 -0.0065017776 0.048348714
00000000: 34d8 13bd 63c7 70bd b841 5abb 81b3 68bd
00000010: ace7 6bbd 7852 f5ba e787 ce3c 9f74 4abd
00000020: b4a8 9ebd 1ab9 72bd a8bb bd3d e06a 103d
00000030: 790f 533d 9776 9fbd e4e7 c53c 4014 5e3d
00000040: 40a5 c5bc 08e7 ec3c e3a0 38bd db2d 153c
00000050: 8719 ffbc b4bf 483d 603a d0bd 40d4 a6bd
00000060: d397 91bc 20c6 9c3d d93d 62bd 4f8b 18bd
00000070: beca c53c a254 183b 0f54 7a3d 3ce4 2b3c
00000080: 5656 bf3d 8d28 db3d 6337 543d 8f8f 8a3d
00000090: b9d7 823d ba36 9a3d 1969 17be 75cd 2d3d
000000a0: 65e3 26bd 29e3 07bd 9588 823d 38d8 a03d
000000b0: e12f 72bd 10a8 a83c f20c 093e 3a6a 2b3d
000000c0: ca52 9abd 2d22 4fbd 8c77 90bd f812 123c
000000d0: 48f8 febd e609 5f3c e33a 423d 2b34 85bd
000000e0: 9bcf b1bc 79d5 b43d fe3c 4b3d 19c6 2e3d
000000f0: a677 b0bd 2889 823d 7ff5 0cbe 2059 6e3c
00000100: 672c eabc a579 5b3d 13c4 ddbc de50 993d
00000110: 9a9e 17bd 5a44 9bbd f6d4 80bd 8452 abbd
00000120: 2460 bf3d eff9 08bd 7e66 b53d 5de6 81bb
00000130: e925 e9bd 6fac e93d 4d77 d63d c3ea b03c
00000140: f0cc 43be e786 49bd 85f3 153e 3adf 04be
00000150: f10f c7bc 50e6 96b9 0677 ca3c 7a73 8e3d
00000160: dfde f5bd 777c 0b3d 045f e63c 6617 debd
00000170: 1880 2cbd b294 7cbd aece e2bd 7f1c 103d
00000180: 9de0 e4bd a0fd 943d afe1 c7bd 6d2d aa3d
00000190: c944 b73d 0fd4 b43d 5e00 c73d 4a3d 703b
000001a0: f4ce 1ebe 59c1 a43d 83a3 cf3c f3ae 19be
000001b0: f51e d83b 1b84 2c3d 829c 8cbd d6c6 e33c
000001c0: 7952 1bbb 0ae1 973d 5be8 2c3d 003c 973d
000001d0: e9f3 ecbc cc4c 8f3d be77 49bd ca35 ac3d
000001e0: 573f d6bd bd91 be3d 1988 35bd f949 533d
000001f0: 9c0c 07bd 4940 91bc dd0c d5bb 4d09 463d

policy_net.6.weight f4 [64, 128]
-0.21335502 0.17933849 0.18857329 -0.22119768 -0.26899388 -0.11903138 -0.255408 0.19959651
0.17396607 -0.000886208 -0.16896528 0.022458835 -0.2591253 -0.100000784 -0.13115025 -0.03858254
0.13730589 0.015281522 -0.44626176 0.014198157 0.14322105 -0.012590152 0.107751384 0.055632234
-0.20270863 0.14469284 -0.17821188 0.30583075 0.2503175 0.03401468 -0.1776381 -0.11920606
0.05167056 0.052244194 -0.36850604 -0.0379199 0.12440404 -0.31325868 0.0902452 0.3469351
0.17965075 0.10746956 0.07424469 -0.082088105 -0.31901157 0.0049606557 -0.21339694 0.11977744
0.009159925 -0.13496694 -0.3545807 0.095065705 0.029224819 0.22720477 -0.03920522 -0.049128164
-0.09314392 0.1362631 0.13473865 -0.08569491 0.059820272 -0.008401585 -0.3279413 -0.41122624
-0.18879423 -0.2761026 0.00030287603 -0.040134277 -0.19314508 -0.1812132 0.1393923 -0.21057285
-0.014470172 -0.30851576 -0.28358245 0.10496842 -0.067332335 -0.35183686 -0.4423134 -0.3593415
0.16385809 0.055711742 -0.0056309537 -0.2522572 -0.17374462 -0.124141626 0.27323368 -0.15305936
0.08751404 0.0023413647 0.15007736 0.03799119 0.07183366 -0.0365662 0.13265824 -0.06395208
0.08311268 0.15951106 -0.15719686 -0.073425435 -0.48473603 0.21141277 -0.060483996 -0.11248021
-0.11312054 0.037356313 -0.20318386 -0.02456675 0.07555546 0.04907214 0.09676004 -0.23170562
-0.04674373 0.05166213 -0.033114903 -0.23918909 0.19980378 -0.44421026 -0.26830372 -0.17509799
0.1109587 -0.03485806 0.106517464 0.0076127336 0.07291388 -0.016060386 -0.075338066 -0.010745462
0.107333824 0.12563711 0.06869451 -0.08491233 -0.6741817 0.10117506 -0.08072616 0.06727813
-0.12453801 0.19564083 0.13181773 0.07643289 0.18359879 -0.03672809 0.038761195 0.14751025
-0.22907539 0.00030662335 -0.13043194 -0.10059687 -0.055726368 0.031494185 0.22228308 -0.14194316
-0.65467477 -0.03551615 -0.3524851 -0.1390123 -0.07272268 0.058289815 0.0094841905 -0.4158748
0.009043652 -0.013028568 0.10320458 0.0007388925 0.0062199268 0.013237784 0.027513118 0.16693324
0.044479247 -0.04469764 0.21304685 -0.361046 -0.17521216 -0.06460632 -0.02784497 -0.076425545
-0.07486732 0.12497909 0.0146480445 0.17756377 -0.2977112 0.057531163 0.20436347 0.009378087
-0.42935163 0.05924254 -0.08065811 0.0065772305 0.051713206 0.0702669 -0.027484272 -0.0650014
0.05267279 -0.011019648 0.14155011 0.06627228 -0.5807481 -0.10825113 0.1414997 0.16991423
0.07967528 -0.08140126 0.08002977 -0.10401432 0.043840427 0.051171277 -0.3819417 0.041053575
-0.19983813 0.047105383 -0.0054886825 -0.11913378 -0.25728336 0.10352003 0.12918568 -0.5224856
-0.05222538 0.04126834 0.050974514 -0.10123047 -0.24098313 0.029922716 -0.0064170826 -0.07471063
0.0058400496 0.033042636 -0.046493832 -0.25242716 0.043712225 0.16085663 -0.16934544 0.19534749
-0.104699515 -0.03506642 -0.26745972 -0.078241155 -0.33355093 0.32251835 0.16867526 0.13744211
-0.7589403 0.097917706 0.12007182 -0.27614984 -0.07176641 -0.04999699 -0.2814052 -0.11057639
0.09787797 -0.12010945 0.16705641 -0.07907424 0.0943635 0.16328707 -0.33252433 0.061939836
00000000: bd79 5abe 82a4 373e 5b19 413e a581 62be
00000010: 91b9 89be b9c6 f3bd d6c4 82be 0763 4c3e
00000020: 2924 323e 6a50 68ba 3c05 2dbe 97fb b73c
00000030: 12ac 84be 36cd ccbd 404c 06be ba08 1ebd
00000040: ea99 0c3e 595f 7a3c 6c7c e4be 639f 683c
00000050: 8aa8 123e ed46 4ebc c2ac dc3d a0de 633d
00000060: da92 4fbe 5c2a 143e 2d7d 36be d995 9c3e
00000070: 9e29 803e fa52 0b3d c3e6 35be 4f22 f4bd
00000080: 82a4 533d 02fe 553d d3ac bcbe e651 1bbd
00000090: 8cc7 fe3d 7163 a0be 7ad2 b83d 7aa1 b13e
000000a0: 5ef6 373e 0019 dc3d 9a0d 983d cf1d a8bd
000000b0: 7c55 a3be ff8c a23b ba84 5abe e04d f53d
000000c0: 8313 163c c634 0abe 9a8b b5be cfb1 c23d
000000d0: e368 ef3c 5ea8 683e a795 20bd 9d3a 49bd
000000e0: 3dc2 bebd 8e88 0b3e eef8 093e d080 afbd
000000f0: 1a06 753d cda6 09bc ece7 a7be 3f8c d2be
00000100: 4653 41be 525d 8dbe 55cb 9e39 d763 24bd
00000110: d3c7 45be f48f 39be dbbc 0e3e 69a0 57be
00000120: 4d14 6dbc c7f5 9dbe b831 91be aff9 d63d
00000130: 89e5 89bd f623 b4be e776 e2be 9cfb b7be
00000140: 6aca 273e ff31 643d dd83 b8bb db27 81be
00000150: 1cea 31be f73d febd 49e5 8b3e 98bb 1cbe
00000160: 903a b33d 9571 193b e1ad 193e a69c 1b3d
00000170: 871d 933d 71c6 15bd 90d7 073e 4ff9 82bd
00000180: fb36 aa3d de56 233e 37f8 20be 1360 96bd
00000190: 522f f8be 977c 583e 11be 77bd 065c e6bd
000001a0: beab e7bd ef02 193d 6e0f 50be 3540 c9bc
000001b0: d2bc 9a3d deff 483d 212a c63d 3d44 6dbe
000001c0: 5a76 3fbd ab9b 533d 7ea3 07bd fced 74be
000001d0: 5d99 4c3e 876f e3be 1b5f 89be e34c 33be
000001e0: 513e e33d 53c7 0ebd d425 da3d 3d74 f93b
000001f0: df53 953d 1291 83bc d84a 9abd bc0d 30bc
00000200: d6d1 db3d 04a7 003e b5af 8c3d 84e6 adbd
00000210: 2c97 2cbf df34 cf3d c253 a5bd 1ec9 893d
00000220: c90d ffbd 1256 483e 3afb 063e d988 9c3d
00000230: 5201 3c3e 3270 16bd 0fc4 1e3d ed0c 173e
00000240: bd92 6abe 4ac2 a039 f38f 05be bb05 cebd
00000250: 5541 64bd 0c00 013d 2d9e 633e 8c59 11be
00000260: c498 27bf 6279 11bd ed78 b4be 3e59 0ebe
00000270: a1ef 94bd 4dc1 6e3d 9463 1b3c 8bed d4be
00000280: d32b 143c c675 55bc ec5c d33d 3cb2 413a
00000290: 87d0 cb3b 4ae3 583c 3163 e13c 8cf0 2a3e
000002a0: df2f 363d df14 37bd f428 5a3e 05db b8be
000002b0: d16a 33be 5150 84bd 221b e4bc ff84 9cbd
000002c0: 0a54 99bd 0af5 ff3d 5afe 6f3c 47d3 353e
000002d0: 9a6d 98be cca5 6b3d a844 513e 8ca6 193c
000002e0: fad3 dbbe 4ea8 723d 1430 a5bd cf85 d73b
000002f0: 3ad1 533d 18e8 8f3d b226 e1bc 741f 85bd
00000300: 6cbf 573d c18b 34bc 83f2 103e c3b9 873d
00000310: e8ab 14bf c5b2 ddbd 4ce5 103e fffd 2d3e
00000320: cb2c a33d b4b5 a6bd a6e6 a33d 7605 d5bd
00000330: 0592 333d f998 513d dd8d c3be cb27 283d
00000340: 5ea2 4cbe 93f1 403d 68da b3bb 69fc f3bd
00000350: a5ba 83be 4f02 d43d 4049 043e 9ec1 05bf
00000360: 48ea 55bd fe08 293d a7ca 503d ec51 cfbd
00000370: 48c4 76be 7c20 f53c 6446 d2bb e301 99bd
00000380: e35d bf3b b757 073d 5170 3ebd 223e 81be
00000390: 970b 333d 9ab7 243e e468 2dbe 2c09 483e
000003a0: b36c d6bd cea1 0fbd 7bf0 88be e63c a0bd
000003b0: 30c7 aabe 2021 a53e 35b9 2c3e a0bd 0c3e
000003c0: e949 42bf 1489 c83d 37e8 f53d 8363 8dbe
000003d0: 44fa 92bd a5c9 4cbd 5814 90be e075 e2bd
000003e0: 3f74 c83d f1fb f5bd d610 2b3e adf1 a1bd
000003f0: a741 c13d ba34 273e a140 aabe a0b4 7d3d

policy_net.6.bias f4 [64]
0.038056485 0.10377 -0.14767082 -0.03490638 -0.18181942 0.087685406 -0.006894636 0.0074388566
-0.00029826342 0.11841605 0.164519 -0.01751569 0.1765285 0.014969037 0.13297653 0.13112684
-0.03264541 0.035830017 0.07812073 0.012772148 0.013748352 0.1366842 -0.0054513547 -0.049131475
0.036263466 0.119015634 0.16765437 0.023879558 0.1761534 0.091342464 0.101715766 0.121997155
-0.09249134 0.118527256 0.058920335 -0.0158428 0.12724651 -0.0074176947 0.092570536 -0.17911409
0.051472686 -0.081258126 0.10127063 -0.06525863 0.16935578 0.23930557 0.004813128 0.057227034
0.11119155 0.026467796 -0.13942662 0.16271697 -0.026679792 -0.010737287 0.07048529 -0.0223174
0.24349177 0.15318915 0.04517229 -0.062632285 0.03419954 0.12002466 -0.091949925 0.057168297
00000000: 1ee1 1b3d 5e85 d43d 0537 17be fef9 0ebd
00000010: df2e 3abe 6894 b33d 66ec e1bb a7c1 f33b
00000020: 3d60 9cb9 1d84 f23d ab77 283e 107d 8fbc
00000030: e3c3 343e b140 753c 002b 083e 1d46 063e
00000040: 32b7 05bd 7fc2 123d c3fd 9f3d 4542 513c
00000050: c540 613c f1f6 0b3e 47a1 b2bb 163e 49bd
00000060: 0089 143d 78be f33d 96ad 2b3e 109f c33c
00000070: 8f61 343e c211 bb3d 5b50 d03d a5d9 f93d
00000080: 1a6c bdbd 6bbe f23d 7356 713d c2c8 81bc
00000090: e94c 023e 2210 f3bb 9f95 bd3d af69 37be
000000a0: 06d5 523d a96a a6bd fa66 cf3d 51a6 85bd
000000b0: 9a6b 2d3e 850c 753e 72b7 9d3b e566 6a3d
000000c0: 65b8 e33d fed2 d83c dac5 0ebe 479f 263e
000000d0: 948f dabc 72eb 2fbc 975a 903d fbd2 b6bc
000000e0: e855 793e 9edd 1c3e 9406 393d 5b45 80bd
000000f0: d114 0c3d 7dcf f53d 3e50 bcbd 4e29 6a3d

policy_net.8.weight f4 [4, 64]
-0.16353565 -0.013429984 -0.31623843 0.20015801 0.18159343 0.28478792 -0.091522135 -0.15474468
-0.23105937 0.0075481343 0.1152158 0.1296147 -0.04140353 0.30202246 0.039867647 0.13463883
-0.0006951352 0.032632597 -0.14488544 0.18749756 0.15203662 0.18932877 0.059629645 0.099057525
-0.26050815 -0.105327666 0.070924334 0.22488724 -0.04795022 -0.043071896 -0.064455025 0.015417345
-0.14867727 0.06351515 -0.05841945 -0.18963477 0.07389119 0.13149662 -0.036934942 0.029645313
0.17092434 -0.24687001 0.06592646 0.05087534 -0.05294878 -0.07323061 0.15171576 0.089924
0.13214175 -0.019486487 -0.038044102 0.06512002 0.098197825 0.11606947 -0.13033843 -0.147715
-0.14832483 0.077177316 0.105679296 0.0633108 0.15484074 -0.03988361 -0.1541132 -0.03047948
0.1377436 -0.023442581 0.2054433 -0.052543286 0.2535638 0.28244957 -0.18984348 -0.22843787
0.27298984 0.0055806423 0.0026267234 -0.08711099 0.04606413 0.022586346 0.052454043 -0.28633007
-0.06218464 -0.18752538 -0.23671567 -0.06686411 0.07587422 0.13182704 -0.076858245 0.17681904
-0.13054428 -0.092651494 -0.037183687 0.032738212 -0.06343977 -0.10715521 -0.12354529 0.025896722
0.086715944 0.24538936 -0.15056996 0.037050556 -0.014127978 0.26435792 0.06948807 0.29402664
-0.047704697 -0.15565135 -0.011694736 0.13715981 -0.19798586 -0.04334857 -0.06656164 -0.03659107
0.026720041 -0.08690306 0.108528346 -0.07330325 0.22896686 0.1231917 -0.10630943 -0.039726485
-0.19356868 -0.13679008 -0.08378011 -0.21524478 -0.037962344 0.020269493 0.16321686 0.026761774
-0.019758416 -0.02506047 -0.12525767 0.015782624 -0.40505636 -0.0933344 -0.19582492 0.12931073
0.1865376 0.0983545 -0.20390414 -0.0054724845 0.26753733 -0.062670395 -0.299152 -0.0184841
-0.11593566 -0.1282847 -0.023205947 -0.057244577 -0.18300976 -0.0044380054 -0.14814259 -0.048284844
0.12495199 0.18546498 0.23035558 0.16660355 0.15713727 0.3282295 -0.038361765 0.18247677
-0.20113522 -0.068183415 0.005167577 -0.119448416 0.039598007 -0.039085533 0.12623739 -0.16432998
-0.5203822 -0.043776024 0.07578123 0.20990376 0.21194102 0.28428388 -0.37980774 0.03813085
0.1131423 -0.06836673 -0.06286195 0.07347077 0.20400581 -0.06530508 0.011146476 0.03536557
0.26151478 0.12234896 0.0015246602 0.012913295 -0.47640467 0.130511 -0.08152857 0.29278538
-0.32845554 -0.21956058 -0.0063572978 -0.11080925 0.07686165 -0.012160325 -0.03382744 -0.020662082
-0.03509008 0.17378293 0.04196737 0.03313186 0.037460074 -0.08260288 0.26612362 -0.055708278
-0.17987715 0.18774652 -0.035352673 0.094296314 -0.118353374 0.0558096 -0.19176081 0.008446933
-0.06444502 -0.13644952 -0.069144756 -0.055570718 -0.071147285 -0.22571698 -0.009675429 -0.049486782
0.22146739 0.023208372 0.11414443 -0.026480129 -0.042615402 -0.17193578 -0.14495963 0.21930248
0.0754325 0.006125754 -0.037459053 -0.16846932 0.03286608 -0.057687093 -0.080606796 -0.04247797
-0.013531099 -0.045515418 -0.08648932 -0.19368169 0.085835725 0.18809032 0.1333429 0.18257828
-0.12378573 0.045439433 0.0518627 -0.32368538 0.0785125 -0.14223066 -0.183529 0.23723668
00000000: e475 27be 7009 5cbc 01ea a1be 39f6 4c3e
00000010: a1f3 393e b9cf 913e f56f bbbd 6475 1ebe
00000020: d49a 6cbe 5756 f73b 43f6 eb3d b7b9 043e
00000030: bf96 29bd b0a2 9a3e 424c 233d c3de 093e
00000040: bc39 36ba c2a9 053d d95c 14be 5cff 3f3e
00000050: 7daf 1b3e 67df 413e 373e 743d acde ca3d
00000060: 5361 85be 08b6 d7bd c740 913d d748 663e
00000070: 7367 44bd 286c 30bd ff00 84bd 0899 7c3c
00000080: db3e 18be 3b14 823d 3c49 6fbd 9e2f 42be
00000090: 4454 973d 0da7 063e 1849 17bd bada f23c
000000a0: ca06 2f3e 7ecb 7cbe 7404 873d a962 503d
000000b0: d2e0 58bd eef9 95bd 605b 1b3e 132a b83d
000000c0: 2b50 073e 20a2 9fbc 22d4 1bbd a55d 853d
000000d0: f11b c93d d5b5 ed3d 7077 05be 9a42 17be
000000e0: 77e2 17be 240f 9e3d 636e d83d 18a9 813d
000000f0: 928e 1e3e ff5c 23bd dacf 1dbe 1ab0 f9bc
00000100: a90c 0d3e a80a c0bc ba5f 523e a137 57bd
00000110: 1dd3 813e 3b9d 903e 5466 42be 9eeb 69be
00000120: 53c5 8b3e d2dd b63b 1b25 2c3b 3f67 b2bd
00000130: bead 3c3d 0007 b93c 0dda 563d db99 92be
00000140: 52b5 7ebd a706 40be 9865 72be 0df0 88bd
00000150: f163 9b3d abfd 063e db67 9dbd 0d10 353e
00000160: 66ad 05be 11c0 bdbd ec4d 18bd 8118 063d
00000170: b6ec 81bd 3174 dbbd 5005 fdbd 5d25 d43c
00000180: 2198 b13d 5947 7b3e 032f 1abe 53c2 173d
00000190: 0979 67bc ec59 873e c34f 8e3d a98a 963e
000001a0: 0066 43bd 1163 1fbe 479b 3fbc 9f73 0c3e
000001b0: cebc 4abe 458e 31bd 7851 88bd 85e0 15bd
000001c0: fde3 da3c 3bfa b1bd 1c44 de3d 0420 96bd
000001d0: 4a76 6a3e ee4b fc3d c2b8 d9bd 3db8 22bd
000001e0: de36 46be b312 0cbe e894 abbd 2169 5cbe
000001f0: 677e 1bbd 350c a63c 5222 273e 823b db3c
00000200: 67dc a1bc 9d4b cdbc 8c43 00be 904a 813c
00000210: 8c63 cfbe 1b26 bfbd 5486 48be 086a 043e
00000220: b603 3f3e 166e c93d 3fcc 50be 8752 b3bb
00000230: a7fa 883e 5659 80bd 732a 99be f86b 97bc
00000240: ad6f edbd 105d 03be 661a bebc 4a79 6abd
00000250: e966 3bbe b06c 91bb b1b2 17be 54c6 45bd
00000260: d4e6 ff3d 88ea 3d3e 55e2 6b3e 1f9a 2a3e
00000270: 98e8 203e b20d a83e 3a21 1dbd 31db 3a3e
00000280: 64f6 4dbe bfa3 8bbd c754 a93b 5fa1 f4bd
00000290: 8531 223d 2718 20bd 6044 013e 1e46 28be
000002a0: c537 05bf 7d4e 33bd 3133 9b3d 03f1 563e
000002b0: 1107 593e a88d 913e 2976 c2be 182f 1c3d
000002c0: 26b7 e73d db03 8cbd c4bd 80bd d877 963d
000002d0: e6e6 503e abbe 85bd b59f 363c 7ddb 103d
000002e0: 44e5 853e 1792 fa3d 1bd7 c73a 4992 533c
000002f0: 50eb f3be ada4 053e 73f8 a6bd f7e7 953e
00000300: 532b a8be 7dd4 60be e150 d0bb f6ef e2bd
00000310: a469 9d3d 1a3c 47bc a48e 0abd 8743 a9bc
00000320: 9eba 0fbd 27f4 313e fae5 2b3d 46b5 073d
00000330: bc6f 193d b32b a9bd 5b41 883e 5d2e 64bd
00000340: b731 38be a040 403e f7cd 10bd 6d1e c13d
00000350: 4163 f2bd 9b98 643d f25c 44be 0165 0a3c
00000360: c0fb 83bd 6cb9 0bbe c49b 8dbd 1f9e 63bd
00000370: abb5 91bd 5a22 67be b185 1ebc a7b2 4abd
00000380: 59c8 623e 7c1f be3c 8ec4 e93d dbec d8bc
00000390: 7d8d 2ebd ef0f 30be 4c70 14be d490 603e
000003a0: 5b7c 9a3d 8dba c83b aa6e 19bd 3983 2cbe
000003b0: 959e 063d 4d49 6cbd 2d15 a5bd 61fd 2dbd
000003c0: 8bb1 5dbc 606e 3abd 5021 b1bd 7e54 46be
000003d0: a4ca af3d c09a 403e 0b8b 083e cdf5 3a3e
000003e0: 5f83 fdbd b31e 3a3d fc6d 543d 17ba a5be
000003f0: 29cb a03d eaa4 11be 07ef 3bbe 2cee 723e

policy_net.8.bias f4 [4]
0.0010623059 -0.03689768 0.041456316 0.13604572
00000000: 123d 8b3a 0622 17bd 19ce 293d 924f 0b3e

inverse_net.0.weight f4 [64, 48]
0.0066660624 0.44284683 -0.1754983 0.113509506 -0.13013785 0.041320343 -0.12111338 0.20255764
0.080236256 0.22539093 -0.16586696 -0.11152168 -0.09534294 -0.016455714 -0.03187871 0.1555561
-0.08533577 -0.04058996 0.07881295 0.023158409 -0.02433548 -0.08622706 -0.074047424 -0.06619892
0.13508789 -0.21314311 -0.26750398 -0.4633027 0.024999054 0.06252165 -0.32082528 -0.33356965
-0.04358322 0.19838251 0.19214357 -0.066702046 0.10378871 -0.23446319 -0.02415438 0.09062804
-0.01207704 0.10259638 0.058717318 0.121185094 0.0943923 -0.02203314 -0.12263641 0.06858653
0.009145967 0.75461817 0.4532539 0.16725211 0.108687125 -0.0142003 -0.051295932 -0.0084766
0.01660672 0.07899553 0.08789123 -0.036736414 -0.03411713 -0.057502665 -0.07457765 0.0070757843
-0.039105445 -0.10857893 -0.013925173 0.076349 -0.122318365 0.11194803 -0.10621077 0.19977462
-0.082317 -1.3247107 -0.18395312 1.4791405 0.051458392 -0.047816496 -0.0048392382 -0.055967364
-0.037738338 0.1314882 1.4895903 0.07497721 -0.035110854 0.022424793 0.080733135 -0.08195589
-0.06341101 0.007364732 -0.050245997 -0.07210851 -0.054266922 -0.13723025 0.15472545 -0.057429507
0.28603303 -0.72609884 0.24761051 -0.17775248 -0.14064437 0.17212318 -0.16277806 -0.017226784
0.03521917 -0.020027082 -0.17528519 0.13169909 -0.18351491 0.07715716 0.110528804 -0.022482373
0.02222082 -0.0045376294 -0.058153924 -0.042068236 -0.097619556 -0.13277063 -0.08674861 -0.04806514
0.20009245 0.49029222 -0.10365393 -1.1196307 -0.3361135 -0.24330343 -0.2650383 -0.18042141
-0.09014135 -0.015713265 0.03824644 0.12378162 -0.078501314 -0.004179686 -0.14420721 0.10336956
0.09728133 -0.09204495 -0.083933905 -0.13176757 0.045104485 -0.16996348 -0.11277339 0.06933552
0.05277269 0.808152 0.2103731 -0.0026749359 0.12077877 -0.3566306 -0.18232694 -0.075712785
-0.03579271 0.048227496 -0.20298262 -0.089907706 0.04840369 0.12057399 -0.04051248 -0.04462457
-0.10538149 0.023208866 0.12136041 0.043236017 -0.040781118 0.09181397 0.07977797 -0.019282257
0.062452495 -0.07463637 0.76215714 -0.32468912 0.13895968 0.50829166 -0.059974648 -0.26635376
-0.113594644 -0.013372612 0.0070557008 0.028496124 0.10577266 0.02794854 -0.097370245 -0.102891095
-0.06671068 -0.08331849 -0.026097655 0.05727546 -0.10193479 0.116925694 0.13496102 -0.054328613
-0.1757548 0.031016475 -0.7317616 0.35373542 0.11155853 -0.12932593 0.23609987 -0.14055243
0.13416225 -0.037204362 -0.022428405 0.04777774 -0.05270194 -0.095751636 -0.015211498 0.0126555255
-0.124408476 0.048058394 -0.12779589 0.062097143 0.006791896 -0.16883789 -0.118219644 0.10033815
-0.44011462 -1.3927436 -0.028766235 -0.7804569 0.028798645 0.31496108 0.297832 0.2732305
-0.088077895 -0.1471151 -0.037696104 -0.0065854355 -0.14807025 0.008184864 -0.03243224 0.015785364
-0.09744897 -0.115908414 0.076155506 -0.002435971 -0.08186793 -0.097436436 -0.03517452 0.04263986
-0.0024692325 0.092380606 -0.5322677 -0.39523575 -0.076728806 0.18935275 0.08893212 0.16149572
-0.03319645 -0.21762821 -0.28207365 -0.21979126 0.12020053 -0.091664776 0.07663009 0.024767984
00000000: fc6e da3b d2bc e23e d4b5 33be ac77 e83d
00000010: db42 05be 853f 293d 4b0a f8bd 456b 4f3e
00000020: e852 a43d e1cc 663e 07d9 29be 7b65 e4bd
00000030: 2943 c3bd 22ce 86bc 4093 02bd 194a 1f3e
00000040: 85c4 aebd a841 26bd af68 a13d b4b6 bd3c
00000050: 335b c7bc d097 b0bd 2da6 97bd 4d93 87bd
00000060: 7b54 0a3e 3042 5abe 48f6 88be 0336 edbe
00000070: d1ca cc3c 5a0b 803d 3643 a4be a4c9 aabe
00000080: 5284 32bd c924 4b3e 49c1 443e 159b 88bd
00000090: 2d8f d43d 1e17 70be 68df c5bc 329b b93d
000000a0: c7de 45bc 0d1e d23d 9281 703d e42f f83d
000000b0: c050 c13d d87e b4bc cc28 fbbd 1877 8c3d
000000c0: f7d8 153c a82e 413f e510 e83e 2344 2b3e
000000d0: 5b97 de3d 60a8 68bc af1b 52bd 70e1 0abc
000000e0: d10a 883c 69c8 a13d 5100 b43d ec78 16bd
000000f0: 67be 0bbd ea87 6bbd 2bbc 98bd fbdb e73b
00000100: 082d 20bd a15e debd 6926 64bc dd5c 9c3d
00000110: 0d82 fabd 0245 e53d 0885 d9bd b891 4c3e
00000120: d195 a8bd 1f90 a9bf 355e 3cbe 7a54 bd3f
00000130: 09c6 523d 3bdb 43bd 7992 9ebb 093e 65bd
00000140: 8493 1abd d8a4 063e e5aa be3f a78d 993d
00000150: 66d0 0fbd 33b4 b73c 6a57 a53d 7dd8 a7bd
00000160: a2dd 81bd da53 f13b bfce 4dbd a0ad 93bd
00000170: fe46 5ebd 1686 0cbe 5970 1e3e 343b 6bbd
00000180: ec72 923e 9de1 39bf 9c8d 7d3e bf04 36be
00000190: 1405 10be 0f41 303e 4baf 26be 2f1f 8dbc
000001a0: fa41 103d d60f a4bc f67d 33be 20dc 063e
000001b0: 55eb 3bbe 9304 9e3d ed5c e23d f42c b8bc
000001c0: 7008 b63c 65b0 94bb cf32 6ebd be4f 2cbd
000001d0: c3ec c7bd 06f5 07be 41a9 b1bd f4df 44bd
000001e0: 09e5 4c3e 9507 fb3e 8348 d4bd 0f50 8fbf
000001f0: 1217 acbe 8924 79be 1ab3 87be 64c0 38be
00000200: 079c b8bd 1bb9 80bc 4da8 1c3d 3881 fd3d
00000210: 4cc5 a0bd bff5 88bb 0eab 13be 6bb3 d33d
00000220: 6f3b c73d 1082 bcbd 8ae5 abbd 14ee 06be
00000230: 7bbf 383d e80a 2ebe bcf5 e6bd c8ff 8d3d
00000240: 2d28 583d 0de3 4e3f 0c6c 573e fa4d 2fbb
00000250: dc5a f73d 4998 b6be eab3 3abe 4e0f 9bbd
00000260: 609b 12bd 328a 453d adda 4fbe 8821 b8bd
00000270: f342 463d 7fef f63d 6af0 25bd 41c8 36bd
00000280: 40d2 d7bd 8520 be3c ce8b f83d 4018 313d
00000290: 1a0a 27bd f608 bc3d a262 a33d d3f5 9dbc
000002a0: 30ce 7f3d f4da 98bd bb1c 433f a73d a6be
000002b0: 724b 0e3e 671f 023f faa7 75bd 855f 88be
000002c0: 4fa4 e8bd cd18 5bbc 8233 e73b b470 e93c
000002d0: 569f d83d 56f4 e43c 0d6a c7bd 91b8 d2bd
000002e0: 9c9f 88bd e2a2 aabd c0ca d5bc ac99 6a3d
000002f0: 30c3 d0bd bd76 ef3d 3933 0a3e ae87 5ebd
00000300: 11f9 33be 4316 fe3c ba54 3bbf cf1c b53e
00000310: cc78 e43d 046e 04be 2ac4 713e faec 0fbe
00000320: d461 093e 9a63 18bd c6bb b7bc 97b2 433d
00000330: fddd 57bd 6f19 c4bd a639 79bc 1f59 4f3c
00000340: dfc9 febd e1d8 443d eddc 02be 9359 7e3d
00000350: 8e8e de3b d7e3 2cbe 241d f2bd 177e cd3d
00000360: b456 e1be 6c45 b2bf 2ba7 ebbc 06cc 47bf
00000370: 23eb eb3c 9442 a13e 707d 983e dee4 8b3e
00000380: 2f62 b4bd 57a5 16be 3b67 1abd a3ca d7bb
00000390: ba9f 17be cf19 063c abd7 04bd 4f50 813c
000003a0: 5393 c7bd 6461 edbd 6bf7 9b3d d0a4 1fbb
000003b0: 60aa a7bd c18c c7bd 2813 10bd 22a7 2e3d
000003c0: d9d2 21bb 0b32 bd3d b242 08bf 575c cabe
000003d0: fe23 9dbd b0e5 413e 0b22 b63d 225f 253e
000003e0: 00f9 07bd eed9 5ebe f56b 90be f610 61be
000003f0: b22b f63d beba bbbd 3df0 9c3d 3ae6 ca3c

inverse_net.0.bias f4 [64]
-0.036169905 0.16448075 0.14864145 -0.040237747 0.0889711 -0.079858884 0.015884925 -0.10699285
-0.13115942 0.11543292 -0.1156933 0.07477575 -0.05763959 -0.12799162 0.053961806 -0.15123732
-0.124474436 0.20105585 -0.003104965 -0.06476034 0.05089738 0.11369316 -0.08832139 -0.016139494
-0.009609212 -0.010993479 -0.09721683 -0.08809834 0.018968629 -0.058622286 -0.16613327 -0.14612485
-0.062295556 0.072977595 -0.11045741 -0.18426095 -0.13358371 0.012328749 -0.08758082 -0.06503461
0.113176495 -0.041699536 0.0038488694 0.15324454 0.11784961 0.0046048686 0.034465276 -0.08260891
0.0047716047 0.0065168464 0.048716042 -0.119479366 0.011706872 -0.17912054 -0.13779707 0.08005154
0.016185522 -0.027916854 -0.12966584 0.13840711 0.08998251 -0.059767626 0.11421144 0.04031123
00000000: e526 14bd a46d 283e 7735 183e 56d0 24bd
00000010: 7b36 b63d 0e8d a3bd 1a21 823c 111f dbbd
00000020: a84e 06be 1868 ec3d 9cf0 ecbd 0724 993d
00000030: 7e17 6cbd 3c10 03be 0e07 5d3d f5dd 1abe
00000040: 74ec febd 96e1 4d3e ab7c 4bbb 12a1 84bd
00000050: c579 503d f6d7 e83d d8e1 b4bd f936 84bc
00000060: f56f 1dbc fe1d 34bc 9e19 c7bd e76c b4bd
00000070: 1964 9b3c ec1d 70bd d71e 2abe c1a1 15be
00000080: a029 7fbd 4775 953d 7f37 e2bd e7ae 3cbe
00000090: 2bca 08be 85fe 493c 935d b3bd de30 85bd
000000a0: 14c9 e73d 22cd 2abd 503d 7c3b 23ec 1c3e
000000b0: 235b f13d 70e4 963b 762b 0d3d dc2e a9bd
000000c0: 1f5b 9c3b 458b d53b 798a 473d 99b1 f4bd
000000d0: 2ece 3f3c 606b 37be ad1a 0dbe 10f2 a33d
000000e0: 8097 843c e3b1 e4bc 1fc7 04be 98ba 0d3e
000000f0: c048 b83d e6ce 74bd b0e7 e93d 631d 253d
