IL/Model/model_reacher_36.pt (torch, 292527 bytes, 20 tensors)

policy_net.0.weight f4 [64, 24]
0	0xbebeef18	-0.3729179
1	0xbf9a1c3d	-1.2039868
2	0x3e7550c6	0.23956594
3	0x3c7e86c1	0.0155350575
4	0x3e72ad29	0.23698868
5	0xbe372f78	-0.17889202
6	0x3ea781b9	0.32716158
7	0xbd775656	-0.06038507
8	0x3e3717c4	0.1788016
9	0x3d8051fe	0.06265639
10	0x3cf37e26	0.029723238
11	0xb97ee63c	-0.00024309097
12	0xbdce2415	-0.10065476
13	0xbbcf7c18	-0.006331932
14	0x3ea2cb38	0.3179567
15	0x3e0fb04d	0.14032097
16	0x3e820955	0.25397745
17	0x3e01058d	0.12599774
18	0xbe7d29f8	-0.24723041
19	0xbf00f986	-0.5038074
20	0xbed6e450	-0.41971064
21	0xbda7989b	-0.08183404
22	0x3e3402f0	0.17579246
23	0x3ca5662b	0.020190319
24	0x3d0b8453	0.03406174
25	0xbf3d01dd	-0.7383097
26	0xbd931e39	-0.07183499
27	0x3e6780f0	0.2260778
28	0x3e836b73	0.25667915
29	0x3e600733	0.21877746
30	0x3f6cf9cf	0.9256868
31	0xbe944a0b	-0.2896274
32	0xbdad62a0	-0.08466077
33	0xbe9c32b9	-0.30507448
34	0x3e93f391	0.28896764
35	0xbb80f333	-0.0039352416
36	0xbc76934e	-0.015049769
37	0xbe9bbbfe	-0.30416864
38	0xbcb1073c	-0.021609895
39	0xbdc47c22	-0.09593989
40	0xbded8c59	-0.11599035
41	0xbe5e0ca9	-0.21684517
42	0xbe8960f9	-0.26831797
43	0xbddf2cfe	-0.108972535
44	0xbe83423f	-0.2563648
45	0x3e1c74c6	0.1527892
46	0xbdc6a875	-0.097000994
47	0xbe0db40f	-0.13838218
48	0x3e1b2ba0	0.1515336
49	0x3f3bf8ad	0.73426324
50	0xbeaa9628	-0.33317685
51	0x3fcffd25	1.6249129
52	0xbd150c64	-0.03638877
53	0xbdc5dc4f	-0.09661161
54	0xbd1c09f4	-0.03809543
55	0x3db476ec	0.08811745
56	0x3eecf7f7	0.46282932
57	0xbd452309	-0.048129115
58	0x3dbe4c78	0.09291929
59	0xbd064e22	-0.032789357
60	0x3eb5a491	0.35477117
61	0x3e9e88e6	0.3096382
62	0x38e57f79	0.000109433146
63	0xbd8dff54	-0.069334656
64	0xbd8acc44	-0.06777242
65	0xbe329221	-0.17438556
66	0x3d6d104c	0.05787687
67	0x3c9deae2	0.01927704
68	0x3d474493	0.04864938
69	0x3e3e1389	0.1856214
70	0xbdbf9985	-0.093554534
71	0xbe5d1ce2	-0.21593049
72	0x3ec8aa7a	0.39192563
73	0x3f0ecbd3	0.5577976
74	0xbeb77a8f	-0.35835692
75	0xbfa1db66	-1.264508
76	0x3e963193	0.29334697
77	0x3ddaef22	0.10690142
78	0x3e984019	0.29736403
79	0x3dbcbbb4	0.09215489
80	0xbde6ce78	-0.112698495
81	0x3dacfaf2	0.084463015
82	0xbdad5373	-0.08463182
83	0xbf101801	-0.5628663
84	0xbd51f237	-0.051256385
85	0x3cc69e83	0.024245506
86	0x3c89d84c	0.016826771
87	0xbd55a659	-0.052160595
88	0xbdae21ab	-0.085025154
89	0xbd2c3c51	-0.04204971
90	0xbddc475a	-0.10755797
91	0xbec13fae	-0.37743896
92	0xbdd1bad7	-0.10240715
93	0xbe80ebc3	-0.25179872
94	0xbd8a8e36	-0.06765406
95	0x3dc3ca41	0.09560061
96	0xbdacdd3a	-0.08440633
97	0x3e22a2b3	0.15882377
98	0xbe17cbce	-0.14823839
99	0x3e79c31d	0.24390836
100	0x3ce9d983	0.0285461
101	0x3e0680c9	0.13135065
102	0x3d51361c	0.051076993
103	0x3d81dae2	0.06340577
104	0xbd4aea77	-0.04954001
105	0xbe1286de	-0.1430926
106	0xbe249edf	-0.1607623
107	0x3ee72770	0.45147276
108	0xbf0b81d3	-0.5449497
109	0x3d05ea57	0.032694187
110	0x3e2a6899	0.16641463
111	0x3dd18540	0.102304935
112	0x3eae0fa7	0.33996317
113	0x3e94bf41	0.29052165
114	0x3e237067	0.15960847
115	0x3e83c3ce	0.25735325
116	0xbd9409eb	-0.07228454
117	0xbe357bdf	-0.17723034
118	0xbe363a65	-0.17795713
119	0xbd8d1598	-0.06888884
120	0xbeda7483	-0.42667016
121	0xbe124117	-0.14282642
122	0x3e9c3f51	0.30517057
123	0xbfc19e52	-1.512644
124	0xbe3ae129	-0.18249954
125	0xbd662804	-0.056190506
126	0x3e818bce	0.25301975
127	0xbe3e456e	-0.18581173
128	0xbefcf496	-0.49405354
129	0x3e1b3a22	0.15158895
130	0xbe875c28	-0.26437497
131	0xbd9fd0e0	-0.078035116
132	0xbd973fda	-0.073852256
133	0xbe53db00	-0.2068901
134	0x3e3451e9	0.17609371
135	0x3e34eee4	0.17669255
136	0x3e4dec55	0.20109685
137	0x3df8b8a4	0.121445924
138	0x3e75bb0b	0.23997132
139	0x3e72596c	0.23666924
140	0x3d91850d	0.071054555
141	0x3c60271a	0.013681198
142	0xbe2078c9	-0.15671076
143	0x3de7d412	0.11319746
144	0xbe9e8c0f	-0.3096623
145	0x402c24cb	2.6897457
146	0x3e275de1	0.16344406
147	0xbf0d3e2f	-0.5517301
148	0xbe9e586c	-0.30926836
149	0x3e9830b5	0.2972466
150	0xbefc9ea3	-0.4933978
151	0x3e36ffdf	0.17871045
152	0x3deb77bf	0.11497449
153	0xbbb9da7b	-0.005671797
154	0x3e51eec5	0.2050124
155	0xbe03d934	-0.12875825
156	0x3d85810f	0.065187566
157	0x3dc90d47	0.098169856
158	0x3c99c06a	0.018768508
159	0xbe2f9d1a	-0.17149773
160	0x3e09d7df	0.13461255
161	0x3e3e35a2	0.18575147
162	0x3c71ad91	0.014750854
163	0x3e94c05d	0.29053012
164	0x3e50c674	0.20388204
165	0xbd99804f	-0.07495176
166	0xbe943366	-0.28945464
167	0xbe33383c	-0.1750192
168	0xbc8938d2	-0.016750727
169	0x3ef583da	0.47952157
170	0x3f0f73a1	0.5603581
171	0x3faebcc9	1.3651363
172	0xbe134d77	-0.14385019
173	0x3e6ca565	0.23109968
174	0x3e3a8686	0.18215379
175	0xbe14730e	-0.14497015
176	0x3deeb58a	0.116557196
177	0xbea49b1d	-0.32149592
178	0x3cfd3377	0.03090833
179	0x3e83041e	0.2558908
180	0xbe6b4e16	-0.22979006
181	0xbcd264f3	-0.025682902
182	0xbe477963	-0.19479899
183	0xbd105eb3	-0.035246562
184	0xbe05feb9	-0.1308545
185	0x3e2985ca	0.16554943
186	0xbd4169f6	-0.047220193
187	0xbd38b4c3	-0.045094263
188	0x3e167c9f	0.14695977
189	0xbe4af6bf	-0.19820689
190	0x3c8dfa32	0.017331216
191	0x3db4745c	0.08811256
192	0x3f4041b7	0.7510027
193	0x3d7feb8c	0.062480494
194	0xbee1c950	-0.44098902
195	0xbedc02e0	-0.42970943
196	0xbddfa810	-0.10920727
197	0x3e7cf9c7	0.24704657
198	0xbe1afa2d	-0.15134497
199	0x3e141bc6	0.1446372
200	0x3cb792b6	0.022408824
201	0x3e8e356e	0.2777514
202	0xbbe16d8e	-0.006879515
203	0x3d32de75	0.043669183
204	0x3d3bd7ad	0.04585998
205	0x3dc688c9	0.096940584
206	0xbe30b23c	-0.17255491
207	0xbd22a0b0	-0.039704025
208	0xbdc2497f	-0.094866745
209	0xbe567261	-0.2094207
210	0x3d927b2a	0.07152398
211	0xbe082176	-0.13294014
212	0x3cea7be7	0.028623534
213	0x3df1e5b9	0.11811394
214	0xbd4943ee	-0.04913705
215	0x3e4391f5	0.19098647
216	0x3e503a90	0.2033484
217	0x3f9145f0	1.1349468
218	0x3e5795c6	0.21053228
219	0xbfaa870f	-1.3322467
220	0xbeb25075	-0.3482701
221	0x3e5ecfb8	0.21758926
222	0xbd8c59d9	-0.068530746
223	0x3d945ee7	0.07244664
224	0x3d0f8f37	0.03504869
225	0x3ed0f0e0	0.40808773
226	0x3ed7e951	0.42170194
227	0xbe491642	-0.19637397
228	0xbe07bc0c	-0.13255328
229	0xbe9440d0	-0.28955698
230	0x3e8aebf1	0.27133134
231	0x3e4180bc	0.18896765
232	0x3e205a4a	0.15659443
233	0x3cdb8756	0.026797932
234	0x3e072a56	0.13199744
235	0xbe5234a8	-0.205279
236	0xbebdda18	-0.37080455
237	0xbe86eec4	-0.2635404
238	0xbd3c1c6e	-0.04592555
239	0x3d8034ac	0.06260046
240	0x3efee5de	0.4978475
241	0x3fc17d55	1.5116373
242	0x3ea4a998	0.3216064
243	0xbf63764a	-0.8885237
244	0x3e7e643d	0.24842925
245	0x3e360d8f	0.1777861
246	0xbf024b0c	-0.5089576
247	0xbd3972cf	-0.045275506
248	0xbe83b4de	-0.25723928
249	0x3ee090b5	0.43860403
250	0x3e969a54	0.29414618
251	0xbd8fd00b	-0.07022103
252	0x3e2ccfa9	0.16876091
253	0x3e470fe4	0.19439656
254	0xbea426cf	-0.3206086
255	0xbeb37dc0	-0.35056877

policy_net.0.bias f4 [64]
0	0xbdc9c947	-0.09852844
1	0xbdde876f	-0.10865676
2	0xbe6aa0c7	-0.22912894
3	0xbca16997	-0.01970367
4	0x3e06fed7	0.13183151
5	0xbe407ae3	-0.18796878
6	0x3e00e292	0.1258643
7	0xbc2042b8	-0.009781532
8	0x3e0660c3	0.13122849
9	0x3e2ddeaf	0.16979478
10	0xbde4bd44	-0.11168912
11	0x3d318335	0.04333802
12	0xbe872937	-0.26398632
13	0xbe968496	-0.2939803
14	0x3e799acd	0.24375458
15	0x3dd4fe22	0.104000345
16	0x3e206739	0.15664376
17	0x3e8105ad	0.25199643
18	0x3dba9438	0.09110302
19	0xbe07388b	-0.13205163
20	0x3d17ef5b	0.0370935
21	0x3ca943c6	0.0206622
22	0xbe424969	-0.18973316
23	0x3dbd19d1	0.0923344
24	0xbd1f6790	-0.038917124
25	0xbc77b90c	-0.015119802
26	0x3e4ea99a	0.20181885
27	0x3cf5942f	0.029977886
28	0x3e2de96f	0.16983579
29	0x3d23ed6a	0.040021338
30	0xbdd5f33c	-0.10446784
31	0xbdee62dc	-0.1163995
32	0x3d9be3c2	0.07611801
33	0x3e804457	0.2505214
34	0xbdc80a2a	-0.09767564
35	0xbd68caf0	-0.05683416
36	0xbc6278f2	-0.013822781
37	0x3d07d81b	0.03316508
38	0xbe0cf144	-0.1376391
39	0x3e3b625c	0.1829924
40	0x3da80168	0.08203393
41	0xbe8057d1	-0.25067
42	0x3d0ab120	0.033860326
43	0x3bd2d493	0.006434032
44	0xbe2e2ff5	-0.17010482
45	0xbe3b2760	-0.18276739
46	0x3e7a4085	0.24438675
47	0xbc14d4da	-0.009083951
48	0x3c38ee64	0.0112873055
49	0x3e034d8f	0.12822555
50	0x3e1117e7	0.14169274
51	0xbb0fb110	-0.0021925606
52	0x3e09b6c7	0.1344863
53	0x3e577784	0.21041685
54	0x3cac4f8c	0.021034025
55	0x3e709a8f	0.2349646
56	0xbe3972c2	-0.18110183
57	0x3c1247bb	0.008928235
58	0xbdc34db0	-0.09536302
59	0x3e17fdcd	0.14842911
60	0x3e078e04	0.13237768
61	0xbe53aded	-0.20671816
62	0xbe175104	-0.14776999
63	0xbd70abf4	-0.058757737

policy_net.2.weight f4 [128, 64]
0	0xbe4ac3c7	-0.19801246
1	0x3c0a1660	0.008428186
2	0xbdd52d6e	-0.10409056
3	0xbe879603	-0.26481637
4	0x3d9f68b3	0.07783642
5	0x3e6e705f	0.23285054
6	0x3bea2225	0.0071451836
7	0x3e5b7d3f	0.21434496
8	0x3e33f340	0.17573261
9	0x3db7bb61	0.089712866
10	0xbe1180a0	-0.14209223
11	0xbeb47b7f	-0.3525047
12	0x3e75b959	0.23996486
13	0xbcf64b60	-0.030065238
14	0x3e84e19a	0.2595337
15	0x3ec864d0	0.39139414
16	0xbe4f2a98	-0.20231092
17	0xbbbfa6b2	-0.005848729
18	0xbe1c314b	-0.15253179
19	0x3d1e9555	0.038716633
20	0xbe2e7780	-0.17037773
21	0xbdeaf87a	-0.114731744
22	0x3e76858e	0.24074385
23	0x3e900195	0.28126207
24	0x3e40e55a	0.1883749
25	0xbea779f8	-0.32710242
26	0xbebb57ea	-0.3659051
27	0x3eca652f	0.39530322
28	0x3d28eb10	0.041239798
29	0x3e072965	0.13199385
30	0xbec84404	-0.39114392
31	0xbe00f7ae	-0.12594482
32	0xbe70ef44	-0.23528773
33	0x3de31926	0.11088781
34	0x3d9ba511	0.07599843
35	0xbdbca2c7	-0.09210735
36	0x3d950dca	0.07278021
37	0x3e7d93e1	0.24763443
38	0xbf065b48	-0.52483034
39	0xbe5d6315	-0.21619828
40	0xb73c6781	-1.1229772e-05
41	0xbf00522c	-0.50125384
42	0xbe597fb4	-0.21240121
43	0x3f2e733e	0.68144596
44	0xbde7af5f	-0.11312746
45	0x3d958bb7	0.07302039
46	0x3d608094	0.05481012
47	0x3d3449a3	0.044015538
48	0x3dcd0e41	0.10012484
49	0xbedf90e2	-0.43665224
50	0xbd3e1b4e	-0.04641276
51	0x3decba71	0.115589984
52	0xbd8a806f	-0.06762778
53	0xbe93dfdc	-0.2888173
54	0x3e681b47	0.22666655
55	0x3cfb6ae3	0.030690616
56	0xbdb19d7c	-0.08672616
57	0x3b8fe6e4	0.004391538
58	0x3e83226e	0.25612205
59	0x3e06cafb	0.13163368
60	0xbe058011	-0.13037135
61	0xbe7619d2	-0.24033287
62	0x3c855b18	0.016278788
63	0x39d560a1	0.0004069852
64	0xbecd8eed	-0.40148106
65	0x3e0f0d9f	0.1397004
66	0x3e55af39	0.20867623
67	0x3cd62cc1	0.026144387
68	0xbfbc2b61	-1.4700738
69	0x3d8c5908	0.06852919
70	0x3e0805f1	0.13283516
71	0xbf130321	-0.5742665
72	0xbc6587db	-0.014009441
73	0xbd4ab994	-0.049493387
74	0x3c8ccb46	0.017186772
75	0xbde8f402	-0.11374666
76	0x3d245cb8	0.040127486
77	0x3e27e75f	0.16396855
78	0xbd2fd349	-0.042926107
79	0x3e129bbc	0.1431722
80	0xbd900616	-0.07032411
81	0x3dee8033	0.11645546
82	0x3d9d7ca2	0.076897874
83	0xbdbfbf60	-0.09362674
84	0xbbfc0c7a	-0.007691917
85	0x3dbfc27d	0.093632676
86	0xbe5d548e	-0.21614286
87	0xbf1db735	-0.61607677
88	0xbd044b1a	-0.032298185
89	0x3d1076f4	0.035269693
90	0x3e8db667	0.27678224
91	0x3eac9cfa	0.33713514
92	0xbd27dfe1	-0.040984992
93	0x3dbb300d	0.09140024
94	0x3cde4640	0.027133107
95	0x3d9151e5	0.07095698
96	0xbee57730	-0.44817495
97	0xbe7098ff	-0.23495863
98	0xbc79ca2e	-0.015245957
99	0x3e140ec1	0.14458753
100	0x3e7005df	0.2343974
101	0x3e15c551	0.14626051
102	0xbd4301cb	-0.04760913
103	0xbe9dba7c	-0.3080634
104	0xbeda7698	-0.42668605
105	0x3da89cb1	0.082330115
106	0x3cbd1fd2	0.023086462
107	0xbf09ed1d	-0.5387743
108	0x3e67d46a	0.22639623
109	0x3d702ec3	0.058638345
110	0xbd1c783c	-0.038200602
111	0x3e03fca1	0.12889339
112	0x3ef6bc67	0.48190615
113	0x3e1b3d65	0.15160139
114	0xbece7300	-0.40322113
115	0xbc3cc60c	-0.011521827
116	0x3e99a7a5	0.30010715
117	0xbe81a872	-0.25323826
118	0x3d5248c7	0.051338937
119	0x3d1e9cf1	0.03872389
120	0x3d77afde	0.060470454
121	0xbe6800a7	-0.22656499
122	0xbe805681	-0.25065997
123	0xbcb2dc19	-0.021833466
124	0x3df10e60	0.1177032
125	0x3dd3f74f	0.10349905
126	0xbe0dac8f	-0.13835357
127	0x3d87ab81	0.06624509
128	0xbe2714a8	-0.16316473
129	0xbd92bb1e	-0.07164596
130	0xbeac0493	-0.3359724
131	0x3df0d253	0.11758866
132	0xbbef6d7b	-0.0073067523
133	0x3e63660e	0.222069
134	0x3da673e9	0.08127577
135	0x3d58cd93	0.052930426
136	0x3e27de05	0.16393287
137	0x3dfbacbc	0.12288806
138	0x3dcedeeb	0.10101112
139	0xbccee752	-0.025256786
140	0xbe23db90	-0.16001725
141	0xbeedb0a8	-0.4642384
142	0xbd89e2e4	-0.06732729
143	0xbe6b23a1	-0.2296281
144	0xbe1329f5	-0.14371474
145	0x3db19258	0.08670491
146	0x3ed4411d	0.41455927
147	0xbe83af51	-0.25719693
148	0x3d1a2c32	0.037639804
149	0xbdaa7fbf	-0.08325147
150	0xbde8903e	-0.11355637
151	0xbe978ea0	-0.29601002
152	0xbe568599	-0.20949401
153	0x3ea4c80e	0.3218388
154	0x3d4a8ec6	0.049452566
155	0x3e2a8b88	0.1665479
156	0x3e557d1b	0.20848505
157	0xbe22277e	-0.15835378
158	0xbbb499b5	-0.0055114874
159	0x3e399cf9	0.18126287
160	0x3e085838	0.13314903
161	0xbcb31d2d	-0.021864498
162	0xbdd5f073	-0.10446253
163	0x3d71beee	0.059019975
164	0xbd979328	-0.07401115
165	0xbf14b570	-0.5808935
166	0x3e28c8ee	0.16482899
167	0x3edcd0b3	0.43127975
168	0xbdedb069	-0.11605913
169	0xbf120610	-0.570405
170	0xbd16292e	-0.036660366
171	0xbe25e949	-0.16202272
172	0xbe8dc052	-0.2768579
173	0x3d95efc4	0.07321122
174	0xbd816dbd	-0.06319759
175	0x3dd201ff	0.10254287
176	0xbdcab3ce	-0.09897576
177	0x3e14b238	0.1452111
178	0x3e958200	0.29200745
179	0xbeaad409	-0.33364895
180	0x3e415c65	0.18882902
181	0xbdbe8056	-0.09301822
182	0xbd924d39	-0.07143635
183	0x3cff1262	0.031136695
184	0xbee32731	-0.44365838
185	0xbdd7f72e	-0.10545193
186	0xbee0ca72	-0.43904454
187	0x3d1d0da5	0.03834309
188	0x3e95ea75	0.2928044
189	0xbe9598c2	-0.29218107
190	0xbd6c7ac8	-0.05773428
191	0xbeb323eb	-0.3498834
192	0xbec6de12	-0.388413
193	0x3e8aeec9	0.27135304
194	0xbebce3ab	-0.36892447
195	0xbd259ff3	-0.040435743
196	0xbd5440b7	-0.05181953
197	0xbca1cdb2	-0.019751403
198	0xbe969605	-0.2941133
199	0x3d00a038	0.031402797
200	0x3d7bcd23	0.06147493
201	0x3eb7d9e9	0.3590844
202	0x3e9c0956	0.30475873
203	0xbe6511f1	-0.22370125
204	0xbe585052	-0.2112439
205	0x3d015605	0.031576175
206	0xbd1f3ddf	-0.038877364
207	0xbd0decbf	-0.034649607
208	0x3ce9639e	0.028489884
209	0x3d9438b5	0.072373785
210	0xbe0b66c2	-0.13613418
211	0xbf19ce39	-0.60080296
212	0x3db97fe0	0.09057593
213	0xbe01b1f2	-0.12665537
214	0x3d70ed8b	0.05882029
215	0xbdfba6e3	-0.122876905
216	0xbeef4235	-0.467302
217	0x3e169a41	0.1470728
218	0xbb6980ae	-0.0035629678
219	0xbd8d97b5	-0.069137014
220	0xbe5dec34	-0.21672136
221	0x3b77b196	0.0037795058
222	0xbc20c3cb	-0.009812306
223	0xbf196ce1	-0.5993176
224	0x3ede1349	0.43374088
225	0x3e1a9e52	0.15099457
226	0x3e25dee8	0.16198313
227	0x3e16ce88	0.14727223
228	0xbcd690de	-0.026192125
229	0x3db91b9b	0.090384685
230	0x3c809c63	0.015699571
231	0xbed4d644	-0.41569722
232	0x3c979061	0.018501462
233	0xbecd2ded	-0.400741
234	0x3e14978e	0.14510939
235	0xbecd529e	-0.40102094
236	0xbdaa98e1	-0.083299406
237	0xbf543797	-0.82897323
238	0xbf0100f2	-0.5039207
239	0x3e13bab7	0.14426695
240	0xbe93a5b6	-0.28837365
241	0xbe6c2ac7	-0.23063193
242	0x3ed3bf0e	0.413567
243	0xbeda4397	-0.42629692
244	0x3ea0b903	0.31391153
245	0x3e64bc40	0.22337437
246	0x3ea2606a	0.31714183
247	0x3ec12858	0.37726092
248	0xbe140651	-0.14455535
249	0xbe811310	-0.25209856
250	0xbe1583e7	-0.14601098
251	0xbec0773a	-0.37590963
252	0xbeec4a5d	-0.46150485
253	0xbe241111	-0.16022135
254	0xbd1f6915	-0.038918573
255	0x3e13379b	0.1437668

policy_net.2.bias f4 [128]
0	0x3d811cb5	0.063043036
1	0xbd48e750	-0.04904872
2	0x3e25ff7c	0.16210741
3	0x3cb12852	0.021625672
4	0x3c4c16e9	0.012456634
5	0x3dba7fc4	0.091064006
6	0xbcf37ee3	-0.02972359
7	0xbd641c0d	-0.055690814
8	0x3d4eb215	0.0504628
9	0x3dee1c91	0.11626542
10	0xbe44d7ee	-0.19222996
11	0x3d0cdbaa	0.034389175
12	0xbd5a6c6a	-0.053326048
13	0xbdfa62ed	-0.122259
14	0x3da95c33	0.08269539
15	0x3d2738bc	0.04082559
16	0x3d0e4124	0.03473009
17	0xbe272ebc	-0.16326421
18	0x3dacc0d1	0.08435214
19	0x3e1f3e50	0.15551114
20	0xbe57c7de	-0.21072337
21	0x3ca71e2a	0.020400126
22	0xbdf9750c	-0.12180528
23	0xbdce6870	-0.100785136
24	0x3c10a3f5	0.008828153
25	0xbd5591aa	-0.05214087
26	0x3bed3dd3	0.007240036
27	0x3cc126aa	0.023578007
28	0x3cdd0bd7	0.026983185
29	0xbd09b5cb	-0.033620637
30	0xbd119da8	-0.035550743
31	0xbd85e9d1	-0.065387376
32	0x3c8a3de4	0.016875215
33	0x3c8997c7	0.016796006
34	0xbe385a70	-0.18003249
35	0xbe35e023	-0.17761283
36	0xbde8b9bb	-0.1136355
37	0x3e33a3c8	0.17542946
38	0x3e6db30b	0.2321283
39	0x3dc8ce10	0.09804928
40	0xbe09090a	-0.13382354
41	0xbe65be1f	-0.22435807
42	0x3d74c263	0.059755694
43	0x3d532162	0.05154551
44	0xbe27b0c4	-0.16376024
45	0xbd829ae3	-0.063771985
46	0x3cfb6686	0.030688535
47	0x3cf8487a	0.030307997
48	0x3e023cda	0.12718526
49	0xbe63a59c	-0.22231144
50	0xbe50a71a	-0.20376244
51	0x3e301f82	0.1719952
52	0xbd078c59	-0.03309283
53	0x3e0a02d0	0.13477635
54	0x3cf8fb20	0.030393183
55	0xbc7a61f5	-0.015282144
56	0x3d9b3943	0.07579281
57	0xbc504eba	-0.012714082
58	0x3d3181b9	0.043336604
59	0x38b906c7	8.82275e-05
60	0xbdc70eb5	-0.09719602
61	0xbdb8ada1	-0.09017492
62	0x3de13e75	0.10998241
63	0xbe1c132a	-0.15241686
64	0xbdec2255	-0.11529986
65	0xbda34aed	-0.07973275
66	0xbd8cb348	-0.06870133
67	0xbdf6d998	-0.120532215
68	0x3d6a2053	0.057159733
69	0x3c7c7d8e	0.015410794
70	0xbe298a17	-0.16556583
71	0xbe1aa0a7	-0.15100347
72	0x3de43911	0.11143697
73	0xbaacad4e	-0.0013174207
74	0x3e077e74	0.13231832
75	0x3e1c4d1c	0.1526379
76	0xbd0f8253	-0.035036396
77	0xbd8fe685	-0.0702639
78	0x3dc1e0d8	0.09466714
79	0x3cce6121	0.025192799
80	0x3c229a01	0.009924413
81	0x3ac4e842	0.0015022832
82	0xbba61cb1	-0.0050693383
83	0x3cd4ff4d	0.026000643
84	0x3c221115	0.009891768
85	0xbcf66171	-0.03007576
86	0x3cfc2a22	0.03078181
87	0xbb66c671	-0.0035213495
88	0x3e06701a	0.13128701
89	0x3e1be738	0.15224922
90	0x3d23e6f9	0.040015195
91	0xbd33484c	-0.04377012
92	0xbe100044	-0.14062601
93	0x3b854d8b	0.0040680817
94	0xbcdec815	-0.027195016
95	0xbd5f06a8	-0.054449707
96	0xbe00d55c	-0.1258139
97	0xbe027447	-0.12739669
98	0xbe0e1fd3	-0.13879327
99	0xbe8db70e	-0.27678722
100	0x3d6c27d0	0.057655156
101	0xbd7cd407	-0.061725643
102	0x3ce5f4fb	0.028070917
103	0x3d3541a9	0.04425207
104	0xbcc38a8a	-0.023869772
105	0xbe16427f	-0.14673804
106	0x3c9823a6	0.018571686
107	0x3cf9dce7	0.030500842
108	0xbe2ff9f6	-0.17185196
109	0x3d66e41a	0.05636988
110	0xbdd9ee86	-0.10641198
111	0xbcf9b574	-0.030482031
112	0xbd51640e	-0.05112081
113	0x3dbdf1dc	0.09274647
114	0x3d6571ea	0.05601684
115	0xbd272d7f	-0.040814873
116	0xbd9589ab	-0.07301649
117	0x3df4cad4	0.11952749
118	0xbe3b2fa1	-0.18279888
119	0xbdb947fe	-0.090469345
120	0x3c2e4570	0.010636672
121	0x3cd3667e	0.025805708
122	0xbdff4459	-0.12464208
123	0x3e867bdb	0.2626637
124	0xbd96fa54	-0.07371965
125	0x3d530d8a	0.051526584
126	0x3e0c2ff5	0.13690169
127	0xbbb1ba2d	-0.005423805

policy_net.4.weight f4 [128, 128]
0	0xbdb9cb6a	-0.09072001
1	0x3e55b408	0.20869458
2	0x3df78db3	0.12087574
3	0xbcea1d1b	-0.028578332
4	0x3c689232	0.014195012
5	0x3e52830b	0.20557801
6	0x3dc98614	0.098400265
7	0x3e7be262	0.24598077
8	0xbf16a74b	-0.5884902
9	0x3ce5ab28	0.028035715
10	0xbd64e29a	-0.055880167
11	0x3d5b24d5	0.053501923
12	0x3d1f1573	0.038838815
13	0xbdb61714	-0.088911206
14	0x3eccfba3	0.40035734
15	0xbeb97577	-0.3622243
16	0xbe036c1e	-0.12834212
17	0x3e1f7e1f	0.15575455
18	0x3dc1e435	0.09467355
19	0xbeb81015	-0.3594977
20	0x3ecc3b6f	0.39889094
21	0xbd8f21db	-0.06988879
22	0x3e78e913	0.24307661
23	0xbe523c24	-0.20530754
24	0x3deb56a4	0.11491135
25	0xbe55467e	-0.20827672
26	0xbf10d016	-0.56567514
27	0x3e862c27	0.2620556
28	0xbbcdecf8	-0.0062843524
29	0xbe32067b	-0.17385285
30	0xbeb42fda	-0.35192758
31	0xbe89795d	-0.26850405
32	0x3e3d6154	0.18494159
33	0x3dbc8057	0.092041664
34	0x3e64b9d1	0.22336508
35	0xbf202d1a	-0.6256882
36	0xbd208a4e	-0.039194398
37	0xbe479115	-0.19488938
38	0xbe0f594a	-0.13998905
39	0xbdeea334	-0.11652222
40	0x3e5f7a43	0.21823983
41	0xbd4ce013	-0.05001838
42	0x3e6b4034	0.2297371
43	0x3e16eb6c	0.14738244
44	0xbe0cf3d7	-0.13764893
45	0xbf7db0ec	-0.99098086
46	0xbece1ced	-0.40256444
47	0xbf027ada	-0.50968707
48	0x3e5a9a3f	0.21347903
49	0x3ee93b53	0.45553073
50	0x3dc47493	0.09592547
51	0x3e62980b	0.22128312
52	0x3e86bff3	0.2631832
53	0xbe623a7e	-0.22092625
54	0xbe9109e2	-0.28327852
55	0xbd689059	-0.056778286
56	0xbd03922a	-0.032121815
57	0xbea33de0	-0.31883144
58	0xbe28fbc7	-0.16502295
59	0x3b99a44a	0.0046887742
60	0x3ea70977	0.3262441
61	0x3e85105c	0.25989044
62	0xbf20bec4	-0.62791085
63	0xbdea8ff8	-0.11453241
64	0xbe0e2adc	-0.13883537
65	0x3ca2b64f	0.019862322
66	0xbe9c4ab3	-0.3052574
67	0x3dd0280b	0.101638876
68	0xbe1cdb7b	-0.153181
69	0xbec0217f	-0.37525555
70	0xbe58d94d	-0.21176644
71	0xbe31cb04	-0.173626
72	0xbe0a0bb1	-0.13481022
73	0xbd551232	-0.052019306
74	0xbd3f7dea	-0.04675094
75	0xbdbceb37	-0.09224551
76	0xbe3e6123	-0.18591742
77	0xbdcd80b5	-0.100343145
78	0x3e8d7ad1	0.27632764
79	0xbd8b6077	-0.068055086
80	0x3e84fae3	0.2597266
81	0x3e2cbea7	0.16869603
82	0x3d8bcb5f	0.06825899
83	0xbc87972e	-0.01655158
84	0xbe5b3419	-0.21406592
85	0x3ea6ccc6	0.32578105
86	0xbd3bbadf	-0.04583251
87	0x3e3f218b	0.1866514
88	0x3dd504b8	0.10401291
89	0xbdbb4082	-0.09143163
90	0x3dd1e716	0.10249154
91	0xbe25c637	-0.16188894
92	0xbd5e0ae5	-0.05420961
93	0x3dec6ade	0.11543821
94	0xbe673dbb	-0.22582142
95	0x3ece7e42	0.40330702
96	0xbe4949f3	-0.19657116
97	0x3e815a1c	0.2526406
98	0xbea5a529	-0.3235257
99	0x3c6b3cd3	0.014357763
100	0x3e07780d	0.1322939
101	0x3ca46f67	0.020072652
102	0xbe2f5c8e	-0.1712515
103	0x3ec0fa80	0.37691116
104	0xbe1f48c7	-0.15555106
105	0xbdd3a458	-0.103340805
106	0x3e9650d6	0.29358548
107	0x3dafd0ad	0.085847236
108	0x3de4580b	0.11149605
109	0xbee2b223	-0.44276533
110	0xbd56fe4d	-0.052488614
111	0xbe02c8bd	-0.12771888
112	0xbe7c5750	-0.24642682
113	0x3e0a47ba	0.13503924
114	0xbe4aecda	-0.19816914
115	0xbe7f0e87	-0.24907885
116	0x3d5ca83f	0.05387139
117	0xbe8718c6	-0.26386088
118	0x3e0a0a4d	0.13480492
119	0xbdd29150	-0.102816224
120	0x3e2dfbc7	0.16990577
121	0xbdc04b87	-0.09389406
122	0xbef962ad	-0.48708096
123	0xbeec41ca	-0.46143943
124	0x3be98ab8	0.0071271323
125	0x3ed6dce9	0.41965416
126	0x3e123d66	0.14281234
127	0xbb7f5df3	-0.003896591
128	0x3dc951a1	0.098300226
129	0xbd40c961	-0.04706705
130	0xbf0a5a8e	-0.54044425
131	0xbeb46ac9	-0.3523772
132	0xbe57077b	-0.20998947
133	0xbdb111d8	-0.086459816
134	0x3d464f62	0.04841555
135	0x3d446113	0.04794414
136	0xbeb23cef	-0.34812114
137	0xbec0e16e	-0.3767199
138	0xbd2b6181	-0.041841034
139	0x3e2101ba	0.15723315
140	0xbef8bd34	-0.4858185
141	0xbd9f2220	-0.07770181
142	0x3e44020b	0.19141404
143	0x3e634852	0.22195557
144	0xbf0037aa	-0.50084937
145	0x3e15051f	0.14552735
146	0xbe7b4565	-0.2453819
147	0x3d65a0bb	0.056061488
148	0xbd6f719d	-0.05845796
149	0xbeb16054	-0.34643805
150	0xbdab878e	-0.083754644
151	0xbe0a9780	-0.13534355
152	0xbe8d863b	-0.27641472
153	0x3d6beee9	0.05760089
154	0xbdadc5db	-0.084850036
155	0xbee5cddf	-0.4488363
156	0xbbec507e	-0.007211744
157	0x3d886d6f	0.06661498
158	0xbdda82ff	-0.10669517
159	0x3e04282d	0.12905951
160	0x3dfe7301	0.12424279
161	0x3c9584fa	0.018251885
162	0xbdbe0829	-0.092789
163	0xbf4cefd5	-0.80053455
164	0xbea7d8ee	-0.32782692
165	0xbdbc915e	-0.09207414
166	0xbc91fb13	-0.017819917
167	0x3ea6cce9	0.3257821
168	0x3e52004d	0.20507927
169	0xbe9ab73a	-0.30217916
170	0xbe10afa5	-0.14129503
171	0xbd4cfbb0	-0.050044715
172	0xbe7feffa	-0.24993888
173	0xbea2f8be	-0.318304
174	0xbd1613f2	-0.036640115
175	0xbe141ab5	-0.14463313
176	0xbe946a93	-0.2898756
177	0x3dad5bcb	0.08464774
178	0x3eb17320	0.34658146
179	0xbf36fc9a	-0.7147919
180	0xbe6de051	-0.23230101
181	0x3e2a2df7	0.16619097
182	0xbd23b01b	-0.03996287
183	0x3ed85770	0.4225421
184	0x3dcf9a19	0.10136814
185	0x3cf81a36	0.030285936
186	0xbc39dd87	-0.01134432
187	0xbb6740d5	-0.0035286446
188	0xbf0343ce	-0.51275337
189	0xbe92e6fa	-0.28691846
190	0xbdcdd510	-0.10050404
191	0xbe7e2eb7	-0.24822508
192	0xbed32afd	-0.41243735
193	0x3c08822b	0.008331816
194	0x3cd84031	0.026397796
195	0x3de38fc3	0.11111405
196	0xbe87ce0a	-0.26524383
197	0xbe35fb83	-0.17771725
198	0xbf1ccaac	-0.6124675
199	0x3d175d3e	0.036954157
200	0xbea8a1a6	-0.32935828
201	0xbd4bac9e	-0.049725167
202	0xbdf95c29	-0.12175781
203	0x3e93a80b	0.28839144
204	0x3e3fa97a	0.18716994
205	0xbe2d7487	-0.16938983
206	0xbe5c8ef6	-0.2153891
207	0x3e8d0fdf	0.2755117
208	0xbe062154	-0.13098651
209	0xbeb3cbb4	-0.3511635
210	0xbd896366	-0.06708412
211	0x3e42e683	0.19033246
212	0xbeb24a99	-0.34822538
213	0x3d9703f5	0.073738016
214	0xbe32eb8d	-0.17472668
215	0x3e848bd5	0.25887933
216	0xbeb9f1a1	-0.3631716
217	0xbe151175	-0.1455744
218	0xbd505b4c	-0.050868317
219	0x3e0d7103	0.13812642
220	0x3ea2627e	0.3171577
221	0xbe7f67a1	-0.24941875
222	0x3d7328cc	0.05936508
223	0xbee059bb	-0.4381846
224	0xbe824b6d	-0.2544817
225	0xbe7ff0ad	-0.24994154
226	0x3f037287	0.5134663
227	0xbd5dac06	-0.054119132
228	0xbeb78ceb	-0.358497
229	0xbda018bd	-0.078172185
230	0x3e2ad472	0.16682604
231	0x3c15ee54	0.00915106
232	0x3dc71201	0.09720231
233	0x3dbdedfe	0.09273909
234	0x3dd8473e	0.10560463
235	0xbe9a77c2	-0.30169493
236	0x3dd7eaac	0.10542807
237	0x3dff40b9	0.12463517
238	0xbec2fe3e	-0.38084596
239	0xbcd25983	-0.025677448
240	0xbd86cf21	-0.065824755
241	0xbe8c93df	-0.27456567
242	0x3ea1728e	0.3153271
243	0x3eb67f03	0.35643777
244	0xbe68e9b9	-0.22745408
245	0xbda7d361	-0.08194614
246	0x3c9ebea8	0.019378021
247	0xbd61121e	-0.05494892
248	0xbd8780b7	-0.06616347
249	0x3c2995eb	0.010350685
250	0x3e08ffd9	0.13378848
251	0xbe6c9ff2	-0.2310789
252	0xbde788d7	-0.11305397
253	0xbe0da3d6	-0.1383203
254	0xbe8a75c2	-0.27042967
255	0x3e109680	0.14119911

policy_net.4.bias f4 [128]
0	0xbda4a053	-0.08038392
1	0xbdc8a4fe	-0.09797095
2	0x3d3fbcad	0.046810795
3	0xbdae5c2b	-0.085136734
4	0xbdb87ca0	-0.09008145
5	0x3d404ed6	0.046950184
6	0xbcdfcad8	-0.027318403
7	0xbddcd129	-0.10782082
8	0xbda468c5	-0.08027796
9	0xbdd77271	-0.10519875
10	0x3dd9d9a6	0.10637216
11	0xbbd828a9	-0.006596644
12	0x3d7ea5b5	0.06216975
13	0xbe137ad8	-0.1440233
14	0xb98af1b2	-0.00026501488
15	0x3dd3db98	0.103446186
16	0xba219199	-0.00061633583
17	0xbd186a1d	-0.037210573
18	0xbda68b52	-0.08132042
19	0xbd4c6566	-0.04990139
20	0xbd8a3bb8	-0.06749672
21	0x39dacead	0.00041734186
22	0xbe24b998	-0.16086423
23	0xbe5233cf	-0.20527576
24	0xbdb106e1	-0.0864389
25	0x3e0020c2	0.12512496
26	0xbd412e48	-0.047163278
27	0xbd077c61	-0.0330776
28	0xbcdaf0b8	-0.026726112
29	0x3d980721	0.07423235
30	0x3d908c76	0.07058041
31	0xbdae5c3a	-0.085136846
32	0x3e069b28	0.13145125
33	0x3e1960ef	0.14978383
34	0x3d1cb7d4	0.03826125
35	0x3d026b71	0.031840745
36	0x3da0445e	0.0782554
37	0x3dfe0196	0.12402646
38	0xbe4abd33	-0.19798736
39	0x3ceab91e	0.028652724
40	0x3c7ccc16	0.015429517
41	0xbda37e63	-0.07983091
42	0x3d9862af	0.074406974
43	0x3dd4300e	0.10360728
44	0xbde65dfb	-0.11248394
45	0x3daf8d72	0.085719004
46	0x3e04333a	0.12910166
47	0x3c603d09	0.013686427
48	0xbd1395bc	-0.03603147
49	0xbe0c3363	-0.13691477
50	0xbd7ea311	-0.06216723
51	0x3df4d323	0.11954334
52	0xbe75acb7	-0.23991667
53	0x3d430828	0.0476152
54	0x3d4c9002	0.049942024
55	0xbe410d40	-0.1885271
56	0xbd486a8f	-0.048929747
57	0x3da28a9c	0.07936594
58	0x3cd50bc1	0.026006581
59	0x3ca0bc92	0.019621167
60	0xbe0c8cc7	-0.13725577
61	0x3bddcccc	0.0067687985
62	0xbe94abbf	-0.29037282
63	0x3d8c3b29	0.068472214
64	0x3afff7de	0.0019528826
65	0x3d9393fe	0.07205962
66	0xbe53f09d	-0.20697255
67	0x3df52f44	0.11971906
68	0xbe14ab25	-0.14518411
69	0xbe0e892a	-0.13919511
70	0xbd40e885	-0.047096748
71	0xbe44a653	-0.19204073
72	0x3e3951c3	0.18097596
73	0xbc3d31fe	-0.011547564
74	0x3e1c767e	0.15279576
75	0xbdcabc28	-0.09899169
76	0xbe4ef491	-0.20210482
77	0x3e359e79	0.17736234
78	0x3e1fe1e9	0.15613522
79	0x3d851b34	0.06499329
80	0xbed1db5b	-0.40987667
81	0xbdbca087	-0.09210306
82	0x3e9b16e6	0.30290908
83	0xbe2e3e6a	-0.17015997
84	0xbd84af39	-0.064787336
85	0xbccbc0bb	-0.024872174
86	0xbd13940c	-0.03602986
87	0x3e159ef2	0.14611414
88	0xbe4efbf2	-0.20213297
89	0x3d58da35	0.052942473
90	0xbd00ccb7	-0.03144523
91	0xbe47db82	-0.1951733
92	0xbddf243e	-0.108955845
93	0xbcef3d37	-0.029203994
94	0xbe7cedf1	-0.24700142
95	0x3dcb8f5e	0.099394545
96	0xbe541959	-0.20712794
97	0x3db00f83	0.085967086
98	0xbdf974f7	-0.121805124
99	0x3da638c6	0.081162974
100	0x3e46ea71	0.1942537
101	0x3dfa03fd	0.12207792
102	0x3dcf2256	0.10113971
103	0xbcf606a8	-0.03003247
104	0xbe4eedad	-0.20207854
105	0x3d0e824b	0.034792226
106	0xbc1a78dd	-0.00942823
107	0xbe81b56f	-0.25333735
108	0xbd070a90	-0.032969058
109	0x3d7e4b0d	0.062083293
110	0xbdcc2ef2	-0.099698916
111	0x3cbba9f8	0.022908196
112	0xbd4e2ca0	-0.050335526
113	0x3de466ef	0.111524455
114	0x3da79cf6	0.08184235
115	0x3e115634	0.1419304
116	0x3b9f1908	0.004855279
117	0x3dcaf658	0.099102676
118	0xbd886acd	-0.06660996
119	0x3e3682a9	0.1782328
120	0xbe211e94	-0.15734321
121	0x3dfa7ea4	0.12231186
122	0xbc1f6499	-0.009728574
123	0x3d692d99	0.05692825
124	0xbe2b0439	-0.1670083
125	0xbce46b42	-0.027883176
126	0x3cf958aa	0.030437786
127	0xbc48cb61	-0.012255521

policy_net.6.weight f4 [64, 128]
0	0xbe1e1f22	-0.15441564
1	0x3e872b5f	0.26400277
2	0x3e95ea8c	0.29280508
3	0xbee96f08	-0.45592523
4	0xbe707f16	-0.2348598
5	0xbdef2539	-0.116770215
6	0xbde68ede	-0.112577185
7	0x3df46c89	0.11934764
8	0x3e5fb666	0.21846923
9	0xbd939f40	-0.07208109
10	0xbe783e3c	-0.2424249
11	0xbdc30c40	-0.09523821
12	0xbe39b9f4	-0.18137342
13	0xbe6606c4	-0.22463518
14	0xbebf0dfe	-0.37315363
15	0x3cf03062	0.029319946
16	0x3e3a5584	0.18196684
17	0x3c10f17a	0.008846635
18	0xbe4ee4d9	-0.20204486
19	0x3d4d10e1	0.050064925
20	0x3e0be00d	0.13659687
21	0x3cf193bd	0.029489392
22	0x3e1aca86	0.15116319
23	0x3e2300a2	0.1591821
24	0xbe7108a0	-0.23538446
25	0x3e2c410c	0.16821688
26	0xbe6ab323	-0.22919898
27	0x3ea75098	0.32678676
28	0x3dfddb0e	0.12395297
29	0x3be70e5f	0.0070512737
30	0xbece4a60	-0.4029112
31	0xbda76687	-0.081738524
32	0xbd7e0ebf	-0.06202578
33	0xbe093a2e	-0.134011
34	0xbe9a4f6d	-0.30138722
35	0xbd98c683	-0.07459738
36	0x3de37267	0.11105805
37	0xbf3b9728	-0.7327752
38	0xbc678047	-0.014129705
39	0x3e9a4a39	0.30134752
40	0x3e19a3bb	0.15003864
41	0xbe99573c	-0.29949367
42	0x3e2c3a17	0.16819035
43	0x3cadeda3	0.021231478
44	0xbeabc07b	-0.33545288
45	0x3e9f4da9	0.31113937
46	0xbd9b287c	-0.07576081
47	0xbd82e43d	-0.06391189
48	0x3d05a5be	0.032628767
49	0x3e301fc5	0.17199619
50	0xbee19d8d	-0.44065514
51	0x3dddacc4	0.10823968
52	0x3e30ff98	0.17285001
53	0xbc5487b1	-0.0129718045
54	0xbd203480	-0.039112568
55	0x3e1cd517	0.15315662
56	0x3d4c6bc1	0.04990745
57	0xbd2d4a5e	-0.04230725
58	0x3eb58f5f	0.35460946
59	0xbd9dfc76	-0.07714169
60	0x3e2413b6	0.16023144
61	0x3e9713f3	0.29507408
62	0xbeb3508b	-0.35022387
63	0xbdd47946	-0.103746936
64	0xbe901392	-0.2813993
65	0xbcbe49b3	-0.023228502
66	0xbd96b5d1	-0.073588975
67	0x3d474025	0.048645157
68	0xbdc532df	-0.096288435
69	0xbe9961c5	-0.29957405
70	0x3c349e69	0.011024096
71	0xbea9d207	-0.3316805
72	0x3e09dedb	0.13463919
73	0xbe604187	-0.21899997
74	0xbf046559	-0.51717144
75	0x3de06a93	0.109578274
76	0xbe344212	-0.17603329
77	0xbed1eb54	-0.40999854
78	0xbed3cd32	-0.4136749
79	0xbe98f26d	-0.29872456
80	0x3e3c479f	0.18386696
81	0x3d6ac0ff	0.05731296
82	0x3e1abf4f	0.15112041
83	0xbeaaa775	-0.33330885
84	0xbea406bc	-0.32036388
85	0xbe8b0a5e	-0.27156347
86	0x3e9c121a	0.3048256
87	0xbeeb67ed	-0.45977727
88	0x3e043588	0.12911046
89	0xbd73baf6	-0.05950447
90	0xbda2093c	-0.079119176
91	0xbe8a4cf6	-0.27011842
92	0x3d3ff7db	0.046867233
93	0x3c179e59	0.009254062
94	0x3e1078fd	0.14108653
95	0xbf37215b	-0.7153527
96	0xbe2440f3	-0.16040401
97	0x3d2765be	0.040868513
98	0xbe822deb	-0.25425658
99	0x3d820a25	0.06349591
100	0xbf2645ed	-0.6495045
101	0x3e29f828	0.1659857
102	0xbd13c9fb	-0.036081295
103	0xbd07f842	-0.03319574
104	0xbe7f1705	-0.24911125
105	0xbdd091a5	-0.101840295
106	0x3bc5aea6	0.0060327826
107	0xbd1501c5	-0.03637864
108	0x3e799b4f	0.24375652
109	0x3e0a6f2e	0.13518974
110	0xbd269c3f	-0.04067635
111	0xbe91fa74	-0.28511393
112	0xbdd139ce	-0.102161035
113	0xbd8a2797	-0.067458324
114	0xbd9b8f10	-0.075956464
115	0xbf3878f5	-0.72059566
116	0x3ec277dd	0.37982073
117	0xbf0d130e	-0.551072
118	0xbf262329	-0.648974
119	0xbd5852d9	-0.052813385
120	0xbd4b9f53	-0.04971249
121	0x3e921fd5	0.2853991
122	0xbd88b4f9	-0.06675143
123	0x3e2ad00c	0.16680926
124	0xbd389c87	-0.04507115
125	0xbe5ae1e3	-0.21375231
126	0xbe649e51	-0.22326018
127	0xbde1fd4a	-0.11034639
128	0xbca896b3	-0.020579671
129	0xbd29e9d4	-0.04148276
130	0xbe06384d	-0.13107415
131	0xbdc03ce3	-0.09386613
132	0xbe8bc575	-0.27299085
133	0x3e86a274	0.26295817
134	0xbbccd6bb	-0.006251184
135	0xbb0369c8	-0.0020052064
136	0xbe46f9d8	-0.19431245
137	0x3ccc9624	0.024973936
138	0x3def9e80	0.11700153
139	0x3dad683f	0.08467149
140	0xbe4e6978	-0.2015742
141	0xbd90a96a	-0.07063563
142	0x3e1cbb53	0.15305834
143	0x3e50d4d6	0.2039369
144	0x3c26b156	0.010174116
145	0xbcfd90e8	-0.030952886
146	0x3da464ce	0.080270395
147	0x3d0fa216	0.035066687
148	0xbe1d5984	-0.15366179
149	0x3e85453f	0.26029393
150	0x3dd3d240	0.103428364
151	0xbea48040	-0.32129097
152	0xbf5d3387	-0.8640675
153	0xbcbbf481	-0.022943737
154	0xbf257eab	-0.64646405
155	0xbf0cd4a0	-0.5501194
156	0x3d824c51	0.063622124
157	0x3e018a37	0.12650381
158	0xbd9e1c1b	-0.077202044
159	0xbef4eb67	-0.47835848
160	0xbc09b6a6	-0.008405363
161	0xbbcf02b4	-0.006317461
162	0xbc257f6b	-0.01010118
163	0xbda548ed	-0.0807055
164	0xbd3ba4bd	-0.045811404
165	0x3e12fdc8	0.14354622
166	0x3c074dd8	0.0082583055
167	0xbcf6dbc3	-0.030134087
168	0xbdfc5ab0	-0.12321985
169	0x3e4a3a67	0.19748841
170	0x3dfdd097	0.12393301
171	0xbf4eeb1f	-0.80827516
172	0xbe8f092d	-0.27936688
173	0x3e1b071a	0.15139428
174	0xbe473d1a	-0.19456902
175	0xbcb74c54	-0.022375263
176	0xbd7d6fff	-0.061874386
177	0x3dedce85	0.11611656
178	0xbe04636b	-0.1292855
179	0x3e75ace9	0.23991741
180	0xbdc0914d	-0.09402714
181	0x3ca25a76	0.019818526
182	0x3dd46516	0.10370843
183	0xbbb0510f	-0.0053807567
184	0xbeb63f8a	-0.3559535
185	0x3dfdbd2a	0.12389596
186	0xbdd8b373	-0.10581102
187	0xbc85f7ca	-0.016353507
188	0x3c294de2	0.01033351
189	0x3b0a5c48	0.0021112133
190	0xbdbc0671	-0.09180916
191	0x3daf73a8	0.085669816
192	0xbd9e50a9	-0.077302285
193	0xbe4f7414	-0.20259124
194	0x3e8600d0	0.26172495
195	0xbc8666d8	-0.016406462
196	0xbf57e3b8	-0.84331846
197	0x3d27c33b	0.04095767
198	0x3e02603d	0.12732024
199	0x3e930bfb	0.28720078
200	0x3e146aae	0.1449382
201	0xbf02c037	-0.51074547
202	0xbe04533c	-0.12922376
203	0xbe6f152e	-0.23347923
204	0x3e419b2a	0.18906847
205	0x3dcb777c	0.09934899
206	0xbf0e94cb	-0.5569579
207	0xbd57ec15	-0.05271538
208	0xbd8c15f1	-0.068401225
209	0xbe472cbd	-0.1945066
210	0xbda29a19	-0.07939548
211	0x3bdbc7f9	0.006707188
212	0xbf03612e	-0.5132016
213	0x3e0bfc57	0.13670479
214	0x3def3922	0.11680819
215	0xbeeab41d	-0.4584054
216	0x3d3c79e0	0.046014667
217	0xbce3b3a5	-0.027795622
218	0xbe0f4c1f	-0.13993882
219	0xbe3480ba	-0.1762723
220	0xbdd116ad	-0.10209403
221	0x3e8cdaa7	0.27510568
222	0x3d489576	0.048970662
223	0xbe78141d	-0.24226423
224	0x3d1ad761	0.037803058
225	0xbe95b60d	-0.29240456
226	0x3e2edb78	0.17075908
227	0xbe9598e7	-0.29218218
228	0x3ccc4605	0.024935732
229	0x3e84a209	0.25904873
230	0xbeb0f903	-0.3456498
231	0x3e05294b	0.13004033
232	0xbe4377dd	-0.19088693
233	0x3d85d731	0.06535185
234	0x3cb3c582	0.021944765
235	0x3c451c41	0.012030662
236	0xbecb8534	-0.39750063
237	0x3ec58840	0.38580513
238	0x3d4e1c85	0.050320167
239	0x3e9c1862	0.30487353
240	0xbf4436db	-0.766462
241	0x3da527f3	0.0806426
242	0xbdf357f0	-0.11882007
243	0xbec0489d	-0.375554
244	0x3cb81206	0.022469532
245	0xbdc20d1e	-0.09475158
246	0xbe666c20	-0.22502184
247	0xbe848588	-0.25883126
248	0x3e1bf275	0.15229209
249	0xbdfb7883	-0.12278845
250	0x3db2fb29	0.08739311
251	0xbe09e380	-0.1346569
252	0x3e0215b7	0.12703596
253	0xbb69ff6c	-0.0035705222
254	0xbe9e1587	-0.308758
255	0x3e314e1d	0.17314954

policy_net.6.bias f4 [64]
0	0x3cbfa80b	0.023395559
1	0x3e84edbf	0.25962636
2	0xbe4b80d9	-0.1987337
3	0xbdfc5136	-0.12320177
4	0xbeacb73e	-0.33733553
5	0x3e4d0bf3	0.2002409
6	0xbdc8e8a2	-0.09809996
7	0xbcd7f4de	-0.026361879
8	0xbd8cd0ae	-0.0687574
9	0x3e1dce61	0.15410759
10	0x3e9872cd	0.29775086
11	0xbd7563cf	-0.059909638
12	0x3e82c816	0.25543278
13	0x3de09f76	0.10967915
14	0x3eacebe7	0.3377373
15	0x3e44a0c5	0.19201954
16	0xbd17a6cb	-0.0370243
17	0xbd22904a	-0.039688386
18	0x3da88e40	0.08230257
19	0x3da5f781	0.08103848
20	0xba8de89f	-0.0010826773
21	0x3e6a7442	0.22895911
22	0x3c281b6e	0.010260446
23	0x3d8e531d	0.06949446
24	0x3de04603	0.10950854
25	0x3e4a25fe	0.19741055
26	0x3e8c60db	0.27417645
27	0x3ca96bc1	0.020681264
28	0x3e7219ed	0.23642702
29	0x3dee626e	0.11639868
30	0x3e2a7ee2	0.16649964
31	0x3dca79a1	0.0988648
32	0xbdf875ae	-0.121318206
33	0x3e8b5b9a	0.27218324
34	0x3d3e83bb	0.046512347
35	0x3d90db83	0.070731185
36	0x3de7d9ca	0.11320837
37	0x3d91b9cd	0.07115517
38	0x3e4866a6	0.19570407
39	0xbe9bf50b	-0.3046039
40	0x3e252814	0.1612857
41	0xbd19a8ef	-0.037514623
42	0x3d7e7e71	0.062132303
43	0xbe237e71	-0.15966202
44	0x3e86905f	0.2628202
45	0x3eaee5ca	0.3415969
46	0xbd3aad37	-0.045575347
47	0x3dfaea5c	0.12251732
48	0xbd67c8ce	-0.056587987
49	0xbe4b57d0	-0.19857717
50	0xbe7b9f01	-0.24572374
51	0x3e90fb0b	0.2831653
52	0xbe3985c8	-0.1811744
53	0x3cce4d45	0.02518333
54	0x3cb43a92	0.022000585
55	0xbdcd46ba	-0.10023256
56	0x3ecc2867	0.39874575
57	0x3d4c5e46	0.049894594
58	0x3deaef53	0.11471429
59	0xbe299090	-0.16559052
60	0x3de1ab9b	0.11019059
61	0x3e3eef1d	0.18645902
62	0xbb19f28e	-0.002349052
63	0x3de69bce	0.11260186

policy_net.8.weight f4 [4, 64]
0	0xbddff7b3	-0.10935917
1	0x3d2f363c	0.04277633
2	0xbec5ed11	-0.3865743
3	0x3e29dbe6	0.16587791
4	0x3e4b8fcc	0.19879073
5	0x3e5cead5	0.21573956
6	0x3b3709fd	0.0027929537
7	0xbdd50889	-0.104020186
8	0xbe2e7ef2	-0.17040613
9	0x3d86a6e6	0.06574802
10	0xbd14d33e	-0.03633427
11	0x3e3f7894	0.1869834
12	0xbda67b43	-0.08128979
13	0x3e983086	0.2972452
14	0x3cf7405a	0.030182052
15	0x3e0266b5	0.12734492
16	0xbd33f1a9	-0.043931637
17	0xba3187b4	-0.00067722355
18	0xbdbdec36	-0.09273569
19	0x3e30aa62	0.17252496
20	0x3de38ce3	0.111108564
21	0x3e294fab	0.16534297
22	0x3c8e2ab5	0.017354349
23	0x3da42e67	0.08016663
24	0xbe2c60b4	-0.16833764
25	0xbdffd03d	-0.1249089
26	0x3da08ec3	0.0783973
27	0x3e1a3c3d	0.15062042
28	0xbd32fdcb	-0.043699067
29	0xbe21317f	-0.15741538
30	0xbd7bf74b	-0.061515134
31	0x3b398f6d	0.0028314248
32	0xbbae895b	-0.0053264326
33	0x3d282a39	0.04105589
34	0xbcda6d3a	-0.026663411
35	0xbdcec847	-0.100967936
36	0x3df236fc	0.11826894
37	0x3dacabbe	0.08431195
38	0x3b3e1070	0.0029001497
39	0x3cf6cd69	0.030127244
40	0x3da58f97	0.08084028
41	0xbe421796	-0.1895431
42	0x3cba89eb	0.022770843
43	0x3bc25e76	0.005931671
44	0xbd5323d6	-0.051547848
45	0xbd10fd14	-0.035397604
46	0x3e0602fb	0.13087074
47	0x3cf97323	0.03045041
48	0xbc7fd000	-0.015613556
49	0x3df11a3f	0.11772584
50	0xbdaeacb5	-0.08529035
51	0x3d2f2a4e	0.042764954
52	0x3e3fefaa	0.18743768
53	0x3caeb5b7	0.021326883
54	0xbdb8fbd8	-0.090324104
55	0xbe2d6725	-0.16933878
56	0xbe313d13	-0.17308454
57	0x3daf0401	0.085456856
58	0x3da6f26a	0.081517056
59	0xbd0065d6	-0.03134712
60	0x3e0ec9cf	0.13944171
61	0xbd855a77	-0.065113954
62	0xbbd5e849	-0.0065279347
63	0xbd0fe32d	-0.03512876
64	0x3d399c81	0.04531527
65	0x3b2c1fea	0.002626414
66	0x3e8742a1	0.2641802
67	0xbd04e2f9	-0.03244302
68	0x3e796fb6	0.2435902
69	0x3e32e67f	0.1747074
70	0xbd79a2e5	-0.060946364
71	0xbdd228e4	-0.102617055
72	0x3e767032	0.24066237
73	0x3d8abbfb	0.06774136
74	0xbc54fe40	-0.013000071
75	0xbd84916c	-0.064730495
76	0x3d651254	0.055925682
77	0x3e18de1d	0.1492848
78	0x3c445753	0.01198371
79	0xbe610bb4	-0.2197712
80	0x3c766244	0.015038077
81	0xbdd80fb3	-0.105498694
82	0xbdf55a15	-0.119800724
83	0xbd6bca9c	-0.05756627
84	0x3e65d176	0.22443184
85	0x3d711475	0.0588574
86	0xbd7f7628	-0.062368542
87	0x3db297ec	0.08720383
88	0xbd30c8c2	-0.043160208
89	0xbd8a3699	-0.06748695
90	0x3cc1c718	0.023654506
91	0x3d8b5e29	0.06805069
92	0xbd775fbe	-0.06039404
93	0xbe106c16	-0.14103732
94	0xbe21cefc	-0.15801615
95	0x3d8bb873	0.0682229
96	0x3e0dc112	0.13843182
97	0x3e1b9b2b	0.1519591
98	0xbdfdf467	-0.12400132
99	0x3d9e2a2e	0.07722889
100	0xbcd29052	-0.025703583
101	0x3dfe2f7c	0.12411401
102	0x3d89e93b	0.06733938
103	0x3e33c896	0.17556986
104	0x3dfcceb7	0.12344115
105	0xbd818196	-0.06323545
106	0x3e4e4b57	0.20145927
107	0xbcb6b7bb	-0.022304406
108	0xbe152653	-0.14565401
109	0xbd0b1d8e	-0.033963732
110	0xbd09b8d4	-0.03362353
111	0x3c3f367c	0.011670705
112	0x3cc5a975	0.024128655
113	0xbdcfd52a	-0.1014808
114	0xbd15b3db	-0.036548477
115	0xbd34b8c3	-0.044121515
116	0x3e45b5e1	0.19307663
117	0x3e19a9a9	0.15006126
118	0xbc7ad397	-0.015309236
119	0x3d190421	0.037357453
120	0xbe226743	-0.15859704
121	0xbdbfd7a0	-0.09367299
122	0xbdcf83b8	-0.10132545
123	0xbe778baa	-0.24174371
124	0x3e4e1e1d	0.20128675
125	0xbd40ff7c	-0.04711865
126	0x3e3cafc8	0.1842643
127	0x3d04cdb7	0.032422747
128	0x3d43bec1	0.04778934
129	0x3bfbb30d	0.0076812566
130	0xbd1ad04f	-0.037796315
131	0xbd63e727	-0.055640366
132	0xbe8d3911	-0.275826
133	0xbddece03	-0.10879137
134	0xbe89636f	-0.26833674
135	0x3dde8f67	0.108671956
136	0x3e392ab2	0.18082693
137	0x3dbb0436	0.091316625
138	0xbe17579a	-0.14779511
139	0xbd057d90	-0.03259045
140	0x3e3c397a	0.183813
141	0xbc934cb4	-0.01798091
142	0xbe584a6a	-0.21122137
143	0xbd432c5c	-0.047649726
144	0xbde5699d	-0.11201785
145	0xbdf1bd89	-0.11803729
146	0xbae6fc3c	-0.0017622779
147	0xbd923842	-0.071396366
148	0xbeb50d51	-0.35361722
149	0xbcaf2709	-0.021380918
150	0xbd9bc80e	-0.07606517
151	0xbce2ad13	-0.027670419
152	0x3e1f4e73	0.1555727
153	0x3e398aba	0.18119326
154	0x3e0cdbd8	0.13755739
155	0x3daee9f0	0.08540714
156	0x3e09cd2f	0.13457178
157	0x3e3494eb	0.17634933
158	0xbba101bf	-0.004913538
159	0x3d99fab6	0.075185224
160	0xbe169f20	-0.14709139
161	0xbcbe2440	-0.023210645
162	0xbcf5d2ac	-0.030007683
163	0xbdd4c409	-0.10388953
164	0x3e5c9296	0.21540293
165	0xbd94e197	-0.0726959
166	0x3d13540c	0.035968825
167	0xbe842727	-0.2581112
168	0xbeb9557d	-0.36198035
169	0x3d60d449	0.05488995
170	0x3cc0ed3e	0.023550626
171	0x3e2e7098	0.17035139
172	0x3e26ea34	0.16300279
173	0x3e83611c	0.25660026
174	0xbe95333a	-0.29140645
175	0x3d589f75	0.052886445
176	0x3e3e1ada	0.1856493
177	0xbd809059	-0.06277532
178	0xbcd7bdf2	-0.02633569
179	0x3cbf199d	0.023327643
180	0x3e879985	0.26484314
181	0xbb34d7f5	-0.002759454
182	0x3cbd7843	0.023128634
183	0x3d8c29f2	0.06843938
184	0x3e8fb469	0.2806733
185	0x3ca7da12	0.020489726
186	0xbc308f96	-0.010776421
187	0x3dc36314	0.09540382
188	0xbea11c37	-0.3146684
189	0x3dc05360	0.093909025
190	0xbdb5dadd	-0.088796355
191	0x3e271e40	0.16320133
192	0xbe1035cc	-0.14083022
193	0xbe40ada4	-0.18816239
194	0xbe0117c9	-0.1260673
195	0xbd9afabb	-0.07567354
196	0x3d5773c7	0.05260065
197	0xbca80133	-0.020508384
198	0x3df5d723	0.12003925
199	0xbb593c28	-0.0033147428
200	0xbdd73ebf	-0.10510015
201	0x3e0c3559	0.13692226
202	0xbc37dc00	-0.011221886
203	0xbd728a00	-0.05921364
204	0x3d19aef6	0.03752037
205	0x3bd94b65	0.006631302
206	0x3e269a43	0.16269784
207	0xbd2a1c22	-0.041530736
208	0xbe256a1d	-0.1615376
209	0x3dd91899	0.10600395
210	0x3b3716a3	0.0027937077
211	0x3ce050c3	0.02738226
212	0xbe1c11c2	-0.15241149
213	0x3c51188d	0.012762201
214	0xbdc85ead	-0.09783683
215	0xbbea0c6c	-0.007142594
216	0xbc3fb3b9	-0.011700564
217	0x3c6c0eb9	0.014407807
218	0xbd8a7763	-0.067610525
219	0xbcd52232	-0.026017282
220	0xbdda9d3d	-0.10674522
221	0xbd8e4127	-0.069460206
222	0x3c64dbf1	0.013968454
223	0x3d1383c5	0.036014337
224	0x3de5bbef	0.11217486
225	0xbb41ad38	-0.002955271
226	0x3d8dfea0	0.069333315
227	0xbd067448	-0.03282574
228	0x3dde3e0a	0.10851677
229	0xbcda52a5	-0.026650736
230	0xbdbaf05d	-0.09127877
231	0x3d9347f6	0.0719146
232	0x3e03039a	0.12794343
233	0x3d1acee8	0.037794977
234	0xbdaf7272	-0.085667506
235	0xbdd99c92	-0.106255665
236	0xbd352ca6	-0.044232033
237	0xbd4cbfcb	-0.049987596
238	0x3c6b2149	0.0143511975
239	0xbda45a6d	-0.0802506
240	0xbd228115	-0.039673883
241	0xbde080f6	-0.10962097
242	0xbdb4daa3	-0.08830764
243	0xbe0fdb36	-0.14048466
244	0x3cf86d80	0.030325651
245	0x3e821464	0.25406182
246	0x3d17c2be	0.037050955
247	0x3da69c47	0.08135276
248	0xbe12fdf6	-0.14354691
249	0x3c394b1c	0.011309411
250	0x3ce66b08	0.028127208
251	0xbdf1aa73	-0.11800089
252	0x3da974c6	0.08274226
253	0xbe087733	-0.13326721
254	0xbe847773	-0.25872383
255	0x3e1307b1	0.14358403

policy_net.8.bias f4 [4]
0	0x3d8bb738	0.068220556
1	0x3afcb18a	0.0019278985
2	0x3da39d62	0.07989003
3	0x3e415fb1	0.1888416
