IL/Model/model_reacher_57.pt (torch, 292527 bytes, 20 tensors)

policy_net.0.weight f4 [64, 24]
000000 63 d8 04 bf c1 8d ae bf 96 e3 9b 3e a9 1e 3a 3e
       -0.5189268 -1.363701 0.30447072 0.18175758
000010 6a dc 98 3e 00 f0 3d be 7a 46 bc 3e 55 11 63 bd
       0.29855663 -0.18548584 0.3677252 -0.05543645
000020 8a 9e 32 3e bb f9 ba 3d fa 6a 84 3c c4 23 57 3b
       0.1744329 0.091296636 0.016164292 0.0032827714
000030 6f 43 c6 bd 74 e3 2b bd 18 69 bb 3e ea d4 30 3e
       -0.09680831 -0.041964963 0.36603618 0.1726872
000040 ce 50 85 3e 20 96 bf 3d 99 1f af be 1a 9b 24 bf
       0.26038212 0.09354806 -0.34203795 -0.64299166
000050 df 74 fe be af ab 87 bd a9 21 6b 3e ac 5b 11 3d
       -0.4969854 -0.06624543 0.22962059 0.035487816
000060 a4 42 e9 3d 28 70 61 bf eb 13 2b be 1d 42 d6 3e
       0.11389664 -0.8806176 -0.16706817 0.41847315
000070 2a 70 8c 3e ae 7e 7f 3e 10 87 88 3f b1 84 b8 be
       0.27429324 0.24950668 1.0666218 -0.36038736
000080 f2 8a ac bd 5a 12 bd be f2 81 ab 3e 7f 45 c5 3c
       -0.08424939 -0.36928064 0.33497578 0.02408099
000090 34 ec d7 bc 7c e7 c5 be 7b 14 42 bd f8 65 03 be
       -0.026357748 -0.3865317 -0.047382813 -0.12831867
0000a0 7d 55 26 be 74 0f 92 be f1 1c bb be 02 b5 57 be
       -0.16243549 -0.28527415 -0.36545518 -0.21065143
0000b0 46 c8 a1 be b1 18 11 3e 50 e8 b7 bd 5d 80 db bd
       -0.3159811 0.14169575 -0.08979857 -0.10717843
0000c0 c0 60 ff 3d dc 9d 78 3f e0 95 dd be f6 a6 05 40
       0.124696255 0.97115874 -0.43278408 2.0883155
0000d0 74 46 36 bd f6 fb d1 bd b0 25 7b 3b 64 40 c5 3d
       -0.044500783 -0.10253136 0.0038322024 0.09631422
0000e0 63 fb 0f 3f 4c 91 a0 bd 1c e7 05 3e b6 49 8b bd
       0.5624296 -0.07840213 0.13076442 -0.068011686
0000f0 34 a5 de 3e f2 09 c1 3e 1e 5b 61 bd a4 c1 f3 bd
       0.43485415 0.377029 -0.055018537 -0.119021684
000100 46 c3 e0 bd 9a c3 58 be 38 71 0e 3d 68 9c ca 3c
       -0.109747455 -0.21168366 0.034775943 0.024732783
000110 1e d3 84 3d 21 3c 46 3e 5a 17 f9 bd 90 e2 70 be
       0.0648558 0.19358875 -0.12162657 -0.23523927
000120 b5 78 f5 3e 65 48 2e 3f d5 8e e8 be 65 24 c4 bf
       0.47943655 0.68079215 -0.45421472 -1.5323607
000130 55 a7 bd 3e 77 97 3a 3e 24 10 aa 3e 8e 23 d7 3d
       0.37041727 0.18221842 0.3321544 0.105048284
000140 ab c4 a3 bd e9 a7 07 3e e9 87 0a be 01 34 34 bf
       -0.07996496 0.13247646 -0.13528408 -0.7039185
000150 27 57 7a bd 78 5d ac bc b5 3d 37 3c 5e c7 7f bd
       -0.06111827 -0.021040663 0.011184146 -0.06244599
000160 ab b1 c6 bd a7 8c 56 bd cf 57 fa bd f0 d3 cd be
       -0.09701856 -0.05238023 -0.122237794 -0.40200758
000170 0f c7 ef bd 81 66 81 be a7 c3 bf bd c0 15 c4 3d
       -0.11707889 -0.25273517 -0.093634896 0.09574461
000180 ae 6d c9 bd 21 c8 68 3e 1c 88 3c be fc ab a8 3e
       -0.09835373 0.22732593 -0.18411297 0.32943714
000190 4f 9e 64 bb bf 32 17 3e 52 b3 c6 3d 80 3f c5 3d
       -0.0034884398 0.14765452 0.097021714 0.09631252
0001a0 9f 50 ad bc 0a 67 42 be cc 00 51 be ed bb 03 3f
       -0.021156607 -0.18984619 -0.2041046 0.51458627
0001b0 47 4b 22 bf 2e 31 a8 bb 48 4e 60 3e 8c 82 1e 3e
       -0.63396114 -0.005132816 0.21904862 0.15479487
0001c0 74 3e c5 3e a1 72 a6 3e 28 f6 34 3e bb 66 80 3e
       0.3852421 0.3250933 0.17672026 0.25078377
0001d0 0e 3f b7 bd 2b 69 44 be 4d ac 37 be 77 8f 86 bd
       -0.089475736 -0.19180743 -0.17936821 -0.065703325
0001e0 81 6c c6 be 9b a4 27 bf 97 28 c9 3e 60 42 fa bf
       -0.38754657 -0.65485543 0.3928878 -1.9551506
0001f0 d5 c6 3b be d0 b5 11 be 27 4c 91 3e 5a 1a 6f be
       -0.18337567 -0.14229512 0.28378412 -0.23349896
000200 38 6b 61 bf d1 14 91 3e 53 d3 91 be 8f 53 cf bd
       -0.8805423 0.28336194 -0.2848154 -0.101233594
000210 25 a5 64 bd 5b 12 56 be 26 27 19 3e 7e 7f 1f 3e
       -0.055821557 -0.2090544 0.1495634 0.15575978
000220 61 73 4a 3e 09 95 19 3e 5b ee a0 3e 37 fd b0 3e
       0.19770576 0.14998259 0.3143185 0.34568188
000230 7d 2a 27 3e 98 e6 8d 3d 8d ff 15 be 99 e7 a6 3c
       0.16324802 0.06928748 -0.14648266 0.020374106
000240 5f a4 a7 be 8b 21 69 40 e6 e7 41 3e 82 05 3b bf
       -0.32742593 3.6426723 0.18936118 -0.7305528
000250 99 dc c1 be 80 e0 e5 3e 87 d6 df be 2d 2d 6c 3e
       -0.37863615 0.44897842 -0.4371836 0.23064108
000260 db 6d 18 3e 28 0b e8 bb ca be 8d 3e 3d 1b 0d be
       0.14885657 -0.007081408 0.27684623 -0.13779922
000270 38 51 a0 3d 3b ef 05 3e 09 ac a9 3d 5a 82 e8 bd
       0.07827991 0.1307954 0.08284766 -0.113529876
000280 ce b9 3f 3e b6 e1 6b 3e 66 5f 5f 3d bc 12 a0 3e
       0.18723223 0.2303532 0.05453434 0.31264293
000290 53 98 42 3e 7b fc f5 bd 0d f4 b8 be 26 4f 32 be
       0.1900342 -0.120110475 -0.36123696 -0.17413005
0002a0 0c 5f 8b bb cf 1b 01 3f 4d 47 39 3f 9a ba cc 3f
       -0.004253274 0.5043306 0.7237442 1.5994446
0002b0 12 e5 3f be cf 16 7e 3e de dd 1e 3e a6 d2 04 be
       -0.18739727 0.24813388 0.15514323 -0.12970981
0002c0 da 1a 26 3e bc 71 ce be 6e 0c 65 3c 79 39 ae 3e
       0.1622118 -0.40321147 0.013980014 0.34028223
0002d0 0c a5 8a be c0 b6 c6 bc 99 40 5b be 5a 83 41 bd
       -0.27079046 -0.024257064 -0.21411361 -0.047244407
0002e0 3b 58 0b be 56 68 25 3e c5 17 62 bd e0 b0 6b bd
       -0.13607876 0.16153082 -0.05519845 -0.057541728
0002f0 91 63 05 3e 8d 51 63 be f1 f9 28 3c 92 96 ad 3d
       0.13026263 -0.22199078 0.010313497 0.08475985
000300 61 b3 67 3f 2b a6 f8 3d b6 58 0b bf 75 13 f0 be
       0.90508085 0.12141069 -0.5443224 -0.46889845
000310 90 29 d6 bd 5b 8b 93 3e fb a9 70 be e7 b7 24 3e
       -0.10457146 0.28817257 -0.23502342 0.16085778
000320 2c 67 a9 3d f4 cb ab 3e 55 c9 01 bd 69 2e d5 3d
       0.082716316 0.3355404 -0.031686146 0.10409243
000330 17 1f 75 3d ab 49 eb 3d 32 f4 47 be 34 e7 6e bd
       0.059844103 0.114886604 -0.19526747 -0.05832596
000340 64 e0 db bd 56 18 58 be 26 fb a5 3d af e5 fa bd
       -0.107361585 -0.21103033 0.081045434 -0.1225084
000350 1a e7 b7 3c 19 14 bc 3d a0 0c 88 bd 81 5f 60 3e
       0.022449065 0.09183521 -0.06643033 0.21911432
000360 d9 5b 85 3e 38 57 ca 3f 14 2a 47 3e c5 7a c6 bf
       0.26046637 1.5807867 0.19449645 -1.5506216
000370 e2 68 d6 be 86 a6 8a 3e a8 cd 3c be 99 0c ad 3d
       -0.41876894 0.27080172 -0.18437827 0.084496684
000380 1d 67 22 3d a5 69 d8 3e af 56 07 3f c6 9f 87 be
       0.039649118 0.422681 0.52866644 -0.26489085
000390 48 a1 11 be 41 c5 9b be 75 f3 a7 3e 9a 4d 77 3e
       -0.1422168 -0.3042393 0.3280293 0.24150696
0003a0 5c 66 53 3e 37 f1 8b 3d 7d aa 17 3e c6 04 71 be
       0.20644516 0.068331175 0.1481113 -0.23536977
0003b0 2c d8 d6 be 5f b7 99 be 41 29 be bd b6 80 79 3d
       -0.419618 -0.30022714 -0.09285212 0.060913764
0003c0 01 0e 23 3f e7 66 e3 3f cf bf af 3e f7 2a 8b bf
       0.63693243 1.7765778 0.34326026 -1.0872487
0003d0 f5 ea 97 3e 81 d2 56 3e 35 7e 0b bf 1b 6b fd bc
       0.29671445 0.20978738 -0.5448945 -0.03093486
0003e0 63 90 8e be a8 28 05 3f 1d 55 b1 3e e3 84 22 bd
       -0.27844533 0.5201516 0.3463525 -0.039677512
0003f0 67 2f 3f 3e f7 b9 5a 3e 82 e9 d5 be 74 9b dd be
       0.18670426 0.21360002 -0.41779715 -0.43282664

policy_net.0.bias f4 [64]
000000 ae 0c a0 bd 28 01 9f bd f4 20 80 be 77 1e 42 bc
       -0.078149185 -0.077638924 -0.2502514 -0.011848084
000010 be 94 0d 3e bf 51 8f be f2 1d fd 3d 45 1b 69 bc
       0.13826272 -0.27992055 0.12359227 -0.014227693
000020 0e 4d 2a 3e b6 b6 2d 3e 56 1b d6 bd 5a 70 10 3d
       0.16630957 0.1696423 -0.10454433 0.035263397
000030 f7 4e ac be 9e e8 a8 be 5b 1b 8c 3e 01 5a ae 3d
       -0.33653995 -0.32989973 0.2736462 0.08513261
000040 b8 de 0f 3e 4e c3 8d 3e 6c 04 cc 3d 19 15 1f be
       0.14049804 0.27688068 0.09961781 -0.15535392
000050 37 1d f8 3c c8 76 36 bd a2 f9 5c be 08 b6 a9 3d
       0.030287368 -0.044546872 -0.21579602 0.08286673
000060 d8 c6 28 bd 8c d4 07 3d e4 5b 6d 3e ca 4a 76 3d
       -0.041205257 0.033161685 0.23179585 0.06012992
000070 7a 83 2a 3e 23 a9 e5 3c 49 99 f2 bd cf 72 9d bd
       0.16651717 0.028034752 -0.11845643 -0.076879136
000080 c3 9c d5 3d 6c 3b 7a 3e 11 41 d8 bd 73 89 a1 bd
       0.104302905 0.2443673 -0.105592854 -0.078875445
000090 fe 7b d0 bc ec 9f b5 3c e8 d9 04 be 0a 85 70 3e
       -0.02544975 0.022170983 -0.1297375 0.2348825
0000a0 41 2d b7 3d 93 a6 8d be f2 39 83 3d 69 13 02 bc
       0.089441784 -0.2766615 0.064075366 -0.007939198
0000b0 e8 7f 3d be dc 6e 6c be b1 d7 97 3e cb 5d 95 bc
       -0.18505824 -0.23089164 0.29656747 -0.0182332
0000c0 5c 62 c0 bb 5b 55 37 3e 07 64 1f 3e 91 24 b0 bc
       -0.0058711004 0.17903654 0.15565501 -0.021501811
0000d0 55 da 0f 3e f0 a3 79 3e 19 86 f1 3c c6 6e 8c 3e
       0.14048131 0.24378943 0.029482888 0.27428263
0000e0 ca b8 5a be 53 13 82 bb 96 85 15 be 18 20 2a 3e
       -0.21359554 -0.003969589 -0.1460174 0.16613805
0000f0 4c 1c 60 3e e0 d7 6d be dc 46 20 be 04 af 53 bd
       0.21885794 -0.23226881 -0.1565203 -0.05168058

policy_net.2.weight f4 [128, 64]
000000 a3 c6 64 be fe 9a a2 3d d3 e5 a0 be 7f c9 73 be
       -0.22341399 0.07939719 -0.31425342 -0.23807333
000010 9b 74 9a 3d 11 2d 8d 3e 7d 6c 4a 3d 3e 63 60 3e
       0.07541772 0.27573445 0.04941987 0.21912858
000020 bf 39 b6 3d 9f 15 fc 3d 9f bb 68 bd 61 ab 0c bf
       0.08897733 0.123088114 -0.056819554 -0.54949003
000030 13 d3 37 3e df 81 13 be 62 55 1f 3e 21 21 f5 3e
       0.17951612 -0.1440501 0.15559915 0.47876838
000040 38 9e 7a be bc e3 4f bd 1c 30 20 be b9 ad 16 3d
       -0.24474418 -0.050754294 -0.15643352 0.03678677
000050 6b 69 18 be 16 50 0f be 1f e8 0e 3e 65 5c c0 3e
       -0.14883964 -0.13995394 0.13955735 0.3757049
000060 e0 4c 51 3e 87 52 ba be af 94 bc be 89 e2 0a 3f
       0.20439482 -0.36391088 -0.36832187 0.54251915
000070 72 9e 37 3d db 0d 23 3e 8f 36 0f bf 49 4e 31 be
       0.04482884 0.15923254 -0.55942625 -0.1731502
000080 d5 43 ac be c1 4f 34 3d e4 e6 ae bd 2e 74 26 be
       -0.33645502 0.04402137 -0.08540133 -0.16255257
000090 a5 b7 95 3d a6 22 41 3e 1f fe 9f be 88 01 93 be
       0.07310418 0.18860874 -0.31248567 -0.28712106
0000a0 92 7a 5d 3d 33 d6 3c bf 85 c9 28 be 21 b3 74 3f
       0.05407197 -0.7376434 -0.16483124 0.9558583
0000b0 26 b6 11 be 0e 21 cd 3d 46 bc 7d 3d be 1c 14 3d
       -0.1422964 0.1001607 0.06194713 0.036160223
0000c0 2d 5a e0 3d c9 50 1c bf df bd 8a bd 7f f6 9a 3d
       0.109547 -0.6106077 -0.06774496 0.07566547
0000d0 81 20 7e bd 33 63 97 be 4d 99 91 3e c0 c4 96 3c
       -0.062042717 -0.2956787 0.28437272 0.018404365
0000e0 b3 ad c9 bd a9 b0 0f 3c fb 92 8e 3e 64 f0 3d 3d
       -0.098475836 0.008770146 0.27846512 0.046371832
0000f0 ac b1 5a be b8 c6 07 be b2 aa 00 3e 7c 06 02 3d
       -0.21356839 -0.13259399 0.12565115 0.031744465
000100 70 5f 0e bf ff 2a 9c 3e a7 29 88 3e f1 12 fb 3d
       -0.55614376 0.30501553 0.26594278 0.12259472
000110 1f 4c ea bf 4f d9 a6 bd 49 ea 5b 3e 35 25 0c bf
       -1.830448 -0.08146917 0.21476091 -0.54744273
000120 fa 47 88 3c a6 91 94 bc 31 82 8b bc 1f 94 e1 bd
       0.016635884 -0.018135857 -0.017029854 -0.1101458
000130 94 f3 f2 3d 81 e8 46 3e d0 08 a6 3d 0e e1 01 3e
       0.11862865 0.1942463 0.081071496 0.12683508
000140 e6 9a 47 be a5 3a 08 3e 61 82 4a 3e 3a 40 7a be
       -0.19492683 0.13303621 0.19776298 -0.24438563
000150 b1 19 c3 3d 36 94 48 3e 4d 61 77 be 0a dd 45 bf
       0.095263846 0.19587788 -0.24158211 -0.77290404
000160 0d 31 0c be 81 8c b1 3d c3 f5 9e 3e a3 2e 99 3e
       -0.13690586 0.08669377 0.31046876 0.29918393
000170 66 62 c6 3d f8 b1 47 bd 43 75 92 3d 54 f7 81 bc
       0.09686737 -0.04875371 0.07151272 -0.015865006
000180 25 20 0d bf 36 3a 2f be 49 ca 17 be 31 38 17 3e
       -0.55127174 -0.1711205 -0.1482326 0.14767529
000190 65 06 83 3e 28 b7 bc 3e 34 8e 84 bd 57 c5 9b be
       0.25590816 0.36858487 -0.064724356 -0.30423996
0001a0 88 5b 03 bf 02 4f 06 be 94 c0 30 3d 6e 7e 2d bf
       -0.5131154 -0.13116077 0.043152407 -0.6777104
0001b0 32 2b 32 3e f6 c9 06 3e c8 01 88 3d bd a3 2a 3e
       0.1739929 0.1316298 0.06640965 0.16664024
0001c0 0f e3 f1 3e d2 88 26 3e 3c f0 fe be e8 94 ee bc
       0.47243544 0.1626313 -0.4979266 -0.029123738
0001d0 99 08 d4 3e a4 14 be be 42 11 80 3c 89 82 be 3d
       0.4141281 -0.37125123 0.01563323 0.09302241
0001e0 77 f5 99 bb 24 03 8d be 36 92 1a be 70 a7 40 bd
       -0.004698451 -0.2754146 -0.15094838 -0.04703468
0001f0 35 8c 1e 3e a2 8f 35 3e 1b 17 94 bc b4 33 69 3d
       0.15483172 0.17730573 -0.018077424 0.056934074
000200 87 11 5c be bc a0 4f bd b0 1e ee be eb f7 86 3e
       -0.21491061 -0.050690398 -0.46507788 0.2636102
000210 bb 2f fc 3d d2 96 b6 3e ed c2 6b 3d f3 da ba 3d
       0.12313791 0.35661942 0.057558943 0.091237925
000220 a9 25 f5 3d 51 ea 6f 3e b7 ef 8d 3b af d8 df bb
       0.11970074 0.23429228 0.0043315548 -0.0068312506
000230 f9 86 6c be dd 1d 3b bf 5e 44 d5 bc 72 eb bb be
       -0.23098363 -0.7309244 -0.026033577 -0.36703068
000240 de bc 37 be 77 cb 74 3e 27 48 0c 3f 55 84 b5 be
       -0.17943141 0.2390574 0.54797596 -0.35452524
000250 ee 23 b4 3d 44 69 98 bd ba 53 76 bc 5a c1 d5 be
       0.087959155 -0.07441953 -0.01503461 -0.41749078
000260 48 41 91 be 58 73 ee 3e 09 c8 d7 bc 1e 06 d3 3d
       -0.28370118 0.46572375 -0.026340501 0.10303901
000270 cf 0d ac 3e a2 62 24 be 4a 65 d5 bd f5 14 67 3e
       0.33604285 -0.1605325 -0.1041971 0.22566588
000280 e5 c7 55 3e 5e 6e a9 3b 0a 5f 79 be d1 12 cc 3d
       0.20877035 0.0051706275 -0.24352661 0.099645264
000290 db 10 b5 3c b1 28 e7 be 1d 29 9b 3e ac 24 14 3f
       0.022102764 -0.45148233 0.30304804 0.57868457
0002a0 6f fb 7d 3d 6a d9 03 bf c6 0f 44 be 3b 12 a1 bd
       0.062007364 -0.5150362 -0.19146642 -0.07864805
0002b0 04 e0 04 be 09 a7 fc 3d 8b b5 65 bd ff 80 eb 3d
       -0.1297608 0.12336547 -0.056081336 0.114992134
0002c0 4b 08 d1 bd c5 ee c4 3d 3f 05 69 3e 60 d0 be be
       -0.1020666 0.09615854 0.22755907 -0.37268353
0002d0 06 d3 5c 3e ef 1a f5 bd 45 74 19 be 86 d7 1f 3e
       0.21564874 -0.11968028 -0.1498576 0.1560956
0002e0 bb 35 0e bf a6 79 b3 bd dc dc 38 bf 8a 3c 09 3e
       -0.55550736 -0.08763437 -0.72212005 0.13402
0002f0 f4 d2 9a 3e 62 52 bd be fc cf 23 be be 02 03 bf
       0.3023907 -0.36976916 -0.15997308 -0.5117606
000300 fe 75 e3 be 1c 0f cf 3e 85 26 db be 78 e8 05 bd
       -0.44425958 0.40441215 -0.42802826 -0.032692403
000310 76 df 4e be 77 a1 1a bd 6c f3 e3 be c8 56 ef 3d
       -0.20202431 -0.03775164 -0.44521654 0.11686474
000320 f1 af df 3d f5 17 df 3e 93 cd 9a 3e b9 ca 42 be
       0.1092223 0.43572965 0.30234966 -0.19022645
000330 fd 40 71 be 1a 6a 95 3c f1 c6 db 3d c2 21 8b bd
       -0.23559947 0.01823907 0.107313044 -0.06793548
000340 c6 bc 1a 3d 3b 8e 60 3e ec 63 d7 bd 3a 12 00 bf
       0.037777685 0.21929257 -0.105171055 -0.5002781
000350 88 34 f0 3d 06 b2 ce bd ac eb 9e bc 9f 2a 09 be
       0.117287695 -0.10092549 -0.019399486 -0.13395165
000360 7b 24 e5 be c2 54 5d 3e fc f6 f8 bd d3 08 f5 bd
       -0.44754395 0.21614364 -0.121564835 -0.11964574
000370 07 ae 79 be df 18 8d bc 44 5d a6 be 97 f9 22 bf
       -0.24382792 -0.017223774 -0.3249303 -0.63662094
000380 11 8d 24 3f ab 0a 53 3e f5 fc d9 bd 23 00 26 3e
       0.6427775 0.20609538 -0.10643951 0.1621099
000390 0b e3 91 be 21 45 18 bb ee 6f 1e 3e 52 59 f7 be
       -0.28493533 -0.0023234563 0.15472385 -0.48310333
0003a0 a2 eb 21 bd f9 a1 f6 be f4 d1 8c 3d 01 b8 f8 be
       -0.039531358 -0.4817045 0.06875983 -0.48577884
0003b0 6d f4 ac bd 9d bc 74 bf cd 8c f5 be f0 32 43 3e
       -0.08445058 -0.956003 -0.47958985 0.190624
0003c0 58 e1 14 bf 85 ac 8a be 5e f1 10 3f 62 33 dd be
       -0.5815635 -0.27084747 0.566183 -0.43203264
0003d0 49 e0 9a 3e df e7 a8 3e a4 e4 a2 3e 20 89 e3 3e
       0.3024924 0.32989404 0.31815064 0.44440556
0003e0 16 af 95 be 42 b8 b9 be 48 16 2a be c9 2b 06 bf
       -0.29235142 -0.3627339 -0.16610062 -0.5241056
0003f0 80 34 86 be e0 49 13 be 65 dd 64 3d 56 10 85 3e
       -0.2621193 -0.1438365 0.0558752 0.25989026

policy_net.2.bias f4 [128]
000000 f5 38 a5 3d 9e 22 cf bd 6f b3 14 3e a7 f4 e5 3c
       0.08067504 -0.101140246 0.14521573 0.02807076
000010 d1 18 18 bb 21 d7 a4 3d 14 3c 21 bd c5 85 b0 bd
       -0.002320815 0.08048845 -0.039363936 -0.086192645
000020 bb 54 b0 3c 1d 44 18 3e 85 f4 5b be 41 a6 9a bb
       0.021524778 0.14869733 -0.21479996 -0.004719526
000030 af 1c 8f bd c1 57 0d be be 06 d7 3d 5a 1b 97 3d
       -0.06987893 -0.13803007 0.10499333 0.07378264
000040 41 2a 83 3d 75 9e 7d be 76 b1 a1 3d b5 b3 44 3e
       0.06404544 -0.24767478 0.07895176 0.19209178
000050 3c 9a 87 be 5a 68 ad 3c 83 6f 36 be ab e7 f7 bd
       -0.2648486 0.021167923 -0.17815976 -0.12104734
000060 c0 6b 6a bc b5 51 fb bd e9 ab 1b 3d 62 51 45 3c
       -0.014307916 -0.12271444 0.038005743 0.012043329
000070 00 ae 3d 3b 5e e1 cb bc 9b 06 6b bd db 7b a1 bd
       0.0028942823 -0.024887737 -0.057379346 -0.07884952
000080 cd b1 3d bb f4 67 1a 3d 44 b2 82 be 61 7e 6b be
       -0.002894509 0.037696794 -0.2552663 -0.22997428
000090 60 69 42 be 3c 9d 4d 3e 51 c1 a8 3e 39 cc 1d 3e
       -0.1898551 0.20079511 0.3295999 0.15409936
0000a0 16 26 cd bd d1 97 8b be aa 3d 9a 3d 89 12 87 3d
       -0.1001703 -0.27264264 0.07531293 0.06595332
0000b0 16 43 65 be a6 21 c9 bd 7b 3a 24 3d 76 79 f4 3b
       -0.22388873 -0.09820871 0.040094834 0.0074607683
0000c0 75 1e 20 3e 17 a5 8d be e8 77 85 be aa e5 63 3e
       0.15636618 -0.27665016 -0.26068044 0.22255579
0000d0 8f d1 d2 bd c5 4e 2f 3e fd 96 50 3c 05 fb b4 3a
       -0.102938764 0.17119892 0.012731311 0.001380772
0000e0 af 1f 13 3e 24 d0 b3 3c 1c 5c bc 3a 7c d2 bb 3c
       0.14367555 0.021949835 0.0014370712 0.022927515
0000f0 4a 13 34 be 57 b8 c5 bd 18 e3 fc 3d 06 7a 59 be
       -0.17585483 -0.09654301 0.12348002 -0.21237954
000100 a1 60 ee bd 3b a7 67 bd 0b 16 ba bd 4b 1c 3d be
       -0.11639524 -0.056555968 -0.090862356 -0.18467824
000110 ab 9f 57 3d 81 85 8d 3c c8 52 46 be eb a7 2c be
       0.052642506 0.017275574 -0.19367516 -0.1686093
000120 4a 6b 34 3e 28 2b d0 bc 4e e2 3f 3e cc c1 42 3e
       0.17619053 -0.025411204 0.18738672 0.1901924
000130 19 de 4b ba 27 5e 0b be ea f3 c9 3d de dd b4 3c
       -0.00077769306 -0.13610135 0.09860976 0.02207845
000140 a7 eb 05 bc 10 06 bc bc 2a a8 a2 bc 53 1a 61 3d
       -0.00817386 -0.02295211 -0.019855577 0.054956745
000150 92 74 81 3b 1a 07 40 bd 3a 5d 8e 3b b2 af 6a bc
       0.003950664 -0.046881773 0.0043446096 -0.014324116
000160 a4 0b 15 3e d0 11 4f 3e 4f 09 7d 3d be 4b 3c bc
       0.14555222 0.20221639 0.061776455 -0.011492668
000170 72 da 5d be e4 75 be 3c 29 8c af bd 96 b2 da bd
       -0.21665362 0.023249574 -0.08571655 -0.10678594
000180 6b 1f 42 be 9f cc 33 be 29 1c 1a be 94 e1 b9 be
       -0.18957298 -0.17558526 -0.15049805 -0.36304915
000190 d9 b9 1d 3d 1d 43 f4 bd 8d 60 8a bd 54 92 1e 3d
       0.038507316 -0.11926863 -0.06756697 0.038713768
0001a0 fd 3e a6 bc ef 8a 80 be a1 a2 a7 3b af 38 0f 3d
       -0.020293707 -0.25105998 0.0051158224 0.034966167
0001b0 92 a8 5e be ae 01 0b 3d 32 a9 e9 bd 18 0a 3e 3b
       -0.21743992 0.03393715 -0.114092246 0.0028997716
0001c0 a1 a8 d1 bd 62 89 8c 3d 15 27 57 3d 63 85 87 bd
       -0.102372415 0.06862141 0.052527506 -0.066172384
0001d0 31 a3 8c bd 38 ff de 3d 0f ba 78 be 22 8d f9 bd
       -0.06867064 0.10888523 -0.24289726 -0.12185122
0001e0 c4 07 12 3d 53 73 86 3d 6f e6 40 be 87 26 a3 3e
       0.035651937 0.06564965 -0.18837903 0.31865332
0001f0 b2 ec a0 bd fc 34 c3 3c 8e 70 08 3e 28 2c cb bc
       -0.07857646 0.023828976 0.13324186 -0.024801329

policy_net.4.weight f4 [128, 128]
000000 99 66 d4 bd 6a 52 29 3e 50 8c 25 3e 3c 45 e3 3c
       -0.103711314 0.16535345 0.16166806 0.027742974
000010 7f d9 bd bd 92 0d 37 3e 5f ac 0c bd 2c aa 54 3e
       -0.0927 0.1787627 -0.034344073 0.2076804
000020 56 f0 d7 be 7e 96 6f 3d 28 08 8a bd 13 ae c8 3d
       -0.4217555 0.05849313 -0.06739837 0.09798827
000030 81 89 25 3d 0a 8d 08 3e 43 71 1a 3f 8f d8 be be
       0.040414337 0.13335052 0.60329074 -0.37274596
000040 9d 30 6c be e8 14 a6 3e a6 7e 7f 3e 0c d7 eb be
       -0.2306542 0.32437825 0.24950656 -0.46062505
000050 b7 af ce 3e 4a 69 24 3d 78 f8 41 3e 6e be 0a be
       0.40368435 0.040139474 0.1894244 -0.13549206
000060 e1 0a 96 bd 25 1c 3e bd 71 d4 67 bf a5 a1 d4 3e
       -0.07326294 -0.04641356 -0.90558535 0.41529575
000070 e7 7d 02 bd 9e 99 83 be 2f 6e f8 be bf 79 89 be
       -0.03185835 -0.25703138 -0.48521563 -0.26850697
000080 02 e8 6d 3d a2 09 c7 bb 88 3e 00 3f 77 a7 17 bf
       0.058082588 -0.0060741464 0.50095415 -0.59239906
000090 1d b0 63 bd 12 2d a5 be 10 a8 9e be 84 4e d1 bd
       -0.055587877 -0.32260948 -0.30987597 -0.10220054
0000a0 4c a4 81 3e 87 d2 cf 3d c3 61 2e 3e f3 3b 1b 3e
       0.2532066 0.10147577 0.1702948 0.15159588
0000b0 81 78 aa be ea 70 97 bf f4 60 1a be 72 cd b4 be
       -0.33295062 -1.1831334 -0.15076047 -0.35312992
0000c0 ea 28 98 3e 8a ac 15 3f 4e 85 d6 3e 0a c6 46 3e
       0.29718715 0.584664 0.41898578 0.19411483
0000d0 5b 63 ba 3e 92 f5 ac be 85 af be be 19 f4 a3 bd
       0.36403927 -0.33781105 -0.37243286 -0.08005542
0000e0 b4 78 1c bb 45 ae 04 bf fb 5a b7 be 5c 46 a8 be
       -0.0023875656 -0.51828414 -0.358116 -0.3286618
0000f0 02 9d 93 3d 58 e4 83 3e a7 91 7f bf 65 6d 41 bc
       0.07207681 0.2576015 -0.9983162 -0.011805867
000100 f5 eb 34 bd 77 b3 68 3e fd 1d 4b be f1 1d bb bc
       -0.04417034 0.2272471 -0.19835658 -0.022841426
000110 fa 26 2f be 7f c2 e3 be c5 53 8a be b0 11 c9 be
       -0.17104712 -0.44484326 -0.27017036 -0.39271307
000120 ab 65 97 be 92 a7 9b bd e7 eb c0 bd f1 79 11 be
       -0.29569754 -0.07600321 -0.09419995 -0.14206673
000130 f5 f8 12 be 2f 27 42 be 9b 02 a7 3e 0b b3 8b be
       -0.14352782 -0.1896026 0.32619175 -0.27285036
000140 14 a3 a6 3e 6f 3c 55 3e 92 02 8d 3e eb 3c 0c be
       0.32546294 0.20823835 0.27541023 -0.13695113
000150 ab bd 97 be 6b 4e a8 3e bb 05 ec bd 35 d9 a9 3e
       -0.29636893 0.32872328 -0.115245305 0.33173528
000160 47 1a 7d bd e4 94 ed be 67 d5 26 3e e8 e2 de bd
       -0.06179264 -0.46402657 0.16292344 -0.10883123
000170 a5 f6 fc 3b 0c 90 cb 3e cf c4 99 be ce 23 f0 3e
       0.007719832 0.39758337 -0.30032966 0.46902317
000180 ee 17 20 be ee ec 34 3e 28 e2 c4 bd c7 7f 6c be
       -0.15634128 0.17668507 -0.096134484 -0.23095618
000190 0b a2 20 3e da 0d 7e bc c1 fd 23 3c 76 e8 91 3e
       0.15686814 -0.015506232 0.01000923 0.28497666
0001a0 70 55 ed bd 08 df 0a bf 92 64 b7 3e f9 1e 4c 3e
       -0.115885615 -0.5424657 0.35818917 0.1993369
0001b0 e9 c1 07 3e 8e c3 94 be ef cd 59 3d 72 99 d7 bd
       0.13257565 -0.29055446 0.05317491 -0.10527314
0001c0 0f 2b 80 be e1 12 55 3d 77 7b 60 be 42 b6 d2 be
       -0.2503285 0.052019957 -0.21922098 -0.41154677
0001d0 93 f6 e8 bd 1c 41 2f be 57 07 84 3d f7 de ab 3d
       -0.11375155 -0.17114681 0.064467125 0.083921365
0001e0 82 63 73 3e e7 39 80 be d0 59 f9 be e9 6f 02 bf
       0.23768428 -0.25044176 -0.48701334 -0.5095201
0001f0 bf cc 8a 3d 77 e1 fd 3e b2 d8 29 3d e6 99 52 3b
       0.067773335 0.4958608 0.041466422 0.0032135188
000200 a8 f1 5f 3d 0a 12 bd bd e8 d9 4d bf f6 c3 ab be
       0.05467382 -0.09231956 -0.80410624 -0.33547944
000210 e9 56 a4 be c6 c8 e0 3b 16 4e 28 be f2 c9 20 3e
       -0.32097557 0.0068598716 -0.16436037 0.15702036
000220 9b ab a6 be 0d f1 22 bf 12 6c d0 bd 7e ee ee 3d
       -0.325528 -0.63649064 -0.10176863 0.116665825
000230 5d 9f fe be 21 55 ba 3a 6a e0 20 3f 83 2d 3a 3e
       -0.4973096 0.0014216044 0.6284243 0.18181424
000240 f4 88 2c bf 7a 80 65 3c 51 4a 67 be f9 09 22 3d
       -0.67396474 0.014007682 -0.22586943 0.039560292
000250 71 be 54 be 06 51 e4 be bb f6 61 be 47 d8 c7 bd
       -0.20775773 -0.44593066 -0.22066776 -0.097580485
000260 4e d9 ba be fe a1 c5 3c 0f a9 e1 bd e0 f2 0c bf
       -0.36493915 0.024125095 -0.110185735 -0.550581
000270 a4 a6 74 be fc eb cf 3d f3 fb 01 be 4d 21 13 3e
       -0.23891693 0.10152432 -0.12693767 0.14368172
000280 8a 17 d9 bd b6 a0 02 be 56 a6 ab bd d6 49 57 bf
       -0.10600193 -0.12756619 -0.083813354 -0.8409704
000290 f8 4d bd bc ba a8 6b bd bc 71 e4 3d 47 7f a0 3e
       -0.023108467 -0.057533957 0.111545056 0.31347105
0002a0 70 d5 30 3e 12 17 b2 be e4 0b cb 3d 37 3d d2 bd
       0.1726892 -0.34783226 0.09914377 -0.10265582
0002b0 03 d3 e8 bd 01 d2 d5 be a5 b7 92 bd 26 a5 61 be
       -0.11368372 -0.41761783 -0.07163934 -0.22035655
0002c0 c1 fb 3e bf de 35 67 3e fb af d8 3e 85 4a 73 bf
       -0.74602896 0.22579142 0.42321762 -0.9503558
0002d0 53 72 36 be 84 d6 fc bc 71 66 45 be fa 56 c1 3e
       -0.17817049 -0.030864008 -0.1927736 0.3776167
0002e0 6f 12 45 3e 3d ca 60 bc 36 9e ec 3d ab 99 aa 3d
       0.19245313 -0.013720092 0.11553614 0.08330091
0002f0 e0 20 63 bf 60 73 c0 be 99 46 50 be d5 10 59 be
       -0.8872204 -0.37588024 -0.20339431 -0.21197827
000300 5f 8b 10 bf 0a 2c 82 bb 09 6a 39 3d 8c 46 10 3e
       -0.56462663 -0.003972535 0.04526714 0.14089411
000310 0b 63 59 be 66 49 ce be 40 28 b4 be 19 46 ee 3d
       -0.21229188 -0.40290374 -0.35186958 0.11634464
000320 41 4f ab be aa a6 23 3c 49 e5 45 be 57 f7 a1 3e
       -0.33458903 0.009988466 -0.19325747 0.31634018
000330 d6 f5 73 3e 42 10 e1 3d fe b1 36 be 6d c6 9c 3e
       0.23824248 0.10989429 -0.17841336 0.30620137
000340 a2 1a 75 be 0c 1a 87 be cb 89 ad be 5d be 85 3e
       -0.23935941 -0.2638706 -0.3389419 0.26121798
000350 fe 4b 8e be bf 96 05 bc 25 bf 41 bd a9 1d 93 3e
       -0.27792352 -0.008153616 -0.04730143 0.28733566
000360 1a fe 93 be cc 50 97 bc 21 14 8d be cd 47 fe 3d
       -0.28904802 -0.018471144 -0.2755442 0.12416039
000370 ed 4d 94 3e e4 d6 a4 be f1 29 07 3e 5d 00 0f bf
       0.28965703 -0.321952 0.13199593 -0.5585993
000380 a1 31 0c bf e7 db ea be 3b 58 e3 3e 42 8f 96 bd
       -0.5476323 -0.45870897 0.44403252 -0.07351543
000390 a1 85 c6 be 0b a3 15 3e 31 eb 51 3b 48 31 c4 bd
       -0.38773826 0.14612977 0.0032031054 -0.09579712
0003a0 5c 1c 6c 3e a7 8b 0d 3e 1e 28 6e 3e 7b 18 0e bd
       0.23057693 0.13822804 0.23257491 -0.034691315
0003b0 42 3c 50 3e 35 25 89 3e ba ad 9e be 22 61 d0 bd
       0.20335487 0.267862 -0.30991918 -0.101747766
0003c0 aa ac 6c bd 0c 8a a2 be 4c 72 90 3e ef 37 9c 3e
       -0.057781853 -0.31745946 0.28212202 0.30511424
0003d0 9c 39 ab be c6 0f f4 3c 88 e0 bc 3d e7 d3 b4 bd
       -0.3344239 0.029792678 0.092225134 -0.0882948
0003e0 25 53 92 3d 2c f6 33 3d 38 54 2e 3e 92 a1 88 be
       0.07144765 0.04393594 0.17024314 -0.26685768
0003f0 82 95 18 be 82 92 2e be fc 01 3c bf 66 46 15 3e
       -0.14900783 -0.17048076 -0.7344053 0.14577636

policy_net.4.bias f4 [128]
000000 6a 10 3f be d9 22 c0 bd 98 9b 81 3d 53 83 36 be
       -0.18658605 -0.09381647 0.06328505 -0.17823534
000010 92 66 7c bd 09 1a cd 3d 49 34 2f bd 6a 6b 02 be
       -0.061621256 0.100147314 -0.042774472 -0.12736288
000020 a8 66 11 be 8c 6d dc bd 5f 5c e9 3d 14 95 c2 bc
       -0.14199317 -0.10763082 0.113945715 -0.023752727
000030 57 13 c6 3c 53 cd 74 be eb 20 f5 bc db fc b9 3d
       0.024179144 -0.2390645 -0.029922923 0.090814315
000040 19 4a 7d bc 8f b0 69 bd 79 28 06 be e4 86 9f 3c
       -0.015459561 -0.057053145 -0.13101377 0.0194735
000050 09 f4 fb bd ae 13 a7 bd 52 06 57 be 8c 81 b7 be
       -0.123024054 -0.081580505 -0.20998505 -0.35841024
000060 5c b8 19 be 32 fb 52 3e e5 8d 86 bd 74 97 d4 bd
       -0.15011734 0.20603636 -0.06570033 -0.1038045
000070 53 29 0d be 23 49 23 3e 16 eb f2 3d da e2 1f be
       -0.13785295 0.15945868 0.11861245 -0.15613881
000080 d8 f4 df 3d 39 f7 3d 3e 88 16 84 3d 8e 28 d0 ba
       0.10935372 0.18551339 0.0644961 -0.0015881227
000090 e2 ad 0f 3d 1c 6b 01 3e b6 ab be be d1 3b c8 3d
       0.035077937 0.12638515 -0.3724038 0.09777034
0000a0 22 02 bc 3d b7 bd 4a be 98 af c1 3c 9b 8e d5 3d
       0.09180094 -0.19798933 0.0236433 0.104275905
0000b0 e2 b6 12 be ce b7 2f 3e d8 48 17 3e 46 3a 88 bd
       -0.14327577 0.1715996 0.14773881 -0.0665174
0000c0 a2 8b 43 bb 2a 3d 74 be 64 aa 89 bd 2c 8f 54 3e
       -0.0029837866 -0.23851457 -0.067219526 0.2075774
0000d0 63 53 b2 be b9 c9 99 3d ba b2 e6 3d bb bb b0 be
       -0.34829244 0.07509179 0.11264558 -0.34518227
0000e0 91 10 02 be 25 7d 8d 3c 4a 26 94 3d 7f 79 30 bd
       -0.12701632 0.017271588 0.072338656 -0.043084618
0000f0 56 a3 7e be ba 79 f4 bc 2a 9b b4 be 64 25 ab 3d
       -0.24866995 -0.0298432 -0.3527463 0.08356741
000100 c0 47 04 bd 2c 9f 0f bc 8f 5b 8d be 61 39 eb 3d
       -0.03229499 -0.008765977 -0.27608916 0.114855535
000110 40 06 53 be 9c 0e 93 be 94 c8 86 bd b9 19 aa be
       -0.20607853 -0.28722084 -0.06581226 -0.3322275
000120 ef e0 87 3e 5f 1a 83 bb 3b 92 29 3e 91 bc 56 be
       0.26538798 -0.0040009464 0.16559689 -0.2097037
000130 b2 43 5e be c2 03 6e 3e 3c f9 4c 3e d2 fd ca 3d
       -0.21705511 0.23243621 0.2001695 0.09911694
000140 b8 07 26 bf 59 bc 3a be b0 da d0 3e 4e ad 48 be
       -0.6485553 -0.18235911 0.40791845 -0.1959736
000150 a5 7a 09 be 68 9f 98 bc 59 37 7f bd ef a8 44 3e
       -0.13425691 -0.018630698 -0.062308643 0.19205068
000160 9f 6d b2 be 67 56 aa 3d ab 1a ca bd 0c a3 51 be
       -0.3484926 0.08317261 -0.09868368 -0.20472354
000170 fd 8e 13 be b8 23 2d bd 41 e1 c2 be 14 51 f5 3d
       -0.14410014 -0.042270392 -0.3806248 0.11978355
000180 a5 b4 81 be 08 34 9d 3c 0e 16 e9 bd 73 aa 91 3d
       -0.25333133 0.01918985 -0.1138116 0.07112589
000190 e7 ef 63 3e 01 42 c2 3d 20 bc c8 3b 0f fa a6 3a
       0.22259484 0.094852455 0.006125942 0.0012739318
0001a0 98 69 93 be fc 45 8e 3c 6d 54 5f 3d 2b 23 ab be
       -0.287915 0.017367356 0.054523874 -0.3342527
0001b0 48 42 ed 3b 61 82 e5 3d 49 2c 19 be fe 6d 24 3d
       0.0072405674 0.112065084 -0.149583 0.04014396
0001c0 51 19 bc bd 4b 9b 26 3e 2c 73 01 3e f6 dc 0c 3e
       -0.09184516 0.16270177 0.12641591 0.13756165
0001d0 09 85 a4 bd de 33 04 3e 29 1a 11 be ef ca 8d 3e
       -0.08033187 0.12910411 -0.14170136 0.2769389
0001e0 79 5f 51 be 44 fe 14 3e 83 e3 85 bd c9 f4 c4 3d
       -0.20446576 0.1455012 -0.06537535 0.096170016
0001f0 4d fb 61 be b3 31 1e bd 36 2a 24 3d e0 ed 0f be
       -0.2206852 -0.038621616 0.040079318 -0.14055586

policy_net.6.weight f4 [64, 128]
000000 a4 47 ee bd 44 5f 7b 3e fe 05 bd 3e 1d 55 0d bf
       -0.11634758 0.2454806 0.36918634 -0.55208
000010 ee 6b 33 be a0 bb 18 bd 7d 23 3d 3e ac 8f 55 3e
       -0.1752164 -0.03728831 0.18470569 0.20855588
000020 da 54 f3 3d 14 a3 9c be c7 6b 72 be 99 26 fa 3d
       0.118814185 -0.3059317 -0.23673926 0.12214393
000030 8f 5e c1 be cb 7a e6 be c4 8e 83 be d9 f4 d7 bd
       -0.37767455 -0.4501556 -0.2569486 -0.10544748
000040 9f ec 7c 3e 44 29 d4 bd 7e 1c 02 3d 47 17 97 3e
       0.24699639 -0.10359433 0.031765454 0.29509947
000050 01 62 bc 3e 9c e2 73 bc 9a 88 41 3e 87 68 58 bc
       0.3679352 -0.014885571 0.18899766 -0.013208515
000060 f4 94 02 bf cf df 4d 3e 2a 73 00 be 77 00 fb 3e
       -0.51008534 0.20104907 -0.12543932 0.49023792
000070 d5 47 15 3e 1c c5 ca bd 1b c8 1a bf d4 ae 87 be
       0.14578183 -0.09900877 -0.60461587 -0.2650057
000080 8a c6 71 bd 91 b0 1a bf 59 de c3 be 4a bf aa bd
       -0.059027232 -0.6042567 -0.38255575 -0.08337267
000090 48 51 2a 3d 91 2c 38 bf 20 f2 f9 bd d3 ff 3c 3e
       0.041581422 -0.71943 -0.12204385 0.18456964
0000a0 f3 64 a7 3c 95 86 b6 be e7 41 f0 3d 45 98 31 3e
       0.020433879 -0.35649553 0.1173132 0.17343242
0000b0 1a d4 e2 be a3 75 83 3e 70 a5 3c be f9 b8 ab 3b
       -0.44302446 0.25675687 -0.18422484 0.0052405563
0000c0 94 f6 b4 bd 94 f7 23 3f 8e 8c f8 be f8 7d d3 3d
       -0.088360935 0.6404965 -0.48544735 0.10326761
0000d0 69 d7 9b 3e 56 92 87 bb ad 21 bb 3b af 60 0d 3e
       0.30437782 -0.0041373177 0.0057108016 0.13806413
0000e0 f5 34 1d 3e 67 6e 69 3d 9d 32 d8 3e 25 0a 90 bd
       0.15352233 0.056990054 0.42226115 -0.07033185
0000f0 73 dd 60 3d e5 8b 35 3e f4 4e 69 be 33 72 2f bd
       0.05489869 0.17729147 -0.22784024 -0.04283352
000100 11 94 a1 be 44 a1 ba 3d 23 2f 9c bd 38 5e 17 3e
       -0.31558278 0.0911279 -0.07626178 0.14782035
000110 76 af 11 3d 7b e9 dd be 6c 54 24 3d 77 f2 21 bf
       0.035567723 -0.43342194 0.040119573 -0.63260597
000120 d2 92 a8 3c ba 95 a1 3d 85 de 34 bf bf 62 a8 3d
       0.020577822 0.07889886 -0.7065204 0.08221959
000130 d3 fe 4b be a4 ee d2 be 5c d4 88 be 22 02 8f be
       -0.19921426 -0.41197693 -0.26724517 -0.27931315
000140 ee b8 18 3e ce 9b 3d bb c9 de 90 3e ee 52 2d be
       0.14914295 -0.0028931978 0.28294972 -0.16926166
000150 c0 21 ff be ca fc b8 be 49 39 cd 3e 16 d1 b2 be
       -0.49830437 -0.36130363 0.40082768 -0.34925145
000160 81 f8 b4 bd 68 68 f4 3c bb db 5c ba d0 ef 09 bf
       -0.08836461 0.029834941 -0.00084250764 -0.5388155
000170 d2 84 82 be 40 8b 47 be 21 f2 c4 3d 74 aa 67 bf
       -0.2549196 -0.19486713 0.09616495 -0.90494466
000180 db e2 0d be e6 b4 b1 bc 60 8a f4 bd 8b 35 0c 3e
       -0.1385607 -0.021692704 -0.119404554 0.136923
000190 8d 8b 1c bf 1a 60 b7 3c 54 18 e8 bb de fd 07 3d
       -0.6115044 0.022384692 -0.0070829783 0.03320109
0001a0 f6 55 31 be 53 b4 65 be 6d cd 32 3e a8 61 0d bd
       -0.17317948 -0.2243207 0.17461176 -0.03451696
0001b0 b6 56 91 3e aa 39 42 3d 3a d0 cf 3d bb 68 94 be
       0.28386468 0.047418274 0.10147138 -0.28986153
0001c0 91 b5 a8 be 2c ed 70 be 4a 4b 1f be e5 7d 1b bf
       -0.32951024 -0.23527974 -0.15556064 -0.60738975
0001d0 49 cc 27 3f 66 23 3f bf 32 27 3c bf 7c 96 3d be
       0.6554609 -0.7466339 -0.7349731 -0.18514436
0001e0 33 49 7b 3c 15 cb f9 3d 03 98 85 be f2 6a 84 3e
       0.015337276 0.12196938 -0.26092538 0.25862843
0001f0 3d 5b b5 bd b6 9a a1 be b0 37 11 bf 4d 58 71 be
       -0.08855293 -0.31563348 -0.567256 -0.2356884
000200 ef ad de bd d9 f7 5a 3d 9e c6 e3 bd 9e 40 f3 3c
       -0.10873019 0.053459022 -0.111218676 0.029693898
000210 b1 e7 e9 bc 62 2d 85 3e 47 be bf 3d 8b 87 16 be
       -0.028552862 0.26011187 0.093624644 -0.14700143
000220 c3 f4 93 be a5 ec 0d 3e 1a 15 78 3d ea 8c ec 3d
       -0.28897676 0.13859804 0.060567 0.11550315
000230 9d 11 2a be fc 96 4c be 99 72 bd bc 48 bc 08 3e
       -0.16608281 -0.19979471 -0.023125933 0.13353074
000240 18 2b d6 3e cb 78 ef bd 53 b3 8d bc 93 33 35 3e
       0.41829753 -0.11692961 -0.017297423 0.17695455
000250 e6 89 e3 bd 77 d6 66 3e 57 17 04 bd 86 08 05 bf
       -0.111102864 0.2254275 -0.03224882 -0.5196613
000260 ae c9 65 bf 12 55 1a be 58 20 2b bf 91 c0 1b bf
       -0.89760864 -0.15071514 -0.6684623 -0.6084071
000270 6c 2e 4e 3e 13 45 e1 bd 28 52 44 bd 6e 99 24 bf
       0.20134896 -0.10999503 -0.047929913 -0.64296615
000280 1c 32 74 bd 1f 1a d6 3d 19 b8 cc 3d a5 09 45 be
       -0.0596181 0.10454201 0.09996051 -0.1924196
000290 1b a6 74 bc 97 94 2f 3d e0 9a f2 3c ff 42 7b 3d
       -0.014932181 0.042866316 0.029614866 0.06134319
0002a0 9b cb 43 be 8d 3d 15 3e 13 0c 1c 3d fd 50 3e bf
       -0.19120638 0.14574261 0.038097452 -0.7434233
0002b0 64 03 92 be 70 f0 37 3e fc 98 61 be 32 70 83 3d
       -0.28518212 0.17962813 -0.22031015 0.06417884
0002c0 68 36 ca bd 05 8c be bd 30 49 65 3d f2 98 a3 3e
       -0.098736584 -0.0930405 0.055978 0.31952626
0002d0 fc cc 41 bc 0b 9b e3 bd 7f 64 9d 3d 39 e6 b6 bc
       -0.011828657 -0.111135565 0.07685184 -0.022326576
0002e0 d7 30 6b be 86 99 26 3e ed fb 87 bd ec 85 0b 3d
       -0.2296785 0.16269502 -0.06639848 0.034063265
0002f0 3b 00 06 3e 61 20 8d bd ae af 32 3d 50 f4 38 bd
       0.13086025 -0.068909414 0.043624572 -0.04515487
000300 86 58 6d bd f4 1a d1 be 5d 2b 37 3e 50 e5 74 be
       -0.05794575 -0.40840876 0.17887636 -0.23915601
000310 c6 b7 48 bf 17 1c 03 be d1 8d 0b 3e a2 f3 8b 3e
       -0.78405416 -0.12803684 0.13628317 0.27334315
000320 f4 db 93 3e 7d 9b 0f bf 26 76 c9 be 83 09 b4 bd
       0.28878748 -0.5609663 -0.39347953 -0.08790877
000330 a8 a3 ea 3d 30 9c 02 3e 08 51 02 bf 55 0b 19 bd
       0.11456996 0.12754893 -0.50904894 -0.037364323
000340 a5 35 02 ba f6 48 64 bc 4a 36 92 bd 84 b5 29 be
       -0.00049671 -0.013933411 -0.07139261 -0.16573149
000350 4a 42 e3 be 2d 9d a7 3d 9a 24 f2 3d 2c d2 e9 be
       -0.44386512 0.08184276 0.118233874 -0.4566816
000360 9b 6b b7 3c e1 02 0f 3e 69 64 40 be e5 99 4f be
       0.022390177 0.13965942 -0.18788303 -0.2027355
000370 c9 28 89 3c 6b b1 16 3e 2f 16 93 3c 8d 78 b7 bd
       0.01674308 0.14716117 0.017954914 -0.0895854
000380 37 fd 43 be e3 82 2a be 3b e0 a2 3d 9d 96 0b be
       -0.19139563 -0.16651492 0.07952925 -0.13631673
000390 59 3a 7e bd 73 92 d7 bc f8 96 62 be d8 98 17 3e
       -0.062067363 -0.02631495 -0.22127903 0.14804399
0003a0 97 c1 d6 be d0 6b 1d 3e 31 0c 99 bd c7 d9 7e 3d
       -0.41944572 0.15373158 -0.074730285 0.062219407
0003b0 1d c2 4a be 72 df f5 3e c6 ec 29 bd 63 72 ef 3d
       -0.19800611 0.48022038 -0.04148557 0.116917394
0003c0 b1 ea e2 be ba c8 82 3d bf 45 9a bd d8 86 ec be
       -0.4431968 0.06385942 -0.07532834 -0.46196628
0003d0 60 96 b6 bd 68 71 65 3e 1f b5 9a be 42 5b e8 be
       -0.089154005 0.22406542 -0.3021631 -0.45382124
0003e0 7e 5b b6 3b e8 a7 02 be 9d 28 05 3e 6c 5e bb be
       0.005565106 -0.12759364 0.13003774 -0.36595476
0003f0 0b 3d 86 3d 36 79 13 bd f3 a2 92 be 29 69 89 3e
       0.06554612 -0.036004268 -0.28639945 0.26838043

policy_net.6.bias f4 [64]
000000 7a a0 a4 bd 6f 03 a8 3e ad 31 70 be ec 9b 51 be
       -0.08038421 0.3281512 -0.2345645 -0.20469636
000010 a4 4a f0 be 8f 3c 82 3e f4 f9 5d be 56 0e 8d bd
       -0.46931946 0.25436828 -0.21677381 -0.068875
000020 9f 90 bf bc 0e 7c 2e 3e 7b 33 cc 3e 42 f0 c5 bb
       -0.02338439 0.1703951 0.39883026 -0.006040604
000030 86 55 b7 3e 04 83 f7 3d ae 0f fd 3e bb 0d 9b 3e
       0.35807437 0.12085536 0.49426025 0.30283913
000040 b5 cf fc bd fc da 6f be 63 48 1d 3e da bf 41 3e
       -0.123443045 -0.2342338 0.15359645 0.18920842
000050 41 a3 a3 bd 67 92 a0 3e b3 01 e0 bc 05 b4 ed 3d
       -0.079901226 0.31361696 -0.02734456 0.116066016
000060 5c 6b e9 3d 17 ce 81 3e 52 a8 c0 3e ef e4 97 bd
       0.1139743 0.25352547 0.37628418 -0.074167125
000070 93 c1 8d 3e ed 55 5c 3e 2b de 88 3e d3 1f c2 bc
       0.27686748 0.21517153 0.26732 -0.023696816
000080 d6 74 e7 bd 05 cf a6 3e ac e5 39 3e 7b ce 49 3d
       -0.113015816 0.32579818 0.18154019 0.04926918
000090 da 83 88 3d b8 2d ee 3d d5 dc 5c 3e 37 55 cd be
       0.06665774 0.11629814 0.21568616 -0.40104076
0000a0 f7 eb 8e 3e fc a9 e9 bd ac a5 17 3d 6b 30 81 be
       0.27914402 -0.11409375 0.03702323 -0.25232252
0000b0 07 1b bf 3e 62 56 f6 3e 68 54 24 be f9 c6 9c 3c
       0.37325308 0.4811278 -0.16047823 0.019137846
0000c0 7a 7b 89 be 69 1e b8 be cc f7 ac be cd 5b d5 3e
       -0.26852018 -0.359607 -0.33782804 0.416716
0000d0 d0 9a a4 be ea 81 6d 3b a5 9c 50 be 8a 91 47 be
       -0.32149363 0.0036240765 -0.20372255 -0.19489112
0000e0 6d 10 07 3f 1f 9f 03 3e d1 37 8a 3c b3 19 88 be
       0.5275944 0.12853669 0.016872318 -0.26582107
0000f0 f5 38 1f 3e b4 02 80 3e 6a 79 f7 bd 2d 60 10 3e
       0.15549071 0.25002062 -0.12083705 0.14099188

policy_net.8.weight f4 [4, 64]
000000 4d db 11 be 5f 58 05 3d b3 c8 b4 be a0 82 e4 3d
       -0.14243813 0.03255498 -0.3530937 0.11157727
000010 df 47 ec 3d d9 94 d6 3d 1d 78 b5 3c 50 74 83 bd
       0.11537146 0.10477609 0.022152001 -0.06418669
000020 d1 5b 1f be cc 4f df 3c 40 e4 e2 3c 3d e8 1e 3e
       -0.15562369 0.02725973 0.027696729 0.1551828
000030 f8 e1 72 bd 77 cb 32 3e 29 37 ce 3c 29 55 9e 3d
       -0.05929753 0.17460428 0.025172787 0.07731087
000040 72 2a f9 3c 2e 5d 2a bd 79 76 3c bd dd e4 e3 3d
       0.030415747 -0.04159277 -0.04601142 0.111276366
000050 ba 07 f6 3d 20 3d d2 3d 1c d2 d6 bc 74 b8 93 3d
       0.120131925 0.10265565 -0.026223235 0.07212916
000060 3a a2 c9 bd 32 55 bb bd 00 92 e6 3c e4 3f 16 3d
       -0.098453954 -0.09147109 0.02814579 0.036682025
000070 88 de 4f bd 58 c2 50 bd 59 d4 7c bc f8 20 1f bd
       -0.05074933 -0.05096659 -0.015431487 -0.0388498
000080 6e 46 57 3d 03 be 6b 3c 6a 8a 5d bd 1e 54 9a bd
       0.0525574 0.014388564 -0.05408708 -0.07535575
000090 cc 3b 2d 3d de fa a7 3d fc 11 3b 3c fa 8a c9 bb
       0.042293355 0.08202146 0.011417862 -0.0061506005
0000a0 6b f0 d7 3d 83 6e 24 be d7 5f 3d 3d cc 92 a6 bd
       0.10543903 -0.16057782 0.046233978 -0.08133468
0000b0 ae dc f7 bc 6a c3 86 bd af 27 c5 3d 3a df 2e 3d
       -0.030256595 -0.06580241 0.0962671 0.042693354
0000c0 83 95 4f bd 16 6e ca 3d 08 61 50 bd bf de ab bb
       -0.050679695 0.098842785 -0.050873786 -0.0052450593
0000d0 65 54 a0 3e 29 a9 c1 3c 7c af 06 be d6 1d ab bd
       0.31314388 0.023640232 -0.1315288 -0.083553
0000e0 b6 a0 20 be 3c 91 54 3d 31 32 84 3d a2 ce 4a bd
       -0.15686306 0.05189632 0.06454886 -0.049513467
0000f0 95 de 11 3e 94 c0 8b bd 30 9a 16 bc 45 d9 0a bd
       0.14245065 -0.06823841 -0.009192035 -0.03389861
000100 8d 4b 3f 3d 40 7f 09 bc 08 7e 9b 3e d5 0f 4c bc
       0.04670291 -0.008392155 0.30369592 -0.0124549465
000110 f0 f7 1a 3e 18 59 b2 3d 86 f4 03 3c 4b 2f 34 bd
       0.15133643 0.087083995 0.008053904 -0.043990415
000120 8d 27 8b 3e ac 79 d1 3c 87 76 c2 bc 8b 68 84 bd
       0.27178612 0.025570713 -0.023738159 -0.064652525
000130 2e 26 54 3d 48 af 00 3e e6 30 0a 3d c3 1f 26 be
       0.051794223 0.12566864 0.03373804 -0.16223054
000140 ba 64 cb 3c ea a5 70 bd 74 68 88 bd 3b c9 b7 3b
       0.024828304 -0.058751978 -0.06660548 0.0056087053
000150 b1 9d c7 3d 90 f3 8d 3d 68 6f 98 3b 8b bb 61 3d
       0.09746874 0.069312215 0.0046519525 0.055110496
000160 fa 0c 53 bd 58 84 ae bd f1 86 2f 3d 8e 25 dd 3c
       -0.051526047 -0.08521336 0.0428533 0.026995447
000170 56 4e 9d bd 6d 8d d1 bd 2b 68 c9 bd fa 98 91 3d
       -0.07680957 -0.10232053 -0.098343216 0.07109256
000180 be 97 b0 3d 35 2d dc 3d 6c bf b3 bd b1 bc f2 3c
       0.086226925 0.1075081 -0.08776745 0.02963099
000190 3f 18 84 3c bc 10 a9 3d b4 6f 1d 3d 8e 65 e2 3d
       0.016124843 0.08255145 0.038436607 0.11054526
0001a0 1e 96 92 3d 9d 21 99 bd c7 8a 09 3e 57 19 83 bd
       0.07157539 -0.07477114 0.13431846 -0.064013176
0001b0 15 ff d5 bd da fa 85 bd d0 f8 0e 3c 4d ee a8 3d
       -0.10449044 -0.06541987 0.008726314 0.08248577
0001c0 19 20 2b 3d 9a f8 9e bd 01 19 d3 bc 9f 56 89 bd
       0.041778658 -0.07762261 -0.025768759 -0.06705975
0001d0 1c dd 2b 3e e3 93 b3 3d 19 de a8 bd a8 95 91 3c
       0.16783565 0.087684415 -0.08245487 0.017771557
0001e0 17 0e 08 be 48 ad bc bd 03 ce 8f bd d8 d9 db bd
       -0.13286625 -0.09212738 -0.070217155 -0.1073491
0001f0 11 3b 8a 3d 7e a1 c7 bc 2d e9 09 3e bf f7 83 3d
       0.06749547 -0.024368998 0.13467856 0.06443738
000200 53 d9 88 3d 78 29 97 3c 2a 62 96 3d 28 8c 03 be
       0.06682076 0.018452391 0.07342942 -0.12846434
000210 22 7a 2e be 1c b8 7f bd f0 48 3e be ca c9 da 3d
       -0.17038777 -0.06243144 -0.18582511 0.106830195
000220 8c 3e aa 3d 76 3c ce 3d ae d2 cf bd b5 4c 76 bd
       0.08312711 0.10070126 -0.10147606 -0.060131747
000230 cd 43 f5 3d f4 1e 42 3b 51 63 17 be 36 20 82 bc
       0.119758226 0.00296205 -0.1478398 -0.0158845
000240 99 76 ae bd c0 c9 b6 bd bb 9e 7a bc 95 0b a4 bd
       -0.085187145 -0.089251995 -0.015296633 -0.080100216
000250 18 97 9e be e2 f9 ec 3b 71 8c 27 bd d5 14 da bb
       -0.3097465 0.007231937 -0.04090542 -0.0066553154
000260 95 bd 10 3e ca 94 fb 3d b7 21 c8 3d d2 02 e3 3d
       0.1413482 0.12284239 0.097720556 0.11084522
000270 c8 12 ca 3d f2 3e 98 3d fd 19 10 bd 89 2d b7 3c
       0.098668635 0.07433881 -0.035181034 0.02236058
000280 1d 35 01 be c9 e5 cb bc 86 9d 4a bc 24 9a 53 bd
       -0.12617917 -0.024889844 -0.012366658 -0.05166067
000290 f7 87 7b 3e 3d c3 db bd 7f 69 4c 3d 38 52 79 be
       0.24563585 -0.10730598 0.049905296 -0.2434777
0002a0 86 52 96 be 5d e4 c7 3d b1 8e 9d bd b6 bf 40 3e
       -0.29359835 0.09760354 -0.07693232 0.18823132
0002b0 db 3f 02 3e 76 65 82 3e 17 24 63 be 6f 47 49 3d
       0.12719671 0.25468034 -0.22181736 0.04914039
0002c0 95 aa 00 3e 4b 0c a7 bc 02 81 11 bd e3 a1 ba 3d
       0.12565072 -0.020391604 -0.035523422 0.09112909
0002d0 5c 63 5d 3e c0 46 0f be 3a b1 36 3d a7 a8 14 3d
       0.21619934 -0.13991833 0.04460261 0.036293652
0002e0 4b 54 86 3e f9 e5 24 bc c0 7e f5 bc b6 2f 4e 3e
       0.26236185 -0.010064595 -0.029967666 0.20135388
0002f0 8d e9 86 be 01 f2 b8 3d 56 82 ea bd 66 2a 46 3d
       -0.2635006 0.090305336 -0.11450641 0.048380278
000300 5b 20 b9 bd 42 e1 e2 bd 36 9f d1 39 8a fd 47 bd
       -0.090393744 -0.11078121 0.00039982208 -0.048825778
000310 f3 40 a7 3c 02 21 e4 bc b4 39 88 3d 56 a9 1c bc
       0.020416712 -0.02784777 0.06651631 -0.009561857
000320 4c 3a 7c bd 3c cd d7 3d 1a 3e 5d 3c ac 5d 66 bd
       -0.061579034 0.10537192 0.013503576 -0.056241676
000330 c6 16 1f 3d 64 9c c6 bb 88 b8 df 3d 84 90 4f bd
       0.038840078 -0.0060611237 0.109238684 -0.05067493
000340 53 bd bc bd ab 2e 68 3d 45 06 69 3c 10 ed 45 3d
       -0.09215798 0.05668513 0.014222686 0.048321784
000350 68 f2 c5 bc 88 59 9c 3c 99 fb e8 bd d3 7f 34 bc
       -0.02416344 0.01908566 -0.113761134 -0.011016804
000360 2c c8 9e 3b e7 3f 9a 3d 77 e2 e0 bc 27 9f cf bc
       0.0048456397 0.0753172 -0.027451737 -0.025344444
000370 a0 f9 21 bd 0f ba 00 bd 4e 45 14 3c b6 13 e3 bb
       -0.0395447 -0.03142744 0.009049727 -0.00692984
000380 cd 8d 02 3d b8 75 c3 3b a5 d0 18 3d ec 64 1b bd
       0.031873513 0.005964961 0.037308354 -0.037938043
000390 43 80 72 bd 90 2d 29 3d b7 e0 c3 bd f5 df 7f 3a
       -0.05920435 0.041303217 -0.09564345 0.000976085
0003a0 24 d5 86 3d 43 b8 84 3d 57 56 58 3d aa e0 61 bd
       0.06583622 0.06480458 0.052816715 -0.055145897
0003b0 dd c2 2c bd fa 36 39 bd 91 20 03 3d b1 ab 95 bd
       -0.042178024 -0.045218445 0.03201348 -0.07308138
0003c0 62 29 59 bd 53 d5 68 bd 25 4e 97 bd 2c fa 97 bd
       -0.05301798 -0.056844067 -0.07387952 -0.074207634
0003d0 f2 25 6a 3d f9 dc d1 3d 8c ae 4a bb 45 d7 90 3d
       0.057165094 0.10247225 -0.0030926792 0.070723094
0003e0 e4 51 ed bd e9 c1 28 bb b8 6c 1c bd 57 e5 9d bd
       -0.11587885 -0.0025750345 -0.03818962 -0.07709759
0003f0 cc 3e ac 3d 5c 6f 95 bd 1e 08 79 be b3 46 80 3d
       0.08410415 -0.07296631 -0.24319503 0.06263485

policy_net.8.bias f4 [4]
000000 92 7b 90 3d 6a bf 0d bc ca 27 cf 3d 99 92 50 3e
       0.07054819 -0.008651594 0.10115011 0.20368423
