IL/Model/model_reacher_60.pt (torch, 292527 bytes, 20 tensors)

policy_net.0.weight f4 [64, 24]
00000000: ebb1 0bbf b69d afbf d2d2 9e3e 5000 283e
00000010: f5cc 9b3e 67bc 5cbe 64fc be3e 9423 7cbd
00000020: 87b5 2e3e 04a0 db3d 3b74 ca3c 2337 293b
00000030: 1672 bbbd fc3c 57bd 3287 bd3e f827 333e
00000040: 72d7 843e 8e65 b43d 6ec6 b5be 8852 29bf
00000050: d509 02bf 324b 8cbd 167f 6b3e 28cc 113d
00000060: 930d 0d3e 259f 53bf a47d 3fbe a8df e83e
00000070: e3bc 8e3e 1e26 843e 43bd 883f 50d6 bbbe
00000080: 4f18 c7bd 4b31 c0be 8ac6 b63e 7b5d f63c
00000090: 84f3 eabc b920 c9be 3fd8 38bd 9445 02be
000000a0: 9c71 27be 2142 94be f106 c0be 0aa3 64be
000000b0: e414 a6be a4bb 0d3e 5620 b6bd 5502 cdbd
000000c0: da3a 003e 72c4 813f acfd ddbe a4c4 0840
000000d0: ec88 1bbd 4451 9fbd 92f7 b2ba db43 be3d
000000e0: a5ed 163f 60c2 6dbd 199b de3d 53b4 acbd
000000f0: cf09 e53e 1fdc d13e 89c8 55bd 18b9 edbd
00000100: 254e dabd 02b6 55be e5e4 1e3d ae4a 023d
00000110: e106 953d 9cab 4d3e 8c1c f1bd 508e 6cbe
00000120: 3c96 fb3e b588 2d3f d062 edbe f891 c6bf
00000130: b12a c23e d1a0 4c3e 2d66 af3e 3be7 e33d
00000140: fd3e bdbd 7120 0b3e 6317 17be 11e9 36bf
00000150: e2d8 5abd baa0 85bc 3bd6 803b 6cf7 8fbd
00000160: 9b30 d7bd 204a 76bd 9e8e 05be 246d d2be
00000170: 830d ffbd c41e 85be 7eb7 d2bd fbf0 b93d
00000180: 4822 b2bd fbb5 863e d012 47be ea33 aa3e
00000190: 2547 4fbb ecec 193e e718 ac3d 0f0d bd3d
000001a0: 19d7 a0bc 02c2 4dbe 3e6c 51be c80e 023f
000001b0: fd62 27bf d9d3 b43b a72d 673e 6259 263e
000001c0: f752 c93e bd7e aa3e fdbe 3b3e 30cb 813e
000001d0: 2746 b9bd cdda 48be e4a7 3bbe 4185 7abd
000001e0: 80de c0be 2133 42bf a72b d43e 5bc3 fabf
000001f0: d74f 34be 2aea 30be b8b7 a23e dee0 67be
00000200: 2539 6dbf fa47 973e 424d 8ebe c580 e3bd
00000210: fcfd 49bd d5d8 59be 0286 1c3e 3a73 233e
00000220: 6450 503e bd70 233e 0da3 a93e 151f bd3e
00000230: b9ef 3c3e cc14 af3d 0c56 12be 79d4 523c
00000240: 1688 a6be f167 7240 dd8c 443e 333a 39bf
00000250: 97f3 c4be 1654 f13e f16a d8be c633 703e
00000260: fd4a 153e ff4a 513b af89 913e 3e81 0ebe
00000270: 0d67 9a3d 0f4c 0a3e 1a68 c03d 4495 d3bd
00000280: 0cbd 493e eeff 743e 2f14 7e3d daff a13e
00000290: f24e 403e c663 02be 627a bfbe 93f2 2ebe
000002a0: 0b63 773b f101 073f 44c1 3e3f fd24 ca3f
000002b0: 1b45 40be bd1d 713e acdf 293e 261d 08be
000002c0: 727a 353e f9fe d6be c97e 953c aceb ab3e
000002d0: 017e 89be d1f3 86bc c186 5fbe b7e6 4abd
000002e0: 7497 0bbe 0bbb 263e bd7e 58bd f874 62bd
000002f0: 2cc8 043e 6b21 6bbe 77df 223a 0581 b33d
00000300: 44e3 6e3f c6f3 de3d 099d 0ebf 5b43 fcbe
00000310: 3634 cdbd 14ab 953e 7929 70be b546 2f3e
00000320: a097 5e3d 0e61 b03e 0d56 2abd a25e e03d
00000330: 5cdf a33d bc85 cb3d 20a1 42be d8e4 58bd
00000340: 1999 cfbd 21f0 50be 29b7 b53d 3191 eabd
00000350: 52ec ed3c ea79 cb3d b4a0 67bd 773e 693e
00000360: 7114 8a3e b68b c63f fa43 483e bcec cbbf
00000370: 8a20 dabe f0dd 923e 7700 50be 238d bb3d
00000380: 70bf 023d 7593 e53e 4303 0a3f 1a93 8fbe
00000390: 16c0 18be 631e 9bbe 491e ac3e de7e 7e3e
000003a0: dd04 5a3e bc84 963d 97f3 193e e7ae 74be
000003b0: 9c5f dabe 38f7 9cbe b154 cfbd df96 823d
000003c0: 9c13 263f 0348 ee3f 8df6 b03e bbdc 8abf
000003d0: edc8 9d3e 315b 563e 1209 16bf 16e4 efbc
000003e0: 601f 89be 2e26 0a3f 9e1a b63e c36e 33bd
000003f0: e979 373e 50c8 613e aaaf dbbe 912e e2be
-0.54568356 -1.3720005 0.31020218 0.16406369 0.30429807 -0.21556245 0.37301934 -0.061557367
0.17061435 0.1072388 0.024713626 0.0025820218 -0.091526195 -0.052548394 0.37017208 0.17495716
0.25945622 0.088084325 -0.35502952 -0.6614156 -0.5079625 -0.0685028 0.22997698 0.03559509
0.1377471 -0.8266471 -0.18700272 0.45483136 0.27878484 0.2581033 1.0682758 -0.36686945
-0.09721433 -0.37537608 0.35698348 0.030073872 -0.02868057 -0.39282778 -0.045128103 -0.12721854
-0.16351932 -0.28956702 -0.37505296 -0.2232782 -0.32437813 0.1384111 -0.08892886 -0.100102104
0.1252245 1.0138075 -0.433576 2.137002 -0.037972376 -0.07779172 -0.0013654104 0.09290286
0.58956367 -0.0580467 0.10869426 -0.084328316 0.44734046 0.40988252 -0.0521932 -0.116075695
-0.10659436 -0.20870212 0.03879251 0.0318095 0.07276703 0.20084995 -0.11773023 -0.23101163
0.49138057 0.67786723 -0.4636445 -1.5513296 0.37923196 0.19983222 0.3425764 0.11128088
-0.0924053 0.13586594 -0.14755015 -0.7144938 -0.05342949 -0.016311992 0.0039317883 -0.07029614
-0.10507318 -0.060129285 -0.13042685 -0.41098893 -0.12453749 -0.26000035 -0.102889046 0.090791665
-0.08697945 0.26310715 -0.1944077 0.33242732 -0.0031628099 0.15031785 0.08403187 0.09231006
-0.019633817 -0.2009354 -0.20451447 0.50803804 -0.6538542 0.0055184183 0.22576009 0.16245034
0.3932111 0.3329982 0.18334575 0.25350332 -0.090465836 -0.19614716 -0.18325764 -0.061162237
-0.37669754 -0.75859267 0.41439554 -1.9590868 -0.17608581 -0.17276827 0.3178079 -0.22644374
-0.9266532 0.295471 -0.27793318 -0.11108545 -0.049314484 -0.21274121 0.15285495 0.15961924
0.20343167 0.15960975 0.3313221 0.36937776 0.18450822 0.085488886 -0.14290637 0.01286804
-0.325257 3.787594 0.1919436 -0.7235443 -0.38467094 0.47134465 -0.4226909 0.2345725
0.14579387 0.003193557 0.28425357 -0.1391649 0.075391866 0.13505577 0.09394856 -0.103312045
0.19701022 0.23925754 0.062030967 0.31640512 0.18780115 -0.12733373 -0.37398058 -0.17084722
0.0037748243 0.5273734 0.7451365 1.5792538 -0.18776362 0.235465 0.1658923 -0.13292369
0.1772249 -0.41991404 0.018248932 0.3357824 -0.26853946 -0.016473683 -0.21828748 -0.049536433
-0.13631994 0.16282289 -0.052855242 -0.05528733 0.12966985 -0.22961967 0.00062131084 0.08764843
0.9331553 0.1088634 -0.55708367 -0.49270138 -0.10019724 0.29232085 -0.2345332 0.17116816
0.05434382 0.34449047 -0.04158597 0.1095555 0.08001587 0.09937617 -0.19006777 -0.052952617
-0.10136623 -0.20404102 0.08872826 -0.11453474 0.02904335 0.09935363 -0.056549743 0.22777735
0.2696872 1.5511386 0.19557181 -1.5931621 -0.4260295 0.2868495 -0.20312677 0.09157779
0.03192085 0.44839063 0.53911227 -0.28041917 -0.14917025 -0.3029662 0.33616856 0.24853083
0.21290918 0.07349536 0.15034328 -0.23894845 -0.4265107 -0.30657363 -0.101235755 0.063764326
0.6487367 1.8615726 0.34563103 -1.0848612 0.30817357 0.20933224 -0.5860759 -0.029283565
-0.2678175 0.5396451 0.35567182 -0.043806802 0.17917599 0.2204907 -0.4290746 -0.44176152

policy_net.0.bias f4 [64]
00000000: 47bf 9ebd 2719 90bd b322 7cbe 6001 7fbc
00000010: b509 133e cf1f 93be 85d0 013e 9132 41bc
00000020: cb60 333e 73bb 303e 8bda cebd e660 053d
00000030: a732 b1be ca74 abbe 948c 8b3e 7462 aa3d
00000040: aebb 093e 06cc 8b3e c1b9 d43d 8e6c 19be
00000050: 89f7 0e3d d006 5ebd aca4 5dbe 7dfa a53d
00000060: 39fc 1fbd 7eb9 3f3d bf99 753e 7cd6 853d
00000070: c22a 2f3e 98b8 e63c 28a5 f6bd d329 9dbd
00000080: 7238 e33d 6cf3 793e a057 d0bd 212f abbd
00000090: c09d 00bd 4cc5 953c baac fdbd 5ead 7a3e
000000a0: 6e71 ad3d 6a76 8fbe d2e0 6f3d 648c 51bc
000000b0: bc74 42be 3a74 73be a422 9b3e f708 8abc
000000c0: afc5 debb 3cf8 413e ebc1 223e 5bb4 b0bc
000000d0: a614 173e 14c5 7b3e d9a1 f93c 1cbc 8f3e
000000e0: cc25 62be 60c7 fabb 7d60 1abe a107 293e
000000f0: f7a0 6e3e c44e 70be 75f0 23be d587 3dbd
-0.07751327 -0.070360474 -0.24622612 -0.015564293 0.14359172 -0.28735206 0.126772 -0.011791841
0.17517392 0.17259006 -0.101002775 0.032563113 -0.34608957 -0.3348754 0.2725569 0.0831956
0.134505 0.27304095 0.10386992 -0.14982817 0.034904037 -0.054205716 -0.21644849 0.081044175
-0.039058898 0.04680776 0.2398443 0.0653505 0.17106155 0.028164193 -0.1204322 -0.07673993
0.110947505 0.24409264 -0.10172963 -0.083585985 -0.031400442 0.018282555 -0.123864606 0.24480197
0.084689006 -0.2802003 0.058564015 -0.012789819 -0.18989843 -0.23774806 0.30299866 -0.016849978
-0.006798468 0.1894235 0.15894286 -0.021570375 0.1475397 0.24586898 0.030472683 0.28073204
-0.22084731 -0.007653162 -0.1507587 0.16506816 0.2330359 -0.23467547 -0.16009696 -0.046272118

policy_net.2.weight f4 [128, 64]
00000000: f4d5 69be 98d6 d23d e40a afbe 4b5f 72be
00000010: d7bb 8e3d 3eb7 9e3e b07a 323d 12a9 583e
00000020: 0fec b13d f6b7 f93d b353 73bd edcc 14bf
00000030: fc73 453e a626 4bbe d841 0c3e 35f4 f73e
00000040: 9740 7dbe 0b50 54bc 77cf 16be b8f1 de3c
00000050: d442 07be a4c2 0dbe fcaf 1d3e 71ba c13e
00000060: 0bc2 4e3e bcde bbbe 1a13 bdbe 6685 0d3f
00000070: ce6a 9a3d 0c55 213e a527 19bf 6320 32be
00000080: af2f b4be 068b 093d f912 d8bd 7734 21be
00000090: 910b 6d3d f237 583e de34 90be c1e4 9abe
000000a0: 31ea 783d e449 45bf 6f2e 2abe db3b 7a3f
000000b0: 0433 13be 4150 d23d efc3 443d 6411 4d3d
000000c0: 54e5 c23d 4062 23bf 7e55 6fbd 6218 b53d
000000d0: 92fb 1dbd 294f 9abe 205b 8c3e 4879 0e3d
000000e0: 8fa9 e7bd f925 a43c 98e9 8a3e 5d08 0a3d
000000f0: 5729 32be ff65 01be 7310 043e 50a3 9f3c
00000100: 578f 0fbf 3288 9b3e 8036 983e 3a0b 293e
00000110: c702 f3bf 19fa b9bd f678 843e b328 0cbf
00000120: a7e7 d43c 4e0a 37bd 6737 c5bc 191d c5bd
00000130: 0c75 803d b541 4f3e 3ab1 ef3d c075 073e
00000140: eed1 3bbe 3c45 0a3e 3074 603e 96fd 67be
00000150: 1de2 bf3d e048 5a3e 3c21 87be b2bb 4cbf
00000160: 5012 20be 0abc 8f3d 02c5 ad3e be86 963e
00000170: 7846 ba3d 4962 92bd 2fbe ba3d 857b f8bc
00000180: 5c7c 0ebf bc46 45be be56 44be a6b8 b83d
00000190: b2cc 993e 1569 d33e f672 8fbd 59f0 99be
000001a0: 386c 09bf 897c bcbd 78fe 9f3d 443d 37bf
000001b0: 127c 453e c1ec 093e de9f b63d 4602 2d3e
000001c0: 7c91 023f d6ae 1b3e 90b6 05bf 664d b7ba
000001d0: cd1c d23e e0b7 bdbe 8294 053d 4c59 dd3d
000001e0: bd71 a13c 688e 9cbe 8f95 56bd b544 45ba
000001f0: d010 9d3d 2d1a 463e a31e 6b3b 605f a43d
00000200: c108 84be ef77 d7bd ba6d f6be db39 8a3e
00000210: b7e9 fc3d 6bac 9b3e c6b4 26bd 979b ad3d
00000220: 5166 943d b5fb 7e3e 7cd0 b93c c90d 35bb
00000230: ac3c 6fbe d2e1 35bf f51d 4b3c f85b cbbe
00000240: 98ab 39be 3b04 7b3e f1ff 093f 88e4 b6be
00000250: 97c8 c43d 1342 a6bd 8a6f 313d c40a d1be
00000260: 8464 9cbe f8bd e43e 480f f0bc a383 c63d
00000270: 5b67 a33e c7c8 18be 970e fabd 2d06 563e
00000280: 4e97 563e eaaa 32b9 72b5 42be 76a8 043e
00000290: ab2c 483d 1a0a e0be fbf5 993e 4452 1e3f
000002a0: d064 f93d f702 05bf f724 22be 07fe a2bd
000002b0: bca9 c0bd 5209 0a3e 0e26 7dbd fd32 a13d
000002c0: f4dc a3bd ad0f 033e 34d9 773e 47aa b3be
000002d0: 16ce 783e f3e1 a9bd 434e 12be 58df 403e
000002e0: c471 11bf db2a a7bd 2702 48bf f39e e53d
000002f0: ff4e 983e 9695 bfbe 6c32 20be e44d 01bf
00000300: dca0 dabe 750d d63e ec45 eabe 4fb2 c5bc
00000310: e6f7 56be 7904 a5bd b8d7 d5be d1d4 f83d
00000320: 9053 ec3d 3816 ec3e 5f7f 8e3e da01 54be
00000330: 9cfe 80be 793f 823c 14be 483e 1ba4 75bd
00000340: c32d 383d f70e 463e 0c56 9fbd a46f 0fbf
00000350: e6d6 db3d 9676 c4bd 6c8b 53bd 5cc5 09be
00000360: 84e0 eebe ba7a 813e cf55 1abe 2912 f8bd
00000370: 89d1 6cbe 8de7 ffbc 78f5 c7be bbb2 26bf
00000380: 7e3a 293f 0816 583e eaea e9bd f355 273e
00000390: 2d82 a6be 1582 71bb 0d1a be3d a60e fbbe
000003a0: dfc3 f0bd 33c8 01bf dbf2 893d efa4 fcbe
000003b0: 6ecd bfbd 26c5 73bf 772f edbe dbfc 553e
000003c0: a88c 1dbf 8b84 86be 5266 143f a86b f3be
000003d0: a0c2 8e3e f908 a73e 9bc0 aa3e a902 e53e
000003e0: 6ad6 9dbe 960d bfbe d386 03be 0e82 05bf
000003f0: f485 8abe 55a1 13be 82c6 d43d b636 823e
-0.22835523 0.10294837 -0.34187996 -0.23669164 0.06969421 0.30999178 0.043574035 0.21158245
0.08687603 0.12193291 -0.059405994 -0.5812519 0.19282526 -0.19838962 0.13696992 0.48428503
-0.2473167 -0.012958537 -0.14727579 0.02721487 -0.13209087 -0.13843781 0.15399164 0.37837556
0.20191209 -0.3669337 -0.36928636 0.55281675 0.075399026 0.15755099 -0.5982612 -0.17395167
-0.3519263 0.03357985 -0.10550494 -0.1574267 0.05787236 0.21115091 -0.28165334 -0.3025265
0.060770217 -0.77065873 -0.16619276 0.9774758 -0.1437493 0.102692135 0.04803842 0.050065413
0.09516397 -0.6382179 -0.05843114 0.08842541 -0.038569994 -0.3013852 0.27413273 0.03478363
-0.113116376 0.020037638 0.27131343 0.033699382 -0.17398582 -0.12636565 0.128969 0.019487053
-0.56078094 0.30377346 0.2972908 0.16508189 -1.8985223 -0.090809055 0.25873536 -0.547496
0.025989367 -0.04468756 -0.02407427 -0.096246906 0.06272325 0.20239909 0.11703725 0.13228512
-0.183418 0.13502973 0.21919322 -0.22655329 0.093692996 0.21316862 -0.26392543 -0.799739
-0.15631986 0.070182875 0.33939368 0.29399675 0.09095472 -0.07147653 0.09118306 -0.030332336
-0.5565851 -0.19265264 -0.19173715 0.09019594 0.30038983 0.4129111 -0.07004349 -0.30066183
-0.53680754 -0.09203441 0.07812208 -0.7157786 0.1928561 0.1346922 0.08917211 0.16895398
0.5100324 0.15203413 -0.52231693 -0.0013984859 0.41037598 -0.37054348 0.03261233 0.10808048
0.019707555 -0.30577397 -0.052388724 -0.0007525192 0.07669222 0.19345923 0.0035876415 0.08026004
-0.2578793 -0.105209224 -0.4813059 0.26997265 0.12349265 0.30404982 -0.040699743 0.08476942
0.07246078 0.24900706 0.02268242 -0.0027626625 -0.23362988 -0.710477 0.012397279 -0.39718604
-0.18131864 0.24513333 0.5390616 -0.3572123 0.09608572 -0.081180714 0.043319263 -0.40828526
-0.30545437 0.44676185 -0.029304162 0.096930765 0.3191479 -0.1492034 -0.12209814 0.20900793
0.20956156 -0.00017039073 -0.19014528 0.12954888 0.048870724 -0.43757707 0.3007048 0.6184428
0.121774316 -0.5195765 -0.15834413 -0.07958608 -0.09407374 0.13480118 -0.06180387 0.07871053
-0.08001128 0.12798949 0.2420395 -0.3509085 0.24297366 -0.082950495 -0.14287667 0.18835199
-0.5681422 -0.08162471 -0.78128284 0.11211958 0.2974777 -0.37418813 -0.15644234 -0.50509477
-0.4270085 0.41807142 -0.4575647 -0.024132876 -0.20993003 -0.08057494 -0.41766143 0.121499665
0.11539376 0.46110702 0.2783155 -0.20703831 -0.25194252 0.015899407 0.19603759 -0.059970956
0.044965517 0.19341646 -0.07780084 -0.56029725 0.10734348 -0.09592931 -0.051646635 -0.13454193
-0.46655667 0.25288945 -0.15071796 -0.12112839 -0.23126806 -0.031238342 -0.39054465 -0.6511647
0.66104877 0.21102154 -0.114217594 0.16341381 -0.3252119 -0.0036851217 0.092823125 -0.49034613
-0.117561094 -0.50696105 0.06735774 -0.49344584 -0.093653545 -0.952227 -0.46325275 0.20897238
-0.6154275 -0.26272997 0.5796863 -0.47543073 0.27882862 0.32624033 0.3335007 0.44728592
-0.30827647 -0.37315053 -0.128444 -0.5215157 -0.27055323 -0.14417012 0.10389425 0.25432366

policy_net.2.bias f4 [128]
00000000: 75c9 a13d 527c b8bd 5f08 1c3e f8f1 0c3d
00000010: 6ee3 923b 6f90 9b3d 3f04 2cbd 084d aabd
00000020: 6a38 ca3c 5f0b 1b3e 280d 65be 9534 4dbc
00000030: 3e52 92bd beb2 17be a0ca c63d 6494 a13d
00000040: 112a a33d bc5a 83be 4af8 b93d c17b 563e
00000050: 9759 8ebe 0628 8f3c a8e1 36be 3817 eebd
00000060: db0e 74bc 13a1 01be e18e 2f3d 33b7 9a3c
00000070: 20d6 a63b 28ae 05bd 9900 83bd 49b0 88bd
00000080: 1a60 a6bb 301f d83c 5244 8bbe 8fe2 7dbe
00000090: eaf5 4ebe b824 543e 7c2e b23e 12b7 1f3e
000000a0: 111c cbbd 0211 8abe 3ce8 b43d 2578 5e3d
000000b0: 2789 6cbe 7604 e7bd e10c ec3c 10f3 353c
000000c0: 26aa 233e 6dd1 90be becf 90be 5e43 6a3e
000000d0: 2054 e3bd 0509 2b3e de6d 673c 2f5b 9cbb
000000e0: 11ac 1e3e 4d88 963c d34f 223b c8f3 c63c
000000f0: 83b7 3abe 120b d0bd 72ee 023e 360d 57be
00000100: 890f f0bd 2a23 52bd 585e d1bd e5db 3fbe
00000110: 0215 3e3d b866 c73c 46e9 45be 36c7 33be
00000120: 170e 3f3e 3865 bbbc 00ee 423e 9b59 493e
00000130: c4f6 c4bc 30c9 0bbe 1178 cb3d 312a d93c
00000140: 88e7 2cbb 9600 00bd b2e6 c2bc c0a8 273d
00000150: 27ed 5b3c 019f 62bd f2e5 8a3a 11ce dbbc
00000160: 2927 183e e0d0 5e3e 895e 8a3d e928 05bc
00000170: 3b75 6cbe 0db3 9c3c 8093 cbbd dc22 dfbd
00000180: 6839 4abe 007a 36be 61a2 28be 1677 bfbe
00000190: d4ba e83c c638 f5bd 20ee 97bd 4d2d 123d
000001a0: b9bd b1bc ccb3 82be da25 4f3b b48e 103d
000001b0: 3ead 66be 88f4 ed3c 8b0c ddbd 0b39 3f3c
000001c0: 5734 e7bd f41e 8d3d fb8d 533d 667d 72bd
000001d0: 3bf7 72bd 95dd e93d d066 80be 9501 01be
000001e0: 3e10 f43c 23c4 993d ec98 48be aee5 a63e
000001f0: c664 a6bd 182c 9d3c 743e 0f3e cbab bdbc
0.07899753 -0.09008087 0.15237568 0.034410447 0.004482678 0.07595908 -0.041996237 -0.08315474
0.024685103 0.15141056 -0.223683 -0.012524744 -0.07144593 -0.14814278 0.097066164 0.078896314
0.07967008 -0.25655162 0.090805605 0.20945646 -0.27802727 0.01747514 -0.17859519 -0.116255224
-0.01489612 -0.12659101 0.04286087 0.018886184 0.0050914437 -0.03263679 -0.06396598 -0.06674249
-0.005077374 0.026382059 -0.27200562 -0.24793456 -0.20210996 0.20717132 0.3480109 0.1559718
-0.099174626 -0.269661 0.08833358 0.054313798 -0.23099194 -0.11280148 0.028814735 0.011105314
0.15982875 -0.2828478 -0.28283495 0.22877261 -0.1110003 0.1670266 0.0141253155 -0.004771612
0.15495326 0.01837554 0.0024766817 0.024286166 -0.18234067 -0.101583615 0.12786272 -0.21001133
-0.11721713 -0.051303066 -0.10223073 -0.18736227 0.046406753 0.024340972 -0.19327268 -0.17556462
0.18657719 -0.022875413 0.19036102 0.19663088 -0.024043448 -0.13650966 0.0993501 0.026509376
-0.002638312 -0.03125056 -0.023791645 0.040932417 0.013423241 -0.05532742 0.0010597093 -0.026831659
0.14858688 0.21759367 0.067563124 -0.0081274295 -0.23091595 0.019128347 -0.09940243 -0.10895321
-0.19748461 -0.17819977 -0.16468193 -0.37395543 0.0284094 -0.11973719 -0.074184656 0.035687733
-0.021696912 -0.255278 0.0031608255 0.035292342 -0.22527024 0.029047266 -0.10793408 0.011671315
-0.1128928 0.068906695 0.051649075 -0.05920162 -0.05931781 0.114192165 -0.2507844 -0.1259826
0.029792901 0.07508113 -0.19589585 0.32597107 -0.0812469 0.019186065 0.13988668 -0.023153206

policy_net.4.weight f4 [128, 128]
00000000: 5867 dabd 40f6 b63d 69c9 063e 7a21 893d
00000010: 5339 aabd 3b4c 5e3e d2a0 06bd aeab 4d3e
00000020: f52a f0be 645b 9f3d e592 19bd 6af6 b73d
00000030: b2f0 ecbb 37d4 ec3d 171e 1e3f 55d6 bdbe
00000040: 53b9 7fbe a7e3 c63e b6c9 6f3e 1240 d4be
00000050: 6baf b73e 41df 803d 838d 853e 938a b1bd
00000060: b627 2abe 2849 debd 42df 74bf 53f6 bf3e
00000070: 2f2b b1bc 1483 90be 99b5 0dbf 5378 93be
00000080: 249b 51bc f2e8 d13c d814 ec3e 7545 1dbf
00000090: 19cf b8bd 81b4 ccbe 62b4 99be 2db1 11be
000000a0: 4f87 743e 984a 273e 2a25 2e3e 5a87 213e
000000b0: 10d8 b6be 29e0 9cbf 1e4f 3dbe 4bdd a4be
000000c0: c018 873e 0c32 103f 9fae ed3e 57b9 583e
000000d0: c28c 933e 5930 b0be e4e6 88be 9ef8 e1bd
000000e0: bd45 b83c d875 05bf 8a41 b4be 2460 dabe
000000f0: 0fe6 d33d 09d2 513e 240e 90bf f4dc 6c3b
00000100: f17f 22bd d108 943e 41f6 82be 0897 bf3b
00000110: b29e 4ebe 1981 e9be 9d58 94be 21ea e7be
00000120: b137 99be 7e7b 93bd 07dc b7bd c1fd 0abe
00000130: 5162 0ebe 883d 33be e5b2 9b3e f224 a7be
00000140: db01 913e 78e8 153e 31c0 b53e 9765 08be
00000150: 4111 8fbe 817b ba3e fb8f 0ebe 7cb1 a53e
00000160: b4bb 2c3c 7ecc 04bf 87d8 0f3e 5d62 bdbd
00000170: 81e7 eabb df70 c73e f290 8ebe 29c9 e63e
00000180: 6d9e 3ebe 6c3d 633e 7471 c2bd 0a4a 42be
00000190: 55d3 293e b08b ad3d 0793 c13d fdf8 a43e
000001a0: a39f 12be ea71 0bbf 8123 c33e c0fb 4c3e
000001b0: 6096 fa3d cc5d a3be b60b dd3c 6f59 fabd
000001c0: 1262 7bbe 43b8 893d be49 89be 13a9 dcbe
000001d0: ed80 1ebe 6c7b 1cbe 85ed 433d 8bee ec3d
000001e0: 9a92 843e a593 a7be 9d81 0ebf ee5a 07bf
000001f0: 3db8 4f3d a94a ea3e 08c3 1bbd 712c 55bd
00000200: 2a3d 783d dd56 babd a8eb 48bf 68c2 abbe
00000210: 2a6e 84be 9dd5 9bbc c84f 36be 74cf 083e
00000220: 0685 b7be 06c4 1cbf 206b bfbd 1001 933d
00000230: 94c5 ddbe c316 1f3d 82de 223f 61fe 473e
00000240: 96a0 32bf dee4 443d d1bf 4fbe ad68 853d
00000250: 518c 4dbe b5e4 dabe 93d1 5abe d130 d6bd
00000260: ecc1 dabe 9fbc 01ba 2767 f1bd c1f1 02bf
00000270: db46 83be a339 e23d 5630 ccbd 0a96 013e
00000280: 1035 c6bd 1884 9cbd 8c35 c4bd 96ac 40bf
00000290: 3d7b e83c 94f6 50bd 9ebb 213e 796a af3e
000002a0: cb83 433e 8455 92be 4789 163e 96e8 98bd
000002b0: 4db1 98bd 6060 ddbe ccc6 59bd b189 3abe
000002c0: 0d79 51bf 0175 633e 8b76 e63e 87b8 83bf
000002d0: 596c 38be 2315 8fbb 554b 99be 79fb b93e
000002e0: abcd 763e ee01 923c 201d 1b3e 468c f53d
000002f0: 7463 58bf cab1 dbbe 8ec8 36be 5c12 18be
00000300: bdb6 1abf 5558 af3a cad4 ff3c 79f1 0e3e
00000310: aacb 46be ed6d c7be 6547 b2be da35 ac3d
00000320: fba6 aabe acb3 38ba fa7a 5fbe b6d7 973e
00000330: bb1d 8f3e 69a3 e13d 834c 6fbe e5c6 b13e
00000340: 2c81 8bbe a999 3bbe 0046 bfbe d555 a73e
00000350: a5ab 9cbe 3dc2 65b9 60f6 8ebd 9a90 a23e
00000360: ff35 80be 07a2 b5bc 969a 7fbe 0f28 1b3e
00000370: 8ccc 9b3e f72b a9be 0239 0f3e 5fc3 1dbf
00000380: a879 19bf f006 dbbe 7c46 dc3e 612f b2bd
00000390: 7852 ccbe abd6 523e f750 c9bb ef97 fabd
000003a0: e93d 903e 1b8d 1f3e 0495 5b3e 32dd 85bc
000003b0: 0e86 6e3e 052f 943e 7020 99be 51c6 c5bd
000003c0: be04 c6bc 0c14 a0be 3917 a43e 3260 973e
000003d0: 5db0 c8be 1fbe 933d bea5 073e fa42 5bbd
000003e0: b394 843d 3207 2f3d b475 2b3e 22a7 80be
000003f0: c5cb 02be 297f 2abe 7626 53bf 4a1c ee3d
-0.106642425 0.08933687 0.1316277 0.06695838 -0.08311715 0.21708767 -0.032868214 0.20085022
-0.46907774 0.07781103 -0.037493605 0.08982547 -0.0072308416 0.11563914 0.61764663 -0.37077585
-0.2497304 0.3884556 0.2341679 -0.41455132 0.3587602 0.06292582 0.26084527 -0.08669009
-0.16616711 -0.10853797 -0.95653164 0.37492618 -0.021627037 -0.28225005 -0.5535522 -0.28802738
-0.012793336 0.025623772 0.46109653 -0.6143411 -0.09023876 -0.39981464 -0.30020434 -0.14227743
0.23879741 0.16337049 0.17006364 0.15774289 -0.35711718 -1.2255908 -0.18487212 -0.32200083
0.2638607 0.56326365 0.46422288 0.21164452 0.28818327 -0.34411886 -0.26738656 -0.11033748
0.022494191 -0.5213294 -0.35206252 -0.42651474 0.103466146 0.20490278 -1.1254315 0.003614244
-0.039672796 0.28912976 -0.25578502 0.0058468617 -0.20177725 -0.45606306 -0.28973857 -0.45295814
-0.29925302 -0.07201289 -0.08977514 -0.13573362 -0.13904692 -0.17503941 0.30409923 -0.32645375
0.28321728 0.14639461 0.35498193 -0.13320003 -0.2794285 0.3642235 -0.13922112 0.32361972
0.010542799 -0.5187453 0.14047442 -0.09247277 -0.0071687107 0.389533 -0.2784496 0.45075348
-0.18615122 0.221914 -0.09494296 -0.18973556 0.16584523 0.08473909 0.09451871 0.32221213
-0.14318709 -0.54470694 0.38113025 0.2001791 0.12235713 -0.319075 0.026983123 -0.12224089
-0.2454913 0.06724598 -0.26814073 -0.43097743 -0.15478869 -0.15281457 0.04783394 0.11568936
0.25893098 -0.3272983 -0.55666524 -0.5287312 0.050712813 0.45760086 -0.038027793 -0.052044336
0.060605206 -0.09098599 -0.7848458 -0.33546758 -0.25865299 -0.019022757 -0.17803872 0.13360387
-0.35843676 -0.6123661 -0.09346604 0.07177937 -0.43314803 0.038840067 0.6362077 0.19530632
-0.69776285 0.048069827 -0.20288016 0.06514106 -0.20073058 -0.42752615 -0.21369009 -0.1045853
-0.42726076 -0.0004949066 -0.11787253 -0.5115014 -0.25639996 0.110461496 -0.09970157 0.12654892
-0.096780896 -0.076423824 -0.09580526 -0.75263345 0.028379077 -0.051016405 0.15794227 0.3426092
0.19093244 -0.28580868 0.14700805 -0.07466237 -0.074556924 -0.4323759 -0.053168103 -0.18216588
-0.81825334 0.22212602 0.45012316 -1.0290688 -0.18010081 -0.0043665334 -0.29940286 0.3632467
0.24101894 0.017823186 0.15147829 0.11989646 -0.84526753 -0.4290908 -0.17849943 -0.14850754
-0.60435086 0.0013377765 0.031229395 0.13959302 -0.19413629 -0.38951054 -0.34820095 0.08408709
-0.3333052 -0.0007045816 -0.21824256 0.29656762 0.2795237 0.11017496 -0.2336903 0.34722057
-0.27246988 -0.18320335 -0.37358093 0.32682672 -0.30599704 -0.00021911501 -0.06980586 0.31750947
-0.25041196 -0.022171987 -0.24961314 0.15152 0.30429494 -0.33041355 0.1398659 -0.6162624
-0.5995126 -0.4277873 0.43022525 -0.08700443 -0.3990667 0.20589702 -0.006143685 -0.1223601
0.28172234 0.15581171 0.21443564 -0.016340826 0.23293325 0.28942123 -0.2990756 -0.096569665
-0.024172183 -0.31265295 0.32048967 0.2956558 -0.39197055 0.07213997 0.1324682 -0.05353067
0.064736746 0.04273147 0.16744119 -0.25127512 -0.12773044 -0.1665007 -0.8248056 0.116264895

policy_net.4.bias f4 [128]
00000000: dcc9 40be af75 b2bd fe7f 3c3d e708 37be
00000010: a9b9 86bd be27 ec3d f579 24bd 90fd 04be
00000020: 93ec 01be ae68 afbd 1002 033e 2dd9 74bd
00000030: 6019 b1ba 8acf 80be d502 a1bc 5769 ad3d
00000040: d662 75bc 52a3 a0bd 8d83 06be 2d61 f83c
00000050: e071 03be a022 c9bd 6ab1 52be fa12 c4be
00000060: f204 29be fe49 663e 3bf8 8ebd e441 0abe
00000070: 0562 30be bf25 343e 2e51 ea3d 146d 31be
00000080: 94c7 003e e099 4e3e e8aa 863d 1225 e9bc
00000090: f0c2 043d 040a 003e 78c0 c7be 20ad e13d
000000a0: 72eb ad3d 732c 45be eb68 923c 7093 c13d
000000b0: 56fa 25be 0e1d 363e 68d6 193e d738 87bd
000000c0: c5b7 ea3b 39c2 7bbe 9eae 8ebd 86e1 5c3e
000000d0: 5192 c0be 90c1 863d 70ee f33d 4c18 b4be
000000e0: 1a25 16be 8345 7e3c 2737 923d 3c92 52bd
000000f0: 2d84 95be ce96 60bd 9dfb b8be feae b63d
00000100: ad6a 01bd 7f47 70bc 34d3 92be 11cb d63d
00000110: 7e05 5cbe e46b 86be 8ac5 86bd 2646 bcbe
00000120: 893c 8c3e 4e06 e1bb 158d 283e 61be 6bbe
00000130: b807 63be 3500 723e 77c8 513e e8f6 aa3d
00000140: a30d 2dbf d221 37be 54dc dd3e 3920 5dbe
00000150: 5e06 16be 23b9 eebc 0abb 8cbd a48e 493e
00000160: 2a73 c6be 67bb cf3d a8a5 9abd 7e5b 63be
00000170: ae78 17be 0e05 2dbd da45 c9be b4f0 ec3d
00000180: 8a02 90be 7f11 6e3b 12c6 0ebe c0d7 883d
00000190: 8149 633e 609b d33d 1e90 71bc e84f b43c
000001a0: 7656 a3be 7d93 da3c ede1 873d 3fb6 adbe
000001b0: a34c 083d d503 ca3d 8b27 21be 1947 133d
000001c0: b16a cdbd ab88 2c3e af5c d83d ab40 133e
000001d0: 23aa d4bd 2f8a 083e f577 10be f092 8f3e
000001e0: 17fd 5ebe 3b0e 0a3e a1c9 45bd 3a29 e63d
000001f0: bb3c 5dbe 6b97 1dbd d00f 3e3d cd12 09be
-0.18827003 -0.087138526 0.0460205 -0.1787449 -0.065783806 0.11531018 -0.04015537 -0.12987351
-0.12687902 -0.08564888 0.12793756 -0.059777427 -0.0013511591 -0.2515834 -0.01965467 0.084673576
-0.014977178 -0.07843651 -0.1313612 0.030319775 -0.12836409 -0.09821057 -0.2057549 -0.38295728
-0.16505793 0.22489163 -0.0698094 -0.13501698 -0.17224891 0.17592524 0.11441265 -0.17326766
0.12576133 0.20175886 0.065755665 -0.02846006 0.03241247 0.1250382 -0.3901403 0.11019349
0.08492173 -0.19255237 0.017872294 0.094519496 -0.16208777 0.17784521 0.15023196 -0.06602638
0.0071630203 -0.24585809 -0.06966899 0.21570405 -0.3761163 0.06579888 0.11910713 -0.35174787
-0.1466259 0.015519503 0.07139426 -0.05140899 -0.29202405 -0.05483132 -0.36129466 0.08920096
-0.031595875 -0.0146654835 -0.2867676 0.104879506 -0.2148647 -0.2625419 -0.06580646 -0.3677227
0.27389935 -0.0068672067 0.16460069 -0.23021843 -0.22170913 0.23632891 0.20486628 0.08347875
-0.67598933 -0.17883995 0.4333216 -0.21594323 -0.14650866 -0.029141014 -0.06871612 0.1968332
-0.38759738 0.10143166 -0.07551128 -0.2220287 -0.1479213 -0.04224115 -0.39311105 0.11569348
-0.28126937 0.0036326346 -0.13942745 0.06681776 0.22196008 0.1033237 -0.014743833 0.022010759
-0.31901902 0.026681656 0.06634889 -0.33928105 0.03327621 0.09864012 -0.1573774 0.035956476
-0.100301154 0.1684901 0.10564553 0.14380138 -0.103840135 0.13333963 -0.1410826 0.28041792
-0.21776234 0.13481991 -0.04828799 0.11238332 -0.21605198 -0.03847448 0.0464018 -0.13386078

policy_net.6.weight f4 [64, 128]
00000000: c10a b4bd f5e8 473e 9005 bd3e 5fa8 27bf
00000010: 92d3 6abe 1740 91bd 0db2 483e 8c8c 413e
00000020: 3f01 e53d 082b c2be 7e98 50be 68c6 1f3e
00000030: 5559 82be bb86 ecbe 997e 95be c07f f8bc
00000040: af4e 743e de38 2ebd 288d b3bd b20a b53e
00000050: 11cb bf3e a3ac 7b3b b003 0a3e 20c1 23bd
00000060: 2bb5 09bf 3315 363e ea9a 9bbd 0e68 f63e
00000070: 7eb0 343e 09f9 24bd baf0 12bf 6505 8ebe
00000080: b6dd acbd 6325 36bf 0b12 e3be 21a8 8dbd
00000090: 984e 1abc e2a7 44bf caa0 efbd 1995 2a3e
000000a0: bf72 833d 2285 b6be 27ea 1f3e 034f 093e
000000b0: 646d 03bf 8190 963e 5e4a 18be ebf7 553c
000000c0: dcab 8abd a302 2f3f ddc5 e2be 771f bf3d
000000d0: 141d a63e 6b7c b8bb dc8c 4e3d 9e93 2c3e
000000e0: 3171 123e ea06 103d 8da0 da3e ce2f a5bd
000000f0: ab78 513c 05c2 4d3e 29b0 31be e3c4 0f3d
00000100: 301c b1be f721 013d f40c 9bbd 697f 173e
00000110: d484 723c 93fe d6be dda4 303d fed9 0bbf
00000120: 3105 843d f790 733d 0a37 2fbf 571a 403d
00000130: b248 57be 492a fcbe 712c 8cbe 57cc a0be
00000140: b4f3 793e da94 9d3c 5187 883e 1802 1fbe
00000150: 0308 f9be bd19 b7be 77a8 c73e de0c bbbe
00000160: 215b 62be c517 41bc c68c e53b 5b9d 28bf
00000170: 806c a1be 3a83 55be 1ddb c03d b2bf 67bf
00000180: 9d81 21be b856 b0bd ae9c d1bd 00ae e23d
00000190: c798 12bf 0551 7f3d 6539 253d 347d 8e3c
000001a0: 5967 f6bd 795c 98be 2e96 5a3e 29cc bdbd
000001b0: 207c 8d3e f74a be3c 5a37 ff3d e3f8 80be
000001c0: ac85 8ebe 5234 69be 814f 18be fdca 0dbf
000001d0: 2a46 1d3f 68fe 3cbf 694d 37bf f3b0 4abe
000001e0: 3715 bfbc 68fd 083e 5a8e a0be d9ee 3e3e
000001f0: f40b 97bd 87be a3be 9799 05bf 4c96 61be
00000200: 1e89 e3bd 56d4 c73d 98af 57be a2ae 903c
00000210: b3e7 ebbc 631e 753e 5f9a 093e 4b6f 85be
00000220: 9f3c 91be 871b 2d3e ba1d 323c a268 0d3e
00000230: 750f 07be c2b6 4ebe 6583 78bc bc70 a33d
00000240: eb66 b03e ec11 a0bd 8e7e 8ebd 720b 193e
00000250: 3240 f7bd 085a 4a3e 4d6e 39bc 3687 fabe
00000260: 6fbf 61bf 3a66 4dbe fb72 2abf 9dc6 26bf
00000270: fa6d 193e 9499 a0bd 2701 b1bd 2c40 37bf
00000280: 5109 8abd e2c4 7e3d c15c 763d a8f6 20be
00000290: 2682 54bd 94ee 343d 4947 973d 5ecb 3c3c
000002a0: f5f9 55be 2fa0 043e 6823 c53d 41f7 45bf
000002b0: 2492 60be 8bc3 443e 228a 2dbe 4ffb df3d
000002c0: 5f88 c9bd 6580 34be c5c5 043d 97a7 c73e
000002d0: 2f31 b2bc ea3c acbd 13f7 e53d 3e57 bfbd
000002e0: 0800 94be b880 2f3e 18e3 00be 4c91 5d3c
000002f0: 695d 283e b699 5cbc 0688 6d3c 0291 43bc
00000300: e6e8 25bd 09e4 bebe 88f1 2e3e 2236 55be
00000310: 30c4 48bf 4428 0ebe e1ec a63d 11a4 303e
00000320: 5470 963e da34 f6be 9108 b8be 832a a4bd
00000330: 4f83 863d bdea 583d 4a90 11bf 64da 58bd
00000340: 80ce 3fbd b731 5e3c 4e16 2abd 4549 13be
00000350: b229 e9be f385 d23d 96e1 9d3d a71c d4be
00000360: f413 433a fcf5 183e 3071 39be 3de9 24be
00000370: 29cb 8ebd 793e f23d 1ce4 0a3d 741a 12be
00000380: 93a2 69be 392d 25be f048 a23d bd96 bcbd
00000390: 7612 f5bc 3843 81bb 7dc3 65be c878 433e
000003a0: 754b cebe fcd8 313e c9ea 0fbe ccf6 953d
000003b0: 4f85 9dbe 5a4e da3e 457c 47bd 2337 3f3e
000003c0: ccca f8be 0c5d 263d e3a8 6cbd 6723 0bbf
000003d0: 6bbe 00be c6c5 473e 54d0 bcbe 5a38 edbe
000003e0: 9821 32bd 973a f2bd 2bfd 1a3e 1b73 91be
000003f0: ea79 ad3c dfcb 84bc 0f9b d3be 88ad 8b3e
-0.08791114 0.1952246 0.36918306 -0.6549129 -0.2293227 -0.07092302 0.19599171 0.1890127
0.11181878 -0.37923455 -0.20370671 0.1560303 -0.2545878 -0.4619654 -0.2919815 -0.030334353
0.2385814 -0.0425347 -0.08767158 0.35359722 0.37459615 0.003840246 0.13477969 -0.0399791
-0.53792065 0.17781524 -0.07597907 0.48126262 0.17645451 -0.04027656 -0.5739857 -0.2773849
-0.084407255 -0.711508 -0.44349703 -0.06916834 -0.009418152 -0.7681867 -0.1170059 0.16658439
0.064183705 -0.35648447 0.15616666 0.13409047 -0.5133879 0.29407123 -0.14872119 0.0130595965
-0.06771061 0.683634 -0.44291583 0.09332173 0.3244406 -0.005630066 0.050427303 0.16853186
0.14300992 0.035162844 0.42700616 -0.08065759 0.012785117 0.20093544 -0.17352356 0.035099875
-0.34591818 0.031526532 -0.0757083 0.14794697 0.0148021765 -0.419911 0.043125976 -0.54629505
0.06446303 0.05946442 -0.6844336 0.04690012 -0.21023825 -0.4925101 -0.27377656 -0.314059
0.24409372 0.019236017 0.26665738 -0.15528142 -0.48638925 -0.35761824 0.38995716 -0.36533254
-0.22105075 -0.011785452 0.007005307 -0.65865105 -0.3152809 -0.2085084 0.094167925 -0.9052688
-0.157721 -0.0861029 -0.102349624 0.11068344 -0.5726437 0.062333126 0.04033794 0.017393686
-0.12031431 -0.2975805 0.21346352 -0.09267456 0.27633762 0.023229105 0.12461729 -0.25189885
-0.2783636 -0.22773865 -0.14874078 -0.5538786 0.61435187 -0.73825693 -0.71602494 -0.19794063
-0.023325546 0.13377917 -0.31358606 0.186458 -0.07375327 -0.31981298 -0.52187485 -0.2202999
-0.111101374 0.09757297 -0.21063077 0.017661396 -0.028797006 0.23937373 0.13437794 -0.26061472
-0.28366563 0.16905032 0.010871345 0.13809446 -0.1318949 -0.20186904 -0.015168046 0.07980487
0.3445352 -0.07815918 -0.06957732 0.14945772 -0.12072791 0.19760907 -0.011317802 -0.48931283
-0.8818273 -0.20058528 -0.66581696 -0.6514681 0.14983359 -0.07841793 -0.08642798 -0.71582294
-0.06740058 0.06219948 0.06014705 -0.15719092 -0.05188193 0.04417284 0.073866434 0.011523096
-0.20896132 0.1295173 0.09625894 -0.77330405 -0.21930748 0.19215219 -0.16947225 0.10936605
-0.09840464 -0.17627104 0.03241517 0.38995048 -0.021751968 -0.08410056 0.11228766 -0.09342812
-0.28906274 0.17138946 -0.1258663 0.013523411 0.16441883 -0.013464382 0.014497763 -0.011936428
-0.040505312 -0.37283352 0.17084324 -0.20821431 -0.7842436 -0.13882548 0.0815065 0.17250086
0.29382575 -0.48087198 -0.35944036 -0.08015921 0.06568014 0.05295824 -0.5686079 -0.05294265
-0.046827793 0.013561658 -0.041525178 -0.14383419 -0.45539623 0.10279455 0.07709043 -0.4142811
0.0007441633 0.14937586 -0.18109584 -0.16104598 -0.069723435 0.11828322 0.03390895 -0.14267904
-0.22815923 -0.16130532 0.07924068 -0.092084385 -0.02991603 -0.0039447807 -0.22437854 0.19089043
-0.40291944 0.17367929 -0.14054407 0.073224634 -0.3076577 0.42637902 -0.048702497 0.18673377
-0.48592222 0.04061608 -0.05777825 -0.54350895 -0.12572639 0.19509038 -0.36877692 -0.46332055
-0.04348907 -0.118275814 0.15135638 -0.2840813 0.021176297 -0.016210495 -0.41329238 0.2728083

policy_net.6.bias f4 [64]
00000000: d82b efbd 5ac6 af3e 614c 6abe 1a65 78be
00000010: f90e f0be 10da 833e 1988 8abe a3ed d9bd
00000020: 5e4a 10bc 3a9c 523e d137 da3e 0e67 a8bb
00000030: fe35 b33e 312f 213e ad89 083f 5eee 883e
00000040: e05b 1ebe bb2c 80be c0f6 0e3e 9710 3d3e
00000050: c7fd babd 7587 a53e 034a c4bb 797e fe3d
00000060: 6ff4 023e a855 813e 1488 bf3e 309d 66bd
00000070: b5a4 883e f30e 533e ae60 943e 6bc4 3dbd
00000080: 1209 fabd f02c bd3e eb29 483e 72ac 693d
00000090: be8f 643d 8dc6 153e 2116 5d3e 886a dbbe
000000a0: 3929 983e 150f d9bd 9fc0 633d c055 93be
000000b0: 73ce c03e a112 f63e 45e9 2dbe fa7d 753d
000000c0: 8c07 94be a0fc adbe b095 a8be ce92 ca3e
000000d0: e525 b3be 1382 ffbb 964d 83be 7be4 54be
000000e0: 7691 073f 0bc9 d93d 0798 683c 723d 98be
000000f0: 70f0 333e d618 753e 1f97 03be 9dae 1d3e
-0.116782844 0.34331018 -0.22880699 -0.24257317 -0.46886423 0.25752306 -0.2705696 -0.10641029
-0.008806793 0.20567408 0.4262071 -0.005139238 0.3500213 0.15740658 0.53335077 0.2674436
-0.15464735 -0.25034127 0.13961315 0.1846336 -0.091304354 0.32329908 -0.005990268 0.124264665
0.12788557 0.25260663 0.37408507 -0.05630225 0.26688161 0.20611171 0.2898001 -0.046329897
-0.12208761 0.36948347 0.1954724 0.057049222 0.055801146 0.14626522 0.21590473 -0.42854714
0.2971895 -0.1059858 0.05560362 -0.2877636 0.37657508 0.48061088 -0.16983517 0.059934594
-0.28912008 -0.339818 -0.32926702 0.39565128 -0.3498985 -0.0077974885 -0.2564513 -0.20790283
0.5295633 0.10634049 0.014196402 -0.2973438 0.17572188 0.23935255 -0.12850617 0.15398641

policy_net.8.weight f4 [4, 64]
00000000: 0cab 17be 53b3 6c3d c085 b1be d554 d83d
00000010: b5da cb3d 00b8 c13d 7d97 9a3c 6c8f 6bbd
00000020: fcad 3cbe eae7 213d 7e32 b53c fe8d 183e
00000030: 9f87 10bd 7fec 3d3e 1c16 ac3c f97d 8b3d
00000040: bd38 8a3c c268 75bd 726b 5abd da45 fd3d
00000050: 7eb8 f53d 27e3 ba3d 513b 06bd 95a0 6c3d
00000060: c637 c7bd 2db8 bdbd cff9 3e3d ce18 4e3d
00000070: 8e05 0cbd 3af7 94bd cfa4 f5bc e899 57bd
00000080: 350a ae3c 3e8e e03c c6ad 51bd cba5 8ebd
00000090: 53ab 493d 34be ad3d 0fff f23b 5734 c13b
000000a0: 39ff b33d 8e6b 03be 89c0 803d 425a b2bd
000000b0: 9636 96bc 3977 47bd 05b6 c83d e6d4 6d3c
000000c0: 1eb5 70bd e0a4 993d 7687 29bd 66ec 893b
000000d0: f77e ba3e 9e87 0d3d 7236 e2bd f15e 9fbd
000000e0: e84e 1bbe 7f4b 713d 2b07 8a3d ff01 2fbd
000000f0: f30e 003e d7cc 49bd 846b ea3c 181e 71bd
00000100: 8f0d ca3c 72da 53bc ebf5 9d3e 4923 9abc
00000110: 8281 fb3d 089f aa3d 5baa 763a f005 02bd
00000120: f520 983e f79e 423c 9626 a2bc 1208 55bd
00000130: 8072 8a3d 98dd 053e 592c fb3c 3cac 1ebe
00000140: f764 923c 766a 4fbd 3e4e 90bd eaf5 933c
00000150: 1afd a53d 0845 863d 040d c73b f4c4 5a3d
00000160: 885d 14bd 5635 93bd 3409 413d c47e 143d
00000170: 83a5 2bbd 0a4d c0bd 6fcc debd 317b c63d
00000180: 4060 7e3d f5c3 d83d 4091 b2bd 62ba cb3c
00000190: af1d c13c c36b ae3d 2998 263d bbb2 ce3d
000001a0: ace1 733d 8a84 59bd 831d ea3d 2196 86bd
000001b0: 1387 bbbd 20eb 43bd 754a 4b3c 236c 863d
000001c0: 8178 9d3d b7a9 b3bd 00c9 87bb 3482 67bd
000001d0: 0e51 343e 0ff4 823d 36e7 8ebd b232 d63a
000001e0: 3768 ebbd 8601 bebd 9ad8 88bd e079 d6bd
000001f0: 902c 473d 1c48 babc df45 af3d ca45 0b3d
00000200: da76 873d 98f7 0c3c a0f2 683d 7535 41be
00000210: ccf9 13be 4ff7 4bbd 7d69 55be 473a b43d
00000220: 5d58 e33d f1c4 013e 8bb4 d9bd 425e 65bd
00000230: c606 d73d f533 963c 95f3 1bbe c2ea 33bc
00000240: 3ec3 84bd b593 b1bd b7de a6bc 676b 6bbd
00000250: 418e b3be ab4b 7a3b ecb7 8bbd 8ea0 81bb
00000260: c533 ee3d 26f8 f43d a9ee a53d ab22 a43d
00000270: e834 973d 16fa a13d 9465 bcbc 45ab ab3c
00000280: ac8c 0ebe 2f93 9dbc 8db2 19bc 3e51 4ebd
00000290: c539 6b3e 7996 c2bd fc9b 5c3d b0b3 6abe
000002a0: 3a42 8bbe ae14 9b3d 3561 aabd d6b8 6f3e
000002b0: 1af3 e03d 35a0 753e cf8d 53be a4e8 9f3d
000002c0: fdbf f33d 62f5 03bd 5f43 25bd acd8 823d
000002d0: 1b38 5a3e 6bdc d0bd d39d 973d 930c 3f3d
000002e0: f7a5 7f3e 3dd1 e93b 25e9 1dbd 2d28 443e
000002f0: b179 7fbe c41b a33d 79c7 0fbe f9b7 9d3d
00000300: 9e3e 89bd bf29 e2bd d042 77bd 09a1 12bd
00000310: 604a 1b3d 25b3 babc a469 dd3d 21b1 80bc
00000320: 24a2 86bd bed5 a73d ce0c 483c aa82 77bd
00000330: cf11 343d 5582 0fbd 26ca f13d 0179 53bd
00000340: a7dc b6bd 5d0d 3d3d 8af2 353c f87d 2a3d
00000350: 23d2 4e3c d6fb c8ba 2127 05be e179 c6ba
00000360: 180e 113a 7f32 723d 0275 edbc 6bed 04bd
00000370: b8a8 2bbd 2289 27bd d0e9 3bbb 8be1 03bb
00000380: 34ca 0e3d d72c 6a3c 51e5 363d 1de2 16bd
00000390: 1ffb cfbd bf65 033d a940 b4bd fa1a 1ebc
000003a0: 8454 903d ea75 6e3d f409 3f3d 2865 79bd
000003b0: 7c43 31bd d88c 41bd a065 ff3c 5bbd b9bd
000003c0: 590b b7bd dff2 3cbd f800 96bd 52d6 6fbd
000003d0: 884e 093d e3e7 f13d 1d6c 1f3d 5378 813d
000003e0: 286a efbd 4796 5abc 6900 9dbc c57f 83bd
000003f0: 1bf2 bb3d 7c80 73bd 7665 7dbe b268 723d
-0.14811343 0.057788204 -0.34672356 0.105630554 0.099538244 0.09458923 0.018871063 -0.057509825
-0.18425745 0.03952781 0.022118803 0.14897916 -0.03528559 0.18547247 0.021006636 0.06811137
0.016872758 -0.059914358 -0.053325124 0.12366839 0.1199808 0.09125357 -0.032771412 0.05777033
-0.09727435 -0.09263644 0.046624955 0.050316624 -0.034184985 -0.07273717 -0.029985813 -0.05263701
0.021245101 0.027411576 -0.051191114 -0.06965216 0.049235653 0.08483544 0.0074156593 0.005896132
0.08788914 -0.12833998 0.06286723 -0.087086216 -0.018336575 -0.048697684 0.098003425 0.014516091
-0.058766477 0.075021505 -0.04138895 0.004209089 0.3642499 0.034553163 -0.11045541 -0.077817805
-0.15166819 0.05890989 0.067396484 -0.042726513 0.12505703 -0.049267616 0.02861572 -0.05886659
0.024664668 -0.012930499 0.30851683 -0.018815653 0.12280561 0.08331114 0.000940954 -0.031743944
0.29712644 0.0118787205 -0.01979379 -0.05200965 0.067601204 0.13072813 0.030660795 -0.1549539
0.01787041 -0.05063864 -0.070461735 0.018061597 0.08104916 0.065561354 0.0060745496 0.053410485
-0.03622201 -0.071879074 0.047127917 0.036253706 -0.04190589 -0.09389694 -0.10878836 0.09691466
0.06210351 0.10584251 -0.087191105 0.024869148 0.023573725 0.08516648 0.040672455 0.10092684
0.05954139 -0.053104915 0.1143141 -0.065716036 -0.09156623 -0.047831655 0.012407889 0.06563594
0.07689 -0.08772605 -0.004143834 -0.056520656 0.17609045 0.06394207 -0.06977694 0.0016342013
-0.11494487 -0.09277634 -0.066819385 -0.104724646 0.048626482 -0.022739463 0.08558249 0.034002103
0.06614466 0.008603953 0.05687201 -0.18868048 -0.14450759 -0.0497964 -0.20841022 0.08800178
0.11100838 0.12672783 -0.10630139 -0.055998094 0.10499339 0.018335322 -0.15229638 -0.010981264
-0.06482552 -0.08670751 -0.02036987 -0.057475474 -0.3506947 0.0038192074 -0.0682219 -0.003955907
0.11630968 0.11961393 0.081021614 0.08014425 0.07383138 0.07909028 -0.022997655 0.020955691
-0.1392085 -0.019235222 -0.009380949 -0.050370447 0.22971256 -0.09501357 0.053859696 -0.22920108
-0.27198964 0.07572304 -0.08319322 0.23410353 0.10983868 0.23986895 -0.20659564 0.078080446
0.11901853 -0.032216437 -0.040347453 0.06388983 0.21310465 -0.101982914 0.074031495 0.04664285
0.24965654 0.007135539 -0.038552422 0.19155951 -0.24948765 0.0796428 -0.14040937 0.077011056
-0.067013964 -0.11043119 -0.06036645 -0.035798106 0.037912726 -0.0227905 0.10811165 -0.015709462
-0.065738946 0.08195065 0.012210084 -0.060427345 0.043962296 -0.035036404 0.11806135 -0.05162907
-0.08928805 0.046155322 0.011105189 0.04162404 0.012623343 -0.0015333842 -0.13003208 -0.0015142524
0.0005533411 0.059130188 -0.028986458 -0.032452982 -0.04190895 -0.040902264 -0.0028673299 -0.0020123448
0.034860805 0.014292917 0.044652287 -0.036836732 -0.101553194 0.032079455 -0.088013954 -0.009649986
0.0704737 0.05821792 0.04664035 -0.060887486 -0.04327725 -0.04725346 0.031176388 -0.0906932
-0.08937711 -0.046130057 -0.073244035 -0.058554 0.03352216 0.11811807 0.038921464 0.06321778
-0.116901696 -0.013341493 -0.019165235 -0.064208545 0.09177037 -0.059448704 -0.24745736 0.059181876

policy_net.8.bias f4 [4]
00000000: c075 b43d 9878 8d3a 8676 bd3d 1b8a 493e
0.088115215 0.0010793386 0.09251122 0.1968159

inverse_net.0.weight f4 [64, 48]
00000000: 145f a83d f009 943f b8ee d7be 8827 5d3e
00000010: b757 f3bd cebd 983e 5786 85be 2958 9d3e
00000020: 674b ba3d 7a42 bc3e 20d6 8ebe b56c 64be
00000030: f01b 87be f42b c0ba 70db f0bc 24c8 213e
00000040: d737 aabd 44ad 1fbd 1a2a a33d 47b1 bc3c
00000050: d7d0 d8bc 5127 adbd 6bb4 66bd 5ee5 27be
00000060: 67b4 503e f0d4 92be 3272 2abe cd04 eabf
00000070: 85b4 533d 462e 7b3c 4485 2cbf 93a8 11bf
00000080: f28a 8dbc 7187 a83e 8434 093e c37a e9bd
00000090: 7380 253e 400f 86be 4a6f 01bd 6e43 aa3d
000000a0: c615 a2bc 960e c13d 7c54 4b3d 8b9b e33d
000000b0: f2a9 a83d 95b5 f7bc d9dc e5bd 7704 06bd
000000c0: df46 6e3d 57d8 513f 8baa bb3e 2279 8c3e
000000d0: 988c e43d 9637 71bc c78e b8bc 679f ee39
000000e0: c04e 60bb 6977 233e 086c 7d3d 6168 cebd
000000f0: 2133 263b 39df 5c36 a849 94bd 6d52 183c
00000100: 58be 0fbd 74bf cdbd 7c7a 4ebb f65b af3d
00000110: 9bb8 02be 137d 953d d62e 32be 4094 5c3e
00000120: 20ee 0fbd 6f00 dabf e434 e1be 2243 7b3f
00000130: de8b 5b3d 7356 02bd 38ef 293d 261a b8bc
00000140: 3750 0cbc f9f7 5c3e e0b5 a640 53e2 85ba
00000150: e52c 65bd 27c5 06bc 44da a43d 583b a8bd
00000160: 6726 7dbd 223a 563c a57e 2bbd 019a 85bd
00000170: 16ee 7dbd 39e5 36be bb80 ad3d 3bcc 2fbd
00000180: 3451 ce3e ca31 b0bf 9bc3 143e 9eb0 513e
00000190: 5d35 cebe f821 923e 95c9 f0be 8c48 54be
000001a0: b1a8 113c 86fd b4bd 8fd7 b7be a29a 053e
000001b0: e792 bdbe cdd3 393e 30bf 113d fe76 c7bd
000001c0: b8d4 57bd 47e5 a2bd 7070 08be 9f12 f0bd
000001d0: b7f1 32be 7222 56be 35e3 27be dd05 74bd
000001e0: c79f a33e fd70 143f d6fc ebbe a091 25c0
000001f0: 2ee6 1abf ade3 8fbe 84d2 3ebf e0a3 10be
00000200: bf0c ebbd 056e adbd 211e 0a3d 07a4 183e
00000210: 1f15 2cbe f80d 5c3d 35da 67be 7197 ad3c
00000220: 446c 773c 5f7f 32be 2c47 2abe 2b54 5bbe
00000230: e4f1 20bd 09d5 81be d08e 49be 5b00 753d
00000240: 11ac d9bd ed3f 3740 b066 c13e 621d 6abf
00000250: 038c 763e d4a1 21bf be9e 94be da96 0ebe
00000260: 07eb 62bd 2160 073e ed12 e4be f241 a6bd
00000270: e172 323d 34a3 133e 76fc cfbd bd83 d6bd
00000280: 6452 2abe 2cc1 29bd 5631 593d a6e5 aabc
00000290: a710 c6bd 1c73 c83d 29ff 8c3e 5471 35bd
000002a0: cdda bebd 1df4 883e e676 b03f 5c6f d4be
000002b0: 748b 833e ad8a 243f 752a 64be dde2 dabe
000002c0: 90b3 23be 8007 923d b3aa e33d b7b3 f43d
000002d0: cc5e 403e f885 58bd faae 21be 7764 26be
000002e0: 612e 02be 32fc 16be 155a c0bd 9154 cfbb
000002f0: 4e27 21be a7fd fc3d a28e a83e 52f1 a2bd
00000300: cc71 febe a168 0ebf 756e ddbf 6d65 9f3f
00000310: 6c9d 263e f5ef c4be bfdf eb3e ede8 b5be
00000320: 27ad d43d 4814 88be 3b06 dcbd 5d53 833e
00000330: bef7 5fbe 9718 84bd a157 38bd 21ec 91bc
00000340: 2bae 1fbe a615 733c 1d00 27be 90b0 c83c
00000350: 92da 13bd f4f4 58be 6191 66be 313f f23d
00000360: 83dd 54bf 180b 59c0 8af9 a7bc 433d 02c0
00000370: f10a d53d 52f2 0e3f 163e 1b3f 42c9 063f
00000380: 11b6 12bd 56e4 b2be b962 89bd 49dd 58bc
00000390: 542b 2ebe 0b18 883c 55b4 89bd e26a a1bc
000003a0: 2233 09be b9d6 1dbe 33a9 123d 39e2 38bd
000003b0: a3fd 04be 4c00 15be 0115 16be cf6a 7e3d
000003c0: c873 33be d173 ac3d 3064 53bf 1cdb bcbf
000003d0: cedb b4bd febf cb3e 10b8 173e 9061 983e
000003e0: 8dc1 fabd e7c9 d7be 158d 71bf 0a0b f8be
000003f0: ee30 0b3e 9f09 00be d00b b33c 4c14 02bd
0.0822126 1.1565533 -0.42174315 0.21597111 -0.11881965 0.2983231 -0.26079056 0.30731323
0.09096413 0.36769468 -0.2789774 -0.22307093 -0.26388502 -0.0014661537 -0.029401511 0.15799004
-0.08311432 -0.0389836 0.079670146 0.023033751 -0.02646677 -0.08454765 -0.056324404 -0.1639609
0.20381318 -0.28678083 -0.16645125 -1.8282715 0.05168583 0.015330857 -0.6739085 -0.5689785
-0.017278168 0.32915834 0.1339894 -0.11400368 0.1616228 -0.2618351 -0.031600274 0.083136424
-0.019785773 0.0942661 0.049641117 0.11113652 0.082355395 -0.030237952 -0.11223764 -0.0327191
0.058173057 0.81970733 0.3665355 0.27436167 0.11159629 -0.014722725 -0.022529019 0.00045513661
-0.0034226626 0.1596352 0.061870605 -0.100785024 0.0025360065 3.2912487e-06 -0.07240611 0.009296996
-0.035093635 -0.100462824 -0.0031506112 0.08562462 -0.12765734 0.07299247 -0.17400679 0.21540928
-0.035139203 -1.7031382 -0.43985665 0.9814931 0.053600185 -0.031820726 0.041487902 -0.022473406
-0.008564047 0.21578969 5.2097015 -0.0010214545 -0.055951018 -0.008225716 0.08049443 -0.08214444
-0.0618042 0.013075383 -0.041868825 -0.065235145 -0.061994635 -0.17860879 0.08471819 -0.04291938
0.40296328 -1.3765194 0.14527743 0.2047753 -0.40275088 0.2854154 -0.47028795 -0.207308
0.008890317 -0.08837418 -0.35906646 0.13047269 -0.3702614 0.18147202 0.03558272 -0.09739493
-0.0526931 -0.079538874 -0.13324142 -0.11722302 -0.1747502 -0.20911577 -0.16395266 -0.059575904
0.31957838 0.57984906 -0.46091336 -2.5870132 -0.60507476 -0.2810339 -0.7453997 -0.14125013
-0.114770405 -0.0846825 0.03372014 0.14906321 -0.16804932 0.05372426 -0.22641833 0.021190377
0.015101496 -0.174314 -0.16628712 -0.21418826 -0.039293185 -0.25357845 -0.19683385 0.059814792
-0.10628522 2.8632767 0.37773657 -0.91451085 0.24076848 -0.63137555 -0.2902736 -0.13924733
-0.05539992 0.13220264 -0.4454569 -0.08118047 0.04356659 0.14417726 -0.10155575 -0.10474346
-0.16632992 -0.04144399 0.053025566 -0.020861458 -0.09671145 0.0978758 0.27538422 -0.04429753
-0.09319077 0.26748744 1.3786285 -0.4149121 0.25692332 0.642741 -0.22281821 -0.42751208
-0.15986466 0.07130337 0.11116543 0.119483404 0.18786162 -0.052862138 -0.15789405 -0.16249262
-0.12713005 -0.14744642 -0.09392182 -0.00632722 -0.1573765 0.12353068 0.3292132 -0.079561844
-0.49696195 -0.556284 -1.7299334 1.2452828 0.16270989 -0.38464323 0.46069142 -0.3552927
0.10384589 -0.26577973 -0.10743376 0.2564954 -0.2187185 -0.06450003 -0.045005444 -0.01781279
-0.15593784 0.014836704 -0.16308637 0.024498254 -0.036097117 -0.21187192 -0.22516395 0.11828459
-0.831505 -3.391302 -0.020504732 -2.034989 0.104024775 0.558385 0.6064161 0.52650845
-0.035818163 -0.34939831 -0.06708283 -0.013236352 -0.17008716 0.016613027 -0.06723849 -0.019704286
-0.13398412 -0.15413941 0.035805892 -0.045137618 -0.1298738 -0.14550894 -0.1465645 0.06211358
-0.17524636 0.08420528 -0.8257475 -1.4754367 -0.08830987 0.39794916 0.14816308 0.29761934
-0.12243948 -0.42146227 -0.943559 -0.48445922 0.13592884 -0.1250367 0.021856219 -0.031757638

inverse_net.0.bias f4 [64]
00000000: 16c8 07be 9514 3c3e f1a6 1f3e 704e 90bd
00000010: e156 d83d 70d5 abbd 2cce 3ebd a7d6 f3bd
00000020: f04b 3abe a7a7 1c3d 35e6 10be 9eab da3d
00000030: 969b a2bd 098c 0ebe 13f4 8cbd 57d1 54be
00000040: 8128 45be 0540 3c3e 9e67 683d 87af 00bd
00000050: 979e bd3d 4a11 2d3e a4cc 05be 1061 023c
00000060: b4b7 8cbc 0a08 7abd a895 22bd eb78 1fbd
00000070: dfa3 91bd e125 23be 94f9 81be 8a22 3cbe
00000080: c2ad 71bd 1f23 b33d 79a5 b4bd ba4c 55be
00000090: dde8 1ebe bd34 3cbd 50f3 2cbe f129 c8bd
000000a0: fac8 7a3a df02 fbbc 6d03 6a3c 04ea 543e
000000b0: db6e da3d fb12 43bd eeb2 fe3c 1572 05bd
000000c0: d0a8 a9bc b1ca a4bb 1e5e 5c3d b5c9 10be
000000d0: 0afa a23d 7a3e 83be 6ad2 03be 4e5c ca3d
000000e0: d9a5 82bd 3d87 05be 3d72 b3bd 230c 0a3e
000000f0: 79d3 8d3c 68c7 f4bd 9e38 153e 4db2 3abd
-0.1325992 0.18367226 0.15591027 -0.07046211 0.10563446 -0.08390319 -0.04658334 -0.11906176
-0.1819303 0.038245823 -0.14150317 0.10677265 -0.07939832 -0.13920607 -0.06882491 -0.20782982
-0.19253732 0.18383797 0.056739442 -0.031417396 0.09258764 0.16901127 -0.13066345 0.007957712
-0.01717744 -0.061042823 -0.039693505 -0.038933676 -0.07111334 -0.15932418 -0.25385725 -0.1837255
-0.0590036 0.08746933 -0.08820624 -0.2083005 -0.15518518 -0.045948733 -0.16889691 -0.09773625
0.0009566691 -0.030641017 0.014283043 0.20792395 0.10665675 -0.047625523 0.03109118 -0.0325795
-0.020710379 -0.0050290455 0.053800695 -0.14139445 0.079578474 -0.25633603 -0.12873235 0.09880887
-0.06379289 -0.1303987 -0.087620236 0.13481192 0.017312752 -0.11952096 0.14572379 -0.045580197
