IL/Model/model_reacher_86.pt (torch, 292527 bytes, 20 tensors)

policy_net.0.weight f4 [64, 24]
00000000: cfd7 32bf 2578 c4bf ef74 b83e b480 013e
00000010: 0410 b83e 3ca2 78be c1a8 e63e 1097 93bd
00000020: 8444 4b3e 8fbd 383e 60f6 dc3c 1216 36bd
00000030: 9e4f 97bd f1b3 4abd ebcf dc3e 0752 583e
00000040: 996e 863e f68f 433d 2031 ecbe 36a3 4fbf
00000050: 4ebd 15bf e967 3ebd 4295 8d3e f870 743d
00000060: 6860 763e c25d 88bf 0208 92be 6ee0 f63d
00000070: ef05 a53e f14c a43e a684 983f 914f cfbe
00000080: edc7 01be 8464 ccbe 5092 e53e 355f 143d
00000090: 1767 d3bc bf56 d4be 8a18 30bd 4331 fbbd
000000a0: d7bd 26be 3912 9abe 2123 d3be 43e4 91be
000000b0: c5aa c3be 18f3 a73d b117 22be d9a5 85bd
000000c0: 857f f43d cc8d 833f 546c 12bf b11d 2040
000000d0: b9a5 92bd 5a31 1fbe 31cc cd3a 20b6 cd3d
000000e0: f53f 353f 43cf 9fbd c9cb f13d 632e 8fbd
000000f0: 8fb0 133f 152a e53e e925 01be a9ce 3cbe
00000100: 7b95 2abe bf90 85be fc2e 893b a13b f33c
00000110: d376 b13d 9538 513e 98f6 17be 5d1a 8abe
00000120: cca3 0b3f 7b05 503f 0e04 10bf 182b eebf
00000130: 099d e73e 820c 633e 6c58 f03e ac75 163e
00000140: bb70 acbd 9979 343e 4671 35be f4be 53bf
00000150: b855 94bd 96b3 c1bc ce30 dbbb bd47 aebd
00000160: 6ffc f8bd 9baa 99bd 288b 17be 6da8 dcbe
00000170: 543a 0bbe 1826 86be 3c20 0cbe 7c2a a23d
00000180: 24af 9dbd eb7d ae3e ac68 72be a198 b63e
00000190: aa30 29bc d613 2e3e 9d27 f23d 3434 cd3d
000001a0: 5f2f 2ebc 4eee 6fbe 98de 66be 2935 093f
000001b0: 6323 3cbf 7389 63bb 5cce 813e 439b 473e
000001c0: c6fb d83e e32a b83e 3f52 513e c9a5 823e
000001d0: 2a1d e5bd b757 72be 4705 68be 1ea8 51bd
000001e0: 983d cabe 9df3 9ebf 2ed8 063f 8a9a febf
000001f0: 7551 1fbe 253b 1dbe 7129 a93e 9e28 73be
00000200: aea1 6bbf 1148 c13e 2894 9fbe 0e2b 84bd
00000210: 8e9a cdbd b892 8abe 48c3 0b3e 0712 143e
00000220: b0ab 493e 6cbc 353e 8ef6 ca3e 9508 f63e
00000230: 68dc 8a3e 70a9 f93d c102 29be 6b12 92bd
00000240: 6d3a cebe ea2e 9c40 7162 603e a19a 82bf
00000250: e605 e7be a5e9 1a3f bcd7 ddbe fbc7 893e
00000260: 7089 1b3e 0026 46bd fe0f a03e 448f 19be
00000270: 0d7b aa3d 8741 053e 5f2c 113e 7ea5 6dbd
00000280: 9275 743e bd6c 8e3e dd9b c63d 6436 a83e
00000290: 0b6c 283e 7165 26be fa44 debe 0e26 2dbe
000002a0: 6a71 173c ce28 0f3f 1abc 623f a9c6 e33f
000002b0: 65d7 62be 2292 513e ad7d 473e 8e7b e2bd
000002c0: 24b7 203e d309 e2be e536 2d3c a317 dd3e
000002d0: 580f 91be cb38 893c ecf6 8cbe 43b7 afbd
000002e0: 9dd6 19be bc96 2e3e 912f 91bc 8436 e6ba
000002f0: c766 203e 0b40 85be 89e5 45bd 3694 a33d
00000300: 81df 893f 81ce e63d 2336 2dbf f54d 39bf
00000310: 2b3e c5bd e5e4 b03e 6e5b 9ebe 4855 463e
00000320: 5720 e23d ba9b da3e b99a 57bd 5e36 2c3e
00000330: a1d8 e63d 5cad 0c3e 1b08 58be d5df 8dbd
00000340: d59e e7bd 5137 57be ccff b23d b98c f1bd
00000350: 57bc 5e3c 0e92 9f3d c30d 8dbd 663a 713e
00000360: f3c5 b33e 1e23 c63f 7862 4c3e b611 fabf
00000370: 3e47 01bf 2d3c a93e 403e 81be 1042 ba3d
00000380: e798 043d e803 013f c939 223f 7127 b2be
00000390: 6db5 20be d6ea b2be fd2d c33e face 913e
000003a0: 71e3 793e 7236 c43d c845 1b3e c538 8fbe
000003b0: 054d f4be 825a a4be 356e 00be 3049 953d
000003c0: 0312 393f d510 0840 3da0 c13e 2d16 76bf
000003d0: a4d7 c03e 5a16 0c3e 2d34 27bf b32f 90bd
000003e0: 4ce5 a2be 4478 1b3f 3f09 b43e 0d88 e5bc
000003f0: d29f 393e b97d 7b3e 945c 11bf c5c7 0cbf
-0.6986055 -1.5349165 0.36026713 0.12646753 0.3594972 -0.24280638 0.45050624 -0.07206547
0.19850355 0.18041061 0.02697295 -0.04445464 -0.07388233 -0.04948801 0.4312738 0.21125041
0.26256254 0.047744714 -0.4613123 -0.81108415 -0.5849198 -0.046485815 0.27652937 0.059678048
0.24060214 -1.0653613 -0.28521734 0.12054525 0.3223109 0.32089952 1.1915481 -0.40490392
-0.12673922 -0.39920437 0.4483819 0.03622361 -0.025805993 -0.41472432 -0.042992152 -0.12265255
-0.16283356 -0.30092028 -0.4123774 -0.28494462 -0.38216224 0.08200663 -0.1582935 -0.065257736
0.11938385 1.0277648 -0.57196546 2.5018122 -0.07160515 -0.1554617 0.0015701113 0.10044503
0.70800716 -0.07803204 0.11806447 -0.069912694 0.5769128 0.4475867 -0.12612118 -0.1843821
-0.16658585 -0.26086995 0.004186509 0.02969152 0.08665242 0.2043174 -0.14840162 -0.2697324
0.5454681 0.8125836 -0.56256187 -1.8606901 0.45236996 0.2217274 0.4694246 0.14693326
-0.08419939 0.17624511 -0.17718992 -0.82713246 -0.07242912 -0.023645204 -0.0066891676 -0.08509777
-0.12157523 -0.075032435 -0.14799178 -0.4309725 -0.13596469 -0.26200938 -0.13684171 0.079182595
-0.07699421 0.34080443 -0.23672742 0.35663322 -0.010326544 0.16999754 0.11823962 0.100197226
-0.010631411 -0.2343075 -0.2254585 0.5359674 -0.73491496 -0.0034719377 0.25352752 0.19492821
0.42379588 0.3597022 0.2044153 0.2551711 -0.11187203 -0.23666273 -0.22658263 -0.05118572
-0.39500117 -1.2418095 0.52673614 -1.9890912 -0.15558417 -0.15354593 0.3303943 -0.23745963
-0.9204358 0.37750295 -0.31167722 -0.064535245 -0.100392446 -0.27065063 0.13648713 0.14460002
0.196944 0.17747658 0.3964123 0.48053423 0.27121282 0.12190521 -0.16504957 -0.07132419
-0.4027895 4.880727 0.21912552 -1.0203439 -0.45121688 0.60512763 -0.43328655 0.26910385
0.15189147 -0.048376083 0.312622 -0.14996058 0.08324251 0.13013278 0.14177082 -0.058019154
0.23872975 0.27817336 0.09697697 0.32853997 0.16447465 -0.16249634 -0.43412 -0.16909048
0.009243349 0.5592164 0.8856827 1.7795001 -0.22152479 0.20465901 0.19481535 -0.110587224
0.15694863 -0.4414812 0.01057217 0.43182096 -0.2833202 0.016750714 -0.27532136 -0.08579876
-0.15023275 0.17049688 -0.017722877 -0.0017563854 0.15664206 -0.26025423 -0.048314605 0.07987253
1.0771333 0.11269856 -0.6766073 -0.7238458 -0.09630998 0.34549633 -0.3092913 0.1936847
0.110413246 0.42696935 -0.05263779 0.16817614 0.112717874 0.13738006 -0.21096842 -0.06927458
-0.11309592 -0.21017195 0.08740196 -0.11794419 0.013594708 0.077915296 -0.068873905 0.23557433
0.3511196 1.5479467 0.19959438 -1.9536655 -0.5049933 0.33053723 -0.25242805 0.09094632
0.03237238 0.50396585 0.63369423 -0.34795716 -0.15694208 -0.3494479 0.38121024 0.28478223
0.24403168 0.09580697 0.15163338 -0.27973 -0.4771501 -0.32100302 -0.1254204 0.0728935
0.7229311 2.1260273 0.37817565 -0.9612759 0.3766452 0.13680401 -0.6531399 -0.07040348
-0.31815565 0.60730386 0.35163304 -0.028018976 0.18127373 0.24559678 -0.5678189 -0.54992324

policy_net.0.bias f4 [64]
00000000: eb5f 48bd bbd7 03bd c698 92be 26ed babc
00000010: 4869 223e 6d96 bebe 62c2 003e bc79 b2bc
00000020: a3fd 3f3e ab15 3b3e 84c3 b0bd 966a 8a3c
00000030: 92e6 e4be cad4 bdbe ab06 9c3e cc56 843d
00000040: 919e e23d 8b44 953e 9b0f 093e 6ca4 1fbe
00000050: 320e fd3c 9205 18be 083f 72be 62b6 863d
00000060: 76bd 13bd 6af6 e73d ae98 973e 829a de3d
00000070: db0a 2a3e 59a5 23bb e86e 0cbe 8756 6cbd
00000080: f037 203e 421e 7c3e 0e36 88bd 7f2f c2bd
00000090: d51a dbbc 7bff a538 69e4 01be 81fb a33e
000000a0: 40c2 ae3d e7a3 a0be 3b89 cf3d 198f 00bd
000000b0: d05c 57be 3a06 8cbe 0c18 c73e abee 9abc
000000c0: e3ae d5bc 6148 7e3e cf30 2b3e 5b14 ebbc
000000d0: 31c8 1a3e 1ace 853e 6a97 393d bf16 a43e
000000e0: 699d 95be 4ae8 6abc f74b 45be 9f6e 303e
000000f0: 39a5 a03e 49a9 8abe 8fc6 2bbe 9112 15bd
-0.0489196 -0.03218816 -0.28632182 -0.02281816 0.15860474 -0.3722414 0.12574151 -0.021786563
0.18749098 0.18269984 -0.08631042 0.016896527 -0.4470716 -0.37076408 0.30473837 0.06461868
0.110654004 0.29153857 0.1338486 -0.15590066 0.030890558 -0.14845875 -0.23656857 0.065777555
-0.036069356 0.11326297 0.29608673 0.10869314 0.16605704 -0.002497038 -0.13714182 -0.057699706
0.15646338 0.24620917 -0.06650935 -0.094817154 -0.026746193 7.9154e-05 -0.12684788 0.3202782
0.08533144 -0.31375048 0.101335965 -0.03138647 -0.21031499 -0.273485 0.38885534 -0.018912634
-0.026084369 0.24832298 0.16717838 -0.02869623 0.1511543 0.26133806 0.045310415 0.32048604
-0.29221657 -0.014337609 -0.1926726 0.17229699 0.31376055 -0.2708228 -0.16774963 -0.03639466

policy_net.2.weight f4 [128, 64]
00000000: 3f3e 75be 19da 133e 1982 9fbe 2142 83be
00000010: c2e1 893d 9c81 b23e 13b6 633d e9d8 5b3e
00000020: 6874 0b3e 90b8 fa3d 594f e4bd 056c 47bf
00000030: 23cc 453e 62a2 7bbe e61e 373d 9230 0b3f
00000040: 474a 9dbe c605 0e3d bcbc 25be 8e51 a13b
00000050: 6490 25be aa3c 4ebe 945a 293e fc1d e73e
00000060: d58c 613e a5ce c7be 85b8 bfbe 11d7 323f
00000070: 7965 c53d fc04 2d3e ea00 58bf 2238 3ebe
00000080: 34f7 d9be 9023 7c3c da14 f6ba b5c1 2fbe
00000090: 8749 053e d7eb 1d3e d31a 68be e8c2 b9be
000000a0: 5790 3c3e 95bd 6bbf 9ef9 27be a348 993f
000000b0: 42ef 1dbe c550 1e3e 3f7b d63d 3492 b83d
000000c0: c710 f93d bf3f 45bf e160 1fbc d5f7 023d
000000d0: 296d 08be f8a5 9bbe 8c82 a43e 7b21 a43d
000000e0: 557b e7bd eb51 3e3d 9d8d 8e3e 1588 30bc
000000f0: eed7 8abe 7a1c a6bd 86b1 5a3e 947d bf3b
00000100: 24cb 38bf f095 483f cf75 c03e 8e8a a63e
00000110: f91a 1dc0 6260 98be 711b aa3e 7f42 21bf
00000120: 9f29 173d b555 9fbd 34b5 5e3c b72a 94be
00000130: 13e2 ab3d f8ef 1c3e a79c ca3d 890c 183e
00000140: 6c38 3fbe d67c 233d 8027 923e f414 0cbe
00000150: 329f b73d 12bf 763e a5a2 7abe 62e9 56bf
00000160: 2d0c 46be 3741 adbd 5301 f43e 2b7d cc3e
00000170: f159 bb3d 6e5b 64be b9ba 523d d54a d1bd
00000180: 285c 09bf 9fc4 05be fe20 56be 7e77 ad3d
00000190: 7674 ce3e b906 103f 9680 773d 44d5 94be
000001a0: 828e 09bf 10ff 10be 6f26 4c3e 8bff 47bf
000001b0: 9b35 6f3e 991e f03d b6e0 103e abc1 233e
000001c0: 378f 193f c471 ff3c ce98 20bf 3806 f63d
000001d0: d573 f13e 96a6 aebe 699a fd3d b99a 423e
000001e0: 89d8 dbbd 5e7c a0be 8da3 36be d7e2 fb3d
000001f0: 1612 263e ce5f 713e 9dd4 0bbe a2ce 90be
00000200: 3917 acbe e01f 91be fd32 0dbf 9b8f 883e
00000210: 5f07 233e db9b 1e3e ffb4 23be f13a 813d
00000220: 5ad4 88bb 50f3 9a3e a64c b7bb 041f f2bd
00000230: b413 5cbe ffdb 23bf 64a8 483e ef5d d9be
00000240: f306 94bd 14c8 173e dfc8 e73e 79f1 3dbf
00000250: 096e 0a3e a01e f5bd b567 5f3e f8f3 debe
00000260: c1e0 f3be 19b5 e53e 759d 3bbd 5778 0f3e
00000270: df40 ce3e 075c debd e53d 61bc e8fd a93e
00000280: f4e5 893e 5ecc 773d dfe6 a7be 2f39 f73d
00000290: 60ff 443e 099f b9be d40a bf3e 81f5 533f
000002a0: bfa0 003e d3ee 39bf c488 26be ec4a 8f3c
000002b0: bf5d 6bbd b7d8 183e 8e72 24be d4df 51bb
000002c0: ab1a 86bd db06 9e3d d7cc 273e b54e a3be
000002d0: 8d66 9e3e f9a1 bc3b 2b61 1cbe 89f6 8d3e
000002e0: 51cf 32bf d81f 7bbd 435a 5fbf ba86 183e
000002f0: 38db de3e 2ca1 c5be 6851 88bd 0c76 3dbf
00000300: f6f9 f2be 690b e83e 493e d6be 19f4 863d
00000310: 86fa 89be b1fb 99bd 6ebf e2be d4b8 7a3d
00000320: cd90 7f3e 55e9 f53e 4b44 9a3e b558 29be
00000330: 5110 babe 07d6 423d a8a0 f03e e57f 4cbd
00000340: 934d 243e 0723 353e 1090 00bd 086b d9be
00000350: 5bcd 4e3e 3dfb 6ebe bf16 88be e9f6 53be
00000360: a6b5 08bf bdd8 c23e d29a aebe a9c5 00be
00000370: 0b44 1ebe 4b4f fabc fd62 bfbe c4fb 02bf
00000380: 41a0 443f 65e9 b83e 553c 31be 9fe1 493e
00000390: a946 fdbe 15e8 d4bd 8a23 bf3d bbef 23bf
000003a0: 14f0 22be 723a 0ebf 5af6 fc3d 61c1 10bf
000003b0: 6d91 09be d57a 66bf 1c6a 04bf 41e7 523e
000003c0: c112 24bf a37e 83be 1c36 293f 7418 d9be
000003d0: 40d9 a63e eb87 e83e f7d3 ab3e 5375 143f
000003e0: 8adb acbe 4fb9 cebe 63da 3ebe 1fb2 0cbf
000003f0: ac7e 1abe 3ded 77be 012e f7bd f723 cf3e
-0.23949526 0.14438666 -0.31153944 -0.2563639 0.06732513 0.3486451 0.05559356 0.21469463
0.13618624 0.12242234 -0.11147947 -0.778992 0.19316153 -0.24573663 0.0447072 0.5437099
-0.30720732 0.034673475 -0.16185278 0.004923052 -0.16168362 -0.20140329 0.16538459 0.45140064
0.2202638 -0.39024845 -0.37445465 0.69859415 0.09638495 0.16896433 -0.84376395 -0.185761
-0.42571414 0.015389338 -0.0018774525 -0.17163737 0.1301633 0.15421997 -0.22666483 -0.36281514
0.18414436 -0.92086154 -0.16403815 1.1975292 -0.15423301 0.15460499 0.10472726 0.09012261
0.12161403 -0.77050394 -0.009727688 0.031974632 -0.13322891 -0.30400062 0.3213085 0.080141984
-0.113028206 0.04646484 0.27842417 -0.010774632 -0.27117866 -0.081109 0.21356782 0.0058438275
-0.7218497 0.78353786 0.3758988 0.32527584 -2.4547713 -0.29761034 0.3322406 -0.6299209
0.036904927 -0.07780019 0.013593007 -0.2893884 0.083927296 0.15325916 0.0989316 0.14848532
-0.18673867 0.039913975 0.2854576 -0.13679868 0.08965911 0.24096325 -0.24476106 -0.83949864
-0.19340582 -0.08459704 0.4765726 0.39939246 0.09148014 -0.22300503 0.051447604 -0.10219351
-0.53656244 -0.13063286 -0.20911023 0.08470057 0.40323228 0.5626026 0.060425363 -0.2906896
-0.53733075 -0.14159799 0.19936536 -0.781243 0.23360293 0.11724586 0.1414822 0.15991847
0.59984154 0.031182177 -0.6273316 0.12012905 0.47158685 -0.3411147 0.12382967 0.19004335
-0.1073466 -0.31344885 -0.17835827 0.12299126 0.16217837 0.23571703 -0.13655324 -0.28282648
-0.33611467 -0.2834463 -0.55155927 0.26672062 0.1592078 0.15489142 -0.15987013 0.0631007
-0.004175705 0.30263758 -0.005593854 -0.11822322 -0.21491891 -0.6400756 0.19595486 -0.42454478
-0.07227888 0.14822417 0.4527044 -0.74196583 0.13518538 -0.11968732 0.21816905 -0.43545508
-0.4763241 0.4486473 -0.04580446 0.1401075 0.40283868 -0.108573966 -0.013747667 0.33201528
0.26933253 0.060497634 -0.32793328 0.12071454 0.19238043 -0.36254147 0.3731295 0.82796484
0.1256132 -0.7263004 -0.1626311 0.01749178 -0.05746245 0.1492642 -0.16059324 -0.003202428
-0.06548055 0.07716151 0.16386734 -0.31895986 0.30937615 0.0057566133 -0.15271442 0.27727154
-0.6984759 -0.061309665 -0.87247103 0.14895144 0.43526626 -0.38599527 -0.06656152 -0.7400825
-0.4745633 0.45321205 -0.41844395 0.06589527 -0.26948947 -0.075187095 -0.44286674 0.061211422
0.24957581 0.4802958 0.30130228 -0.16537745 -0.36340573 0.047567394 0.4699757 -0.049926657
0.16045217 0.17689143 -0.03138739 -0.4246447 0.20195524 -0.23338027 -0.26579854 -0.20699657
-0.53402174 0.38055983 -0.34102494 -0.12575401 -0.15455644 -0.030555388 -0.3738021 -0.51165414
0.7680703 0.36115566 -0.17308171 0.19714974 -0.49467972 -0.10395829 0.093329504 -0.64037675
-0.15911895 -0.5555793 0.12351675 -0.5654507 -0.13434382 -0.90031177 -0.5172441 0.20596029
-0.64091116 -0.25682554 0.6609819 -0.4240147 0.32587624 0.45416197 0.33560154 0.5799152
-0.33761245 -0.40375754 -0.18637995 -0.5495929 -0.15087384 -0.24211593 -0.120693214 0.40457126

policy_net.2.bias f4 [128]
00000000: be70 ee3d 4b24 03be bbf5 2b3e ec30 083d
00000010: ca80 c7bb 355f c83d c1ea ffbc 221f 91bd
00000020: 9791 19bc 9f7b 303e 24c4 83be 9a97 0abd
00000030: 1a28 a3bd 1ff4 29be f7b5 083e 1f8a b43d
00000040: e537 243e 18dd 9abe 7d7b 233e 5d2b 8b3e
00000050: 861d aebe 7877 efbb d1cf 51be 2182 e1bd
00000060: 2932 8dbd de4c 58be 0e18 b1ba 71b6 333d
00000070: ec57 dabb d0b9 d7bc 9766 b5bd f50f 39bd
00000080: e064 6cbd 87a2 3a3d c232 bfbe 44e3 a0be
00000090: 9dfc 82be 5281 713e bce5 d33e e3b6 453e
000000a0: 5170 a5bd 4be3 b1be 61b6 003e d3c7 713d
000000b0: 3f7d 97be 4806 eabd ecd8 183c 0f5c 163c
000000c0: ab16 483e c335 c8be cb4f a3be 49a3 943e
000000d0: bfb8 08be b8c2 2e3e 9eca 19bd a098 3f3c
000000e0: 60e5 4d3e b08b 083d aee6 c63c da86 493d
000000f0: 9320 6ebe cda0 58bd 35eb a83d 7538 6cbe
00000100: 595b f2bd 32f9 86bc f50f edbd e5cb 63be
00000110: 37fa ab3d a7c3 b13c b9b6 57be a2b6 5cbe
00000120: f123 603e 13c4 70bd 038e 623e 14ae 813e
00000130: 006d 0bbd 1b7d 82be 36d6 de3d 5139 e83c
00000140: 41d6 05bd 7670 49bd 2ae2 5abc 491f 683d
00000150: dfc5 f03c e479 36bd 1f58 9abc 9f75 d1bd
00000160: 8138 2e3e 7a26 903e d908 8e3d ed26 603c
00000170: fe69 9fbe 23cb 0b3d f7b6 fdbd e66f 19be
00000180: e4cf 91be f80a 57be c483 3cbe fe97 e9be
00000190: 5005 b03c 9f7e 16be e5e4 31be 25cc 093c
000001a0: 4ae0 66bd 11b9 aabe e05a 1cbd 6ffe 833c
000001b0: 611d 65be 1062 173d 4912 0bbe eece 883d
000001c0: aba6 50be a32e bb3d 24f0 643d ebce 93bd
000001d0: d57a 86bd d29f c93d bc82 91be 9d5a 4abe
000001e0: 508c 433d 26b0 f03d 13de 91be 0a4a ce3e
000001f0: fb6f b0bd bb6e a1bc d641 253e 7e90 96bd
0.116425976 -0.12806813 0.16792957 0.03324978 -0.006088351 0.09783784 -0.03123987 -0.07086016
-0.00937309 0.17234658 -0.2573558 -0.033835985 -0.07966633 -0.16597031 0.13350664 0.08815407
0.16036947 -0.30246806 0.15965076 0.2718152 -0.340069 -0.007307943 -0.20489432 -0.11011148
-0.06894333 -0.21123073 -0.0013511197 0.04387516 -0.006663313 -0.02633372 -0.08857458 -0.045181233
-0.05771339 0.045565154 -0.37343413 -0.3142339 -0.25583354 0.23584488 0.4138621 0.19308047
-0.08078063 -0.34743723 0.12569572 0.059028458 -0.29587743 -0.11426979 0.009329062 0.009177222
0.19539897 -0.39103517 -0.31896815 0.29030827 -0.13351725 0.17066467 -0.037546746 0.0116941035
0.20107031 0.03333634 0.024279919 0.04920087 -0.23254614 -0.052887727 0.08247987 -0.23068412
-0.118338294 -0.016476247 -0.11575309 -0.22245748 0.08397334 0.02169974 -0.21065797 -0.21554044
0.2188871 -0.05878074 0.22124486 0.25328124 -0.034039497 -0.25486073 0.10880701 0.028347643
-0.03267503 -0.049179517 -0.013359586 0.05667046 0.029391227 -0.044549838 -0.018840848 -0.102275126
0.17013742 0.28154355 0.06935281 0.013681156 -0.31135553 0.034129273 -0.123884134 -0.14984092
-0.2847892 -0.21000278 -0.1840964 -0.45623773 0.021486908 -0.1469674 -0.17372473 0.008410488
-0.056366242 -0.3334432 -0.038172603 0.016112534 -0.22374488 0.036958754 -0.13581194 0.06680094
-0.20376079 0.091397546 0.05589308 -0.07217201 -0.06566397 0.098449364 -0.28420055 -0.19761129
0.047741234 0.11752348 -0.28489742 0.40290862 -0.086151086 -0.01970612 0.16138396 -0.073517784

policy_net.4.weight f4 [128, 128]
00000000: 86e5 e9bc 8605 71be 3f31 47bd 0f06 37bc
00000010: 43dd 69be 6e1c 8c3e cb6f 0bbd a375 bb3d
00000020: eaf1 c8be 455a 683c 69fd 9e3e 0001 c13c
00000030: 5b2f 103c f44b 0a3e 4738 1e3f 5044 85be
00000040: 3091 0abf 07de 2c3f d3b2 6c3e 7d32 eabe
00000050: e62f 6c3e 8969 44bd e247 923e f0e4 c5bd
00000060: 59c6 50be c5f8 de3b b91a 62bf fc68 2a3f
00000070: f122 15be 81ca 8fbf 45d7 01bf 493d c43c
00000080: 8357 f13c 653f 043e d932 d43e 2714 46bf
00000090: 360e 83be dd0d a2be ac90 16be dcce 7fbe
000000a0: f939 1b3e c0a4 3b3e a104 393e 4def 103e
000000b0: 71fa a2be 1961 b5bf a329 18bd d04f 3cbd
000000c0: 593a b33e 2d5e fd3e 3110 f83e 6bae 7d3e
000000d0: 4399 d43e d98e eebe 0972 c0be 6ac9 76be
000000e0: 2f6f 99bd abe9 fbbe 3286 dcbd 69ca 3abf
000000f0: 7029 60bd e2b2 3d3e d3e7 9cbf aab0 ff3b
00000100: 141d b1bd 6c8a fe3e 5681 d2be a14d dfbc
00000110: 3ea0 04be 9e4b 0ebf 9913 f8be b3b6 07bf
00000120: df15 a8be f9dd 0cbe ac5d 76be b4fc 47be
00000130: b415 0bbe dfe7 d1bc 4309 163e 9f68 51be
00000140: ab78 af3e 5b57 db3e c798 1b3f c6f8 4bbe
00000150: ae49 2ebe d0ea f23e 1125 c0bd 526d d53e
00000160: 2b16 34bd 4ca9 65bf f1cb 923e ffb5 8abd
00000170: bc4f d23d c01b c03e 80f4 20bc 7133 ef3e
00000180: 1377 97be e627 bb3e 3efd 66bd 6242 02be
00000190: 2a3b 463e 1bc5 363e 56d4 5f3d 9884 843e
000001a0: 11cf 933d df4b 24bf fc72 793e ecf2 453e
000001b0: 3a6b 4dbc 19d5 a9be 0c3b 40be e552 05bd
000001c0: dbf3 58bc cff9 193e 4eac 9dbd ca79 f1be
000001d0: 534d d7be 6622 8b3b 554b 3dbd be66 433e
000001e0: 2862 583e 3d4d f9be dc75 07bf b476 16bf
000001f0: dddc 8f3d 45cc 073f 5f5c da3d 388d b3bd
00000200: 4c5b a33d 9934 cdbd 2109 34bf 3b4c c1be
00000210: ea77 88be b6a9 32be 505d 7cbe a412 6f3d
00000220: 0347 a1be 1080 0cbf e62c 193d a183 6f3d
00000230: c159 f3be d374 8a3e 62da 153f e63c 343e
00000240: ff18 85bf 3b6f a5bc b510 42be e055 993d
00000250: d558 98be 2548 b2be a04c 1dbe 1970 a2bd
00000260: 4495 31bf dd89 c1bd 4efb 76be f0fc 46bf
00000270: 8f4a f3bd b8e9 b63d 2757 28be 9cc7 cb3e
00000280: 374f efbe d870 813d c975 28bd 34d2 3ebf
00000290: cee1 f03d 2a56 39be 3d48 6a3e 8fd6 f83e
000002a0: f381 833e 4adc ddbd 963c 693d 635f 44bd
000002b0: a234 96bd 163f d4be afc7 4ebd 7f19 5cbc
000002c0: 9f45 6fbf 5077 603e 3112 d63e f885 9fbf
000002d0: 378c 63be f2df 55be 10e2 43bf 76da ab3e
000002e0: b8dc 9c3e b9ac 0b3c 2a82 413e cfed 4a3e
000002f0: f476 51bf 959d 19bf c5f8 a9be 5364 44be
00000300: 4684 27bf c464 b9bd c60a 8dbe 8be8 963d
00000310: 6f0d a4bd 37d7 cfbe 3183 0dbe b5f8 093e
00000320: 1daa e1be 979d 8d3d e6f9 33be 6495 e83d
00000330: fe88 743e d71a ad3d ba45 afbe 01b5 ac3e
00000340: 7b56 80bf 112d 3ebe 77b3 10bf 743f d73e
00000350: b82b b6bd 8043 0f3d cdd4 19be 2988 923e
00000360: eb14 b1be ae92 0b3e 5b82 a1be f517 583d
00000370: 5db9 a13e d2ea 04bf 97a3 d83e 7b8f 4fbf
00000380: 5345 43bf bbad 02bf bda8 dc3e 6730 f4bc
00000390: 8bc7 e8be 6799 703e 50a8 a63c 5cee 04bf
000003a0: f347 e43e cb4e 0c3e 704c c33d 988f bd3d
000003b0: a4b9 b43e b315 963e 0526 70be f502 46be
000003c0: 8208 93bd e42e e7be 6961 be3e bf03 6c3e
000003d0: 6321 1ebf 9005 ea3e 0f86 483e 5472 503d
000003e0: d913 873b 15ee 0d3d af19 3b3e c728 4bbe
000003f0: 0275 94be a2be a83d 3088 c9bf ab9b 5f3e
-0.028551828 -0.23537263 -0.04863095 -0.011170878 -0.22838311 0.2736544 -0.03404216 0.09153297
-0.39247066 0.014181678 0.31052712 0.023560047 0.008800353 0.13505536 0.6180462 -0.2602868
-0.5412779 0.67526287 0.23115091 -0.45741645 0.23065147 -0.04795221 0.28570467 -0.09662807
-0.20388164 0.006804558 -0.88322026 0.66566443 -0.1456411 -1.1233674 -0.507191 0.023955004
0.029460674 0.12914808 0.41445044 -0.773745 -0.2559678 -0.31651202 -0.14703625 -0.24981254
0.15158834 0.18324566 0.18068172 0.14153786 -0.31831697 -1.4170257 -0.037149083 -0.045974553
0.35005453 0.49485913 0.48449853 0.24773566 0.4152318 -0.4659336 -0.37587002 -0.24100271
-0.0749191 -0.49201712 -0.10767783 -0.72965103 -0.054727018 0.1852527 -1.2258247 0.0078030424
-0.08648124 0.49714983 -0.411143 -0.027258696 -0.12951753 -0.5558413 -0.48452452 -0.5301315
-0.32829186 -0.13756551 -0.2405917 -0.19529992 -0.13582498 -0.02562326 0.1465197 -0.20450066
0.3427175 0.42840084 0.60779995 -0.19919118 -0.17020294 0.47444773 -0.0938207 0.41684967
-0.043966454 -0.8971145 0.2867122 -0.06772994 0.102691144 0.37521172 -0.009823918 0.46718934
-0.29583034 0.36553878 -0.056393854 -0.12720636 0.19358507 0.17848627 0.05464586 0.2588241
0.07217229 -0.6417827 0.2436027 0.19330949 -0.012537772 -0.33170393 -0.18772525 -0.032549758
-0.013241733 0.150367 -0.0769888 -0.4716323 -0.4205118 0.004246044 -0.04621442 0.19082162
0.21131194 -0.4869174 -0.52914214 -0.58774877 0.07024548 0.53046066 0.1066215 -0.0876717
0.07976398 -0.10019798 -0.7032643 -0.37753472 -0.26653987 -0.17447552 -0.24644971 0.058367386
-0.3149949 -0.5488291 0.037396334 0.05847514 -0.47529414 0.27042255 0.5853635 0.17601356
-1.0398253 -0.02019464 -0.18951686 0.074870825 -0.29755273 -0.34820667 -0.15361261 -0.07931537
-0.69368386 -0.094501235 -0.24119303 -0.777297 -0.11879455 0.08931297 -0.16439496 0.39800727
-0.46740124 0.06320351 -0.041127954 -0.74539495 0.11761819 -0.18099275 0.22879119 0.48601195
0.2568508 -0.108330324 0.056942545 -0.04794253 -0.07334258 -0.4145438 -0.050483402 -0.013433813
-0.9346561 0.21920514 0.41810754 -1.2462759 -0.22221456 -0.2088621 -0.7651682 0.3356511
0.30637145 0.008525067 0.1889731 0.1981728 -0.81822133 -0.60006076 -0.3319761 -0.19178896
-0.6543621 -0.09052423 -0.27547282 0.07368573 -0.08010375 -0.40593883 -0.13819577 0.1347378
-0.440751 0.069148235 -0.17575797 0.11356619 0.23880383 0.08452385 -0.34232885 0.33731845
-1.0026392 -0.18571879 -0.5652384 0.42040598 -0.088950574 0.034976482 -0.15022583 0.28619507
-0.34586272 0.13630173 -0.31544766 0.052757222 0.31586733 -0.5192081 0.4231231 -0.8107831
-0.76277655 -0.5104634 0.43097487 -0.029808236 -0.4546474 0.23496018 0.02034393 -0.5192621
0.44586143 0.13701932 0.09536064 0.09255904 0.35297883 0.2931343 -0.23452003 -0.19337066
-0.07179357 -0.45152962 0.37183693 0.23048304 -0.61769694 0.4570737 0.1958239 0.05089028
0.004122239 0.03465088 0.18271516 -0.19839774 -0.2899552 0.08239485 -1.5744686 0.21836726

policy_net.4.bias f4 [128]
00000000: 64e4 88be e9eb fbbd 7005 833d e545 acbe
00000010: 1a06 a9bd 0912 313e 81ac 1cbe b1fe 15be
00000020: d780 83be 866f 06be f3d9 623d 7e50 36be
00000030: fa65 88bd 9814 c1be 3013 253a 8c16 a93d
00000040: d69b a0bd a55e 9bbd 29b2 e0bd f37e 553e
00000050: f4a5 62be fb72 1fbe 64db acbe 1d2f 0bbf
00000060: 2469 8dbe c8ab 933e 8a67 fdbd e96d 3abe
00000070: ddb8 a3be 809a 2a3e 460d ba3c cdd6 72be
00000080: 5e06 e83c 2cf4 873e 945e f93d 4b31 7abe
00000090: d332 553c 8733 a43d 3ff4 0ebf b40d 1a3e
000000a0: f266 323e afe0 8ebe c801 b0bd 2375 c23d
000000b0: 2df6 82be 0c74 4c3e 4d4a 133e 996d f8bd
000000c0: 56ce f23c f1de cebe 15d9 dcbd 2b8a a53e
000000d0: 5e3d 06bf cf3b d73c 7881 6e3e 3c6b 15bf
000000e0: 5215 32be 803b e0bc b0ff 8d3d 9440 29be
000000f0: a17d e4be b18e 37be 8fd1 b9be e500 643d
00000100: 1503 acbd e907 8bbd e192 a3be 44d8 6a3d
00000110: 0f42 89be fc08 cabe 052c b6bd d3ed 07bf
00000120: 0920 b23e 0b64 2e3c 0e0c 303e bb0e 8bbe
00000130: b17d 96be b7fa 7a3e f6a7 8e3e c6d0 0a3e
00000140: 82f4 82bf c9c3 95be 0edd 163f 9517 a0be
00000150: 9cbb 98be 73fc 043c c93d c7bd a083 813e
00000160: ccb3 10bf 0523 2b3e 1ef1 34bc 5312 7ebe
00000170: 8582 34be 058d 333c 5d71 17bf e0de 1e3e
00000180: 27d4 a6be a0ac 74bd 610e 02be b87f 063d
00000190: 5457 6d3e 6b35 dd3d 18c0 9cbd 603f 603c
000001a0: 29f8 00bf 5126 d53c 9994 093e 8b39 19bf
000001b0: 9ebb 923d 6dda 4f3e 7046 57be f630 483d
000001c0: bad0 10be dac6 e23d b402 353e d6e6 ee3d
000001d0: c4fa 33be d0b4 333e 1448 69be b369 b33e
000001e0: 2023 9cbe 1f8e 3f3e 727f 43bd 5b41 2e3e
000001f0: 4bed 83be 4c05 38bd 9e8e a1ba b296 4abe
-0.26736748 -0.12300856 0.063975215 -0.33647075 -0.08253117 0.17292036 -0.1530018 -0.14647938
-0.25684234 -0.1312848 0.055383634 -0.17804143 -0.066600755 -0.37711024 0.00062971096 0.082562536
-0.07842223 -0.075864114 -0.10971481 0.20849209 -0.22133619 -0.15571205 -0.33761132 -0.54368764
-0.27619278 0.28841996 -0.12373264 -0.1820599 -0.31976977 0.166605 0.022711407 -0.23714752
0.028323349 0.26553476 0.121762425 -0.24432866 0.013012606 0.080176406 -0.5584144 0.1504429
0.17422083 -0.27905795 -0.0859409 0.09494998 -0.25578442 0.19966143 0.14383812 -0.12130279
0.029639404 -0.40404466 -0.107835926 0.32331976 -0.5243739 0.026273636 0.23291576 -0.5836675
-0.17390946 -0.027372122 0.06933534 -0.16528541 -0.44627097 -0.17925526 -0.36292693 0.055664916
-0.08399025 -0.06788618 -0.31947997 0.057335153 -0.2680821 -0.3945998 -0.08895115 -0.53097266
0.34790066 0.010643969 0.17192098 -0.27159676 -0.2939277 0.24509703 0.2786252 0.13556203
-1.0230868 -0.29250935 0.5893105 -0.31267992 -0.29830635 0.008116829 -0.097285815 0.25295734
-0.5652435 0.16712578 -0.011043815 -0.24811678 -0.17627914 0.010958915 -0.59157354 0.15514708
-0.32583734 -0.05973494 -0.12700798 0.032836646 0.23177844 0.10801204 -0.076538265 0.013686985
-0.5037866 0.026019247 0.13435592 -0.5985343 0.071646914 0.20298167 -0.21022964 0.048874818
-0.14142123 0.11073084 0.17676812 0.11665122 -0.17576128 0.17549443 -0.22781402 0.3504158
-0.30495548 0.18706559 -0.047728963 0.17017119 -0.25766978 -0.044926926 -0.0012325828 -0.19784048

policy_net.6.weight f4 [64, 128]
00000000: 1747 6dbc 208a 3b3e b5c6 f03e a146 57bf
00000010: ee40 3bbe da4d f8bd e89c 133f f78d 583e
00000020: 12dc fa3d 7b2f f9be a5fb 87bd 5925 6e3e
00000030: c559 c23d 422f 94be 3998 25be ded8 213e
00000040: 1218 113f e993 ff3d c3ea 5ebe 27a3 e73e
00000050: 4370 de3e 9a06 ae3d ada3 a23e b975 95bd
00000060: d57e ffbe 4634 1b3e 50c3 903d 34e9 223f
00000070: 3866 013e 3883 50bd a857 00bf ef62 dfbe
00000080: 559b 3bbe ec41 90bf d08c 1cbf 3556 eabc
00000090: 0c2b 45be d33b 02bf 867e bdbd c579 98bd
000000a0: ad98 473b ea1f 05bf 302c 653e 7551 3abc
000000b0: 9abe 16bf 2a27 c43e 8403 69bb 5415 99bd
000000c0: c7be 49bd 26d9 413f afb7 aebe f7c0 9f3e
000000d0: 7645 c83e 8537 9fbd fbf0 d13d 96f7 7d3d
000000e0: a2e1 3a3e a081 78bd 3284 1d3f 27d0 d8bd
000000f0: da4d 49be 5f18 083e 829b 75be af2f 543e
00000100: ab81 bbbe 128e 2e3d 4f99 efbe a7d9 ae3e
00000110: 2eaf d7bd e955 b9be 615a 533d b0b2 4cbf
00000120: c433 973e 6f8d dc3c fb02 4bbf bc9f b8bc
00000130: a2b8 86be 8b12 4bbf d609 f2be 80be b6be
00000140: c348 7f3d 0491 dabb 72d8 a63e 9965 33be
00000150: 98a2 26bf bd7a a4be 5148 003f e7eb e7be
00000160: 1070 49be ff5c d83c ec39 333e d9ec 0bbf
00000170: 1f0f a9be 4987 11be e8ab eb3d 59a1 47bf
00000180: 412a bd3d 9026 21be 2707 18bc c82a dd3e
00000190: a5f7 e4be 1240 7fbc a9bf 33bd 47f9 dabd
000001a0: 64ab 7abd 0c18 cebe 89fb bf3e 1e96 36be
000001b0: 5939 853e 1684 003e ff3d 8a3e 1d05 8abe
000001c0: 995d 36be 1312 bdbd 9e75 a3be 17dc b4be
000001d0: 3cbc 113f 5100 57bf ef73 6dbf fe68 dbbe
000001e0: 01e0 95bd de6e 013e 3dad 62be 1d51 603e
000001f0: da06 d73d c228 b1be e0d7 17bf 1831 9bbe
00000200: 679c cebc 57c3 0abe 1509 debd 6b3b 0a3e
00000210: 6dda 80bd bcf0 0c3e 139f 193e 2b14 99be
00000220: 4f0f 97be 885a 01be bd43 173e 1256 debd
00000230: e9cf 963c d7a3 f7bd 7f2d 263d b764 d6bd
00000240: 1574 e03d 387e 1bbd 3289 26be 7ba0 c83e
00000250: 1554 29be 954e 923e 36d8 dabd 9e25 1abe
00000260: 839f 29bf aa08 2abe c406 bebe 5a60 04bf
00000270: c7f5 503e 9c85 0c3e faf3 0abe 2208 69bf
00000280: 7ab6 07be c28b 8ebd f535 63be 0dfa 013e
00000290: 80c4 4dbd 3ba2 a53c 2bd7 723d 8d4d 84bd
000002a0: edf5 f1bc ba24 923e 3771 8f3e 69f7 37bf
000002b0: d4a4 b1be 51a3 f03d c8c1 d6bb 293c 523c
000002c0: 7e8b 20be 6f4c a9bd 83d6 533d 59e3 ff3e
000002d0: d572 7ebe dd25 863d cb88 3d3e e3ba 8ebe
000002e0: 2a58 5fbe ee34 133e e502 8bbe 996a ef3b
000002f0: 1ce4 8e3d e18e d33d b13b 333e e6e3 fabd
00000300: 7802 5b3d d978 96be 5f86 a43c bfef aabe
00000310: fa3c cebe 6db6 7bbd b298 4f3e 2ebf d23c
00000320: c327 6f3e 0701 bcbd d5bf 5a3d 0e4c df3d
00000330: 8316 d3bc e904 09be 0f3c 7cbf 9a8d 943a
00000340: bd4e 10be 3cd8 d9bd 8422 febd 1741 8fbe
00000350: b8c9 07bf ed10 5c3d cb75 7f3d ab95 86bd
00000360: 5d67 eebd e2d7 f43c cb89 58be e9a1 8abe
00000370: d230 65be f6b7 503e aa6a 9f3d b63a 3d3c
00000380: b22b dc3c 65c5 03bd 4f09 623c a174 04bd
00000390: 883d dc3e e291 bc3c 2403 4a3d 6b1d 3b3e
000003a0: c85d 8abe 9311 923e daa9 13be e7d8 9fbd
000003b0: 6a54 cebe e4ed d73e 20d8 58bd 3646 893d
000003c0: 401a a0be b78f 7dbd eecc 9a3d a2ee 53bf
000003d0: 6713 3e3e 322d b93e c1d9 0ebf e0da 24be
000003e0: c592 38bd 1a0d 95bd 9b2e 193e 3438 cebe
000003f0: 0ee4 db3c 3665 693d 3ff8 21bf 92a7 3c3e
-0.014482281 0.1831441 0.470266 -0.84092146 -0.18286487 -0.12124224 0.57661295 0.21147905
0.12249006 -0.48669037 -0.06639794 0.23256435 0.094897784 -0.28942305 -0.1617135 0.15805385
0.56677353 0.124793835 -0.21769242 0.45241663 0.43445024 0.08497353 0.317655 -0.072978444
-0.49901453 0.1515666 0.07068503 0.6363709 0.1263665 -0.05090639 -0.5013375 -0.43630168
-0.18320973 -1.1270118 -0.6115236 -0.02860556 -0.19254702 -0.50872535 -0.09252648 -0.07445101
0.0030455992 -0.5200182 0.22380137 -0.01137196 -0.58884585 0.3831113 -0.0035555074 -0.07474771
-0.049254205 0.7572197 -0.34124514 0.31201908 0.39115494 -0.077742614 0.102510415 0.062003694
0.18250135 -0.060670495 0.6152984 -0.10586577 -0.19658604 0.13290547 -0.23985103 0.20721315
-0.36622366 0.042615958 -0.46796653 0.3415043 -0.1053146 -0.36198357 0.051599864 -0.79960155
0.29531682 0.02692291 -0.7930142 -0.022537105 -0.2631274 -0.7932517 -0.4727313 -0.35692215
0.06232525 -0.0066701192 0.3258701 -0.17519225 -0.6509185 -0.32124892 0.50110346 -0.45297167
-0.19671655 0.026411531 0.17502564 -0.54658276 -0.3301935 -0.14211763 0.11507398 -0.7798057
0.09236575 -0.15737367 -0.009279049 0.43196702 -0.44720188 -0.01557924 -0.043883953 -0.10692077
-0.061198607 -0.4025272 0.37496594 -0.17830703 0.26020315 0.12550387 0.27000424 -0.26957026
-0.17809142 -0.09231963 -0.31925672 -0.35324165 0.5692785 -0.8398486 -0.92755026 -0.4285354
-0.07318116 0.12639949 -0.22136398 0.21905942 0.10499354 -0.34601408 -0.59313774 -0.30310893
-0.025221063 -0.13551079 -0.10841576 0.13499229 -0.062916614 0.13763708 0.15002088 -0.298982
-0.29503867 -0.12632191 0.14771934 -0.1085626 0.018409686 -0.12091797 0.040570732 -0.104684286
0.10959641 -0.03796217 -0.16263273 0.39184937 -0.16535981 0.28575578 -0.1068577 -0.15053412
-0.6625902 -0.16604868 -0.37114537 -0.5170952 0.20406257 0.13722843 -0.13569632 -0.91028035
-0.13253203 -0.069602504 -0.22188552 0.12693043 -0.050236225 0.02021896 0.05928723 -0.06460104
-0.029536212 0.28543645 0.28016064 -0.7186189 -0.34696066 0.117499 -0.0065538622 0.012831726
-0.15678212 -0.08266532 0.051718246 0.4997814 -0.24848492 0.065501906 0.18509214 -0.27876958
-0.21810976 0.1437566 -0.27150646 0.0073064086 0.06977102 0.10329986 0.17503239 -0.122504994
0.05346915 -0.29389074 0.020083604 -0.33386037 -0.40280896 -0.06145327 0.20273092 0.025725927
0.23355012 -0.091798835 0.0534056 0.10903178 -0.02576757 -0.1338078 -0.9852914 0.0011333704
-0.14092536 -0.106369466 -0.12408927 -0.27979347 -0.53042173 0.05372708 0.062368196 -0.06571516
-0.11640809 0.029888097 -0.21146314 -0.27076653 -0.22381905 0.20382676 0.077840164 0.011549642
0.026876304 -0.032170672 0.013796165 -0.03233779 0.43015695 0.023018781 0.0493194 0.18272941
-0.27024674 0.28529033 -0.14420262 -0.07805043 -0.40298778 0.42173684 -0.052940488 0.06702845
-0.31270027 -0.061904635 0.075586185 -0.82786 0.18562089 0.36167294 -0.55801016 -0.16099119
-0.045061845 -0.072778895 0.14959185 -0.40277255 0.026842143 0.056981288 -0.6326942 0.18423298

policy_net.6.bias f4 [64]
00000000: b7de 6ebe 2ecf b63e 5c69 f2be 1b6a fdbe
00000010: 4af0 1dbf 7e17 ad3e 7f12 f7be 6f61 91be
00000020: 8491 f93b 5094 8d3e b90a ec3e 07b7 83bd
00000030: ae95 c23e 3706 073e a4cf 3c3f 054f b23e
00000040: 3802 8dbe 2eb0 f1be f0e4 8fbc 2f74 0e3e
00000050: 912b 4ebe 0b45 d43e 0f00 06be b2c3 013e
00000060: 7064 263e 355d 763e c990 0a3f c5d5 41be
00000070: 0330 843e 26b1 4d3e c2f0 ba3e bf05 36be
00000080: 9fdd 7cbe b848 dc3e 04cf a73e 5367 23bd
00000090: 6b0f 1a3d bea0 9e3e 686f 7b3e a14f 1ebf
000000a0: 08e7 e43e 0b8d 33be ed07 7f3d 7143 dfbe
000000b0: 6866 0b3f 1129 2d3f b3c0 97be 1a25 e0bd
000000c0: 70d4 0dbf fee4 d9be d91d 46be 94bd 023f
000000d0: da40 dcbe 1e71 aabd 7805 c2be 9f68 8bbe
000000e0: 9018 1c3f c6b3 903e 63d2 adbd 5796 acbe
000000f0: 2896 053e 9da1 5a3e 6991 a8be 802b 403e
-0.23327146 0.3570494 -0.47346008 -0.49495015 -0.61694777 0.33806986 -0.482563 -0.28394648
0.007616224 0.27652216 0.4610193 -0.06431394 0.38004822 0.13185965 0.73754334 0.34825912
-0.27540755 -0.47204727 -0.01756522 0.13911508 -0.20133807 0.41458926 -0.1308596 0.12672308
0.16249251 0.24058993 0.54127175 -0.18929203 0.2581788 0.20087108 0.3651181 -0.1777563
-0.24693917 0.4302423 0.32775128 -0.03989346 0.03761236 0.30982012 0.24554217 -0.61840254
0.44707513 -0.17534272 0.062263418 -0.4360614 0.54453135 0.6764079 -0.29639205 -0.109445766
-0.5540228 -0.4255752 -0.19347323 0.51070523 -0.43018228 -0.08322357 -0.37894797 -0.27228257
0.6097498 0.28262156 -0.08487394 -0.3370845 0.13045561 0.21350713 -0.3292344 0.18766594

policy_net.8.weight f4 [4, 64]
00000000: 22a1 ccbd 350e 123d 0a5b 9bbe 800e a73d
00000010: 7891 8b3d eea6 943d a8cf 553d ebb4 89bd
00000020: bf33 47be 83cd f03c 5928 cc3b 7c73 d03d
00000030: 5d9b a13a 432c 0b3e 4044 353c e1ae 553b
00000040: 185c 023d e5f0 90bd d417 7bbd 8ba1 f13d
00000050: 0ace d43d 719a b33d d846 9f3c 1aee 7a3d
00000060: 9856 93bd e92e 97bd 192c 703d 3ca7 6f3d
00000070: 8900 9cbc 5c74 7cbd 221c afbc 31fe 5abd
00000080: dc8c b13c 1c38 593c e6a3 44bd 0798 51bd
00000090: bb28 0c3d 7945 843d 85fe b83c 0cc7 1c3d
000000a0: 88e3 583d d41c 82bd 36fe 433d 634e 54bd
000000b0: 6c29 65bc 78e3 76bc be8d 7b3d 5f23 2e3c
000000c0: cd41 39bd 2694 c83d d5aa 49bc 1be1 36bc
000000d0: 1632 9a3e 7d1b e03c 6235 95bd e5bd 23bd
000000e0: bbff e1bd 96e9 5e3d 0ffb c63c 345c 0cbd
000000f0: 12e8 5a3d 8d75 3cbd 5e82 273d fe0e 72bd
00000100: 6bf7 e63c bc62 dbbc c0dd ab3e a605 b9bc
00000110: 3ad4 a63d 07dd a73d 9bcb a1bb dc13 72bd
00000120: 81ac 9b3e 7599 08bd 405f 1dbd b312 1fbd
00000130: ed08 ba3d 80a7 703d 4a0c 843c f8dd 14be
00000140: b214 26bc 0867 9cbd 524c 94bd 82ca 0e3d
00000150: a7b8 aa3d ac04 563d 3014 c8ba d45f 843d
00000160: 8cbb 493b 1b00 21bd 7fb0 383d 7e3f 1b3d
00000170: 607d 7fbc 5c4f 84bd 6450 8ebd 7e94 d23d
00000180: cf26 f73c 75b5 8b3d ab8b 9bbd 493f fd3b
00000190: 3c3f 2bbd 4829 a93d 7614 013c cdb0 6b3d
000001a0: 6e5a 833d 1405 a83c 77c9 d23d 2187 8dbc
000001b0: 259b c4bd b5f4 2cbc e499 fa3c a5b0 c03d
000001c0: 30c4 9c3a ac1a 9fbd aece e13a 3ecb 9cbd
000001d0: af80 0f3e bc97 8f3d 8412 58bd 0a8e d53c
000001e0: 9fcf a8bd f0af b0bd 0738 85bd 064f 9dbd
000001f0: 2c4e 783d 29ec 43bd 00c8 f13c 9dcc 2c3d
00000200: fff2 f43d 57d0 0ebd 2ce2 a43d 7837 86bd
00000210: 187f 8fbd 3744 91bc 1577 57be 5ca9 9f3d
00000220: 420a 9c3d b9ea ef3d 03d8 a1bd e394 54bd
00000230: 9043 8e3d b231 15bc 7ef2 12be c6c7 c73c
00000240: e3ca b6bd 849e afbd 8255 89bc 7cd5 c0bd
00000250: eb47 4dbe 112d f4ba 7906 b2bd 6751 b0bc
00000260: 0f29 643d 083c 0c3d fb12 4b3d 8652 ab3d
00000270: 3df5 993d e998 a03d 1946 55bc 8e50 3b3d
00000280: 42b4 b9bd a1b3 4ebc 3d4d 1e38 4ff2 adbd
00000290: 9737 1b3e 7a3d 74bd c48b 313a ecf7 0dbe
000002a0: a226 23be f601 e33d 7926 fdbc b6e2 193e
000002b0: 12c1 993d 1189 353e 1563 debd ac77 5f3d
000002c0: 9af2 903d f75c c6bc 71b5 5bbd eb5d ce3c
000002d0: 80b3 3f3e 0e2b a6bd 4cfd b13d 9cd6 f53c
000002e0: 9335 383e fd01 06bc c821 49bd 8989 1b3e
000002f0: 3bea 25be 3123 143d 89cf e7bd 3b8e aa3d
00000300: c2d4 54bd b17f d0bd af65 9fbd ba75 4bbb
00000310: cf6c 183c f278 21bc 5971 f03d 855d 83bc
00000320: 0a36 8fbd 8fad a33c 25b4 633a 3d84 6c3b
00000330: 9529 143d e00d 11bc 3579 ae3d e751 cbbc
00000340: 20db 13bd 3a03 773d 09ad ae3b 6174 713d
00000350: 1309 1d3c 2208 c339 0a6f 95bd 43c8 c43b
00000360: 75a5 9fbb d8eb 233d 0f6a 31bd ac63 54bc
00000370: 1ed6 c0bc 6425 fbbc 8f8f 013c 3258 993b
00000380: 9add 103d 8198 883b 7dd6 533d 2d52 15bd
00000390: f002 99bd fb5d 053d 3540 b8bd 27cf 54bb
000003a0: b2b5 263d 8108 973d cf25 ee3c 5f75 86bd
000003b0: 6f46 13bd 8592 14bd 2530 9c3c fd77 efbc
000003c0: 34b2 9bbd 7a05 53bd 90ee 6fbd 501a b5bd
000003d0: fb52 d23d b6b5 8d3d 6c46 003c ce1c 083d
000003e0: 921c a3bd abce c1bc e747 8dbc 7c61 5dbd
000003f0: d213 1a3d 225a 4abd d416 30be 18a0 643c
-0.09991671 0.03565808 -0.30342895 0.081570625 0.06814855 0.07258402 0.05219999 -0.067239605
-0.19453333 0.02939487 0.0062303958 0.10178277 0.0012329627 0.13591103 0.011063635 0.0032605457
0.03182611 -0.07077197 -0.06130202 0.1179839 0.10390861 0.08769692 0.01944296 0.061262228
-0.07194251 -0.07381994 0.058635805 0.058509097 -0.019043224 -0.061634406 -0.02137572 -0.053465072
0.021673612 0.013258006 -0.04800787 -0.051170375 0.03421853 0.06458563 0.022582302 0.038275763
0.052951366 -0.06353155 0.047849856 -0.051832568 -0.0139869265 -0.015068881 0.061414473 0.01062855
-0.04522877 0.09793882 -0.012308796 -0.011162068 0.30116338 0.027356857 -0.072855726 -0.03997602
-0.11035105 0.054421984 0.024289636 -0.03426762 0.053443976 -0.046010543 0.040895812 -0.05909633
0.02819415 -0.026780479 0.3356762 -0.022585701 0.08145948 0.081964545 -0.0049376017 -0.05910097
0.30405048 -0.033349473 -0.038420916 -0.038836192 0.09083734 0.05875349 0.016119141 -0.145378
-0.01013677 -0.07636839 -0.072411194 0.034861095 0.08336001 0.05225055 -0.0015264805 0.0646359
0.0030781953 -0.03930674 0.045090195 0.037902348 -0.015593857 -0.06460449 -0.06948927 0.10282229
0.030169873 0.068217196 -0.07594999 0.0077284914 -0.041808352 0.08259827 0.007878413 0.057541657
0.064137325 0.020510234 0.102923326 -0.017276349 -0.09599904 -0.01055639 0.030590959 0.09408692
0.0011960324 -0.07768759 0.0017227733 -0.07655953 0.14013933 0.07011363 -0.052752033 0.026068706
-0.082427256 -0.086273074 -0.06504827 -0.07681088 0.060621426 -0.04783264 0.029514313 0.042187322
0.1196041 -0.034866657 0.08050951 -0.065535486 -0.07006663 -0.017732723 -0.2104152 0.077959746
0.07619144 0.11714692 -0.07902529 -0.051899802 0.0694648 -0.009106087 -0.14350316 0.024387252
-0.08925416 -0.08575156 -0.016764406 -0.09415719 -0.20046966 -0.0018629153 -0.08692641 -0.02152319
0.05570322 0.034236938 0.049578648 0.083653495 0.075174786 0.07841665 -0.013017201 0.04573112
-0.090675846 -0.012616069 3.774207e-05 -0.08493482 0.15157925 -0.05962894 0.0006772841 -0.13864106
-0.15932706 0.110843584 -0.030902134 0.1502789 0.07507528 0.17728068 -0.10858742 0.054557487
0.070775226 -0.024214251 -0.053639833 0.025191268 0.18720818 -0.08113681 0.08690891 0.03000956
0.17989187 -0.008179185 -0.049104482 0.15189184 -0.16202633 0.036166374 -0.11318881 0.083279096
-0.051960714 -0.10180605 -0.077830665 -0.0031045512 0.009303286 -0.009855496 0.11740369 -0.016035805
-0.06992729 0.01998022 0.00086862064 0.0036089562 0.03617247 -0.008853406 0.08519212 -0.024819328
-0.036097646 0.06030581 0.005330686 0.05894888 0.009584683 0.00037199358 -0.0729657 0.0060053184
-0.004872019 0.04001984 -0.043314036 -0.012963217 -0.023539599 -0.030657478 0.007907762 0.004679703
0.035367586 0.0041685705 0.051718224 -0.036455322 -0.074712634 0.03256033 -0.089966215 -0.0032472105
0.040700622 0.07374669 0.029070763 -0.065653555 -0.035955843 -0.036272544 0.019065926 -0.02923202
-0.07602349 -0.051518895 -0.05857712 -0.08842909 0.102697335 0.06919424 0.00782929 0.033230595
-0.07964434 -0.023658117 -0.0172462 -0.054048046 0.03761656 -0.049402364 -0.17196208 0.013954185

policy_net.8.bias f4 [4]
00000000: 6f50 e43d 0137 253d 82b7 f53d 6564 563e
0.11148154 0.04033566 0.11997892 0.20936735

inverse_net.0.weight f4 [64, 48]
00000000: 5c38 3f3e 8df2 a73f ca66 03bf 6993 1f3f
00000010: 5c3d d9bd 0542 cc3e fd8d 91be 180f bc3e
00000020: 1acc fd3d fe57 ea3e 393f b7be 88d4 6abe
00000030: a8b4 91be c09b f4bb 3bce 0abd 4c18 1d3e
00000040: 1331 b4bd af14 36bd 65e1 963d 7e4c 853c
00000050: 2046 0abd 28c2 b2bd 942f 11bd b892 54be
00000060: 71e7 983e 70f3 e5be 6fa7 21bd 6217 12c0
00000070: cf2d 933d 1f61 7a3c 1c10 48bf 9228 1fbf
00000080: ea19 25bb 8ef6 d43e 041d 183e c2a1 e8bd
00000090: 2ff0 d53d f3a6 35be 4c12 23bd e840 993d
000000a0: ed8f e8bc 0f32 ae3d 5274 233d e11f ce3d
000000b0: 0f23 923d 6220 16bd 3feb bfbd eba9 9bbd
000000c0: b7cb 453d d077 463f 3071 913e 46a0 f93e
000000d0: dd6a c23d 96f7 00bd db7e 0dbd 4dd5 d3ba
000000e0: 9e4f 53ba 7dbb 453e 9484 cc3d c85d 8dbd
000000f0: edae 843c 24db aebc cee9 96bd be3d 073c
00000100: 8217 12bd 0d84 cdbd 9757 14bb b356 b33d
00000110: a095 00be f594 933d 9a0f 35be 5f70 713e
00000120: 56e4 2cbd c568 cbbf f0f4 adbd b44e 733f
00000130: d5cb 0b3d b8c3 c8bc 66df 033d 73ce 1bbc
00000140: ed2f dfbb cc44 7c3e e96b c940 22b3 923c
00000150: a981 63bd 7e3f 5dbc b675 a13d 7c21 abbd
00000160: 6981 80bd 460e 523c 3158 29bd 6665 82bd
00000170: faee 76bd 263e 38be be89 a63d c98f babc
00000180: 898f ca3e 95eb ddbf 2671 043d d710 253e
00000190: 3cbf 07bf 49ff c83e 1b99 0ebf b685 64be
000001a0: 800e 423d 11c0 d7bd 419b cbbe 1f78 2c3e
000001b0: 9415 dabe c820 813e 51d2 083c 1e32 ffbd
000001c0: 138c a3bd 1961 dabd f530 24be 9bf9 13be
000001d0: 69a9 50be b8c9 73be 4aad 43be 2c05 92bd
000001e0: e57c 9d3e 35be f23e 0c2f 0ebf 98bb 32c0
000001f0: 7262 3cbf d91e 91be 551f 6abf 571d e9bd
00000200: 69af ddbd d262 dabd 8c38 07be 51c1 383e
00000210: b76b 72be 4042 b73d 2ae6 81be fb40 c7bb
00000220: 0198 46bc 024d 4ebe a916 46be 7f54 77be
00000230: 2707 8cbd e7b0 90be 574e 66be a684 4b3d
00000240: f2de dbbd 4f15 6040 58e8 6e3f 2e0c b1bf
00000250: da83 8e3e 4355 48bf 4455 a1be 3c45 08be
00000260: c348 c9bd 5a3e 2d3e 0928 0dbf ec96 b5bd
00000270: 20fb 6e3d 65e8 1e3e a431 06be fecf 08be
00000280: 1430 47be 6ad1 8dbd 735a c83c 4edc 4bbd
00000290: f903 08be ddbb bb3d f5eb b03e 4fae 31bd
000002a0: 5378 babd 22a1 203f 6813 b73f 94d1 cfbe
000002b0: 80c4 973e 8e61 4e3f 57f4 8abe e3a7 fcbe
000002c0: d682 5abe 0822 dd3d 1c55 8b3d 49ca 213e
000002d0: bacb 693e 5609 84bd 7d4e 3fbe fb5c 43be
000002e0: fb75 1ebe a6de 32be d4b5 f9bd ec1b 0ebd
000002f0: 7796 45be 9277 f13d f717 cc3e 8a1e a0bd
00000300: f04d 0dbf 1a7d 47bf cc19 11c0 b245 d23f
00000310: 2cf0 233e 0448 09bf 39da 453f 6763 05bf
00000320: 221d 293e 8787 8fbe 106b 16be eae8 c93e
00000330: 821b 8ebe 9233 f9bd 64fc 7dbd ce10 0fbd
00000340: 6aa4 31be 638c 84bb 9bc0 3abe 25dd ca3b
00000350: c351 5cbd b86a 67be 6d7a 72be 2316 073e
00000360: 55e9 64bf 0abc 86c0 8ceb 9cbd ddd4 0ec0
00000370: 1edd d83d 8ecc 2c3f a603 753f b90a 333f
00000380: 5dbc 243d f438 babe d07a 9dbd 9053 cc3d
00000390: ba76 4bbe 2def 0b3d 6945 aebd 5c4f 1abd
000003a0: 0d09 1cbe 9c0a 32be 994e 803c aab6 83bd
000003b0: 51fd 17be 7559 24be f975 22be 915c 9c3d
000003c0: 7298 87be cfe7 fd3e b382 4cbf dc82 d7bf
000003d0: debf b9bd 6939 c53e 6128 1a3e 8d20 983e
000003e0: cb9c debd 341b 0ebf 8e7c 8fbf 9daa 10bf
000003f0: 6515 163e 6ff9 fbbd 093a 84bc 93a4 90bd
0.18673843 1.3120896 -0.5132872 0.62334305 -0.106074065 0.3989412 -0.2842864 0.36730266
0.12392445 0.45770258 -0.35790423 -0.22932637 -0.28458142 -0.007464856 -0.033888083 0.153413
-0.08798423 -0.04445332 0.07367209 0.016271826 -0.033758283 -0.087284386 -0.035445765 -0.20759094
0.29864076 -0.4491229 -0.039466318 -2.2826772 0.07186472 0.015281945 -0.7814958 -0.6217128
-0.0025192448 0.41594356 0.14854819 -0.11358978 0.10446202 -0.17739467 -0.03981237 0.07483083
-0.028388942 0.08505642 0.039905854 0.10064674 0.07135593 -0.036651976 -0.093710415 -0.07600769
0.04828998 0.7752657 0.28406668 0.4875509 0.09493039 -0.031486116 -0.034544807 -0.0016161591
-0.0008060875 0.19309802 0.09986225 -0.06902653 0.016196692 -0.021344729 -0.073688135 0.008254467
-0.03566695 -0.10034952 -0.0022635215 0.08756771 -0.12557077 0.07206146 -0.17681733 0.23578022
-0.042209946 -1.5891348 -0.08493984 0.95041966 0.034129936 -0.024507388 0.03219547 -0.009509671
-0.006811133 0.24635619 6.2944226 0.017907683 -0.055543575 -0.013503907 0.0788378 -0.08355996
-0.06274683 0.012820786 -0.04134387 -0.063669965 -0.0602865 -0.17992458 0.08131741 -0.02277364
0.39562634 -1.7337519 0.03233447 0.16119705 -0.53026175 0.39257267 -0.5570237 -0.22316632
0.04737711 -0.10534681 -0.39766887 0.16842698 -0.42594588 0.25220323 0.008350925 -0.12460731
-0.079857014 -0.10663051 -0.160343 -0.14450686 -0.20377125 -0.23807418 -0.19109073 -0.07129893
0.3075935 0.4741074 -0.5554054 -2.7926998 -0.73587716 -0.28343847 -0.9145406 -0.11382549
-0.108244725 -0.1066338 -0.13205165 0.18042494 -0.23673902 0.08948183 -0.25370914 -0.0060807443
-0.0121212015 -0.20146564 -0.19344582 -0.24153326 -0.06837302 -0.28259966 -0.22490822 0.04968705
-0.10735883 3.5013006 0.9332328 -1.3831842 0.2783497 -0.782551 -0.31510365 -0.13307661
-0.09828331 0.16918316 -0.55139214 -0.08866677 0.05834496 0.15518339 -0.13104874 -0.13360593
-0.19451934 -0.06924708 0.024457192 -0.049770646 -0.13282765 0.091666915 0.3455502 -0.043379124
-0.09104981 0.6274587 1.4302797 -0.40589583 0.29642105 0.80617607 -0.27139542 -0.49346837
-0.21338972 0.107975066 0.06803343 0.15799822 0.22831622 -0.06447093 -0.18682285 -0.19078438
-0.15474693 -0.17467746 -0.12192884 -0.034694597 -0.19295679 0.11790384 0.39862034 -0.07818325
-0.5519705 -0.77925265 -2.2671995 1.6427519 0.16009587 -0.5362551 0.77286106 -0.521048
0.1651502 -0.28033087 -0.14689279 0.39435512 -0.27755362 -0.121680394 -0.062008277 -0.034928136
-0.17347875 -0.0040450557 -0.18237536 0.0061909133 -0.05378891 -0.22599304 -0.23679514 0.13192038
-0.89418536 -4.210454 -0.076621145 -2.2317421 0.1058905 0.67499626 0.9570869 0.69938236
0.0402187 -0.36371577 -0.0768944 0.09976876 -0.1986951 0.034163643 -0.08509333 -0.03767334
-0.15237828 -0.1738686 0.015662478 -0.06431325 -0.14842726 -0.1604975 -0.15865315 0.07634843
-0.26483494 0.49590918 -0.7988693 -1.683681 -0.09069799 0.38520363 0.15054466 0.29712334
-0.1086975 -0.5551026 -1.1209886 -0.56510335 0.14656599 -0.12303435 -0.016140955 -0.0706264

inverse_net.0.bias f4 [64]
00000000: bcbd 36be b86f 533e e69c 1f3e ac32 9abd
00000010: 98ce f03d 9c41 aabd df04 8fbd e7f7 05be
00000020: 4a4b 4bbe b813 783c 5d7d 2abe 8c6d f53d
00000030: 450b bdbd 1216 12be d2ef c7bd f14c 6dbe
00000040: 5e26 63be 4546 203e 5b42 843d 7799 b3bc
00000050: 842d d63d aeac 383e 4f7b 1bbe 5949 56bb
00000060: 67c8 c2bc 3534 c1bd 9a35 4dbc cc98 57bd
00000070: f996 02be 4ae2 4cbe 7b26 8cbe d1a1 74be
00000080: bfb4 9dbd 8900 ca3d 430e ebbd a790 50be
00000090: bbe8 36be a254 72bd d572 49be 7f81 e8bd
000000a0: ac0b ddbb a3d5 17bd 636b b23c bf60 463e
000000b0: 28d2 9a3d f51c 8cbd 82fd f23c dbae 8cbc
000000c0: 553c 05bd 6047 363c 1d9d 5c3d 62b0 18be
000000d0: f33b f83d 715d 95be 24f9 23be 82ed 863d
000000e0: 2c1d 88bd e3cf 21be c651 54bd 2292 0c3e
000000f0: c815 1a3c 9784 12be 9937 243e a635 b5bd
-0.17845815 0.20648086 0.15587196 -0.07529196 0.11758155 -0.08313295 -0.06983351 -0.13082848
-0.19852939 0.01514142 -0.16649385 0.11983785 -0.09230665 -0.14266232 -0.09762539 -0.23173882
-0.22182605 0.15651806 0.06457969 -0.021923764 0.104579 0.18034622 -0.15183757 -0.0032697527
-0.0237772 -0.09433786 -0.012524987 -0.052635953 -0.12752904 -0.20008197 -0.27373108 -0.23889853
-0.0770049 0.09863383 -0.114773296 -0.2036768 -0.17862217 -0.059162743 -0.19672711 -0.113528244
-0.006745776 -0.037068974 0.021779722 0.19372843 0.075596154 -0.068414606 0.029661898 -0.017173221
-0.03252824 0.011125416 0.053860772 -0.14911035 0.121208094 -0.29172853 -0.16013008 0.0658827
-0.06646189 -0.15801959 -0.051835798 0.1372762 0.009404607 -0.14308392 0.16036834 -0.08848123
