IL/Model/model_reacher_88.pt (torch, 292527 bytes, 20 tensors)

policy_net.0.weight f4 [64, 24]
000000 66 3d 37 bf 59 57 c4 bf 2c 8b b9 3e e7 87 c3 3d
       -0.7157806 -1.5339156 0.36238992 0.09547406
000010 77 d2 b8 3e 63 69 7b be 5e 7d e9 3e a2 45 8f bd
       0.36098072 -0.2455192 0.4560346 -0.06995703
000020 43 b0 4b 3e f2 ba 46 3e 89 ff db 3c aa 93 38 bd
       0.19891457 0.19407251 0.026855247 -0.0450627
000030 cb dd 9e bd 6a 47 50 bd a1 ce dd 3e 4d 24 58 3e
       -0.077571474 -0.050849356 0.43321708 0.21107598
000040 ff ed 84 3e d5 84 2a 3d 98 ad f1 be 6e 14 53 bf
       0.25962827 0.041630585 -0.47202754 -0.8245305
000050 5c 5d 17 bf 01 b1 2f bd 32 7c 91 3e ef 07 6b 3d
       -0.5912683 -0.042893413 0.28415066 0.057380613
000060 09 5d 61 3e 6c 21 87 bf de 5a 99 be 85 52 17 3e
       0.22008146 -1.0557075 -0.2995214 0.14777572
000070 b0 f3 a4 3e eb 58 9a 3e 95 a7 a1 3f fd fc cb be
       0.3221717 0.30145964 1.2629267 -0.39841452
000080 84 ba fe bd 32 22 c8 be d8 0d e2 3e 8c 07 4c 3d
       -0.12437919 -0.3908859 0.44151187 0.049811885
000090 33 f3 cf bc e9 53 ca be a6 53 36 bd 60 29 fd bd
       -0.025384521 -0.39517143 -0.044513367 -0.12361407
0000a0 36 05 28 be 75 12 9b be 3a db d4 be 5c 69 94 be
       -0.16408238 -0.3028752 -0.41573507 -0.28986633
0000b0 c3 c5 c5 be c3 62 a1 3d 28 c6 24 be 06 db 8a bd
       -0.38627443 0.078801654 -0.16091216 -0.06780057
0000c0 63 55 ea 3d c8 44 73 3f 58 6f 14 bf 13 8d 1f 40
       0.114420675 0.95026827 -0.579824 2.4929855
0000d0 52 b4 99 bd 02 4a 2d be ac 19 dd 3b 39 d0 d3 3d
       -0.075050965 -0.16922763 0.006747445 0.1034245
0000e0 df 9c 39 3f 91 48 96 bd 13 e6 fc 3d c9 fc b7 bd
       0.7250499 -0.0733806 0.12348571 -0.08983762
0000f0 8c 30 13 3f b0 6b ea 3e a8 28 0b be cb 2d 46 be
       0.5749595 0.45785284 -0.13589728 -0.19353406
000100 39 f4 32 be d9 0d 89 be fd d0 b6 38 2f ef e8 3c
       -0.17475976 -0.26768377 8.7173634e-05 0.028434364
000110 10 88 af 3d 5c 33 4f 3e 45 cd 21 be b5 6e 8b be
       0.08570874 0.20234436 -0.1580096 -0.272329
000120 d1 26 0d 3f 17 38 54 3f e3 5c 11 bf 0c f1 f1 bf
       0.55137354 0.82898086 -0.5678236 -1.8901687
000130 7e a2 ea 3e 52 f1 5e 3e 97 84 f6 3e 26 fa 17 3e
       0.45827097 0.21771744 0.48148033 0.14841518
000140 9a 26 cb bd 31 90 34 3e 87 da 41 be 7c 8e 55 bf
       -0.09919472 0.1763313 -0.18931018 -0.8342054
000150 9d 83 88 bd 2a 79 d3 bc 0e ce a0 bb 3b 5a ab bd
       -0.06665728 -0.025814611 -0.004907376 -0.083668195
000160 44 fa f6 bd d3 a0 97 bd a6 e1 16 be 46 e3 dc be
       -0.12059453 -0.07403722 -0.14734516 -0.43142146
000170 ae e6 0b be 0d e8 85 be a6 e6 0d be 76 2e a4 3d
       -0.13662216 -0.26153603 -0.13857517 0.08016674
000180 92 c6 95 bd b0 90 ab 3e 87 16 75 be 20 20 a2 3e
       -0.07313265 0.33508825 -0.23934375 0.31665134
000190 f7 58 80 bc a8 fa 34 3e 04 7e fa 3d c6 00 c0 3d
       -0.015667422 0.17673743 0.12231067 0.093751475
0001a0 fc eb ee bb da 85 66 be 78 1e 7a be 54 a4 09 3f
       -0.007291315 -0.22511998 -0.24425685 0.5376637
0001b0 27 6b 3c bf 29 63 10 bc 0c 21 7f 3e ce 0c 43 3e
       -0.73601 -0.008812704 0.2491495 0.19047853
0001c0 2e 90 d6 3e f6 c4 b5 3e 0a 09 4d 3e c8 69 80 3e
       0.41906875 0.35501832 0.2002298 0.25080705
0001d0 71 37 ed bd e5 0b 74 be fe f7 65 be 0d 4b 67 bd
       -0.1158284 -0.23832662 -0.22457883 -0.05646806
0001e0 c8 ec cd be bb a9 9e bf e0 f1 07 3f b3 6f 00 c0
       -0.40219712 -1.2395548 0.53103447 -2.0068176
0001f0 5e 5d 1d be 59 62 08 be c3 a1 a0 3e 55 93 75 be
       -0.15367648 -0.13318767 0.31373414 -0.23981984
000200 b5 90 70 bf c8 49 c8 3e 51 47 aa be da b5 7c bd
       -0.93970805 0.3911879 -0.33257535 -0.061696865
000210 1d a9 ca bd 1b 00 88 be 39 55 10 3e 65 3b 18 3e
       -0.09895537 -0.2656258 0.1409501 0.14866407
000220 56 2f 4e 3e 0f e2 3b 3e 6c a5 cf 3e f4 fe fb 3e
       0.20135245 0.18347953 0.40555894 0.4921795
000230 59 e8 8e 3e 63 dd fd 3d f2 a2 30 be 33 7d 9a bd
       0.27911642 0.12395742 -0.17249659 -0.07543411
000240 43 78 d2 be 86 a1 9e 40 45 8b 61 3e 22 44 83 bf
       -0.41107377 4.957217 0.22025783 -1.0255167
000250 8c fb e9 be 96 3f 1a 3f 75 41 da be bf d0 8c 3e
       -0.45699728 0.60253274 -0.42628065 0.2750301
000260 4e c2 19 3e 0a af 3e bd ba 24 a1 3e 8a 87 16 be
       0.15015528 -0.04655365 0.31473333 -0.14700142
000270 5b 70 aa 3d 8d 6c 06 3e 21 c4 12 3e e9 9b 66 bd
       0.08322211 0.13127346 0.1433263 -0.05630103
000280 68 5f 76 3e a2 96 8f 3e d1 e0 cb 3d 05 b4 a8 3e
       0.24059832 0.2804461 0.0995499 0.32949844
000290 1d ff 26 3e a6 62 28 be 12 6b e0 be 0f c7 2d be
       0.16308255 -0.16443881 -0.43831688 -0.16970466
0002a0 68 eb b5 3c c2 b1 07 3f d7 75 65 3f 15 d2 e5 3f
       0.022206977 0.5300561 0.89632934 1.7954737
0002b0 5c 0f 65 be 45 7c 3b 3e 28 ad 3a 3e 15 87 c9 bd
       -0.2236914 0.18309124 0.18230116 -0.09840218
0002c0 af b7 2b 3e fa d4 e4 be b1 84 08 3b a4 c8 dd 3e
       0.16769288 -0.44693738 0.0020831043 0.4331714
0002d0 4b 0b 8a be 1f a6 f6 3c 6a ab 8f be d0 82 b7 bd
       -0.2696174 0.03010851 -0.28060466 -0.089604974
0002e0 bb 23 1c be d5 e8 2d 3e d3 9e 83 bc fb 21 31 3b
       -0.15248005 0.1698335 -0.016066944 0.002702831
0002f0 2c 65 23 3e 77 ee 84 be 75 37 36 bd d2 91 a2 3d
       0.15956563 -0.25963184 -0.04448648 0.07937969
000300 d3 f3 8c 3f cd e0 05 3e 04 fd 2d bf 04 bb 34 bf
       1.1011909 0.13074036 -0.67964196 -0.70597863
000310 dc 56 ba bd 8f fe aa 3e ae fc 9c be 87 d6 4e 3e
       -0.09098598 0.33397338 -0.3066153 0.20199023
000320 90 ee f2 3d c7 68 d4 3e 05 30 57 bd 4b 02 31 3e
       0.118619084 0.4148619 -0.05253603 0.17286031
000330 4c 9a 01 3e f6 e8 21 3e 09 e9 4f be 56 2f 7a bd
       0.12656516 0.15811524 -0.2030374 -0.0610803
000340 9e 96 d6 bd a3 c2 4e be 99 d1 c3 3d e9 32 e3 bd
       -0.10477947 -0.20191436 0.09561462 -0.11093695
000350 71 11 98 3c d3 5b a5 3d f4 26 8a bd 78 f0 78 3e
       0.018563004 0.08074155 -0.06745711 0.24310482
000360 af 6b b8 3e 39 68 c5 3f 70 08 49 3e ef d3 fa bf
       0.36019656 1.5422431 0.19632125 -1.9595927
000370 8c 54 02 bf 6b 86 a4 3e 87 51 76 be ee ce ad 3d
       -0.5091026 0.32133803 -0.24054538 0.08486734
000380 fb ca ee 3c 65 e9 00 3f 2a e1 22 3f 94 95 b3 be
       0.029149523 0.5035613 0.63624823 -0.35075057
000390 0a e0 26 be 0a 84 b7 be 5a 44 c6 3e cb 3d 94 3e
       -0.16296402 -0.35842925 0.38724023 0.28953394
0003a0 2a fa 7d 3e f2 03 cb 3d 28 af 1c 3e 7d 3a 90 be
       0.24802461 0.09912862 0.15301192 -0.28169623
0003b0 2d 6b f5 be 99 03 a4 be 68 05 01 be 55 7a 9b 3d
       -0.4793333 -0.32033995 -0.12599719 0.07591692
0003c0 f3 e0 39 3f d0 73 07 40 8d 0e c3 3e f0 eb 79 bf
       0.7260887 2.1164436 0.3809704 -0.9762564
0003d0 cc 42 c3 3e f2 7e 13 3e c3 23 28 bf ae 8a a7 bd
       0.381369 0.14403895 -0.6567957 -0.08180748
0003e0 05 f9 a4 be ed 0a 21 3f 5e ff b7 3e d8 50 fa bc
       -0.32221237 0.62907296 0.35937017 -0.030556127
0003f0 e9 fc 46 3e 19 52 74 3e 2c ea 14 bf 5c 83 0f bf
       0.19432415 0.23859443 -0.5816982 -0.56059813

policy_net.0.bias f4 [64]
000000 09 a8 50 bd e9 d2 0e bd ec fd 93 be 93 4a b0 bc
       -0.0509415 -0.03486911 -0.28904665 -0.021519935
000010 59 51 1d 3e 5e af c0 be 30 06 00 3e b6 b1 ba bc
       0.15363063 -0.37633795 0.1250236 -0.022789817
000020 9d 2c 48 3e b6 3c 3e 3e 1b 5f b1 bd 40 e4 7a 3c
       0.19548269 0.18577847 -0.08660718 0.015313208
000030 5e c7 e6 be b4 c5 bf be 12 1a 9b 3e d2 9c 81 3d
       -0.4507398 -0.37455523 0.30293328 0.06328739
000040 44 b2 e1 3d f9 ca 94 3e 0e f7 04 3e 5b 5c 26 be
       0.110203296 0.29061106 0.12984869 -0.16246168
000050 47 12 da 3c 76 03 1f be 95 c2 6d be ec 5a 8c 3d
       0.026620043 -0.15528664 -0.23218758 0.068532795
000060 de 9d 2b bd ac 31 ec 3d d5 87 98 3e 6c b0 ea 3d
       -0.0418986 0.11532912 0.29791132 0.11459431
000070 05 44 26 3e 0a 60 87 bb 62 85 0e be 8d 39 65 bd
       0.16236885 -0.004131322 -0.13918069 -0.055963088
000080 50 72 21 3e 13 9a 7f 3e 54 1d 8c bd c7 61 c2 bd
       0.15766263 0.24961118 -0.068415314 -0.09491306
000090 ab 92 d1 bc 19 3c 09 3b 28 00 05 be 8a 3d a7 3e
       -0.025582632 0.0020940362 -0.12988341 0.32664138
0000a0 9f 2a af 3d 32 59 a2 be 10 cf d2 3d 92 41 f4 bc
       0.08553051 -0.31708676 0.102934 -0.029816423
0000b0 e5 7b 58 be 95 08 8f be c8 cb cb 3e f3 d5 ae bc
       -0.21141012 -0.27936235 0.3980391 -0.021342253
0000c0 e5 f9 dc bc 6c 0d 80 3e 9d 1d 2a 3e b8 85 11 bd
       -0.026974628 0.2501024 0.16612859 -0.035527915
0000d0 cf 30 1f 3e f5 0d 89 3e 80 27 47 3d 08 e4 a7 3e
       0.15545963 0.2676846 0.048621655 0.32791162
0000e0 8a 22 98 be b6 c7 6e bc ab 69 46 be 12 b0 35 3e
       -0.2971385 -0.014573982 -0.19376247 0.17742947
0000f0 b7 11 a5 3e d0 fa 8a be 73 0f 29 be f3 85 0d bd
       0.32240078 -0.2714448 -0.165098 -0.034551572

policy_net.2.weight f4 [128, 64]
000000 5b 13 83 be 08 96 05 3e fb 0b c0 be 53 56 85 be
       -0.25600705 0.13045514 -0.3750914 -0.26042423
000010 92 0c 6f 3d f1 46 bc 3e 7b 5e 82 3d fb b3 4f 3e
       0.058361597 0.36772874 0.06365677 0.20283501
000020 59 b2 16 3e d7 d4 f7 3d fb 69 f6 bd 09 26 4c bf
       0.14716472 0.12101143 -0.12031933 -0.7974554
000030 b7 1c 34 3e 9f 45 83 be c1 ff 9b 3d ed a7 0a 3f
       0.17589079 -0.25639054 0.076171406 0.54162484
000040 c1 48 9a be 2a 80 04 3d c1 b3 21 be 6d 0f 86 bc
       -0.30133632 0.03234879 -0.15791227 -0.016364777
000050 a4 bb 36 be a1 4d 59 be a9 6d e4 3d a7 66 e8 3e
       -0.17845017 -0.2122102 0.111537285 0.45390818
000060 66 af 53 3e a4 df ca be a3 18 c0 be 1d e9 37 3f
       0.20672378 -0.3962375 -0.37518796 0.7184008
000070 74 1f 3c 3d 73 6a 32 3e 9c b9 58 bf d4 da 41 be
       0.045928434 0.1742342 -0.8465822 -0.18931133
000080 92 62 e2 be 0c bf 0a 3c f9 49 04 bc 2c 0c 31 be
       -0.44215828 0.008468401 -0.008074277 -0.172898
000090 26 26 0f 3e 48 8d 14 3e 32 c5 78 be 3d 18 bd be
       0.13979396 0.1450702 -0.24293974 -0.36932555
0000a0 72 b2 2a 3e 53 2e 6c bf 7b 5a 26 be f1 ba 9b 3f
       0.16669634 -0.92258185 -0.16245453 1.2166425
0000b0 3b b4 14 be 1c 5c 24 3e db 36 d0 3d 3c 01 a3 3d
       -0.14521877 0.16050762 0.10166713 0.0795922
0000c0 25 7f 01 3e ac 14 48 bf 7e e9 67 bc 60 1a e3 3c
       0.12646158 -0.7815654 -0.01415479 0.027722538
0000d0 ae e6 0b be 0d 1a a1 be e9 26 9e 3e 64 3a 78 3d
       -0.13662216 -0.31465188 0.3088906 0.06060256
0000e0 9e f8 ee bd cc 84 4f 3d df a5 89 3e 4a fc a7 bc
       -0.11668514 0.050663754 0.26884362 -0.020506043
0000f0 f7 7b a2 be 81 db a5 bd a1 70 41 3e 5c 7a 13 bc
       -0.31735203 -0.08098508 0.18890621 -0.009001341
000100 c8 c9 34 bf e4 13 54 3f 8a ab b3 3e 7f 01 a6 3e
       -0.70620394 0.8284285 0.3509181 0.32423016
000110 70 b9 19 c0 ef 8b a8 be d9 1e 99 3e e1 16 24 bf
       -2.4019432 -0.3291926 0.29906347 -0.6409741
000120 d9 0e 1d 3c 52 0c ed bd cc ed f0 3b 3a 76 ab be
       0.0095860595 -0.115746155 0.0073525663 -0.33488637
000130 55 6d 84 3d 57 d2 21 3e 44 46 c8 3d 78 91 0d 3e
       0.06466166 0.15802895 0.09779027 0.13825023
000140 9c 24 30 be 65 17 d3 3c 3c 08 9c 3e ec bb 2b be
       -0.17201465 0.025767991 0.30475032 -0.16770905
000150 a5 b4 90 3d 77 88 7a 3e 2b 8c 6b be ae 6b 57 bf
       0.07065705 0.2446612 -0.23002689 -0.8414868
000160 66 ea 47 be 68 04 30 bd 72 3d ff 3e 41 5b d9 3e
       -0.1952301 -0.042972952 0.49851567 0.42452434
000170 5c 50 b1 3d 64 30 73 be 74 a7 5f 3d 07 f6 e3 bd
       0.086579055 -0.23748928 0.054603055 -0.1113091
000180 1b 81 0a bf 3c e7 06 be 80 3a 2a be b4 09 c0 3d
       -0.5410325 -0.13174146 -0.16623878 0.09376851
000190 8a 07 d8 3e 90 3d 12 3f 8f 62 13 3c c2 6c 8c be
       0.42193252 0.57125187 0.008995666 -0.27426726
0001a0 1a 94 08 bf f4 09 f7 bd c1 75 70 3e dc 1e 4e bf
       -0.53350985 -0.12062445 0.2348242 -0.8051584
0001b0 f4 20 55 3e f2 f3 dd 3d 93 1c 1a 3e 46 18 21 3e
       0.20813352 0.108375445 0.15049963 0.15731916
0001c0 ce 16 1c 3f 61 c0 fb 3c f0 ee 25 bf bf f2 df 3d
       0.609723 0.030731382 -0.64817715 0.10934972
0001d0 e8 11 f5 3e 91 a5 bb be a5 c9 2d 3e 97 4b 32 3e
       0.47865224 -0.36649755 0.16971453 0.17411648
0001e0 a1 09 f4 bd 93 0a a4 be 5d a8 48 be f6 d4 04 3e
       -0.11915899 -0.32039317 -0.19595475 0.12971863
0001f0 e6 2f 31 3e 37 a5 5a 3e d3 af 0d be e4 19 b6 be
       0.17303428 0.21352087 -0.13836603 -0.35566628
000200 36 f0 a8 be ff e6 95 be f7 aa 0c bf 3c b4 8b 3e
       -0.32995766 -0.292778 -0.5494837 0.27285945
000210 13 6f 28 3e 1d 82 10 3e a3 ce 08 be 09 57 85 3d
       0.16448621 0.14112134 -0.13360076 0.06510741
000220 f2 bc 78 ba e8 69 9d 3e e7 c3 67 bc 0b 8c fb bd
       -0.0009488604 0.30744863 -0.014145828 -0.122825705
000230 71 b7 53 be 45 35 2d bf c1 cf 2e 3e 75 d1 dd be
       -0.20675446 -0.6765941 0.1707144 -0.43323866
000240 aa 6c b1 bd 98 8b f9 3d 23 bb e1 3e 62 38 42 bf
       -0.08663304 0.121848285 0.44088086 -0.75867283
000250 da 7b 1b 3e b9 68 f5 bd 53 b3 46 3e d3 6b e7 be
       0.15183964 -0.11982865 0.19404344 -0.4519945
000260 8e f3 f4 be 7d b5 e3 3e 62 14 2b bd 9a af 1b 3e
       -0.47842067 0.44474402 -0.041767485 0.15203705
000270 3d ee c9 3e 45 d6 01 be b8 05 5a bd aa 69 a8 3e
       0.39439574 -0.12679394 -0.05322811 0.32893115
000280 a6 42 8e 3e 67 8d 9a 3d 7d bd c0 be ed e9 e4 3d
       0.27785224 0.075465016 -0.37644568 0.1117743
000290 b0 5f 07 3e 62 f5 97 be f6 ef d5 3e d5 72 52 3f
       0.13220096 -0.296794 0.41784638 0.8220647
0002a0 a0 ed 96 3d 54 c9 41 bf 7e a0 18 be 67 4a 66 3c
       0.07369542 -0.7569783 -0.14904973 0.014055825
0002b0 7e 8f 7c bd 5e 71 14 3e 1d fc 2e be a8 81 de bc
       -0.061660282 0.14496371 -0.17088361 -0.027161434
0002c0 c8 05 e8 bc 9c e0 76 3d 04 f6 18 3e 9e cf a8 be
       -0.02832307 0.060272798 0.14937598 -0.329709
0002d0 7e cc ad 3e ea a8 11 3d d0 ce 1d be 70 e1 9e 3e
       0.33945078 0.03556148 -0.15410924 0.3103137
0002e0 b0 eb 37 bf fe 80 a6 bd f0 cb 5f bf f3 9c 3d 3e
       -0.71844006 -0.08130072 -0.8742056 0.18516903
0002f0 5c cd ea 3e 91 dc ca be 4a e0 cf bd 62 b6 3f bf
       0.45859802 -0.39621404 -0.101502016 -0.7488767
000300 9a 1e ef be a3 9f dd 3e 12 ba c4 be 3f a9 40 3d
       -0.46703035 0.43285856 -0.3842321 0.047036406
000310 57 1a 81 be 2f 25 b4 bd 00 00 ef be 70 2d 94 3d
       -0.25215408 -0.08796155 -0.46679688 0.07235229
000320 b9 60 8e 3e 2a 6b ef 3e b0 2d 9c 3e 82 61 2d be
       0.2780817 0.46761447 0.30503607 -0.16931728
000330 1d 71 b8 be cc c6 74 3d ad 36 e0 3e fa 53 57 bd
       -0.360238 0.0597599 0.43791714 -0.05257032
000340 9d 22 15 3e 20 2c 42 3e ac 70 78 bd d3 8e d4 be
       0.14563985 0.18962145 -0.060654327 -0.41515216
000350 09 25 44 3e a0 27 83 be da 6c 85 be 69 07 66 be
       0.19154753 -0.2561617 -0.2605961 -0.22463764
000360 64 ce fb be 55 3d d7 3e a7 b8 ac be e0 2a 01 be
       -0.491809 0.4203898 -0.3373463 -0.12614012
000370 8e 4e 3b be 5a 79 26 bd 82 da b0 be 77 84 e8 be
       -0.18291685 -0.040643074 -0.34541708 -0.45413563
000380 bd 3b 4a 3f a8 b9 b4 3e da bd 5f be ff c6 3a 3e
       0.78997403 0.35297894 -0.21849766 0.18239973
000390 88 80 fe be 9c 94 07 be ce 81 8f 3d 32 50 25 bf
       -0.49707437 -0.13240284 0.0700718 -0.64575493
0003a0 56 ad f9 bd 8a 06 23 bf 5f 1b 1d 3e 4d 16 15 bf
       -0.12191264 -0.6368185 0.15342472 -0.58237153
0003b0 5e 09 2d be f5 91 57 bf 5e ba 04 bf a5 fa 51 3e
       -0.16898105 -0.8420709 -0.51846874 0.2050577
0003c0 b2 9f 1e bf 3a 7b 80 be d6 78 2b 3f 1d fe c0 be
       -0.61962426 -0.25094014 0.66981256 -0.37693873
0003d0 56 1d b4 3e 81 30 ed 3e ca 95 b4 3e 24 06 19 3f
       0.35178632 0.46326068 0.3527053 0.59774995
0003e0 0f cd b0 be fa b8 d9 be a6 77 57 be f9 84 0e bf
       -0.34531447 -0.42523938 -0.21041736 -0.5567165
0003f0 a4 9f f6 bd a1 e5 7f be b3 f2 fe bd b8 7e bf 3e
       -0.12042168 -0.2498994 -0.12448635 0.37401366

policy_net.2.bias f4 [128]
000000 97 8d ec 3d 18 82 0a be c4 fd 2a 3e 9c d0 e6 3c
       0.115504436 -0.1352619 0.16698366 0.028175645
000010 9c b6 1f bc d9 5b d6 3d 82 74 d2 bc 51 e8 90 bd
       -0.009748127 0.10466737 -0.02569032 -0.07075561
000020 35 c5 ea bb a1 a6 32 3e b1 db 7d be b1 09 00 bd
       -0.007164622 0.17446376 -0.24790837 -0.031259242
000030 50 60 9c bd c7 e9 2d be e4 43 05 3e 3c 3a ad 3d
       -0.07635558 -0.1698371 0.1301418 0.08458373
000040 d1 b1 1d 3e 7c 28 9c be 57 dc 24 3e c7 52 8a 3e
       0.15399863 -0.30499637 0.16099678 0.2701628
000050 b6 7d ad be 78 e5 5d bc db c5 4d be 10 7c fa bd
       -0.33884972 -0.013543479 -0.20095007 -0.12230694
000060 05 ef 97 bd d4 c0 5e be a1 98 47 bc 2c 55 1f 3d
       -0.07418636 -0.21753246 -0.012182386 0.038899586
000070 6d de b5 bb 84 67 df bc 25 6e c4 bd f0 a7 3e bd
       -0.005550197 -0.02727104 -0.09591321 -0.046546876
000080 86 28 43 bd 32 70 6f 3d 09 5f be be 54 87 a2 be
       -0.047646068 0.058456607 -0.3718188 -0.31743872
000090 a0 fd 7f be 23 77 66 3e f3 39 d6 3e 6a 4d 4b 3e
       -0.24999094 0.22506385 0.41841087 0.1985375
0000a0 37 20 c1 bd 7f f5 b1 be f4 68 f2 3d a5 d5 75 3d
       -0.094299726 -0.3475761 0.118364245 0.0600182
0000b0 6f de 95 be cc 43 cc bd 81 09 11 3c 00 91 d4 39
       -0.29271266 -0.09973869 0.008852364 0.00040543824
0000c0 a9 d9 4a 3e 4e 8c cb be 7f 3b a3 be 02 3a 97 3e
       0.19809593 -0.3975548 -0.3188133 0.29536444
0000d0 4f d7 00 be 86 70 38 3e cf a5 12 bd 06 76 4e 3c
       -0.12582134 0.18011674 -0.03580266 0.012601381
0000e0 e9 71 59 3e 79 bf 07 3d 3f a0 83 3c 61 d8 4d 3d
       0.2123486 0.033141587 0.016067622 0.050255183
0000f0 a0 b0 74 be ae e3 5c bd 05 a9 b8 3d b2 fd 76 be
       -0.23895502 -0.05392807 0.09016613 -0.24120215
000100 a4 05 05 be 3a 04 61 bc b3 59 07 be f9 29 62 be
       -0.12990433 -0.013733918 -0.13217811 -0.22086324
000110 01 2b a5 3d c0 55 e4 3c e6 81 57 be 2e 24 57 be
       0.08064843 0.02787292 -0.21045646 -0.21009895
000120 f9 e6 5e 3e 2f b6 5b bd ee f9 55 3e 34 94 7c 3e
       0.21767797 -0.05364054 0.20896122 0.2466591
000130 d1 0f 6d bc 8a c6 85 be c8 a3 d8 3d 05 89 b8 3c
       -0.014469103 -0.26128036 0.10578114 0.022526274
000140 04 fa 20 bd 41 f7 52 bd 59 23 aa bc 5a 71 65 3d
       -0.039300933 -0.05150533 -0.020768808 0.056016304
000150 a9 f5 01 3d 66 57 3e bd f8 1e ab bc 84 52 cd bd
       0.03172842 -0.04647007 -0.02088879 -0.10025504
000160 33 b9 38 3e 9d 74 90 3e 9b 88 6a 3d 96 99 97 3c
       0.18039398 0.2821397 0.057259183 0.018505853
000170 a5 6b a4 be 40 63 1d 3d fe ac 0b be 92 39 1f be
       -0.32113376 0.03842473 -0.1364021 -0.15549305
000180 d9 70 8f be 04 13 5f be 4a 3c 3e be 2f a1 e8 be
       -0.28015783 -0.21784598 -0.18577686 -0.45435473
000190 3a 02 9b 3c b2 5c 16 be 2a 26 2c be 54 fe 85 3b
       0.01892196 -0.14683798 -0.16811433 0.004089156
0001a0 5d 0e 64 bd 21 c5 a7 be 93 b6 20 bd 3f bf a8 3c
       -0.05567776 -0.32767585 -0.039236616 0.020599006
0001b0 22 24 79 be 62 4c fb 3c da ca 0b be b7 4f 88 3d
       -0.2433019 0.03067607 -0.136516 0.066558294
0001c0 e5 6d 51 be 7e 96 bc 3d df 16 5e 3d 52 76 a0 bd
       -0.20452078 0.092083916 0.05422103 -0.07835068
0001d0 92 30 93 bd 00 72 b5 3d 1a 16 95 be 3b f9 58 be
       -0.071869984 0.088596344 -0.29118425 -0.21188824
0001e0 8d e4 46 3d f3 fb ff 3d 47 6c 9c be 9b e6 ce 3e
       0.048557807 0.124992274 -0.3055136 0.40410313
0001f0 40 b7 a5 bd b0 9c 1b bc 76 21 2c 3e 3a 4e b8 bd
       -0.08091593 -0.009497806 0.1680964 -0.089992955

policy_net.4.weight f4 [128, 128]
000000 72 41 41 bd fa a7 92 be 10 51 85 bd ab e2 83 bc
       -0.047181554 -0.2864378 -0.06509602 -0.016099295
000010 7c 73 87 be b2 a8 83 3e 53 9d 6b bc cc 47 fa 3d
       -0.26455295 0.25714642 -0.014380771 0.122207254
000020 89 8b e2 be d0 54 b2 3b 3e 31 ad 3e b4 f4 f1 3a
       -0.44247082 0.0054422393 0.3382663 0.0018459768
000030 5c ad 7d bd 69 a2 10 3e 59 c4 1f 3f ba 9e 6d be
       -0.061932907 0.14124455 0.6240898 -0.2320508
000040 29 72 fd be 14 91 2d 3f 0b 6c 9d 3e 4b 82 ff be
       -0.4950116 0.67799497 0.30746493 -0.49904093
000050 37 3d 50 3e f4 e0 a8 bc 4a 32 ab 3e 86 42 b2 bd
       0.20335852 -0.020615079 0.33436805 -0.087040946
000060 0d f2 56 be 33 22 81 3d 09 b4 68 bf dc 09 29 3f
       -0.20990773 0.06305351 -0.9089971 0.6603067
000070 21 3a 49 be d5 fb 93 bf e5 a8 f3 be 7d 1d 83 3d
       -0.1965108 -1.1561228 -0.47589794 0.06402109
000080 23 b6 fd bb d3 d1 1f 3e df 2c e3 3e 39 d4 37 bf
       -0.0077426597 0.15607385 0.4437017 -0.718082
000090 17 9d 77 be 00 27 87 be e9 b5 2d be 38 24 8b be
       -0.24181019 -0.26396942 -0.16963924 -0.2717607
0000a0 1f 1e c1 3d 98 80 21 3e 3c 53 56 3e 2f 7b 84 3d
       0.09429573 0.15771711 0.20930189 0.06468808
0000b0 03 a0 d2 be af d7 ae bf a8 bb 82 bd 26 d4 a4 bd
       -0.41137704 -1.3659571 -0.06383449 -0.080482766
0000c0 44 32 aa 3e b6 32 e4 3e 2f 36 f3 3e 5f 82 55 3e
       0.33241475 0.4456994 0.47502276 0.20850514
0000d0 99 86 df 3e d8 1c fa be ed 1f db be 46 a5 85 be
       0.43657377 -0.4885013 -0.42797795 -0.26102656
0000e0 d4 2c 98 bd b2 a6 04 bf 5a c9 ef bd 97 7c 3e bf
       -0.07430425 -0.51816857 -0.11708327 -0.7440886
0000f0 7d d5 d0 bc 8a bf 4a 3e 35 e8 9d bf 1b 7b 6d 39
       -0.025492424 0.19799629 -1.2336489 0.00022647942
000100 d3 a9 0d be 34 02 05 3f dd 10 d5 be c1 ff 3a 3c
       -0.13834314 0.51956487 -0.41614428 0.011413516
000110 80 2d df bd 61 05 0a bf 21 8c fe be b2 e8 07 bf
       -0.1089735 -0.5391446 -0.49716285 -0.5308944
000120 03 cc 8d be e8 55 31 be 23 4f 8e be b1 3a 81 be
       -0.2769471 -0.17317927 -0.27794752 -0.2524009
000130 ac dc 43 be aa 7b 3c 3b d7 fd e4 3d 47 30 6a be
       -0.19127148 0.0028760233 0.111812286 -0.22869979
000140 8f d5 a1 3e e4 47 e4 3e a5 d7 16 3f ed 2f 13 be
       0.31608245 0.44586098 0.589228 -0.14373751
000150 1e 7f 2a be 15 40 fa 3e 50 ba ee bd cf 64 e5 3e
       -0.16650054 0.48877016 -0.1165663 0.44803473
000160 3e a7 be bc 6d 33 69 bf c5 d9 8a 3e 94 c1 72 bd
       -0.023273107 -0.91094095 0.2711927 -0.05926664
000170 a3 8c 9b 3d 5a f5 c1 3e 1b 61 a0 b9 d4 bf d3 3e
       0.07595184 0.378825 -0.00030589927 0.4135729
000180 25 d4 92 be ec 48 a4 3e ec 31 a4 bd 01 a6 ff bd
       -0.28677478 0.32086885 -0.08017334 -0.124828346
000190 fd 5b 19 3e 25 1a 2e 3e 32 5f d0 3d 4b 0b 8c 3e
       0.14976497 0.17002161 0.10174407 0.27352366
0001a0 ba bb de 3d 47 30 21 bf 3f 1a 64 3e b7 0e 32 3e
       0.1087565 -0.6296429 0.22275637 0.17388426
0001b0 49 10 02 bd f8 f0 c2 be 44 d6 66 be 14 bd 8a bd
       -0.031753812 -0.3807447 -0.22542673 -0.06774345
0001c0 33 56 e3 3c 0b 14 0b 3e bf 98 0d be 12 73 f3 be
       0.027751064 0.13581865 -0.138278 -0.4754873
0001d0 c4 4b db be 98 29 91 3d b7 e5 a8 3b 5b 4a 32 3e
       -0.42831242 0.070880115 0.0051543373 0.17411177
0001e0 7d 28 5b 3e 67 61 00 bf 7e 6b 06 bf 55 0b 1a bf
       0.21402164 -0.50148624 -0.5250777 -0.6017354
0001f0 49 61 71 3d 5b fd 02 3f 8e 2d 15 3e cc 4e 21 bd
       0.05893067 0.5116784 0.14568159 -0.039381787
000200 ae 54 9b 3d 19 00 c3 bd 54 9e 39 bf df 08 a7 be
       0.07584511 -0.09521503 -0.72507215 -0.32623956
000210 6e c8 7e be 94 97 38 be 6b 7b 75 be d7 aa 69 3d
       -0.24881145 -0.18026572 -0.23972861 0.05704769
000220 05 e7 ac be f8 2a 10 bf 0a ba a7 3d 27 67 1b 3d
       -0.33770004 -0.56315565 0.08189781 0.03794017
000230 3b e8 e5 be 5b 26 51 3e 71 b9 14 3f 36 ba 3b 3e
       -0.4490374 0.20424788 0.5809546 0.18332753
000240 2a c7 86 bf bb ea bd bb ff b3 1a be 4f 19 a1 3d
       -1.052953 -0.0057958043 -0.15107726 0.07866155
000250 ac 2f 9e be bf 61 b4 be e1 43 25 be f6 83 03 bd
       -0.30895746 -0.35230824 -0.16139175 -0.03210827
000260 11 07 3a bf cf 9a ac bd e1 37 83 be fb 29 44 bf
       -0.7266703 -0.08427965 -0.2562857 -0.7662656
000270 1c 96 35 be 29 2b 6f 3d b6 d2 43 be f1 b5 c8 3e
       -0.17733043 0.05839077 -0.19123349 0.3920131
000280 44 88 09 bf 51 97 9a 3d 13 57 f7 bc 7a 7c 3a bf
       -0.5372355 0.075483926 -0.030192887 -0.72846186
000290 d5 3a 95 3d 4e fe 3f be 5f 2d 73 3e af ba 02 3f
       0.07286612 -0.18749353 0.23747776 0.51066107
0002a0 b3 83 a3 3e ee b7 c2 bd ae f1 91 3d 16 7a 1a bd
       0.31936416 -0.09507738 0.07126175 -0.037714086
0002b0 7a 87 6c bd 82 fc e4 be 0b c9 17 bd 8b 0c f2 bc
       -0.057746388 -0.44723898 -0.037056964 -0.029546997
0002c0 fb 36 5f bf 07 df 0c 3e c2 4b de 3e ea 14 9c bf
       -0.8719327 0.13756953 0.43417174 -1.2193882
0002d0 ce be 84 be 4c 42 3c be 9f c9 45 bf 08 fc ab 3e
       -0.25926822 -0.18384665 -0.77260774 0.33590722
0002e0 fb a8 91 3e 2b 7f ba 3b c2 4f 66 3e 25 f4 5c 3e
       0.28449234 0.005691429 0.22491363 0.21577509
0002f0 b3 c8 68 bf 9a 37 15 bf c1 61 b3 be 19 fe 29 be
       -0.9093124 -0.58287966 -0.35035518 -0.16600837
000300 6f 48 19 bf 3c 35 8b bd 9b 40 9e be 81 a1 05 3d
       -0.5987615 -0.06797263 -0.30908665 0.032624725
000310 7a af f1 bd a8 ba cb be 87 73 c8 bd d5 bc 9e 3d
       -0.118010476 -0.39790845 -0.0978766 0.077508606
000320 14 ed cd be ae c9 b9 3d 34 33 0a be 5d 04 3d 3e
       -0.4021994 0.090716705 -0.13496095 0.18458696
000330 af be 81 3e 30 08 a8 3d b9 03 af be d1 5a ac 3e
       0.25340793 0.08204687 -0.34182528 0.33663037
000340 00 a5 84 bf de 43 49 be ae 4a 0e bf ec 25 e2 3e
       -1.0362854 -0.19654796 -0.555827 0.44169557
000350 dc 9f dc bd 1f d2 68 3d 33 66 17 be 4f 94 96 3e
       -0.10772678 0.056841012 -0.1478508 0.29410025
000360 51 e4 94 be 9a ea 02 3e 01 a4 67 be e4 20 be 3d
       -0.29080442 0.12784806 -0.22621156 0.09283617
000370 4e 62 a4 3e 68 da 09 bf 8c 7a d7 3e 4b 38 52 bf
       0.3210625 -0.53848886 0.42085683 -0.82117146
000380 c7 13 4f bf 0b cb 09 bf 52 6a e4 3e 5c 5e ca 3b
       -0.8088955 -0.53825444 0.44612366 0.0061757993
000390 c0 a9 f1 be 39 66 68 3e dc c2 00 3d 19 07 0a bf
       -0.4719982 0.22695245 0.031435832 -0.5391708
0003a0 08 46 e3 3e e9 f6 a9 3d 9d 8b 7b bd 89 39 a8 3d
       0.44389367 0.082990475 -0.061412442 0.08214099
0003b0 92 90 ab 3e 13 f9 94 3e 11 8a 31 be 9a 91 61 be
       0.33508736 0.2909628 -0.17337824 -0.22028199
0003c0 83 da cf bd c9 93 df be 72 a9 c3 3e 53 a6 73 3e
       -0.101491 -0.4366744 0.38215214 0.23793916
0003d0 00 25 22 bf 59 e9 ff 3e fe dd 66 3e 99 6e d9 3c
       -0.6333771 0.49982718 0.22545621 0.026541995
0003e0 29 4e 3c 3d 95 cc 9a 3d 00 e9 4b 3e 01 5a 33 be
       0.045972977 0.07558552 0.19913101 -0.17514803
0003f0 3d 64 7c be 99 a1 c5 3d cd 7f cd bf de 78 59 3e
       -0.24647613 0.09649963 -1.6054627 0.21237513

policy_net.4.bias f4 [128]
000000 1a bc 95 be 75 fc e3 bd c6 ca 7d 3d 32 be a2 be
       -0.29245073 -0.11132137 0.061960958 -0.31785733
000010 b3 c0 a0 bd d9 f8 29 3e 98 01 2e be e2 6c 1a be
       -0.078492545 0.16598834 -0.16992795 -0.15080598
000020 95 4b 86 be f9 47 0d be 1b 40 a3 3d 80 4c 51 be
       -0.2622954 -0.13796987 0.079712115 -0.20439339
000030 67 47 92 bd 2b 83 bc be 4b 0a 18 3b f6 ad 92 3d
       -0.07142525 -0.36818823 0.0023199494 0.07162087
000040 60 b6 b5 bd bb ab ae bd 51 07 dd bd c2 01 3d 3e
       -0.08872676 -0.08528849 -0.10792411 0.18457702
000050 a6 73 5d be 50 47 2d be 1d 73 a5 be fe 9f 0d bf
       -0.21626148 -0.16921735 -0.32314387 -0.55322254
000060 40 96 97 be e5 33 a2 3e c8 7c 07 be f1 e7 38 be
       -0.2960682 0.31680217 -0.13231194 -0.18057229
000070 5a 5c 9f be ca 91 2c 3e 86 ff 83 3c 76 0a 6c be
       -0.31125146 0.16852489 0.016113054 -0.23050866
000080 a5 23 fd 3c 7e a8 8d 3e cf b2 d6 3d 2a d4 79 be
       0.030900786 0.27667612 0.10483324 -0.2439734
000090 98 93 04 3d a8 46 91 3d 2c 7d 11 bf 11 f0 08 3e
       0.03236732 0.07093555 -0.5683162 0.13372828
0000a0 d6 ef 27 3e 24 e1 83 be 93 75 e2 bd 4f 43 c5 3d
       0.16400084 -0.25757706 -0.11057582 0.09631979
0000b0 dd ad 6e be 6f 1c 4c 3e 99 ad 10 3e 8e 83 12 be
       -0.23308511 0.19932722 0.14128722 -0.14307997
0000c0 c6 2d 09 3d ef b9 d7 be 75 47 e5 bd 0d c8 a8 3e
       0.03349092 -0.42134044 -0.1119527 0.32965127
0000d0 2e 96 09 bf 5b 9b f2 3c e2 70 6a 3e e6 60 1a bf
       -0.5374478 0.029615095 0.22894624 -0.60304105
0000e0 e1 a0 3a be 71 1e 17 bd 3c 21 87 3d be 7b 31 be
       -0.18225433 -0.036894266 0.06598136 -0.1733236
0000f0 db 9f dd be 5d 64 40 be 2c 86 b4 be 75 7e 10 3d
       -0.43286023 -0.18788286 -0.35258615 0.03527685
000100 32 f2 c2 bd 52 47 75 bd a5 86 a0 be e5 37 44 3d
       -0.09518851 -0.05988247 -0.31352726 0.047904868
000110 a8 d6 9f be 0c 09 d8 be 4e 79 a5 bd 30 15 0b bf
       -0.31218457 -0.42194402 -0.08079778 -0.54329205
000120 3a f6 ac 3e 0f 0a e9 3b 0b 39 30 3e 9a c1 8f be
       0.33781606 0.007111795 0.1720926 -0.28077394
000130 95 f8 95 be fa b6 78 3e a4 50 8a 3e 0b 5b 08 3e
       -0.29291216 0.2428855 0.2701465 0.1331598
000140 34 11 84 bf 05 37 ab be e8 b1 1b 3f 36 67 a4 be
       -1.031775 -0.33440414 0.6081834 -0.32109994
000150 07 43 97 be ba 94 66 3c 38 e1 b0 bd 1c 11 7b 3e
       -0.29543325 0.014073545 -0.08636707 0.24518245
000160 0f 95 0e bf c2 40 39 3e 60 5a 3c bc 4d ac 8a be
       -0.55696195 0.1809111 -0.011496156 -0.2708458
000170 a2 92 38 be be 8e 74 bb 59 74 10 bf 86 73 2d 3e
       -0.18024686 -0.0037316526 -0.5642753 0.169386
000180 18 80 a1 be aa e4 8c bd 3f 7f fa bd 27 ae 2a 3d
       -0.3154304 -0.06879552 -0.122313015 0.04166999
000190 4e b0 6c 3e d5 d4 d3 3d e9 ea a7 bd a1 de 8e bc
       0.2311413 0.10343329 -0.081991024 -0.017440142
0001a0 3d a4 00 bf 33 84 f7 3c 67 a4 03 3e 3b dd 1e bf
       -0.5025061 0.030214405 0.12855683 -0.6205632
0001b0 50 b8 b8 3d 66 a5 54 3e e4 e3 77 be da 3c 1f 3d
       0.0901953 0.2076622 -0.24208027 0.038876392
0001c0 a3 e2 18 be 21 5e ef 3d 3a ab 24 3e 7a 55 e5 3d
       -0.14930205 0.116878755 0.16080943 0.11197944
0001d0 c5 39 44 be 19 4a 36 3e b9 52 64 be 84 09 b4 3e
       -0.19162662 0.17801704 -0.22297181 0.3516351
0001e0 43 ae 9b be 87 85 42 3e 72 21 c3 bc 12 c6 2b 3e
       -0.3040639 0.18996249 -0.023819659 0.16774777
0001f0 58 04 84 be bf e7 10 bd 68 9e a0 bb 28 83 5b be
       -0.25784564 -0.03537726 -0.004901696 -0.21436751

policy_net.6.weight f4 [64, 128]
000000 2f b7 10 bd 43 d1 25 3e d9 96 f0 3e 56 92 5d bf
       -0.035330947 0.16193108 0.46990088 -0.86551416
000010 e8 d1 1b be e3 dd 07 be 4b c8 0b 3f 56 c9 4d 3e
       -0.15216792 -0.13268237 0.546025 0.20096335
000020 17 5e 24 3e a2 a3 fe be e9 05 7e bd 56 11 83 3e
       0.16051517 -0.49734217 -0.062017355 0.25599164
000030 e3 e5 e6 3d fe 12 8e be 14 58 20 be 1f 04 1f 3e
       0.11274316 -0.27748865 -0.15658599 0.15528916
000040 f4 ee 06 3f e7 8a 14 3e 52 a2 97 be 46 46 f3 3e
       0.52708364 0.14506112 -0.29616028 0.47514552
000050 ce e8 d6 3e 55 15 9f 3d d1 02 99 3e 5d b5 a9 bd
       0.4197449 0.07767741 0.2988496 -0.082865454
000060 2e b2 00 bf bb f3 24 3e 8e 5a 98 3c b8 bd 23 3f
       -0.5027188 0.16108601 0.018597867 0.6396136
000070 3b 34 15 3e 80 09 79 3c 0c 3c 0d bf c2 39 e6 be
       0.14570706 0.015200019 -0.5516975 -0.4496594
000080 6a 88 41 be 00 76 95 bf de 90 18 bf 5b 02 da bb
       -0.18899694 -1.1676636 -0.5959605 -0.006653113
000090 50 5e 29 be 91 d2 dc be 93 df ff bd dc 9e 8f bd
       -0.16539884 -0.431294 -0.12493815 -0.07012722
0000a0 b3 47 0e bd 1b c4 0a bf 7a 0a 63 3e 27 6b 15 3d
       -0.034736346 -0.54205483 0.22171965 0.03647914
0000b0 b8 16 25 bf 59 81 c9 3e 58 90 0b 3d 71 71 31 bd
       -0.6448779 0.39356497 0.034073204 -0.043321077
0000c0 06 fe 31 bd ed 9f 3f 3f c8 3f bf be 71 70 b1 3e
       -0.043455146 0.748534 -0.3735335 0.34656098
0000d0 34 e9 c4 3e 0e 77 93 bd 2f 3c ba 3d 77 8f f2 3d
       0.3845917 -0.07200442 0.0909351 0.1184377
0000e0 51 60 2e 3e 91 07 97 bd 17 6c 1d 3f c6 26 e7 bd
       0.1702893 -0.0737449 0.61493057 -0.11286692
0000f0 df 2f 2b be bf 0e c6 3d 02 4f 8f be 17 7e 66 3e
       -0.1671748 0.09670781 -0.27989966 0.22509037
000100 02 57 c9 be e0 57 7b 3c dd a5 ff be 32 3e c0 3e
       -0.39324194 0.015340775 -0.4993123 0.3754745
000110 f1 34 08 be 9a fc bb be ae 81 4e 3c 61 2e 49 bf
       -0.13301446 -0.36716157 0.01260416 -0.78586394
000120 29 49 84 3e 82 00 4c 3d cf a1 46 bf 60 72 ff bc
       0.25837067 0.04980517 -0.7759065 -0.031182468
000130 d5 b5 88 be cb 6c 4e bf e4 99 f1 be 89 c0 bd be
       -0.26701227 -0.80634755 -0.47187722 -0.37060955
000140 6a 5f 33 3d e5 2e 38 3b 6c 5b a8 3e ed 0b 2b be
       0.043792166 0.0028104123 0.3288225 -0.16703768
000150 fe 22 21 bf e4 2c b5 be ef 54 04 3f 83 6e da be
       -0.6294402 -0.3538581 0.516921 -0.4266244
000160 70 d7 9f be 3e 20 8d 3b c9 5a 3a 3e 83 65 03 bf
       -0.31219053 0.004306822 0.18198694 -0.5132677
000170 39 57 92 be cc 2a 16 be f8 33 09 3e ac 8b 45 bf
       -0.2858217 -0.14664763 0.13398731 -0.7716625
000180 4b 2a bd 3d c9 84 fe bd 19 8f 6d bb e1 b7 ce 3e
       0.09236582 -0.124276705 -0.0036248623 0.40374663
000190 a1 2d f6 be d8 81 29 bd d0 85 2d bd 4d 05 ea bd
       -0.48081687 -0.041383594 -0.04236394 -0.11426792
0001a0 92 46 b4 bd 52 1f da be 27 b1 c6 3e a5 d5 4d be
       -0.08802523 -0.4260202 0.38807032 -0.2010103
0001b0 86 ce 8e 3e 15 8c 07 3e 39 41 6a 3e 0c a3 8a be
       0.2789194 0.13237031 0.22876443 -0.2707752
0001c0 e8 98 26 be 96 9f 8d bd 21 39 a3 be c6 a0 aa be
       -0.16269267 -0.06915204 -0.31879523 -0.33325785
0001d0 bf 8b 05 3f 02 9b 51 bf 02 0f 7a bf a4 8f e4 be
       0.5216636 -0.8187715 -0.9767915 -0.4464084
0001e0 03 f1 1a be 9e 7d b5 3d 45 db 4e be b3 ef 3f 3e
       -0.15131001 0.0886185 -0.20200832 0.18743782
0001f0 f6 9a 01 3e 77 1e bb be 71 77 10 bf e2 26 ad be
       0.12656769 -0.3654668 -0.56432253 -0.33818728
000200 5e 5a 59 bc c6 e1 04 be 67 c5 16 be 38 2d 82 3d
       -0.013266174 -0.1297675 -0.1472374 0.06356281
000210 ef 63 05 bd cf 36 cc 3d e1 bc 50 3e 87 0e 80 be
       -0.032566007 0.099713914 0.20384552 -0.25011083
000220 7f e0 a4 be c2 93 14 be 12 1f 14 3e 54 d3 46 bd
       -0.32202527 -0.1450949 0.14464977 -0.048541382
000230 7f e9 f7 bb 46 ed 01 be 69 3b a0 3d 94 23 04 be
       -0.0075656767 -0.12688169 0.078238316 -0.12904197
000240 a9 c5 f0 3d 93 52 65 bd 97 75 27 be 15 8a b6 3e
       0.11756451 -0.055986952 -0.1635345 0.35652223
000250 fa bc 0d be fc dc 98 3e c7 68 07 be f6 62 4b be
       -0.1384162 0.29856098 -0.13223563 -0.1986197
000260 a7 12 2b bf 23 5c 89 be 9c 3c c3 be 51 8e 0d bf
       -0.66825336 -0.26828107 -0.3813218 -0.5529528
000270 73 21 2a 3e 9e 9e e9 3d c6 a6 02 be 49 64 62 bf
       0.16614322 0.11407207 -0.12758932 -0.88434273
000280 b1 0a 04 be 3d 3b 20 be 8a d7 3e be d3 fe 15 3e
       -0.12894703 -0.15647598 -0.18636909 0.14647989
000290 17 16 f5 bd 3c c4 39 bd 23 12 8a bc 92 b7 e3 bd
       -0.11967104 -0.04535316 -0.016854351 -0.11118998
0002a0 6a dd 61 bd 96 27 98 3e a3 eb 8e 3e c6 b6 31 bf
       -0.055142798 0.29717702 0.27914152 -0.69419515
0002b0 c3 f7 a4 be 64 a0 a6 3d 91 cd 88 bc 14 7a 35 bb
       -0.32220277 0.08136061 -0.016699584 -0.0027691172
0002c0 ac fa 00 be a3 d2 cc bd bf 05 da 3c 4d e3 05 3f
       -0.12595624 -0.10001113 0.026614068 0.5229996
0002d0 9f 70 4e be 5f 82 36 3d be 17 01 3e 66 a8 cb be
       -0.20160149 0.044557925 0.12606713 -0.39776915
0002e0 f1 34 41 be f0 29 19 3e 84 0a 90 be 3d ec 98 3c
       -0.18867852 0.14957404 -0.28133023 0.018667335
0002f0 30 6c bb 3d 55 1c d7 3d c5 26 39 3e 8c 2a fd bd
       0.091514945 0.10503451 0.18081196 -0.12361631
000300 02 f8 78 bc 50 dd 76 be 40 27 17 3b 2e e4 8c be
       -0.015195848 -0.24107862 0.0023064166 -0.27517837
000310 5a cf b7 be 9a fc 0f bd 57 c4 51 3e 1c f0 4d 3d
       -0.35900384 -0.03515301 0.20485054 0.050277814
000320 3a 59 71 3e 1a 50 01 be d6 84 c8 bc a1 6e 13 3e
       0.23569193 -0.12628213 -0.024477404 0.1439767
000330 a3 19 bc bc f8 44 fb bd 37 ef 81 bf 1b 18 13 bd
       -0.022961443 -0.12269014 -1.0151128 -0.03591166
000340 5f e2 07 be e6 b9 23 be 4a c2 02 be 10 24 9b be
       -0.13269947 -0.15988883 -0.12769428 -0.3030095
000350 ac 0a 02 bf 36 c6 ba 3d 7b e3 94 3d 84 13 bd bd
       -0.50797534 0.09119837 0.07269951 -0.09232238
000360 ad 5c 0c be 33 90 b7 3a 8c 21 18 be fc bf 81 be
       -0.13707228 0.0014004767 -0.14856547 -0.25341785
000370 aa 49 82 be 09 b7 1b 3e a7 56 ce 3d 6e b4 d3 3b
       -0.25446826 0.15206541 0.100751214 0.006460718
000380 05 39 83 bc cd 46 2f bb 67 cc 32 bb 8c c2 b5 bd
       -0.0160184 -0.0026745081 -0.0027282478 -0.088749975
000390 e5 f3 e8 3e 31 a2 4b bd 5c 0f 9c 3d db 69 2a 3e
       0.45498577 -0.049715225 0.07620117 0.16641943
0003a0 20 4b 5a be 09 63 8b 3e 45 82 22 be 5a 74 98 bd
       -0.2131772 0.27223995 -0.15870006 -0.07444067
0003b0 d8 61 bd be 27 a8 ce 3e c9 14 b3 bd 13 88 d7 3d
       -0.3698871 0.40362665 -0.08744199 0.10524001
0003c0 3a 56 c7 be 2b 23 b8 bd de 7d 05 3e 61 0c 5a bf
       -0.38932973 -0.08991083 0.13036296 -0.8517514
0003d0 ea 05 22 3e bf 9a a3 3e f5 6f 13 bf 09 8b 0e be
       0.15822569 0.31954 -0.5759271 -0.13920225
0003e0 f2 0c a9 bc b3 9f 13 be f4 51 d3 3d c8 47 c8 be
       -0.020636056 -0.14416389 0.10318366 -0.39117265
0003f0 d2 da 16 3c 20 f7 4d 3d 57 7b 11 bf e1 08 59 3e
       0.009207444 0.050284505 -0.56828827 0.21194793

policy_net.6.bias f4 [64]
000000 5a c0 86 be 6d 25 b1 3e 33 f6 00 bf 2b db 02 bf
       -0.26318628 0.34598866 -0.5037567 -0.51115674
000010 b5 6d 24 bf 2c 2c ae 3e 08 95 ff be 28 8e 99 be
       -0.642299 0.34018075 -0.4991839 -0.2999127
000020 f3 d2 28 bc be b4 8a 3e d2 97 f5 3e e9 74 4c bd
       -0.0103042 0.2709102 0.47967392 -0.04991618
000030 43 25 c3 3e a1 51 0f 3e ab fd 3e 3f e3 30 aa 3e
       0.38114366 0.13995983 0.74605817 0.33240423
000040 3f 58 90 be 50 e5 f9 be d2 6e 8f bc a7 ec 10 3e
       -0.28192326 -0.48807764 -0.017508898 0.14152776
000050 e8 42 5a be 5c 4d e4 3e e3 a7 2e be 2b f6 e9 3d
       -0.21314585 0.4459027 -0.17056231 0.11423906
000060 dc 23 10 3e 14 ee 6c 3e ee 1f 0b 3f 1e 48 52 be
       0.1407618 0.23137695 0.54345596 -0.20535323
000070 06 3c 79 3e 47 48 53 3e 5e 80 b8 3e 7e a2 05 be
       0.24339303 0.2063304 0.36035436 -0.13050267
000080 1a 06 85 be 9d 17 c7 3e 64 7a 9d 3e 56 3b 95 bd
       -0.25981218 0.38885203 0.3075744 -0.07286708
000090 c9 f9 aa 3c 10 46 a6 3e 29 a7 4a 3e 57 d4 1c bf
       0.02087106 0.32475328 0.19790329 -0.61261505
0000a0 36 bc f5 3e ed 19 20 be e1 ea 5d 3d 30 8c ea be
       0.47995156 -0.1563489 0.054179076 -0.4581008
0000b0 d7 66 07 3f 43 7d 33 3f 4b 27 a0 be ae cf c9 bd
       0.52891296 0.7011301 -0.31279978 -0.09854065
0000c0 8a bc 14 bf 9d 57 da be 6d b2 2c be cb 20 04 3f
       -0.5810019 -0.4264497 -0.16864939 0.5161254
0000d0 c8 4b ef be 9a 56 9c bd ef 5c c4 be c8 5b 8b be
       -0.46737504 -0.076337054 -0.38352153 -0.2721846
0000e0 65 0f 1f 3f 1a 8a 88 3e 86 c9 cb bd 20 5c b8 be
       0.62132865 0.26667863 -0.09950547 -0.36007786
0000f0 1e 74 e4 3d 7d 1c 51 3e b1 a2 a9 be ad 4a 3d 3e
       0.1115496 0.20421024 -0.33131936 0.18485518

policy_net.8.weight f4 [4, 64]
000000 10 38 b3 bd f1 69 c9 3c d1 0e 95 be 98 19 bf 3d
       -0.087509274 0.02458665 -0.29112867 0.093310535
000010 2d 9d a1 3d 4c 93 5c 3d a9 47 23 3d db 2a 3b bd
       0.07891307 0.05385141 0.039863262 -0.045695167
000020 12 2f 39 be ec 93 6b 3c 91 1b f9 3b 46 55 b7 3d
       -0.18084362 0.014378529 0.007602163 0.089518115
000030 89 91 c2 bc 7e 0d 02 3e 88 36 b4 3c bd d2 81 3b
       -0.023751037 0.1270046 0.021998659 0.0039618895
000040 e9 a0 3c 3d f3 12 88 bd 78 25 6c bd 8e 93 e4 3d
       0.046051893 -0.06644239 -0.05765292 0.11160956
000050 2e 1c f4 3d ef 16 ac 3d 67 06 35 3c c6 64 59 3d
       0.11919437 0.08402812 0.01104889 0.05307462
000060 75 6d 8a bd 7a 0a 91 bd 53 a0 35 3d 24 72 37 3d
       -0.067591585 -0.07082076 0.04434235 0.044786587
000070 f4 1e dc bc b7 71 7a bd 09 b8 b1 bc 9b a2 1a bd
       -0.026870228 -0.061143603 -0.0216942 -0.03775273
000080 b5 04 81 3c 1a 1d 4f 3c 9a 83 59 bd ca 80 3f bd
       0.015749315 0.012641216 -0.05310402 -0.046753682
000090 5a 2b 37 3d 87 b8 93 3d be 67 78 3c ab 95 04 3d
       0.044719078 0.0721293 0.015161453 0.032369297
0000a0 6b 6e 2d 3d 3d 6a a6 bd 11 6e 41 3d be a8 5e bd
       0.04234163 -0.08125732 0.047224108 -0.054360144
0000b0 a6 ea 9e bc 05 5d bf bc 0d 69 8a 3d b2 44 38 3c
       -0.019398998 -0.023359785 0.06758318 0.011246847
0000c0 18 44 61 bd ca c6 95 3d b1 48 dd bc 41 6e 85 bc
       -0.05499658 0.07313307 -0.027012201 -0.016287925
0000d0 f7 e8 a4 3e 70 c4 ba 3c 7c 66 9d bd 7f 73 36 bd
       0.32208988 0.022798747 -0.07685563 -0.04454374
0000e0 2d 62 d0 bd 20 0e 67 3d 31 2a b7 3c f2 6e 6c bd
       -0.101749755 0.056409955 0.022358986 -0.057722993
0000f0 de 6b 8e 3d ce 4c 35 bd 04 4f 2c 3d 30 a0 35 bd
       0.06954168 -0.0442627 0.042067543 -0.04434222
000100 c7 55 50 3c 3f cd d6 bc 36 83 a5 3e 72 25 90 bc
       0.012715763 -0.026220916 0.32326669 -0.01759598
000110 70 f0 bf 3d 34 99 b0 3d dc 9a d8 bc e3 1f 2c bd
       0.09372032 0.08622971 -0.02644103 -0.042022597
000120 83 fb 9b 3e 3d 42 85 bc a4 a3 1d bd e6 01 31 bd
       0.30465326 -0.016266936 -0.038486138 -0.0432147
000130 9a ff bd 3d ca 46 98 3d ec 11 68 3c c0 5a 01 be
       0.09277268 0.07435377 0.014164429 -0.12632275
000140 c8 2a ee 3b 08 78 b8 bd 0d f9 ac bd 12 32 e5 3c
       0.0072682835 -0.09007269 -0.0844594 0.027977977
000150 34 7f 96 3d 1c 6b 5c 3d c0 84 61 bc f0 c5 51 3d
       0.07348481 0.053813085 -0.01376456 0.05121416
000160 cb c8 b4 bb fb e7 3e bd e7 cb 34 3d 47 a7 a3 3c
       -0.0055171004 -0.046607953 0.04413977 0.019977225
000170 45 ec da bb 19 7a 69 bd ea 0a 92 bd 25 43 e4 3d
       -0.0066809976 -0.057001207 -0.07130988 0.11145619
000180 6c d7 91 3c fa 47 84 3d 83 fb a0 bd 50 81 b2 bb
       0.017802916 0.06459041 -0.07860472 -0.005447544
000190 d7 eb ad bc 24 b4 66 3d 71 b8 00 ba 82 2e 81 3d
       -0.021230621 0.05632414 -0.00049102964 0.06307699
0001a0 df 94 2f 3d 4b 5d e5 bc fd b6 c8 3d e7 f6 ba bc
       0.042866584 -0.027998587 0.09800527 -0.02282281
0001b0 f8 d4 ae bd 1f f0 d0 3b f7 16 ba 3c 31 07 b9 3d
       -0.08536714 0.006376281 0.022716029 0.09034575
0001c0 44 52 88 3c 21 f3 be bd d6 27 0a 3b f2 f5 93 bd
       0.01664079 -0.09323717 0.0021080873 -0.07224645
0001d0 42 5a 3f 3e 7c 8c 88 3d d2 9d 8b bd 70 b6 d5 3b
       0.18686774 0.0666742 -0.06817211 0.0065219924
0001e0 f2 50 ac bd 55 4e 9e bd 54 22 65 bd ea 40 7f bd
       -0.084138766 -0.077297844 -0.05594094 -0.062317766
0001f0 cc 2d 07 3d 58 40 4e bd 37 20 af 3c e9 43 2b 3d
       0.03300266 -0.05035433 0.021377666 0.04181281
000200 5b 42 dc 3d 86 2a 2d bc d7 3d bb 3d 99 e7 a8 bd
       0.10754844 -0.01056922 0.091426544 -0.08247299
000210 06 f0 ac bd 2e 80 c8 bb e0 43 6b be ba 17 83 3d
       -0.08444218 -0.006118796 -0.22975111 0.0640101
000220 9e ff b7 3d e2 fc f0 3d a3 84 9f bd 42 7e 50 bd
       0.08984302 0.117669836 -0.0778897 -0.05090166
000230 75 00 94 3d 5f 97 79 bc 81 38 0b be f8 df 6f 3c
       0.0722665 -0.015233844 -0.13595773 0.014640801
000240 c9 c9 c0 bd 0a 73 62 bd 9c ea cc 39 ab 98 bc bd
       -0.094134875 -0.05528549 0.0003908471 -0.092088066
000250 a9 62 61 be 7a 94 62 3b 74 b1 9b bd fe c2 84 bc
       -0.22010292 0.0034573362 -0.07602206 -0.01620626
000260 21 7d 85 3d 3d 10 15 3d 13 c5 73 3d 03 40 c2 3d
       0.06518007 0.03639244 0.059514116 0.094848655
000270 0b b3 8d 3d 7c f9 b4 3d e9 cc 48 bc b1 a4 08 3d
       0.06918915 0.08836648 -0.012255886 0.033360187
000280 a4 ae b7 bd b1 56 73 bc 9b 8b a0 ba 57 6d 78 bd
       -0.08968857 -0.014852212 -0.0012248637 -0.06065115
000290 4c 02 18 3e 31 24 74 bd b1 ed 14 3c 74 7f 05 be
       0.14844626 -0.059604827 0.009089873 -0.13036901
0002a0 18 04 15 be 91 a2 fa 3d 02 2c 3f bd ac 70 14 3e
       -0.14552343 0.12238038 -0.04667283 0.14496106
0002b0 c8 0f a3 3d dd 77 38 3e 45 36 d8 bd bb 9c 85 3d
       0.079619944 0.18014474 -0.10557226 0.065240346
0002c0 3e a1 b9 3d 29 be 88 bc a9 e2 4e bd 09 a6 15 3d
       0.09063958 -0.016692238 -0.05050913 0.036535297
0002d0 4f d4 4b 3e f8 0f 9e bd f6 35 de 3d 1e ef ed 3c
       0.19905208 -0.077178895 0.10850136 0.029044684
0002e0 1a 2b 42 3e 24 f9 21 bc 70 01 15 bd 5b 44 1d 3e
       0.18961754 -0.00988606 -0.036378324 0.15358107
0002f0 38 bd 37 be f6 80 89 3d ef c7 e4 bd 82 1a a0 3d
       -0.17943275 0.067140505 -0.11170947 0.07817556
000300 83 15 3d bd 9f 08 c5 bd 0f 2d 72 bd 3a c3 2e bc
       -0.046163093 -0.09620785 -0.059125002 -0.010666663
000310 02 9e 2a 3c 4d f4 fd bb 3c 20 dd 3d a8 32 9e bc
       0.010413649 -0.00775007 0.10797164 -0.019311264
000320 15 50 52 bd 11 4b fe 3c 61 43 64 bb 35 84 c1 bb
       -0.051345903 0.031041654 -0.00348302 -0.005905653
000330 c2 4a 9b 3c 05 ae 78 3b bd 32 a9 3d 44 b4 88 bc
       0.018956546 0.003794552 0.08261631 -0.01668752
000340 ab aa 1a bd 55 f6 03 3d a0 ed b2 3b 24 f0 35 3d
       -0.037760418 0.032217342 0.005460456 0.04441847
000350 f1 4a 88 3c b2 fe d4 bb c1 6a 83 bd d8 5f 1e ba
       0.016637297 -0.0065000886 -0.06416846 -0.00060415035
000360 3c 3e 33 bb 7c 3f 10 3d 92 69 2e bd 99 1f ad bc
       -0.0027350327 0.035216793 -0.04258115 -0.021133231
000370 bf ad ed bc 3c e7 9c bc 5b 60 02 3b 58 02 74 3c
       -0.029013513 -0.01915323 0.0019893858 0.014893137
000380 d7 b4 03 3d 5a d6 5a 3c f9 51 38 3d 95 c6 2a bd
       0.032154884 0.013356769 0.04500005 -0.04169329
000390 9c f6 f2 bc 35 8e 20 3d 6b 5a 9d bd 97 f8 fa 3a
       -0.029658608 0.03919812 -0.076832615 0.0019147572
0003a0 df f3 19 3d ed 8d 88 3d d1 d0 c9 3c 07 44 75 bd
       0.03758609 0.06667695 0.024635704 -0.05987933
0003b0 f8 09 d9 bc b2 cb 39 bd c2 f0 a5 3c 65 6c 19 bd
       -0.026494011 -0.045360275 0.020256404 -0.03745689
0003c0 e4 9f 0b bd f1 1e 0f bd 80 7b 3a bd 60 78 97 bd
       -0.03408803 -0.034941617 -0.045527935 -0.073960066
0003d0 b0 ba 0d 3e 1c 55 8c 3d b3 fb 85 3c 55 d1 e2 3c
       0.13840747 0.06852171 0.016355371 0.027687708
0003e0 9d dd 94 bd 5d 57 ba ba bf f7 d4 bb a4 bb 35 bd
       -0.07268832 -0.001421671 -0.00649926 -0.0443684
0003f0 4f c8 22 3d d1 11 28 bd 3a bd 5b be 0a 6d b1 3c
       0.03974181 -0.041032616 -0.21458903 0.02165844

policy_net.8.bias f4 [4]
000000 62 62 ea 3d 2e a7 2f 3d e3 4b 09 3e 2f 81 58 3e
       0.11444546 0.042884044 0.13407855 0.2114303
