IL/Model/model_reacher_91.pt (torch, 292527 bytes, 20 tensors)

policy_net.0.weight f4 [64, 24]
0	0xbf39c6b8	-0.72568846
1	0xbfc1c42a	-1.513799
2	0x3eb92578	0.361614
3	0x3e05836b	0.13038413
4	0x3ebacf64	0.3648635
5	0xbe8c9d23	-0.27463636
6	0x3ef9c63e	0.4878406
7	0xbda990b2	-0.082795516
8	0x3e5259c4	0.20542055
9	0x3e3edb7a	0.18638411
10	0x3cea809c	0.028625779
11	0xbd3f8575	-0.046758134
12	0xbd92b431	-0.07163275
13	0xbd48b79b	-0.049003225
14	0x3ee34ee8	0.44396138
15	0x3e5f787a	0.21823302
16	0x3e863f76	0.26220292
17	0x3d1f32d1	0.03886682
18	0xbef72339	-0.4826906
19	0xbf575b59	-0.8412376
20	0xbf19f840	-0.60144424
21	0xbd306978	-0.043069333
22	0x3e919982	0.2843743
23	0x3d6d5d2f	0.057950195
24	0x3e68d961	0.22739173
25	0xbf930e46	-1.1488731
26	0xbea0257f	-0.31278607
27	0x3db2fbe5	0.08739451
28	0x3eabc755	0.33550516
29	0x3eac82e9	0.33693627
30	0x3fa3a3a1	1.278431
31	0xbecc4a25	-0.39900318
32	0xbe0bf560	-0.13667822
33	0xbec85314	-0.39125884
34	0x3eecd472	0.46255833
35	0x3d20e0df	0.039276954
36	0xbcab6147	-0.020920409
37	0xbed88c5c	-0.42294586
38	0xbd26d03d	-0.040725935
39	0xbdf2904a	-0.11843927
40	0xbe220d81	-0.15825464
41	0xbe980496	-0.29691
42	0xbed23607	-0.41056845
43	0xbe92a23e	-0.28639406
44	0xbec4b74a	-0.38421088
45	0x3da394e3	0.07987382
46	0xbe257c6a	-0.16160741
47	0xbd8310b2	-0.06399669
48	0x3dfa5ad1	0.12224353
49	0x3f7593d3	0.95928687
50	0xbf18390c	-0.59462047
51	0x40213ac5	2.519212
52	0xbd8a0bc3	-0.067405246
53	0xbe371344	-0.17878443
54	0xbc4c1627	-0.012456453
55	0x3daf4bb9	0.08559365
56	0x3f3bca47	0.73355526
57	0xbd88d1dd	-0.06680653
58	0x3dfad4ee	0.12247644
59	0xbdea729f	-0.114476435
60	0x3f118b82	0.568535
61	0x3ef52528	0.4787991
62	0xbe0adb11	-0.1356013
63	0xbe454777	-0.19265543
64	0xbe30d221	-0.17267658
65	0xbe874f4c	-0.26427686
66	0x3bd6e6e0	0.006558284
67	0x3d2210e1	0.03956688
68	0x3dcc91d1	0.0998875
69	0x3e5cf267	0.21576844
70	0xbe19245a	-0.14955273
71	0xbe885f8c	-0.26635396
72	0x3f119797	0.5687193
73	0x3f54a875	0.83069545
74	0xbf15bf78	-0.58495283
75	0xbff804ab	-1.9376425
76	0x3eec22e6	0.46120375
77	0x3e4d5864	0.2005325
78	0x3ef68443	0.48147783
79	0x3e1ca3f0	0.15296912
80	0xbdbbe4cf	-0.09174501
81	0x3e431dd3	0.19054346
82	0xbe40d3b7	-0.18830763
83	0xbf5906c3	-0.8477594
84	0xbd752657	-0.059851017
85	0xbcb5d7c5	-0.022197613
86	0xbc0f4e9f	-0.008746772
87	0xbdb52ed2	-0.08846821
88	0xbe00f02d	-0.1259162
89	0xbda2c8c3	-0.079484485
90	0xbe1d030c	-0.15333194
91	0xbedff9e7	-0.43745348
92	0xbe11ceca	-0.1423904
93	0xbe889c46	-0.26681727
94	0xbe141472	-0.14460924
95	0x3d9acd07	0.07558637
96	0xbd6f016f	-0.058350977
97	0x3ea0fceb	0.3144296
98	0xbe74758e	-0.23872969
99	0x3ea212da	0.31655008
100	0xbc407211	-0.011745946
101	0x3e20896f	0.15677427
102	0x3dd743d4	0.10510984
103	0x3dbd9a8a	0.092579916
104	0x3b8619d6	0.0040924354
105	0xbe7aff54	-0.24511462
106	0xbe71e668	-0.2362305
107	0x3f09762a	0.5369593
108	0xbf3cb1f0	-0.7370901
109	0xbcaa7539	-0.02080785
110	0x3e80e14c	0.25171888
111	0x3e456495	0.1927665
112	0x3ed75135	0.42054144
113	0x3eb64577	0.35599872
114	0x3e4da891	0.20083834
115	0x3e7fc008	0.24975598
116	0xbdf45b4a	-0.119314745
117	0xbe7942a1	-0.24341823
118	0xbe664413	-0.22486906
119	0xbd594381	-0.053042892
120	0xbed7e6c0	-0.42168236
121	0xbfa71dba	-1.3055947
122	0x3f088bac	0.5333812
123	0xbffc58a2	-1.9714549
124	0xbe1b703a	-0.1517953
125	0xbdf6ada0	-0.12044835
126	0x3ea75e49	0.3268912
127	0xbe6f054b	-0.23341863
128	0xbf691d6a	-0.9106051
129	0x3ed32934	0.41242373
130	0xbeab4d0f	-0.3345723
131	0xbd5e351a	-0.05424986
132	0xbddcfcb8	-0.1079039
133	0xbe9173d1	-0.28408673
134	0x3e155e86	0.14586839
135	0x3e1c9b4a	0.15293613
136	0x3e52cca3	0.20585875
137	0x3e420593	0.18947439
138	0x3ed4a2d0	0.41530466
139	0x3f017d82	0.50582135
140	0x3e93febf	0.28905293
141	0x3e00e75c	0.12588257
142	0xbe3d8cf4	-0.185108
143	0xbd9f8ac1	-0.07790137
144	0xbee15be3	-0.44015417
145	0x40a0dbfb	5.026853
146	0x3e6a2702	0.22866443
147	0xbf86696f	-1.0500926
148	0xbeec855c	-0.46195495
149	0x3f1e5bad	0.61858636
150	0xbef3c30b	-0.47609743
151	0x3e8e4d7f	0.277935
152	0x3e32dcb9	0.17467012
153	0xbd51c775	-0.051215608
154	0x3ea18ef3	0.31554374
155	0xbe15df7a	-0.14636031
156	0x3daa91ee	0.08328615
157	0x3e07e5a8	0.132712
158	0x3e15cef8	0.14629734
159	0xbd598e14	-0.053114012
160	0x3e79b306	0.24384698
161	0x3e918667	0.28422853
162	0x3dd5749d	0.10422633
163	0x3eaa3c29	0.33249024
164	0x3e26a3d9	0.1627344
165	0xbe28975c	-0.16463989
166	0xbedfa1d5	-0.43678156
167	0xbe2c79cf	-0.16843341
168	0x3c5b07fa	0.013368601
169	0x3f0d5243	0.55203646
170	0x3f6b3ef0	0.9189291
171	0x3fe48e8c	1.7856002
172	0xbe6a84ed	-0.2290227
173	0x3e2701c2	0.16309264
174	0x3e3817f8	0.17977893
175	0xbdfac094	-0.122437626
176	0x3e2daa25	0.16959436
177	0xbee7d3e6	-0.45278853
178	0xbc1265e0	-0.008935422
179	0x3ee3bb61	0.44478896
180	0xbe9046e1	-0.28179076
181	0x3caeffaf	0.021362154
182	0xbe9305da	-0.28715402
183	0xbdc15717	-0.09440439
184	0xbe1f7c2b	-0.1557471
185	0x3e2c8867	0.16848908
186	0xbc618f41	-0.013767065
187	0x3c1221e9	0.008919218
188	0x3e276e0d	0.16350575
189	0xbe848211	-0.25880483
190	0xbd256bd4	-0.040386036
191	0x3d9f39f0	0.077747226
192	0x3f912d37	1.1341923
193	0x3ddf4220	0.10901284
194	0xbf3408ba	-0.70325816
195	0xbf46d748	-0.77672243
196	0xbdc3023d	-0.09521911
197	0x3eb362a4	0.35036194
198	0xbe9fe097	-0.31226036
199	0x3e479d0b	0.19493501
200	0x3e04d773	0.12972812
201	0x3ed1adfd	0.40953055
202	0xbd48c8d7	-0.04901966
203	0x3e39409e	0.18091056
204	0x3dcc4807	0.099746756
205	0x3e14f3ea	0.14546171
206	0xbe5851b9	-0.21124925
207	0xbd8ea0e5	-0.06964282
208	0xbde8b529	-0.113626786
209	0xbe57ac94	-0.21061927
210	0x3db2758c	0.087138265
211	0xbdf70027	-0.12060576
212	0x3c0762f4	0.008263338
213	0x3d93eee2	0.07223298
214	0xbd8a2c66	-0.067467496
215	0x3e74c493	0.23903112
216	0x3eb7ca37	0.35896465
217	0x3fc6fd08	1.5545969
218	0x3e49f78c	0.19723338
219	0xc002a073	-2.041043
220	0xbf04b5b9	-0.51839787
221	0x3e9d4a02	0.30720526
222	0xbe87564d	-0.2643303
223	0x3dadf238	0.08493465
224	0x3d07002a	0.03295914
225	0x3eff3b5b	0.49849972
226	0x3f242f95	0.64135104
227	0xbeb6f4f2	-0.35733753
228	0xbe2b9537	-0.1675614
229	0xbebaf0bd	-0.36511794
230	0x3ec83607	0.3910372
231	0x3e95ac21	0.29232886
232	0x3e7fccd8	0.24980485
233	0x3dcc1804	0.09965518
234	0x3e1b2eaf	0.15154527
235	0xbe92f79b	-0.28704533
236	0xbef89389	-0.4855006
237	0xbea52090	-0.32251406
238	0xbe012b87	-0.1261426
239	0x3d9bc4b6	0.07605879
240	0x3f3ae215	0.73001224
241	0x40078cc6	2.1179671
242	0x3ec7f1e5	0.39051738
243	0xbf727242	-0.94705594
244	0x3ec43352	0.38320404
245	0x3e108f06	0.14117059
246	0xbf291a9a	-0.66056216
247	0xbda35bbf	-0.079764836
248	0xbea1e49c	-0.31619728
249	0x3f2b9a31	0.6703215
250	0x3eb4304d	0.351931
251	0xbcf38a67	-0.029729081
252	0x3e4b0cb4	0.19829065
253	0x3e751151	0.23932387
254	0xbf18efd3	-0.5974094
255	0xbf127f1b	-0.572252

policy_net.0.bias f4 [64]
0	0xbd4c9d2c	-0.04995458
1	0xbcfad585	-0.030619392
2	0xbe90f06b	-0.28308424
3	0xbcd3b30a	-0.025842208
4	0x3e214ae0	0.15751219
5	0xbec1e7e5	-0.37872234
6	0x3e0162ce	0.12635347
7	0xbccad8ac	-0.02476152
8	0x3e446b63	0.1918159
9	0x3e3e41a5	0.18579729
10	0xbdb0760f	-0.08616268
11	0x3c4dd779	0.01256358
12	0xbeeb1955	-0.45917764
13	0xbebf8e0b	-0.37413058
14	0x3e99c48d	0.3003277
15	0x3d6f1e55	0.058378536
16	0x3dde21be	0.108462796
17	0x3e96d90d	0.29462472
18	0x3e03a1d6	0.12854704
19	0xbe2bb632	-0.16768721
20	0x3d064047	0.032776143
21	0xbe2d6dc6	-0.16936406
22	0xbe733663	-0.23751216
23	0x3d87fe84	0.06640342
24	0xbd2a18dd	-0.041527618
25	0x3df0d317	0.11759012
26	0x3e9aabff	0.30209348
27	0x3df640d9	0.120240875
28	0x3e2ce861	0.1688552
29	0xbc1fb82c	-0.0097485
30	0xbe0da912	-0.13834026
31	0xbd5b7188	-0.05357507
32	0x3e270212	0.16309384
33	0x3e7eb435	0.24873431
34	0xbd81c46d	-0.06336293
35	0xbdc04655	-0.09388415
36	0xbccce6dc	-0.025012426
37	0x3ad73af0	0.0016420763
38	0xbdfc7e1d	-0.12328742
39	0x3ea8a951	0.32941678
40	0x3dc38844	0.09547475
41	0xbea277b8	-0.31731963
42	0x3dd07361	0.10178257
43	0xbcf075fa	-0.02935313
44	0xbe5b2334	-0.21400148
45	0xbe914cb8	-0.28378844
46	0x3ecff38d	0.40615502
47	0xbcbe7dc6	-0.023253333
48	0xbcd16dd2	-0.025565062
49	0x3e80b173	0.25135383
50	0x3e2863ae	0.16444275
51	0xbd1c614a	-0.03817872
52	0x3e223280	0.15839577
53	0x3e88830a	0.26662475
54	0x3d5ba790	0.053626597
55	0x3ea73887	0.32660314
56	0xbe9bbeca	-0.30418998
57	0xbc636c4e	-0.013880802
58	0xbe44a5f9	-0.19203939
59	0x3e3057ce	0.17220995
60	0x3ea722ea	0.32643825
61	0xbe8e5169	-0.27796486
62	0xbe2e1701	-0.17000963
63	0xbd06a9a5	-0.03287663

policy_net.2.weight f4 [128, 64]
0	0xbe83f387	-0.25771734
1	0x3e0650e0	0.13116789
2	0xbec72fe5	-0.38903728
3	0xbe88ed49	-0.26743534
4	0x3d838960	0.064226866
5	0x3ebc1c00	0.36740112
6	0x3d56cc9c	0.052441224
7	0x3e51f73b	0.20504467
8	0x3e07de97	0.13268505
9	0x3e0a012e	0.13477013
10	0xbdc009a5	-0.093768395
11	0xbf5011be	-0.8127707
12	0x3e4100c7	0.18847953
13	0xbe822738	-0.25420547
14	0x3d99719d	0.07492373
15	0x3f10e58d	0.56600267
16	0xbe951e07	-0.29124472
17	0x3b3bac2a	0.0028636553
18	0xbe22df84	-0.15905577
19	0xbd12cc5c	-0.035839424
20	0xbe1d3453	-0.15351991
21	0xbe58bf22	-0.21166661
22	0x3dc08100	0.09399605
23	0x3eea2497	0.4573104
24	0x3e62850c	0.22121066
25	0xbec4e545	-0.3845617
26	0xbebed639	-0.37272814
27	0x3f3e6394	0.74370694
28	0x3db0c77f	0.08631801
29	0x3e23f33f	0.1601076
30	0xbf647965	-0.89247733
31	0xbe6e085a	-0.23245373
32	0xbee66906	-0.45002002
33	0x3ccd551a	0.025064994
34	0xbd35afc6	-0.044357084
35	0xbe1d7dab	-0.1537997
36	0x3e125145	0.14288814
37	0x3e18b0df	0.14911221
38	0xbe71f028	-0.23626769
39	0xbeca761a	-0.3954323
40	0x3e28b993	0.16477041
41	0xbf6e96d1	-0.9319888
42	0xbe189a53	-0.1490262
43	0x3f9de99d	1.2336918
44	0xbe2020be	-0.1563749
45	0x3e26a21e	0.1627278
46	0x3ddc79e1	0.10765434
47	0x3da69d31	0.08135451
48	0x3dbb228d	0.091374494
49	0xbf48f00c	-0.7849128
50	0xbc24e1a2	-0.010063561
51	0x3d523620	0.05132115
52	0xbe1ffbfc	-0.15623468
53	0xbe95278e	-0.2913174
54	0x3ea56cdc	0.32309616
55	0x3d4df85b	0.05028568
56	0xbdf6f82b	-0.12059053
57	0x3d4e0464	0.050297156
58	0x3e90a5dd	0.28251544
59	0xbcc69ee9	-0.024245696
60	0xbe9f166e	-0.310718
61	0xbd8f5416	-0.0699846
62	0x3e53269c	0.20620197
63	0xbc2f3759	-0.010694348
64	0xbf28b88f	-0.65906614
65	0x3f6f4aac	0.93473315
66	0x3eab9d5f	0.33518502
67	0x3eb78641	0.35844615
68	0xc01cab83	-2.4479682
69	0xbe80cacd	-0.25154725
70	0x3e90206c	0.28149736
71	0xbf16df3d	-0.58934385
72	0x3c157abe	0.009123502
73	0xbdee642d	-0.11640201
74	0xbd126172	-0.035737462
75	0xbe9cdf40	-0.30639076
76	0x3db355f2	0.08756627
77	0x3e0d0d91	0.13774706
78	0x3ddcd9a3	0.107836984
79	0x3e1069f8	0.14102924
80	0xbe204452	-0.15651062
81	0x3c0754f2	0.008259999
82	0x3eb02c0c	0.34408605
83	0xbe1f777a	-0.1557292
84	0x3db01486	0.085976645
85	0x3e86ac35	0.2630326
86	0xbe673a13	-0.22580747
87	0xbf4f8239	-0.8105808
88	0xbe46c51c	-0.19411129
89	0xbc9f4b5c	-0.019445114
90	0x3f091185	0.5354236
91	0x3eeaf73b	0.45891747
92	0x3ddd8c76	0.108178064
93	0xbe53aa29	-0.2067038
94	0x3db4fe32	0.088375464
95	0xbe109552	-0.14119461
96	0xbf0c3413	-0.5476696
97	0xbe071ad1	-0.13193823
98	0xbe6abc17	-0.22923313
99	0x3d8419a7	0.06450205
100	0x3eda9188	0.42689157
101	0x3f0e0c74	0.5548775
102	0xbc87d05f	-0.016578851
103	0xbe8a7f55	-0.27050272
104	0xbf103206	-0.5632633
105	0xbda1fc48	-0.07909447
106	0x3e89f9a2	0.26948267
107	0xbf488747	-0.78331417
108	0x3e7dc93b	0.24783795
109	0x3de8424c	0.1134077
110	0x3e31e30c	0.17371768
111	0x3e1e7615	0.15474732
112	0x3f23d1c6	0.63991964
113	0xbc612f25	-0.01374415
114	0xbf2d06e1	-0.6758862
115	0x3e1397d2	0.14413384
116	0x3edd69b4	0.43244708
117	0xbec4b749	-0.38421085
118	0x3e3d293c	0.18472761
119	0x3e0b8232	0.13623884
120	0xbe03c3a3	-0.12867598
121	0xbeb01bf5	-0.3439633
122	0xbe328923	-0.17435126
123	0x3e30fd61	0.17284156
124	0x3e43a544	0.19106013
125	0x3e702716	0.2345241
126	0xbde6314e	-0.11239873
127	0xbec0892b	-0.3760465
128	0xbe9618b1	-0.29315713
129	0xbe8bd248	-0.2730887
130	0xbf0d913b	-0.5529973
131	0x3e834b09	0.25643185
132	0x3e503c0d	0.20335408
133	0x3e2d22fe	0.1690788
134	0xbdf5076b	-0.119643055
135	0x3dd25796	0.10270612
136	0xbbd7fe43	-0.0065915897
137	0x3e917558	0.2840984
138	0xbd63b584	-0.05559303
139	0xbe0605ab	-0.130881
140	0xbe343ce6	-0.17601356
141	0xbf391874	-0.7230294
142	0x3e5d107d	0.21588321
143	0xbed2971d	-0.41130915
144	0xbd9a17c2	-0.07524063
145	0x3db5cb4c	0.088766664
146	0x3ee39bd8	0.44454837
147	0xbf49cca2	-0.7882787
148	0x3dffc427	0.12488585
149	0xbdd2804a	-0.102783754
150	0x3e57e7d9	0.21084537
151	0xbee0a30f	-0.43874404
152	0xbf00e23e	-0.5034522
153	0x3ee1cbe9	0.44100884
154	0xbd17d0f7	-0.03706452
155	0x3e448b61	0.19193794
156	0x3eca6676	0.39531296
157	0xbe0ba073	-0.13635425
158	0xbd10fbaa	-0.035396256
159	0x3ea2a10a	0.31763488
160	0x3e97dc9c	0.296605
161	0x3dae829e	0.08521007
162	0xbebcfae6	-0.3691017
163	0x3dd63bd6	0.104606315
164	0x3def0491	0.11670793
165	0xbe9d05bc	-0.30668437
166	0x3ecc64b0	0.39920568
167	0x3f5a15d5	0.85189563
168	0x3d88f573	0.06687441
169	0xbf5193cc	-0.81866145
170	0xbe0b5c71	-0.13609482
171	0x3cc4986a	0.023998458
172	0xbda6164a	-0.0810972
173	0x3deab5d5	0.11460463
174	0xbe35a7d2	-0.177398
175	0xbcd130be	-0.025535937
176	0xbd699295	-0.057024557
177	0x3da61742	0.08109905
178	0x3e1e2f49	0.15447725
179	0xbea7c225	-0.32765308
180	0x3eb6000c	0.3554691
181	0x3d1c7c7b	0.03820465
182	0xbdc95ead	-0.09832511
183	0x3e9abd9f	0.30222794
184	0xbf3b5c71	-0.7318793
185	0xbddb68a3	-0.10713317
186	0xbf4fe68e	-0.81211174
187	0x3e3f47af	0.18679689
188	0x3efe53af	0.4967322
189	0xbebfa8b8	-0.3743341
190	0xbddcec85	-0.107873
191	0xbf3e5a5d	-0.74356633
192	0xbefcb898	-0.49359584
193	0x3ed97b53	0.424769
194	0xbecab76e	-0.3959307
195	0x3de04550	0.1095072
196	0xbe818dfc	-0.25303638
197	0xbdbb70a6	-0.09152345
198	0xbeea1b8d	-0.45724145
199	0x3d8d597b	0.06901833
200	0x3e746df5	0.2387007
201	0x3eff3318	0.4984367
202	0x3e89e9d9	0.26936224
203	0xbe5718a9	-0.21005501
204	0xbeb1e34b	-0.34743723
205	0x3d940c4a	0.072289065
206	0x3ede6e68	0.43443608
207	0xbd684be3	-0.056712996
208	0x3e2e3e13	0.17015867
209	0x3e17ff59	0.14843501
210	0xbd2b815c	-0.041871414
211	0xbef5a613	-0.47978267
212	0x3e5694ce	0.20955202
213	0xbe80668e	-0.25078243
214	0xbe87a616	-0.264939
215	0xbe4dd799	-0.20101775
216	0xbf04f742	-0.51939785
217	0x3ed3c6c1	0.41362575
218	0xbeb8ff87	-0.36132452
219	0xbe0561cf	-0.13025592
220	0xbe8640c8	-0.262213
221	0xbd4352da	-0.047686435
222	0xbec139be	-0.37739366
223	0xbee55053	-0.44787845
224	0x3f4520d2	0.77003205
225	0x3eb89117	0.36048195
226	0xbe9e5b1d	-0.3092889
227	0x3e57ee89	0.21087088
228	0xbf14e163	-0.5815641
229	0xbe29cd62	-0.16582254
230	0x3d4c057b	0.049809914
231	0xbf1c3154	-0.6101277
232	0xbdf9c1ed	-0.121951915
233	0xbf2b1c78	-0.66840315
234	0x3e07a1a1	0.1324525
235	0xbf151842	-0.5824014
236	0xbe1d169f	-0.1534066
237	0xbf568067	-0.83789676
238	0xbf0cf3cb	-0.550595
239	0x3e3e4d0e	0.18584082
240	0xbf26443e	-0.6494788
241	0xbe5a5280	-0.21320534
242	0x3f287f66	0.65819395
243	0xbed63acf	-0.41841742
244	0x3eb0049e	0.34378523
245	0x3eea061d	0.4570779
246	0x3eb8a860	0.3606596
247	0x3f1ebdb1	0.62008196
248	0xbec2e091	-0.38061956
249	0xbf04c0de	-0.5185679
250	0xbe3c76b9	-0.18404664
251	0xbf0bf8d6	-0.5467657
252	0xbe23c32e	-0.15992424
253	0xbe694aa5	-0.22782381
254	0xbd8f627c	-0.07001206
255	0x3ec74d0b	0.38925967

policy_net.2.bias f4 [128]
0	0x3dfa01c1	0.12207366
1	0xbdfe87a3	-0.124282144
2	0x3e3389c1	0.17533018
3	0x3ccf693a	0.02531873
4	0xbc536440	-0.012902319
5	0x3db8827f	0.09009265
6	0xbd07fbf3	-0.033199262
7	0xbda737d3	-0.081649445
8	0xbb2bdc61	-0.0026223885
9	0x3e38691c	0.18008846
10	0xbe89b00b	-0.26892123
11	0xbd1a5f92	-0.0376888
12	0xbdb3221b	-0.087467395
13	0xbe2e00db	-0.16992514
14	0x3e16a2c9	0.14710535
15	0x3dafca80	0.08583546
16	0x3e251a76	0.16123375
17	0xbe9bbd38	-0.304178
18	0x3e2c485c	0.16824478
19	0x3e8ffbd0	0.28121805
20	0xbeb59fde	-0.3547353
21	0xbc56fbaf	-0.0131215295
22	0xbe51a168	-0.20471728
23	0xbe06c3bc	-0.13160604
24	0xbd9f89f6	-0.07789986
25	0xbe6e0aed	-0.23246355
26	0xbc971c34	-0.018446065
27	0x3d5587dd	0.052131522
28	0xbc4dd211	-0.012562291
29	0xbd00ace0	-0.031414866
30	0xbdc04e84	-0.09389976
31	0xbd04b2ee	-0.032397203
32	0xbd58512e	-0.052811794
33	0x3d7ef646	0.062246583
34	0xbec51f72	-0.38500553
35	0xbea77e6d	-0.32713643
36	0xbe840ab3	-0.25789413
37	0x3e71f5fe	0.23628995
38	0x3eda8460	0.4267912
39	0x3e5c5a80	0.21518898
40	0xbda26c81	-0.07930852
41	0xbeb91894	-0.36151564
42	0x3ddcccdf	0.107812636
43	0x3d20eb56	0.039286934
44	0xbeaa25a1	-0.33231834
45	0xbdfeef92	-0.12448038
46	0x3c3ee115	0.011650343
47	0x3c188c76	0.009310832
48	0x3e4510cf	0.19244693
49	0xbed23291	-0.41054204
50	0xbea55dfe	-0.32298273
51	0x3e9aac46	0.3020956
52	0xbe167e92	-0.1469672
53	0x3e35331b	0.17695276
54	0xbd4b08f9	-0.049569104
55	0x3cae4551	0.021273287
56	0x3e560971	0.20902039
57	0x3cb3961c	0.021922164
58	0x3baa9176	0.0052053286
59	0x3d4f3426	0.050586842
60	0xbe734b37	-0.23759161
61	0xbd252337	-0.040316787
62	0x3d8c5788	0.06852633
63	0xbe75cefb	-0.24004738
64	0xbe013838	-0.12619102
65	0xbc34fd3e	-0.011046706
66	0xbe078834	-0.13235551
67	0xbe6092b6	-0.21930966
68	0x3dc82202	0.097721115
69	0x3ccf89d8	0.025334284
70	0xbe67fd3a	-0.22655192
71	0xbe57a8cf	-0.21060489
72	0x3e6dba8b	0.23215692
73	0xbd224308	-0.039614707
74	0x3e6eb793	0.23312216
75	0x3e820c3a	0.25399953
76	0xbcd529ef	-0.026020972
77	0xbe8cb472	-0.2748142
78	0x3ddbf68d	0.10740385
79	0x3caa0d6d	0.020758355
80	0xbd3db731	-0.046317283
81	0xbd3c904b	-0.046036046
82	0xbc6b3460	-0.014355749
83	0x3d78c308	0.06073287
84	0x3d07b37e	0.03313016
85	0xbd36b904	-0.04461004
86	0xbce63e52	-0.028105889
87	0xbdd51eb4	-0.10406247
88	0x3e349858	0.1763624
89	0x3e951c92	0.2912336
90	0x3d7fe628	0.062475353
91	0x3c98aeee	0.0186381
92	0xbea7c9b1	-0.32771066
93	0x3cd73d3e	0.02627432
94	0xbe085b9f	-0.133162
95	0xbe248abd	-0.1606855
96	0xbe98a290	-0.29811525
97	0xbe5929e6	-0.21207389
98	0xbe399457	-0.18122993
99	0xbeebd91a	-0.46064073
100	0x3c815619	0.015788125
101	0xbe1ec777	-0.15505777
102	0xbe2fba58	-0.17160928
103	0xbb0bb32d	-0.0021316514
104	0xbd31f16e	-0.043443136
105	0xbeaad82c	-0.3336805
106	0xbd16c1dd	-0.036805976
107	0x3c899346	0.016793858
108	0xbe746b2e	-0.23869011
109	0x3ce4b243	0.027917033
110	0xbe0892af	-0.13337205
111	0x3da8e7f3	0.08247366
112	0xbe4baa53	-0.19889192
113	0x3dc2f95e	0.09520219
114	0x3d0dc4b4	0.03461142
115	0xbdaa4f8c	-0.083159536
116	0xbd977f88	-0.073973715
117	0x3dcd0715	0.100111164
118	0xbe9b0705	-0.30278793
119	0xbe5dc9f8	-0.21659076
120	0x3d4d544a	0.050129212
121	0x3e142810	0.14468408
122	0xbea6bbf2	-0.32565266
123	0x3ed341c9	0.41261128
124	0xbda71bb3	-0.0815958
125	0xbcbf62d4	-0.023362555
126	0x3e2a3479	0.16621579
127	0xbde36e3e	-0.111050114

policy_net.4.weight f4 [128, 128]
0	0xbd658fcc	-0.05604534
1	0xbe82cc39	-0.25546435
2	0xbd55ccb8	-0.05219719
3	0x3ce5262d	0.027972305
4	0xbe8097e3	-0.2511588
5	0x3e8235c1	0.25431636
6	0xbb93d93a	-0.0045119794
7	0x3df54cb3	0.1197752
8	0xbecfe13f	-0.40601537
9	0x3bff7c6d	0.007796815
10	0x3e82d86c	0.25555742
11	0x3ccb2586	0.024798166
12	0xbd538e93	-0.05164964
13	0x3e50f4b3	0.20405845
14	0x3f1d10d2	0.6135379
15	0xbe8cd669	-0.27507332
16	0xbeea8ff9	-0.45812967
17	0x3f2d6500	0.6773224
18	0x3e9ab04d	0.30212632
19	0xbeffc2ae	-0.49953216
20	0x3e6ac37d	0.22926135
21	0xbd8bf2ad	-0.06833396
22	0x3ebf61a3	0.37379178
23	0xbd1ada4e	-0.037805848
24	0xbe1cc622	-0.15309957
25	0x3de5ea3c	0.11226317
26	0xbf5b1a45	-0.8558696
27	0x3f3a782c	0.7283962
28	0xbe69cf5d	-0.22833009
29	0xbf890a75	-1.0706316
30	0xbf093d48	-0.5360913
31	0x3d21d324	0.039508
32	0x3c42f719	0.011899733
33	0x3e1283b2	0.1430805
34	0x3eef1a52	0.46699768
35	0xbf4af03b	-0.7927281
36	0xbe437144	-0.19086176
37	0xbe6e31cc	-0.23261184
38	0xbe270a39	-0.16312493
39	0xbe9121df	-0.28346154
40	0x3dce4a20	0.10072732
41	0x3e19a9bb	0.15006153
42	0x3e4cfe08	0.2001878
43	0x3db330a1	0.087495096
44	0xbed6c389	-0.41946056
45	0xbfa3b04c	-1.2788177
46	0xbdcee932	-0.10103072
47	0x3a0a92ca	0.00052861555
48	0x3ea23521	0.3168116
49	0x3eef982f	0.46795794
50	0x3eedf1ea	0.46473628
51	0x3e7be9f8	0.24600971
52	0x3eced2dc	0.40395248
53	0xbf04d63c	-0.51889396
54	0xbec557ad	-0.38543454
55	0xbe62ac4d	-0.2213604
56	0xbe0697b0	-0.13143802
57	0xbf115ff4	-0.5678704
58	0xbe0f4ffd	-0.13995357
59	0xbf391019	-0.7229019
60	0xbc16155c	-0.009160366
61	0x3e5c620f	0.21521781
62	0xbf9b0273	-1.2110122
63	0x3ba1feb1	0.0049436917
64	0xbe48d2e5	-0.196117
65	0x3f0d3fb9	0.5517536
66	0xbee8be1a	-0.45457536
67	0x3ceea596	0.029131692
68	0xbdb8d95b	-0.09025832
69	0xbeeb0d46	-0.45908564
70	0xbed6873e	-0.41900057
71	0xbf075136	-0.52858293
72	0xbe85443c	-0.2602862
73	0xbe02c30d	-0.12769718
74	0xbe9746c8	-0.2954619
75	0xbe775a60	-0.24155569
76	0xbe1e6234	-0.15467149
77	0x3ca7cedb	0.020484379
78	0x3e058232	0.13037947
79	0xbe6f79fc	-0.23386377
80	0x3ea4b310	0.32167864
81	0x3edc62a6	0.43044013
82	0x3f120f23	0.57054347
83	0xbe3c4e11	-0.18389155
84	0xbe3a054d	-0.18166085
85	0x3f0bd629	0.5462366
86	0xbdd1539c	-0.10221025
87	0x3f02472f	0.5088987
88	0xbcadf0a2	-0.021232907
89	0xbf665fd8	-0.89989996
90	0x3e9eb60e	0.30998272
91	0xbd74705e	-0.059677474
92	0x3dae33c6	0.08505969
93	0x3ea54edf	0.32286736
94	0xbd614a8f	-0.055002745
95	0x3ee5f844	0.44915974
96	0xbeaf4188	-0.34229684
97	0x3eb9111f	0.36145875
98	0xbdd1f06f	-0.10250937
99	0xbdb60da8	-0.088893235
100	0x3e561210	0.20905328
101	0x3e4775d7	0.19478546
102	0x3dd25425	0.102699555
103	0x3ea56589	0.32304028
104	0x3db3a00a	0.087707594
105	0xbf12770d	-0.5721291
106	0x3e315185	0.17316253
107	0x3e24e1f6	0.16101822
108	0xbc8fe949	-0.017567294
109	0xbee01fb1	-0.4377418
110	0xbe4d1766	-0.20028457
111	0xbd3ba8d7	-0.045815315
112	0x3c270197	0.01019325
113	0x3debe8ad	0.11518989
114	0xbc92dfae	-0.017928924
115	0xbeda45d5	-0.42631403
116	0xbee6b802	-0.45062262
117	0x3dd6d671	0.1049012
118	0x3bb6e0c8	0.005580995
119	0x3e2a929f	0.16657494
120	0x3e720100	0.23633194
121	0xbf06c6ec	-0.5264728
122	0xbf071031	-0.5275908
123	0xbf11a14b	-0.5688674
124	0x3da6da8d	0.08147154
125	0x3f0d56c1	0.552105
126	0x3e272e3c	0.16326231
127	0xbd632a90	-0.055460513
128	0x3dc9c49f	0.098519556
129	0xbdc0fb48	-0.09422928
130	0xbf417bc6	-0.7557949
131	0xbe9ae89f	-0.302556
132	0xbe2eda22	-0.17075399
133	0xbe826f23	-0.25475416
134	0xbe793ff8	-0.24340808
135	0x3ca1ba39	0.019742118
136	0xbe9ca7ff	-0.3059692
137	0xbf08cd75	-0.534385
138	0x3e22d929	0.15903153
139	0x3ca8609a	0.020553876
140	0xbec62649	-0.38701084
141	0x3e7acc4e	0.24491999
142	0x3f11757c	0.5681989
143	0x3e4096c5	0.18807514
144	0xbf8949bd	-1.0725628
145	0xbd82c0ba	-0.06384416
146	0xbe2186fa	-0.15774146
147	0x3dbc3e99	0.09191627
148	0xbec09a0c	-0.37617528
149	0xbeab241c	-0.33425987
150	0xbe486a6a	-0.19571844
151	0xbdc92386	-0.09821229
152	0xbf2ef0b6	-0.68336046
153	0xbdb6eb14	-0.08931556
154	0xbe4cdc4e	-0.20005915
155	0xbf4ade8d	-0.79245836
156	0xbe4713b0	-0.19441104
157	0x3c416d75	0.011805882
158	0xbe7f1be7	-0.24912988
159	0x3ed1620a	0.4089511
160	0xbf0ba9fc	-0.5455625
161	0x3c0f6e60	0.008754343
162	0x3c9cbb72	0.01913235
163	0xbf2dd18d	-0.67897874
164	0x3dc04655	0.09388415
165	0xbe56d584	-0.20979887
166	0x3e8b6f26	0.27233237
167	0x3edfde60	0.43724346
168	0x3e8fefae	0.2811255
169	0xbe056f18	-0.1303066
170	0x3dbfed17	0.09371393
171	0xbd5f9425	-0.05458464
172	0xbe00451e	-0.12526366
173	0xbec4c9c1	-0.38435176
174	0xbd0c6743	-0.034278166
175	0xbd682ca4	-0.056683198
176	0xbf58e3c7	-0.8472256
177	0x3dcffe63	0.10155942
178	0x3ec538a8	0.38519788
179	0xbf9dea27	-1.2337083
180	0xbe8c7174	-0.27430308
181	0xbe3b7dd3	-0.18309717
182	0xbf585d71	-0.8451758
183	0x3eb33b88	0.35006356
184	0x3e8cc91d	0.27497187
185	0xbcbec356	-0.023286503
186	0x3e5fe1f4	0.21863538
187	0x3e7544fd	0.23952098
188	0xbf8423b2	-1.0323393
189	0xbf07bd93	-0.5302364
190	0xbeb7595d	-0.35810366
191	0xbe349ae3	-0.1763721
192	0xbf24670d	-0.64219743
193	0xbd8e84d6	-0.0695893
194	0xbedba87d	-0.42901984
195	0x3cd1e1a2	0.025620285
196	0xbde8906f	-0.113556735
197	0xbedcc271	-0.43117097
198	0xbe16fef5	-0.14745696
199	0x3d7c908d	0.061661292
200	0xbeb7c97f	-0.35895917
201	0x3de7e783	0.11323454
202	0xbe05a844	-0.1305247
203	0x3e1f2082	0.15539744
204	0x3e6f945b	0.23396437
205	0x3def896f	0.11696135
206	0xbe962082	-0.29321676
207	0x3eb07efb	0.34471878
208	0xbf900e5a	-1.125438
209	0xbe144b69	-0.14481892
210	0xbf213313	-0.6296856
211	0x3ef265d0	0.47343302
212	0xbd87828a	-0.06616695
213	0x3d21fc67	0.03954735
214	0xbe61487b	-0.22000305
215	0x3e9f8d29	0.31162384
216	0xbe886bec	-0.26644838
217	0x3dec8a6b	0.11549839
218	0xbe525794	-0.20541221
219	0x3d85a45e	0.06525491
220	0x3eb13d4f	0.34617087
221	0xbf04c95f	-0.5186977
222	0x3eb890e4	0.36048043
223	0xbf50700a	-0.8142096
224	0xbf48eb1d	-0.78483754
225	0xbefbeb03	-0.49202737
226	0x3edf3459	0.43594626
227	0x3cd57e3f	0.026061175
228	0xbef449ec	-0.47712648
229	0x3e7d2eff	0.24724959
230	0x3d01d3b0	0.03169602
231	0xbf111862	-0.5667783
232	0x3edee985	0.43537536
233	0x3ce9bce7	0.028532458
234	0xbd4f1e2f	-0.050565895
235	0x3df78129	0.12085182
236	0x3ebbe6ec	0.36699617
237	0x3ea5ff31	0.32421258
238	0xbe83fd34	-0.25779116
239	0xbe75eae1	-0.2401538
240	0xbd18f67c	-0.03734444
241	0xbf02856b	-0.5098483
242	0x3eb1d7da	0.34734994
243	0x3e5ecea2	0.21758512
244	0xbf241ae0	-0.6410351
245	0x3f1d7890	0.6151209
246	0x3e429196	0.19000849
247	0x3b3fd7c6	0.0029272898
248	0x3cda1db0	0.026625484
249	0x3dd06271	0.10175026
250	0x3e74c57a	0.23903456
251	0xbe320ade	-0.17386958
252	0xbe8df0af	-0.2772269
253	0x3dc31a51	0.09526504
254	0xbfcfe18e	-1.6240709
255	0x3e52e2bf	0.2059431

policy_net.4.bias f4 [128]
0	0xbea0e858	-0.31427264
1	0xbe107206	-0.14105996
2	0x3d8afb26	0.06786184
3	0xbeb41d92	-0.3517881
4	0xbda2040a	-0.07910927
5	0x3e2d2f96	0.16912684
6	0xbe28c813	-0.16482572
7	0xbe11617c	-0.14197344
8	0xbe9dfc4d	-0.30856553
9	0xbdf75153	-0.12076058
10	0x3d95dc42	0.073174015
11	0xbe3d316a	-0.18475881
12	0xbdb8030c	-0.08984956
13	0xbec1338d	-0.37734643
14	0xbbbcb90a	-0.005759363
15	0x3d8518ac	0.064988464
16	0xbdbdd528	-0.09269172
17	0xbda60a5a	-0.08107443
18	0xbe1cd898	-0.15316999
19	0x3e3cb228	0.18427336
20	0xbe5cba24	-0.21555382
21	0xbe27fcd5	-0.16405042
22	0xbeadb858	-0.33929706
23	0xbf10cb17	-0.5655989
24	0xbe9bf6e0	-0.30461788
25	0x3e9db416	0.30801457
26	0xbdf83a63	-0.121205114
27	0xbe3a053b	-0.18166058
28	0xbea770fe	-0.32703394
29	0x3e34e20d	0.17664357
30	0xbc029a0a	-0.007971296
31	0xbe6f72fb	-0.23383705
32	0x3d25ca69	0.040476236
33	0x3e8ccdb2	0.27500683
34	0x3dd5c763	0.104384206
35	0xbe7dfea3	-0.24804167
36	0xbc161b0d	-0.009161723
37	0x3d871588	0.06595904
38	0xbf17cd4e	-0.59297645
39	0x3e0c3953	0.13693742
40	0x3e46cf69	0.19415058
41	0xbe8b5d0c	-0.27219427
42	0xbdf97329	-0.12180168
43	0x3da6be4d	0.08141766
44	0xbe77c23b	-0.24195187
45	0x3e50b4f6	0.20381531
46	0x3e17a892	0.14810398
47	0xbe1fea3c	-0.15616697
48	0x3d1dd820	0.03853619
49	0xbed76f91	-0.42077306
50	0xbde642c4	-0.11243203
51	0x3eb46f36	0.35241097
52	0xbf0ae336	-0.54252946
53	0x3ceb7130	0.028740495
54	0x3e807159	0.25086477
55	0xbf1e2949	-0.61781746
56	0xbe3bbb77	-0.18333231
57	0xbd178390	-0.036990702
58	0x3d4a8beb	0.049449842
59	0xbe48d2db	-0.19611685
60	0xbeeb03ce	-0.4590134
61	0xbe4b0d5f	-0.1982932
62	0xbeae1b1a	-0.34005052
63	0x3ce45a6c	0.027875148
64	0xbdd0e994	-0.102008015
65	0xbd7c2679	-0.061560128
66	0xbe8e4976	-0.2779042
67	0x3d8fcea4	0.070218354
68	0xbe940f27	-0.2891781
69	0xbedab931	-0.42719415
70	0xbdb4f163	-0.08835103
71	0xbf0f36c0	-0.55942917
72	0x3eab4231	0.33448938
73	0x3994a2d6	0.00028350082
74	0x3e264eee	0.16241047
75	0xbe94b7b5	-0.29046407
76	0xbe9eb34e	-0.30996174
77	0x3e837f68	0.2568314
78	0x3e99d3e6	0.30044478
79	0x3e16cd0d	0.14726658
80	0xbf877da3	-1.0585216
81	0xbeb80dde	-0.3594808
82	0x3f1f798f	0.6229486
83	0xbeaa9adb	-0.3332127
84	0xbe9869ae	-0.29768127
85	0x3d021345	0.031756658
86	0xbdc45d28	-0.09588081
87	0x3e63566e	0.22200939
88	0xbf10b3a7	-0.5652413
89	0x3e3c8c10	0.18412805
90	0xbc84d3c5	-0.01621426
91	0xbe816a56	-0.2527644
92	0xbe49d8ea	-0.19711652
93	0xbc9f0699	-0.019412326
94	0xbf11bdf7	-0.5693049
95	0x3e1d8881	0.15384103
96	0xbeac8224	-0.3369304
97	0xbd8895d7	-0.06669205
98	0xbe03d7d6	-0.12875304
99	0x3cc33293	0.023827827
100	0x3e796012	0.24353054
101	0x3d9fc4ee	0.07801233
102	0xbdd5e61d	-0.10444281
103	0xbccb8b92	-0.024846826
104	0xbf040082	-0.51563275
105	0x3cbf6a8e	0.023366239
106	0x3e014604	0.12624365
107	0xbf1bb4e5	-0.608229
108	0x3d9e60b4	0.077332884
109	0x3e7302f1	0.23731591
110	0xbe84d44c	-0.2594322
111	0x3d3fb67b	0.046804886
112	0xbe29b2f4	-0.16572171
113	0x3dc92289	0.0982104
114	0x3e345c45	0.17613323
115	0x3dedeca5	0.11617402
116	0xbe50a3cb	-0.20374982
117	0x3e3509d3	0.17679529
118	0xbe74a8a6	-0.2389246
119	0x3eb9e072	0.3630405
120	0xbe988e30	-0.2979598
121	0x3e4a8443	0.19777016
122	0xbd47ac84	-0.048748508
123	0x3e2bace1	0.16765167
124	0xbe83b294	-0.25722182
125	0xbd30dce9	-0.043179426
126	0xbc093415	-0.008374234
127	0xbe5e9360	-0.21735907

policy_net.6.weight f4 [64, 128]
0	0xbd8c6907	-0.0685597
1	0x3e3fbfbe	0.18725488
2	0x3ef7e00b	0.4841312
3	0xbf57cdac	-0.84298205
4	0xbe3146b3	-0.17312126
5	0xbda08e3e	-0.078396305
6	0x3f0fd91e	0.5619067
7	0x3e7b13bf	0.24519251
8	0x3e84e7cb	0.25958094
9	0xbf09c0c4	-0.5380976
10	0xbcfb7d2c	-0.030699335
11	0x3e6bec02	0.23039249
12	0x3da37e62	0.0798309
13	0xbea004d1	-0.31253675
14	0xbe48f58c	-0.19624919
15	0x3db871c1	0.09006072
16	0x3f09f035	0.5388215
17	0x3e20a961	0.15689613
18	0xbeb4f2f1	-0.353416
19	0x3ef08ff5	0.4698483
20	0x3ed5d4bf	0.41763875
21	0x3dd45a4a	0.10368784
22	0x3e8e1ea6	0.27757758
23	0xbd6e88f6	-0.058236085
24	0xbeffc3ec	-0.49954164
25	0x3dfb2e3d	0.122646786
26	0x3d221bab	0.039577167
27	0x3f3c84db	0.7364022
28	0x3e0af912	0.13571575
29	0x3afa7790	0.0019109119
30	0xbf070926	-0.52748334
31	0xbee7f597	-0.45304558
32	0xbe69326a	-0.22773138
33	0xbf9e5ded	-1.2372414
34	0xbf1c1209	-0.6096502
35	0xbcb4ccf1	-0.02207038
36	0xbe007699	-0.12545241
37	0xbeb62aad	-0.35579434
38	0xbe245a9a	-0.16050187
39	0xbdf578c1	-0.119859226
40	0xbd39eead	-0.045393635
41	0xbf017231	-0.5056487
42	0x3e51304b	0.20428579
43	0xba5e0370	-0.000846914
44	0xbf2a1810	-0.66442966
45	0x3ec18934	0.3779999
46	0x3c0b9e92	0.008521693
47	0xbbf5b088	-0.007497851
48	0x3c86ed74	0.016470648
49	0x3f4414dc	0.7659433
50	0xbebf797c	-0.37397373
51	0x3eb09cde	0.3449468
52	0x3edd0508	0.431679
53	0xbba7f24c	-0.0051253196
54	0x3d998842	0.07496692
55	0x3dd4c4f2	0.10389127
56	0x3e4f634f	0.20252727
57	0xbd6bd9b3	-0.05758066
58	0x3f1c3fa3	0.610346
59	0xbe1c638f	-0.15272354
60	0xbe3cdde5	-0.18444021
61	0x3e1ab281	0.15107156
62	0xbe926a49	-0.28596714
63	0x3e453b57	0.19260918
64	0xbebf67a1	-0.3738375
65	0x3cc194bb	0.02363049
66	0xbee7fb4c	-0.45308912
67	0x3ebb1084	0.36536038
68	0xbe1d9ad9	-0.15391101
69	0xbea90b22	-0.33016306
70	0x3d2772da	0.040881015
71	0xbf5ce946	-0.86293447
72	0x3e88f176	0.2674672
73	0x3d111089	0.03541616
74	0xbf518b73	-0.8185341
75	0xbb54e636	-0.003248585
76	0xbe61407a	-0.21997252
77	0xbf5408ff	-0.82826227
78	0xbee81f93	-0.4533659
79	0xbeb307ce	-0.34966892
80	0x3c8cf24a	0.017205376
81	0x3c130334	0.008972932
82	0x3eb13c0f	0.34616134
83	0xbe46f5da	-0.19429722
84	0xbf1e718b	-0.61892
85	0xbe9f0da0	-0.31065083
86	0x3f0599d2	0.52187836
87	0xbf04d357	-0.5188498
88	0xbe9820b7	-0.2971246
89	0xbdb161aa	-0.08661206
90	0x3e544443	0.20729165
91	0xbf0515da	-0.5198647
92	0xbea43268	-0.32069707
93	0xbdb2e927	-0.087358765
94	0x3e1ea41e	0.15492293
95	0xbf45d43b	-0.77276963
96	0x3dd59e43	0.10430577
97	0xbdbe48b2	-0.09291209
98	0xbc22150b	-0.009892712
99	0x3ebba4a9	0.36649063
100	0xbf05541e	-0.5208148
101	0xbd8b204b	-0.06793269
102	0xbd2cd242	-0.042192705
103	0xbda5ea89	-0.08101375
104	0xbdb6739c	-0.089087695
105	0xbedab9bd	-0.42719832
106	0x3ecc2e98	0.39879298
107	0xbe891f0f	-0.26781508
108	0x3e8bf136	0.27332467
109	0x3e11fd25	0.14256723
110	0x3e7a44b2	0.24440268
111	0xbe69de05	-0.228386
112	0xbe09a345	-0.13441189
113	0xbba1cca5	-0.0049377256
114	0xbe9d626e	-0.30739158
115	0xbe99b4d0	-0.3002076
116	0x3ee0032a	0.43752414
117	0xbf582dcc	-0.8444488
118	0xbf867070	-1.0503063
119	0xbee5314e	-0.4476418
120	0xbde0f6c6	-0.10984568
121	0x3e17b3b5	0.14814647
122	0xbe5b813f	-0.21436022
123	0x3e1a353c	0.1505937
124	0x3e400e76	0.18755516
125	0xbece5c40	-0.40304756
126	0xbf16e623	-0.5894491
127	0xbecf8765	-0.40532985
128	0x3d2097ac	0.039207146
129	0xbe02ea89	-0.1278478
130	0xbe00535b	-0.12531798
131	0x3da1acfe	0.07894324
132	0xbcd0ccdb	-0.025488308
133	0x3e02aff4	0.12762433
134	0x3e708a00	0.23490143
135	0xbea1078b	-0.31451067
136	0xbe5d219b	-0.2159485
137	0xbe6cef2f	-0.23138116
138	0x3e43998d	0.19101544
139	0xbdcfaa80	-0.10139942
140	0xbbe482d4	-0.0069736037
141	0xbe1fda70	-0.15610671
142	0x3d81fcb1	0.06347025
143	0xbdec4c5e	-0.115380034
144	0x3e7fca38	0.24979484
145	0xbdc13de6	-0.09435634
146	0xbe4d5cd3	-0.20054941
147	0x3ec34338	0.3813722
148	0xbdebe0be	-0.115174755
149	0x3eadfea5	0.3398334
150	0xbe661fa9	-0.22473015
151	0xbe7b251a	-0.24525872
152	0xbf4998de	-0.7874888
153	0xbe6797cc	-0.226165
154	0xbea18d65	-0.31553188
155	0xbf0bb8aa	-0.5457865
156	0x3e28b3a5	0.16474779
157	0x3e1be5e4	0.15224415
158	0xbe083e7f	-0.1330509
159	0xbf61650a	-0.880448
160	0xbe38eae5	-0.18058355
161	0xbddb7d1b	-0.10717221
162	0xbe0771bd	-0.13226981
163	0x3d85697e	0.06514262
164	0xbb3773d0	-0.0027992614
165	0xbc6760f5	-0.014122237
166	0x3d3ad0f8	0.045609444
167	0xbd790130	-0.060792148
168	0xbd4bd3c1	-0.04976249
169	0x3e8e48e2	0.2778998
170	0x3e7d9742	0.24764732
171	0xbf2f7ee2	-0.6855298
172	0xbe8cb4a5	-0.2748157
173	0x3cbf0bc4	0.02332104
174	0xbc251be5	-0.010077451
175	0xbd232b50	-0.039836228
176	0xbe060e16	-0.13091311
177	0xbdef6eb2	-0.11691035
178	0x3d5574f5	0.052113492
179	0x3f0aca67	0.5421509
180	0xbe88b7ec	-0.2670282
181	0xbbac7e7e	-0.0052641025
182	0x3e4e8a0b	0.20169847
183	0xbe9b9a0d	-0.3039097
184	0xbe19bd29	-0.15013565
185	0x3e46e1e8	0.19422114
186	0xbe7c08f5	-0.24612792
187	0x3c5606d6	0.013063153
188	0x3e0d8537	0.13820349
189	0x3ddae61d	0.10688422
190	0x3ded4bdf	0.11586737
191	0xbe1488bb	-0.14505284
192	0xbbd5a6f7	-0.006520148
193	0xbe8c9ab1	-0.2746177
194	0x3dae2bd0	0.0850445
195	0xbe8f278e	-0.27959865
196	0xbe94bda5	-0.29050937
197	0xbd8f4b31	-0.069967635
198	0x3e5dcf12	0.21661022
199	0xbb612d1c	-0.0034359163
200	0x3e5340b2	0.20630148
201	0xbcf882cf	-0.030335812
202	0x3d818326	0.06323843
203	0x3e0c68d0	0.13711858
204	0xbc1fb25b	-0.009747113
205	0xbdb87f4e	-0.090086564
206	0xbf80904b	-1.0044035
207	0xbd321583	-0.043477546
208	0xbe38516d	-0.17999811
209	0xbe89e683	-0.2693368
210	0xbe014b53	-0.1262639
211	0xbe7fbb29	-0.2497374
212	0xbef9c6d9	-0.4878452
213	0x3e1ac503	0.15114217
214	0x3d891b3b	0.06694647
215	0xbcdd8dd5	-0.02704517
216	0xbda34ed8	-0.079740226
217	0x3d015d29	0.031582985
218	0xbd929f19	-0.07159252
219	0xbe63b0b7	-0.2223538
220	0xbeaf56a5	-0.34245792
221	0x3e0bc3d4	0.13648921
222	0x3e0aac82	0.13542369
223	0xbd2eaf71	-0.042647783
224	0xbc8e5646	-0.017375123
225	0x3baa413a	0.005195764
226	0x3d6ea422	0.058261998
227	0xbbc587a0	-0.0060281307
228	0x3efc5ac1	0.4928799
229	0x3cd11574	0.025522925
230	0x3d7176c4	0.058951154
231	0x3ddb56a5	0.107098855
232	0xbe250c3a	-0.16117945
233	0x3e735b40	0.23765278
234	0xbe432833	-0.19058304
235	0xbdaf7219	-0.08566684
236	0xbea560de	-0.32300466
237	0x3ec0e3ed	0.37673894
238	0xbd17a092	-0.037018366
239	0x3de65361	0.11246372
240	0xbe9131d8	-0.2835834
241	0xbd0346f0	-0.032050073
242	0x3e2477bf	0.16061305
243	0xbf6c51f0	-0.92312527
244	0x3dd6c610	0.10486996
245	0x3e6bf4c8	0.23042595
246	0xbf187ab8	-0.59562254
247	0xbdfb3770	-0.12266433
248	0x3d772c9f	0.06034529
249	0xbe1188e1	-0.14212371
250	0x3e2166be	0.1576185
251	0xbee498da	-0.44647866
252	0xbc926411	-0.017869981
253	0x3d8a186f	0.067429416
254	0xbf157cf2	-0.58393776
255	0x3e2357f6	0.15951523

policy_net.6.bias f4 [64]
0	0xbe94fdc7	-0.29099867
1	0x3ebfc8eb	0.37457976
2	0xbf0ea9b1	-0.5572768
3	0xbf0ca01a	-0.54931796
4	0xbf266b59	-0.6500755
5	0x3ead02a2	0.3379107
6	0xbf0304b5	-0.5117906
7	0xbe9d5475	-0.30728498
8	0xbce83377	-0.028344853
9	0x3e9472c8	0.2899382
10	0x3efb505b	0.49084744
11	0xbd0a3031	-0.033737365
12	0x3ebc5438	0.36783004
13	0x3def46eb	0.116834484
14	0x3f425e81	0.7592545
15	0x3eb07f21	0.34471992
16	0xbe868aa4	-0.2627765
17	0xbeffa9a4	-0.49934113
18	0xbb510a8e	-0.003189716
19	0x3e1e4179	0.15454663
20	0xbe690a74	-0.22757894
21	0x3ed37b45	0.41304985
22	0xbe363dfe	-0.17797086
23	0x3e1a58e7	0.15072976
24	0x3e0c3fdc	0.13696235
25	0x3e86b00d	0.2630619
26	0x3f017c4e	0.505803
27	0xbe84f7cc	-0.25970304
28	0x3e8252db	0.2545384
29	0x3e59867c	0.21242708
30	0x3ec161bc	0.37769878
31	0xbe462016	-0.19348177
32	0xbe85d930	-0.26142263
33	0x3ec0ab1c	0.37630546
34	0x3eaa05f0	0.33207655
35	0xbdbfb880	-0.093613625
36	0xbbefaae8	-0.007314075
37	0x3e9a0271	0.30079988
38	0x3e2938a2	0.1652551
39	0xbf1ff19a	-0.6247803
40	0x3eff57f3	0.49871787
41	0xbe29840a	-0.16554275
42	0x3d47b831	0.048759643
43	0xbefd87f5	-0.4951779
44	0x3f0fd918	0.56190634
45	0x3f3b3ba4	0.7313788
46	0xbea3218a	-0.31861526
47	0xbe1142a6	-0.1418558
48	0xbf1cffca	-0.61327803
49	0xbeebe3f2	-0.46072346
50	0xbe32e184	-0.1746884
51	0x3f121a82	0.570717
52	0xbefe4614	-0.4966284
53	0xbd8a054b	-0.06739291
54	0xbeba6920	-0.3640833
55	0xbe73c972	-0.23807314
56	0x3f258db6	0.6466936
57	0x3e8e6430	0.27810812
58	0xbe11e923	-0.14249091
59	0xbebdfe47	-0.3710806
60	0x3df8d7e3	0.12150552
61	0x3e6e6a06	0.23282632
62	0xbeb413ab	-0.35171255
63	0x3e57a4d5	0.21058972

policy_net.8.weight f4 [4, 64]
0	0xbdb70e82	-0.08938314
1	0x3cc8c556	0.02450816
2	0xbe8fd52b	-0.28092322
3	0x3da84ac5	0.08217386
4	0x3d8fecd7	0.070275955
5	0x3d566d4c	0.052350327
6	0x3d8052e4	0.0626581
7	0xbd52697c	-0.05137013
8	0xbe3cd166	-0.18439254
9	0xbc9e5647	-0.01932825
10	0x3ba16cf5	0.004926319
11	0x3dd8ee1b	0.1059229
12	0xbcb5fcb7	-0.02221523
13	0x3dcfce36	0.101467535
14	0x3cf58237	0.029969318
15	0x3c22bcf2	0.009932743
16	0x3d682a06	0.0566807
17	0xbd3f68c4	-0.04673077
18	0xbd72a91e	-0.059243314
19	0x3ddc6a5d	0.10762475
20	0x3da1053c	0.078623265
21	0x3da9e48d	0.08295546
22	0x3c9a85aa	0.018862564
23	0x3d606ea0	0.054793
24	0xbd92fd49	-0.071772166
25	0xbd9bb2dc	-0.07602474
26	0x3d3299a1	0.043603543
27	0x3d5b010d	0.0534678
28	0xbcd136f0	-0.025538892
29	0xbd819edf	-0.063291304
30	0xbca6bbe3	-0.020353263
31	0xbd3536a5	-0.044241566
32	0x3c324392	0.010880368
33	0x3c16cf81	0.009204746
34	0xbd373f04	-0.04473783
35	0xbd300c91	-0.042980734
36	0x3ca0b755	0.01961867
37	0x3d798f15	0.06092747
38	0x3c977c73	0.01849196
39	0x3c8806d7	0.016604824
40	0x3d2e872c	0.04260938
41	0xbdb1258b	-0.08649739
42	0x3cdd8d6d	0.027044976
43	0xbd3681a9	-0.044557247
44	0xbca6d3f9	-0.020364748
45	0xbce23260	-0.027611911
46	0x3d8ca04b	0.06866511
47	0x3ca7a017	0.020462079
48	0xbd46591b	-0.04842482
49	0x3db5d929	0.08879311
50	0xbcdd76c6	-0.027034175
51	0xbce4ef27	-0.027946068
52	0x3eb4fb78	0.35348105
53	0x3ce62046	0.028091561
54	0xbd79626b	-0.060884874
55	0xbd37d436	-0.044880114
56	0xbdd4322f	-0.10361134
57	0x3d290a36	0.041269504
58	0x3cbf0c84	0.023321398
59	0xbd6d173f	-0.057883497
60	0x3d93c80a	0.07215889
61	0xbd7f4318	-0.062319845
62	0x3d19bbd9	0.03753266
63	0xbd64a98f	-0.055825766
64	0x3be8617d	0.0070916996
65	0xbd2c9fc5	-0.042144556
66	0x3ea0fa1f	0.31440827
67	0xbcabf1e6	-0.02098937
68	0x3d94d453	0.0726706
69	0x3d82bed0	0.06384051
70	0xb9c7a843	-0.00038081603
71	0xbd577765	-0.052604098
72	0x3ea247e6	0.3169548
73	0xbc782c16	-0.01514723
74	0xbd288a68	-0.04114762
75	0xbcd6ce0c	-0.026221298
76	0x3db78d6a	0.089625195
77	0x3d90dafb	0.07073017
78	0x3ca37ffd	0.01995849
79	0xbdf8ca8c	-0.12148008
80	0x3bb5712c	0.005537173
81	0xbda32b89	-0.07967288
82	0xbd9294c7	-0.07157283
83	0x3d1b1f2c	0.037871525
84	0x3d9ec02e	0.07751499
85	0x3d576bb8	0.052592963
86	0xbce4bdc3	-0.027922517
87	0x3d325692	0.04353959
88	0xbc930410	-0.017946273
89	0xbd390950	-0.045174897
90	0x3ce4ef63	0.02794618
91	0x3d2fd1d0	0.042924702
92	0xbcb1eba2	-0.021718804
93	0xbd5a5eb5	-0.053312976
94	0xbd88458d	-0.06653891
95	0x3db42276	0.087956354
96	0x3cad8e95	0.021186152
97	0x3d70f3ee	0.05882638
98	0xbd92c39b	-0.07166215
99	0x3b9a4324	0.004707711
100	0xbc2b65d6	-0.010461291
101	0x3d4963a1	0.04916728
102	0x3b27c800	0.0025601387
103	0x3d91b2bd	0.0711417
104	0x3d381243	0.04493929
105	0x3b857c7b	0.004073677
106	0x3dac2ea2	0.08407332
107	0xbd0f4c17	-0.034984674
108	0xbda38071	-0.07983483
109	0xbc74bc62	-0.014937492
110	0x3d28269b	0.041052442
111	0x3d8b33b5	0.06796972
112	0x3c909607	0.017649664
113	0xbd5d5ea5	-0.05404534
114	0xbc0721a7	-0.008247769
115	0xbda48048	-0.0803228
116	0x3e30a60f	0.17250846
117	0x3d813a76	0.06309979
118	0xbd8324a8	-0.06403476
119	0xbae6fcc7	-0.0017622941
120	0xbdcda09d	-0.100404
121	0xbd99887e	-0.07496737
122	0xbd8354ed	-0.06412683
123	0xbda35b15	-0.07976357
124	0x3d56da09	0.05245403
125	0xbd8e4ee8	-0.06948644
126	0x3c39e906	0.011347061
127	0x3c16594e	0.009176565
128	0x3dbfb69c	0.09361002
129	0xbcc696fa	-0.024241913
130	0x3d993fd5	0.07482878
131	0xbda20a21	-0.07912088
132	0xbdaefd64	-0.08544424
133	0xbc90323a	-0.017602075
134	0xbe8247c5	-0.2544538
135	0x3db66c91	0.08907426
136	0x3dbd2a92	0.09236635
137	0x3df022cf	0.11725389
138	0xbda21f22	-0.07916094
139	0xbd66dfbf	-0.056365725
140	0x3da9adaa	0.08285077
141	0xbc9f7a70	-0.019467562
142	0xbe168f78	-0.14703166
143	0x3c18a673	0.009317028
144	0xbdd0633a	-0.10175176
145	0xbd864aaa	-0.0655721
146	0xbb9936de	-0.00467573
147	0xbde713ec	-0.11283097
148	0xbe6c7e0c	-0.23094958
149	0xbb9116d0	-0.0044277683
150	0xbd9b7141	-0.07589961
151	0xbcb3d07f	-0.021950005
152	0x3d8e926e	0.06961523
153	0x3d555bd4	0.052089527
154	0x3d622396	0.05520972
155	0x3dc5da4b	0.09660777
156	0x3d997bf8	0.07494348
157	0x3d950dea	0.072780445
158	0xbcbd6948	-0.023121491
159	0x3d451cb7	0.048123088
160	0xbdb0a01c	-0.086242884
161	0xbc640942	-0.013918223
162	0xbbd26841	-0.0064211194
163	0xbd2ae5d8	-0.041723102
164	0x3e108c6d	0.14116068
165	0xbd5a9296	-0.05336245
166	0x3a1636a8	0.00057301903
167	0xbe05b020	-0.13055468
168	0xbe151fa8	-0.14562857
169	0x3ded8e14	0.11599365
170	0xbcc77ef3	-0.024352526
171	0x3e054c05	0.1301728
172	0x3da856c0	0.08219671
173	0x3e3d856c	0.18507928
174	0xbdea891b	-0.11451932
175	0x3d861169	0.065462895
176	0x3d98b3e9	0.0745619
177	0xbc5d96a5	-0.013524686
178	0xbd469528	-0.04848209
179	0x3d2c05fd	0.0419979
180	0x3e2a7918	0.16647756
181	0xbdc44dc4	-0.09585145
182	0x3d9c5416	0.076332256
183	0x3c866384	0.016404875
184	0x3e3843e5	0.1799465
185	0xbbd58986	-0.006516638
186	0xbd56b32e	-0.052416973
187	0x3e1a9576	0.15096077
188	0xbe30f20d	-0.17279835
189	0x3d916674	0.070996195
190	0xbdd60cab	-0.10451635
191	0x3dc897d7	0.09794586
192	0xbd5060b7	-0.050873484
193	0xbdc4316f	-0.09579741
194	0xbd54d2c4	-0.051958814
195	0x3b483a37	0.0030552277
196	0x3c0e83ef	0.008698448
197	0xbb89048e	-0.004181451
198	0x3e082a34	0.13297349
199	0xbc800a24	-0.015629835
200	0xbd7cb52a	-0.06169621
201	0x3cb97bbb	0.022642007
202	0x3bd533c5	0.0065064155
203	0xbc1b9db8	-0.009498052
204	0x3d0613c5	0.032733697
205	0xbb5d58ee	-0.003377493
206	0x3dadd596	0.08488004
207	0xbcb4fc4b	-0.022092959
208	0xbd4a0b1c	-0.049327
209	0x3d2d822a	0.042360462
210	0xbb5729a7	-0.0032831223
211	0x3d194719	0.03742132
212	0x3d734084	0.0593877
213	0xbbac2597	-0.0052535045
214	0xbd80ba13	-0.06285491
215	0xbb8635f8	-0.004095789
216	0xbc01e847	-0.007928914
217	0x3d297d62	0.04137934
218	0xbd21d178	-0.039506406
219	0xbce886dc	-0.028384618
220	0xbcf8c761	-0.030368509
221	0xbce46ae0	-0.027882993
222	0x3baa1046	0.005189928
223	0x3cffcad5	0.031224648
224	0x3d312eb6	0.043257438
225	0x3caf490d	0.021397138
226	0x3d42f71a	0.047598936
227	0xbd5b26c5	-0.05350377
228	0xbd9214e2	-0.07132889
229	0x3d20903a	0.039200045
230	0xbdd7e7b1	-0.105422385
231	0x3d04e57e	0.032445423
232	0x3d2fdab1	0.04293317
233	0x3dc0dcad	0.094170906
234	0x3ce31af4	0.027722813
235	0xbd645161	-0.05574167
236	0xbce46d67	-0.027884198
237	0xbd3728f0	-0.044716775
238	0x3d07b21b	0.03312884
239	0xbc4f8c30	-0.012667701
240	0xbd1e18a4	-0.038597718
241	0xbd4f6c9b	-0.050640684
242	0xbd287ded	-0.041135717
243	0xbdbe03f3	-0.09278097
244	0x3ddd5d4a	0.10808809
245	0x3d794a57	0.06086191
246	0x3cc3fa87	0.023923172
247	0x3d184846	0.0371783
248	0xbd8ddb51	-0.06926597
249	0xbc6cd4d3	-0.014455038
250	0xbbd3d868	-0.0064650066
251	0xbd0c1469	-0.034199152
252	0x3d2dcbe9	0.042430792
253	0xbd512c0f	-0.05106741
254	0xbe87d5eb	-0.26530394
255	0x3bc0dadc	0.005885465

policy_net.8.bias f4 [4]
0	0x3dc43bd5	0.095817246
1	0x3d0449a3	0.032296788
2	0x3e03b960	0.12863684
3	0x3e5f40b4	0.21802026
