IL/Model/model_reacher_2.pt (torch, 292505 bytes, 20 tensors)

policy_net.0.weight f4 [64, 24]
0.01639773 -0.5989864 0.07944606 -1.0892438 0.13695246 -0.08325995 0.37340188 0.10216572
0.069057435 -0.16147465 0.1397241 -0.31193906 0.008147865 0.1014644 0.0898808 -0.13305569
-0.10687338 -0.020751538 -0.04948033 0.05920575 -0.20095915 -0.1624983 -0.22329693 -0.03610985
-0.25786334 -0.45590386 0.19472727 -0.14875874 0.120971106 -0.02654576 0.139297 -0.07675049
0.2063096 -0.11414318 0.16758974 0.2790223 0.2729704 -0.029780824 -0.087797664 -0.17971423
0.09480455 0.107275546 -0.005474957 -0.1617758 0.04934918 -0.0035058355 0.077597946 -0.11242434
0.1750517 0.6460733 -0.18924025 0.27854347 0.20390509 0.12909542 0.112865016 0.0421989
-0.32617444 0.22487198 -0.16787781 0.13777177 -0.17588708 -0.019687308 0.13744903 0.2231189
-0.12539858 0.13571915 0.017694203 -0.13280062 0.043348506 0.14930333 -0.038582385 -0.0862042
-0.12254085 1.8284664 0.16094002 0.6276196 0.09300618 0.10969266 0.19361769 0.03822201
0.17301199 0.17620564 0.21514839 -0.0448862 0.14867754 0.021400986 -0.08276352 0.052780062
-0.18817642 0.015497476 0.14128858 0.079677075 0.20494986 0.07520933 0.102115095 -0.22173667
-0.12651666 -0.4952201 0.14980638 0.0718113 -0.013344502 0.09816395 0.0289643 0.021698555
-0.11323594 -0.30552268 -0.1413991 0.31475398 -0.20349778 -0.047957093 -0.13610232 0.16357432
0.13323 -0.0014238149 -0.17158769 0.11189545 0.15203342 -0.16835985 0.043367807 0.069469884
0.18765749 -0.44361317 0.25179133 -0.08358086 -0.16090964 -0.013702946 0.18193825 -0.13056841
0.2789221 -0.03345485 0.0349544 0.20118251 -0.24530065 -0.048568495 -0.057549708 0.10346579
-0.15920277 0.102358 0.14756028 0.13037509 -0.20686862 -0.080860995 0.171766 -0.0611304
-0.062466852 0.026725087 -0.22915821 -0.31762934 -0.046968162 0.08283323 0.06433611 -0.029668953
-0.12858953 0.1857247 -0.06266552 -0.26185837 -0.16384704 0.066835076 0.21885249 0.17232847
0.085902385 0.2250568 0.118726104 0.16355748 0.13779661 -0.21106455 0.06509561 -0.096951135
-0.20317614 -0.12913407 0.15087436 0.75268805 -0.24499089 0.05856103 0.16155125 0.01112674
-0.14238556 0.10773766 0.06185268 0.1017019 -0.17206003 -0.24121267 0.068223044 0.0930384
0.234945 -0.15516685 -0.0048587867 0.004895236 0.006841413 0.12974156 -0.013611786 0.13693969
0.07579019 0.59157956 -0.076342314 -0.16623284 0.057180434 0.17732787 -0.17089182 0.14281999
-0.0305284 0.34289533 -0.18457425 -0.32024342 -0.16087556 -0.100622 0.082180716 0.12127475
-0.2200553 0.15676774 -0.105253726 -0.15014125 0.09949783 -0.105170995 0.1873756 -0.05340588
-0.14465883 -0.4018962 0.041435413 0.5420258 0.08752565 -0.19793974 -0.019643813 -0.13551907
0.005303794 -0.1336654 0.11631516 0.3702236 0.14527056 -0.07252068 0.19325878 -0.060256407
-0.06268803 -0.12664871 -0.052244145 0.20939757 0.14758874 -0.000731169 -0.0514582 -0.12109182
-0.41155314 -1.7385025 0.028867757 0.8180525 0.2857146 -0.031947903 -0.3085595 -0.023464302
0.09918291 0.23952495 -0.11391381 0.15513635 -0.092115775 -0.0120688 0.16586514 0.062862016
00000000: 8854 863c 2c57 19bf 9eb4 a23d 576c 8bbf
00000010: 443d 0c3e 3184 aabd 882e bf3e 433c d13d
00000020: fc6d 8d3d 9c59 25be d613 0f3e 7ab6 9fbe
00000030: 9f7e 053c 91cc cf3d 6d13 b83d c03f 08be
00000040: 6ee0 dabd 21ff a9bc e3ab 4abd ba81 723d
00000050: 3cc8 4dbe f465 26be f3a7 64be ece7 13bd
00000060: aa06 84be 3b6c e9be 9666 473e 3654 18be
00000070: b3bf f73d 7e76 d9bc dfa3 0e3e 5c2f 9dbd
00000080: d342 533e e6c3 e9bd a59c 2b3e 03dc 8e3e
00000090: c7c2 8b3e eaf6 f3bc 43cf b3bd 0207 38be
000000a0: e328 c23d 48b3 db3d 4567 b3bb 8ea8 25be
000000b0: 5e22 4a3d 29c2 65bb aceb 9e3d bb3e e6bd
000000c0: c140 333e 0f65 253f 32c8 41be 409d 8e3e
000000d0: 7fcc 503e 9731 043e c625 e73d c1d8 2c3d
000000e0: 5600 a7be d744 663e 29e8 2bbe 0b14 0d3e
000000f0: be1b 34be 4747 a1bc 70bf 0c3e 4879 643e
00000100: 7c68 00be f6f9 0a3e 6ff3 903c e3fc 07be
00000110: 348e 313d f9e2 183e 9008 1ebd d48b b0bd
00000120: b2f6 fabd 300b ea3f 76cd 243e aeab 203f
00000130: 067a be3d 8ca6 e03d b743 463e af8e 1c3d
00000140: 0e2a 313e 406f 343e dc4f 5c3e 98da 37bd
00000150: ed3e 183e 1f51 af3c ec7f a9bd e82f 583d
00000160: 52b1 40be 20e9 7d3c f4ad 103e bc2d a33d
00000170: 60de 513e 5907 9a3d b821 d13d f00e 63be
00000180: 958d 01be 7d8d fdbe d866 193e ce11 933d
00000190: e6a2 5abc 2e0a c93d 8a46 ed3c 2bc1 b13c
000001a0: 3fe8 e7bd 786d 9cbe edca 10be 6f27 a13e
000001b0: b961 50be a86e 44bd 685e 0bbe 0780 273e
000001c0: 726d 083e 4d9f baba afb4 2fbe 7129 e53d
000001d0: a6ae 1b3e 8666 2cbe 71a2 313d 3a46 8e3d
000001e0: 4929 403e 4421 e3be cbea 803e 712c abbd
000001f0: 7fc5 24be 5282 60bc 054e 3a3e bab3 05be
00000200: e1ce 8e3e f407 09bd 582c 0f3d ca02 4e3e
00000210: 1830 7bbe c2ef 46bd 3eb9 6bbd dfe5 d33d
00000220: 0d06 23be 12a1 d13d 0b1a 173e 0c81 053e
00000230: 5ed5 53be 739a a5bd 6de3 2f3e df63 7abd
00000240: 3edd 7fbd 92ee da3c 73a8 6abe 50a0 a2be
00000250: b061 40bd 78a4 a93d a7c2 833d 4e0c f3bc
00000260: f9ac 03be 9e2e 3e3e c856 80bd 4d12 86be
00000270: 85c7 27be d4e0 883d de1a 603e e076 303e
00000280: 97ed af3d 4a75 663e ac26 f33d 9d7b 273e
00000290: 8e1a 0d3e 4e21 58be d950 853d 518e c6bd
000002a0: 680d 50be b93b 04be cf7e 1a3e 2ab0 403f
000002b0: e4de 7abe b1dd 6f3d b16d 253e ee4c 363c
000002c0: 85cd 11be 90a5 dc3d 3c59 7d3d 1649 d03d
000002d0: 8130 30be 7400 77be 86b8 8b3d eb8a be3d
000002e0: 6c95 703e 0fe4 1ebe 7536 9fbb 3768 a03b
000002f0: ef2d e03b f9da 043e f803 5fbc eb39 0c3e
00000300: e337 9b3d c271 173f 5c59 9cbd f138 2abe
00000310: 0836 6a3d 7095 353e 44fe 2ebe 673f 123e
00000320: b216 fabc fa8f af3e 0801 3dbe f2f6 a3be
00000330: 90bc 24be e812 cebd 5d4e a83d e55e f83d
00000340: 2d56 61be b987 203e 448f d7bd a1be 19be
00000350: 85c5 cb3d e463 d7bd 64df 3f3e 20c0 5abd
00000360: 7221 14be 57c5 cdbe 2eb8 293d 34c2 0a3f
00000370: a640 b33d b7b0 4abe 10ec a0bc 83c5 0abe
00000380: 73cb ad3b 95df 08be a536 ee3d f38d bd3e
00000390: cec1 143e b985 94bd a1e5 453e 6ccf 76bd
000003a0: 9562 80bd 33b0 01be f5fd 55bd 516c 563e
000003b0: 8121 173e ecab 3fba d5c5 52bd fdfe f7bd
000003c0: 18b7 d2be 4087 debf 137c ec3c e36b 513f
000003d0: 2f49 923e cedb 02bd 83fb 9dbe 3538 c0bc
000003e0: 6920 cb3d 0746 753e a54b e9bd 10dc 1e3e
000003f0: 32a7 bcbd 37bc 45bc 8dd8 293e cdbd 803d

policy_net.0.bias f4 [64]
0.13665321 -0.03677071 -0.1149421 -0.046873428 0.082787104 0.100626744 0.050149895 0.16034323
0.077083364 0.16187961 -0.00828176 -0.20979285 -0.0016533586 -0.10728259 0.08405297 0.14942957
0.18146165 -0.05444182 -0.05235152 -0.11904072 -0.006208155 -0.1281575 -0.00228694 0.12115676
0.13358878 -0.05170545 0.12480994 -0.16398437 0.16751766 -0.03074025 0.0551714 -0.0040070843
0.061024234 -0.05699872 0.050217 0.07114856 0.11406951 -0.05542794 -0.02256478 0.15473787
-0.03458546 -0.070491455 0.091267124 -0.18379395 0.054162458 0.08114976 0.22403647 -0.19378704
0.12093695 -0.015772106 0.056031056 -0.20476341 0.15846623 -0.051233947 0.0063495734 -0.11500503
-0.119188435 0.027324773 -0.1341162 0.09978391 -0.17414792 0.08146129 -0.10835093 0.14881662
00000000: d2ee 0b3e e29c 16bd c466 ebbd 5afe 3fbd
00000010: 498c a93d 6515 ce3d fa69 4d3d 0431 243e
00000020: e2dd 9d3d c5c3 253e 38b0 07bc f0d3 56be
00000030: 82b5 d8ba f9b6 dbbd f723 ac3d 1104 193e
00000040: 15d1 393e 63fe 5ebd 8c6e 56bd 9fcb f3bd
00000050: c76d cbbb b83b 03be 7de0 15bb 0921 f83d
00000060: 7fcb 083e 18c9 53bd 5b9c ff3d 85eb 27be
00000070: c089 2b3e fad2 fbbc 68fb 613d dc4d 83bb
00000080: 8cf4 793d 7d77 69bd 57b0 4d3d 56b6 913d
00000090: 469d e93d 6808 63bd c6d9 b8bc 9b73 1e3e
000000a0: 7ca9 0dbd d35d 90bd 42ea ba3d 7b34 3cbe
000000b0: 74d9 5d3d d831 a63d d169 653e 1c70 46be
000000c0: cbad f73d 8134 81bc d280 653d 80ad 51be
000000d0: f944 223e b0da 51bd 1510 d03b c287 ebbd
000000e0: 1119 f4bd 34d8 df3c c255 09be 825b cc3d
000000f0: d553 32be 2dd5 a63d 18e7 ddbd 6263 183e

policy_net.2.weight f4 [128, 64]
-0.18055496 -0.05322193 0.14867519 -0.009741509 0.07644921 -0.0058240946 -0.04245191 0.067427725
0.10200936 -0.04290938 -0.29464874 0.20952085 0.22318394 0.055280223 -0.11057312 -0.076421365
-0.053901043 0.03910297 -0.15838377 -0.21309325 0.03711378 0.20007598 -0.15279125 -0.2090655
0.19425514 0.04234444 0.2681266 0.078905724 -0.021552624 -0.14891295 -0.12617575 0.055911172
-0.16693133 -0.021061879 -0.24131116 0.038155925 0.10228401 0.12998693 0.12838213 -0.032605335
-0.09071129 0.041980766 0.099783674 -0.15703212 -0.48021558 -0.08376103 -0.03184571 -0.028474147
0.09443094 0.096548095 -0.1323082 -0.020320682 -0.00042889256 0.033113267 0.035441954 0.09414365
0.074931584 -0.004884063 0.06487766 0.03473468 0.00811504 0.006619247 0.011541473 -0.072011776
-0.19661413 0.16106588 -0.039676767 0.08714414 0.099030204 -0.23845714 -0.15255077 -0.0017842831
-0.2808171 0.26831675 0.09832107 -0.14664523 0.07741686 -0.09924989 0.15033178 -0.03497015
0.11825422 0.09605111 0.07670371 0.06489832 -0.14330916 -0.06398321 0.10444452 0.03587313
-0.005074225 0.10943753 -0.100754604 -0.02678962 -0.18587427 -0.12352024 -0.098320566 0.09793626
-0.020246543 0.041035287 -0.07851598 -0.3091997 -0.07692266 -0.0100491755 -0.052992042 -0.025283933
-0.13362025 0.14125194 0.069568016 0.04248016 0.0034650336 -0.16856843 -0.055932015 0.015712645
-0.17130275 -0.14818212 -0.15736568 -0.13027863 0.10726746 -0.025738439 -0.09300927 -0.120564714
0.3127695 -0.21762095 0.18338181 -0.08345496 -0.033298623 0.097798 -0.20711076 0.1319344
-0.10504762 0.15659271 -0.20599672 0.0023675747 0.098610856 0.07006097 -0.0371193 0.1920457
-0.013642824 -0.047603145 0.19365898 0.06253488 -0.04339774 0.04570781 -0.12310505 -0.030803384
0.053972077 -0.040622383 0.06657316 -0.13152304 0.052935075 0.099961154 -0.03478982 0.029130768
-0.014687982 -0.045579 -0.012979443 -0.27825743 -0.07485074 -0.011264007 0.0017638737 -0.19949348
0.19667862 -0.021451566 0.22587217 0.002224793 -0.15794945 -0.14458068 -0.017360337 0.14079283
0.08281458 -0.2471861 -0.09634741 -0.20984504 -0.25800797 -0.10408791 -0.28669006 0.071556725
-0.12428134 0.071787484 -0.08456028 -0.15101337 0.14124086 -0.09069222 -0.038567226 0.085082576
0.12691507 -0.0839501 -0.077479646 0.12281475 0.051667612 0.03560632 -0.29283753 -0.058636095
-0.10639302 -0.27279466 0.06395922 -0.03814432 0.04613664 -0.14352952 0.07104067 -0.12213026
0.1494031 -0.1830947 0.046039023 0.11589245 0.09712308 -0.11790928 -0.0041139955 0.09370598
0.03756999 0.15236402 0.023914667 -0.06819451 -0.04168918 -0.005676147 -0.020413628 -0.12166245
-0.18792331 0.07395873 -0.0087833945 0.07111159 0.15868798 0.0033525764 -0.12108808 -0.073408306
-0.16433808 -0.00087385427 -0.02226119 0.004238686 0.16522205 -0.19535294 -0.040277276 -0.14139678
-0.08078969 -0.12336891 0.12561114 -0.08278016 -0.22396582 -0.029792527 -0.025831887 0.02908834
0.04353266 0.13934195 -0.03697498 0.14879304 0.05170843 -0.10103231 0.09609056 0.07472112
-0.081049286 -0.002547643 -0.08337183 0.1301298 0.09078585 -0.18008082 -0.17265904 0.097101815
00000000: 66e3 38be 3dff 59bd 4f3e 183e da9a 1fbc
00000010: 6791 9c3d 0cd8 bebb 0ee2 2dbd 8c17 8a3d
00000020: 49ea d03d bfc1 2fbd 33dc 96be a28c 563e
00000030: 558a 643e 846d 623d 2974 e2bd ce82 9cbd
00000040: 57c7 5cbd 702a 203d 5b2f 22be 1e35 5abe
00000050: 9e04 183d b8e0 4c3e 4f75 1cbe 4415 56be
00000060: d2ea 463e 5d71 2d3d e447 893e 5399 a13d
00000070: 218f b0bc a37c 18be 3734 01be 1d03 653d
00000080: 0cf0 2abe f689 acbc 461a 77be 6349 1c3d
00000090: 477a d13d 4b1b 053e 9b76 033e 2c8d 05bd
000000a0: d7c6 b9bd 06f4 2b3d 625b cc3d 07cd 20be
000000b0: d1de f5be e78a abbd a670 02bd 9d42 e9bc
000000c0: 0265 c13d 02bb c53d cd7b 07be 8f77 a6bc
000000d0: fcdc e0b9 c7a1 073d 952b 113d 63ce c03d
000000e0: bb75 993d 7d0a a0bb 94de 843d f445 0e3d
000000f0: f2f4 043c 45e6 d83b 7218 3d3c e97a 93bd
00000100: 3755 49be 74ee 243e 1b84 22bd a078 b23d
00000110: 59d0 ca3d 1c2e 74be 4536 1cbe 9bde e9ba
00000120: 42c7 8fbe d060 893e 8f5c c93d 2b2a 16be
00000130: bb8c 9e3d 8743 cbbd 93f0 193e dc3c 0fbd
00000140: 452f f23d 72b6 c43d d616 9d3d 69e9 843d
00000150: a3bf 12be a109 83bd 02e7 d53d b4ef 123d
00000160: af45 a6bb c920 e03d 6e58 cebd e875 dbbc
00000170: d355 3ebe 2ef8 fcbd 4b5c c9bd ce92 c83d
00000180: 14dc a5bc 9e14 283d fccc a0bd 6c4f 9ebe
00000190: a189 9dbd 4ca5 24bc 2f0e 59bd 4020 cfbc
000001a0: bfd3 08be 59a4 103e ad79 8e3d adff 2d3d
000001b0: 9e15 633b 349d 2cbe f818 65bd ceb7 803c
000001c0: fd69 2fbe 0ebd 17be 7824 21be c367 05be
000001d0: 0baf db3d 6bd9 d2bc a57b bebd a2ea f6bd
000001e0: 5323 a03e 07d8 5ebe 71c8 3b3e 6fea aabd
000001f0: 2364 08bd 514a c83d d814 54be d019 073e
00000200: 3523 d7bd d759 203e cef0 52be 5029 1b3b
00000210: 7df4 c93d 207c 8f3d 680a 18bd a1a7 443e
00000220: 2786 5fbc 84fb 42bd 8a4e 463e 4a12 803d
00000230: d4c1 31bd 1d38 3b3d 801e fcbd 6157 fcbc
00000240: d311 5d3d a863 26bd 8257 883d faad 06be
00000250: 73d2 583d 6fb8 cc3d c57f 0ebd a6a3 ee3c
00000260: dda5 70bc 0cb1 3abd bba7 54bc c277 8ebe
00000270: 584b 99bd ab8c 38bc c831 e73a 0548 4cbe
00000280: 1f66 493e 32bb afbc 094b 673e d5cd 113b
00000290: 80bd 21be f50c 14be 4437 8ebc ff2b 103e
000002a0: b19a a93d 5a1e 7dbe ca51 c5bd 9ee1 56be
000002b0: 9f19 84be 0b2c d5bd 0ac9 92be 558c 923d
000002c0: 3787 febd 5105 933d f12d adbd 40a3 1abe
000002d0: 72a1 103e d8bc b9bd abf8 1dbd c63f ae3d
000002e0: 06f6 013e 08ee abbd a6ad 9ebd 4d86 fb3d
000002f0: 6ba1 533d efd7 113d cdee 95be 672c 70bd
00000300: 95e4 d9bd beab 8bbe 0dfd 823d 383d 1cbd
00000310: c6f9 3c3d 67f9 12be c57d 913d 6e1f fabd
00000320: 20fd 183e 2d7d 3bbe 6a93 3c3d 0559 ed3d
00000330: 77e8 c63d 6c7a f1bd b2ce 86bb ece8 bf3d
00000340: fde2 193d 5005 1c3e b1e8 c33c 90a9 8bbd
00000350: 46c2 2abd f9fe b9bb 7b3a a7bc 2a2a f9bd
00000360: f86e 40be ad77 973d 3ae8 0fbc f4a2 913d
00000370: 1a7f 223e e6b6 5b3b 07fd f7bd 1857 96bd
00000380: 3e48 28be 5e13 65ba 195d b6bc ade4 8a3b
00000390: f82f 293e 9a0a 48be c9f9 24bd 51ca 10be
000003a0: 1175 a5bd d7a8 fcbd 35a0 003e a588 a9bd
000003b0: 4c57 65be 750f f4bc 659d d3bc ac4a ee3c
000003c0: 4d4f 323d a8af 0e3e 1473 17bd 345d 183e
000003d0: 38cc 533d 07ea cebd 21cb c43d 6307 993d
000003e0: 2bfd a5bd 5bf6 26bb dabe aabd bf40 053e
000003f0: efed b93d 1b67 38be 88cd 30be 51dd c63d

policy_net.2.bias f4 [128]
0.048599485 -0.043306902 0.08435081 -0.03458686 -0.13033585 -0.17302135 -0.016031161 -0.094242536
0.036200624 0.0107255215 -0.039213713 0.08052278 -0.051487073 0.10497716 -0.15651657 -0.12219487
0.0357604 -0.0038021288 0.115261875 -0.09514609 -0.0369994 -0.08522165 0.052387614 -0.025180614
0.032945927 -0.08844213 0.012051797 -0.09527921 -0.07249779 -0.08381902 -0.019111052 -0.116002746
-0.15507375 0.038966585 0.015121414 0.08921199 -0.022192668 0.024236413 0.010228086 -0.022273833
0.016249951 -0.1430223 -0.056628484 0.061359823 -0.05248103 -0.023688361 0.11391852 0.11655197
-0.092908315 -0.05091305 -0.058286954 -0.00804291 -0.047158964 -0.055518765 0.12115448 0.08839156
-0.0018691872 -0.007106521 -0.09997641 0.0039454554 -0.10620936 0.041078333 0.018712852 -0.029734707
-0.102263965 -0.02891638 0.010326299 0.038632866 0.049142174 0.078765415 -0.0075400122 -0.031291705
-0.08455614 0.008453309 -0.12802187 -0.04861421 0.08257273 -0.023357125 0.06352592 0.061898977
-0.009457423 0.05035049 -0.13152564 -0.110605724 0.056151986 -0.06550338 0.05437533 0.03316518
-0.10479926 -0.057980508 -0.052530672 -0.12893888 0.039239503 0.061349675 0.07200235 -0.07428021
-0.07602055 0.05642984 -0.057707254 0.02811473 -0.120560944 0.094030105 -0.09324445 -0.011011575
0.039703116 -0.019899419 0.028862024 -0.024351867 -0.04258042 0.046437636 0.05658897 -0.099454306
0.05246227 0.10092208 0.034490682 0.115051866 -0.07466813 -0.015276922 -0.01452159 0.0040243915
-0.04551203 -0.048418768 0.007744067 -0.047378797 0.07866133 -0.008281508 0.06339144 -0.0122260265
00000000: 4110 473d 9462 31bd 1ec0 ac3d f4aa 0dbd
00000010: c376 05be 822c 31be c853 83bc 3b02 c1bd
00000020: 1b47 143d 19ba 2f3c 8f9e 20bd 21e9 a43d
00000030: 1ce4 52bd 44fe d63d e145 20be 4e41 fabd
00000040: 7f79 123d 232d 79bb 6b0e ec3d f4db c2bd
00000050: af8c 17bd b088 aebd 6594 563d 9347 cebc
00000060: 4ff2 063d 2621 b5bd e674 453c bf21 c3bd
00000070: b979 94bd 4ea9 abbd c88e 9cbc d992 edbd
00000080: a7cb 1ebe 6d9b 1f3d cfbf 773c c7b4 b63d
00000090: 66cd b5bc 718b c63c b493 273c 9d77 b6bc
000000a0: 9e1e 853c 7074 12be 45f3 67bd 7054 7b3d
000000b0: 59f6 56bd 180e c2bc 1d4e e93d cdb2 ee3d
000000c0: b746 bebd 348a 50bd 4dbe 6ebd 69c6 03bc
000000d0: c229 41bd a567 63bd d71f f83d a206 b53d
000000e0: 84ff f4ba d2dd e8bb 6fc0 ccbd e148 813b
000000f0: 4b84 d9bd c141 283d b24b 993c 3396 f3bc
00000100: c56f d1bd 0be2 ecbc a32f 293c 7f3d 1e3d
00000110: 4e49 493d c34f a13d 3512 f7bb bb2b 00bd
00000120: c52b adbd bf7f 0a3c 2a18 03be b21f 47bd
00000130: e41b a93d 7157 bfbc e119 823d c889 7d3d
00000140: 4ff3 1abc 513c 4e3d a8ae 06be 4185 e2bd
00000150: a0ff 653d a326 86bd abb8 5e3d 36d8 073d
00000160: ffa0 d6bd f87c 6dbd 672a 57bd 8e08 04be
00000170: 9ab9 203d cc49 7b3d f875 933d 3920 98bd
00000180: aab0 9bbd fa22 673d 715e 6cbd dd50 e63c
00000190: a8e8 f6bd db92 c03d f2f6 bebd e569 34bc
000001a0: bc9f 223d 1b04 a3bc 0d70 ec3c 917d c7bc
000001b0: ce68 2ebd 6435 3e3d d6c9 673d b3ae cbbd
000001c0: ade2 563d 3cb0 ce3d 1a46 0d3d 50a0 eb3d
000001d0: 9beb 98bd 0e4c 7abc f7eb 6dbc 0bdf 833b
000001e0: d36a 3abd c252 46bd f1c1 fd3b 4510 42bd
000001f0: 3119 a13d 2aaf 07bc 5fd3 813d ac4f 48bc

policy_net.4.weight f4 [128, 128]
-0.01102901 -0.15796725 0.05712865 0.06925672 0.06294909 -0.12808248 0.06860895 -0.08724496
-0.05645674 0.08742439 0.06745682 -0.054254793 -0.09747861 -0.24081223 0.09720334 0.11594808
-0.18567611 0.1773863 -0.048166256 -0.10821919 0.15605988 -0.007250285 0.01008594 -0.2725978
0.0395388 0.010368018 0.049537648 -0.06161105 -0.19303831 -0.051740944 0.11452871 -0.04781946
0.043043513 -0.094119355 0.028754538 0.0027788116 0.11291232 0.043041375 -0.11877107 -0.23631364
0.10785571 -0.21034147 -0.18986998 -0.22530866 0.05151919 -0.16959654 0.023293236 0.19839104
-0.11069369 0.0063651516 -0.04251301 -0.062406726 -0.03889603 0.14538692 -0.13236548 0.028395709
0.015488174 -0.019200237 -0.196839 -0.041916534 -0.22431582 -0.027924092 0.14367123 -0.01997201
-0.07393188 -0.005762649 0.091395855 -0.02727001 0.1068291 -0.014330255 -0.06873132 -0.07878207
-0.53302175 -0.10166767 -0.086105704 0.010755397 0.0119918715 0.034777403 -0.16294447 0.060945172
-0.060323015 -0.013774081 -0.056054752 -0.46511534 0.047999993 0.089406215 -0.11988731 0.08720219
-0.031521324 -0.19773355 0.0269473 -0.09594303 0.12906827 0.045732994 0.06488875 -0.18307918
-0.15561804 0.025610654 -0.21118131 -0.08477364 -0.008863156 0.009472166 0.001764141 -0.03642653
-0.10535379 0.028902676 -0.030380448 -0.101426005 -0.028232072 -0.24749207 0.14058077 -0.13411781
0.05073663 0.019320317 0.072508335 -0.08039933 -0.07772705 -0.019974645 0.041124668 -0.075127505
-0.04315834 -0.010483052 -0.012037772 -0.11049001 0.00979332 -0.1047696 -0.011184106 -0.008568833
0.023379074 0.055280793 -0.05504752 -0.03925407 0.015210831 -0.053459313 -0.16177699 0.019963652
-0.011074256 -0.21965145 -0.08449882 0.0066174446 0.014453546 -0.080560125 0.1648279 -0.23484509
-0.06357962 -0.0399716 0.16197366 0.023412827 -0.06479333 -0.012325808 -0.04581413 0.29763305
0.12514538 -0.09454163 -0.06677266 0.029435763 0.14184378 -0.063806236 0.028329872 0.0012027391
0.099841446 0.04338588 -0.025710873 0.11380796 -0.051869195 0.051338308 0.086776115 0.24482663
0.13831258 -0.20434876 0.17879875 -0.15047747 -0.032632586 -0.039594863 0.00012667688 0.059609465
0.007059561 -0.11931371 -0.036942787 0.12348859 0.113617145 -0.21072382 0.06468679 0.058646142
0.18047915 0.15699762 -0.066169076 0.11278822 0.006472457 -0.033661567 -0.12575302 -0.16750365
0.04312282 -0.22681208 0.099207506 -0.020388482 -0.13539122 -0.021222068 -0.061049987 0.0584434
0.1933192 0.030879982 -0.050809707 -0.052863915 0.04412039 0.045972206 0.110771306 -0.14548862
0.021930626 0.20036192 -0.05849317 -0.124623686 0.073672086 -0.4661304 -0.011432176 0.14685825
-0.06536351 0.08883102 -0.15272073 0.11596052 0.14070003 0.10031101 0.07983473 0.18715538
-0.019548018 -0.121380225 0.28192008 0.10552999 0.017894132 0.18558098 -0.019042145 -0.07473762
0.018047566 0.03202001 0.15299524 0.13490573 -0.17764044 0.058564212 0.06278892 -0.028912872
-0.009787606 0.059892625 0.006595118 0.057801306 0.28237242 0.05704385 0.06807772 0.020622414
-0.1446196 0.09320579 -0.06999249 -0.004685133 0.03870918 0.25538203 -0.015220306 -0.047588166
00000000: 05b3 34bc 2bc2 21be bbff 693d 78d6 8d3d
00000010: 74eb 803d 0e28 03be d982 8c3d 7cad b2bd
00000020: 2f3f 67bd 8f0b b33d cd26 8a3d 463a 5ebd
00000030: dea2 c7bd 7b97 76be 8b12 c73d 3076 ed3d
00000040: e121 3ebe c1a4 353e fb49 45bd 06a2 ddbd
00000050: 29ce 1f3e cc93 edbb 803f 253c f091 8bbe
00000060: 70f3 213d 9fde 293c fde7 4a3d de5b 7cbd
00000070: d6ab 45be 50ee 53bd 078e ea3d 57de 43bd
00000080: 654e 303d a6c1 c0bd a38e eb3c b91c 363b
00000090: 933e e73d 274c 303d 3f3e f3bd 34fc 71be
000000a0: 74e3 dc3d c163 57be 476d 42be 50b7 66be
000000b0: c905 533d b7aa 2dbe 75d1 be3c 0527 4b3e
000000c0: 60b3 e2bd c392 d03b 1f22 2ebd 329e 7fbd
000000d0: 7251 1fbd 4fe0 143e d18a 07be 1e9e e83c
000000e0: 1cc2 7d3c d149 9dbc 2a90 49be acb0 2bbd
000000f0: 0cb3 65be 11c1 e4bc 8d1e 133e 579c a3bc
00000100: 9969 97bd 9ad4 bcbb c02d bb3d 5b65 dfbc
00000110: 37c9 da3d 72c9 6abc 02c3 8cbd 7e58 a1bd
00000120: 1d74 08bf 2437 d0bd 3058 b0bd 6837 303c
00000130: 8e79 443c c072 0e3d eada 26be a5a1 793d
00000140: 4415 77bd afac 61bc ab99 65bd 9923 eebe
00000150: a49b 443d 9b1a b73d 7a87 f5bd 1097 b23d
00000160: 811c 01bd aa7a 4abe 96c0 dc3c c87d c4bd
00000170: 792a 043e 8552 3b3d 65e4 843d 1c79 3bbe
00000180: 565a 1fbe 6fcd d13c ea3f 58be cd9d adbd
00000190: c536 11bc 2531 1b3c c03a e73a fc33 15bd
000001a0: bac3 d7bd 4ec5 ec3c 6be0 f8bc 70b8 cfbd
000001b0: f246 e7bc 906e 7dbe 68f4 0f3e 2e56 09be
000001c0: 36d1 4f3d a445 9e3c 407f 943d 67a8 a4bd
000001d0: 5c2f 9fbd dea1 a3bc 5772 283d 73dc 99bd
000001e0: cdc6 30bd 1bc1 2bbc 133a 45bc 9648 e2bd
000001f0: 2974 203c 7291 d6bd 8a3d 37bc 4a64 0cbc
00000200: 7985 bf3c 1d6e 623d 8279 61bd e0c8 20bd
00000210: d936 793c 27f8 5abd dea8 25be d08a a33c
00000220: cc70 35bc 4fec 60be b80d adbd 26d7 d83b
00000230: 91ce 6c3c b5fc a4bd a5c8 283e 3b7b 70be
00000240: 0836 82bd 43b9 23bd 6cdc 253e 42cc bf3c
00000250: 5eb2 84bd 30f2 49bc 99a7 3bbd 5c63 983e
00000260: 1c26 003e 0b9f c1bd 1bc0 88bd 4523 f13c
00000270: 7f3f 113e d8ac 82bd 0c14 e83c 3aa5 9d3a
00000280: ac79 cc3d 64b5 313d 9c9f d2bc 2614 e93d
00000290: cb74 54bd 1e48 523d adb7 b13d d5b3 7a3e
000002a0: d0a1 0d3e cd40 51be 0517 373e c416 1abe
000002b0: bfa9 05bd 392e 22bd 91d4 0439 0e29 743d
000002c0: e453 e73b bf5a f4bd 5251 17bd 96e7 fc3d
000002d0: 1bb0 e83d fcc7 57be 827a 843d f036 703d
000002e0: 87cf 383e fcc3 203e a783 87bd 83fd e63d
000002f0: e816 d43b b6e0 09bd 66c5 00be 1486 2bbe
00000300: 8ea1 303d 6d41 68be 4e2d cb3d bf05 a7bc
00000310: ffa3 0abe e7d9 adbc 8d0f 7abd 5962 6f3d
00000320: 78f5 453e 04f8 fc3c d71d 50bd d587 58bd
00000330: 95b7 343d 5a4d 3c3d 11dc e23d f8fa 14be
00000340: dba7 b33c ad2b 4d3e 8996 6fbd b43a ffbd
00000350: 64e1 963d a5a8 eebe 064e 3bbc 0262 163e
00000360: 4edd 85bd 0aed b53d d362 1cbe b67c ed3d
00000370: ab13 103e dc6f cd3d 6480 a33d a9a5 3f3e
00000380: 2a23 a0bc 3296 f8bd d457 903e 1b20 d83d
00000390: b796 923c f108 3e3e 46fe 9bbc 0a10 99bd
000003a0: 7dd8 933c 6a27 033d c9aa 1c3e ba24 0a3e
000003b0: 60e7 35be 07e1 6f3d 7a97 803d b0da ecbc
000003c0: 325c 20bc f851 753d dc1b d83b 10c1 6c3d
000003d0: 1e93 903e d0a6 693d 556c 8b3d 56f0 a83c
000003e0: 2917 14be ade2 be3d 3958 8fbd bf85 99bb
000003f0: 848d 1e3d 6fc1 823e 975e 79bc cfeb 42bd

policy_net.4.bias f4 [128]
0.0049096923 -0.039146475 0.10031222 -0.072648354 0.018536555 -0.0015177829 -0.16501388 -0.01443427
-0.11469747 0.00416024 0.07925096 0.026340974 -0.006898157 0.0236964 0.03368607 0.090902165
0.06847164 -0.13919117 0.11752287 -0.00328755 -0.008996423 0.088833936 -0.039653424 -0.16408676
0.011977735 0.109091446 -0.15457037 -0.002088148 -0.14181064 -0.0665778 0.03143993 -0.027118675
0.13077725 -0.026284106 -0.015079675 0.041217376 0.045855712 0.023497729 0.04476097 -0.0056647696
-0.13354565 -0.0814173 0.12380584 -0.06604252 -0.06794823 0.01391503 -0.0050323675 0.05831117
0.056830563 0.10395603 0.0051759263 0.05933194 0.004354025 0.022323744 -0.04246873 0.050389256
0.13091753 -0.03292442 0.019062016 0.11568768 0.013927894 -0.11504223 0.07365946 0.06403947
0.08209622 -0.035020746 -0.10409286 0.052182626 -0.007845608 -0.061722368 -0.025559383 0.13078007
0.08592865 0.115805194 0.076975435 0.018515298 0.047811363 -0.023612646 -0.005104254 -0.09548109
0.013173533 0.10281218 0.105759725 -0.14033149 -0.017040623 -0.003563301 0.07714005 0.07150284
0.10744115 0.0119204875 0.027800374 -0.049393136 0.0015805383 -0.015420716 0.18569799 -0.07656325
-0.13590503 0.03946211 -0.025852898 0.08441339 0.04250607 0.038203716 0.035241313 0.041641533
0.117879555 0.16646431 0.01401132 0.03634204 -0.014651825 0.01418632 0.0057829227 -0.04554261
0.033258196 0.068239614 -0.036828708 0.07121948 -0.078505255 0.10526726 0.027652496 0.08808258
0.07281094 0.021035826 0.063875146 0.055451084 0.03988694 -0.07093592 0.06488344 -0.07641941
00000000: 7ce1 a03b 0e58 20bd 7e70 cd3d a9c8 94bd
00000010: f9d9 973c 58f0 c6ba 66f9 28be b77d 6cbc
00000020: 82e6 eabd 9f52 883b 544e a23d 07c9 d73c
00000030: ef09 e2bb f41e c23c 68fa 093d ea2a ba3d
00000040: dc3a 8c3d 2188 0ebe d5af f03d f073 57bb
00000050: bc65 13bc 91ee b53d a16b 22bd 5c06 28be
00000060: 433e 443c 566b df3d b247 1ebe 4fd9 08bb
00000070: cf36 11be f159 88bd 28c7 003d fc27 debc
00000080: 79ea 053e c451 d7bc be10 77bc 8dd3 283d
00000090: 33d3 3b3d 4f7e c03c 4757 373d 889f b9bb
000000a0: 31c0 08be 1dbe a6bd eb8d fd3d 4d41 87bd
000000b0: 7128 8bbd defb 633c 8fe6 a4bb b2d7 6e3d
000000c0: 2ac7 683d e6e6 d43d d19a a93b 0c06 733d
000000d0: 35ac 8e3b 49e0 b63c b1f3 2dbd f764 4e3d
000000e0: 3f0f 063e c2db 06bd f227 9c3c aaed ec3d
000000f0: d231 643c 439b ebbd c5da 963d 2027 833d
00000100: 1022 a83d ea71 0fbd a32e d5bd 73bd 553d
00000110: dd8a 00bc 98d0 7cbd e961 d1bc 36eb 053e
00000120: 5cfb af3d 462b ed3d 4ca5 9d3d 65ad 973c
00000130: d9d5 433d 4f6f c1bc 9641 a7bb 978b c3bd
00000140: cdd5 573c 318f d23d 8e98 d83d 0fb3 0fbe
00000150: c798 8bbc 4586 69bb 9afb 9d3d 1570 923d
00000160: 1b0a dc3d 264e 433c 9cbd e33c 7550 4abd
00000170: 112a cf3a 2ca7 7cbc 9d27 3e3e 31cd 9cbd
00000180: b02a 0bbe 05a3 213d 75c9 d3bc ede0 ac3d
00000190: d81a 2e3d 807b 1c3d 3259 103d 5090 2a3d
000001a0: d66a f13d 9f75 2a3e bc8f 653c 64db 143d
000001b0: 350e 70bc bd6d 683c ac7e bd3b e38a 3abd
000001c0: bf39 083d 36c1 8b3d b3d9 16bd 85db 913d
000001d0: 5dc7 a0bd 5c96 d73d 7d87 e23c a464 b43d
000001e0: e71d 953d 5353 ac3c f9d0 823d ad20 633d
000001f0: 7d60 233d da46 91bd 9ce1 843d c881 9cbd

policy_net.6.weight f4 [64, 128]
-0.023672048 -0.08067035 0.08865405 0.012307185 -0.052679434 0.0130254915 -0.05856956 0.08622495
-0.059336964 0.079111025 0.033145174 0.050259743 0.13574956 -0.02775537 0.23951238 0.02640486
-0.6078258 0.09159933 0.122461796 -0.4081188 0.052867122 0.03095269 0.11225206 -0.16155015
-0.030530576 0.06537893 0.049426194 -0.010366631 -0.054947767 -0.0425838 -0.13083443 0.020120012
-0.22922802 0.1556451 -0.4884359 0.02828372 0.12884685 -0.27257118 0.060285185 0.17016035
-0.0015313252 -0.0500943 -0.05615466 0.06892498 0.021189803 -0.058166962 -0.060953178 -0.21002156
0.024595177 -0.028674882 -0.048462573 0.00838795 -0.013727826 0.097217746 0.03659428 0.051832553
-0.23148048 0.054323103 0.07413519 -0.09075114 -0.346388 -0.142311 -0.1698868 0.08402513
-0.07870339 -0.124577604 0.0077272896 0.10741775 -0.012236227 -0.122640364 -0.05977153 0.047628094
0.13633287 0.047528535 -0.17804217 0.11512975 -0.015411406 0.0961623 0.053534977 0.048533347
-0.38058394 0.016940158 0.03345565 0.054943573 -0.036069605 0.05593657 0.09764886 -0.07235609
0.06903452 -0.025277833 -0.024584586 -0.047658883 -0.05118234 -0.062232696 0.13720821 0.15118895
-0.10216924 0.07002492 -0.2590093 0.10125726 0.0024942034 -0.16157344 -0.14572726 -0.04627132
0.0012378646 0.036873527 -0.052239377 -0.15857665 0.036092214 -0.2870905 0.11638523 0.0012905207
0.08185563 0.0936369 -0.093803965 -0.43281007 -0.2084797 0.020032467 0.074788526 -0.009266691
0.1465246 -0.07179821 -0.11790964 -0.28658715 -0.051143307 -0.12761123 0.25431952 -0.19407083
-0.058354583 -0.060069285 0.20695554 0.090824634 0.092682004 0.003965137 -0.11769036 0.17292976
0.014340542 0.17128208 0.00013377792 -0.061198976 0.16647258 -0.41880715 0.19131516 0.053189028
-0.033971444 -0.063133664 0.039414745 -0.4803036 -0.016818438 -0.02662382 0.1727407 -0.06974123
-0.19359614 -0.06015602 0.1603588 0.04921561 -0.16990831 -0.037690558 0.048613224 -0.12827642
-0.11471549 0.23891732 -0.16866562 0.07408302 0.073629476 -0.09760092 -0.013067201 0.15104796
0.025078513 -0.10421478 -0.11189178 0.012843894 -0.03425608 -0.04453636 0.021400481 -0.12945765
-0.011729613 -0.039418716 0.21227235 -0.14608647 -0.07233305 -0.00037132477 -0.14094417 0.024791198
-0.07113079 0.17165369 -0.011077237 0.06796572 -0.2966975 -0.21097693 -0.025398787 0.25023997
-0.085243456 -0.31064406 -0.0015865918 0.018611979 0.1228416 -0.12804925 -0.15290977 -0.025984665
-0.011869876 0.09006515 -0.20910801 0.041111454 -0.046129372 0.29504955 0.10937814 -0.03167308
-0.28536063 -0.005664818 0.041263536 0.089527786 0.17098911 -0.06362267 0.027816888 -0.014945986
0.17261162 -0.11499745 -0.13312156 -0.0076448 0.10999789 0.0073338505 0.05640266 -0.051277135
0.022846147 0.14894263 -0.29044077 0.036468223 -0.11044684 -0.05687272 -0.07102883 0.08781315
-0.053257536 0.004447102 -0.075463675 -0.29846644 0.10387744 -0.17792639 0.053730257 0.10700385
0.1042798 0.036245503 0.043875795 -0.15501635 -0.14477824 0.043673072 -0.04609276 0.24646913
0.1378081 0.03775019 -0.05965269 -0.22142489 -0.122271344 -0.3882021 0.015479778 -0.021324635
00000000: e2eb c1bc 7f36 a5bd 4190 b53d 13a4 493c
00000010: 64c6 57bd df68 553c a3e6 6fbd b596 b03d
00000020: 510b 73bd f604 a23d 3cc3 073d 29dd 4d3d
00000030: ef01 0b3e 3b5f e3bc bc42 753e 014f d83c
00000040: 799a 1bbf 6e98 bb3d 40cd fa3d f3f4 d0be
00000050: 328b 583d 7f90 fd3c 68e4 e53d 676d 25be
00000060: 421b fabc 63e5 853d 1f73 4a3d cdd8 29bc
00000070: e910 61bd 5a6c 2ebd 76f9 05be b9d2 a43c
00000080: c0ba 6abe 6e61 1f3e 4514 fabe 43b3 e73c
00000090: 6ef0 033e 738e 8bbe 99ed 763d 843e 2e3e
000000a0: bfb6 c8ba ae2f 4dbd 6e02 66bd 8a28 8d3d
000000b0: 3d96 ad3c 7b40 6ebd 0aaa 79bd e40f 57be
000000c0: d37b c93c 96e7 eabc b180 46bd 9d6d 093c
000000d0: adea 60bc 191a c73d e2e3 153d 5f4e 543d
000000e0: 3809 6dbe e781 5e3d 31d4 973d bcdb b9bd
000000f0: c559 b1be fab9 11be cef6 2dbe 5e15 ac3d
00000100: 3e2f a1bd 8b22 ffbd 3435 fd3b d6fd db3d
00000110: 757a 48bc df2a fbbd fed2 74bd ad15 433d
00000120: d89a 0b3e 48ad 423d b050 36be 25c9 eb3d
00000130: 1f80 7cbc bdf0 c43d 7e47 5b3d e7ca 463d
00000140: e6db c2be 16c6 8a3c cb08 093d 830c 613d
00000150: b9bd 13bd bf1d 653d 20fc c73d 6e2f 94bd
00000160: f861 8d3d 7513 cfbc 9d65 c9bc f635 43bd
00000170: 93a4 51bd b6e7 7ebd 4f80 0c3e 47d1 1a3e
00000180: 1b3e d1bd 3a69 8f3d de9c 84be f75f cf3d
00000190: ca75 233b 8273 25be 8739 15be ff86 3dbd
000001a0: d83f a23a b208 173d f5f8 55bd eb61 22be
000001b0: 6ed5 133d 87fd 92be 615b ee3d b026 a93a
000001c0: eda3 a73d b4c4 bf3d 4b1c c0bd 4899 ddbe
000001d0: b47b 55be 211b a43c ba2a 993d 52d3 17bc
000001e0: 8b0a 163e f10a 93bd 9c7a f1bd 8dbb 92be
000001f0: a57b 51bd 85ac 02be 2b36 823e 81ba 46be
00000200: 3705 6fbd 360b 76bd 27ec 533e 4402 ba3d
00000210: 10d0 bd3d fbed 813b a507 f1bd 8014 313e
00000220: 98f4 6a3c 9264 2f3e bd46 0c39 c7ab 7abd
00000230: ca77 2a3e e46d d6be 1fe8 433e bddc 593d
00000240: a425 0bbd 394c 81bd 5b71 213d 5aea f5be
00000250: d2c6 89bc 331a dabc f0e2 303e 7dd4 8ebd
00000260: 113e 46be 2966 76bd 1935 243e 4f96 493d
00000270: 72fc 2dbe 6a61 1abd a91e 473d e55a 03be
00000280: f4ef eabd bea6 743e aeb6 2cbe d7b8 973d
00000290: 0dcb 963d fee2 c7bd d017 56bc 51ac 1a3e
000002a0: 7471 cd3c 8f6e d5bd 8427 e5bd 326f 523c
000002b0: 1a50 0cbd c26b 36bd 1050 af3c 8c90 04be
000002c0: 902d 40bc 8575 21bd ec5d 593e b197 15be
000002d0: 5a23 94bd 5eae c2b9 ab53 10be e916 cb3c
000002e0: 05ad 91bd fcc5 2f3e 4d7d 35bc 9d31 8b3d
000002f0: bce8 97be 560a 58be 1e11 d0bc 741f 803e
00000300: 1f94 aebd bd0c 9fbe 30f5 cfba 2678 983c
00000310: 6094 fb3d 581f 03be 6194 1cbe cbdd d4bc
00000320: de79 42bc 1474 b83d 6920 56be 7c64 283d
00000330: 27f2 3cbd bc10 973e a501 e03d a2bb 01bd
00000340: ca1a 92be f09f b9bb f403 293d 585a b73d
00000350: c517 2f3e 9a4c 82bd 3ee0 e33c 02e0 74bc
00000360: 1ac1 303e c883 ebbd 0551 08be 3b81 fabb
00000370: 9346 e13d cc50 f03b 7a06 673d f907 52bd
00000380: d827 bb3c 6b84 183e a7b4 94be b45f 153d
00000390: f431 e2bd 5ff3 68bd 9077 91bd 61d7 b33d
000003a0: 9324 5abd ffb8 913b b38c 9abd 98d0 98be
000003b0: b2bd d43d 5632 36be 4214 5c3d d624 db3d
000003c0: a690 d53d 2a76 143d 1bb7 333d 9bbc 1ebe
000003d0: bf40 14be 89e2 323d c3cb 3cbd 6762 7c3e
000003e0: 911d 0d3e f19f 1a3d 6156 74bd 35bd 62be
000003f0: 6669 fabd 6dc2 c6be e59e 7d3c 00b1 aebc

policy_net.6.bias f4 [64]
0.12482675 0.17538661 0.15958634 -0.03620913 -0.23728284 0.12975036 0.07734891 0.09055625
0.023526346 -0.082365625 0.08361018 -0.01884805 0.048940964 -0.0343202 0.10762258 -0.03417926
0.094003215 0.08456847 -0.051873554 0.11285391 0.052406523 0.047366455 0.12643044 0.028402695
-0.082181886 0.16768953 0.15640092 0.012471132 -0.07017216 0.06678706 0.098489664 0.05487738
0.034646623 -0.04245 0.14141983 0.10534297 -0.1303181 -0.0068533537 -0.07117743 -0.061710708
0.09487485 -0.06942655 0.07958253 0.12555116 0.11096893 0.02005371 0.044826727 0.16168271
-0.04785264 -0.025774976 -0.11852011 -0.004183646 0.14366361 0.013061761 -0.080835834 0.13084288
0.18898278 0.019979604 0.12353755 -0.09015529 0.1300403 0.0703398 0.036120992 0.08596407
00000000: 2ba5 ff3d 8c98 333e 9a6a 233e 0650 14bd
00000010: 46fa 72be 47dd 043e 1b69 9e3d 8e75 b93d
00000020: 53ba c03c 4faf a8bd d03b ab3d 3a67 9abc
00000030: 5276 483d 5793 0cbd 3a69 dc3d 8dff 0bbd
00000040: c284 c03d 3c32 ad3d 5d79 54bd f31f e73d
00000050: 39a8 563d 5403 423d fb76 013e c5ac e83c
00000060: fa4e a8bd ceb6 2b3e 9027 203e b853 4c3c
00000070: 6cb6 8fbd a7c7 883d f3b4 c93d 1bc7 603d
00000080: 9ee9 0d3d 0de0 2dbd 5cd0 103e 0ebe d73d
00000090: 1c72 05be 1992 e0bb 79c5 91bd 5ec4 7cbd
000000a0: bf4d c23d 822f 8ebd 2afc a23d 7c90 003e
000000b0: ae43 e33d ae47 a43c 3b9c 373d 2790 253e
000000c0: 2101 44bd 0b26 d3bc acba f2bd f716 89bb
000000d0: 8e1c 133e ff00 563c 428d a5bd adfb 053e
000000e0: b484 413e 44ac a33c 4101 fd3d 56a3 b8bd
000000f0: 4929 053e 500e 903d 9bf3 133d ee0d b03d

policy_net.8.weight f4 [4, 64]
0.07780377 0.22215404 -0.018810123 0.038974613 0.061399154 0.029078625 0.0016273926 -0.06535862
-0.13796064 -0.013207193 -0.035217147 -0.20804456 -0.044839036 -0.08083204 0.10234289 -0.2088196
-0.046139553 -0.030964531 -0.076672465 -0.15807433 -0.21816997 0.13539413 -0.23343904 -0.015905479
-0.001093393 0.07036018 -0.16582836 -0.06737697 -0.053340096 -0.027438616 -0.10826907 -0.076501995
-0.18425816 -0.1567436 -0.1297743 0.06132872 -0.12961581 0.07537496 0.24433085 0.022260252
-0.109705545 -0.0771372 -0.0724909 0.039758287 0.06584542 0.08830363 -0.04117405 0.14410396
-0.3337527 -0.023200266 0.005719987 -0.3077774 0.16973437 0.24527875 -0.09617144 -0.097821526
0.22928657 0.04473416 -0.05359454 0.004103567 0.1241752 0.045585338 0.20371783 0.13322957
0.06560711 -0.03312349 -0.20181403 0.13626656 0.010282643 -0.14285035 0.14278267 0.090236165
0.08335964 -0.053043496 -0.2534355 -0.12185431 -0.07202962 -0.2458335 0.020621974 0.04491804
0.07911903 -0.08250855 -0.08282578 -0.03404044 0.030334711 0.109432146 -0.3059888 0.123866424
0.031331077 -0.061747763 0.0031082705 -0.18614587 -0.12454731 -0.1603994 0.1058803 0.21992041
-0.008728631 0.055557493 -0.2136512 0.14876527 -0.014464709 -0.19263339 -0.08355369 0.07967867
0.15528111 -0.1133655 0.04836219 0.0019470332 -0.092119664 0.057835568 0.15106522 0.16022748
-9.105261e-05 0.10918902 -0.00092704815 -0.1175507 0.10023414 -0.06143786 0.06437832 -0.017968368
0.09238715 -0.10560735 0.24600147 -0.059354436 0.1093054 -0.3110972 0.073078535 0.031420644
0.13905452 0.08195803 -0.054340176 0.07186431 -0.048658654 0.17716694 -0.16533308 -0.18510872
-0.16188353 -0.06416124 -0.10496272 -0.07644593 -0.043080166 -0.060672272 -0.09846047 -0.0230169
0.20334718 0.026051253 -0.12590028 0.038359616 0.015138011 0.08299605 -0.027962314 -0.02560738
0.0510816 0.19051269 0.17734253 -0.15968502 -0.121151604 -0.13377646 -0.1763716 0.08578178
0.15996265 -0.18465011 0.024703179 0.050211873 0.036432642 -0.13218653 0.046177953 -0.0005515912
-0.1521275 0.050625514 -0.25579938 -0.040839314 -0.0923111 0.0062654247 0.046988945 -0.23857318
0.11409225 0.027639065 0.023937194 -0.002415623 -0.00053814525 0.40356296 0.07883896 0.26450843
0.0060576694 -0.28562963 -0.005843814 0.07171539 -0.22328822 0.04225335 -0.1891069 0.23929442
-0.2094818 -0.1106587 -0.056901824 0.13361445 0.45954773 -0.1545086 0.05177043 0.18338686
0.20443258 -0.027846051 -0.03444443 0.02075168 -0.1610225 0.068403274 0.13912116 -0.0072123366
-0.041902162 -0.12898366 0.048580512 -0.21313109 -0.18885331 -0.06438101 -0.16677627 0.10190435
0.017567009 -0.15947457 -0.1738657 0.14378718 0.22842151 -0.1003607 -0.12371823 -0.18924113
0.25458634 -0.08742891 0.006632414 -0.048122145 0.05800104 0.06171833 0.13892026 -0.07472327
0.041499745 0.057359558 0.1773044 -0.1730197 -0.056352526 -0.17189278 -0.054131575 0.18011434
0.15985207 -0.0583676 -0.00549556 0.037551016 0.1334811 0.3267659 -0.022109175 0.09184819
0.13651104 0.14948525 0.020296017 0.022190921 0.13713828 0.090147674 -0.073472045 -0.10746749
00000000: 9557 9f3d 597c 633e b017 9abc d8a3 1f3d
00000010: ae7d 7b3d 4c36 ee3c 3c4e d53a bdda 85bd
00000020: 8e45 0dbe fc62 58bc db3f 10bd a209 55be
00000030: 23a9 37bd 458b a5bd 2699 d13d ced4 55be
00000040: d4fc 3cbd 54a9 fdbc 7406 9dbd 3dde 21be
00000050: f367 5fbe c2a4 0a3e a50a 6fbe 354c 82bc
00000060: 2e50 8fba 0019 903d e9ce 29be f0fc 89bd
00000070: 257b 5abd f3c6 e0bc 2dbc ddbd 14ad 9cbd
00000080: 2cae 3cbe 6581 20be 8ee3 04be d333 7b3d
00000090: 02ba 04be 305e 9a3d de31 7a3e 225b b63c
000000a0: 4dad e0bd 1cfa 9dbd 1c76 94bd 96d9 223d
000000b0: f7d9 863d 89d8 b43d 1fa6 28bd fd8f 133e
000000c0: a2e1 aabe 7c0e bebc bb6e bb3b 0095 9dbe
000000d0: d9ce 2d3e 5a2a 7b3e 88f5 c4bd a756 c8bd
000000e0: 19ca 6a3e 2b3b 373d f385 5bbd 3777 863b
000000f0: 914f fe3d b1b7 3a3d 689b 503e 556d 083e
00000100: 055d 863d 7fac 07bd 56a8 4ebe 7689 0b3e
00000110: 8878 283c 5d47 12be 9f35 123e bdcd b83d
00000120: 75b8 aa3d 2344 59bd 4cc2 81be c18e f9bd
00000130: 4484 93bd c7bb 7bbe 6aef a83c fbfb 373d
00000140: 2809 a23d 3efa a8bd 90a0 a9bd fd6d 0bbd
00000150: 8080 f83c f61d e03d 90aa 9cbe aead fd3d
00000160: 0455 003d 39eb 7cbd 20b4 4b3b 069d 3ebe
00000170: a912 ffbd be3f 24be c5d7 d83d d132 613e
00000180: 8802 0fbc 4190 633d 61c7 5abe ec55 183e
00000190: 63fd 6cbc b041 45be 321e abbd 922e a33d
000001a0: 0302 1f3e 2c2c e8bd 6f17 463d 9833 ff3a
000001b0: 3ca9 bcbd fde4 6c3d d7b0 1a3e ac12 243e
000001c0: 7ff3 beb8 7e9e df3d 2605 73ba 6cbe f0bd
000001d0: 8f47 cd3d 44a6 7bbd c8d8 833d 6632 93bc
000001e0: 7935 bd3d ab48 d8bd cfe7 7b3e a31d 73bd
000001f0: 82db df3d 2248 9fbe 33aa 953d efb2 003d
00000200: 4f64 0e3e 9dd9 a73d ce93 5ebd 982d 933d
00000210: 4c4e 47bd 406b 353e 134d 29be 248d 3dbe
00000220: ccc4 25be f866 83bd b2f6 d6bd af8f 9cbd
00000230: d474 30bd 7d83 78bd a5a5 c9bd f08d bcbc
00000240: 3e3a 503e 7069 d53c 01ec 00be f91e 1d3d
00000250: 6c05 783c d5f9 a93d 3911 e5bc 91c6 d1bc
00000260: f13a 513d c215 433e 4899 353e 7884 23be
00000270: 551e f8bd b2fc 08be c29a 34be 5cae af3d
00000280: 40cd 233e eb14 3dbe 525e ca3c f7aa 4d3d
00000290: 653a 153d e85b 07be 1825 3d3d a998 10ba
000002a0: 50c7 1bbe b35c 4f3d 23f8 82be 2047 27bd
000002b0: 9a0d bdbd 314e cd3b 7b77 403d 874c 74be
000002c0: 33a9 e93d 526b e23c ef17 c43c 6e4f 1ebb
000002d0: 5112 0dba ce9f ce3e 5276 a13d a66d 873e
000002e0: 6a7f c63b 0c3e 92be 777d bfbb 85df 923d
000002f0: aba5 64be d911 2d3d 3da5 41be 9909 753e
00000300: 6682 56be 07a1 e2bd e311 69bd 3ad2 083e
00000310: d749 eb3e 8137 1ebe 3b0d 543d c4c9 3b3e
00000320: c656 513e 671d e4bc 9a15 0dbd 6dff a93c
00000330: 15e3 24be 0417 8c3d c775 0e3e 7755 ecbb
00000340: 9aa1 2bbd 4b14 04be 5cfc 463d 093f 5abe
00000350: c362 41be 31da 83bd 66c7 2abe 3ab3 d03d
00000360: b0e8 8f3c 4d4d 23be da09 32be f23c 133e
00000370: 54e7 693e e989 cdbd fc5f fdbd 6dc8 41be
00000380: 2459 823e ee0d b3bd b954 d93b ba1b 45bd
00000390: 8092 6d3d 5ccc 7c3d 1d41 0e3e 8408 99bd
000003a0: a3fb 293d dbf1 6a3d 498f 353e 142c 31be
000003b0: e8d1 66bd a904 30be 12b9 5dbd e56f 383e
000003c0: 43b0 233e dd12 6fbd 1914 b4bb 18cf 193d
000003d0: 45af 083e dc4d a73e 4d1e b5bc e71a bc3d
000003e0: 8dc9 0b3e a912 193e d543 a63c bcc9 b53c
000003f0: fa6d 0c3e 589f b83d 8378 96bd ea17 dcbd

policy_net.8.bias f4 [4]
-0.01908452 -0.040740065 0.037966408 0.011199378
00000000: 2457 9cbc 0edf 26bd aa82 1b3d 997d 373c

inverse_net.0.weight f4 [64, 48]
-0.063203745 0.21082753 0.05519581 0.003469355 -0.12336138 -0.05541905 0.0629568 -0.08259996
-0.06314997 0.09056565 0.06024705 0.10188639 0.11663768 -0.12006977 0.061080415 0.059779745
0.1245179 0.121763736 0.10727017 0.13108502 0.012235347 0.07203002 0.027985793 0.15057394
-0.03395971 -0.040382635 -0.070139535 0.14981167 0.07246254 0.048336145 0.15299082 0.1517062
-0.05952132 -0.042594578 -0.03568993 0.021808349 -0.1420912 0.12899132 0.16619654 -0.10285427
0.10246082 -0.10963537 -0.09146574 -0.101749115 -0.01958582 0.07204113 -0.05955156 -0.07643432
0.03676247 -0.006823195 0.14075994 0.03876762 0.08319123 -0.023838488 0.0043464713 0.07031731
0.06104013 0.053329494 0.06492991 -0.060156323 0.0368172 -0.008439509 0.12750581 0.012294848
0.04676244 -0.10695805 -0.090419985 -0.12734672 0.064863086 -0.103135504 -0.09908445 0.13811676
0.1101308 0.10464299 0.14864485 -0.03107275 -0.037229083 -0.09061729 -0.017344886 0.17948277
-0.04130484 0.019101486 0.14889115 -0.11110668 -0.2595613 0.16694948 -0.0222602 0.058970284
0.1284801 0.07839893 0.100812234 0.1319608 0.10459416 -0.08903359 -0.054629453 0.059769925
-0.05066559 0.021100849 -0.1455793 -0.09025935 0.11769336 -0.122724056 -0.12739049 0.026557172
-0.07263559 -0.104602076 0.19687498 0.0042568767 -0.09884434 0.091315486 -0.016899409 -0.07013567
-0.05195794 0.072924644 0.11092461 0.15270925 -0.04285219 0.08901433 -0.071640365 0.04881897
0.105419606 -0.0023712842 0.014139623 0.005443666 -0.076878496 0.015590641 0.10703528 0.023870353
-0.019375669 -0.12978698 -0.043821864 -0.041399807 0.21396641 0.06477378 0.11468604 0.031933703
0.08644604 0.06052323 0.12175288 -0.034914773 -0.074927785 0.008418672 0.10063126 -0.09521474
0.111876726 -0.0009477733 -0.08739894 0.061537642 -0.016891878 -0.06589793 -0.1249236 0.10346328
-0.09217008 0.08155405 0.1905362 0.12505867 -0.19170877 -0.07800913 -0.018475965 0.027465284
-0.1185836 -0.0015592336 -0.08549381 0.11035582 0.018232591 0.06934294 -0.021226536 -0.01649046
0.034056704 0.07874274 -0.11664552 0.14171728 0.11174876 0.22277005 -0.04378135 -0.16634056
-0.08845018 0.026124248 -0.25605524 0.1342571 -0.13339698 0.017694684 0.049224593 0.08042213
-0.11226757 -0.019972743 0.009451821 -0.077615514 -0.009615468 0.053757474 -0.09684558 -0.039009072
-0.103858896 0.22511967 -0.014615524 0.00075989583 0.08261544 0.022628592 -0.02661842 0.063419685
-0.031963665 -0.092779264 -0.23222482 0.008163411 -0.08183778 -0.06345482 -0.086249284 0.0913137
0.080276795 -0.046473056 0.12152654 0.11819814 0.11328927 0.0856554 0.056392934 0.038485903
-0.1231299 -0.6263535 0.003983172 -0.021169705 0.0701628 0.35407954 -0.01324431 0.05780842
8.219836e-05 0.15774427 0.27351886 0.036768407 0.090755776 -0.12054779 0.06057607 0.1253905
-0.009598515 -0.12272396 0.13448484 0.03615589 0.10643795 -0.10236623 -0.14046086 0.0006725371
0.025703073 -0.15009189 -0.03791557 0.038691852 0.0492051 0.1420698 -0.049461324 0.08190417
-0.044300493 -0.10254931 -0.060121298 -0.10482684 0.018615821 -0.005043801 0.06890868 0.03578525
00000000: f770 81bd 2ce3 573e 0015 623d 1e5e 633b
00000010: e4a4 fcbd 16ff 62bd 7fef 803d 2b2a a9bd
00000020: c554 81bd 7c7a b93d 9cc5 763d d0a9 d03d
00000030: bcdf ee3d 24e7 f5bd 752f 7a3d 9bdb 743d
00000040: 3e03 ff3d 445f f93d 76b0 db3d 273b 063e
00000050: c476 483c 7a84 933d 7642 e53c 0e30 1a3e
00000060: 5619 0bbd 4368 25bd 51a5 8fbd 3b68 193e
00000070: 3d67 943d 1ffc 453d a0a9 1c3e df58 1b3e
00000080: a1cc 73bd a777 2ebd 9b2f 12bd 6ca7 b23c
00000090: 5b80 11be 4d16 043e 6d2f 2a3e 42a5 d2bd
000000a0: fad6 d13d 8288 e0bd 6452 bbbd d761 d0bd
000000b0: 7172 a0bc 4d8a 933d 56ec 73bd 9989 9cbd
000000c0: 3e94 163d 1c95 dfbb 6023 103e ccca 1e3d
000000d0: 2a60 aa3d ef48 c3bc d86c 8e3b 8602 903d
000000e0: 3705 7a3d 0770 5a3d f9f9 843d 7a66 76bd
000000f0: a2cd 163d de45 0abc e290 023e 5570 493c
00000100: f989 3f3d d20c dbbd 1d2e b9bd 2e67 02be
00000110: f0d6 843d b538 d3bd caec cabd 7b6e 0d3e
00000120: 428c e13d 104f d63d 5b36 183e 488c febc
00000130: 867d 18bd 8f95 b9bd dd16 8ebc 55ca 373e
00000140: 442f 29bd b87a 9c3c ec76 183e e68b e3bd
00000150: 38e5 84be cef4 2a3e 065b b6bc d38a 713d
00000160: 4a90 033e 9e8f a03d a576 ce3d bb20 073e
00000170: 7735 d63d 3e57 b6bd 22c3 5fbd 4fd1 743d
00000180: b986 4fbd b0db ac3c bd12 15be e5d9 b8bd
00000190: 3709 f13d c056 fbbd a772 02be 6d8e d93c
000001a0: f8c1 94bd 9d39 d6bd 9899 493e 457d 8b3b
000001b0: e76e cabd 9d03 bb3d a170 8abc 4aa3 8fbd
000001c0: d9d1 54bd 8459 953d 712c e33d d05f 1c3e
000001d0: c785 2fbd 254d b63d 2fb8 92bd 66f6 473d
000001e0: 3ce6 d73d 8c67 1bbb e1a9 673c c860 b23b
000001f0: 7972 9dbd e36f 7f3c 5035 db3d c28b c33c
00000200: b9b9 9ebc e1e6 04be 8e7e 33bd d892 29bd
00000210: 031a 5b3e 1ea8 843d 84e0 ea3d eacc 023d
00000220: 9f0a b13d 35e7 773d 9359 f93d cb02 0fbd
00000230: bd73 99bd 78ee 093c c317 ce3d f2ff c2bd
00000240: a01f e53d fd73 78ba 37fe b2bd e50e 7c3d
00000250: d660 8abc 7ef5 86bd f2d7 ffbd 8ee4 d33d
00000260: abc3 bcbd cf05 a73d ec1b 433e 610f 003e
00000270: 4e4f 44be 40c3 9fbd e85a 97bc e0fe e03c
00000280: f5db f2bd 335f ccba 6117 afbd 3b02 e23d
00000290: 845c 953c ac03 8e3d 46e3 adbc 0017 87bc
000002a0: 0b7f 0b3d e043 a13d d9e3 eebd 561e 113e
000002b0: 89dc e43d d51d 643e 1354 33bd 2e55 2abe
000002c0: 5e25 b5bd 8502 d63c ac19 83be b17a 093e
000002d0: 3899 08be 71f4 903c ba9f 493d 5cb4 a43d
000002e0: 8aec e5bd e19d a3bc d0db 1a3c e2f4 9ebd
000002f0: 328a 1dbc cc30 5c3d fa56 c6bd fac7 1fbd
00000300: f9b3 d4bd c585 663e f375 6fbc bf33 473a
00000310: 4932 a93d 995f b93c df0e dabc 2ee2 813d
00000320: 55ec 02bd 0e03 bebd 58cc 6dbe d4bf 053c
00000330: 919a a7bd 9af4 81bd 77a3 b0bd ad02 bb3d
00000340: 2968 a43d 885a 3ebd e8e2 f83d de11 f23d
00000350: 3404 e83d 196c af3d 47fc 663d 65a3 1d3d
00000360: 872b fcbd b458 20bf 4585 823b 176c adbc
00000370: 84b1 8f3d ea49 b53e aafe 58bc 86c8 6c3d
00000380: e961 ac38 b787 213e aa0a 8c3e 789a 163d
00000390: 2ade b93d c2e1 f6bd 9d1e 783d 5e66 003e
000003a0: 1743 1dbc b356 fbbd 65b6 093e 3318 143d
000003b0: 24fc d93d 63a5 d1bd f9d4 0fbe 334d 303a
000003c0: 408f d23c b0b1 19be 5b4d 1bbd 597b 1e3d
000003d0: 498b 493d bf7a 113e f597 4abd 60bd a73d
000003e0: 6f74 35bd 5f05 d2bd c041 76bd 74af d6bd
000003f0: 3580 983c 7846 a5bb fe1f 8d3d 8e93 123d

inverse_net.0.bias f4 [64]
-0.090928115 0.00392462 -0.12218276 -0.054044064 0.1052478 0.10638573 -0.021254614 -0.058927335
0.061996713 -0.12202039 -0.104093604 -0.08789961 0.012247853 -0.08627003 -0.031272616 0.02034814
-0.12795618 -0.023798743 0.13787647 -0.05139412 -0.1387469 -0.15512069 0.059593484 0.011018739
0.14523211 0.14086723 0.026211973 0.14629328 -0.110513456 0.05341228 0.061221983 0.046407092
0.01977675 0.005594716 0.036520883 -0.07256328 0.09360799 0.07377602 -0.0036333548 0.06202641
-0.024824528 0.11995948 0.030977888 0.058822136 -0.123295225 0.032193907 -0.07159424 0.11997447
0.008862739 -0.10234811 -0.12687145 -0.07700008 0.04242489 -0.03319836 -0.11633982 -0.06317519
-0.07530501 -0.047923137 0.0185878 0.005696261 0.03575033 0.007992906 0.09676707 -0.108395204
00000000: 8538 babd 199a 803b f43a fabd 4f5d 5dbd
00000010: 298c d73d c3e0 d93d 281e aebc ca5d 71bd
00000020: 44f0 7d3d d4e5 f9bd 072f d5bd b604 b4bd
00000030: 38ab 483c 57ae b0bd b717 00bd 24b1 a63c
00000040: f206 03be 95f5 c2bc 7d2f 0d3e a482 52bd
00000050: ab13 0ebe f5d7 1ebe 4c18 743d f187 343c
00000060: bab7 143e 803f 103e 7eba d63c e8cd 153e
00000070: e154 e2bd d6c6 5a3d e7c3 7a3d 5d15 3e3d
00000080: da02 a23c e153 b73b ec96 153d 0f9c 94bd
00000090: 8cb5 bf3d e217 973d 941d 6ebb 680f 7e3d
000000a0: cf5c cbbc 51ad f53d 57c5 fd3c 7bef 703d
000000b0: 3582 fcbd c2dd 033d 00a0 92bd 2db5 f53d
000000c0: 0635 113c e39b d1bd 97ea 01be 38b2 9dbd
000000d0: b9c5 2d3d 01fb 07bd 9243 eebd fe61 81bd
000000e0: 8339 9abd 0d4b 44bd 7145 983c b3a7 ba3b
000000f0: f06e 123d adf4 023c d02d c63d 4efe ddbd
