IL/Model/model_reacher_19.pt (torch, 292527 bytes, 20 tensors)

policy_net.0.weight f4 [64, 24]
00000000: 27b1 87be 41ef 91bf 2b16 3c3e 0cb3 52be
00000010: 5f93 2a3e 6578 23be 13b4 873e a27d 66bd
00000020: ec0a 443e e6ff 833d 25f7 f73c 863b aebb
00000030: 6ebd d5bd 3e94 ae3c 547d 813e 9317 bc3d
00000040: c413 6a3e 2bc3 083e a28a 3abe 5c59 c3be
00000050: 5258 a9be 0c27 99bd d0a3 193e 26ca 103c
00000060: ee4e acbc 043f 02bf 7f71 10bd 0908 df3e
00000070: 472b 603e 9090 353e 96ec 4a3f 6cfb 61be
00000080: 24bb 48bd 871f 86be 1f6d 733e 88f4 67bb
00000090: 82d1 debc 293b 6bbe 755a 9d3c 2ce4 54bd
000000a0: 175d 88bd b993 24be 9691 51be 48fa 42bd
000000b0: 5aea 65be 2080 1c3e 63ba b7bd 2549 0fbe
000000c0: 8054 4d3e 309c d03e 81fd 6bbe 7d16 a33f
000000d0: c699 1ebd 72cc a9bd fcb6 43bd 07e0 8a3d
000000e0: 280e a63e 9358 733b a85a 673c 30a9 d5bb
000000f0: cfc7 8a3e 15fc 8d3e 3354 6b3d d99e cfbc
00000100: 030f 15bd f15c 1cbe 4ff6 813d 4f40 5d3a
00000110: 8848 963c 3d8c 283e d4b7 98bd 95a4 47be
00000120: 2aa2 b13e ccfb 883e e6b5 77be bc87 87bf
00000130: 92e4 6e3e 4c4f 353d 7661 983e 61c6 a13d
00000140: fc62 0bbe 4c53 593d d775 2fbd 7c40 ebbe
00000150: 8c6c 24bd fa35 c63c c42d e93c 019e 13bd
00000160: 5f56 85bd 64e5 99bc 9e48 9dbd 409b aabe
00000170: f6e7 7ebd 9b28 68be c582 22bd 8432 c33d
00000180: d887 bbbd 929f 443e 464a e2bd 7aa5 473e
00000190: 6704 293d 2a3b c33d f43b 013c 3253 0f3d
000001a0: 96d1 87bd 1ed6 b4bd 6c58 fabd cb26 c43e
000001b0: 114f e2be 3891 5c3c ca4b dc3d 7d34 313d
000001c0: 0a74 923e e100 7a3e 50d5 023e 301a 7f3e
000001d0: 0290 80bd 0071 23be 4af0 1dbe 2c55 63bd
000001e0: a83b 9abe 3261 8a3e 0f78 083e 5d5b 84bf
000001f0: 4c56 17be 8e22 b03d 9875 323e 86de fbbd
00000200: 338f 8dbe 3960 1d3e 3c86 64be 8390 c1bd
00000210: a018 c0bd 994f 53be 8b9d 493e cdc2 463e
00000220: f65e 573e c9ca eb3d 7641 573e 890a 3f3e
00000230: bec0 9f3c 00b3 01bd a33f 3bbe 5559 243e
00000240: 13f8 90be 86ea fe3f 0231 dd3d 50fb d2be
00000250: 8748 86be 01c1 563e 61eb d6be 1533 013e
00000260: e42f af3d df58 fdbc 8ab2 223e 48d7 02be
00000270: ee5a f43c d230 603d 71d1 d23b 1a43 3ebe
00000280: 9caf f63d e8db 2d3e 0478 a6bc 2048 7a3e
00000290: 9459 463e f09f febc 852f 5dbe a475 2dbe
000002a0: 0129 95bd bf32 983e 0da2 cb3e bad8 7e3f
000002b0: 7a5a 14be 4964 353e b96f 203e 3697 15be
000002c0: 0be3 df3d 49aa 90be 6167 823d 1a4b 443e
000002d0: 1273 47be 97b2 443b c349 48be 6d44 16bd
000002e0: 60c8 0bbe 3284 203e 06e5 61bd b05a 45bd
000002f0: 1538 1d3e 98b3 2dbe 23df 6d3d 1856 c63d
00000300: 2cef 103f a4bc dd3d 30b1 bdbe 33be eebe
00000310: b117 cbbd 8874 633e 104f 05be f014 ba3d
00000320: 7454 ad3c 7f13 633e 8165 013b 5c90 813c
00000330: 20e4 813c 5c42 023e ed00 07be 8947 31bb
00000340: d153 80bd c8ad 40be 800c 9c3d 342b 10be
00000350: 3e83 1c3d 8b4f 1d3e fae8 48bd 8328 213e
00000360: 75eb 423e d866 823f 9ca6 4c3e 6d21 8bbf
00000370: a261 98be 47c0 3e3e 31e4 3abd 30d2 943d
00000380: f8d9 733d d468 b13e 2438 b23e 4f10 06be
00000390: d44b e5bd 56ec 8abe 6a09 503e ce7f 013e
000003a0: fc85 c93d f4dc b4bc a853 eb3d 0e06 2ebe
000003b0: 45f7 a1be 765b 60be 99b3 e53a b7de 7a3d
000003c0: 7cc7 c03e d0cd 9c3f 664c 923e bcb6 64bf
000003d0: 9394 533e 65e7 253e f7f7 e3be 1d5e c9bc
000003e0: 7855 74be 317a a13e 879c 5e3e 5d87 bfbd
000003f0: b163 203e ae38 2e3e b733 60be d59a 85be
-0.26502344 -1.140114 0.18367831 -0.20576113 0.1665778 -0.15963896 0.26504573 -0.056272157
0.19144791 0.06445293 0.030269215 -0.0053171543 -0.104365215 0.021310922 0.2529093 0.09184184
0.22859102 0.133557 -0.18216947 -0.38154113 -0.33075196 -0.07478151 0.15003896 0.008837258
-0.02103373 -0.50877404 -0.03526449 0.43560818 0.21891509 0.17730927 0.7926725 -0.22068566
-0.049006596 -0.26195928 0.23772095 -0.0035393555 -0.02719951 -0.22971787 0.019208172 -0.051975414
-0.066583805 -0.16071977 -0.20465693 -0.047601968 -0.2245268 0.15283251 -0.08971097 -0.13992746
0.20051765 0.40744162 -0.23045923 1.2741238 -0.03872087 -0.08290948 -0.04778193 0.06781011
0.32432675 0.0037131652 0.014120735 -0.006520413 0.27105567 0.27731386 0.057453346 -0.0253443
-0.03639127 -0.1526983 0.06345808 0.00084400637 0.018345132 0.16459747 -0.074569374 -0.19496377
0.34694034 0.26754606 -0.24190482 -1.0588298 0.2332938 0.044265077 0.29761857 0.07899166
-0.13611978 0.053057954 -0.04283699 -0.45947635 -0.04014258 0.02419566 0.028464206 -0.036039356
-0.065106146 -0.01878614 -0.07679866 -0.3332157 -0.062232934 -0.2267174 -0.039675493 0.095311195
-0.091567695 0.19201496 -0.11049323 0.19496718 0.041263964 0.09532769 0.007887829 0.03499145
-0.06631772 -0.08829902 -0.122238964 0.38310847 -0.44200948 0.013462357 0.10756643 0.043262947
0.28604156 0.24414398 0.12776685 0.24912333 -0.06277467 -0.15961075 -0.15423694 -0.055501148
-0.3012364 0.2702728 0.13327049 -1.0340382 -0.14779013 0.08600341 0.17427671 -0.12298302
-0.27648315 0.15368737 -0.22316831 -0.094513915 -0.09379697 -0.20635833 0.19689004 0.19410248
0.21032318 0.115132876 0.21021065 0.18656363 0.019501086 -0.03166485 -0.18285994 0.16049702
-0.28314266 1.9915321 0.10800363 -0.4120736 -0.2622721 0.20972063 -0.41976455 0.12617142
0.08554056 -0.030926166 0.1588842 -0.12777436 0.029828515 0.05473406 0.006433659 -0.18580285
0.120452136 0.16978419 -0.0203209 0.24441576 0.19370109 -0.031082124 -0.21600159 -0.16939408
-0.072832115 0.29726216 0.39772072 0.9954945 -0.14487639 0.17714037 0.15667619 -0.14608464
0.10931977 -0.28254917 0.06367374 0.19169274 -0.1947749 0.0030013674 -0.19559388 -0.03668635
-0.13650656 0.15675429 -0.055150054 -0.04818219 0.15353425 -0.16963041 0.058074128 0.0968439
0.5661495 0.10826996 -0.37049246 -0.46629485 -0.09916628 0.22212422 -0.13018441 0.09086025
0.021158434 0.22175406 0.001974434 0.015815906 0.015855849 0.12720627 -0.13183947 -0.0027050695
-0.06265987 -0.18816292 0.07619572 -0.1407898 0.0382111 0.15362374 -0.04905031 0.1573811
0.19035132 1.0187635 0.19985431 -1.0869576 -0.29761988 0.18628035 -0.045627777 0.072666526
0.059534043 0.3465029 0.34808457 -0.13092159 -0.11196104 -0.27133435 0.20316091 0.1264641
0.098400086 -0.022078015 0.114905655 -0.16994497 -0.31633964 -0.2190989 0.0017524838 0.061247554
0.37652194 1.2250309 0.28573912 -0.8934133 0.20662145 0.16201551 -0.4452512 -0.02458101
-0.23860729 0.31538537 0.21739398 -0.0935199 0.15663029 0.17013809 -0.21894728 -0.2609469

policy_net.0.bias f4 [64]
00000000: 7dc4 e6bd 4265 ddbd d11e 54be 9fe3 d8bc
00000010: be5f 133e 86d6 10be e1a1 083e 010e f13a
00000020: d08c bb3d e848 293e f0eb e2bd 4c43 2d3d
00000030: 6a9b 59be 8adf 76be ca22 783e 0700 f03d
00000040: 1769 2c3e 740f 6e3e c151 d03d 5e31 08be
00000050: ad98 fd3c c545 873d 818b 29be 8729 b03d
00000060: 4997 2abd 54fc 2abd ebcf 3d3e d15c 0dbb
00000070: 0310 403e a166 3f3d e950 adbd 0ffc 09be
00000080: 0ce0 653d d1e0 713e a236 99bd 0f91 39bd
00000090: 2e5c 763c 3bf7 3a3d 38de f4bd c1ad 163e
000000a0: ee6c 8a3d f5ca 57be 955f 103d 4691 1b3b
000000b0: 8ccc 2dbe 675b 1cbe 8c87 503e d5d9 adba
000000c0: 2e29 ed3c ea64 ca3d 074d 043e 7e27 dd3c
000000d0: 4770 023e c2aa 2d3e ecb1 ed3c 06c6 443e
000000e0: 0f68 1dbe a4dc b63c 70bb 80bd 4315 0d3e
000000f0: 174e 6a3d d4cf 40be 5ec2 06be e219 a8bd
-0.11267946 -0.10810329 -0.2071488 -0.026475726 0.14391991 -0.14144334 0.13343002 0.0018391014
0.09157717 0.16531718 -0.11080158 0.042300507 -0.21250692 -0.24108711 0.24232021 0.11718755
0.16836964 0.23248082 0.10171843 -0.13300082 0.03095659 0.06605104 -0.16557123 0.08601671
-0.041648183 -0.041744545 0.18536346 -0.0021570215 0.18756108 0.046728734 -0.08462698 -0.13475059
0.05612187 0.23620917 -0.074811235 -0.045304354 0.015036626 0.045645934 -0.11956447 0.1471472
0.06759058 -0.21073516 0.035247404 0.0023737713 -0.1697256 -0.15269242 0.20364207 -0.0013263772
0.0289503 0.09882529 0.12920009 0.02699637 0.12738143 0.1695967 0.029015504 0.19216165
-0.15371726 0.022322007 -0.06285751 0.13777642 0.05720338 -0.1882928 -0.13160083 -0.08208062

policy_net.2.weight f4 [128, 64]
00000000: 2599 17be d990 c63d cd20 c1bb 586c 84be
00000010: db6b 4c3d 0836 ef3d c78f 72bd e378 373e
00000020: 2a0e 203e 30db 963d 196d d7bd 6e7b 08be
00000030: 04d8 6f3e 52c9 783d 61ee 8d3e aee4 673e
00000040: e43b 04be 8f2b eabd 4eb7 00be 190b bcbc
00000050: 258e 46be cc45 b23c 16b8 a83e 6a96 653e
00000060: c041 013e c1fd 90be 0299 a0be 3018 4a3e
00000070: 59e2 6ebd da2a 513e cae2 47be 27a3 4ebe
00000080: dfba c8bd e15f dc3d 4972 083e d3f1 55bd
00000090: 5925 56bd f985 863e c9d0 69be 4285 49be
000000a0: c1de 89bd d1b8 42be 5c74 34be aae8 ab3e
000000b0: e394 76bd 2ad7 913d c9fb 1bbd c5b1 8e3c
000000c0: d130 2d3e bfb3 87be 052a 263c 45cf b23d
000000d0: 5c41 8ebd c1e6 60be 9c0f 083e 0f5b 913d
000000e0: c4c2 28be 5b54 843b b025 5f3e 3df4 0d3e
000000f0: 205f b23b 0492 16be 9e4f bdbd 4242 d4b8
00000100: f7bf 94be 0c8b 003e 3f75 5a3e 61cd 423c
00000110: d485 86bf 03d2 af3d 654c 79bc f250 e3be
00000120: 3e7b ccbd fbe4 8fbd b63c 3fbd da7c 4bbe
00000130: fd66 c5bd 725d f43d d0da c6bd 64f5 033e
00000140: de4d cd3c 2837 8e3d f905 b03d ad39 9dbd
00000150: a6bf 2bbd 287f 4f3d 5ad0 25be c0a6 c5be
00000160: c651 aa3c 4753 0e3e b616 343e e904 c93e
00000170: 3825 8ebd ef29 173e 0242 e93c 8803 083e
00000180: 4947 8ebe 4b62 81be 3714 bcbb f9b5 643d
00000190: 0c61 2b3e 362e 043e e296 e7bd 3b3c 81be
000001a0: d407 b5be 4968 003e eec3 47bd 9d10 d6be
000001b0: 6648 2d3e 201c 923d b15a 1ebd d7fc 003e
000001c0: 390f ec3e 3ff6 8f3d f18a a1be 95d3 acbd
000001d0: 7e5c 7b3e 2201 0dbe fc2c 67bb 2bbb 073d
000001e0: 7821 8c3d 0bc2 75be 599e fcbd fc7c 723c
000001f0: 3f5f 06bd 3c5e f03d 2072 25be 644d bb3d
00000200: e7ea 4ebe d598 3ebc 01ea 62be a395 8f3d
00000210: 1722 30bd eb00 593e 6534 333c 11b9 a13c
00000220: db46 023e 1f67 b93d fc7d 713d 7751 9bbd
00000230: 0898 3ebe 186f 84be 8f47 2cbe c69a 01be
00000240: 77f0 d0bc 8f93 d7bc a619 813e fb30 4dbe
00000250: c753 10bd 7df9 bdbd d78f 04be f2bd 61be
00000260: 4c93 26be 9205 263e 81c4 943d 153a ec3d
00000270: 110b ad3d cfac 23be a819 2e3d 5fb8 8d3d
00000280: c091 b73d 36c3 ec3a 85f6 0c3d 82e6 cc3c
00000290: 6026 b6bd 8846 07bf f614 853d 2c47 7b3e
000002a0: 4808 26be de6c d7be b141 213d befb 38be
000002b0: 874b 80be 5a9d b53d ea50 19be f077 663d
000002c0: ce3f fdba d0cd c03d 6159 7d3e d53a a7be
000002d0: e8fa 623e 0e38 2cbd f979 3b3c 376c e33c
000002e0: 2613 8dbe b348 723d d814 31be 0b0e e3bd
000002f0: 84da 273e abd4 e3bd 07a1 dabb 9234 aabe
00000300: 9311 63be 2540 303e 1667 a2be dbca 6abd
00000310: 8f05 0e3c f130 1bbd 8faf 47be b453 08bd
00000320: 52fe a53d d181 8d3e 0123 753e efb9 a2bd
00000330: 155a 34be 41cf 843b bb98 05be e00e 53bd
00000340: 37ce ac3b 1174 a83b bf05 56bd 8a74 cdbe
00000350: 48d6 6e3d 92cb 8dbd beb3 303e d569 98bd
00000360: b9f9 99be 0a23 0e3e cc61 a63d b291 32bd
00000370: 45c7 60be 070d 3e3d 9003 283e 52d6 cebe
00000380: 10b6 cd3e 89da 5d3d d9ab 3a3e 56fb d43d
00000390: 7947 0bbd ae2c 15bd 71a0 31be 7eec 83be
000003a0: 9604 1d3d 9854 a4be b59e 1f3e ae84 acbe
000003b0: fed4 01bd 4250 1ebf 5ebb 02bf 1ec9 053e
000003c0: 7422 82be 063c 17be 1c75 9d3e 2611 08bf
000003d0: b586 7b3e ed2b 303e 1f72 423e 37e6 803e
000003e0: bda5 72be 85ba f23c f8ef edbd 675e 28be
000003f0: f7af a13d 5b54 2fbd e4d1 ca3d c70d 873d
-0.14804514 0.09695596 -0.0058938027 -0.2586391 0.049907546 0.116802275 -0.059219148 0.17917208
0.15630403 0.073660254 -0.105188556 -0.13328335 0.23422247 0.06073887 0.2772093 0.22645828
-0.12913471 -0.114340894 -0.12569925 -0.02295451 -0.19390161 0.021761797 0.32952946 0.2242066
0.12622738 -0.283186 -0.31366736 0.1973579 -0.05832133 0.20426503 -0.19520107 -0.20179425
-0.09801268 0.10760475 0.13324846 -0.052232575 -0.05228171 0.26274088 -0.22833551 -0.1967974
-0.0673194 -0.19015814 -0.17622513 0.33575946 -0.060200583 0.071211174 -0.038081918 0.017418751
0.16913153 -0.26504323 0.010141854 0.0873094 -0.0694606 -0.21963026 0.13287205 0.07097446
-0.16480547 0.0040383763 0.2179172 0.13862701 0.0054434687 -0.14704138 -0.092437014 -0.00010121289
-0.29052708 0.12553042 0.21333788 0.011889786 -1.0509591 0.085849784 -0.015215968 -0.44397694
-0.09984444 -0.070260964 -0.046688758 -0.19871846 -0.09638784 0.11931886 -0.09709704 0.12886578
0.025061544 0.06944114 0.08594889 -0.076770164 -0.041930817 0.050658375 -0.16192761 -0.38603783
0.020790946 0.13898955 0.17586789 0.3926156 -0.06940693 0.1476209 0.028473858 0.13282597
-0.2778876 -0.25270304 -0.0057397145 0.055837605 0.16736239 0.12908253 -0.113080755 -0.25241265
-0.35357535 0.12539782 -0.048770837 -0.4180955 0.16922149 0.07134271 -0.03866071 0.12596451
0.46105364 0.070293896 -0.31551316 -0.084387936 0.24547002 -0.13769963 -0.0035274616 0.03313748
0.06842321 -0.23999803 -0.1233489 0.014800306 -0.032805678 0.11736724 -0.16156816 0.091456205
-0.20206796 -0.011633118 -0.22159578 0.07010963 -0.04300126 0.21191756 0.010937785 0.019741567
0.12722342 0.09052872 0.05895804 -0.075838976 -0.18612683 -0.25866008 -0.16824172 -0.12656698
-0.025505288 -0.026315479 0.2521488 -0.20038216 -0.035236146 -0.09276102 -0.12945496 -0.22045115
-0.16267127 0.16213062 0.07264043 0.11534516 0.084493764 -0.1598389 0.042504936 0.069199316
0.089633465 0.0018063548 0.034414787 0.025012258 -0.08894038 -0.52842 0.064981386 0.24538869
-0.16214097 -0.42075247 0.03936929 -0.18064782 -0.25057623 0.08867903 -0.14972273 0.056266725
-0.0019321383 0.094142556 0.24741127 -0.32662073 0.22166026 -0.042045645 0.011442655 0.027761562
-0.27553672 0.059151363 -0.17293108 -0.11086663 0.16391951 -0.111245476 -0.006672028 -0.33243233
-0.22174673 0.17211969 -0.31719273 -0.057322364 0.008668317 -0.03788847 -0.19500564 -0.03328295
0.081051484 0.27638105 0.23939134 -0.0794562 -0.17612489 0.004053027 -0.13046543 -0.051527858
0.005273606 0.0051407893 -0.052251574 -0.40127975 0.058309823 -0.069235936 0.17256066 -0.07442061
-0.30073336 0.13880554 0.08124122 -0.043595977 -0.21951015 0.046399143 0.16407609 -0.40397888
0.40177965 0.05416349 0.18229617 0.10399501 -0.03400371 -0.036419563 -0.1734636 -0.25766367
0.03833445 -0.3209579 0.15587886 -0.33694977 -0.031697266 -0.61841214 -0.5106715 0.13065001
-0.2541691 -0.14768991 0.3075341 -0.53151166 0.24563105 0.17204256 0.18988846 0.2517564
-0.23696037 0.029629955 -0.11618036 -0.16442262 0.07894891 -0.042805057 0.09903315 0.06594425

policy_net.2.bias f4 [128]
00000000: c0c4 433d 3088 0dbd 4334 133e b80c 073d
00000010: 7b60 8f3c d335 a03d 4390 1bbd 83c5 43bd
00000020: 38cf 723d e9f8 d53d e142 17be 4f5d 1f3d
00000030: e548 2abd fc6b dabd b2ab 763d a68a 0a3d
00000040: fae8 323c b576 dbbd 39d1 e23d 61f8 d83d
00000050: 4828 32be 1140 903d ddaf 83bd 2e4a bcbd
00000060: a0d2 cc3c ad69 adbb 1638 f43c 7bfe 253d
00000070: 6955 3e3d cda8 1abd 2509 9abc ebbb e4bc
00000080: 9d3c 743c 07c7 f93b a935 d2bd 6813 07be
00000090: 0e40 7dbd 8fd1 153e d19e 273e 6026 933d
000000a0: 73e2 14be 6ca5 26be 36ab d13c de8a 703d
000000b0: 482f edbd 3db1 f2bc d854 b73c 4dac 2f3d
000000c0: db62 023e 6efc 34be e309 1dbe 3236 f43d
000000d0: 2f97 033c 9f23 dd3d d21d 073d 7e27 bcbc
000000e0: 6893 8d3c b703 cfbc 8835 b13c ce32 073d
000000f0: 3222 02bd 9bc3 bbbd fbde c13d a2e7 dabd
00000100: f750 dabd 2473 8abd 8ec9 d0bc 8a31 5abd
00000110: 994f 2b3d b16c 1d3d f230 f7bd 243e efbd
00000120: 7d56 d53d c350 07bc c2a6 e33d 849e d33d
00000130: 4dfb 20bd 7982 f0bc 786a 9d3d b61b af3c
00000140: b46b b13c 3de9 533d f298 463c b7ea f53c
00000150: 780d 943c 2103 e1bb c6a5 073d 2efa 253c
00000160: e411 e33d b797 b23d 741a 483c 7fac 66bd
00000170: e713 a2bd b0f9 3c3c cd02 cbba 39e9 18bc
00000180: 7b91 88bd e9bb d0bd 8142 c4bd 9ece 61be
00000190: 9006 a93d 4133 19bd 5ee4 763d 88ea 3a3d
000001a0: bbca b5bc 7a90 8abd bac2 4b3d bd93 0d3c
000001b0: e9eb 12be 9ddf 783d 2377 c0bd ebdf 3dbd
000001c0: c5e4 a0bc 0963 b83d cd9e 693d 4dd8 8cbc
000001d0: 99e7 39bd 67eb 173e 1181 21be 8918 6dbd
000001e0: e414 eabc 1018 2cbd 50ed a8bd b954 3f3e
000001f0: eec0 97bd fcd2 723d 81d0 0e3e 6a7a 9739
0.047795057 -0.034553707 0.14375405 0.032971114 0.01750206 0.07822766 -0.037979376 -0.047795784
0.05927965 0.104478665 -0.14771606 0.038907345 -0.041573424 -0.10665128 0.060222335 0.03382363
0.010919804 -0.10716001 0.11075062 0.105942495 -0.17398179 0.0704347 -0.06430028 -0.09193836
0.025002778 -0.0052921386 0.0298119 0.040525895 0.046468172 -0.037758637 -0.018803189 -0.027921638
0.014907029 0.007622603 -0.10264141 -0.13190997 -0.061828665 0.14630722 0.16369177 0.07185054
-0.14539509 -0.16274041 0.025594335 0.058726184 -0.11581284 -0.02962553 0.022379324 0.04288893
0.12733023 -0.1767442 -0.15335803 0.119243994 0.00803165 0.1079781 0.032987423 -0.02296805
0.017282203 -0.025270326 0.021631971 0.033007436 -0.031770892 -0.09168168 0.09466358 -0.10688712
-0.10659974 -0.067602426 -0.025486734 -0.0532699 0.041823957 0.038433734 -0.120698825 -0.11681774
0.10416887 -0.008259001 0.11115791 0.10332969 -0.03930216 -0.02935909 0.07686323 0.021375518
0.021657802 0.051736105 0.012121426 0.030019147 0.018072829 -0.006866828 0.03311708 0.010130448
0.11087397 0.087203436 0.012213338 -0.05631685 -0.07913952 0.0115341395 -0.0015488506 -0.009332948
-0.06668373 -0.10192091 -0.09582997 -0.22051474 0.08253205 -0.037402395 0.06027638 0.045633823
-0.022191396 -0.06765838 0.049746253 0.008641181 -0.14347805 0.06076013 -0.093977235 -0.046356123
-0.019640336 0.090032645 0.05703621 -0.017192984 -0.045386884 0.14835893 -0.15771891 -0.057884727
-0.028574415 -0.042015135 -0.08248389 0.18684663 -0.07409845 0.05928324 0.13946725 0.0002889217

policy_net.4.weight f4 [128, 128]
00000000: a3ee 86bc e198 123e 910d cb3d 1ae4 2c3c
00000010: a6fa b43c 089b df3d d002 bbbd 3a1b eb3d
00000020: 68bc d3be e712 5dbc c349 503e 94bf e7bc
00000030: 0e58 183e 8ab2 15be a9d3 9f3e eceb b0be
00000040: cf70 d3bd 2aa4 873e d025 ec3d 994d a9be
00000050: 65ab 813e 5cc6 18bb 72f6 a73e ba1e 8abd
00000060: e50d 07bd f64f bfbd cb1f 9cbe 236a 7f3e
00000070: a5c8 a0b9 b430 7fbd 4fba 8fbe c345 2bbe
00000080: 3d76 813e b8e3 a83d 34a8 693e 6491 debe
00000090: 98bd 743d 9969 07be 8326 e1bd f2d9 35bd
000000a0: 80b3 353e f46c 36bd c295 4b3e f8a2 a2bc
000000b0: cd5a 18be ce74 22bf 6a18 9bbe ec78 00be
000000c0: d38d 4c3e 35ae 7b3e 81da 793d e071 1c3e
000000d0: 5412 233e a574 7dbe 9b5d 5ebe b786 f03b
000000e0: 877b f3bb d289 a8be e39d 5bbc 33cd 103e
000000f0: 1ddf c43e 7ecc 813e 8771 f4be 16e4 19be
00000100: f6ff 07bd 2372 30be ded1 77bd 9f34 d43d
00000110: d62b f4bd 0d67 7cbe e771 ccbd 18ac 11be
00000120: 2e6d f1bd eff9 4fbd 9ea3 edbd d434 bebd
00000130: 318c 1abe ff9c 3cbb 9abc 253e abfc be3c
00000140: 2e0c 473c 59ac 0f3e cbd1 8abc abf7 273d
00000150: 0e42 c4bd 4eb4 873e aca9 7bbd 5fa8 3e3e
00000160: 0167 b73d d671 563c 4ca2 773c 008f 19be
00000170: 6403 08bd babd e33c de9f 71be 8729 753e
00000180: e9ae d9bd 7a31 933e 3a64 85be 1e8a c1bd
00000190: 0246 ed3d efa5 e73c 4616 cabd 25ad 9a3e
000001a0: bc46 14bd df5b dc3d 5947 8c3e 43cd ea3c
000001b0: 6674 8d3d f5a7 6bbe 4856 d53c 00ff a8bd
000001c0: 534d 35be f6b5 1d3e c92a 2fbe 038e 85bd
000001d0: d791 c7bc ad8e b3be e6c5 db3d 684b 90bd
000001e0: 1384 223e 6ac3 afbc a586 81be a7ed a9be
000001f0: 18bd 053d adb7 ae3e 112f f23c 2d9c e8bc
00000200: 2e0e bb3d 32a5 97bc 4e19 36be 26e6 93be
00000210: e4c3 163d e57d febd 7f78 193d 9c0e 04bd
00000220: 6fc9 bbbe e315 fbbc a676 993b 9712 0f3e
00000230: 87da 74be 7967 f63c c9fc f23d 76b6 263e
00000240: d1fc c7be 322c 2e3d 4073 e5bd 65b5 fe3d
00000250: d535 6dbc 2680 5dbe 9a13 11be 8fb4 3abe
00000260: 85f1 23be 91bf dabc 8bbc e73c 5ccf 38be
00000270: e3fe b03d 8bac 30bd 1889 00be 34e3 84bc
00000280: b294 d93d 0628 2dbd cd51 35be a146 d2be
00000290: c862 3abe ffbf 8ebd c88b 80bc 3f00 a53e
000002a0: 5efb ed3d 5dea 9bbe 601d 95be cb4b 18bd
000002b0: 9f8c 08be 4f8e 59bd d20a 87bd c542 6fbe
000002c0: d2ca 0abe 23a1 0c3e 47d5 653e 30d1 afbe
000002d0: aca7 ccbd 72a8 2a3d 47b0 45be a65c 753e
000002e0: feec e73d 38b5 1ebc 163e 593c 9cdb 24bc
000002f0: 2e24 6ebe 5369 1dbe 8f65 8cbd 0318 8bbe
00000300: 3f33 ccbe 4b16 8a3d cace ea3d 5b41 123d
00000310: 05cc 97be ec8d 37bd f287 20bf 26bd b03e
00000320: be0a 6fbe 1178 c3bd b4bf af3b 2e8b 463e
00000330: 671a 8d3d 4b45 9dbc b6c1 28bd 23cc 8b3e
00000340: 5c03 c03c e999 49be ee76 383e bf21 403e
00000350: 9162 b3be aedb 943d db80 02be d848 913e
00000360: da82 b3be f5fc 81be 26ea c5bd 4954 2e3e
00000370: d11e 433e ba08 b3bd 94be 5e3d 9e44 eabe
00000380: 6794 54bd a9d4 5fbe 5209 c63e 2764 99bd
00000390: 2bfd 51be 8ec0 abbb 82cb eb3d 2be8 113e
000003a0: 5223 c03c 8849 f53d b6a4 d83b cdc2 4abe
000003b0: 620c ba3d 59ce 3a3e 1b3b a1be ab96 86bd
000003c0: 57fa 643d 7c58 47be 2fa7 6d3e 2c77 a93e
000003d0: acd1 dbbd c147 e43c 1a18 653c 9c85 34be
000003e0: ecc5 80bd 43c4 033e 994c 953c 4c19 1abe
000003f0: 0ed3 36be a566 14be 19af 453d 6e7e 5c3e
-0.016471213 0.14316131 0.09914697 0.0105524305 0.022092175 0.10918242 -0.09131396 0.114798024
-0.4135468 -0.013493276 0.20340638 -0.028289594 0.1487734 -0.14618888 0.3121617 -0.34554994
-0.10324251 0.26492435 0.1153065 -0.33067015 0.25326076 -0.002331159 0.3280521 -0.06744142
-0.032972235 -0.09341423 -0.30493006 0.24942832 -0.0003066707 -0.062302306 -0.2807183 -0.1672583
0.2528552 0.08246559 0.2281807 -0.434703 0.059751123 -0.13223876 -0.10993674 -0.044397302
0.17744255 -0.0445375 0.19881347 -0.0198531 -0.14878388 -0.6345948 -0.30292064 -0.12546128
0.19975977 0.24578173 0.060999397 0.15277815 0.1592496 -0.24751528 -0.21715395 0.007340278
-0.007430497 -0.3291765 -0.013404342 0.14140777 0.38451472 0.25351328 -0.47742864 -0.15028414
-0.033203088 -0.1723104 -0.06050288 0.10361599 -0.119224235 -0.24648686 -0.09982663 -0.14225805
-0.117884025 -0.050775465 -0.11603473 -0.0928742 -0.15092541 -0.00287801 0.16185227 0.02331384
0.0121489 0.14030589 -0.01694574 0.04100768 -0.095829114 0.2650475 -0.06144111 0.18618916
0.08955193 0.013088664 0.015114378 -0.14995956 -0.03320636 0.02780043 -0.2359614 0.23941623
-0.106290646 0.28748685 -0.2605303 -0.09450172 0.115856186 0.028277365 -0.098675296 0.30210224
-0.03620027 0.107597105 0.27398184 0.02866233 0.06906967 -0.2301329 0.026042119 -0.082517624
-0.17705278 0.15401444 -0.17106165 -0.06521227 -0.024361534 -0.3506979 0.107311055 -0.070456326
0.15870695 -0.021455485 -0.25298038 -0.33189127 0.032651037 0.34124509 0.029563459 -0.028394783
0.09133564 -0.018511388 -0.1778309 -0.28886527 0.03680791 -0.12426356 0.03746843 -0.032240495
-0.3667712 -0.030650085 0.0046833334 0.13971935 -0.23911487 0.030078636 0.11864621 0.16280541
-0.3906007 0.042522617 -0.11203623 0.12436942 -0.014478167 -0.21630916 -0.14167634 -0.1823294
-0.16010101 -0.026702674 0.028288146 -0.18047851 0.08642366 -0.0431333 -0.12552297 -0.01622162
0.106240645 -0.042274497 -0.17706986 -0.4106951 -0.18201745 -0.06970214 -0.015691653 0.3222675
0.1162021 -0.30452242 -0.29123974 -0.037181657 -0.13334893 -0.05311423 -0.06593861 -0.23365314
-0.13553932 0.13733344 0.2244464 -0.34339285 -0.09992918 0.04166455 -0.19305526 0.23961124
0.113244995 -0.009686761 0.013259431 -0.010062125 -0.23255989 -0.15372209 -0.06855308 -0.27166757
-0.39882848 0.06742533 0.11465223 0.03570686 -0.29647842 -0.04481308 -0.62707436 0.3451931
-0.23343942 -0.09544385 0.005363429 0.1938903 0.068898015 -0.01919808 -0.041200362 0.2730418
0.023439102 -0.19687618 0.18014118 0.18762873 -0.35036138 0.07268463 -0.12744467 0.28375888
-0.3506077 -0.25388303 -0.09663801 0.1702434 0.19054724 -0.08741899 0.05438097 -0.45755476
-0.05189934 -0.21858467 0.38678986 -0.07489806 -0.20506732 -0.00524146 0.115134254 0.14248721
0.023454342 0.119769156 0.006611432 -0.19800873 0.09084393 0.18242778 -0.31490406 -0.065717064
0.055902805 -0.19467348 0.23208307 0.33098733 -0.10733351 0.027866246 0.013982797 -0.17629093
-0.062877506 0.12867837 0.018225001 -0.15048712 -0.17853948 -0.14492281 0.04826269 0.21532604

policy_net.4.bias f4 [128]
00000000: 5fa5 2dbd 9a12 9dbd c13a 8f3b 4395 82bd
00000010: 9d88 5abd 3b3b 11bc 0610 db3c 3df8 3bbd
00000020: 747c aebd 8cc6 9ebd becd d83d fded 1b3d
00000030: 7b20 903d 3574 b8bd cee7 073d 1296 7c3d
00000040: b2fe 66bc b82b 443c 1b76 9bbd e684 3fbc
00000050: 0aee 19bd e2bc 513d 5c2f f3bd 465d cbbd
00000060: b392 19bd 7fc1 bd3d f11e 48bd 13ef dbbc
00000070: f6ed 003c ecbd f03b 2801 983d e2a5 30b8
00000080: 188f dd3d fc84 eb3d 4770 373d 5d51 7c3d
00000090: 8ccf 923d 92c1 bc3d 5a3e 1abe cae3 313d
000000a0: 70f2 1ebd b312 11bd 9225 a43d efb8 ad3d
000000b0: 2b6f 63bd dfb5 263d e1f7 0b3e 5692 143d
000000c0: f7a5 81bd 44ba 99bd 84cf 49bd f79f 203d
000000d0: b4ab 04be bbfa ca3c 2484 093d 9194 b8bd
000000e0: b1ab d9bc 1455 9b3d 1a06 123d c6be 283d
000000f0: c80a afbd 2eef 933d 0985 2bbe 9a0f b53c
00000100: 6636 5dbc dae7 873d 00b2 8bbd a0bd bd3d
00000110: 6c18 76bd 000d babd baf4 5cbd ed1c c3bd
00000120: 778c e33d 7fb7 04bd 5b8a bf3d 104d 3abc
00000130: a668 1dbe dd28 073e acb2 f53d bfd4 ef3c
00000140: d3d5 7abe 6708 12bd beba 193e 9ed9 12be
00000150: 6bec cdbc e60a 90bb 80c7 383c 76af da3d
00000160: 599f 10be 8c38 0a3d 3ad7 913c 85fc 0ebe
00000170: 4e7e 8dbd cd8f 84bd ce8d 17be 453a 493d
00000180: 1c69 03be 17b4 be3d 76ac cbbd e902 a93d
00000190: 47d6 e43d e917 ca3d 8b3b e93d ce94 0abc
000001a0: 0ca3 34be b173 953d db8c 4d3b 8481 2bbe
000001b0: 6265 3b3c 02a1 3d3d a844 c6bd e955 a23c
000001c0: f4e8 04bc 2526 9a3d 1ae6 563d de4c a33d
000001d0: 41c0 b5b9 3219 9f3d fd26 85bd beea c63d
000001e0: 4de5 dbbd 9dca be3d a0d0 dabc 7fde 753d
000001f0: f4cf 9dbd 8107 a0bc a066 84bb 483a 5f3d
-0.04239404 -0.076695636 0.0043710177 -0.06376126 -0.05335294 -0.008864219 0.026741039 -0.045891035
-0.08519831 -0.077527136 0.10586117 0.03806876 0.07037445 -0.0900654 0.03318005 0.061666556
-0.01409881 0.011973314 -0.07590886 -0.0116894 -0.037580527 0.051205523 -0.118742675 -0.099299
-0.03749342 0.09265422 -0.048857633 -0.026847398 0.007869234 0.007346859 0.074220955 -4.211616e-05
0.108183086 0.11499974 0.04478481 0.06160103 0.07168493 0.09216608 -0.15062848 0.043430127
-0.038805425 -0.035418224 0.080149785 0.08482539 -0.05552594 0.04070079 0.13668777 0.03627237
-0.063304834 -0.075062305 -0.049270168 0.039215054 -0.12956125 0.02477776 0.033573285 -0.09012712
-0.026571127 0.07584587 0.03565035 0.04119756 -0.08546978 0.07223354 -0.16749968 0.022102166
-0.013501739 0.06636019 -0.0682106 0.09264684 -0.060081884 -0.09084511 -0.053944327 -0.095270015
0.11110776 -0.032401558 0.09352561 -0.011370912 -0.15371951 0.13199182 0.119969696 0.02927625
-0.2449563 -0.035652544 0.15012643 -0.14340827 -0.025137147 -0.0043958304 0.011278033 0.10677998
-0.14123286 0.033745334 0.017802823 -0.13963516 -0.06908856 -0.0647274 -0.14800188 0.049127836
-0.12833065 0.09311693 -0.09945004 0.08252508 0.11173683 0.09867842 0.1138831 -0.008458329
-0.17640322 0.07297457 0.0031364474 -0.16748625 0.011437746 0.046296127 -0.09681064 0.019816356
-0.008112181 0.07526807 0.052465536 0.07973646 -0.0003466625 0.077684775 -0.06501577 0.09712742
-0.10737095 0.09315989 -0.026710808 0.060026642 -0.077056795 -0.019534828 -0.004040554 0.05449894

policy_net.6.weight f4 [64, 128]
00000000: 06cb 7fbe ec27 513e c93e 5e3e 87e9 5bbe
00000010: 5d98 37be cf85 cabd ca63 42be 07e9 273e
00000020: 74c3 753e c4eb 2ebd 290b 4abe 1028 94bd
00000030: 6ddf 5cbe 2283 87be 1aba 31be e63d 993c
00000040: db29 213e 0fa8 933d 6348 e4be b96b a73d
00000050: 9e2b 903d 2bf3 66ba 8a22 823d b3fe 013e
00000060: d1c2 49be 70c5 c43d 24f8 22be ff5e 973e
00000070: 148f 5f3e 7abf e83c af67 91be abab e9bd
00000080: 217f 823d 84f7 cd3c 73c3 d3be 8508 f5bc
00000090: e430 033e af2e fcbe 0ebd a73d 1561 843e
000000a0: a450 e83d b68f 913c 2d72 003e 5c65 a3bd
000000b0: a7c0 97be 81bc c73d 855a 14be 5bf3 2b3d
000000c0: 15bc 8a3d dd3a 16be f241 aebe 0e3c 2d3d
000000d0: c091 b53d 298d 283e 06cb b0bc 97c3 27bc
000000e0: ed67 d8bd 223e 713d 2b7d 3c3e 0bd3 9fbd
000000f0: fbec dd3d ff45 043d 3cc8 c5be dcc6 8bbe
00000100: b755 0ebe a2af 47be 0b4e 4abc b4fb bf3d
00000110: 5a88 4dbe ce4f 91be 7fa5 fc3d b6b3 8cbe
00000120: f5fc 523d 5a6f 75be f8f8 c9be 7f4f e43d
00000130: 3aea f6bd bf36 a0be cbeb e9be de8e 7fbe
00000140: 9f6c 2d3e e353 473b 7afa af3c cbf4 bcbe
00000150: 22b4 90be 4eeb 39be 8455 613e b0f0 ddbd
00000160: aea8 a93d fb89 0a3d 2af8 ce3d 9ae4 0cbd
00000170: d9c7 fe3d a51d a2bc 2ecf 0a3e 9e07 39be
00000180: ed41 bfbc 36b5 373e c4c0 31be cb0b 503c
00000190: 0c14 05bf 67d7 6a3e 9af3 94bd 08a2 d2bd
000001a0: e96f 43be 5c69 203c 375f dfbd d909 80bd
000001b0: 2433 c83d ecb7 b73c b7c7 d43d ef34 5ebe
000001c0: 4f13 bdbc 64cd 0d3d c251 d1bd b09f 97be
000001d0: 96f6 9a3e 25b8 02bf 3b4b bfbe ed6c 27be
000001e0: 6be3 ab3d cd3a bd3d 2d70 e53d 2815 603d
000001f0: a2ab f43d 76ea 45bd 4d46 6abd e261 82bd
00000200: 8eb9 5e3d 7573 cd3d 4334 083d 7fda 5dbd
00000210: 5c60 0cbf 5aea 173e 4c8a 92bd 4d74 b83c
00000220: 189b f7bd 6220 273e 030e 9f3d 3884 5d3d
00000230: 603e 013e 6376 dabd c691 b13d b613 d43d
00000240: 6b26 52be 2767 b4bd d2c0 56bd 183a 27be
00000250: b658 f5bd 0e91 d93d 0aef 523e b208 29be
00000260: 757d 70bf 7fdd 9d3b 8efe c0be dbe5 92be
00000270: ce6d cdbd 51cf 063e 003d c3bb 08c7 cfbe
00000280: 904e 4b3d 3d31 54bc c49d 603d 35bb afbb
00000290: 802d 92bc 8037 463d 2f8c 6a3c 7589 4a3e
000002a0: 6d9e 2dbd a268 ca3c 4c84 863e 12b8 bdbe
000002b0: 7cbb 26be 4841 3abd a6bf 5fbc 32f9 bfbd
000002c0: ac92 59bd 5964 f23d c395 96bc 3e82 373e
000002d0: 9abe 96be 5b0e e4bc 62f7 0a3e 77dc b8bc
000002e0: ea7f d2be 2e82 733d b146 22be c7b7 bd3c
000002f0: f779 823d 5a12 0d3c c5ca 93ba 8ce2 92bd
00000300: a0a4 503d 8748 53bd 361a 183e 8d65 c13d
00000310: f904 1cbf 47fe c1bd a0a2 a93d a08f 793e
00000320: 860f 263e 2a4a 87be 87a0 8abd 7c93 17be
00000330: c965 933d f9cf 8b3d 9c41 e7be d834 ee3c
00000340: f7f8 22be 72a4 dcbc def1 093b b167 c7bc
00000350: e51d 90be 07d1 c03d dff4 8b3e a234 0abf
00000360: f11d 2fbd 4b95 23bc 5786 6d3c 8d92 68bd
00000370: 496a 53be d8eb 953c 4770 13bd 32c4 abbd
00000380: 23cd 093d 7611 2bbd c86e ce3b dcaa 9bbe
00000390: 2e2f b7bc 6a84 993e 12df 5fbe 97a8 393e
000003a0: a7bf 3bbe b517 27bd f897 f1bd e1ec 6fbd
000003b0: 5c46 c9be 3aab c53e bd1a 3f3e 3794 313e
000003c0: 9fe2 89bf b996 183e cdcf 083d 4fec adbe
000003d0: bb2a 9bbd 0f7f 91bc 3eb4 3ebe 25ac 9cbd
000003e0: 4f29 b53d b53c 84bd eaf7 0d3e eec8 bcbb
000003f0: 3dd5 febc ac78 113e 6925 d8be f467 d53d
-0.24979791 0.20425385 0.21703638 -0.21475802 -0.17929216 -0.09888803 -0.18983379 0.16397487
0.2400034 -0.042705312 -0.1973082 -0.07234204 -0.21569605 -0.26467234 -0.17356148 0.018706273
0.15738623 0.07209789 -0.44586477 0.08174843 0.07039569 -0.00088100386 0.06354244 0.12694816
-0.19703223 0.09607971 -0.1591497 0.29564664 0.21831924 0.028411616 -0.28399417 -0.11409696
0.06371904 0.025142439 -0.41360053 -0.029911289 0.12811619 -0.49254367 0.08190356 0.25855318
0.11343506 0.017768722 0.12543555 -0.07978317 -0.2963917 0.09752751 -0.14487655 0.04198013
0.06774155 -0.14670892 -0.34034687 0.0422936 0.0886569 0.16460098 -0.021581184 -0.010239503
-0.10566697 0.058897145 0.18407123 -0.07803925 0.10836216 0.032293316 -0.3862933 -0.27300155
-0.13899885 -0.19500592 -0.012347708 0.093741804 -0.20071545 -0.283812 0.123362534 -0.2748086
0.05151077 -0.23968259 -0.3944776 0.11147975 -0.12056394 -0.31291768 -0.45687708 -0.24956843
0.16935967 0.003041499 0.021481741 -0.36905512 -0.2826243 -0.18156168 0.22005278 -0.10836923
0.08284126 0.033822995 0.10105927 -0.0343977 0.12440462 -0.019789526 0.13555595 -0.18069312
-0.023346866 0.1794022 -0.1735869 0.012698124 -0.51983714 0.22933732 -0.07273026 -0.10284811
-0.19085659 0.009790745 -0.10906833 -0.06251878 0.09775379 0.022426568 0.10389655 -0.2169988
-0.023080496 0.034619704 -0.10220672 -0.2961402 0.30266255 -0.5106223 -0.37362084 -0.16350146
0.08392986 0.09239731 0.112030365 0.054707676 0.11946799 -0.048319302 -0.05719595 -0.06366326
0.054376177 0.10031787 0.033252966 -0.054163452 -0.5483453 0.14835492 -0.07155284 0.022516394
-0.12090129 0.16320947 0.077663444 0.05408117 0.1262145 -0.10667112 0.08670382 0.10355322
-0.20522468 -0.08808737 -0.05242998 -0.16330755 -0.11979811 0.1062337 0.20598999 -0.16507223
-0.9394143 0.004817664 -0.3769421 -0.2869099 -0.10030709 0.13165022 -0.0059581995 -0.40581536
0.04963547 -0.012951192 0.054837957 -0.005362893 -0.017843962 0.048392773 0.014315649 0.19778998
-0.042387415 0.024708096 0.2627281 -0.37054497 -0.16282457 -0.045472413 -0.013656532 -0.09373702
-0.053118393 0.11835546 -0.018381959 0.17920777 -0.29442292 -0.027838876 0.13570932 -0.022566063
-0.41113216 0.05945032 -0.15847279 0.02315892 0.06370919 0.008610332 -0.001127564 -0.07172117
0.05093825 -0.05158284 0.14853749 0.094431974 -0.6094509 -0.09472328 0.082829714 0.24371195
0.16216859 -0.2642377 -0.067688994 -0.14802355 0.07197148 0.06826777 -0.45167243 0.029077932
-0.15915285 -0.026933882 0.0021048705 -0.024341436 -0.28147808 0.09414869 0.2733526 -0.5398656
-0.042753164 -0.009984325 0.014497361 -0.056780387 -0.20646013 0.018300936 -0.035995748 -0.08387031
0.0336429 -0.0417647 0.0062998272 -0.30403793 -0.022361364 0.29983836 -0.21862438 0.18130718
-0.18334828 -0.040794093 -0.11796564 -0.058575515 -0.39311492 0.38607198 0.18662544 0.17341696
-1.0772284 0.14901246 0.0334013 -0.33969352 -0.075765096 -0.017760782 -0.18623444 -0.076500215
0.088457696 -0.064568914 0.13864103 -0.0057612574 -0.03110754 0.14206189 -0.42216042 0.10420218

policy_net.6.bias f4 [64]
00000000: 31d0 f93b ab58 fd3d 2cd3 40be 876d ebbb
00000010: 26c1 5fbe ca7d f53d b6ab 02bd df06 0f3c
00000020: d3c9 3e3b b908 103e bdf8 483e 9504 63bc
00000030: 3ded 4e3e 6c2a 0e3d c7b9 343e 5e9c 1d3e
00000040: b723 13bd 47f0 a73c 154a b73d 9a41 0c3d
00000050: b6ef df3c 61c1 203e 65d2 63bc da0e 92bc
00000060: 42d4 443d f3a8 183e 083d 453e f988 203d
00000070: baa3 433e efe2 9b3d dffc d13d eca8 293e
00000080: 7608 01be 8acb 293e af13 923d f776 ff3c
00000090: d5b4 dd3d e53f 953c ba92 c73d 14c0 3ebe
000000a0: 24f5 b63d 096b b1bd d7f1 013e 2dbd f5bd
000000b0: 0721 5a3e cc74 883e dd51 1d3b 6cbd a13d
000000c0: ecbe ca3d f1c6 9cbc be43 3abe c603 403e
000000d0: f64c 51bd 50d3 34ba 2878 9c3d 4c87 debc
000000e0: ac50 923e d45e 273e fb37 993d a607 e4bd
000000f0: e746 843d 2696 0c3e f0b3 a8bd 2574 ab3d
0.0076236953 0.12370428 -0.18830556 -0.0071846875 -0.21851024 0.11986883 -0.031902038 0.008729666
0.0029111996 0.14065827 0.19626136 -0.013856073 0.20207687 0.034708425 0.17648993 0.1539168
-0.035922732 0.020500315 0.08949677 0.03424225 0.027335983 0.15698768 -0.013905142 -0.017829347
0.048053987 0.14908199 0.19261563 0.039193127 0.19105425 0.076116435 0.102533095 0.16568345
-0.12600884 0.1658155 0.071326606 0.031184657 0.108255066 0.018218944 0.09744783 -0.1862796
0.089334756 -0.086629935 0.12689911 -0.11998973 0.21301661 0.2665161 0.0024005093 0.078974575
0.09899697 -0.019137831 -0.18189904 0.1875144 -0.051098786 -0.0006897943 0.076401055 -0.027164124
0.28577173 0.16344768 0.074813806 -0.11134271 0.06458836 0.13729152 -0.08237445 0.08371762

policy_net.8.weight f4 [4, 64]
00000000: d47d 01be 8963 3cbb a45a a5be bc88 2d3e
00000010: 3f6b 923e 039b 943e 1382 113b f6f8 1dbe
00000020: 2f90 79be 26c7 6f3c e749 b13d b670 553e
00000030: c3f3 1fbd a6ec ac3e e892 f73c 51c1 e83d
00000040: d6b0 c3b9 1bee d33c f2da 15be 0a10 583e
00000050: df58 223e a981 3f3e 8a5d 543d 94b3 af3d
00000060: 64b8 54be 0b85 03be 8203 813d 92b3 743e
00000070: 2cc9 89bd 94e8 debc ba82 86bd f165 603c
00000080: 5c09 cfbd 4ea5 0c3d 0bf6 25bd bb4c 04be
00000090: cd23 a93d 1dec fa3d 0c57 f7bc 6f71 ed3c
000000a0: 08cc 2c3e 9f6b 40be 89dc 053e a809 ca3c
000000b0: 6bc6 89bd c9d7 a1bd 0a21 243e 30f0 933d
000000c0: f27b a43d 8544 713d db8a b3bd 9e71 693d
000000d0: 9695 1b3e 1796 f23d 2a05 0bbe 4fc3 22be
000000e0: 7336 2cbe 1bea aa3d 5d51 c33d 7182 6c3d
000000f0: 5f01 443e 8efe 41bd 5d0e 92bd 2b22 2fbd
00000100: 9818 063e dedf 26bc d3c5 453e 73e7 d8bc
00000110: 3f37 8b3e 52d2 793e 6deb edbd 3732 2cbe
00000120: 45f3 873e 7bdf 113d e725 53bb ee9a 6fbd
00000130: 2ece 5c3d 04be ab3d cd5d 7b3d ffc1 9fbe
00000140: 9002 88bd 6943 2bbe ba75 46be be62 aebd
00000150: 9d12 2d3d 2d36 f33d 43ca a9bd 7d6d 023e
00000160: 99d0 00be e4bb 9ebd 81b6 aabc 3522 d33d
00000170: 2da4 89bd e320 02be 9d2e d7bd 692b 903c
00000180: 94fc d13d 619e 603e 8520 12be b91c 9b3b
00000190: 871d 65bd 79a7 333e 20b7 853d e8eb 833e
000001a0: d60e 0fbb 0be8 82be e474 113d b550 eb3d
000001b0: a368 2cbe 7456 18bd 19d2 adbd ea84 49bd
000001c0: 54a7 db3c eace b9bd c0a6 003d 2aeb eabd
000001d0: 11e9 3b3e 84e2 5b3e eef7 aebd 0bcd 2fbd
000001e0: e318 44be 339b c3bd 9d60 9ebd 0f9d 45be
000001f0: 35d0 413d ad51 71bc 59f1 2c3e 0b54 cf3c
00000200: b0c6 2cbc a45a 3bbc 1e40 2abe d072 33bd
00000210: 723e d8be b307 2abe cd69 51be 50f7 433e
00000220: b426 783e 89a5 8e3d 60eb 46be 920a ccbc
00000230: 3592 883e 741d 80bd ab12 89be 01f6 ec39
00000240: dc44 c9bd a26f e1bd d4e0 0e3b 4dda 9ebd
00000250: bcb6 5cbe 99a8 b5bc 1776 0cbe b116 b6bd
00000260: dd75 023e 04f6 463e 181e 643e 9f99 f23d
00000270: d452 123e 4d1d a63e 0b63 d5bc ede6 343e
00000280: e913 47be 8729 b2bd cdce d93c 1852 febd
00000290: c94a 823d 54e7 e8bd 4b27 c03d 1705 8cbe
000002a0: a984 02bf baac 4bbd c29f b13d 0753 683e
000002b0: 1fcf 703e 15ba 933e e5af bbbe 1bbb 213d
000002c0: 84ff 1d3e a964 88bd 0bfe 7bbd e31a 243d
000002d0: 64d1 803e c2a6 8bbd ccb2 3a3d 3e1a 4e3d
000002e0: 930a 923e 79d5 bf3d 994a 573c 929d eabb
000002f0: e037 e7be 1d2b cc3d c9f6 abbd cf02 a63e
00000300: bdcd 68be 7308 5dbe 049d 30bd ad5a 0bbe
00000310: 4c10 cf3d c3b0 02bc 5c95 42bd cb6d 36bb
00000320: 9302 f1bc 88db 283e ff3c 473d f892 aa3d
00000330: acd0 a43c fc5d 87bd 8e63 713e 6657 0ebb
00000340: d926 13be 4b34 1e3e a6d4 3abb 3f8a 743d
00000350: 1723 aabd fc96 ae3c a12f 30be 923c 34bd
00000360: 179e 86bd dfe3 e8bd 25d0 acbd 8ca7 b13b
00000370: 76c4 e7bc 1050 e2bd 4a95 fe3c 5fe5 48bd
00000380: f4e6 573e 9752 e43c f6c8 f93d c645 e5bc
00000390: f255 0abd d070 ebbd a4af 15be d0a1 df3d
000003a0: e11b ec3d 902f 8f3d 580f 8dbc 2ec1 28be
000003b0: 00a7 b63c 9288 94bd b68a 37bd 65ba 55bd
000003c0: 5678 cf3c f5c4 36bb c064 e5bd 4611 1ebe
000003d0: e962 4c3d 1430 623e 1a2c e03d 1312 2a3e
000003e0: d21f eebd 05d6 5b3d 93a1 453d 14a7 acbe
000003f0: 04c4 0e3d 7e4c d5bd e5ed 71be 60b7 203e
-0.12645656 -0.002874585 -0.32295716 0.16946691 0.28597447 0.29024515 0.0022202774 -0.15427002
-0.24371408 0.014634883 0.08656674 0.20843777 -0.03905083 0.33774298 0.030221418 0.11364997
-0.0003732505 0.025870373 -0.14634302 0.21099868 0.15854214 0.18701805 0.05184702 0.08579174
-0.20773464 -0.1284372 0.06299497 0.23896626 -0.067278236 -0.027210511 -0.06567903 0.01369618
-0.10109207 0.034337334 -0.040517848 -0.12919895 0.082587816 0.12252066 -0.030192874 0.028984753
0.16874707 -0.18791054 0.13072409 0.024662808 -0.06727298 -0.07902486 0.16028228 0.072235465
0.08031453 0.058903236 -0.08766719 0.05699312 0.15193781 0.118450336 -0.13576189 -0.15894817
-0.16817646 0.08345433 0.09537003 0.057741586 0.19141148 -0.047361903 -0.07131646 -0.042757194
0.1309532 -0.01018521 0.19313745 -0.026477551 0.27190587 0.24396637 -0.116171695 -0.1681603
0.26552787 0.03561352 -0.0032218636 -0.05849736 0.053907566 0.08385852 0.061368752 -0.31202695
-0.06641114 -0.16724934 -0.19380847 -0.08514927 0.04225408 0.118755676 -0.082905315 0.12737079
-0.12579574 -0.07750681 -0.020838978 0.10309259 -0.06720767 -0.12707858 -0.10506938 0.017598825
0.102532536 0.21935417 -0.14270218 0.0047336486 -0.055936363 0.17544354 0.06529069 0.2576592
-0.0021828911 -0.2556766 0.035511866 0.11490003 -0.1683679 -0.037191823 -0.084873386 -0.049199022
0.026813187 -0.09072669 0.031409025 -0.11470635 0.18350627 0.21473128 -0.085433826 -0.042920154
-0.19150119 -0.09551086 -0.07733271 -0.19298194 0.047317702 -0.014728946 0.16888942 0.02530863
-0.010545418 -0.011435185 -0.16626021 -0.043810666 -0.42235142 -0.166045 -0.20450516 0.19137311
0.24233514 0.06965167 -0.19425726 -0.024907384 0.26674047 -0.06255618 -0.26772055 0.00045196715
-0.09827587 -0.110076204 0.0021801488 -0.07756481 -0.21554083 -0.02217512 -0.13716923 -0.08891047
0.12740274 0.19429785 0.22277105 0.11845707 0.14289409 0.3244423 -0.026048204 0.17666216
-0.19441189 -0.08699327 0.026587868 -0.12418002 0.063619204 -0.11372247 0.093824945 -0.27347633
-0.50983673 -0.04972527 0.086730495 0.22687922 0.2351651 0.28852907 -0.36657634 0.03948508
0.15429503 -0.066598244 -0.06152157 0.040064704 0.25159752 -0.06818916 0.04558067 0.050317995
0.28523692 0.093668886 0.013140344 -0.007159897 -0.45159817 0.09969161 -0.0839668 0.32424018
-0.22734733 -0.21585254 -0.04311849 -0.13608809 0.1011053 -0.007976714 -0.04750572 -0.0027836438
-0.029420173 0.16489995 0.048642155 0.08328813 0.020119034 -0.06609723 0.23573133 -0.0021719574
-0.14370288 0.15449636 -0.0028508096 0.059702154 -0.08307474 0.02131223 -0.17205669 -0.044003077
-0.06573122 -0.11371588 -0.08438138 0.0054215845 -0.028291922 -0.11050427 0.031077046 -0.04904687
0.21084195 0.027871413 0.121965334 -0.027987372 -0.03377337 -0.11496127 -0.14617783 0.10919535
0.11528755 0.06991494 -0.01721923 -0.16479942 0.022296429 -0.07252611 -0.04481002 -0.052179713
0.025325935 -0.0027888392 -0.11200857 -0.15436277 0.049899016 0.22088653 0.10945912 0.16608457
-0.11627163 0.0536709 0.048249792 -0.3372122 0.034854904 -0.1041498 -0.23625906 0.15694952

policy_net.8.bias f4 [4]
00000000: 1cc6 1a3d e308 41bd 913a 883d c007 253e
0.037786588 -0.047127616 0.06651796 0.16116238

inverse_net.0.weight f4 [64, 48]
00000000: 26b7 9b3c e11a 073f b9a5 84be 2d0e 733e
00000010: 422f 0fbe 4a54 6f3d b912 08be 5e2a 643e
00000020: 53cc c53d aca1 743e 6487 31be bc96 edbd
00000030: 242b ebbd 0035 a6bb 53f6 1ebd f22e 183e
00000040: ccff bcbd 88cc 42bd 671e 933d 3e4b 843c
00000050: 0f00 01bd b4cc bfbd 8e52 a7bd e825 a1bd
00000060: a6f0 163e 5f09 62be 7721 b3be 1531 22bf
00000070: b144 9a3c d054 563d 72b4 c2be e433 b3be
00000080: 695b b0bc a9e1 573e 92fd 413e 402b 93bd
00000090: 38f2 af3d 223c 81be 8b61 04bd 32dd a83d
000000a0: 3bf9 a5bc d850 c13d b5dc 4e3d 714d e73d
000000b0: 4b21 b03d e26e fbbc 2784 06be 29ad 623d
000000c0: bfb5 473c 6892 4d3f c478 e83e 3fc0 203e
000000d0: 83a3 d23d f591 bfbb 932d 96bc c27e 70bc
000000e0: 8a3f b03b 0ccf c93d a6d2 973d 170b 84bd
000000f0: 9a17 9ebc c7fb 78bd 6bcd 92bd 9b65 213c
00000100: bed3 11bd 2955 d3bd 5c38 01bc fe3c a43d
00000110: 0f0c 01be fb75 cd3d 748a 00be 7920 513e
00000120: b52c a5bd 2630 babf 7290 97be b834 c33f
00000130: 2518 3c3d 568a 5abd d08e da3c 2853 29bd
00000140: 984e 1cbd f200 1b3e 4e51 0140 c863 4c3d
00000150: 3314 13bd 21c0 c73a 893c ab3d d932 a2bd
00000160: 4273 75bd 91b0 503c 3123 35bd e8d3 8bbd
00000170: 2f7e 6dbd c172 18be e8c5 0a3e 4997 59bd
00000180: 4758 903e 1011 5cbf 8fa8 843e 5531 a9bd
00000190: 8be6 36be e721 453e 0e6c 51be 843e 2dbd
000001a0: 3e13 c73c 219d 89bc bcee 53be 6b31 093e
000001b0: 3ae7 50be ff7a b53d 1696 d03d 4059 ffbc
000001c0: d785 5d3c 9b2b 59bc 14f6 88bd d9f9 4fbd
000001d0: d5aa d9bd 44da 10be f1cc c4bd c4ef 3cbd
000001e0: 6a2c 4b3e 8fca 0e3f a880 14be d881 b0bf
000001f0: 15de bfbe 8a2f 88be d697 adbe a0ac 31be
00000200: 75b5 99bd 0665 2abc ec6d 823d 4d1c 023e
00000210: 1ff9 c2bd 69a6 673c e428 1ebe 80b3 be3d
00000220: 3035 b23d 6f91 d1bd 1cf7 c0bd 0473 11be
00000230: 5ed9 0e3d 5c8a 38be 807d fdbd a8d7 913d
00000240: 172f de3c f8b3 8f3f 8a9b 963e 18fb debd
00000250: a6e6 093e 3f11 b7be 6963 40be 3f40 93bd
00000260: 7f36 0bbd eca2 6a3d 8dfa 63be dbbf a5bd
00000270: 70b1 b23d aaeb 143e 49c0 4dbd df0f 5ebd
00000280: d962 edbd 919c 2a3c 43c2 dc3d 4f88 053d
00000290: 6641 29bd 6b19 d83d ebca e73d 5b8e d6bc
000002a0: aa64 183d 7568 57bd 4984 813f a474 a5be
000002b0: bd60 1b3e 4882 053f d1b9 90bd 62fd 8dbe
000002c0: 65cc 04be 8d2d 83bb c947 063d c363 543d
000002d0: d0af e33d 7655 9d3c 5d17 dbbd a921 e6bd
000002e0: 0af4 9dbd 439b c4bd e401 22bd 5d79 3f3d
000002f0: a4a7 d1bd 23e2 053e 7801 2c3e 9f1d 7bbd
00000300: ef5a 7dbe 26f9 b7bd 06ed 65bf ce88 143f
00000310: f204 fd3d b233 2bbe 34eb 823e 9994 24be
00000320: 2cfa f63d 8b13 76bd d03a 89bd 0e58 823d
00000330: 2b96 8abd 4758 91bd 8ab3 3fbc 4466 833c
00000340: ec49 f8bd c552 503d 0181 00be fd9b 823d
00000350: 6a9c f73b c42d 2dbe 9e9d 00be cd3a da3d
00000360: 09bb 06bf c7dc d7bf 9d53 3a3d f28c 7cbf
00000370: 3882 253d 3f2d a03e e691 ad3e 54e9 983e
00000380: 033d 7fbd 9d50 2cbe 522f 8ebd fbd3 a2bc
00000390: 5387 06be 9ebb aa3c b6cc f4bc 0825 953c
000003a0: b50c c3bd 789e e9bd e5af 9e3d 0505 e4ba
000003b0: 8a1d a8bd b018 cabd 0776 32bd 4bf0 483d
000003c0: 15a3 9abb f34c 8e3d 5fda 29bf 4471 27bf
000003d0: e509 aebd ab7f 733e c73d ff3d 0319 253e
000003e0: 6053 72bc 8f66 7cbe d003 aebe 165d 83be
000003f0: fdb3 d43d 7949 b5bd d12e 8c3d ff51 853c
0.01900823 0.5277539 -0.25907686 0.23735876 -0.13982871 0.058429994 -0.13288392 0.22281787
0.096581124 0.23889798 -0.17336804 -0.11601016 -0.11482838 -0.005072236 -0.03880913 0.14861658
-0.09228477 -0.047558337 0.07183533 0.01614916 -0.031494197 -0.09365216 -0.08170043 -0.07868558
0.14740238 -0.22073887 -0.3498647 -0.63356143 0.018831583 0.052326977 -0.38028294 -0.35000527
-0.021527963 0.21082176 0.18944386 -0.07185984 0.085911214 -0.2524119 -0.032319587 0.08245315
-0.020260444 0.09439248 0.05050345 0.11294068 0.086001 -0.030692521 -0.1313635 0.05534092
0.012189328 0.80301523 0.45404637 0.15698336 0.10285094 -0.005846257 -0.018332278 -0.014678659
0.005378668 0.09853944 0.07413225 -0.06447428 -0.019298363 -0.06078699 -0.071680866 0.009850885
-0.035602324 -0.103189774 -0.007886972 0.08019446 -0.12602256 0.100322686 -0.12552816 0.20422544
-0.08065168 -1.4545944 -0.2960239 1.5250463 0.045921464 -0.053354584 0.026679426 -0.04133907
-0.03816089 0.1513708 2.0205874 0.049899846 -0.035907935 0.0015239754 0.083611555 -0.07919855
-0.05992437 0.012737409 -0.044223014 -0.06827527 -0.057981666 -0.14887525 0.13552058 -0.053122792
0.2819235 -0.85963535 0.2590985 -0.082613625 -0.17861383 0.19251214 -0.20451376 -0.042295948
0.024301168 -0.016798558 -0.20696539 0.13397758 -0.20400706 0.0886135 0.101848766 -0.031170487
0.013520679 -0.013255025 -0.06687561 -0.050775383 -0.10628287 -0.14145762 -0.09609402 -0.046127096
0.19841161 0.5577783 -0.14502203 -1.3789625 -0.37474123 -0.2659877 -0.33904904 -0.17351007
-0.07505313 -0.010400062 0.06368622 0.12706108 -0.09520172 0.014138796 -0.15445286 0.09311581
0.08701551 -0.102328174 -0.094221324 -0.14204031 0.034875266 -0.1802153 -0.12377453 0.07121211
0.027122064 1.1226797 0.29415542 -0.10887736 0.13466892 -0.35755345 -0.18787922 -0.07189988
-0.03398752 0.05728428 -0.22263546 -0.08093234 0.0872525 0.14543024 -0.050232206 -0.054214355
-0.11591119 0.010413305 0.1077924 0.032600697 -0.041322134 0.10551723 0.113180004 -0.026190927
0.037205376 -0.052589852 1.0118495 -0.32315552 0.15173621 0.5215192 -0.07066692 -0.27732378
-0.12968595 -0.004003233 0.032783303 0.051852953 0.11117518 0.01920579 -0.106978156 -0.11236889
-0.077125624 -0.09599926 -0.039552584 0.0467466 -0.10237053 0.13074546 0.16797435 -0.061307546
-0.2474172 -0.08983068 -0.89814794 0.5802125 0.12354459 -0.16718939 0.2557007 -0.1607231
0.12059435 -0.06007723 -0.06700671 0.06364451 -0.067669235 -0.07096916 -0.01170052 0.016039975
-0.121234745 0.050860185 -0.12549211 0.06377409 0.007556488 -0.1691199 -0.12560126 0.106557466
-0.52629143 -1.6864251 0.045489896 -0.98652565 0.04040739 0.3128452 0.33900374 0.29865515
-0.062314045 -0.16827627 -0.069426194 -0.01987647 -0.1313756 0.020841416 -0.02988277 0.018206134
-0.09523908 -0.11407179 0.07748393 -0.0017396515 -0.08208759 -0.0986799 -0.04356959 0.049057286
-0.004719148 0.06948271 -0.6634883 -0.65407205 -0.08497981 0.2377917 0.12462955 0.16122822
-0.014790386 -0.24648498 -0.33987284 -0.25656956 0.103858925 -0.088519044 0.06844867 0.01627445

inverse_net.0.bias f4 [64]
00000000: 2a66 46bd 130a 2d3e 33de 1c3e edd7 43bd
00000010: b7ae c23d 5d94 a7bd e9b7 bbbb 84b6 d3bd
00000020: 651d 0cbe d0bd d83d 2de2 f3bd 8990 843d
00000030: a0ac 8cbd 7331 01be 3997 213d db0d 2cbe
00000040: f752 09be f445 563e 45b4 023c 9153 7abd
00000050: 443e 5e3d da3d ff3d e8b2 b7bd ff7a efbb
00000060: b194 2cbc 4fe4 12bc 251e bdbd 64ff a0bd
00000070: 0b7a b93b aad9 abbd 8d69 41be e281 17be
00000080: e35d 67bd 2370 8f3d e00f d6bd 8dc9 48be
00000090: 12cc 05be 3121 96bb c33a bcbd 77ed 8bbd
000000a0: c0b6 da3d d40e 08bd 65eb 8c3b c374 1d3e
000000b0: 6d75 de3d aecc 5dbc 6a63 cf3c b340 b0bd
000000c0: 7a43 20bb f0b1 46bc 9a9d 443d b6f4 f1bd
000000d0: 5fae 663c a9a6 45be 0fb9 0dbe b6ad b23d
000000e0: 08d0 463b 85fa 21bd ed1b ffbd 62d6 033e
000000f0: eed3 a13d 5e42 81bd c4dd e53d 527d db3c
-0.048437275 0.16898374 0.15319137 -0.047813345 0.095059805 -0.08182595 -0.005728711 -0.103375465
-0.13683088 0.10583079 -0.11908374 0.064728804 -0.06868863 -0.1261652 0.039450858 -0.1680216
-0.13410555 0.20925122 0.00797755 -0.06111485 0.0542586 0.12462969 -0.089696705 -0.0073083634
-0.010533498 -0.008965566 -0.09234265 -0.07861212 0.0056603006 -0.083911255 -0.1888792 -0.1479564
-0.05648602 0.0700381 -0.10452247 -0.19608136 -0.13066128 -0.0045815934 -0.091908954 -0.06832402
0.10679388 -0.033217266 0.004300522 0.15376572 0.10862241 -0.013537569 0.025315959 -0.086060904
-0.0024454282 -0.012127385 0.048001863 -0.11814253 0.014079659 -0.19301857 -0.13840126 0.08724539
0.0030336399 -0.039545555 -0.12456498 0.1287475 0.079017505 -0.06311487 0.11223939 0.026793156
