IL/Model/model_reacher_9.pt (torch, 292505 bytes, 20 tensors)

policy_net.0.weight f4 [64, 24]
-0.04932541 -1.1324154 0.056879256 -1.5721973 0.23541488 -0.12016683 0.5493718 0.057701036
0.112823896 -0.2946345 0.1889112 -0.37849557 0.09059331 0.11987404 0.048540603 -0.18524294
-0.16689758 -0.08922974 -0.14804134 -0.078454755 -0.30630806 -0.19136539 -0.21255642 -0.0047595943
-0.38670978 -1.1623793 0.34648806 -0.046438333 0.09439249 -0.14683689 0.15165922 -0.14576107
0.3017974 -0.26100042 0.20311247 0.4949757 0.31036922 0.011173431 -0.12167407 -0.2020179
0.08180679 0.09937502 -0.020719241 -0.18408887 0.041400995 -0.0071575753 0.05949906 -0.107020974
0.2783918 0.60331863 -0.3547425 0.18297522 0.35362086 0.1981609 0.13759187 0.08142394
-0.15653333 0.32845926 -0.19733195 0.1675879 -0.18788835 -0.049432456 0.14416271 0.22361419
-0.13231903 0.12233443 0.0062095956 -0.13339794 0.061680593 0.18758574 -0.0026937455 -0.12558195
-0.08896177 2.6445074 0.21002287 1.2171688 0.15831506 0.24780355 0.3715765 0.022014702
0.13629591 0.07216754 0.2087096 -0.046254966 0.084709704 -0.030534986 -0.19343632 -0.042926997
-0.26242432 -0.022664422 0.19711672 0.26287514 0.40149337 0.18189397 -0.0090766465 -0.3042262
-0.23455593 -0.6009764 0.36031848 -0.15327036 -0.1557603 0.13432975 -0.08897826 0.03899349
-0.057437714 -0.22629663 -0.2673829 0.26544362 -0.33901533 -0.08000312 -0.13445379 0.16863604
0.14301936 0.01604651 -0.14591482 0.14137213 0.1607994 -0.17722143 0.069914445 0.028066322
0.31022394 -1.2720532 0.31728563 -0.27064753 -0.25145972 -0.05781618 0.3729374 -0.13112602
0.31294683 -0.107384704 -0.04403474 0.24394833 -0.2522401 -0.10316999 -0.0055470425 0.13313887
-0.15119381 0.08580636 0.08546452 0.011525683 -0.3176418 -0.13129038 0.19850758 -0.06702518
-0.16468409 0.048673008 -0.30969015 -0.106114835 -0.1435851 0.01886619 0.17754167 -0.034916382
-0.03718767 0.19665788 -0.042701203 -0.40604565 -0.07326442 -0.008021696 0.44493482 0.3688398
0.2493658 0.35498995 0.21111976 0.2070887 0.12572673 -0.2599232 0.01552171 -0.17823708
-0.42855772 -0.3437457 0.2900287 0.6557418 -0.40054482 0.12824638 0.10961018 0.005878554
-0.118421376 0.22278164 0.028560821 0.08151206 -0.2288714 -0.32442474 0.2603488 0.25374284
0.36099684 -0.06730803 0.035559446 -0.006381319 -0.019265434 0.11735537 0.011987315 0.1328546
0.22309339 0.98629445 -0.13993178 0.10406078 0.094111264 0.21343847 -0.22943358 0.19969772
0.057234913 0.48542827 -0.33399257 -0.43992803 -0.1660549 -0.073591694 0.09667705 0.12201492
-0.23370413 0.12637036 -0.15569293 -0.22258174 0.024312273 -0.15466356 0.1692458 -0.08913162
-0.1712566 -0.63403314 0.15477946 0.6498908 0.03967906 -0.32476544 0.0026313968 -0.21870033
-0.04964309 -0.25322452 0.12907188 0.67134553 0.13236298 -0.06586482 0.1760333 -0.062392473
-0.04983399 -0.09740594 0.0013629996 0.28506276 0.21208866 0.01653971 -0.07132366 -0.11070877
-0.65817803 -1.9991186 -0.052364573 1.0276206 0.4567884 0.014756601 -0.4974908 -0.0025721535
0.060824234 0.18693043 -0.12992916 0.17428231 -0.112645045 -0.037752826 0.3243334 0.19538137
00000000: 7109 4abd fdf2 90bf 39fa 683d c33d c9bf
00000010: 9910 713e 071a f6bd a1a3 0c3f ec57 6c3d
00000020: 3710 e73d 55da 96be f071 413e 2cca c1be
00000030: fc88 b93d 8580 f53d 83d2 463d 53b0 3dbe
00000040: 33e7 2abe 15be b6bd 2698 17be e3ac a0bd
00000050: 69d4 9cbe 4af5 43be 64a8 59be 5ff6 9bbb
00000060: d3fe c5be d8c8 94bf e266 b13e 1f36 3ebd
00000070: da50 c13d 695c 16be 8e4c 1b3e 6442 15be
00000080: 3085 9a3e d9a1 85be b7fc 4f3e 746d fd3e
00000090: b7e8 9e3e c410 373c 4130 f9bd c8dd 4ebe
000000a0: 518a a73d 2185 cb3d 66bb a9bc cb81 3cbe
000000b0: 1794 293d 188a eabb 49b5 733d d02d dbbd
000000c0: 5f89 8e3e 1773 1a3f cfa0 b5be db5d 3b3e
000000d0: cb0d b53e b1ea 4a3e e2e4 0c3e 98c1 a63d
000000e0: 464a 20be d02b a83e 6311 4abe 2a9c 2b3e
000000f0: ce65 40be b079 4abd 649f 133e 1efb 643e
00000100: a47e 07be 798a fa3d dd79 cb3b 7899 08be
00000110: caa4 7c3d 7a16 403e 8d89 30bb 8e98 00be
00000120: 9731 b6bd 9c3f 2940 3c10 573e 30cc 9b3f
00000130: 581d 223e 37c0 7d3e 463f be3e 2d58 b43c
00000140: 2891 0b3e 93cc 933d f8b7 553e d975 3dbd
00000150: 487c ad3d 8224 fabc 2c14 46be 38d4 2fbd
00000160: 7b5c 86be bdaa b9bc f7d8 493e 9297 863e
00000170: 8a90 cd3e 6a42 3a3e 37b6 14bc 89c3 9bbe
00000180: 6e2f 70be 97d9 19bf aa7b b83e e8f2 1cbe
00000190: a17f 1fbe bd8d 093e 3c3a b6bd a3b7 1f3d
000001a0: cf43 6bbd 4eba 67be 69e6 88be 3ae8 873e
000001b0: 6b93 adbe add8 a3bd 41ae 09be edae 2c3e
000001c0: ab73 123e f873 833c b26a 15be dbc3 103e
000001d0: 99a8 243e 8979 35be 4e2f 8f3d 58eb e53c
000001e0: acd5 9e3e a4d2 a2bf 4373 a23e 5092 8abe
000001f0: 54bf 80be a9d0 6cbd a7f1 be3e e645 06be
00000200: 913a a03e 83ec dbbd c65d 34bd 97cd 793e
00000210: 9d25 81be ca4a d3bd f7c3 b5bb 8e55 083e
00000220: 8dd2 1abe 3fbb af3d 0608 af3d 38d6 3c3c
00000230: f2a1 a2be fc70 06be 9245 4b3e 7f44 89bd
00000240: f2a2 28be 595d 473d b58f 9ebe bc52 d9bd
00000250: f907 13be 458d 9a3c 7ccd 353e 7b04 0fbd
00000260: 1952 18bd af60 493e 75e7 2ebd 37e5 cfbe
00000270: a80b 96bd 6e6d 03bc 7fce e33e 92d8 bc3e
00000280: c059 7f3e 3ec1 b53e c72f 583e 0f0f 543e
00000290: 82be 003e a714 85be c54e 7e3c c883 36be
000002a0: eb6b dbbe 70ff afbe a47e 943e b2de 273f
000002b0: 3614 cdbe 0553 033e 4d7b e03d e3a0 c03b
000002c0: e886 f2bd df20 643e 62f8 e93c cbef a63d
000002d0: 445d 6abe 001b a6be 704c 853e 95ea 813e
000002e0: 94d4 b83e cbd8 89bd c8a6 113d 621a d1bb
000002f0: 8bd2 9dbc 0358 f03d 7166 443c 090b 083e
00000300: 9872 643e cb7d 7c3f 474a 0fbe d11d d53d
00000310: 68bd c03d 9d8f 5a3e a3f0 6abe 8f7d 4c3e
00000320: 286f 6a3d 0e8a f83e 1301 abbe 3f3e e1be
00000330: 4c0a 2abe 3eb7 96bd 9efe c53d f5e2 f93d
00000340: 2350 6fbe 3b67 013e f86d 1fbe 78ec 63be
00000350: 882a c73c 2060 1ebe c54e 2d3e a48a b6bd
00000360: e45d 2fbe ff4f 22bf 827e 1e3e 3e5f 263f
00000370: 8386 223d a847 a6be 8373 2c3b fbf2 5fbe
00000380: 8e56 4bbd a5a6 81be 6b2b 043e 4ddd 2b3f
00000390: 298a 073e 22e4 86bd 1342 343e 408f 7fbd
000003a0: ba1e 4cbd c47c c7bd ada6 b23a bff3 913e
000003b0: c52d 593e 497e 873c 2412 92bd 48bb e2bd
000003c0: 5b7e 28bf 1ee3 ffbf 3c7c 56bd 1289 833f
000003d0: 2be0 e93e acc5 713c 1db7 febe 9391 28bb
000003e0: d522 793d b16a 3f3e 260c 05be 1077 323e
000003f0: 72b2 e6bd b5a2 1abd 070f a63e 0e12 483e

policy_net.0.bias f4 [64]
0.17038186 -0.032702554 -0.1533782 -0.13214065 0.037740942 0.0942578 -0.032659948 0.15613535
0.043688744 0.16963503 0.028439745 -0.20720913 -0.025504991 -0.14202328 0.121237054 0.14913742
0.23574781 -0.08157313 -0.03612068 -0.08631732 -0.1130331 -0.13107276 -0.023254039 0.09797457
0.14118162 -0.12198738 0.059812367 -0.12144442 0.12739117 0.01365225 0.08293483 0.037278578
0.10462371 -0.12930156 0.11922045 0.15724225 0.1449617 -0.046804525 -0.020949984 0.118378185
-0.07475452 -0.041901153 0.006708805 -0.21064542 0.030734457 0.0831009 0.2800254 -0.25677806
0.19754964 -0.042836286 0.058925778 -0.22974348 0.10076011 -0.06973374 -0.054827243 -0.10803183
-0.14952034 -0.01265236 -0.14459619 0.032818753 -0.16943353 0.066253416 -0.10432244 0.14840421
00000000: 9578 2e3e 1df3 05bd 2d0f 1dbe e14f 07be
00000010: 3f96 1a3d 3c0a c13d 70c6 05bd f2e1 1f3e
00000020: f8f2 323d ceb4 2d3e 78fa e83c a12e 54be
00000030: d8ef d0bc 8d6e 11be 224b f83d 7bb7 183e
00000040: e067 713e d00f a7bd 47f3 13bd 23c7 b0bd
00000050: e67d e7bd f037 06be 417f bebc e4a6 c83d
00000060: ea91 103e 85d4 f9bd d0fd 743d dab7 f8bd
00000070: d572 023e b0ad 5f3c bcd9 a93d 6cb1 183d
00000080: f544 d63d a167 04be da29 f43d 1d04 213e
00000090: d770 143e 1ab6 3fbd 4d9f abbc 4370 f23d
000000a0: e618 99bd 8ba0 2bbd 89d5 db3b 6fb3 57be
000000b0: d4c6 fb3c ce30 aa3d 7d5f 8f3e 6a78 83be
000000c0: 744a 4a3e 1a75 2fbd 285c 713d e041 6bbe
000000d0: 515b ce3d 90d0 8ebd 8892 60bd cb3f ddbd
000000e0: dc1b 19be d84b 4fbc 0611 14be f56c 063d
000000f0: fc7f 2dbe dfaf 873d 01a7 d5bd 46f7 173e

policy_net.2.weight f4 [128, 64]
-0.2617419 -0.2544368 0.12938496 0.14189032 0.18059841 -0.25649506 -0.13519596 -0.23438677
0.23899518 0.09353243 -0.3572055 0.38682154 0.2035701 -0.054716747 -0.18975155 -0.17379718
0.112750016 -0.28281212 -0.2736442 -0.1594428 -0.10827164 -0.004969845 -0.49672538 -0.3320547
0.027785784 0.3057259 0.18133739 0.12591161 -0.08119251 -0.23853573 -0.2167031 0.032188166
-0.35514575 -0.1714977 -0.33176595 3.439938e-05 0.17288546 -0.056248732 0.055002473 0.009346708
-0.12303549 0.18277392 0.23025271 -0.29366645 -0.21429116 -0.11961881 -0.058978137 -0.32907552
0.12377039 0.007403285 0.003664449 -0.11305113 0.06740894 0.26750353 -0.109022 -0.013427979
0.10186898 0.03514991 0.036484074 0.11369937 0.011836332 -0.101402655 0.10066461 0.26134408
-0.25351217 0.16509236 -0.013209533 0.085600615 0.14978205 -0.323611 -0.34170765 -0.04863295
-0.5380974 0.29363817 0.047612492 -0.18212777 0.05342307 -0.06731259 0.096223794 -0.24059792
0.1651735 0.04567955 -0.051804237 -0.1216547 -0.17652132 -0.065357246 0.08928631 -0.0015264499
0.18293716 0.15994574 -0.16232966 -0.07007268 -0.5561253 -0.10103631 0.06278618 0.22251216
0.0037298556 -0.0714873 -0.08161264 -0.4022141 -0.19330083 0.043382347 -0.0006393953 -0.12102946
-0.27247068 0.14593121 0.11174406 -0.039601896 0.031001601 -0.2386652 0.010409417 0.057210892
-0.31070635 -0.12718862 -0.30144385 0.026110059 0.16938771 0.04404978 -0.13394392 -0.04070008
0.41899326 -0.22265118 0.36602408 -0.039990876 -0.019811803 0.20855603 -0.26910767 0.18454807
-0.11322088 0.18362679 -0.10643815 0.036500707 0.00083453394 -0.014745684 0.12894419 0.3381157
-0.0385902 -0.12073554 0.27602595 -0.003895482 -0.09124031 0.08777014 -0.14688234 -0.07745522
-0.064847484 -0.14808252 0.0039576846 -0.20060764 -0.021410428 -0.029553898 -0.08012147 0.050614372
-0.15412489 -0.07324656 0.08255821 -0.31902328 -0.09383026 -0.12103873 0.10851364 -0.20529723
0.21318851 0.20520394 0.31262097 -0.101464786 -0.50021505 0.041097492 -0.05059398 0.18530966
0.037278216 -0.29604965 -0.1459166 -0.26247656 -0.41023818 -0.062128793 -0.388554 0.16405556
-0.19981705 0.10989034 -0.24020766 -0.08469975 0.3070371 -0.031053456 -0.04746962 0.05919782
0.25836948 -0.027022945 -0.10896296 0.114698395 0.111428976 0.03414695 -0.40771377 -0.09691987
-0.14623946 -0.25047913 0.008894892 -0.032665517 -0.011330867 -0.2871578 0.04727097 -0.24181409
0.08149591 -0.31686753 0.1288835 0.25842425 0.1882951 -0.12071797 -0.043858867 0.119785145
-0.037713747 0.17706715 -0.18091543 -0.122737736 0.040659618 -0.6762174 0.0019822773 -0.14520775
-0.54865736 0.0974417 0.0027326306 0.2581252 0.20360516 -0.14591728 -0.38218153 -0.20008995
-0.17163348 -0.2141205 -0.29261672 0.040523533 0.20150869 -0.076434605 -0.14480934 -0.05284927
0.011667444 -0.39844057 0.13204284 -0.02084221 -0.34460694 0.0032111127 -0.005381821 0.117400065
-0.08984613 0.19486353 -0.09643859 0.10515686 0.10076405 0.08576741 0.12674606 0.049097124
-0.033182107 -0.06654614 -0.12231875 0.24163303 -0.10927016 -0.23154448 -0.49006593 0.17859304
00000000: 0903 86be 8a45 82be 7e7d 043e b24b 113e
00000010: caee 383e 5253 83be cf70 0abe 1603 70be
00000020: 27bb 743e ee8d bf3d a4e3 b6be 790d c63e
00000030: ae74 503e ab1e 60bd 3b4e 42be e3f7 31be
00000040: 7be9 e63d c0cc 90be 181b 8cbe f944 23be
00000050: 86bd ddbd 15da a2bb ca52 febe 1303 aabe
00000060: 039f e33c 1b88 9c3e 82b0 393e f9ee 003e
00000070: 4248 a6bd b642 74be 6be7 5dbe bdd7 033d
00000080: aad5 b5be 189d 2fbe 3add a9be 0e48 1038
00000090: e308 313e 1265 66bd 464a 613d ef22 193c
000000a0: 08fa fbbd 1629 3b3e 5ec7 6b3e 735b 96be
000000b0: 246f 5bbe b5fa f4bd 0f93 71bd 967c a8be
000000c0: 557b fd3d 4197 f23b 4127 703b 5a87 e7bd
000000d0: b30d 8a3d 39f6 883e ed46 dfbd 0701 5cbc
000000e0: afa0 d03d 5af9 0f3d 5370 153d 37db e83d
000000f0: 2ded 413c 32ac cfbd 3f29 ce3d e4ce 853e
00000100: 59cc 81be f90d 293e cc6c 58bc 604f af3d
00000110: 7760 193e 57b0 a5be 4ef4 aebe 5833 47bd
00000120: c0c0 09bf be57 963e 5105 433d b47f 3abe
00000130: 26d2 5a3d 2fdb 89bd fb10 c53d 4d5f 76be
00000140: 3e23 293e 7b1a 3b3d ae30 54bd 1926 f9bd
00000150: 01c2 34be 05da 85bd bedb b63d 2913 c8ba
00000160: e153 3b3e d1c8 233e bf39 26be 4482 8fbd
00000170: 3a5e 0ebf 20ec cebd 0a96 803d 3ada 633e
00000180: 9870 743b ef67 92bd 8724 a7bd 02ef cdbe
00000190: a7f0 45be b0b1 313d 189d 27ba 4bde f7bd
000001a0: 4781 8bbe fe6e 153e 12da e43d 9935 22bd
000001b0: 12f7 fd3c a664 74be 428c 2a3c f855 6a3d
000001c0: e714 9fbe bc3d 02be d956 9abe c3e4 d53c
000001d0: f973 2d3e 8b6d 343d 9828 09be 21b5 26bd
000001e0: 4986 d63e acfe 63be 8267 bb3e 79cd 23bd
000001f0: 5d4c a2bc b68f 553e 7bc8 89be 2bfa 3c3e
00000200: 59e0 e7bd a908 3c3e 3ffc d9bd c481 153d
00000210: a0c4 5a3a e297 71bc f209 043e 801d ad3e
00000220: c210 1ebd 3244 f7bd 4653 8d3e 584b 7fbb
00000230: 33dc babd d5c0 b33d 5368 16be d8a0 9ebd
00000240: c2ce 84bd f2a2 17be 77af 813b 176c 4dbe
00000250: ec64 afbc 041b f2bc ba16 a4bd 0451 4f3d
00000260: ead2 1dbe 4b02 96bd 4714 a93d 0557 a3be
00000270: 142a c0bd 27e3 f7bd 663c de3d 7039 52be
00000280: 174e 5a3e fb20 523e db0f a03e c5cc cfbd
00000290: 180e 00bf d855 283d a23b 4fbd d1c1 3d3e
000002a0: 0bb1 183d d293 97be 296b 15be 5463 86be
000002b0: bd0a d2be c37a 7ebd 8df0 c6be 2efe 273e
000002c0: d79c 4cbe 300e e13d fff8 75be 1077 adbd
000002d0: f733 9d3e d163 febc 816f 42bd 6a79 723d
000002e0: 0149 843e 395f ddbc f927 dfbd fee6 ea3d
000002f0: e034 e43d acdd 0b3d dcbf d0be ed7d c6bd
00000300: ccbf 15be cd3e 80be e2bb 113c 47cc 05bd
00000310: 1aa5 39bc 5906 93be 349f 413d 1d9e 77be
00000320: 54e7 a63d 763c a2be 09fa 033e 2f50 843e
00000330: 6ed0 403e fc3a f7bd 5ba5 33bd ea51 f53d
00000340: bb79 1abd 1751 353e e541 39be ec5d fbbd
00000350: b38a 263d 951c 2dbf 18e9 013b 57b1 14be
00000360: cf74 0cbf 848f c73d ef15 333b fc28 843e
00000370: df7d 503e 576b 15be 4cad c3be 61e4 4cbe
00000380: b0c0 2fbe 6842 5bbe dcd1 95be 01fc 253d
00000390: 4b58 4e3e bf89 9cbd e648 14be 7a78 58bd
000003a0: cf28 3f3c 6700 ccbe 3d36 073e 48bd aabc
000003b0: 5270 b0be 8871 523b fd59 b0bb 726f f03d
000003c0: 3f01 b8bd 4e8a 473e 9881 c5bd 7b5c d73d
000003d0: 625d ce3d d3a6 af3d b8c9 013e 111a 493d
000003e0: f6e9 07bd 5849 88bd 4182 fabd a66e 773e
000003f0: 09c9 dfbd ff19 6dbe ece9 fabe 18e1 363e

policy_net.2.bias f4 [128]
0.07397522 -0.060834996 0.12536776 -0.017037936 -0.1565402 -0.3233158 0.011473941 -0.15226087
0.023077887 0.029333867 -0.13732897 0.07672963 -0.10739444 0.14338285 -0.16057429 -0.14442378
0.052833166 0.043961123 0.13413994 -0.18834801 -0.08737121 -0.13341208 0.050505564 -0.116384074
0.09049625 -0.16884041 -0.028524078 -0.17308222 -0.06322109 -0.07828018 -0.11807015 -0.29800594
-0.2519442 -0.0067976 0.049981877 0.102368996 -0.011792812 -0.02773474 0.01187733 -0.02537719
0.0050833933 -0.2199152 -0.065296955 0.106322154 -0.15551254 -0.013461523 0.099566884 0.22389595
-0.14371344 -0.0714747 -0.12366041 0.048440382 -0.0551816 -0.06291762 0.17431967 0.12230113
-0.02516615 -0.009217299 -0.114390545 0.057802867 -0.12535752 0.04830399 0.033111367 -0.032754634
-0.08208466 -0.04166221 -0.0667511 0.08573204 0.013495633 0.17404094 0.047527786 -0.08780116
-0.06749603 0.06449458 -0.1590621 -0.080451556 0.107723795 -0.006254688 0.04655768 0.07172697
-0.082073525 0.11124951 -0.20950826 -0.098354384 0.041323442 -0.055972964 0.029482476 0.10351044
-0.2280375 -0.042907156 0.01566958 -0.11582146 -0.008530732 0.106683664 0.09519668 -0.08750803
-0.039829273 0.030217113 -0.03982351 0.08595322 -0.15327133 0.10578081 -0.17252441 -0.08766836
0.08892264 -0.07562342 0.02837447 -0.04134322 -0.017966235 0.07515894 0.020924011 -0.14663795
0.073359996 0.120896354 -0.073098324 0.18300599 -0.035659347 -0.1003705 -0.07595167 0.038648013
-0.17259564 -0.067931406 -0.07169927 -0.15313396 0.030124424 -0.08915775 0.085674115 -0.15194984
00000000: 5280 973d 1e2e 79bd 6860 003e 2493 8bbc
00000010: 134c 20be a689 a5be 32fd 3b3c 46ea 1bbe
00000020: d60d bd3c 944d f03c f79f 0cbe 6d24 9d3d
00000030: 9ef1 dbbd f4d2 123e 966d 24be d4e3 13be
00000040: 9767 583d 9410 343d fb5b 093e 4dde 40be
00000050: adef b2bd 2d9d 08be ecde 4e3d c65a eebd
00000060: 1956 b93d 80e4 2cbe 54ab e9bc 773c 31be
00000070: 0f7a 81bd 5c51 a0bd c3ce f1bd 3c94 98be
00000080: d5fe 80be 67be debb ccb9 4c3d d6a6 d13d
00000090: a336 41bc f733 e3bc 2299 423c d3e3 cfbc
000000a0: 9892 a63b 7331 61be 69ba 85bd 6ebf d93d
000000b0: ae3e 1fbe b88d 5cbc b9e9 cb3d fb44 653e
000000c0: 9e29 13be 5461 92bd ab41 fdbd 6c69 463d
000000d0: 1a06 62bd f4da 80bd db80 323e 0479 fa3d
000000e0: 3e29 cebc 2704 17bc 9745 eabd b3c2 6c3d
000000f0: b95d 00be 68da 453d c99f 073d b929 06bd
00000100: 011c a8bd fea5 2abd cdb4 88bd 4894 af3d
00000110: ca1c 5d3c ca37 323e 7fac 423d 18d1 b3bd
00000120: 5c3b 8abd bc15 843d 2de1 22be c9c3 a4bd
00000130: 4b9e dc3d 20f4 ccbb 44b3 3e3d 97e5 923d
00000140: 2a16 a8bd c8d6 e33d 5589 56be 066e c9bd
00000150: c542 293d e843 65bd 3c85 f13c 48fd d33d
00000160: aa82 69be 6abf 2fbd 7e5d 803c cd33 edbd
00000170: 7cc4 0bbc f77c da3d 7af6 c23d 6937 b3bd
00000180: 0524 23bd e189 f73c fa1d 23bd 3e08 b03d
00000190: 29f3 1cbe 9ca3 d83d 3daa 30be 788b b3bd
000001a0: 131d b63d 74e0 9abd 9471 e83c 8257 29bd
000001b0: ed2d 93bc eeec 993d d568 ab3c 4228 16be
000001c0: c43d 963d 8298 f73d 93b4 95bd ec65 3b3e
000001d0: 890f 12bd 0c8f cdbd 8d8c 9bbd 614d 1e3d
000001e0: e9bc 30be 9f1f 8bbd 11d7 92bd 26cf 1cbe
000001f0: 7fc7 f63c 5798 b6bd e975 af3d bd98 1bbe

policy_net.4.weight f4 [128, 128]
0.022599755 -0.28624204 0.041699756 0.18796416 0.10857553 -0.24905166 -0.030323094 -0.1724505
-0.22394356 0.117097065 0.035745684 -0.13114563 -0.21438202 -0.25951952 0.070066124 0.0210136
-0.07972346 0.20292497 -0.019883417 -0.21436618 0.19755873 0.061797418 0.008321808 -0.3730493
0.18581368 0.061243314 0.038484346 -0.034072325 -0.08586925 -0.042548098 0.073397405 -0.07536066
0.04849646 -0.018327711 0.049236793 -0.1413727 0.1458292 0.20303954 -0.08388313 -0.33125255
0.14669123 -0.29742175 -0.24794614 -0.12294792 0.057071928 -0.105622694 -0.010868853 0.51064247
-0.2942885 0.106199056 0.014925289 -0.12873816 0.08268493 0.00605073 -0.08976968 0.16523905
-0.08985099 -0.017079407 -0.14173727 -0.24937509 -0.46712422 -0.21928959 0.039150093 -0.10073315
-0.21291175 -0.020562554 0.01050513 -0.3287394 0.026423488 -0.0376288 -0.094257504 -0.020644782
-0.5062731 -0.1661003 -0.1569755 -0.05327794 0.064914644 0.11175746 -0.41884744 -0.005019999
-0.06008684 0.05920093 -0.48001173 -0.6778764 0.22771852 0.099470995 -0.2037068 0.1597295
-0.124683 -0.3167509 0.047549494 -0.15476388 0.1972498 0.23807994 0.10845738 -0.33113024
-0.15286806 0.021192933 -0.32064778 -0.06531628 -0.1260827 -0.062954485 -0.3192846 0.040121906
-0.42757478 0.19372416 -0.032394584 -0.20977885 0.0020047824 -0.38808817 0.31334478 -0.14956234
0.0858772 -0.110884726 0.15102316 -0.12173779 0.20439965 -0.0727003 0.16835268 -0.030994598
-0.11806315 -0.0059046675 -0.11788988 -0.2594947 -0.06382944 -0.18661286 -0.28637046 -0.25160828
-0.11880459 -0.11937773 -0.0043501738 -0.02220496 -0.06503398 -0.12114448 -0.15703027 0.027566036
0.1912404 -0.36512017 -0.20998937 0.18411326 -0.15875025 -0.21093889 0.06397448 -0.5706198
-0.40231153 -0.10445902 0.12874305 0.15326872 0.07196764 -0.070327416 -0.2912535 0.36485153
0.23949027 -0.10347187 -0.06744453 -0.07391316 0.24030703 -0.19477491 -0.05294681 0.24510205
0.1399458 -0.022143098 0.0034765115 0.20314416 -0.14968158 0.14785102 0.17584741 0.5277936
0.12804994 -0.030136263 0.079281874 -0.32666644 -0.16990139 -0.042045828 -0.03935144 0.2112253
0.32708523 -0.017319359 -0.10430146 0.06913052 0.08483995 -0.27851352 0.054506525 0.09175467
0.23368092 0.17462267 -0.4561266 -0.07508083 -0.21948329 0.007703094 -0.21019898 -0.3219274
0.049365915 -0.4146927 0.051094495 0.038398907 -0.109086305 0.11990501 -0.23486976 -0.20732832
0.28611356 0.11271577 -0.20206895 -0.15029892 -0.13762999 0.12178918 0.12997854 -0.19961885
0.24580038 0.21012852 -0.39359635 -0.47211 0.114363395 -0.45149514 0.12918216 0.15258732
0.07887707 0.085033715 -0.33925542 0.2034942 0.17636243 0.20885244 0.21611464 0.29317057
0.082200885 -0.06976859 0.35004944 0.34086695 -0.083057456 0.30902275 -0.04863802 -0.29352763
0.15965617 -0.075486824 0.32606104 0.2451721 -0.22485937 0.13246903 0.06447524 0.10052577
0.0330426 0.058504727 -0.004159707 0.16779524 0.36436698 0.19296862 0.13695447 -0.02869205
0.120509826 0.13104545 -0.16978267 -0.10150395 0.30442393 -0.15758896 -0.18121609 -0.30078366
00000000: 1f23 b93c 518e 92be 5dcd 2a3d ad79 403e
00000010: d95c de3d 6607 7fbe 2368 f8bc dd96 30be
00000020: 7651 65be 96d0 ef3d 116a 123d 0a4b 06be
00000030: f686 5bbe bedf 84be d47e 8f3d b724 ac3c
00000040: 0e46 a3bd 90cb 4f3e 8ce2 a2bc cf82 5bbe
00000050: d64c 4a3e 4a1f 7d3d 3158 083c 5100 bfbe
00000060: f145 3e3e 45da 7a3d c3a1 1d3d 6c8f 0bbd
00000070: 38dc afbd ea46 2ebd 6151 963d b156 9abd
00000080: 39a4 463d ff23 96bc 85ac 493d 01c4 10be
00000090: 4054 153e 99e9 4f3e ebca abbd ef99 a9be
000000a0: 3a36 163e aa47 98be 98e5 7dbe 1ecc fbbd
000000b0: 41c4 693d b650 d8bd 4613 32bc 77b9 023f
000000c0: fbac 96be e47e d93d 3389 743c f0d3 03be
000000d0: b756 a93d 3445 c63b 2ad9 b7bd 6d34 293e
000000e0: cc03 b8bd 1dea 8bbc 9323 11be 2f5c 7fbe
000000f0: e82a efbe 738d 60be d95b 203d 2f4d cebd
00000100: 8a05 5abe cd72 a8bc b51d 2c3c 8850 a8be
00000110: 1276 d83c a820 1abd 140a c1bd 3f1f a9bc
00000120: 1d9b 01bf 3216 2abe 2fbe 20be f839 5abd
00000130: f8f1 843d 18e1 e43d 2c73 d6be ce7e a4bb
00000140: 9e1d 76bd ad7c 723d 19c4 f5be 4f89 2dbf
00000150: 0b2f 693e 73b7 cb3d 8498 50be 2190 233e
00000160: cd59 ffbd 2d2d a2be 42c3 423d 6c7a 1ebe
00000170: dafb 493e 3acb 733e e71e de3d e789 a9be
00000180: 7289 1cbe cd9c ad3c f22b a4be 8bc4 85bd
00000190: d31b 01be 48ee 80bd 4579 a3be de56 243d
000001a0: 15eb dabe a05f 463e 2fb0 04bd 44d0 56be
000001b0: ab62 033b 7eb3 c6be ba6e a03e df26 19be
000001c0: 63e0 af3d 8817 e3bd d1a5 1a3e aa51 f9bd
000001d0: 244e 513e e5e3 94bd a564 2c3e 62e8 fdbc
000001e0: 18cb f1bd f17b c1bb 4070 f1bd 7ddc 84be
000001f0: 02b9 82bd 7117 3fbe 269f 92be cdd2 80be
00000200: d24f f3bd 507c f4bd e78b 8ebb 2de7 b5bc
00000210: 8930 85bd 991a f8bd 8bcc 20be 2bd2 e13c
00000220: 86d4 433e 08f1 babe 7407 57be 3088 3c3e
00000230: 6d8f 22be 5d00 58be 0d05 833d 2414 12bf
00000240: c7fb cdbe 9cee d5bd 38d5 033e 7af2 1c3e
00000250: c563 933d d207 90bd 2e1f 95be d2cd ba3e
00000260: f03c 753e 0fe9 d3bd 5c20 8abd c85f 97bd
00000270: 0c13 763e 1373 47be c1de 58bd 08fc 7a3e
00000280: f44d 0f3e 7165 b5bc 2fd6 633b 0605 503e
00000290: 2146 19be 4266 173e 5811 343e 7b1d 073f
000002a0: 861f 033e 53e0 f6bc 895e a23d d340 a7be
000002b0: a1fa 2dbe 3f38 2cbd fa2e 21bd 724b 583e
000002c0: b777 a73e 54e1 8dbc 019c d5bd 4d94 8d3d
000002d0: 91c0 ad3d 5399 8ebe 3c42 5f3d dfe9 bb3d
000002e0: 0d4a 6f3e 49d0 323e 6d89 e9be fac3 99bd
000002f0: 3ac0 60be 3c6a fc3b 673e 57be abd3 a4be
00000300: ea33 4a3d 9a52 d4be 7648 513d 2c48 1d3d
00000310: a468 dfbd c290 f53d b381 70be e04d 54be
00000320: 7a7d 923e 87d7 e63d 2aeb 4ebe f6e7 19be
00000330: e0ee 0cbe 9b6c f93d 1819 053e e268 4cbe
00000340: 18b3 7b3e ee2b 573e 7685 c9be 67b8 f1be
00000350: 5b37 ea3d 5f2a e7be 5448 043e da3f 1c3e
00000360: 4d8a a13d 2826 ae3d e3b2 adbe c960 503e
00000370: 5a98 343e 6add 553e 284d 5d3e 741a 963e
00000380: f058 a83d d6e2 8ebd ae39 b33e 1d86 ae3e
00000390: 071a aabd 3b38 9e3e a938 47bd 4149 96be
000003a0: e87c 233e d698 9abd 79f1 a63e 650e 7b3e
000003b0: 8941 66be f6a5 073e 980b 843d 74e0 cd3d
000003c0: ad57 073d a7a2 6f3d 274e 88bb 84d2 2b3e
000003d0: 4f8e ba3e 9199 453e cb3d 0c3e 970b ebbc
000003e0: dbcd f63d c730 063e 82db 2dbe 4ee1 cfbd
000003f0: 74dd 9b3e 005f 21be b690 39be 5100 9abe

policy_net.4.bias f4 [128]
0.058760162 -0.04505155 0.15907614 -0.0717521 0.011763282 0.041820806 -0.39685863 -0.047360256
-0.23788807 0.030757045 0.12554583 0.030120317 -0.045013953 -0.017622622 0.1298764 0.03602323
0.16359827 -0.23043084 0.27768955 -0.06339827 -0.07967939 0.058539554 -0.1338109 -0.4035354
-0.12737381 0.16185407 -0.21582906 0.028960355 -0.21002394 -0.19455159 0.13769084 -0.17572515
0.2473269 -0.026857616 -0.09166398 0.07328245 0.10233303 -0.010953194 -0.06869998 0.041555136
-0.33375487 -0.16439417 0.14157943 -0.07077929 -0.116713 0.029739428 -0.03102301 -0.022358164
-0.061204188 0.21885271 -0.17575736 -0.07506607 -0.14206253 -0.024316387 -0.11758233 0.025715273
0.16718395 -0.1779203 -0.02049216 0.099539116 0.0014963786 -0.29484627 0.14978494 0.07217457
0.15610807 -0.1489873 -0.2639552 0.09651286 -0.16089219 -0.12509441 -0.032746725 0.11230128
0.010229077 0.16085774 0.05113778 -0.040469605 0.0782379 -0.043775015 -0.10916969 -0.18657762
-0.0034337833 0.15537576 0.10734538 -0.20703617 -0.0532324 -0.011631824 0.11252447 0.1452803
0.17777576 -0.03276156 -0.025234135 -0.25080153 -0.040417187 -0.07992981 0.20593676 -0.16681975
-0.25863245 0.08174966 -0.04663091 0.1408842 0.056549 0.041358363 -0.07728864 0.12510583
0.07165019 0.31024745 0.060490295 0.054925635 0.16294019 0.07155237 0.024440495 -0.17525561
0.062512375 0.13602431 -0.01714263 0.07827615 -0.099153005 0.13244323 -0.11702384 0.11943672
0.019326508 -0.03904163 0.10292647 0.039124712 0.035061058 -0.120654 0.08351772 -0.14221705
00000000: 7fae 703d f987 38bd dbe4 223e c4f2 92bd
00000010: c8ba 403c 4b4c 2b3d 0e31 cbbe d4fc 41bd
00000020: ee98 73be 33f6 fb3c 168f 003e e2be f63c
00000030: 8d60 38bd 515d 90bc 52fe 043e 188d 133d
00000040: 4e86 273e 10f6 6bbe 532d 8e3e f4d6 81bd
00000050: f32e a3bd 2cc7 6f3d b905 09be 319c cebe
00000060: 486e 02be 13bd 253e 4b02 5dbe 443e ed3c
00000070: 8410 57be 8838 47be d4fe 0c3e 4bf1 33be
00000080: 4343 7d3e 8104 dcbc 53ba bbbd 1c15 963d
00000090: fb93 d13d 0775 33bc 93b2 8cbd b835 2a3d
000000a0: ebe1 aabe f256 28be 33fa 103e bbf4 90bd
000000b0: 3a07 efbd 1aa0 f33c f823 febc 7828 b7bc
000000c0: 3eb1 7abd ed1a 603e bdf9 33be 3dbc 99bd
000000d0: d778 11be 2933 c7bc 01cf f0bd d6a8 d23c
000000e0: 4532 2b3e bd30 36be 2ddf a7bc 2adb cb3d
000000f0: 2222 c43a 17f6 96be 3961 193e 43d0 933d
00000100: cbda 1f3e 2090 18be 2325 87be 89a8 c53d
00000110: ecc0 24be c018 00be 6e21 06bd 37fe e53d
00000120: dc97 273c e4b7 243e d975 513d 75c3 25bd
00000130: 313b a03d 6e4d 33bd 5c94 dfbd 340e 3fbe
00000140: 5309 61bb d31a 1f3e e5d7 db3d 4a01 54be
00000150: 380a 5abd 6893 3ebc 3b73 e63d 5cc4 143e
00000160: d90a 363e fc30 06bd d1b7 cebc 0f69 80be
00000170: 7e8c 25bd 3db2 a3bd 16e1 523e ccd2 2abe
00000180: 796b 84be 5e6c a73d 0e00 3fbd f343 103e
00000190: ed9f 673d 6367 293d 8249 9ebd be1b 003e
000001a0: 56bd 923d c1d8 9e3e acc4 773d b4f9 603d
000001b0: cbd9 263e 0d8a 923d 6f37 c83c 3576 33be
000001c0: 7d06 803d f549 0b3e b36e 8cbc 3f4f a03d
000001d0: bb10 cbbd 339f 073e 32aa efbd 3d9b f43d
000001e0: a052 9e3c 1eea 1fbd 1dcb d23d 3c41 203d
000001f0: 2f9c 0f3d 7219 f7bd 570b ab3d 59a1 11be

policy_net.6.weight f4 [64, 128]
-0.028385181 -0.05019677 0.031136977 -0.042615175 -0.08418824 0.0397683 -0.33494043 0.09013284
-0.26632494 0.05502306 0.054300107 0.04928326 0.12294158 -0.25333506 0.25620198 0.038466927
-0.94677216 0.05830351 0.11807459 -0.5539875 0.10815745 0.07878051 0.121585526 -0.22635026
-0.061271746 0.14185616 -0.010968328 -0.0049979095 -0.15276802 0.009765233 -0.21287014 0.038820397
-0.4952003 0.0043621087 -1.0695747 0.049152803 0.22750336 -0.23345281 0.054305196 0.21279447
-0.009972079 0.15502867 0.06074112 0.06317664 -0.057255812 -0.02121449 0.010281013 -0.26628116
-0.09673741 -0.13569793 0.06221474 -0.08917043 0.014174242 0.114308424 0.10189194 0.10010401
-0.383223 -0.0624395 0.07764122 0.0031581486 -0.54903287 -0.39522558 -0.18851131 0.057013124
-0.040789567 -0.057816315 0.011114718 0.12735 0.014559202 -0.084264725 -0.0957514 0.07080727
0.0800506 -0.098667905 -0.37086326 0.11351538 -0.0054030423 0.033262778 0.013106256 -0.0064331354
-0.46623868 -0.060352735 0.0012596517 0.13158092 -0.11146516 0.072574385 0.10613883 -0.1260366
0.03988945 -0.006726355 -0.019667527 -0.18253243 -0.07180401 -0.16902512 0.10625251 0.10817234
0.047207426 0.09036879 -0.4176416 0.06295903 0.07119494 -0.21565695 -0.2744449 0.009527861
-0.06183288 0.042247925 -0.08789948 -0.20150514 0.20204632 -0.43101138 0.09751193 0.004378642
0.08568924 0.15252987 -0.08616948 -0.57381153 -0.09849006 -0.045286354 0.029079344 -0.013618127
0.14952607 -0.114783116 -0.15533781 -0.67716956 -0.08688767 0.15576027 0.045097217 -0.19738859
-0.15801346 -0.10786367 0.2536207 0.4267769 -0.18712111 0.005711745 -0.263107 0.3694256
0.14612323 0.22523682 -0.119326554 -0.22194003 0.1242743 -0.46698228 0.13962092 -0.05185465
-0.24432865 0.046874695 -0.072068304 -0.17898078 0.026959985 0.0058270637 0.13968122 -0.2513993
-0.2787572 0.08550404 -0.07705103 -0.1688318 0.004015579 -0.2528956 -0.04185122 -0.21773334
-0.14038374 0.1627286 -0.6726528 -0.017477587 0.0039570895 0.025534563 0.03849007 0.11564021
-0.005996751 0.40516743 -0.28919443 -0.14846358 -0.017980456 -0.11570756 -0.057411894 -0.26020056
-0.070938 -0.15682937 0.33606747 -0.20106871 -0.045881793 -0.056651812 -0.029665006 -0.04331745
0.089246206 0.2177581 -0.18161401 0.050433394 -0.15393905 -0.05798501 0.14136885 0.24451399
-0.021003189 -0.26536736 0.12267584 -0.058717836 0.031483054 -0.16972135 -0.26081905 -0.13286698
-0.10099704 0.14744069 -0.12253955 0.15496391 -0.35757175 0.30967185 0.29151967 -0.00797629
-0.13577326 -0.26364374 0.030315474 0.12933497 0.36310944 -0.20457903 0.03907338 0.102786966
0.28154197 -0.12997766 0.06905056 -0.09841248 0.026322229 -0.19613 0.042331908 -0.116770014
-0.011973154 0.30734783 -0.20150207 -0.014112279 -0.14790508 -0.049568005 -0.12371368 0.14868273
-0.071616195 0.1410904 -0.14147423 -0.11631681 0.20039739 0.11298492 0.07144579 -0.08922254
-0.03442655 -0.046634525 0.1102281 -0.14742278 -0.37020797 0.27137002 -0.04646609 0.12168837
0.19555989 0.063011974 0.148021 0.03773123 -0.07007159 -0.31175157 0.061961543 -0.07509611
00000000: 0a88 e8bc 219b 4dbd f912 ff3c 408d 2ebd
00000010: e26a acbd 16e4 223d 507d abbe 9197 b83d
00000020: be5b 88be dc5f 613d ca69 5e3d 3edd 493d
00000030: ccc8 fb3d 22b5 81be e82c 833e 7f8f 1d3d
00000040: a95f 72bf a9cf 6e3d 17d1 f13d 20d2 0dbf
00000050: a781 dd3d ad57 a13d d501 f93d 5dc8 67be
00000060: 15f8 7abd be42 113e 81b4 33bc 81c5 a3bb
00000070: 386f 1cbe 5bfe 1f3c a1fa 59be 2302 1f3d
00000080: e58a fdbe 05f0 8e3b d3e7 88bf 7354 493d
00000090: a4f6 683e 410e 6fbe 206f 5e3d cbe6 593e
000000a0: ee61 23bc d6bf 1e3e aecb 783d c162 813d
000000b0: 1285 6abd 03ca adbc b271 283c 0156 88be
000000c0: 431e c6bd 66f4 0abe e2d4 7e3d fd9e b6bd
000000d0: 143b 683c 891a ea3d b9ac d03d 5503 cd3d
000000e0: ce35 c4be 90c0 7fbd 5c02 9f3d f1f8 4e3b
000000f0: 6b8d 0cbf 025b cabe 1c09 41be 9886 693d
00000100: f612 27bd cdd0 6cbd 821a 363c 0a68 023e
00000110: b889 6e3c fc92 acbd 4f19 c4bd 6703 913d
00000120: 92f1 a33d 6612 cabd cae1 bdbe c07a e83d
00000130: 010c b1bb 8d3e 083d 9fbb 563c 0dcd d2bb
00000140: d6b6 eebe 6e34 77bd e61a a53a 26bd 063e
00000150: d947 e4bd e1a1 943d 515f d93d bd0f 01be
00000160: 1f63 233d c168 dcbb cb1d a1bc c8e9 3abe
00000170: fb0d 93bd ec14 2dbe ea9a d93d 7689 dd3d
00000180: 935c 413d 4613 b93d 1fd5 d5be aaf0 803d
00000190: a7ce 913d 2dd5 5cbe 0b84 8cbe bf1a 1c3c
000001a0: 7944 7dbd 290c 2d3d a404 b4bd 5d57 4ebe
000001b0: 3be5 4e3e 86ad dcbe 56b4 c73d b67a 8f3b
000001c0: d77d af3d ca30 1c3e a079 b0bd 50e5 12bf
000001d0: 28b5 c9bd 2f7e 39bd ce37 ee3c 911e 5fbc
000001e0: 5d1d 193e 6913 ebbd e010 1fbe fc5a 2dbf
000001f0: 2af2 b1bd 9f7f 1f3e dcb7 383d 3c20 4abe
00000200: 48ce 21be a1e7 dcbd 93da 813e 8082 da3e
00000210: ad9c 3fbe 9729 bb3b f6b5 86be 5a25 bd3e
00000220: 54a1 153e 7ba4 663e 7b61 f4bd 3f44 63be
00000230: 8683 fe3d 4d18 efbe c9f8 0e3e 8b65 54bd
00000240: 4a31 7abe aeff 3f3d 8c98 93bd bd46 37be
00000250: 30db dc3c f4f0 be3b 9808 0f3e 69b7 80be
00000260: 44b9 8ebe be1c af3d eecc 9dbd 3ee2 2cbe
00000270: 1e95 833b 887b 81be 2f6c 2bbd 7df5 5ebe
00000280: c1c0 0fbe 53a2 263e f932 2cbf 282d 8fbc
00000290: 79aa 813b dc2d d13c c3a7 1d3d c6d4 ec3d
000002a0: 6580 c4bb 1b72 cf3e 4b11 94be d606 18be
000002b0: c04b 93bc 16f8 ecbd bc28 6bbd 0239 85be
000002c0: f147 91bd e197 20be 0911 ac3e f5e4 4dbe
000002d0: 8cee 3bbd bb0b 68bd 0704 f3bc a36d 31bd
000002e0: b7c6 b63d fbfb 5e3e 06f9 39be 3f93 4e3d
000002f0: 33a2 1dbe b181 6dbd ffc2 103e e061 7a3e
00000300: e10e acbc 3bde 87be 793d fb3d 1d82 70bd
00000310: 60f4 003d 6fcb 2dbe 138a 85be 480e 08be
00000320: 89d7 cebd b1fa 163e 04f6 fabd dcae 1e3e
00000330: a513 b7be 4f8d 9e3e 1142 953e fcae 02bc
00000340: 2508 0bbe 50fc 86be 2858 f83c 6370 043e
00000350: 7be9 b93e 2a7d 51be 690b 203d f981 d23d
00000360: 4526 903e dd18 05be 616a 8d3d 7b8c c9bd
00000370: b7a1 d73c 4dd6 48be 3964 2d3d 1e25 efbd
00000380: 0c2b 44bc b25c 9d3e 8f56 4ebe 3037 67bc
00000390: 6e74 17be d207 4bbd 995d fdbd 4940 183e
000003a0: 83ab 92bd 007a 103e 9fde 10be 8237 eebd
000003b0: f934 4d3e a364 e73d 2c52 923d 4fba b6bd
000003c0: db02 0dbd d803 3fbd 45bf e13d fff5 16be
000003d0: e68b bdbe 03f1 8a3e 3a53 3ebd c137 f93d
000003e0: da40 483e 6c0c 813d d192 173e 108c 1a3d
000003f0: b281 8fbd e79d 9fbe 63cb 7d3d fdcb 99bd

policy_net.6.bias f4 [64]
0.22141863 0.16512913 0.20411414 0.13392061 -0.3536974 0.32921758 0.11124596 0.13273793
0.104508884 -0.24005657 0.14851233 -0.19873786 -0.051866136 -0.043546867 0.29675567 -0.0069911326
0.22618708 0.09306992 -0.15093094 0.19843094 0.097149715 0.057891976 0.24777417 0.023181943
-0.23014174 0.3286548 0.3357416 0.026007071 -0.1888658 0.0074652876 0.07588264 0.16474271
-0.029989569 -0.17066495 0.26262775 0.19306007 -0.20177118 0.06284534 0.015141043 -0.2461836
0.19472088 -0.039541136 0.17945486 0.15895241 -0.0073403153 0.038100943 0.07788006 0.3142713
-0.10757323 -0.10493593 -0.26707843 -0.20032567 0.21286318 0.03973153 -0.27688545 0.3190137
0.27618882 0.10479718 0.22907619 -0.3268946 0.27892956 0.20075838 0.055500105 0.23288076
00000000: 91bb 623e 9c17 293e 4c03 513e 7c22 093e
00000010: d317 b5be 358f a83e ecd4 e33d 74ec 073e
00000020: c108 d63d 64d1 75be 9e13 183e f081 4bbe
00000030: 9671 54bd 335e 32bd 5cf0 973e df15 e5bb
00000040: 969d 673e 719b be3d a48d 1abe 7b31 4b3e
00000050: 6ef6 c63d 2320 6d3d 83b8 7d3e 0fe8 bd3c
00000060: 47aa 6bbe 7145 a83e 53e6 ab3e c80c d53c
00000070: 0966 41be 5f9f f43b 5c68 9b3d 50b2 283e
00000080: afac f5bc cbc2 2ebe 2577 863e 8ab1 453e
00000090: 1b9d 4ebe 0fb5 803d 2312 783c 8e17 7cbe
000000a0: e964 473e e3f5 21bd 04c3 373e 6cc4 223e
000000b0: 0787 f0bb bc0f 1c3d 957f 9f3d 2be8 a03e
000000c0: 5b4f dcbd a6e8 d6bd 81be 88be 2c22 4dbe
000000d0: cef8 593e 87bd 223d eec3 8dbe c455 a33e
000000e0: 9f68 8d3e e79f d63d f392 6a3e bb5e a7be
000000f0: dbcf 8e3e 9b93 4d3e 1454 633d 4b78 6e3e

policy_net.8.weight f4 [4, 64]
0.035297748 0.15345092 0.020875832 -0.021136386 -0.0012138372 -0.037149616 0.06615661 -0.00542652
-0.062129963 -0.51362044 -0.005468255 -0.26585698 0.060867168 -0.110820115 0.058675714 -0.29644173
-0.0020151483 0.10104421 -0.0484216 -0.05582812 -0.1918174 0.12179907 -0.14636804 -0.07282683
0.08364076 0.05455035 -0.18047988 -0.17835775 -0.009235581 0.0058213687 -0.023092564 0.04187191
-0.12874036 -0.14747487 -0.078033656 0.118379116 0.11218306 0.10006924 0.26641834 0.20526752
-0.013762699 -0.031831913 -0.017382171 0.05839481 0.046675786 -0.000673747 0.008538157 0.13678488
-0.21095227 -0.041730866 -0.08569835 -0.4170395 0.11355632 0.05724479 -0.2931296 -0.054694746
0.16687712 0.04474832 0.04205045 -0.13719775 0.13179496 0.04073503 0.1649656 0.07632916
-0.004873208 -0.0050109043 -0.19443774 -0.034742888 0.02883507 -0.14889511 0.0913032 0.017758258
-0.011672689 -0.09141389 -0.23165534 -0.15143947 -0.06005856 -0.18509853 -0.012824452 0.10131709
0.04464866 -0.071239784 -0.26471657 -0.03594431 -0.009275347 0.06341072 -0.2660007 0.13571517
-0.2180536 -0.07598128 0.0050205244 -0.110816024 -0.24391392 -0.07523934 -0.0031616795 0.19735688
0.00477902 -0.033481877 -0.20082654 0.07389476 -0.021522496 -0.10275741 0.062237207 0.18705507
0.17283964 -0.20281804 0.010121642 -0.009962058 -0.09610716 0.046111457 0.1773259 0.13273837
0.00058880524 0.13651243 -0.26826504 0.11714238 0.08305826 0.019348554 -0.10620792 0.008217845
0.061608687 -0.07475225 0.25433934 0.1026274 0.08231485 -0.18082255 0.009049272 0.026106715
0.1127434 0.057843503 -0.060776766 0.21608034 -0.09406157 0.21792556 -0.10600452 -0.04174042
-0.00713313 0.033541273 -0.06153455 -0.050263323 -0.15298855 0.048911218 -0.0035149883 -0.008235766
0.18170235 0.068229124 -0.1551959 0.03242509 -0.04701877 0.0047236956 0.012443168 0.08682114
-0.16003327 0.20820777 0.25395527 -0.13388892 -0.012064301 -0.1050757 -0.10041732 -0.008640411
0.038568933 -0.124943785 0.02509601 -0.009952504 0.18481883 -0.030468216 0.041763738 -0.049951352
-0.23265754 0.15730721 -0.26302922 -0.05373693 -0.03574055 -0.024413785 0.04807379 -0.24280323
0.031342212 -0.14886041 0.035079848 0.13611522 0.022023266 0.23705728 0.040121745 0.27628735
0.022358323 -0.22314386 -0.01863691 0.08915791 -0.088619746 0.08608134 -0.13774356 0.19821678
-0.1617282 -0.022856139 0.012258761 0.14723057 0.27428582 -0.13286936 -0.12214977 0.038281426
0.14796905 0.031551477 -0.00676926 -0.07426938 -0.04995134 0.011940268 0.2087311 -0.023590172
0.04653527 -0.0759347 0.353547 -0.12098525 -0.10624697 -0.012477527 -0.12009891 0.11725571
0.009921635 -0.15642843 -0.146519 0.039654214 0.075548805 -0.06566007 -0.124522544 -0.108788654
0.15196055 -0.04614774 -0.0104226 -0.03152821 -0.011490164 0.085790016 0.04418748 0.051857922
0.015285765 0.10201459 0.1640953 -0.15573569 -0.057110034 -0.15999575 0.03398776 0.21167268
-0.018957755 0.0067919595 -0.04049691 -0.065660246 0.06435139 0.3761676 0.07118433 0.08708125
0.13612507 0.0064996076 0.010212979 -0.10853908 0.08152015 0.08949549 -0.0825322 0.015099672
00000000: 5f94 103d 3d22 1d3e cb03 ab3c 3726 adbc
00000010: 9e19 9fba 322a 18bd 1e7d 873d f3d0 b1bb
00000020: fd7b 7ebd a17c 03bf 0c2f b3bb 681e 88be
00000030: da4f 793d a8f5 e2bd f255 703d 36c7 97be
00000040: 9410 04bb 44f0 ce3d ba55 46bd 07ac 64bd
00000050: c86b 44be ca71 f93d 81e1 15be 3c26 95bd
00000060: d94b ab3d 3070 5f3d b8cf 38be 6aa3 36be
00000070: d650 17bc 2ec1 be3b 9e2c bdbc e181 2b3d
00000080: 83d4 03be a703 17be 1cd0 9fbd c070 f23d
00000090: 3bc0 e53d 1af1 cc3d fc67 883e a631 523e
000000a0: f27c 61bc 2e62 02bd 0e65 8ebc 652f 6f3d
000000b0: 1c2f 3f3d 659e 30ba a0e3 0b3c 5611 0c3e
000000c0: df03 58be fced 2abd 9e82 afbd 3486 d5be
000000d0: 3790 e83d 8379 6a3d 1515 96be 9907 60bd
000000e0: d6e1 2a3e 044a 373d 183d 2c3d 917d 0cbe
000000f0: 42f5 063e c6d9 263d beec 283e 7652 9c3d
00000100: 6eaf 9fbb 8332 a4bb b01a 47be 8f4e 0ebd
00000110: 8637 ec3c f677 18be 2cfd ba3d c479 913c
00000120: ce3e 3fbc 3537 bbbd 0f37 6dbe f312 1bbe
00000130: f7ff 75bd 788a 3dbe a61d 52bc 567f cf3d
00000140: 83e1 363d 2ae6 91bd ee88 87be 573a 13bd
00000150: a0f7 17bc 7bdd 813d 3e31 88be ebf8 0a3e
00000160: 7149 5fbe 139c 9bbd 3683 a43b 83f3 e2bd
00000170: 92c4 79be 1517 9abd 2e34 4fbb ec17 4a3e
00000180: 5399 9c3b 4b24 09bd 79a5 4dbe 2356 973d
00000190: f24f b0bc 7a72 d2bd 71ec 7e3d 5d8b 3f3e
000001a0: e0fc 303e 88af 4fbe 3ed5 253c e637 23bc
000001b0: d5d3 c4bd 5edf 3c3d ec94 353e 91ec 073e
000001c0: 0d5a 1a3a eac9 0b3e 095a 89be 58e8 ef3d
000001d0: 731a aa3d dc80 9e3c 8a83 d9bd 24a4 063c
000001e0: 6459 7c3d b517 99bd c438 823e 502e d23d
000001f0: b094 a83d 8c29 39be 6643 143c c0dd d53c
00000200: 03e6 e63d 4fed 6c3d 0ff1 78bd 2a44 5d3e
00000210: 5aa3 c0bd e127 5f3e e618 d9bd 01f8 2abd
00000220: 08bd e9bb 9362 093d a70b 7cbd eae0 4dbd
00000230: 08a9 1cbe 2157 483d b85b 66bb 4eef 06bc
00000240: 2e10 3a3e b6bb 8b3d adeb 1ebe 2cd0 043d
00000250: c196 40bd 3bc9 9a3b 6ede 4b3c 48cf b13d
00000260: c3df 23be 6b34 553e 6d06 823e 2d1a 09be
00000270: 59a9 45bc ee31 d7bd 99a7 cdbd 8390 0dbc
00000280: 75fa 1d3d 87e2 ffbd 2696 cd3c d40f 23bc
00000290: 2641 3d3e 7b98 f9bc 7410 2b3d ca99 4cbd
000002a0: c73d 6ebe 2415 213e c4ab 86be 411b 5cbd
000002b0: af64 12bd 6bff c7bc 06e9 443d 69a1 78be
000002c0: b160 003d dd6e 18be e3af 0f3d ca61 0b3e
000002d0: 236a b43c 25bf 723e b356 243d 8975 8d3e
000002e0: cd28 b73c d37f 64be 6fac 98bc 6c98 b63d
000002f0: 457e b5bd 6a4b b03d a60c 0dbe 57f9 4a3e
00000300: 149c 25be cc3c bbbc f8d8 483c 9cc3 163e
00000310: 316f 8c3e e80e 08be a929 fabd fccc 1c3d
00000320: 3385 173e 1f3c 013d abd0 ddbb 8b1a 98bd
00000330: c799 4cbd 1da1 433c 9bbd 553e 2d40 c1bc
00000340: c49b 3e3d a783 9bbd 1d04 b53e 1dc7 f7bd
00000350: 0398 d9bd 8b6e 4cbc 6bf6 f5bd c323 f03d
00000360: 5a8e 223c c62e 20be 1409 16be 756c 223d
00000370: 55b9 9a3d c978 86bd ad05 ffbd 96cc debd
00000380: 8c9b 1b3e 6a05 3dbd 8ec3 2abc b923 01bd
00000390: 3e41 3cbc adb2 af3d eefd 343d f968 543d
000003a0: 2571 7a3c 06ed d03d 9908 283e 2d79 1fbe
000003b0: 36ec 69bd edd5 23be c036 0b3d b9c0 583e
000003c0: 4b4d 9bbc 168f de3b 17e0 25bd e178 86bd
000003d0: a9ca 833d 0a99 c03e 17c9 913d a857 b23d
000003e0: 5f64 0b3e a9fa d43b 5754 273c bd49 debd
000003f0: 09f4 a63d 6949 b73d a406 a9bd 9d64 773c

policy_net.8.bias f4 [4]
0.06918671 -0.048937485 0.044781983 0.026654888
00000000: c3b1 8d3d ac72 48bd 506d 373d 5a5b da3c

inverse_net.0.weight f4 [64, 48]
-0.26198778 -0.41292563 0.17969126 0.27538466 -0.14970346 -0.24925205 0.21330735 0.055492572
-0.14432724 0.05075984 -0.06399327 0.2634779 0.11317718 -0.1307221 0.030618623 0.029317947
0.09405571 0.091301486 0.07680802 0.10062259 -0.018226158 0.041529626 -0.019295499 0.110319465
-0.21546152 0.37971053 0.34236306 0.6953021 0.033431944 0.19365355 0.42984408 0.12604813
-0.16522269 -0.06320677 -0.032549568 0.06893001 -0.025162837 0.1461667 0.13267566 -0.12963004
0.075685136 -0.13641123 -0.11824166 -0.12852524 -0.04636029 0.045201115 -0.104480766 -0.11558815
-0.030562054 0.35240918 0.4207221 -0.06637496 0.06726991 -0.068047345 -0.09491131 -0.012950995
-0.025030652 0.19421215 -0.026583573 -0.11247807 0.07918741 -0.04111143 0.08631347 -0.028897455
0.005569999 -0.14815083 -0.13161282 -0.16853999 0.023664473 -0.14412957 -0.15411821 0.08334526
0.057938106 0.5171377 -0.2794254 0.67998666 -0.06536496 -0.39184746 -0.0025114613 0.26864174
0.018252032 0.14728943 0.2659908 -0.24439827 -0.21987319 -0.04908081 -0.061205197 0.021611402
0.09112101 0.041039776 0.06345295 0.094601244 0.06723055 -0.12619743 -0.1055217 0.0048867445
-0.09838721 -0.082573615 -0.14349188 0.4001032 0.03345119 -0.18867442 -0.031757772 -0.06360473
-0.004714846 0.008035698 0.26587686 -0.3018451 -0.034820784 0.023771213 -0.060058698 -0.11329487
-0.09511729 0.029765068 0.06776498 0.109549135 -0.08601333 0.045921065 -0.113853425 -0.00848863
0.059475668 0.09757565 0.33140218 -0.08040746 -0.15657192 0.12949438 0.16674417 -0.05052002
0.08562103 -0.018210607 -0.19684471 -0.22719447 0.6665966 -0.14110382 0.0710618 -0.012268778
0.04224342 0.016320545 0.077549994 -0.07911796 -0.11913149 -0.03571452 0.0578689 -0.15233304
0.07438375 -0.48375353 0.0073438715 0.003904151 -0.024720326 -0.15508561 -0.10584472 -0.10295019
-0.10982124 0.11527463 0.42163953 0.0406631 -0.3789602 -0.1666956 -0.052643932 -0.0067027505
-0.15275171 -0.035727154 -0.11966188 0.076188006 -0.01590973 0.03528334 -0.07277807 -0.05516477
0.019717503 0.5947093 -0.04307441 0.08488763 0.111107096 0.3212674 -0.10409416 -0.23557676
-0.099141404 0.054768495 -0.44857514 -0.0084561035 -0.011285228 -0.063740164 0.013909818 0.04512601
-0.14756359 -0.055268846 -0.02584405 -0.11291136 -0.044884175 0.018583486 -0.1494546 -0.07921064
-0.07939385 1.0312233 -0.17416666 -0.1835844 0.12490025 0.15441655 -0.041490972 0.09635725
-0.052324004 -0.039799474 -0.046618022 -0.022626089 -0.01909115 -0.0074919416 -0.108427644 0.069135256
0.058098424 -0.06865141 0.09934816 0.096019834 0.09111566 0.0639364 0.05160075 0.032165565
-0.1511773 -2.3566425 0.18688925 0.27390012 0.110992886 1.0107917 -0.012694413 -0.059964392
0.01206651 0.18919313 0.13733038 0.078970544 0.020823596 -0.058996636 0.04045007 0.1043173
-0.03067166 -0.14379746 0.113411576 0.015082754 0.08537269 -0.12301026 -0.14392531 -0.0051507484
-0.026236407 -0.17246287 0.09787236 0.23630805 0.07605683 0.13726029 -0.0581034 0.28499624
-0.0634524 -0.1275381 -0.13055395 -0.20632292 -0.07688808 -0.07393304 0.06778083 0.034657564
00000000: 4323 86be fd6a d3be fc00 383e 38ff 8c3e
00000010: dd4b 19be ee3b 7fbe 3e6d 5a3e 2e4c 633d
00000020: 85ca 13be 8de9 4f3d e70e 83bd 93e6 863e
00000030: 70c9 e73d 04dc 05be e8d3 fa3c 312c f03c
00000040: 48a0 c03d 46fc ba3d 864d 9d3d 3713 ce3d
00000050: 064f 95bc f81a 2a3d 9811 9ebc 2cef e13d
00000060: f2a1 5cbe 6b69 c23e 364a af3e 52ff 313f
00000070: efef 083d 1e4d 463e 8614 dc3e c312 013e
00000080: 2330 29be 8d72 81bd b252 05bd 2d2b 8d3d
00000090: 4b22 cebc b9ac 153e 21dc 073e bdbd 04be
000000a0: cf00 9b3d 63af 0bbe af28 f2bd 1f9c 03be
000000b0: 4ae4 3dbd ce24 393d 03fa d5bd 7bb9 ecbd
000000c0: 465d fabc fa6e b43e e368 d73e 98ef 87bd
000000d0: cec4 893d 685c 8bbd dc60 c2bd 6930 54bc
000000e0: 150d cdbc 8ddf 463e cbc5 d9bc e75a e6bd
000000f0: 022d a23d 7564 28bd 1ec5 b03d 5bba ecbc
00000100: 8a84 b63b dab4 17be 83c5 06be bf95 2cbe
00000110: ffdb c13c b496 13be 2ad1 1dbe ebb0 aa3d
00000120: 8250 6d3d 2363 043f d910 8fbe 9b13 2e3f
00000130: 10de 85bd 3ba0 c8be 5497 24bb 698b 893e
00000140: 4985 953c 0ad3 163e f22f 883e 8a43 7abe
00000150: 7026 61be f608 49bd 4db2 7abd 650a b13c
00000160: a79d ba3d 5319 283d 9ff3 813d 4cbe c13d
00000170: 2cb0 893d e639 01be c31b d8bd fc20 a03b
00000180: 3c7f c9bd 5b1c a9bd 89ef 12be 54da cc3e
00000190: 1d04 093d de33 41be 7014 02bd 3243 82bd
000001a0: ff7e 9abb 29a8 033c 0321 883e 718b 9abe
000001b0: 3da0 0ebd d9bb c23c 1c00 76bd 2407 e8bd
000001c0: dbcc c2bd dfd5 f33c 5ec8 8a3d 4c5b e03d
000001d0: c227 b0bd ba17 3c3d fc2b e9bd e513 0bbc
000001e0: c29c 733d bed5 c73d 8cad a93e abac a4bd
000001f0: 6454 20be 2d9a 043e fcbe 2a3e 15ee 4ebd
00000200: 145a af3d 692e 95bc a991 49be aba5 68be
00000210: 13a6 2a3f 857d 10be d988 913d fc02 49bc
00000220: 7007 2d3d aab2 853c 88d2 9e3d 9908 a2bd
00000230: 36fb f3bd 6349 12bd f107 6d3d 31fd 1bbe
00000240: 8256 983d 8bae f7be dca4 f03b c9dc 7f3b
00000250: 4882 cabc c3ce 1ebe 1ec5 d8bd 8dd7 d2bd
00000260: f5e9 e0bd 1b15 ec3d 23e1 d73e 5a8e 263d
00000270: 1207 c2be 40b2 2abe 2aa1 57bd bfa2 dbbb
00000280: f26a 1cbe a356 12bd 4a11 f5bd 7508 9c3d
00000290: 1f55 82bc 4385 103d ab0c 95bd 74f4 61bd
000002a0: 9a86 a13c de3e 183f cb6e 30bd 91d9 ad3d
000002b0: 1e8c e33d 297d a43e 522f d5bd 093b 71be
000002c0: a60a cbbd ee54 603d a4ab e5be 788b 0abc
000002d0: ade5 38bc 348a 82bd 01e6 633c 0dd6 383d
000002e0: e91a 17be 9661 62bd e7b6 d3bc 123e e7bd
000002f0: 78d8 37bd 653c 983c a00a 19be 3039 a2bd
00000300: 3e99 a2bd 20ff 833f bf58 32be 8dfd 3bbe
00000310: b4cb ff3d 5f1f 1e3e 70f2 29bd f356 c53d
00000320: b251 56bd c604 23bd 8af2 3ebd 595a b9bc
00000330: 0b65 9cbc f67e f5bb 500f debd c996 8d3d
00000340: 9df8 6d3d 1c99 8cbd 0c77 cb3d 0ca6 c43d
00000350: d99a ba3d 16f1 823d 4f5b 533d 0ac0 033d
00000360: 39ce 1abe 3bd3 16c0 e55f 3f3e a33c 8c3e
00000370: 3d50 e33d 9f61 813f 3afc 4fbc 399d 75bd
00000380: 9cb2 453c d8bb 413e 56a0 0c3e 4fbb a13d
00000390: 3f96 aa3c 75a6 71bd f9ae 253d 4fa4 d53d
000003a0: 2243 fbbc a43f 13be 5444 e83d a81d 773c
000003b0: e0d7 ae3d ceec fbbd 2861 13be 9cc7 a8bb
000003c0: bced d6bc 1b9a 30be 4e71 c83d bdfa 713e
000003d0: afc3 9b3d f68d 0c3e d5fd 6dbd 07eb 913e
000003e0: 55f3 81bd 5999 02be efaf 05be 5146 53be
000003f0: 7f77 9dbd 356a 97bd add0 8a3d 17f5 0d3d

inverse_net.0.bias f4 [64]
-0.13105597 -0.047671396 -0.18241592 -0.08815485 0.09570345 0.093626775 -0.12539403 -0.08902461
0.03287677 -0.19850813 -0.1078436 -0.13927926 -0.040441316 -0.10842026 -0.11521752 0.055908144
-0.14947167 -0.02562927 0.10829799 -0.090028316 -0.1907022 -0.15606743 0.018092535 0.01592803
0.10277725 0.14396161 0.026264485 0.06462047 -0.0874127 0.09841047 0.055256944 0.03247217
0.046754867 -0.026650574 0.013804289 -0.08076705 0.06322766 0.047694698 -0.056801207 0.054052014
-0.059725944 0.09983704 0.035261843 0.016671032 -0.16434982 0.0017520126 -0.06812186 0.12890957
-0.04414645 -0.10582014 -0.14647537 -0.051237643 -0.016512683 -0.071657464 -0.092493735 -0.057516858
-0.093131416 -0.10287877 -0.019520992 -0.09530025 0.0367001 -0.0069610598 0.0924726 -0.08221593
00000000: 8933 06be 1543 43bd 3dcb 3abe 888a b4bd
00000010: 2c00 c43d 65bf bf3d 4b67 00be 8952 b6bd
00000020: cba9 063d b745 4bbe 1bdd dcbd 399f 0ebe
00000030: cba5 25bd 710b debd 2af7 ebbd f0ff 643d
00000040: 1a0f 19be 7af4 d1bc 56cb dd3d c460 b8bd
00000050: 7047 43be 24d0 1fbe cc36 943c 807b 823c
00000060: e17c d23d ac6a 133e 9e28 d73c bd57 843d
00000070: 6e05 b3bd 6e8b c93d 1b55 623d 8a01 053d
00000080: 0882 3f3d 4e52 dabc 622b 623c 3269 a5bd
00000090: 817d 813d 845b 433d 62a8 68bd a565 5d3d
000000a0: 31a3 74bd 5d77 cc3d b96e 103d b091 883c
000000b0: 524b 28be caa3 e53a 7983 8bbd df00 043e
000000c0: e8d2 34bd 3bb8 d8bd a4fd 15be 90de 51bd
000000d0: 9b45 87bc 26c1 92bd 5b6d bdbd cc96 6bbd
000000e0: afbb bebd 1bb2 d2bd 7dea 9fbc c72c c3bd
000000f0: d852 163d 9a19 e4bb 4662 bd3d d360 a8bd
