IL/Model/model_reacher_29.pt (torch, 292527 bytes, 20 tensors)

policy_net.0.weight f4 [64, 24]
00000000: 51fe a5be 4f7a 98bf 5fca 673e 7880 90bd
00000010: 176a 583e 6ffd 2bbe 7fae 953e bf24 80bd
00000020: 48bc 483e b719 643d 3550 b03c a8f0 77b9
00000030: 2763 c5bd 0d8f 3dbb 5c72 973e 283d fe3d
00000040: 9362 7c3e 6962 063e 548b 60be eb5c e8be
00000050: 6e6c c5be e769 a5bd 6d30 2b3e 580c 8b3c
00000060: d7a9 d63c cbbb 20bf 20eb 5ebd fb1a ac3e
00000070: 4507 7c3e cd26 493e f809 623f 36b7 7bbe
00000080: fa8f 72bd 6c30 8dbe 463e 8c3e d9b5 54bb
00000090: e96c cfbc 9290 88be 50ff a3ba 12c7 98bd
000000a0: 8c77 bdbd 2ee3 42be a92a 74be b4f0 a6bd
000000b0: 7e02 79be b658 1b3e 9956 bfbd e3ea 0dbe
000000c0: 8e39 2f3e 10b3 193f fd9d 93be bd63 b53f
000000d0: eb07 18bd f926 9fbd bee2 00bd f380 513d
000000e0: bcce d83e f2d7 7fbc 543a 4e3d 3b79 91bc
000000f0: 94c6 a23e 379c 9c3e ce24 ca3c 5fc4 48bd
00000100: a211 54bd c27f 25be 6032 843d c83f 7e3c
00000110: 185d 263d 4215 3a3e ff41 a7bd 8176 51be
00000120: a743 bf3e 2aae e83e b630 9cbe 639a 94bf
00000130: bcb9 893e 0693 913d 6205 9b3e dc59 cd3d
00000140: 8ec7 f4bd ecdc 943d 791e 99bd 2f1c 07bf
00000150: e49f 41bd ecd3 8e3c 3315 bc3c 8962 36bd
00000160: ffa9 9cbd dca2 07bd 3240 c5bd 79e8 b8be
00000170: 72b1 b4bd 37f4 77be 8820 58bd bb20 c83d
00000180: 3f22 b5bd 2929 2d3e 0bcf 03be 67c8 5a3e
00000190: a0ff 0b3d 7015 e63d d5ca c73c 2050 843d
000001a0: e241 66bd 4778 ebbd b9f7 1dbe db0d db3e
000001b0: 4652 ffbe 7c4a 0b3d 20b5 113e b7f9 a03d
000001c0: 5432 a33e 76ea 8b3e 5106 193e 3478 833e
000001d0: 54c8 8ebd 25fa 33be 7623 35be 2166 92bd
000001e0: ba4f d6be 7c34 1f3d 15c4 843e ae09 b0bf
000001f0: fca6 28be f8d8 e93c e76f 363e 1109 17be
00000200: d669 f5be f49f 103e 6810 89be 2dfe bbbd
00000210: 1310 a0bd 9ca4 4cbe dc98 3f3e b836 3f3e
00000220: 53ea 533e 3206 f43d c968 663e 83fb 573e
00000230: 8805 3f3d 1f4f c3bb 0098 2dbe 0ff0 0f3e
00000240: 8da1 98be 3b92 1c40 2ed2 143e f37a f8be
00000250: 3d9a 93be 2b64 853e d4bf ebbe a845 243e
00000260: 24dd d93d 4659 c1bc f992 483e c649 06be
00000270: 7984 163d fde6 a53d 9d0c 273c a921 37be
00000280: 8903 043e e991 393e 44c8 733b 2d46 8d3e
00000290: 1c52 4f3e aac3 6bbd 8619 86be 53df 2fbe
000002a0: c181 d5bc 329e da3e e4ac 013f 11a6 9f3f
000002b0: 7d81 0fbe 52e2 333e be76 2b3e c3a2 21be
000002c0: fde8 fa3d ac33 a1be 856e 463d 46e9 683e
000002d0: f025 59be ffb7 79bc b02e 4bbe 2128 22bd
000002e0: ca29 0cbe 5ae3 223e 58cb 54bd 1927 42bd
000002f0: d904 153e ba73 47be 6ea1 da3c 249d a93d
00000300: 5c44 2d3f a01a c03d 03ae d5be 009f ebbe
00000310: 78b7 d8bd e915 7c3e 0c53 f1bd 9620 fc3d
00000320: 2a02 013d 5c85 843e eade 89bb a6c9 113d
00000330: 628c 293d 27d6 f73d 8fc1 19be dde0 99bc
00000340: 5b9a 9bbd d3ee 47be b955 a33d c316 03be
00000350: 11d8 263d b378 0f3e d4fb 27bd 778f 383e
00000360: 26f0 443e f0f0 893f c5ef 5e3e 123b a4bf
00000370: bf03 a7be b022 4f3e 2966 75bd bf64 883d
00000380: 40e1 f23c 35f1 c03e dfa8 c73e a478 31be
00000390: f225 fabd fe5f 8ebe c068 773e f275 253e
000003a0: fe61 063e 1f04 b33b b634 fc3d e078 45be
000003b0: 33dc b3be 2dff 7fbe f081 11bd 22e1 783d
000003c0: 6d1d e73e 87ca b93f 7e6b 983e e659 6cbf
000003d0: 0c66 6a3e fa94 2a3e 1dba f1be dc75 c8bc
000003e0: ee4c 82be 7abf ca3e 6e73 893e ef89 aebd
000003f0: 255a 2b3e 40a3 353e 5fe8 90be 118e a2be
-0.3242059 -1.1912326 0.22635792 -0.070557535 0.2113422 -0.16795896 0.29234692 -0.06257009
0.19603074 0.055688586 0.02152262 -0.00023645407 -0.096380524 -0.0028924376 0.29579437 0.124140084
0.24646978 0.13123478 -0.2192815 -0.4538339 -0.38559288 -0.0807684 0.16717692 0.01697366
0.026204033 -0.6278655 -0.05442345 0.33614334 0.24612148 0.19643708 0.8829646 -0.24581608
-0.059219338 -0.27576005 0.2739126 -0.0032457022 -0.025320487 -0.26672798 -0.0012512002 -0.07459845
-0.092513174 -0.19031975 -0.23844399 -0.08151379 -0.24317357 0.1517056 -0.09342689 -0.13859133
0.17111799 0.6003885 -0.28831473 1.4171063 -0.037116926 -0.07771105 -0.03146624 0.051148366
0.42345226 -0.01561545 0.050348595 -0.017758003 0.31792128 0.30587932 0.024675753 -0.0490154
-0.05177463 -0.16162017 0.06454921 0.015518136 0.040616125 0.18172172 -0.08166885 -0.20455362
0.37356302 0.45445377 -0.30505913 -1.1609615 0.26899517 0.071081206 0.30277544 0.10026905
-0.119521245 0.072687 -0.07476515 -0.5277738 -0.047271624 0.017435037 0.022959327 -0.044527564
-0.07649612 -0.0331143 -0.09631385 -0.36114863 -0.088229075 -0.24214254 -0.0527654 0.09771868
-0.088444225 0.16910233 -0.1287195 0.2136551 0.03417933 0.11234558 0.02438871 0.06460595
-0.056215174 -0.114975505 -0.1542653 0.42784008 -0.49867457 0.03400658 0.1422925 0.07860129
0.31874335 0.27327317 0.14943816 0.25677645 -0.06971803 -0.17575891 -0.17689309 -0.07148386
-0.41857702 0.038868412 0.2593085 -1.3752954 -0.1646995 0.028545842 0.17816125 -0.14749552
-0.4793231 0.14123517 -0.2677033 -0.091793396 -0.07815566 -0.19984668 0.18710655 0.18673217
0.20694856 0.11915244 0.2250091 0.21092038 0.046636134 -0.0059603597 -0.16952515 0.14056419
-0.29810753 2.4464252 0.14533302 -0.48531303 -0.28828612 0.26052985 -0.4604479 0.16042197
0.10637882 -0.02360214 0.19587316 -0.1311408 0.03674743 0.08100698 0.010195878 -0.17883934
0.12891974 0.18122067 0.0037198225 0.27592602 0.20246166 -0.057559647 -0.26191348 -0.17175035
-0.026062848 0.42698818 0.50654435 1.2472554 -0.1401424 0.17566803 0.16744515 -0.15784745
0.1225147 -0.31484735 0.048445243 0.22745237 -0.21205878 -0.015241622 -0.19842029 -0.03958905
-0.13687816 0.1590704 -0.051951736 -0.047400568 0.1455263 -0.1947774 0.026688304 0.08281925
0.67682433 0.09380078 -0.41734323 -0.46019745 -0.10581869 0.24617733 -0.11783418 0.12310903
0.031496204 0.25882995 -0.0042074816 0.035592698 0.041393645 0.12101393 -0.15015243 -0.018783981
-0.075978 -0.19524698 0.07975335 -0.12801652 0.0407334 0.14010887 -0.041011646 0.18023477
0.19232234 1.0776653 0.21771152 -1.2830527 -0.32620046 0.20228076 -0.05991188 0.06659841
0.029648423 0.37684026 0.38996026 -0.17331177 -0.12214269 -0.2780761 0.24161053 0.16158274
0.13123319 0.0054631378 0.12314741 -0.19284391 -0.35128936 -0.24999686 -0.03552431 0.06076158
0.45139638 1.4514931 0.2976951 -0.92324674 0.2289049 0.16658393 -0.47212306 -0.024470262
-0.25449318 0.3959921 0.26845878 -0.085224025 0.16733606 0.17738056 -0.28302285 -0.31749013

policy_net.0.bias f4 [64]
00000000: 309d d4bd 6ef1 ddbd f20a 5fbe a164 a7bc
00000010: 4caa 033e ebe2 24be cde4 053e 3f99 66bc
00000020: 8d80 f23d c2a3 2a3e 4473 e9bd 6b24 2e3d
00000030: 7536 78be fe62 8cbe a5f3 743e 311a e03d
00000040: eca8 273e e647 7a3e 691d bd3d 63f8 08be
00000050: 3f75 033d 4722 183d 540e 35be d424 b83d
00000060: 9790 19bd e5da f3bc fd58 453e fa8b ac3c
00000070: 7fc8 333e c80e 2c3d 545b cabd e961 f4bd
00000080: 1d3a 893d 972a 7d3e 2c36 c5bd a4b7 49bd
00000090: 4765 3cbb 1bf4 093d 1e0e 07be eab9 2e3e
000000a0: b94e a33d c0a5 72be 6b0e dc3c ccdd db3b
000000b0: 0bc7 2cbe 92dd 29be f56a 693e d036 0abc
000000c0: 646d df3c 77c9 eb3d b5e4 083e babc f53b
000000d0: 358b 033e 811d 493e be5a ab3c 6ecb 603e
000000e0: 1db8 2abe c2d0 833c d5ed a4bd 6b8d 123e
000000f0: 84f2 db3d 2f41 49be 9576 0dbe 1949 97bd
-0.10381544 -0.10837065 -0.21781519 -0.020433726 0.12857932 -0.16102187 0.13075562 -0.014074623
0.11840925 0.16664031 -0.11398938 0.0425152 -0.24239524 -0.27419275 0.23921068 0.109424956
0.16373032 0.2444149 0.09234125 -0.13376002 0.032094236 0.037142064 -0.17681247 0.089913994
-0.037491407 -0.029767463 0.19272228 0.02106284 0.17556952 0.042006284 -0.09880701 -0.119327374
0.06700537 0.24723278 -0.09629473 -0.0492474 -0.002874689 0.033680063 -0.13188979 0.17063108
0.079739995 -0.23696041 0.026862344 0.00670979 -0.16872804 -0.16588429 0.22794707 -0.00843592
0.027273841 0.11513036 0.13368495 0.0074993046 0.12846072 0.19640161 0.020917293 0.21952602
-0.16671796 0.016090754 -0.08053175 0.14311759 0.107396156 -0.19653772 -0.13814767 -0.07386989

policy_net.2.weight f4 [128, 64]
00000000: 068a 3bbe d4e6 173d 88fb b9bc c12f 8fbe
00000010: 619e 733d b8d4 453e 2fce d9bc 8656 603e
00000020: 6a6a 483e 1f2f c53d 7d98 37be dd72 7dbe
00000030: ffc0 7a3e dec0 01bd 4109 a43e 2fba a63e
00000040: 25df 24be 9044 b9bd 4a7b 14be eda8 163c
00000050: 268a 30be 56ca 37bd a7e7 9a3e ac57 833e
00000060: b639 383e f126 a1be 6ea3 b5be d4c5 9b3e
00000070: a394 89bc 6e3c 213e b7b7 92be 0fd0 19be
00000080: 0a84 33be 0129 043e 9f8a e93d db85 a3bd
00000090: 7bea 03bc 14fe 793e 7845 8bbe 1815 51be
000000a0: 493e 5ebd 0153 b4be 6670 48be cbff 083f
000000b0: 5976 b9bd 6410 8a3d 810e 7b3c 29cf 0d3d
000000c0: 9513 ab3d fa54 c5be 81e6 083c 894d 8c3d
000000d0: 4ecb b3bd 794d 8cbe 688c 4c3e a8ec 393d
000000e0: b02b d1bd 365f 9c3c e5b9 833e bf06 073e
000000f0: be22 8cbd 67ea 71be f90c b2bd 785d 08bd
00000100: ce5a bdbe 5e42 d23d 9504 763e 54d4 2a3d
00000110: 1a6c a9bf c9f8 173d 0adf 6fbc 876a 07bf
00000120: 6b17 bebc d507 a7bd 4758 30bc c786 1bbe
00000130: 340f 5c3c 0e45 003e 4d51 c2bc 7a2a 1d3e
00000140: 7236 19bd bf78 c73d 80be 833d b844 b6bd
00000150: 4c06 66bc eee9 903d 8c09 5cbe 4b17 04bf
00000160: 5cd6 0bbc c7db d53d b9b8 6d3e c85f cc3e
00000170: 547a 75bd 72ba 2c3e e8fb 1e3c 39f3 f73d
00000180: d8b9 cbbe 7aaf 89be 18f0 0bbd 69fa a93d
00000190: 0a73 573e 78e9 133e 3f25 50bd 3cf2 a0be
000001a0: 1f35 d1be 21b3 ef3d 6448 7c3c 9f52 f8be
000001b0: 9eab 5b3e b147 883d 927f 4cbd 4c8b 083e
000001c0: 68bd dd3e bf03 eb3d 81d5 b0be c864 5bbd
000001d0: 4168 7c3e fd02 0cbe 249b a23b 9496 fa3c
000001e0: ec68 cf3d 3d65 68be 0c9f 25be 9867 a4bc
000001f0: f767 a33d 3e29 e13d fc4b 38be 98ad a53d
00000200: 97d5 30be 0ecc bbbd 7f8c a4be 50d4 c33d
00000210: 6109 8b3b b6c3 813e 569e 5b3d 9e84 023d
00000220: cf45 0e3e 7cba a53d 2888 d43d 09e8 1abd
00000230: f988 53be ee5e c2be 153d 0dbe 119b 3bbe
00000240: dea8 e2bd 853d dd3c d4a8 a93e d879 40be
00000250: b0ba aabc e7ed a8bd 85dd b0bd 2c2b 85be
00000260: defb 1abe f070 753e e4a8 8e3d 0fa4 1d3e
00000270: 77a4 2d3e ba1c 2ebe 92ce aabc 08a8 273e
00000280: 09ef c33d 34ec 80b8 449b b6bd 39da 1a3d
00000290: 6726 07be 6b37 f7be 3e6e 293e 36a8 b83e
000002a0: e05c 05be 2ae6 ebbe 8eb6 26bc 6add 1dbe
000002b0: 9b76 95be 4798 b43d 13d5 29bd a94e d43d
000002c0: 1c34 8ebd b76f 1a3e b37a 893e 39a0 a6be
000002d0: 57cb 4f3e ded6 9abd 5f53 83bd 354b 4e3c
000002e0: aac4 bbbe de1f cdbb e1e8 a2be f3b6 ae3b
000002f0: 21c1 903e 9fca 60be 94bf 33bd b58f babe
00000300: 8e9f 9ebe 4325 4b3e 24db a1be 2b33 18bd
00000310: 6027 bbbc 7a99 303c 4d22 62be 8b33 9cbb
00000320: ec2d 2e3d e14e 9a3e d258 883e 3896 4cbe
00000330: 8960 31be f561 e93c 549d 9bbd 4236 41bd
00000340: 7424 1f3d 1e8d a13c ce0e efbd 7a3f 06bf
00000350: df2f 943d 53a4 e0bd 9515 163e 43b5 debd
00000360: 098a e5be 125c 2c3e 5fe6 3c3d 4e66 94bd
00000370: a8db 63be 47ea 8f3c ea6f f83d fde2 0bbf
00000380: c9bb e13e 9903 d03d 80e0 6e3e 99f9 153e
00000390: ad04 f1bc 4a17 623d d9b6 e839 7bc4 b4be
000003a0: c362 8b3c e5d0 ccbe 5d37 143e c0b3 d2be
000003b0: a7bb 9dbd a962 4dbf a40a f9be b5f3 0a3e
000003c0: 60b2 77be 81e8 38be 5c1d c33e e33f e7be
000003d0: 5dc4 993e 7ca2 443e db0b 9b3e c278 a93e
000003e0: 225a 32be e271 14be 69c3 03be ff71 a6be
000003f0: b454 98be cecc fbbd c9f7 ad3a eb70 a93d
-0.1831437 0.03708537 -0.022702947 -0.2796612 0.059477214 0.19319427 -0.026587574 0.21908006
0.19571844 0.09628128 -0.17929263 -0.24750848 0.24487685 -0.031678073 0.3203831 0.32563922
-0.16100748 -0.090462804 -0.14500156 0.0091955485 -0.172402 -0.044870697 0.30254862 0.25652826
0.17990765 -0.31475022 -0.3547625 0.30424368 -0.016794508 0.15745708 -0.28655788 -0.15020774
-0.17530838 0.12906267 0.11403393 -0.07984515 -0.00805151 0.2441333 -0.27201438 -0.20418203
-0.05425862 -0.35219577 -0.19574127 0.5351531 -0.09055776 0.067414075 0.015323282 0.03462139
0.08353344 -0.38541394 0.008355738 0.06850726 -0.08779012 -0.27402857 0.19975436 0.04539171
-0.10213411 0.019088369 0.25727764 0.13186167 -0.06842564 -0.23624574 -0.086938806 -0.033292264
-0.3698334 0.10266565 0.24025185 0.041706398 -1.3236115 0.037102494 -0.014640579 -0.5289692
-0.023204526 -0.08155791 -0.010763234 -0.15188132 0.013431359 0.12526342 -0.023720408 0.15348235
-0.03740544 0.09739827 0.06432819 -0.08899826 -0.014039587 0.070758685 -0.21488017 -0.5159804
-0.008534994 0.1044231 0.23214997 0.39916825 -0.059931114 0.16867998 0.009703614 0.12106938
-0.39790225 -0.2689169 -0.034164518 0.08299715 0.21039978 0.1444453 -0.05081677 -0.3143481
-0.4086084 0.11704088 0.015398119 -0.48500535 0.21452186 0.06654299 -0.049926348 0.13334388
0.43308568 0.11475324 -0.3453789 -0.05356291 0.24649145 -0.13673015 0.004962342 0.03058938
0.10127434 -0.2269487 -0.16173953 -0.020068929 0.07978814 0.109941944 -0.17997736 0.08089751
-0.17268978 -0.0916978 -0.3213844 0.0956198 0.0042430614 0.25344628 0.053617798 0.031864755
0.13893817 0.0809221 0.10377532 -0.037818942 -0.2065772 -0.3796305 -0.13792832 -0.18320872
-0.11067365 0.027006874 0.33136618 -0.1879648 -0.020840973 -0.08248501 -0.086360015 -0.260095
-0.15135142 0.23968863 0.06965807 0.15394615 0.1695727 -0.17003146 -0.020850454 0.16372693
0.09567077 -6.147512e-05 -0.08916333 0.03780577 -0.13198243 -0.48284468 0.1654596 0.36065835
-0.1302371 -0.4607404 -0.01017536 -0.15416494 -0.2919205 0.08818107 -0.04146297 0.10366566
-0.06943533 0.15081678 0.26851425 -0.32544115 0.20292412 -0.07560514 -0.06412386 0.012591173
-0.3667348 -0.0062599024 -0.31818298 0.005331868 0.28272346 -0.21952294 -0.043883875 -0.36437765
-0.30981106 0.19838433 -0.31612504 -0.037158173 -0.022845924 0.010778779 -0.22083397 -0.0047668866
0.042524263 0.30138305 0.26630265 -0.19979179 -0.17321981 0.028489092 -0.07598367 -0.047170885
0.038853124 0.01972061 -0.11672746 -0.5244061 0.07235693 -0.10968842 0.1465667 -0.10874417
-0.44831875 0.16831997 0.046118136 -0.072460756 -0.22251761 0.017567767 0.12130721 -0.5464323
0.4408858 0.10156936 0.23327827 0.14645995 -0.029421175 0.05519799 0.0004438672 -0.35306153
0.017014867 -0.40003124 0.14474244 -0.41152763 -0.077018075 -0.8022867 -0.4864093 0.1356953
-0.24189138 -0.18057443 0.38108337 -0.4516593 0.30032626 0.19202608 0.30282483 0.33099943
-0.17417195 -0.14496568 -0.12867512 -0.32508847 -0.29752123 -0.12294923 0.0013272698 0.082734905

policy_net.2.bias f4 [128]
00000000: cc7c 823d 91f4 f7bc 2c85 223e a821 b73c
00000010: af11 2c3c 7311 bc3d 3916 08bd 9c49 5bbd
00000020: c566 3c3d f204 d93d 0fc5 2bbe 8f43 363d
00000030: a28d 1bbd 47ca fbbd 166a 673d 7a20 083d
00000040: cbf9 9b3c 8a77 0cbe e5a8 d93d e4d6 0a3e
00000050: ceef 51be 1127 283d db50 cebd 43fb d3bd
00000060: 7358 ae3c 2587 f7bc c637 0b3b 25c4 a03c
00000070: cb2c 273d dfb9 00bd 3044 febc 8100 36bd
00000080: 8f7f f93b 7833 3d3b 5f2a 18be 05b7 1ebe
00000090: 1d8f c1bd f193 273e 8e2d 4f3e 644d 993d
000000a0: 4315 06be c97c 53be f49a 2f3d 921a 7b3d
000000b0: 49f8 17be 8b74 4fbd ea09 153d 3319 003d
000000c0: d719 133e bee1 4ebe 6780 4cbe 581f 143e
000000d0: f966 e1bb 4614 043e c4c0 293d 7b54 21bc
000000e0: d728 583d 581c 51bc b43e 053d 6c91 403c
000000f0: e7e1 94bd 81cb b4bd a65d dd3d ca3a ffbd
00000100: d3b5 dfbd ff6f 87bd 25ab 5ebd 94aa b4bd
00000110: 18ae 503d 5d61 8d3c b66a 21be 5e12 0fbe
00000120: 0dea dc3d 1bec 26bc 4229 053e 71a8 063e
00000130: ca56 18bd e8cb 4ebd 61da b43d 13ac c83c
00000140: 607f 8b3c 9edc fe3c 5fc4 4e3c c7ca 863c
00000150: 92ea a13c 91da a3bc ecd7 013d ecf3 6c38
00000160: 26cf 053e 51d3 fd3d b3cf 173d 8f58 43bd
00000170: 7798 ebbd 3f27 8b3c 28b6 43bc e6d2 0fbd
00000180: 7a69 bebd 3a6f f1bd 7708 e8bd ec66 82be
00000190: 82ac 873d 92a4 55bd 3ce3 143d 7763 813d
000001a0: ea9e 20bc 5c1d f5bd 5c3b 153d 6424 c43c
000001b0: 7961 29be 87ae 743d b55d d2bd 77f7 1cbd
000001c0: fad0 e1bc 7c32 c93d e2b5 663d 28d2 9fbc
000001d0: 5ea4 5cbd e3de 073e 5c67 32be 134c 94bd
000001e0: 3cfe 8cbc c49e 8cba 68ee d7bd 8708 713e
000001f0: a7c7 9fbd f83c 5c3d e992 113e f44b fb3b
0.06371459 -0.030267986 0.15871114 0.022354916 0.010502263 0.09183016 -0.03322432 -0.053536996
0.045996446 0.10596646 -0.1677439 0.044498023 -0.03797687 -0.12294441 0.056497656 0.033234097
0.019040009 -0.13717476 0.10627917 0.13558537 -0.20501634 0.04105288 -0.10074016 -0.10350659
0.02128241 -0.03021581 0.002124296 0.019624779 0.040814202 -0.03142726 -0.031038374 -0.044434074
0.007614083 0.002886979 -0.14859913 -0.15499504 -0.09451125 0.16365029 0.20232221 0.07485464
-0.13094048 -0.2065307 0.042872384 0.061304636 -0.14840807 -0.050648253 0.036386408 0.03127403
0.14365326 -0.20203301 -0.19970857 0.14465082 -0.0068787304 0.12898359 0.0414436 -0.009846802
0.052773323 -0.012763105 0.0325305 0.011753421 -0.0726965 -0.08827878 0.10808878 -0.12462385
-0.10923352 -0.066131584 -0.054362435 -0.08821598 0.05094728 0.01725834 -0.15763363 -0.1397185
0.10786829 -0.010188128 0.1300402 0.13150193 -0.037192143 -0.05048743 0.08830715 0.024496114
0.01702851 0.031111058 0.012620061 0.016454114 0.019765172 -0.020001682 0.03170006 5.6493955e-05
0.13067302 0.12393821 0.03706331 -0.047691878 -0.1150369 0.016986487 -0.011945285 -0.035113238
-0.09297462 -0.11788793 -0.113297395 -0.25469148 0.066247 -0.0521589 0.03634952 0.063177995
-0.009803513 -0.119684905 0.036433563 0.023943134 -0.16541089 0.059736755 -0.102717794 -0.03832194
-0.027565468 0.09824082 0.0563258 -0.01950939 -0.05386769 0.13268618 -0.17422241 -0.072410725
-0.017211072 -0.0010728468 -0.10543519 0.23538409 -0.078017525 0.05376908 0.14216198 0.0076689664

policy_net.4.weight f4 [128, 128]
00000000: 329c 96bd ad6a 993e d5d5 0a3e 5fc6 88bd
00000010: bdea 38bb 14e8 063e dd84 bd3d 410b 4d3e
00000020: 3d5e 0fbf a3d1 763c a666 a63d 8151 763d
00000030: 9c4a d53d eb89 c0bd 382a b23e 5a18 f4be
00000040: cef8 0abe 4407 593e 4691 803d bbf7 dbbe
00000050: cd63 a53e 0b9d 8abb 7b3d 7e3e caea 30be
00000060: ef06 563d 04dc 43be 9213 b8be 62b8 7a3e
00000070: e745 883c 9113 02be 811c a6be 4605 77be
00000080: 27a5 6f3e 4930 7dbd d292 823e bad1 19bf
00000090: 899e 323d 944d 0fbe e724 12be 5564 dcbd
000000a0: a682 5a3e 32c5 8a3d b0bc 3b3e b624 433d
000000b0: 56b0 f7bd 21ee 65bf e520 bbbe 95a8 c8be
000000c0: c67f 4a3e ecdc b33e 2a8e f63d ec1c 3f3e
000000d0: e5e8 ac3e 7f3d 96be f2e8 86be a5df 82bd
000000e0: bdce 18bd f813 a3be ec27 24bd 0b01 d13d
000000f0: 6b8d d73e bb1b 883e 13f8 10bf e384 edbd
00000100: 051b c5bd 074d eabc 7a84 3dbe 2cff 9d3d
00000110: 925e 2fbe 5c2b 89be ddc9 0cbe 2919 71be
00000120: db59 2cbe edff 4dbd f960 0dbe e7d2 eebd
00000130: 890a 88be 9c27 1abd 769b 633e 48e1 6abc
00000140: 7cd1 263e 8063 3f3e 79e8 9a3c ddba 4f3e
00000150: 2f05 edbd d2ab aa3e 1151 36bd 64e5 433e
00000160: 4d7c 8f3d ac92 26be 5a01 603d 4549 3cbe
00000170: e63f f7bd 5817 713c d44f 8ebe 00c2 a83e
00000180: a579 f5bd 4572 7e3e 289b abbe 880a 1fbd
00000190: ad59 f23d e0b5 d03a c25f 22be d1b3 9c3e
000001a0: e978 25be 4181 39bb 5959 2a3e 82e1 963d
000001b0: 0505 663d 7470 debe f487 58bd 601a debd
000001c0: c51d 33be 328d 3a3e 7aeb 60be 876a dcbd
000001d0: 44c1 713d 296a dcbe 6d7a f13d 5b02 5cbd
000001e0: 9a27 283e fb3a 13bd 00a0 c2be 70e6 babe
000001f0: feb9 84bc 6755 d53e 4818 e23d c552 453b
00000200: 633a fb3d 6dcc 15bc 7ec5 99be 98dc aabe
00000210: fefa 07be 0293 0bbe 6c7d 8a3d 6bc8 6d3d
00000220: 8e74 b9be cd6c 7abe bf57 1d3b c359 833e
00000230: ec7a e6be c507 52bd 52b6 df3d 2666 4f3e
00000240: d612 05bf f083 c43d 8bf6 49be fabc 7d3d
00000250: d68e 3fbd f054 a0be 6bf2 233d 28ad 10be
00000260: 5e04 42be 65ab 4f3d 9e35 d6bd bed6 83be
00000270: 982e 27bd 7ce8 9f3c 53be 20be be16 8c3d
00000280: f76e e43d 6b41 76bd 8ab3 d5bd 5d66 33bf
00000290: f7cf 91be 593b d7bd 5224 95bd 640a c23e
000002a0: caec 8f3d 73df 86be de0e 1dbe 289d 74bd
000002b0: 65b0 6cbe 4251 1bbe fe56 99bd d807 6abe
000002c0: 31cb d2bd 0bb2 773d 52fd a43e 0c21 11bf
000002d0: 9347 5abe 1e09 f53d b575 2bbe 0d64 ab3e
000002e0: fbd3 003e 2ac3 f03c c032 963c 2843 e0bc
000002f0: 0c68 edbe e796 20be 249b aebc 2acc 9cbe
00000300: 8d36 99be 847b 223d 95d5 0b3d 22c4 153d
00000310: 769f 92be b666 dcbd 453d 27bf 569b dd3d
00000320: 51f7 a6be 4f97 7fbd 6024 48bd a5ed 843e
00000330: 6bcb ab3d 3ab4 03be ca6f d2bd ccaa 913e
00000340: 26e1 95bd 66d4 9cbe ec38 f43c bbec 293e
00000350: 7228 bebe e2e5 ba3d 6ccb 41be d247 7b3e
00000360: 67b2 a7be 36c5 2abe e1e2 49bd 41da 1e3e
00000370: c1dc 873e 40c0 1ebe e866 5f3d 8c80 05bf
00000380: 153f 0dbe bcfd 7cbe 063c e93e 3413 d3bd
00000390: d54f 94be 05ae 17bd 5c42 ee3d 2a89 4a3d
000003a0: 4a29 103d 6f5b 873d c1e3 643d 9212 7cbe
000003b0: 94df ff3d 6d3e f23d 2b98 cebe 14bf 89bd
000003c0: f4b1 383d 96cf 7ebe a2f5 933e b9f4 b03e
000003d0: bc25 24be f79a a1bd 2521 943c af89 13be
000003e0: 808b afbd cfa6 f43d 7a78 c03d c344 66be
000003f0: 1705 d6bd 4a93 08be c25c 6dbd c56e 333e
-0.07354011 0.299642 0.13558133 -0.06678461 -0.0028216087 0.13174468 0.09253857 0.20023824
-0.5600317 0.01506463 0.081250474 0.060136322 0.10414621 -0.09401306 0.34797835 -0.4767483
-0.13571474 0.21194178 0.06277709 -0.4296244 0.32302704 -0.0042301468 0.2482814 -0.17277065
0.052252706 -0.19126898 -0.3595243 0.24484399 0.016634895 -0.12702776 -0.32443622 -0.24123105
0.23402844 -0.061813626 0.2550264 -0.6008564 0.043608222 -0.13994437 -0.1427189 -0.10761324
0.21338901 0.06775893 0.18333697 0.047642432 -0.1209418 -0.8981648 -0.36548534 -0.39191118
0.19775304 0.35129488 0.120388344 0.18663377 0.33771434 -0.29343793 -0.26349598 -0.06390313
-0.037306536 -0.31851172 -0.040077135 0.10205277 0.4210008 0.26583657 -0.5662853 -0.11597612
-0.09624294 -0.028601183 -0.18507567 0.07714686 -0.1712592 -0.26790893 -0.1374888 -0.23544754
-0.16831152 -0.050292898 -0.13806523 -0.1166132 -0.26570538 -0.03763543 0.22227272 -0.014335938
0.1629085 0.186903 0.01890968 0.20286126 -0.11573254 0.33334213 -0.044510905 0.19130474
0.0700613 -0.16266888 0.05468879 -0.18387325 -0.120727345 0.014715038 -0.2779528 0.3296051
-0.119860925 0.24848278 -0.33516812 -0.038828403 0.118335105 0.0015923344 -0.15856841 0.3060594
-0.16159405 -0.00283058 0.16635646 0.07367231 0.05615713 -0.4344517 -0.05286403 -0.108448744
-0.17491825 0.18217924 -0.21964827 -0.10762506 0.059022203 -0.43049744 0.11790929 -0.053713184
0.16421357 -0.03594492 -0.38012695 -0.36503935 -0.01620197 0.4166672 0.110397875 0.003010915
0.12266996 -0.009142977 -0.30033487 -0.33371425 -0.1327934 -0.13630298 0.067622036 0.05805246
-0.36221737 -0.24455567 0.00240086 0.2565442 -0.45015657 -0.05127694 0.10923447 0.2025381
-0.51981866 0.095954776 -0.19722955 0.0619478 -0.04676708 -0.31314802 0.04002611 -0.14128554
-0.18946978 0.050700564 -0.104594454 -0.25749773 -0.04081592 0.019520037 -0.15697603 0.06840275
0.11153977 -0.06012098 -0.10434635 -0.7007807 -0.28478977 -0.105093665 -0.07282318 0.37898552
0.07027586 -0.26342353 -0.15337703 -0.05972019 -0.23114164 -0.15167716 -0.074872956 -0.22854555
-0.10292662 0.06047253 0.32224518 -0.5669105 -0.21316366 0.119646296 -0.1674412 0.3347477
0.12580864 0.029389936 0.018334746 -0.027375773 -0.46368444 -0.15682565 -0.021314211 -0.30624515
-0.2992443 0.039668575 0.034139235 0.036564 -0.28637284 -0.10761778 -0.65327865 0.108206436
-0.32610562 -0.06240016 -0.048862815 0.25962558 0.08388408 -0.1286172 -0.10275228 0.2845062
-0.07318334 -0.30630797 0.029812299 0.16594212 -0.37140232 0.09125878 -0.18925256 0.24539116
-0.32753298 -0.16676793 -0.049288634 0.15512945 0.2653561 -0.15503025 0.0545415 -0.5214927
-0.13793595 -0.24706167 0.45553607 -0.10306397 -0.28967157 -0.037031192 0.11633751 0.049447216
0.035195626 0.066092364 0.055881266 -0.24616459 0.12493816 0.11828313 -0.4035047 -0.067258984
0.045091584 -0.24883875 0.2889834 0.3456171 -0.1603002 -0.07890885 0.01808221 -0.14407991
-0.085715294 0.11945879 0.09397979 -0.22487168 -0.104501896 -0.13337436 -0.05794979 0.17522724

policy_net.4.bias f4 [128]
00000000: 2bcc bebd dd78 d1bd 8a40 363d 85f8 4cbd
00000010: a7e9 7abd 684f 673c dc0d 15bc 55ba b4bd
00000020: 7d78 c1bd c176 acbd 6d0f dc3d 6247 cd3c
00000030: 41c8 593d 9d11 e8bd a09e 183c d8f9 c73d
00000040: 58f0 d6bc 0177 77bc 5864 96bd ea7f 56bd
00000050: 9318 89bd 556f 093d 8271 17be fd44 26be
00000060: 81e5 52bd 411c ef3d 9a58 4abd 18ea 23bd
00000070: 711f fe3b 554e 813d 354a a73d b9f7 44bd
00000080: 3b54 e73d 5f17 fe3d 133c 193d b6fa 3f3d
00000090: 2c6f 953d 083f dc3d ffc2 38be 1f00 c33c
000000a0: 1498 efbc 7c9b 7bbd a8a2 cb3d 3509 8e3d
000000b0: 02ac bfbd 23da 7f3d 4603 023e 46fe 023d
000000c0: 8fc2 62bd df5f e5bd 4463 24bd fc6d 9c3d
000000d0: 4e6b 3ebe f84b de3c ad1f c63c 0947 17be
000000e0: 22e5 e7bc 1e19 983d db13 d23c fab4 0c3d
000000f0: 7f09 f2bd fc97 163d aacc 80be 2374 893d
00000100: a53a 4cbb 5474 883d 537b 13be 5b77 d53d
00000110: 1c93 d8bd dbfe 10be 406d 2dbd 8b02 1abe
00000120: 2de2 0d3e 0b83 21bc 8f11 df3d 92dc eebc
00000130: a031 38be f100 1d3e e7e3 053e 384d 383d
00000140: b973 b4be 4244 35bd eca7 6a3e 98be 21be
00000150: 0d89 67bd e0bc 98bc 3185 d6bc dcd1 f63d
00000160: 06ad 1dbe 981b ae3c 5d44 20bc 28b2 26be
00000170: 497d 98bd 2e38 71bd 71bc 58be 54d9 683d
00000180: 3ee1 28be 1a44 ca3d 9c8b 07be 4a5e a93d
00000190: 9123 113e b94a d93d ec03 ee3d 73dc 00bd
000001a0: 4720 39be 2b5c 343d 0e1b a33b 1dc7 5dbe
000001b0: 6b99 0abd cc5a 3e3d f997 e3bd 6457 b13c
000001c0: 5503 a8bc c8ec d93d bfe5 8c3d 7f63 023e
000001d0: 7416 893c 7331 a33d 0820 9bbd b175 0c3e
000001e0: 53f1 0dbe ab1a 923d 4cf2 9dbc eddf 603d
000001f0: 11c4 09be 95e5 9dbc 227a a33c 82be 503c
-0.09316286 -0.10228131 0.044495143 -0.050041694 -0.061257984 0.014118053 -0.009097543 -0.088246025
-0.094468094 -0.08421088 0.1074513 0.025058452 0.053169493 -0.113314845 0.009315163 0.09764451
-0.026237652 -0.015104056 -0.07343358 -0.052368082 -0.0669414 0.03355344 -0.14789394 -0.16237254
-0.051488403 0.11675311 -0.049400903 -0.04001817 0.007755213 0.06313769 0.08168451 -0.04808781
0.112953626 0.124068014 0.037410807 0.046869956 0.07296595 0.1075421 -0.18043135 0.023803769
-0.029247321 -0.06142758 0.099431336 0.0693535 -0.0935898 0.06246389 0.12696561 0.031980775
-0.055361327 -0.111999266 -0.04013373 0.07638165 -0.18595621 0.027135834 0.024185026 -0.14773192
-0.028307501 0.07426666 0.025644233 0.03435228 -0.118182175 0.036766037 -0.25156146 0.067116044
-0.0031162885 0.06662813 -0.14402513 0.10423156 -0.10574934 -0.1415972 -0.042340517 -0.15040033
0.1385581 -0.009857903 0.10892021 -0.02915791 -0.1798768 0.1533239 0.13075219 0.044995517
-0.3524454 -0.04425455 0.2291562 -0.15795362 -0.056527186 -0.01864475 -0.026186557 0.12051746
-0.15398034 0.021253392 -0.009781924 -0.16278899 -0.07445771 -0.058891468 -0.21165635 0.056847885
-0.16492173 0.098762706 -0.1323685 0.08269937 0.14173724 0.10609955 0.11621842 -0.031460237
-0.18078719 0.04403321 0.0049775904 -0.21657987 -0.033837717 0.04647331 -0.11112971 0.021648116
-0.020509401 0.106408656 0.06879758 0.12733267 0.01673434 0.07968416 -0.07574469 0.1371677
-0.13861589 0.07133993 -0.019280575 0.054901052 -0.134537 -0.019274512 0.019955698 0.012740733

policy_net.6.weight f4 [64, 128]
00000000: bb15 44be 680c 3c3e 41a8 813e 2971 d3be
00000010: 7a5c 5fbe 51d2 e2bd b657 f7bd e35d 123e
00000020: a995 7a3e c4cd 83bd 427f 81be 9e86 d2bc
00000030: 02a5 03bc dc6c 96be 3252 80be b631 ee3d
00000040: efc9 493e dbfa c83d 3f3f abbe 4f05 0f3e
00000050: 89a0 8d3d af2b 813d 2b6f a53d 5f28 e53d
00000060: b730 8cbe 3559 4c3e b3c4 96be 0669 ac3e
00000070: 6641 263e bdb6 093d 5237 fdbe f601 d9bc
00000080: f6bc 7c3c 5add 7dbd 4cc3 81be 1f6f 05bd
00000090: 4451 f13d 4438 1dbf 9deb 683d 3b32 8d3e
000000a0: adc1 e03d 42ed 10be 0160 3d3e a769 b9bd
000000b0: 6298 bfbe e6da 553e 227c 03be e550 37bd
000000c0: 0389 8c3d 3ab3 24be 3245 dabe 632d ef3d
000000d0: 932b 413e e0cc 8abb df89 0e3d 6a33 893d
000000e0: 3be8 f9bd c513 233c b71c 543e 5f8f d3bd
000000f0: 58e3 f13d f6a4 973e 915c b2be cf49 37be
00000100: 4a48 48be b61d e1bd 8c72 0dbe 30dc e03c
00000110: 33d3 a3be db27 b5be 4da7 c63c 58fd 41be
00000120: fe36 1f3e 9339 6ebe aa46 04bf 4336 833d
00000130: 7547 3abe e521 92be ff32 cabe 316e 88be
00000140: 3c45 5b3e d19f 373d 5176 f13d 8236 bfbe
00000150: 8a70 98be 3585 5dbe e9c3 833e 7368 c8be
00000160: 3955 c23d ff56 f2bc 969b 573d aa04 3abe
00000170: 30bb 7b3e b82b 443d 2d7a 563e 0e89 3dbf
00000180: 1223 9fbd 7c95 323d c604 7dbe 36dc 9cba
00000190: 2dc3 0dbf b7e4 023e 4c55 dbbc ea10 83bd
000001a0: c917 60be e3e3 1abe 52ff 69b9 1210 3dbd
000001b0: 9e26 6e3e 2f0d 033e eaa0 fd3d 5d52 7abe
000001c0: 0a40 adbc dfd2 3e3c 7072 ad3c 12f0 08bf
000001d0: 7e46 853e 706a 10bf ac53 07bf fca6 46be
000001e0: 0cfe db3c 06a7 8a3e a333 023d 0e48 e63d
000001f0: 9432 b73d c77f 07be 1a41 09be 768a d3bb
00000200: 1768 08bd 9324 373c 0f2c 89bd 51b1 babd
00000210: 9aa1 bfbe 418b 803e 29ce d2bc 2d1e 20bd
00000220: 4f30 cdbd aa66 d53d 0771 d03d 5cc4 903d
00000230: 268b 01be f13c b8bd 5ea1 bf3d c002 0b3e
00000240: f640 05be d4ff 6cbd e9d9 c1bc 62a4 a83c
00000250: b09a 0bbe e077 3c3e dde8 2c3e a7be b7be
00000260: 54a9 77bf 0a75 cd3c 33ac 07bf e3a4 efbe
00000270: 4099 023c 66d2 d13d 4298 e33b cebc c5be
00000280: b144 00bc 80a7 38bc 052a e13c ac32 0cbe
00000290: f505 cdbd bf1b d13d b35c ce3c 9336 8abd
000002a0: 935a f4bd ea18 393e 5fd7 483e 16ca ffbe
000002b0: 494b 40be 9343 f93c 5a38 15be cfd4 9e3c
000002c0: 1b5e f5bd 915c 1d3e 64d3 05be 293a 4e3e
000002d0: bddd 71be 6c53 583d ae7f 423e cf44 e5bd
000002e0: 1469 c6be b503 ff3d fe26 d8bd 29c3 05bd
000002f0: 1a89 c53c 6d6b 083d e180 e3bd cf79 c5bc
00000300: 08a1 b3bc e927 27be 4b16 823e 5a44 ba3d
00000310: ddfb 33bf 44bc 0b3d 367d 933d 1007 813e
00000320: b703 4b3e dcbe 9ebe 68ab 2abe aedd 58be
00000330: 8cac bd3d 5ce8 483d f265 0bbf ca32 89bd
00000340: 1ad0 87bd 5833 0dbe 4d9d d8bc 3fef b1bc
00000350: 61d3 10bf a279 b63d 2ccc 3c3e 0e95 dbbe
00000360: 6d45 ae3d 3f5d bc3a c281 05be 12c3 08be
00000370: b852 83bc 2b9b 323e 31f6 d03d ddc5 18be
00000380: 151c 963d 16aa b6be fed4 b63d 197a 93be
00000390: 38af ad3d 529d 9b3e 309a 9dbe 525e fb3d
000003a0: 4e64 f0bd e5d3 503d 6ca6 81ba e51e 51bd
000003b0: 4f78 a7be 9e83 c63e bca0 953d bba0 743e
000003c0: 2283 60bf 2012 9c3d fb7b 1abe e468 d8be
000003d0: ce28 f9bc 376b 83bd b14c 22be 32c5 5dbe
000003e0: 7eb3 273e 051a e4bd b08d d73d 29ae cebc
000003f0: 7260 1d3e 09f2 f23c bd6f d9be ac44 2a3e
-0.19148915 0.18364108 0.2532368 -0.41297272 -0.21812621 -0.11075271 -0.120772764 0.14293627
0.24471153 -0.06435731 -0.25292403 -0.025698956 -0.008034946 -0.29379928 -0.2506271 0.11630575
0.19705938 0.09813472 -0.3344669 0.13966869 0.06915385 0.0630716 0.08077844 0.11189341
-0.27380916 0.19955905 -0.29446945 0.33673877 0.16235885 0.03362154 -0.4945627 -0.026490193
0.015425911 -0.061978675 -0.25344312 -0.032576676 0.11783078 -0.6141398 0.056865323 0.27577385
0.10974441 -0.14153007 0.18493654 -0.09053355 -0.37420946 0.20884284 -0.12840322 -0.04475488
0.068620704 -0.16083995 -0.42630917 0.11678579 0.18864278 -0.004235849 0.034799453 0.066992596
-0.122024976 0.009953444 0.20714079 -0.1033008 0.118109405 0.29618043 -0.34836248 -0.1789925
-0.19558826 -0.10991995 -0.13813227 0.027448744 -0.3199707 -0.3538197 0.024249697 -0.18944299
0.15548322 -0.2326415 -0.51670325 0.06406834 -0.18191321 -0.28541484 -0.39492032 -0.2664657
0.2141313 0.044830147 0.11790145 -0.37346274 -0.2977336 -0.21632846 0.25735405 -0.39142188
0.09488911 -0.029582499 0.052638613 -0.18165842 0.24583125 0.047893256 0.20945044 -0.74037254
-0.07770361 0.04359959 -0.24708852 -0.0011967483 -0.5537594 0.1278256 -0.026774071 -0.063997105
-0.21884073 -0.15125994 -0.00022315726 -0.046157904 0.23256919 0.12797998 0.123842075 -0.24445482
-0.0211487 0.011646955 0.021172732 -0.5349132 0.26030344 -0.5641241 -0.5286205 -0.19399637
0.026854537 0.27080554 0.031787526 0.11244212 0.08945194 -0.13232337 -0.1340374 -0.006455715
-0.033302393 0.011178154 -0.06697857 -0.09115852 -0.3742798 0.25106242 -0.02573307 -0.039091278
-0.1001898 0.10419972 0.10177808 0.070687026 -0.12650737 -0.08995999 0.0935695 0.13575268
-0.13013062 -0.057861164 -0.023663478 0.020586196 -0.13633227 0.18405104 0.16885705 -0.35887644
-0.9674275 0.025080223 -0.5299713 -0.46805486 0.007971108 0.102452084 0.006945641 -0.3862061
-0.007828877 -0.011270404 0.027485857 -0.13691205 -0.10010902 0.1021037 0.025190687 -0.067486905
-0.11931338 0.1807591 0.19613408 -0.49958867 -0.18778719 0.03042773 -0.14572278 0.019388584
-0.1198084 0.15367343 -0.1306892 0.20139374 -0.23619743 0.052813932 0.18994018 -0.11194765
-0.38752043 0.12451879 -0.10554312 -0.032656822 0.024113227 0.033305574 -0.11108566 -0.024105934
-0.021927372 -0.16323818 0.25407633 0.09095068 -0.7030619 0.03411509 0.072016165 0.252007
0.19825636 -0.3100499 -0.16666949 -0.21178314 0.09261426 0.04904972 -0.5445243 -0.0669914
-0.06631489 -0.13789117 -0.026442194 -0.021720527 -0.5657254 0.08909918 0.1843726 -0.42887157
0.08509336 0.0014371051 -0.1303778 -0.13355663 -0.016030654 0.17442004 0.10203207 -0.14919229
0.07329575 -0.3567664 0.08927344 -0.2880409 0.08480686 0.30393463 -0.30781698 0.122738495
-0.117378816 0.05098333 -0.0009891517 -0.051054854 -0.32708976 0.3877229 0.07306048 0.23889439
-0.8770009 0.076206446 -0.15086357 -0.42267525 -0.030414965 -0.06416934 -0.15849568 -0.21657255
0.16377065 -0.11137775 0.105250716 -0.02522953 0.15368822 0.029656427 -0.42468062 0.16627759

policy_net.6.bias f4 [64]
00000000: d1c6 fe3c bdea 493e 69c2 47be 3d7f 8bbd
00000010: 6238 94be 9c86 353e 0b29 46bd fd92 1fbd
00000020: 0df4 84bd 6d6c f53d b622 873e 7528 acbc
00000030: 8a15 5b3e 01b2 8b3d 5a66 7b3e 878e 233e
00000040: 058e abbd 7e2a 9a39 032d d13d 6abb 2d3d
00000050: feb5 1e3c 842c 683e 1fc2 94bc 473e 903c
00000060: e051 903d c205 283e d02c 643e e4c0 3b3d
00000070: 553c 4b3e 2b90 d33d 7696 1d3e 28c7 073e
00000080: 8d57 01be 4a69 5d3e f1aa 983d 86cb b13d
00000090: ab50 033e f358 283d 2048 0a3e 56fd 72be
000000a0: 62a3 1b3e 1ea0 9dbd 03e9 fc3d 6ccf 1fbe
000000b0: 2cbc 743e 3a62 993e f282 60bd 6600 873d
000000c0: a09d 833c 31f9 c5bd 5282 4dbe 9b31 643e
000000d0: 6182 10be 3353 9db9 e4f5 803d 54b9 abbd
000000e0: 0d1d b63e fce9 9e3d 4116 f83d ae6b 11be
000000f0: b52d e03d 9050 313e 6863 f6bc bf44 a63d
0.031100662 0.19718452 -0.19507755 -0.06811378 -0.28949267 0.1772713 -0.048378985 -0.03895854
-0.064918615 0.11983571 0.2639367 -0.021015385 0.21394935 0.06821061 0.24550763 0.15972339
-0.083766975 0.00029404828 0.102136634 0.04241506 0.009686945 0.22673231 -0.01815897 0.017607821
0.070468664 0.16408446 0.2228272 0.04583825 0.19847234 0.10330232 0.15389428 0.13259566
-0.12631054 0.21622196 0.074544795 0.08681397 0.12823741 0.041100454 0.13504076 -0.23729452
0.15199044 -0.076965556 0.12349131 -0.15606469 0.23899907 0.29957753 -0.05481238 0.06591873
0.016066372 -0.0966667 -0.20069245 0.22284548 -0.14112236 -0.00030007362 0.062969 -0.08384958
0.3556904 0.07759473 0.121136196 -0.14201233 0.10946218 0.17315888 -0.030076697 0.08118581

policy_net.8.weight f4 [4, 64]
00000000: 2502 c5bd 5a79 243d d4a9 b9be 5822 3c3e
00000010: 9aaf 623e e086 573e 636a b13c dc83 c5bd
00000020: 15b2 5fbe 9bc8 963d 5e53 883d 69c6 403e
00000030: 9ebd 7ebd 9823 963e 6260 943c 227f f83d
00000040: edc5 e5bc d4aa a5bc 9159 eabd 73fb 063e
00000050: fc6e 3d3e 2472 173e 4461 2c3d 651a 843d
00000060: 87f3 40be f6cb 04be 1042 653d def1 283e
00000070: 286e 64bd 0585 d0bd 86d3 bdbd 48fd c3bb
00000080: 493d 00bc d9d5 643d 6dd2 0dbd 5a6f b8bd
00000090: f9ac f83d 2b17 173e fd8b 83bc 43f5 6c3d
000000a0: 55a7 0b3e 10d0 65be 3555 0d3e 1fbe 37bd
000000b0: 00af 47bd 453a 83bd e6ad 0a3e 4966 373d
000000c0: 6937 013c e1b7 9c3d 1bcc d4bd 3e22 563d
000000d0: 65a5 343e 133c a93d c910 e2bd c595 51be
000000e0: d832 2fbe 1ec1 d93d 7c5f 613d 88c2 473c
000000f0: 4e24 0d3e 9499 85bd c058 033b d367 cabc
00000100: b0ac 353d ffa4 e63c a2e8 903e 7f71 b3bc
00000110: 030a 893e 274b 4b3e 5124 c1bd a007 06be
00000120: d6de 7a3e 40a2 933d af27 a9bc 0838 ccbc
00000130: 3280 293d db19 fc3d fa90 983d 5746 62be
00000140: 7c11 023c 3b96 05be 9476 27be 66b2 bebd
00000150: d9bd 1c3e 25bd a73d 7d6a 85bd f6cf bf3d
00000160: e35b b1bd cb11 8fbd b669 83bb 766b 923d
00000170: 4631 98bd 3110 2bbe ef18 0dbe 101c 233d
00000180: 3ca6 e63d d32e 433e cd3b 05be 1052 cc3b
00000190: e390 dcbd 0c55 563e 0a79 823d 103f 3f3e
000001a0: 59e6 123e 1bc0 0dbe d18f 163e 1fa5 0bbc
000001b0: c37f 05be e97d 5bbd e6f1 95bd 2d2b 993c
000001c0: a8fb 3b3d 332f 0cbe ed4f da3c eac8 a1bd
000001d0: 3db6 573e 81cd 6c3e e466 8abd b69b 113d
000001e0: 50ee 2abe 4934 adbd d7fe a8bd ced3 a4be
000001f0: f1f9 2a3e 9a39 d1bc 0ea1 693e 8e67 823d
00000200: 9000 09bb 3f82 e03b 2fcf fcbd d9ff 68bd
00000210: 0432 9fbe 17be 05be 19c2 90be d240 063e
00000220: 84fb 823e aba4 ed3d 80c5 37be 899f 3bbc
00000230: d620 5d3e 3527 5dbd 6b20 45be 819d 68bc
00000240: 3fa4 b6bd 3489 d6bd 454b b6bb e850 afbd
00000250: 7498 a2be 0b8d 68bc 1dda d0bd f2f0 85bd
00000260: 6a37 233e 8727 4b3e 7976 313e 2bbb c03d
00000270: 3b81 003e d98f 9e3e 2789 ecbb 1335 b63d
00000280: 3cec 48be 4694 39bd 391c b5bc 066a f5bd
00000290: a7c9 593e 2ff2 b6bd fced 373d ef6f a4be
000002a0: 6054 dcbe adb1 b0bc 2b7c f03c cec6 873e
000002b0: 5d25 4e3e e677 8b3e 8837 b1be 4e8c 9d3d
000002c0: 6f1a 533e 9331 6fbd 6426 b7bc 5af4 fe3c
000002d0: 22b1 983e 2f01 dcbc c765 943c 6b8e b23d
000002e0: 1e20 973e 4c24 b13c 6026 aebb 353c 6f3c
000002f0: 411d a9be f45a 083e 0924 aabd f259 773e
00000300: 09c9 46be fe16 43be 25a4 e6bd 9c49 a0bc
00000310: 9576 5b3d d464 f1bb aa66 ce3d 057c c1bc
00000320: 8557 aabd 8fad 203e 002d 423d 6db5 2f3c
00000330: 8729 4e3d 92a2 873d 7434 373e 25aa 21bd
00000340: d7b8 47be b69e ec3d 3b68 603c eee3 273d
00000350: a7ca 9ebd 7cea d1ba 4ac8 b3bd c4f2 41bc
00000360: a5b5 efbc fd85 d4bc 88e6 73bd 5b9e 19bd
00000370: 83e0 a3bd 0dbc 47bd 83db 483d d202 383a
00000380: 9122 193e f25c 903c a464 af3d ac7d dcbc
00000390: fe45 213e 839a d0bd 3f88 f7bd 96f4 5d3d
000003a0: 13f9 183e 035c 463c e98d 8ebd 05da 48bd
000003b0: 9660 63bc 297c 82bd 31d6 a83c 58c4 9fbd
000003c0: c2aa d6bb 0c09 81bc 1c03 28be 2ba8 09be
000003d0: c676 593d 19e0 853e c0ab c83d 3811 6f3d
000003e0: 04a4 14be 92df c53c e123 7d3d 5127 16be
000003f0: eda4 b33d 18e9 13be 852f a1be 1535 bd3d
-0.0961955 0.040154792 -0.3626238 0.18372476 0.22137299 0.21047544 0.021657174 -0.09644291
-0.21845277 0.07362481 0.06656526 0.18825687 -0.06219255 0.2932403 0.018112365 0.12133624
-0.02804848 -0.020223059 -0.11442865 0.13181858 0.18499368 0.14789635 0.042084947 0.06450347
-0.18842898 -0.1296843 0.055971205 0.16498515 -0.055769116 -0.101816215 -0.092688605 -0.005981121
-0.0078271115 0.055868004 -0.034624506 -0.090056136 0.12142367 0.14754932 -0.016057963 0.057851087
0.13638051 -0.22442651 0.13802035 -0.044859048 -0.048750877 -0.064075984 0.135429 0.04477528
0.007886746 0.076522596 -0.103904925 0.05227875 0.17641218 0.082634114 -0.11038358 -0.20467289
-0.17109239 0.10632537 0.0550227 0.012192376 0.1378338 -0.06523433 0.0020041913 -0.02470771
0.04435414 0.028154848 0.28302485 -0.021904705 0.2676545 0.19852887 -0.09430755 -0.13088846
0.24499068 0.07208681 -0.020648805 -0.024929062 0.041382022 0.12309619 0.07449527 -0.22097145
0.007938739 -0.1304559 -0.16353828 -0.093113706 0.15306796 0.08190373 -0.06514452 0.09365837
-0.08660104 -0.069858156 -0.0040104045 0.07149403 -0.07431273 -0.16705395 -0.13779043 0.039821684
0.112621754 0.19060831 -0.13011093 0.0062353685 -0.107698224 0.2093088 0.063707426 0.186764
0.14345683 -0.13842814 0.14703299 -0.008523255 -0.13037018 -0.053586874 -0.07321529 0.018697346
0.045894295 -0.1368988 0.02664944 -0.078996494 0.21065612 0.23125269 -0.06757906 0.03554889
-0.16692472 -0.08457238 -0.08251732 -0.32192844 0.16696908 -0.025540162 0.22815344 0.06367408
-0.0020904876 0.006851464 -0.12344205 -0.05688462 -0.31092846 -0.13060795 -0.28273085 0.13110664
0.25582516 0.116036735 -0.17946434 -0.01145161 0.21594557 -0.05399247 -0.19250648 -0.014197708
-0.08918046 -0.10475388 -0.005563172 -0.085603535 -0.31756938 -0.0141937835 -0.10197852 -0.06540097
0.15939108 0.19839297 0.1733035 0.094106995 0.12549298 0.30969122 -0.0072184983 0.08896842
-0.19621366 -0.04530742 -0.022108184 -0.11983113 0.2126833 -0.089329116 0.044904694 -0.3211665
-0.43033123 -0.021569097 0.029356083 0.26518863 0.2013144 0.27239913 -0.3461268 0.076927766
0.20615552 -0.058396887 -0.022357173 0.031122375 0.29822642 -0.026856033 0.018114937 0.0871857
0.2951669 0.021623753 -0.0053146333 0.014601757 -0.3303013 0.13315946 -0.083076544 0.24155405
-0.19412626 -0.1905174 -0.11261777 -0.01956635 0.053579886 -0.007366756 0.10078175 -0.023618707
-0.08317474 0.15691207 0.047406197 0.010724408 0.050332572 0.06622805 0.17891103 -0.039468903
-0.19504105 0.11553709 0.0136967255 0.040988855 -0.077534966 -0.0016015316 -0.087784365 -0.011837665
-0.02926142 -0.025942797 -0.059546024 -0.037504535 -0.080018066 -0.048763324 0.049037468 0.0007019463
0.14954592 0.017622445 0.085641176 -0.026915394 0.15749356 -0.10185721 -0.12086534 0.054188333
0.14938764 0.012106898 -0.06960661 -0.049036045 -0.013878008 -0.06371338 0.020609947 -0.078011215
-0.0065511176 -0.015751384 -0.16407436 -0.13443057 0.053091787 0.26147535 0.09798384 0.05836603
-0.14515692 0.024154458 0.061801795 -0.14663436 0.087716915 -0.14444387 -0.31481567 0.0923864

policy_net.8.bias f4 [4]
00000000: b4b0 933d 2c55 75bd 9dc2 a43d 15be 223e
0.07211438 -0.05989568 0.08044932 0.15892823

inverse_net.0.weight f4 [64, 48]
00000000: 226e fd3c 8b40 1c3f 3a90 a5be d395 903e
00000010: 1ad0 f3bd b753 e83d 7352 3ebe fbf6 6b3e
00000020: dde8 b93d 7b14 8b3e 9657 4fbe 749f 21be
00000030: 4bb7 2cbe 8097 3cbd 3353 09bd a792 1d3e
00000040: 8d3d b2bd ad7a 2dbd 5196 9d3d c9c0 ac3c
00000050: cb0b dcbc a5bd b6bd 5fbf 99bd e51b bbbd
00000060: cbb8 1d3e 170b 95be 0c7f acbe af21 6bbf
00000070: 80a0 323d 9125 343d b8cd 00bf ce1e cebe
00000080: 9583 0dbd b8d5 743e 8a8d fe3d 5769 babd
00000090: c682 c23d 8775 8dbe 3d77 eebc df65 af3d
000000a0: f2ee 8bbc abb9 c73d ec4d 5b3d 572d ed3d
000000b0: 2c61 b53d 0331 e8bc 1b32 01be 1595 293d
000000c0: 1f7e 813c cfdc 4b3f c3f0 e43e 99d9 253e
000000d0: 2798 e23d a223 0fbd 212a dfbc 3d2e 3abb
000000e0: 0998 1a3c 3fbd 003e e214 9c3d acf3 a6bd
000000f0: 92dc 1cbc 259a 38bd b865 8cbd b7a0 543c
00000100: cd85 03bd 1e65 cabd eba0 2abb 7238 b03d
00000110: edae fdbd c96a b03d 7bb8 26be 83f6 5c3e
00000120: 8788 a1bd 44fd cebf f29c e3be 501e a83f
00000130: f9ca 5f3d 241e 83bd 4ea5 9d3c ef95 1bbd
00000140: c48f 05bd c149 383e 2274 3d40 09eb d03c
00000150: 0bc4 43bd 34b5 953b fabd b03d 7bb1 9cbd
00000160: 7df1 68bd fd80 883c cc47 21bd e6bb 80bd
00000170: 2071 66bd 606b 27be 2e3d c83d e157 2bbd
00000180: de99 bc3e 0f6f 70bf 505a 9d3e 1e1e 123d
00000190: a03e 6bbe eda3 1f3e 2f4e 87be 8e82 b6bd
000001a0: fa53 fc3b a3f3 41bd 77be 79be e8a2 113e
000001b0: dad8 8abe 7600 ba3d 2dd0 b93d a826 2dbd
000001c0: 47ba 1e3b 23bd c7bc dfd0 9fbd de4d 7dbd
000001d0: bacc efbd 04d5 1bbe 1f56 dfbd 1c84 37bd
000001e0: dbd4 923e f11d 203f f2ad 41be 7de4 f0bf
000001f0: f268 dbbe c8c9 aabe 44ad e7be ae9a 2ebe
00000200: a6ed bebd 6f29 26bd 4200 953d 8b3b 1b3e
00000210: 5024 ccbd c34f 2ebc 3e07 2cbe 88ff a23d
00000220: 6383 963d 5d52 edbd 86c8 dcbd 2543 1fbe
00000230: 6d51 b13c 8200 46be 3a6e 0ebe be0e 953d
00000240: 8667 1bbd c63a d33f 7b51 613e 0355 a3be
00000250: 5e87 273e 8559 debe 1dc3 4fbe 96c2 a9bd
00000260: c0b6 26bd a6b3 d53d 689c a1be 9d32 94bd
00000270: 3c7d 4a3c f1e7 013e 668a 7abd 771e 85bd
00000280: 9f0c 02be d5c9 dcba 8232 c13d 3750 993c
00000290: 1410 50bd 1177 e23d 7735 283e 030b 15bd
000002a0: 2c6e e1bc 1756 4ebd 421f 973f e5d3 bdbe
000002b0: b3e1 383e 5e25 153f b50d cdbd e208 afbe
000002c0: 805e 08be 9286 313d 1f58 733d cb6d a63d
000002d0: 899c 3c3e 03a8 0f3c ae7d f1bd c039 fcbd
000002e0: 38ab b4bd a862 ddbd 1524 59bd 3892 063d
000002f0: b713 e5bd 1910 0b3e d0c0 5f3e dfbc 92bd
00000300: 875d a7be 2560 8fbe d90f a3bf ee88 6e3f
00000310: 3f2b 073e 4bf4 53be 7271 903e 342c 3dbe
00000320: 12de 823d 0962 06be 88a1 a9bd a663 e73d
00000330: e045 cebd 7305 8abd 4e6d 88bc d8a2 323c
00000340: 6dcd 01be dca1 363d ada8 07be c1e5 663d
00000350: c321 abb9 62cf 35be a733 1cbe 5c38 e93d
00000360: c584 20bf 8e40 0bc0 357c 653c b2d0 9cbf
00000370: 89be 643d 8e7f b13e e924 c33e 67dd b73e
00000380: 9e76 85bd 101b 6ebe 80f0 b0bd 7a04 d5bc
00000390: db43 0bbe 3c6f 9b3c bbe4 12bd 7642 453c
000003a0: 0977 d0bd 2691 f8bd d63c 8e3d c61d 27bc
000003b0: b56f babd 9979 ddbd 3d3b 92bd ef62 683d
000003c0: 6646 58bd db72 c7bd 890f 2bbf 3a9e 8fbf
000003d0: 01d9 bbbd 9af6 a13e e623 123e 93ed 533e
000003e0: cc18 49bd 57f9 9cbe 7035 f9be 337d babe
000003f0: 7ad5 b63d 5183 eabd 936d 843d 41f6 433c
0.030936304 0.61035985 -0.323366 0.28239307 -0.119049266 0.11344092 -0.1858614 0.23043434
0.09077618 0.27164063 -0.20248255 -0.15783483 -0.16866796 -0.04604292 -0.03352661 0.15387975
-0.08703146 -0.04235332 0.07694686 0.02108802 -0.026861092 -0.089228906 -0.07507204 -0.0913618
0.15402524 -0.29110023 -0.3369068 -0.9184827 0.043610096 0.04398114 -0.503139 -0.40257877
-0.034549315 0.23909652 0.1242934 -0.09102123 0.09497599 -0.2762873 -0.029109592 0.08564352
-0.017081711 0.0975221 0.05354111 0.115809135 0.08856425 -0.028343683 -0.1261677 0.04140194
0.01580721 0.796338 0.44714937 0.16196288 0.11064177 -0.03494609 -0.027241768 -0.0028408908
0.009435662 0.12572192 0.076211706 -0.081519455 -0.009574072 -0.04506888 -0.06855339 0.0129777705
-0.032110024 -0.09882568 -0.0026035856 0.08604516 -0.1238688 0.08614118 -0.16281311 0.21578412
-0.07887369 -1.617104 -0.44455677 1.3134251 0.05463693 -0.06402233 0.019243862 -0.037984785
-0.03260781 0.17996885 2.9602132 0.025502698 -0.047794383 0.0045687202 0.08629985 -0.07651039
-0.056870926 0.016663069 -0.03937511 -0.06285839 -0.05626023 -0.16349554 0.09777294 -0.041831855
0.3683614 -0.9391946 0.30732965 0.035673253 -0.22973108 0.15589876 -0.26426837 -0.0891162
0.0077004405 -0.04735149 -0.24389063 0.142223 -0.2711857 0.09082119 0.090729095 -0.042273194
0.0024219917 -0.02438218 -0.07803511 -0.061841838 -0.1170897 -0.15217978 -0.10905098 -0.044803724
0.2867802 0.62545687 -0.18914011 -1.8819729 -0.42853504 -0.33357072 -0.4524938 -0.17051193
-0.093226716 -0.040566858 0.0727544 0.15159433 -0.099678636 -0.010639134 -0.16799638 0.07958895
0.07349279 -0.11587975 -0.10780434 -0.15552957 0.021645272 -0.19336131 -0.13909236 0.072782025
-0.037940525 1.6502311 0.22003739 -0.31900796 0.16360232 -0.43427673 -0.20289274 -0.082890674
-0.040701628 0.10434656 -0.3156464 -0.07236216 0.01235896 0.12686135 -0.061167143 -0.06499951
-0.12700127 -0.0016844819 0.09433462 0.018715007 -0.050796583 0.11057866 0.16426645 -0.036387455
-0.027518354 -0.05037507 1.1806414 -0.37075725 0.18054847 0.5826014 -0.1001238 -0.34186465
-0.13317299 0.043341227 0.05941021 0.0812641 0.18419088 0.008768084 -0.117915496 -0.123157024
-0.0882172 -0.10809833 -0.053012926 0.03285429 -0.11185401 0.1358036 0.21850896 -0.071649306
-0.32688543 -0.2800304 -1.2739211 0.9317769 0.13200091 -0.20698659 0.28211552 -0.18473893
0.06390013 -0.13123335 -0.08282763 0.11298303 -0.10071921 -0.067393206 -0.016653683 0.010903083
-0.1267602 0.044587955 -0.13247938 0.056371454 -0.00032640816 -0.17754892 -0.15254079 0.11387703
-0.6270259 -2.175815 0.014006664 -1.2251189 0.05584577 0.3466763 0.38114098 0.35911104
-0.06516765 -0.23252511 -0.08639622 -0.026003111 -0.13600104 0.01897394 -0.035862666 0.012039771
-0.10178954 -0.1213706 0.06945197 -0.01019997 -0.09103338 -0.108142085 -0.07140205 0.056734975
-0.052801512 -0.09738704 -0.6682058 -1.1220162 -0.091722496 0.31633455 0.14271507 0.20696096
-0.049095914 -0.3065898 -0.48673582 -0.36423644 0.08927436 -0.11450828 0.06466212 0.011960567

inverse_net.0.bias f4 [64]
00000000: 2e58 73bd 681a 393e 9d3a 203e 8f98 70bd
00000010: 5fa5 d13d 4666 9abd 8492 80bc 4dc2 e7bd
00000020: 8693 22be 50e6 a93d cd56 e6bd 4bf3 a43d
00000030: 103a 93bd 729e 0dbe f8ab 1c3c 0e1e 40be
00000040: eba5 1dbe 67d1 623e dd95 d63c 3749 64bd
00000050: 0703 8b3d 8f27 173e 088d d8bd 070e 553b
00000060: 468f 17bc da48 01bd 644a 96bd 1481 8dbd
00000070: c9b7 9ebc 3ee5 e2bd 590a 63be 5ef4 1cbe
00000080: e107 63bd 3770 9e3d 5ed2 bbbd 3738 57be
00000090: 16f5 02be 93f6 c3bc 84d9 fbbd 7dd2 93bd
000000a0: 5dbe 8b3d cf80 d3bc a574 fd3c 704f 2f3e
000000b0: b2a8 d43d 7bfc d2bc 7c68 c23c c1e8 8dbd
000000c0: 66bb 52bc fa9f a2ba 066b 7e3d 1a02 00be
000000d0: 2096 073d 3d5f 5fbe 6850 13be bc40 cf3d
000000e0: 2e4b e9bc bd7d 49bd 05e9 f1bd 9a2d fe3d
000000f0: 5bfd 643d 8c00 93bd 91f0 e83d a453 153a
-0.059410267 0.1807648 0.15647359 -0.05873924 0.1023662 -0.07539038 -0.015694864 -0.11316357
-0.15876588 0.08295882 -0.11247025 0.08054217 -0.07188809 -0.13829973 0.009562485 -0.18761465
-0.15395324 0.22150193 0.026194507 -0.055733886 0.06787687 0.14761184 -0.105737746 0.0032509582
-0.009250468 -0.031563617 -0.07338408 -0.06909385 -0.019374745 -0.11078881 -0.22171916 -0.15327594
-0.055427436 0.07736247 -0.09170984 -0.21017538 -0.12788805 -0.023921287 -0.12297347 -0.07217882
0.06823418 -0.025818257 0.03093941 0.17120147 0.103837386 -0.025755158 0.023731463 -0.0692916
-0.012862062 -0.0012407296 0.062113784 -0.12500802 0.033102155 -0.21813674 -0.14386141 0.10119769
-0.028478231 -0.04919218 -0.11812023 0.124110416 0.05590568 -0.07177839 0.113740094 0.00056963624
