IL/Model/model_reacher_53.pt (torch, 292527 bytes, 20 tensors)

policy_net.0.weight f4 [64, 24]
0	0xbefd6e63	-0.4949828
1	0xbfaf0fee	-1.3676736
2	0x3e988f80	0.29796982
3	0x3e017f97	0.12646328
4	0x3e92d93b	0.2868136
5	0xbe4cc436	-0.19996724
6	0x3eb184e4	0.346717
7	0xbd6c549c	-0.057697877
8	0x3e3328ef	0.17496084
9	0x3db489cb	0.088153444
10	0x3cc1c8b3	0.023655271
11	0x3b6500d9	0.0034943132
12	0xbdd63aac	-0.104604095
13	0xbd15e5ff	-0.036596294
14	0x3eb67017	0.35632393
15	0x3e2a036b	0.16602866
16	0x3e84753f	0.25870702
17	0x3dcafc41	0.09911395
18	0xbea6560a	-0.32487518
19	0xbf1e2a5f	-0.61783403
20	0xbef74235	-0.482927
21	0xbd8bc87a	-0.06825347
22	0x3e6181cf	0.22022174
23	0x3ce82e3d	0.02834236
24	0x3db8ed12	0.090295926
25	0xbf5d025e	-0.8633174
26	0xbe116cd3	-0.1420167
27	0x3eaf19a6	0.34199256
28	0x3e8abe14	0.27098143
29	0x3e7679d0	0.24069905
30	0x3f83a056	1.0283306
31	0xbebd0367	-0.36916658
32	0xbdbf0b33	-0.09328308
33	0xbeb11d3d	-0.3459262
34	0x3ea85bd2	0.32882553
35	0x3c72a5c6	0.014810031
36	0xbcba814f	-0.022766737
37	0xbea3f685	-0.32024017
38	0xbd2ed0d7	-0.042679634
39	0xbdfaf0e3	-0.12252977
40	0xbe1dc229	-0.15406097
41	0xbe8b92e9	-0.2726052
42	0xbeb11268	-0.34584355
43	0xbe40f482	-0.18843272
44	0xbe99c53b	-0.30033287
45	0x3e18fffd	0.14941402
46	0xbdae0ca7	-0.08498507
47	0xbdeb8fb3	-0.11502018
48	0x3e01f2c5	0.12690265
49	0x3f5af01a	0.85522616
50	0xbed64174	-0.41846812
51	0x40001743	2.0014198
52	0xbd45bdd5	-0.04827674
53	0xbd50df11	-0.050993983
54	0x3c244d19	0.010028147
55	0x3dc13aab	0.09435018
56	0x3f0a22d2	0.5395938
57	0xbd9e0ecf	-0.07717668
58	0x3de7ec3a	0.113243535
59	0xbd7a262b	-0.061071556
60	0x3ed5dafa	0.41768628
61	0x3eb9c2e1	0.36281493
62	0xbd5ce024	-0.053924695
63	0xbdf325e1	-0.11872459
64	0xbde2cc79	-0.11074156
65	0xbe5a862a	-0.21340242
66	0x3cffda5d	0.031232053
67	0x3c8c3273	0.0171139
68	0x3d6270ba	0.055283286
69	0x3e3db456	0.18525824
70	0xbe01a405	-0.12660225
71	0xbe732861	-0.23745872
72	0x3eeb5e53	0.459704
73	0x3f318aaf	0.6935224
74	0xbee2258e	-0.44169277
75	0xbfb95e9f	-1.4482001
76	0x3eb5ac18	0.3548286
77	0x3e38fb5b	0.18064635
78	0x3eac2bb0	0.3362708
79	0x3dcd2d83	0.10018446
80	0xbda2e3ba	-0.07953592
81	0x3e093897	0.13400494
82	0xbe03732a	-0.128369
83	0xbf2ae327	-0.66752857
84	0xbd63dfd6	-0.05563339
85	0xbb489634	-0.0030607106
86	0x3c5aca67	0.013353921
87	0xbd75a89b	-0.059975248
88	0xbdc1d969	-0.09465296
89	0xbd4e5a4f	-0.050379094
90	0xbdf400f7	-0.119142465
91	0xbecb8324	-0.3974849
92	0xbdeb79db	-0.114978515
93	0xbe829211	-0.25502065
94	0xbdbf2482	-0.09333135
95	0x3dc31e7b	0.09527298
96	0xbdc88a62	-0.097920194
97	0x3e51ac00	0.20475769
98	0xbe38eade	-0.18058345
99	0x3ea33f9c	0.31884468
100	0xba03a6d9	-0.00050221157
101	0x3e1fed13	0.1561778
102	0x3d753c76	0.059872113
103	0x3db6b528	0.089212716
104	0xbbe4d8ae	-0.006983838
105	0xbe404e63	-0.18779902
106	0xbe439c0c	-0.19102496
107	0x3f02bca5	0.510691
108	0xbf1cce2d	-0.612521
109	0x3bd8537b	0.0066017485
110	0x3e566c2c	0.20939702
111	0x3e14bbd9	0.14524783
112	0x3ec1135b	0.3771008
113	0x3ea343b8	0.31887603
114	0x3e310705	0.17287834
115	0x3e8036b7	0.25041744
116	0xbdb58c21	-0.08864618
117	0xbe4387e6	-0.1909481
118	0xbe3a8c35	-0.18217547
119	0xbd8da3a7	-0.0691598
120	0xbeca7dda	-0.39549142
121	0xbf11098e	-0.56655204
122	0x3ec0c303	0.37648782
123	0xbff49520	-1.9108009
124	0xbe3b93d1	-0.18318106
125	0xbe1f3da4	-0.15550858
126	0x3e9681fc	0.29396045
127	0xbe62008d	-0.22070523
128	0xbf5889c6	-0.84585226
129	0x3e82e207	0.2556307
130	0xbe94948d	-0.29019585
131	0xbdc88b86	-0.09792237
132	0xbd6634f4	-0.056202844
133	0xbe5eb5f4	-0.21749097
134	0x3e20b010	0.15692163
135	0x3e25debc	0.16198248
136	0x3e4d6597	0.20058285
137	0x3e163c4e	0.14671442
138	0x3e9a545e	0.30142492
139	0x3ea6ad70	0.32554197
140	0x3e1881ef	0.14893316
141	0x3d88b036	0.066742346
142	0xbe0a4188	-0.1350156
143	0x3d3507f0	0.044197023
144	0xbea06231	-0.31324914
145	0x405c3de4	3.4412775
146	0x3e3df989	0.18552221
147	0xbf2f228b	-0.68412083
148	0xbebe3ff8	-0.3715818
149	0x3ed75d8f	0.42063567
150	0xbeef6c4c	-0.4676231
151	0x3e5fae8c	0.21843928
152	0x3e1e3655	0.15450414
153	0xbcd80074	-0.026367404
154	0x3e849dec	0.25901735
155	0xbe070f00	-0.13189316
156	0x3d8fefd0	0.070281625
157	0x3e05ddd9	0.1307291
158	0x3d870d74	0.06594363
159	0xbe04d48f	-0.1297171
160	0x3e30022b	0.17188327
161	0x3e5d6641	0.21621038
162	0x3d2b3ea0	0.04180777
163	0x3e9b6d7e	0.30356973
164	0x3e3e1b51	0.18565108
165	0xbdfa8a79	-0.12233443
166	0xbeb7b282	-0.35878378
167	0xbe3617e9	-0.17782559
168	0xbc896dc8	-0.01677598
169	0x3efba1a6	0.49146765
170	0x3f31eed8	0.6950507
171	0x3fc21aa9	1.5164386
172	0xbe3ac5ae	-0.18239471
173	0x3e8122bf	0.25221822
174	0x3e260616	0.16213259
175	0xbe16f877	-0.1474322
176	0x3e162eaf	0.14666246
177	0xbec13a8c	-0.3773998
178	0x3c6bec69	0.014399626
179	0x3ea573b1	0.32314828
180	0xbe8bf84e	-0.2733788
181	0xbc868e35	-0.016425231
182	0xbe55813c	-0.2085008
183	0xbd3055ff	-0.043050762
184	0xbe0859e3	-0.13315539
185	0x3e281148	0.16412842
186	0xbd55ca17	-0.05219468
187	0xbd5ea60a	-0.054357566
188	0x3e086232	0.13318709
189	0xbe5ec01d	-0.21752973
190	0x3c5092da	0.012730325
191	0x3daca5b2	0.084300414
192	0x3f623b19	0.88371426
193	0x3e0f3124	0.1398359
194	0xbf056fc8	-0.5212369
195	0xbef0eae2	-0.470542
196	0xbdd70b1f	-0.10500168
197	0x3e80df1f	0.25170228
198	0xbe70ea85	-0.23526962
199	0x3e26b7ae	0.16281006
200	0x3d86cee2	0.065824285
201	0x3e9f3977	0.3109853
202	0xbcdd06cd	-0.026980782
203	0x3dc5fa16	0.09666841
204	0x3d84da8a	0.064869955
205	0x3dd3caef	0.10341441
206	0xbe423006	-0.18963632
207	0xbd5aab79	-0.053386185
208	0xbdd470ca	-0.10373075
209	0xbe566f54	-0.20940906
210	0x3da5f989	0.08104236
211	0xbdfa5d54	-0.12224832
212	0x3cd398bd	0.025829667
213	0x3dc75329	0.097326584
214	0xbd8251ee	-0.06363283
215	0x3e5d9ddf	0.21642254
216	0x3e731858	0.23739755
217	0x3fc0148b	1.5006269
218	0x3e45063b	0.19240658
219	0xbfc134f0	-1.509428
220	0xbed1ce6c	-0.409778
221	0x3e87a3b2	0.26492077
222	0xbe19f68d	-0.15035458
223	0x3db1add1	0.08675731
224	0x3d323da6	0.043515824
225	0x3edaf1af	0.42762515
226	0x3f02f264	0.5115111
227	0xbe7f4ef0	-0.24932456
228	0xbe0d8f7e	-0.13824269
229	0xbe98300c	-0.29724157
230	0x3ea1e232	0.31617886
231	0x3e6ca940	0.23111439
232	0x3e49e909	0.19717802
233	0x3d7915e4	0.060811892
234	0x3e1429a2	0.14469007
235	0xbe6d0fc3	-0.23150544
236	0xbed3ff6b	-0.41405806
237	0xbe9908de	-0.29889578
238	0xbdb70ad9	-0.08937616
239	0x3d693fa2	0.05694545
240	0x3f1a81c0	0.6035423
241	0x3fe37900	1.7771301
242	0x3eacea42	0.33772475
243	0xbf822534	-1.0167603
244	0x3e92fadf	0.28707024
245	0x3e4891e4	0.19586903
246	0xbf0cc7cd	-0.5499237
247	0xbd075250	-0.033037484
248	0xbe85657d	-0.26053992
249	0x3effb3a3	0.4994174
250	0x3eaebc3f	0.34127995
251	0xbd282fa3	-0.041061055
252	0x3e326560	0.17421484
253	0x3e5d2c1e	0.2159886
254	0xbeccd891	-0.40008977
255	0xbed63570	-0.41837645

policy_net.0.bias f4 [64]
0	0xbdb0abf4	-0.086265475
1	0xbdaf81ed	-0.08569703
2	0xbe813545	-0.25235954
3	0xbc677251	-0.014126376
4	0x3e096bf0	0.13420081
5	0xbe831ca7	-0.25607798
6	0x3df71d41	0.120661266
7	0xbc6e4182	-0.0145419855
8	0x3e25fa9f	0.16208886
9	0x3e29a17f	0.16565512
10	0xbddbb2eb	-0.10727485
11	0x3d1c833f	0.038211104
12	0xbea1a26d	-0.31569234
13	0xbea7b67b	-0.3275641
14	0x3e8471d2	0.25868088
15	0x3db8b9ac	0.09019789
16	0x3e126628	0.14296782
17	0x3e8b0a8d	0.27156487
18	0x3dbbfb84	0.09178832
19	0xbe1b1948	-0.15146363
20	0x3d1f1c13	0.038845133
21	0xbcedbfb2	-0.029022072
22	0xbe585433	-0.2112587
23	0x3dada7d2	0.08479275
24	0xbd1e782f	-0.038688835
25	0x3cac6f1e	0.021049079
26	0x3e63dc28	0.22251952
27	0x3d5d46e7	0.054022696
28	0x3e30eed7	0.1727861
29	0x3d0c70cf	0.03428727
30	0xbdf235aa	-0.11826642
31	0xbdb4d957	-0.08830517
32	0x3dc54c8d	0.096337415
33	0x3e7cac37	0.2467507
34	0xbdd81e6b	-0.10552677
35	0xbd9ebd12	-0.07750906
36	0xbccc3d58	-0.024931595
37	0x3cd1252c	0.02553042
38	0xbe076e47	-0.13225661
39	0x3e63c8b0	0.22244525
40	0x3dc5a367	0.09650307
41	0xbe8b7fd2	-0.27245957
42	0x3d4a8b09	0.049449
43	0xbb09dfd9	-0.0021037965
44	0xbe3c233a	-0.18372813
45	0xbe5e2e0b	-0.21697251
46	0x3e90219c	0.28150642
47	0xbc6f5cb1	-0.014609502
48	0xbb6c5aa9	-0.003606478
49	0x3e26803b	0.16259854
50	0x3e1c7d70	0.15282226
51	0xbca11b48	-0.019666329
52	0x3e14c76b	0.14529197
53	0x3e771d2f	0.24132226
54	0x3d0b48f9	0.03400514
55	0x3e894a82	0.26814657
56	0xbe4e034a	-0.20118442
57	0xbaca682d	-0.0015442424
58	0xbe0731c2	-0.13202575
59	0x3e282bae	0.16422912
60	0x3e4fc79d	0.2029099
61	0xbe65e1e3	-0.2244945
62	0xbe1f239d	-0.15540929
63	0xbd4bd869	-0.04976693

policy_net.2.weight f4 [128, 64]
0	0xbe5743bb	-0.21021931
1	0x3db6f333	0.08933105
2	0xbea71135	-0.32630315
3	0xbe62405c	-0.22094864
4	0x3da00b9e	0.07814716
5	0x3e947cb9	0.29001406
6	0x3d2d5d78	0.042325467
7	0x3e576a5a	0.21036664
8	0x3dc2fd6a	0.09520991
9	0x3dcd3522	0.100199
10	0xbd80c760	-0.06288028
11	0xbf068ad5	-0.5255559
12	0x3e401c3b	0.18760769
13	0xbdb21979	-0.08696265
14	0x3e45e2a9	0.19324745
15	0x3ef0af43	0.47008714
16	0xbe7134ad	-0.2355525
17	0xbc9c326a	-0.019067008
18	0xbe1e71d0	-0.15473104
19	0x3c40d603	0.011769774
20	0xbe0ffbdc	-0.1406092
21	0xbe147d22	-0.1450086
22	0x3e44e832	0.192292
23	0x3eba03b9	0.36330965
24	0x3e43649d	0.1908135
25	0xbeba09ff	-0.3633575
26	0xbebf141c	-0.3732003
27	0x3f04e258	0.51907873
28	0x3d2b7162	0.041856177
29	0x3e1d290e	0.15347692
30	0xbf0cbaa5	-0.54972297
31	0xbe03fae0	-0.1288867
32	0xbea05664	-0.3131591
33	0x3d8c8f2f	0.068632476
34	0xbde4eac4	-0.111775905
35	0xbe1b2cf3	-0.15153866
36	0x3e023f8c	0.12719554
37	0x3e6191a7	0.22028218
38	0xbe949de3	-0.29026708
39	0xbe87b865	-0.2650787
40	0x3d743da6	0.059629105
41	0xbf3a2e5d	-0.72726995
42	0xbe380028	-0.1796881
43	0x3f698a1c	0.91226363
44	0xbe0615a6	-0.13094196
45	0x3dc5d5e6	0.096599385
46	0x3d667951	0.05626804
47	0x3c50ce61	0.012744517
48	0x3dc5db31	0.09660948
49	0xbf0b2343	-0.5435068
50	0xbd5502ec	-0.05200474
51	0x3db43a0d	0.08800135
52	0xbd89b1a1	-0.06723333
53	0xbe8f87c6	-0.28033274
54	0x3e8adb5b	0.2712048
55	0x3b9bc8a8	0.0047541447
56	0xbdcf112f	-0.101106994
57	0x3d13774e	0.03600245
58	0x3e88c94d	0.2671608
59	0x3db3add7	0.08773392
60	0xbe476a4b	-0.19474141
61	0xbe088e4a	-0.13335529
62	0x3df1cdbd	0.118068196
63	0x3d2f73c7	0.042835023
64	0xbf00fd6e	-0.50386703
65	0x3ea232bf	0.3167934
66	0x3e6a452f	0.22877954
67	0x3e13a650	0.14418912
68	0xbfe43447	-1.7828454
69	0xba8eb625	-0.0010888024
70	0x3e565cb7	0.20933805
71	0xbf0be39d	-0.54644185
72	0x3cb80fdc	0.0224685
73	0x3c30fc2c	0.01080231
74	0xbcfdb865	-0.030971715
75	0xbde66215	-0.112491764
76	0x3e27d9f4	0.16391736
77	0x3e420091	0.18945529
78	0x3daa1cac	0.0830625
79	0x3dddbf7e	0.1082754
80	0xbe2ceff6	-0.16888413
81	0x3df3933d	0.11893318
82	0x3e4eafde	0.20184276
83	0xbe80dba0	-0.2516756
84	0x3dbebbe9	0.09313185
85	0x3e36c9be	0.17850396
86	0xbe6c87b7	-0.23098646
87	0xbf385639	-0.72006565
88	0xbda6afe0	-0.08139014
89	0x3d72950e	0.05922418
90	0x3e906a6d	0.28206196
91	0x3e9f4622	0.31108195
92	0x3daf56b3	0.085614584
93	0xbd1ed667	-0.03877869
94	0x3d345300	0.044024467
95	0xbbaf018d	-0.005340761
96	0xbf07979d	-0.5296572
97	0xbe2a7038	-0.1664437
98	0xbd5b75ba	-0.05357907
99	0x3e189249	0.14899553
100	0x3e56b9e5	0.2096935
101	0x3ec2b908	0.38031793
102	0xbcf35528	-0.029703692
103	0xbea4ee38	-0.32212996
104	0xbefe9b53	-0.49727878
105	0xbda55ec0	-0.08074713
106	0x3c827456	0.015924614
107	0xbf16654c	-0.58748317
108	0x3e47c0bc	0.19507116
109	0x3dfc5d60	0.12322497
110	0x3d5ea097	0.05435237
111	0x3e112110	0.14172769
112	0x3ee53341	0.44765666
113	0x3e011523	0.1260572
114	0xbeed1d9d	-0.46311656
115	0xbd6da0a5	-0.05801453
116	0x3ec629a2	0.38703638
117	0xbebf3283	-0.37343225
118	0x3d15deca	0.03658942
119	0x3db2ae7d	0.08724687
120	0xbc8abdcf	-0.01693621
121	0xbe816ab6	-0.25276726
122	0xbe0a95e4	-0.13533741
123	0xbc0fe068	-0.00878153
124	0x3e53d365	0.2068611
125	0x3e29ae48	0.1657039
126	0xbd950f30	-0.072782874
127	0x3d452a9f	0.04813635
128	0xbe3734cb	-0.17891233
129	0xbdd73c6b	-0.10509571
130	0xbed5fcf4	-0.4179455
131	0x3e828971	0.25495484
132	0x3de86cfb	0.113489114
133	0x3ec22bc4	0.37924016
134	0x3dba47cf	0.09095728
135	0x3db1264c	0.08649883
136	0x3dcf5bbe	0.1012492
137	0x3e537f42	0.20654014
138	0x3d3b8eb4	0.04579039
139	0xb90dfccd	-0.00013540983
140	0xbe526310	-0.20545602
141	0xbf3dfae0	-0.7421093
142	0xbdd0ea58	-0.102009475
143	0xbeb17ac0	-0.34663963
144	0xbe54fb2f	-0.20798944
145	0x3e790413	0.2431796
146	0x3f026b93	0.50945395
147	0xbe85dca1	-0.2614489
148	0x3ddb0f30	0.10696256
149	0xbd52108c	-0.05128531
150	0xbd94c8e8	-0.07264882
151	0xbeccfe29	-0.4003766
152	0xbe84f3d5	-0.2596728
153	0x3ee0b918	0.43891215
154	0xbc25a11b	-0.010109211
155	0x3dba49d5	0.090961136
156	0x3ea9d844	0.3317281
157	0xbe2f7b09	-0.17136778
158	0xbe019744	-0.1265536
159	0x3e61edc4	0.22063357
160	0x3e47580c	0.19467181
161	0xbcc7ab03	-0.024373537
162	0xbe9d9cff	-0.3078384
163	0x3de80d57	0.113306694
164	0xbd0f4c85	-0.034985084
165	0xbf070a60	-0.52750206
166	0x3e859da8	0.26096845
167	0x3f0953a9	0.5364328
168	0x3d9ae5ae	0.07563339
169	0xbf0faab6	-0.5611986
170	0xbe3d6914	-0.18497115
171	0xbdc7a9c0	-0.09749174
172	0xbe350eb8	-0.17681396
173	0x3e06fc4c	0.13182181
174	0xbcf91bbc	-0.030408733
175	0x3df562a6	0.11981706
176	0xbd8e81bd	-0.06958339
177	0x3dd795c5	0.10526613
178	0x3e6a5b70	0.22886443
179	0xbeb64400	-0.35598755
180	0x3e6e5671	0.23275162
181	0xbdd30988	-0.10304552
182	0xbe245ae5	-0.16050299
183	0x3e1dc6df	0.15407895
184	0xbf05c072	-0.52246773
185	0xbe12fb5a	-0.14353696
186	0xbf35999d	-0.7093752
187	0x3e034cd1	0.12822272
188	0x3e871add	0.26387683
189	0xbeb91946	-0.36152095
190	0xbdf60e9f	-0.120145075
191	0xbef9ad64	-0.487651
192	0xbee5b8fa	-0.44867688
193	0x3eb66954	0.35627234
194	0xbef58259	-0.4795101
195	0xbd391c4d	-0.045193005
196	0xbe4eb442	-0.2018595
197	0xbd4b102a	-0.049575962
198	0xbede08cd	-0.4336609
199	0x3dce0ef8	0.10061449
200	0x3d8e94d0	0.069619775
201	0x3ed3f06e	0.4139437
202	0x3e9b9b62	0.30391985
203	0xbe52c4c6	-0.20582876
204	0xbe5f91b5	-0.21832927
205	0x3cfaa27b	0.030595055
206	0x3db7874c	0.08961353
207	0xbd69f0c6	-0.057114385
208	0x3d27c0cf	0.04095536
209	0x3e3ec7b2	0.18630865
210	0xbe00bb4a	-0.12571445
211	0xbf13f2d1	-0.57792383
212	0x3e0bd3e4	0.13655049
213	0xbdc37749	-0.09544236
214	0xbc2e1565	-0.010625218
215	0xbe1155e6	-0.14192924
216	0xbed3f21b	-0.4139565
217	0x3e28e309	0.16492857
218	0xbe088706	-0.13332757
219	0xbe022afc	-0.1271171
220	0xbe8d27b9	-0.27569368
221	0xbcb76e21	-0.02239138
222	0xbe83abcc	-0.25717008
223	0xbf127013	-0.5720226
224	0x3f0f9e87	0.5610127
225	0x3e4eee21	0.20208026
226	0xbdc1c47e	-0.09461306
227	0x3e209e15	0.15685304
228	0xbe552c6e	-0.2081773
229	0xbc6dbeb0	-0.0145107955
230	0x3e927308	0.28603387
231	0xbeeebbeb	-0.46627745
232	0xbd2f43fc	-0.042789444
233	0xbef8a9a5	-0.48566929
234	0x3d9f69ca	0.077838495
235	0xbef25182	-0.4732781
236	0xbdd4d8fa	-0.103929475
237	0xbf653172	-0.8952857
238	0xbf0c31e6	-0.5476364
239	0x3e3567b6	0.17715344
240	0xbf0c2cc4	-0.54755807
241	0xbe82f60c	-0.25578344
242	0x3f0feefd	0.5622404
243	0xbf01e11e	-0.50734127
244	0x3e983a07	0.2973177
245	0x3ea571c4	0.3231336
246	0x3e97d17f	0.2965202
247	0x3ee4c3c0	0.44680595
248	0xbe81b387	-0.2533228
249	0xbeafc4c5	-0.3432981
250	0xbe2e068a	-0.16994682
251	0xbefa0c32	-0.4883743
252	0xbec0ce36	-0.37657326
253	0xbdfcc4b5	-0.123422064
254	0x3d40ec52	0.047100373
255	0x3e6d6ef4	0.23186857

policy_net.2.bias f4 [128]
0	0x3d9f1a06	0.077686355
1	0xbdb8e094	-0.0902721
2	0x3e210da5	0.15727861
3	0x3cbee262	0.023301307
4	0xbb37721c	-0.0027991598
5	0x3da6169b	0.081097804
6	0xbd0dcd14	-0.034619406
7	0xbda717d2	-0.0815884
8	0x3d1d02d9	0.038332794
9	0x3e12ade3	0.14324145
10	0xbe5391f8	-0.20661151
11	0x3bd33d6d	0.0064465315
12	0xbd8d9a3c	-0.069141835
13	0xbe0f1eb9	-0.13976564
14	0x3dd32f63	0.10311773
15	0x3d9b9bf7	0.07598107
16	0x3d8ba54b	0.068186365
17	0xbe80571a	-0.25066453
18	0x3db51afd	0.08843038
19	0x3e44ce89	0.19219412
20	0xbe83ff31	-0.25780633
21	0x3c5d5478	0.013508908
22	0xbe363bb4	-0.17796212
23	0xbdde148e	-0.10843764
24	0xbbb9ef36	-0.005674268
25	0xbde0186c	-0.10942158
26	0x3d1181b5	0.03552409
27	0x3c85b48e	0.016321447
28	0xbb506d50	-0.0031803437
29	0xbcb9d3ee	-0.022684064
30	0xbd5b7626	-0.053579472
31	0xbdab9cf9	-0.083795495
32	0x3b9b4c5a	0.0047393264
33	0x3cc70d30	0.02429828
34	0xbe674c20	-0.22587633
35	0xbe6b03ac	-0.2295062
36	0xbe40c7cf	-0.18826221
37	0x3e476a18	0.19474065
38	0x3e9dfcf9	0.30857065
39	0x3e13fd3d	0.14452071
40	0xbdebf1c1	-0.1152072
41	0xbe8f6d0a	-0.28012878
42	0x3d86e62d	0.06586871
43	0x3d7c1c3b	0.06155036
44	0xbe6208a5	-0.2207361
45	0xbdb40632	-0.08790244
46	0x3cfc3582	0.030787233
47	0x3c6fd100	0.014637232
48	0x3e21295c	0.15738434
49	0xbe82c6c4	-0.2554227
50	0xbe8646c0	-0.26225853
51	0x3e5deb93	0.21671896
52	0xbdade371	-0.08490647
53	0x3e35a1a0	0.17737436
54	0x3bfe0352	0.0077518607
55	0x3a93ca1c	0.0011275443
56	0x3e0b062f	0.13576578
57	0x3cb496bc	0.022044532
58	0x3bc999a2	0.0061523477
59	0x3bebd66c	0.007197192
60	0xbe299c18	-0.16563451
61	0xbdc2ed9b	-0.09517976
62	0x3dfda9a0	0.12385869
63	0xbe5407f8	-0.20706165
64	0xbdf80f7c	-0.121123284
65	0xbd69d6cd	-0.057089616
66	0xbdb57b0a	-0.088613585
67	0xbe2d5cae	-0.16929886
68	0x3d31de82	0.04342509
69	0x3cccd477	0.025003655
70	0xbe3d7ee6	-0.18505439
71	0xbe1ff6ee	-0.1562154
72	0x3e196a1f	0.14981888
73	0xbc484791	-0.012224094
74	0x3e35acb7	0.17741667
75	0x3e340e6f	0.17583631
76	0xbbae7b2c	-0.005324742
77	0xbdf28340	-0.1184144
78	0x3dd2afc5	0.10287432
79	0x3cc8642e	0.024461832
80	0xbbdb68d4	-0.006695846
81	0xbcf763bb	-0.030198922
82	0xbbe44dc6	-0.006967279
83	0x3d2190dc	0.03944479
84	0x3ca7b013	0.0204697
85	0xbd34692a	-0.044045605
86	0x3c43daa0	0.01195398
87	0xbb24e635	-0.0025161628
88	0x3e12d0e7	0.14337502
89	0x3e53b688	0.20675099
90	0x3d875718	0.06608409
91	0xbc77271c	-0.015085008
92	0xbe53b39e	-0.20673987
93	0x3c8f71a3	0.01751024
94	0xbda70671	-0.081555255
95	0xbdb66afa	-0.08907123
96	0xbe305051	-0.17218138
97	0xbe2b5e3d	-0.16735168
98	0xbe20f624	-0.15718895
99	0xbeb165c8	-0.34647965
100	0x3d210629	0.039312515
101	0xbde70a40	-0.11281252
102	0xbd63a52a	-0.055577435
103	0x3d3834a6	0.044972084
104	0xbcd56607	-0.026049627
105	0xbe5ced7f	-0.21574973
106	0x3c13e282	0.009026172
107	0x3d1ec8dc	0.038765773
108	0xbe62d1d9	-0.22150363
109	0x3d238a67	0.039926913
110	0xbdf8e304	-0.12152675
111	0x3b56889b	0.0032735232
112	0xbdbf67ce	-0.09345971
113	0x3d92965a	0.071575835
114	0x3ce2fa0a	0.027707119
115	0xbd66e6ef	-0.05637258
116	0xbd9300c7	-0.07177883
117	0x3df1a39c	0.11798784
118	0xbe70bb48	-0.23508942
119	0xbdeab908	-0.11461073
120	0x3d374411	0.044742648
121	0x3d880716	0.066419765
122	0xbe39f820	-0.18161058
123	0x3e9faace	0.31185
124	0xbd991398	-0.0747444
125	0x3d10e096	0.03537043
126	0x3e0907e9	0.13381924
127	0xbbae7676	-0.0053241802

policy_net.4.weight f4 [128, 128]
0	0xbdded1e2	-0.10879876
1	0x3db88c14	0.09011093
2	0x3deaaad1	0.11458362
3	0x3c17e763	0.0092714755
4	0xbc2286f5	-0.009919872
5	0x3e4f78e2	0.20260957
6	0xbce04739	-0.027377712
7	0x3e9ec447	0.31009123
8	0xbf022133	-0.5083191
9	0x3d5510fe	0.05201816
10	0xbe3f1c5c	-0.18663162
11	0x3da3692f	0.079790466
12	0x3ba56d78	0.00504845
13	0x3d94f2af	0.07272851
14	0x3f0a7fe9	0.54101425
15	0xbeca329c	-0.39491737
16	0xbe80f06a	-0.2518342
17	0x3ea264ae	0.31717438
18	0x3e7cfe15	0.247063
19	0xbeeac1ae	-0.4585089
20	0x3ec9122e	0.39271683
21	0xbd2b6a7e	-0.041849606
22	0x3e5b49e0	0.214149
23	0xbe404808	-0.18777478
24	0xbcaf4481	-0.02139497
25	0xbdbb1107	-0.09134107
26	0xbf465569	-0.77474076
27	0x3ed638e2	0.41840273
28	0xbc42e191	-0.0118946
29	0xbe496562	-0.1966758
30	0xbef2a1da	-0.47389108
31	0xbe8a9d08	-0.2707293
32	0x3d6d31b3	0.057908725
33	0xbc531e56	-0.012885651
34	0x3eca03e5	0.39456096
35	0xbf1f016c	-0.62111545
36	0xbd3add02	-0.045620926
37	0xbe9ad7a6	-0.30242652
38	0xbe8011e1	-0.2501364
39	0xbdcd803d	-0.10034225
40	0x3e875f2d	0.264398
41	0x3ca78fcf	0.020454315
42	0x3e2aaf3d	0.1666841
43	0x3e0db827	0.1383978
44	0xbe9e9031	-0.30969384
45	0xbf94a56e	-1.1612985
46	0xbe50b4ae	-0.20381424
47	0xbebbc395	-0.36672655
48	0x3e84c253	0.25929508
49	0x3f12d831	0.5736113
50	0x3ea252f5	0.31703916
51	0x3e536b7d	0.20646472
52	0x3eacd882	0.33758932
53	0xbe9689b6	-0.2940194
54	0xbebc4490	-0.3677106
55	0xbd966ceb	-0.07344993
56	0xbd4e35c4	-0.050344244
57	0xbf054310	-0.52055454
58	0xbebe1a09	-0.37129238
59	0xbe3625e9	-0.17787899
60	0x3e138cf9	0.14409246
61	0x3e911f8e	0.28344387
62	0xbf7be692	-0.983987
63	0xbcd66e98	-0.026175782
64	0xbdceab5e	-0.100912794
65	0x3e4dd9bb	0.20102589
66	0xbe6811f0	-0.22663093
67	0x3d1bfe51	0.038084332
68	0xbe20c905	-0.15701683
69	0xbec42845	-0.38311973
70	0xbe987d4b	-0.2978309
71	0xbeaac688	-0.33354592
72	0xbe5a17d5	-0.21298154
73	0xbda3f4b6	-0.08005659
74	0xbdbe6860	-0.09297252
75	0xbe2382ce	-0.15967867
76	0xbe14d0d7	-0.14532791
77	0xbddf22d9	-0.108953185
78	0x3ea23a7b	0.31685242
79	0xbea3a6de	-0.31963247
80	0x3ea01580	0.31266403
81	0x3e4a3262	0.19745782
82	0x3e937c6d	0.28805867
83	0xbd89979d	-0.06718371
84	0xbeb6388a	-0.3559001
85	0x3ebe19d4	0.3712908
86	0xbde9c6e0	-0.114148855
87	0x3eb57b7f	0.35445783
88	0xbb82fca9	-0.0039974046
89	0xbeebd45e	-0.4606046
90	0x3dd1ec1e	0.10250114
91	0xbe0e3dfa	-0.1389083
92	0xbba90ef8	-0.005159255
93	0x3eae1230	0.3399825
94	0xbe8ee57d	-0.2790946
95	0x3eef0427	0.46682855
96	0xbe6e6403	-0.23280339
97	0x3e684157	0.22681175
98	0xbdf2002a	-0.118164375
99	0xbe0c688d	-0.13711758
100	0x3dfa5f81	0.12225247
101	0x3cce13aa	0.02515586
102	0xbe042caa	-0.12907663
103	0x3e9ea995	0.30988756
104	0xbd7e97cf	-0.062156495
105	0xbea55e15	-0.3229834
106	0x3eaae058	0.33374286
107	0x3e154b8d	0.14579602
108	0x3e116f1e	0.14202544
109	0xbebfa814	-0.3743292
110	0xbb86a182	-0.0041086087
111	0xbde6eea5	-0.112759866
112	0xbe84cae1	-0.25936034
113	0x3de0c0b9	0.10974259
114	0xbe864a62	-0.26228625
115	0xbed0d0c2	-0.4078427
116	0xbd70ac29	-0.058757935
117	0xbe982e7f	-0.29722974
118	0x3df1c89d	0.11805842
119	0x3d89d348	0.06729752
120	0x3e715012	0.235657
121	0xbe6ebe32	-0.23314741
122	0xbef743b9	-0.48293856
123	0xbee6423b	-0.44972405
124	0x3d93a48a	0.07209118
125	0x3edf4880	0.4361
126	0x3d5e9216	0.054338537
127	0xbcdde4f6	-0.027086716
128	0x3d65f145	0.056138296
129	0xbdce3994	-0.10069576
130	0xbf59cf86	-0.8508228
131	0xbe8dcc00	-0.27694702
132	0xbeadddfe	-0.3395843
133	0xba728e1c	-0.00092527433
134	0xbdd3cbc4	-0.103415996
135	0x3df3ad01	0.11898232
136	0xbeafdf86	-0.34350222
137	0xbf22a9b2	-0.63540184
138	0xbe321a32	-0.17392805
139	0x3db335c8	0.08750492
140	0xbf07f15b	-0.53102654
141	0xbd011e49	-0.031523023
142	0x3f112316	0.5669416
143	0x3e49481f	0.19656418
144	0xbf1cd26c	-0.6125858
145	0x3dcc225f	0.09967493
146	0xbe5b4bbb	-0.21415608
147	0x3d07211d	0.032990564
148	0xbe7b9071	-0.24566819
149	0xbee2cb2a	-0.44295627
150	0xbe2aa51d	-0.16664548
151	0xbdb459fc	-0.08806226
152	0xbe8f0257	-0.27931473
153	0x3d00922f	0.03138941
154	0xbdf5820b	-0.11987694
155	0xbf10c38b	-0.56548375
156	0xbe614724	-0.21999794
157	0x3de2035a	0.110357955
158	0xbdf7f839	-0.121078916
159	0x3e185bff	0.14878844
160	0xbdbaca1d	-0.09120581
161	0xbd27374b	-0.040824216
162	0xbd2d8e56	-0.04237207
163	0xbf6227d3	-0.88342017
164	0xbd84a0f5	-0.064760126
165	0xbda2c467	-0.07947617
166	0x3d96cdaf	0.0736345
167	0x3e99c8ae	0.3003592
168	0x3e4d7fd5	0.20068295
169	0xbe993804	-0.2992555
170	0x3d96c3d6	0.073615715
171	0xbdc22c42	-0.09481098
172	0xbe2d426c	-0.16919869
173	0xbf075985	-0.5287097
174	0xbd97e204	-0.07416156
175	0xbe5ef92b	-0.21774738
176	0xbf384e36	-0.7199434
177	0x3e5286a2	0.20559171
178	0x3ed45d60	0.4147749
179	0xbf62bd68	-0.8857026
180	0xbe56a5ed	-0.20961733
181	0x3c6229b3	0.013803887
182	0xbe10d23c	-0.14142698
183	0x3ec3a0b1	0.38208535
184	0x3e67d78f	0.22640823
185	0xbc532be0	-0.012888879
186	0x3de082ed	0.10962472
187	0x3d0044c9	0.0313156
188	0xbf5909aa	-0.8478037
189	0xbea15f03	-0.315178
190	0xbe476f23	-0.19475989
191	0xbe82c7ec	-0.25543153
192	0xbf098d9f	-0.5373172
193	0x3b2efd6f	0.002670135
194	0x3d4113a5	0.047137875
195	0x3e0da59c	0.13832706
196	0xbe284b0b	-0.16434877
197	0xbed17009	-0.4090579
198	0xbee02530	-0.43778372
199	0x3dba68db	0.09102031
200	0xbea8b63f	-0.32951543
201	0x3b91830e	0.0044406718
202	0xbe15ab97	-0.14616238
203	0x3ea54e6b	0.3228639
204	0x3e4cbefa	0.19994727
205	0x3d9494f5	0.07254974
206	0xbd93c8b4	-0.072160155
207	0x3e96c6fc	0.29448688
208	0xbe66d708	-0.22542965
209	0xbe9637c4	-0.2933942
210	0xbeb512b9	-0.35365847
211	0x3e8a8dc3	0.2706128
212	0xbeb4724e	-0.35243458
213	0x3c078e57	0.008273683
214	0xbc38f2e7	-0.011288381
215	0x3e9123bc	0.28347576
216	0xbe951fa7	-0.2912571
217	0xbb578afd	-0.003288924
218	0xbe43d478	-0.19124019
219	0x3d8c6fdf	0.06857275
220	0x3e930773	0.2871662
221	0xbead9e11	-0.33909658
222	0x3e2484db	0.16066305
223	0xbf052181	-0.5200425
224	0xbefcb3b5	-0.49355856
225	0xbef00bcb	-0.46883997
226	0x3eddb59c	0.4330262
227	0xbdb50239	-0.088383146
228	0xbeddfdd9	-0.43357733
229	0x3da389cf	0.07985269
230	0x3d350ef2	0.044203706
231	0xbdac97fc	-0.08427426
232	0x3e763a44	0.24045664
233	0x3e15b677	0.14620386
234	0x3e93e453	0.28885135
235	0xbdbb7fa6	-0.091552064
236	0x3e40df1d	0.18835111
237	0x3e772eba	0.24138919
238	0xbebf09e3	-0.3731223
239	0xbdfac7b6	-0.12245123
240	0xbda405a6	-0.0800889
241	0xbead0483	-0.33792505
242	0x3e8dcd75	0.27695814
243	0x3ea273a5	0.31728855
244	0xbe903c54	-0.28171027
245	0x3dd59295	0.10428349
246	0x3d98e417	0.0746538
247	0xbdc278cb	-0.09495696
248	0x3d2c8945	0.042123098
249	0x3c9dcd0f	0.019262819
250	0x3e40b080	0.1881733
251	0xbe83936b	-0.25698408
252	0xbe2b79c9	-0.16745676
253	0xbe3f373d	-0.18673415
254	0xbf2522e3	-0.6450636
255	0x3e33100a	0.17486587

policy_net.4.bias f4 [128]
0	0xbe2cd541	-0.16878225
1	0xbda4fa79	-0.08055586
2	0x3d6deb16	0.058085524
3	0xbe139083	-0.14410596
4	0xbd569f57	-0.052398052
5	0x3db64489	0.08899791
6	0xbd5d449c	-0.05402051
7	0xbde5d487	-0.11222177
8	0xbdb944c2	-0.09046318
9	0xbd93ce65	-0.07217101
10	0x3dfc3c34	0.1231617
11	0xbca46e32	-0.020072076
12	0x3d3941a0	0.0452286
13	0xbe591b7f	-0.21201895
14	0xbc9640bb	-0.018341413
15	0x3d9c9ac8	0.0764671
16	0xbb676ac0	-0.003531143
17	0xbd49dc7c	-0.049282536
18	0xbe011633	-0.12606125
19	0x3bcb78fa	0.00620949
20	0xbdef67ba	-0.11689706
21	0xbda4d880	-0.080491066
22	0xbe62e7c3	-0.22158723
23	0xbea3d9c8	-0.3200209
24	0xbe1e0f3a	-0.15435496
25	0x3e47ba90	0.19504762
26	0xbd915b9a	-0.0709755
27	0xbdb6d141	-0.08926631
28	0xbdf2a89a	-0.118485644
29	0x3e10023a	0.1406335
30	0x3ddf128b	0.10892209
31	0xbe0ee81e	-0.13955733
32	0x3ddd1c8b	0.1079646
33	0x3e39188b	0.18075769
34	0x3d6f345d	0.058399547
35	0x3c38de45	0.011283462
36	0x3d5a4dff	0.05329704
37	0x3e18b367	0.14912187
38	0xbeb48e87	-0.3526499
39	0x3dd26e0d	0.10274897
40	0x3da8e14a	0.082460955
41	0xbe29c9c6	-0.16580877
42	0x3d141ef5	0.036162335
43	0x3df328dc	0.11873028
44	0xbe0f8e99	-0.1401924
45	0x3e0efe2c	0.13964146
46	0x3e1a36af	0.15059923
47	0xbd6240a5	-0.05523743
48	0xbaf49001	-0.0018658639
49	0xbe509287	-0.20368396
50	0xbd9f71df	-0.07785391
51	0x3e4c0c4f	0.1992657
52	0xbe9fccde	-0.3121099
53	0x3da601b6	0.08105795
54	0x3dc8eeaa	0.098111466
55	0xbe9a9908	-0.3019488
56	0xbdc50468	-0.09619981
57	0x3cd788b4	0.026310302
58	0x3dabe167	0.083926015
59	0xbcfc93c4	-0.030832179
60	0xbe5effbb	-0.21777241
61	0xbc9abea0	-0.018889725
62	0xbeb7a97b	-0.3587149
63	0x3d845a46	0.06462531
64	0xbc60e95e	-0.013727514
65	0xbc3d70d3	-0.011562544
66	0xbe881c5d	-0.2658414
67	0x3df5859d	0.11988375
68	0xbe5040aa	-0.20337167
69	0xbe7bb95b	-0.24582426
70	0xbd831db5	-0.064021505
71	0xbe9813e4	-0.29702675
72	0x3e6a7c86	0.22899064
73	0xbb8c8d6e	-0.0042893207
74	0x3e19e69c	0.15029377
75	0xbe45e9a6	-0.19327411
76	0xbe4d8cbf	-0.20073222
77	0x3e54684d	0.20742913
78	0x3e3c867e	0.1841068
79	0x3d98ac33	0.074547194
80	0xbf1a25a3	-0.6021368
81	0xbe1bc582	-0.15212062
82	0x3ec479ac	0.38374078
83	0xbe443243	-0.19159798
84	0xbdd1ca4a	-0.10243662
85	0xbca3070e	-0.019900825
86	0xbd94e41f	-0.07270073
87	0x3e43fb46	0.19138822
88	0xbeaa25dc	-0.3323201
89	0x3d9cc9c3	0.076556705
90	0xbde155eb	-0.11002716
91	0xbe4694a0	-0.19392633
92	0xbe072d86	-0.1320096
93	0xbd0ca75b	-0.03433929
94	0xbeb058b9	-0.3444269
95	0x3def0048	0.116699755
96	0xbe815caf	-0.25266024
97	0x3d32f998	0.043695062
98	0xbdde483b	-0.108536206
99	0x3da9e6b3	0.082959555
100	0x3e6e18a2	0.23251584
101	0x3dbfe70c	0.093702406
102	0x3c4a310e	0.012340797
103	0x3b03539c	0.0020038849
104	0xbe879f2a	-0.2648862
105	0x3ca53902	0.020168785
106	0x3d3e754d	0.046498585
107	0xbe99a889	-0.30011395
108	0x39b2b0cf	0.00034082538
109	0x3dc59394	0.09647289
110	0xbe0b1d6a	-0.1358544
111	0x3cbed2e2	0.023293916
112	0xbdad737e	-0.08469294
113	0x3e142f50	0.14471173
114	0x3df090ee	0.11746393
115	0x3e0f30f5	0.1398352
116	0xbd755d6c	-0.059903547
117	0x3dfac104	0.12243846
118	0xbe06642d	-0.13124152
119	0x3e879d88	0.26487374
120	0xbe413e85	-0.18871506
121	0x3e0729b5	0.13199504
122	0xbd5d2953	-0.053994488
123	0x3d8c6f60	0.068571806
124	0xbe5679f1	-0.20944954
125	0xbd1d9255	-0.03846963
126	0x3d1a557e	0.037679188
127	0xbe060156	-0.13086447

policy_net.6.weight f4 [64, 128]
0	0xbe0da6a8	-0.13833106
1	0x3e79b4f0	0.24385428
2	0x3eb26d44	0.34848988
3	0xbf092064	-0.5356505
4	0xbe2bfb53	-0.16795091
5	0xbd5b0546	-0.053471826
6	0x3e2803e1	0.1640773
7	0x3e13e651	0.14443327
8	0x3e1d9b58	0.1539129
9	0xbebb916b	-0.36634383
10	0xbe996050	-0.29956293
11	0x3d34da3c	0.044153437
12	0xbec8d2cb	-0.39223322
13	0xbed001f8	-0.40626502
14	0xbe7d9e67	-0.24767457
15	0xbde3acee	-0.11116968
16	0x3e669f0e	0.22521612
17	0xbd9c0edf	-0.07620024
18	0xbd9e8984	-0.07741073
19	0x3e6e8623	0.23293357
20	0x3e9d6baf	0.3074622
21	0xbd24f144	-0.04026915
22	0x3e696559	0.22792567
23	0x39bbc39e	0.00035813166
24	0xbeeebce8	-0.466285
25	0x3e96e567	0.29471895
26	0xbe65838e	-0.22413465
27	0x3eefbcee	0.4682383
28	0x3e16ce78	0.14727199
29	0xbe075d74	-0.13219243
30	0xbf28e304	-0.659714
31	0xbe9fb632	-0.31193691
32	0xba0ca25d	-0.000536477
33	0xbef958fd	-0.48700705
34	0xbeb801c7	-0.35938856
35	0x3b4de50c	0.003141704
36	0x3d3abca6	0.045590065
37	0xbf3bcb52	-0.7335712
38	0xbdf7714f	-0.12082159
39	0x3e6057e7	0.21908532
40	0x3ceba5a5	0.028765509
41	0xbebdae93	-0.37047252
42	0x3e1a890b	0.1509134
43	0x3e14120b	0.14460008
44	0xbeb765fb	-0.35819992
45	0x3e996ac2	0.29964262
46	0xbe2aa41f	-0.1666417
47	0xbcbafee4	-0.02282662
48	0xbdd0bc30	-0.10192144
49	0x3f0fd1ec	0.5617969
50	0xbed14c19	-0.4087837
51	0x3df8f72f	0.121565215
52	0x3e935f99	0.28783873
53	0xbd1f45ca	-0.038884915
54	0xbd109605	-0.03529932
55	0x3e1b0388	0.15138066
56	0x3df6bf24	0.12048176
57	0x3d6f42e9	0.05841342
58	0x3eea7f3f	0.45800206
59	0xbd81529d	-0.06314585
60	0x3e2b8647	0.16750441
61	0x3e42f097	0.1903709
62	0xbeb23219	-0.34803846
63	0xbcb87d99	-0.022520827
64	0xbe6090a5	-0.21930178
65	0x3df6b16f	0.120455615
66	0xbd194773	-0.037421655
67	0x3d615c5d	0.055019725
68	0xbb06e753	-0.0020584657
69	0xbec9880f	-0.39361617
70	0x3d94881f	0.072525255
71	0xbf181ab3	-0.5941574
72	0x3d49b7ac	0.04924743
73	0x3c979e7e	0.018508192
74	0xbf369d89	-0.7133413
75	0x3da029d7	0.0782048
76	0xbe58dc16	-0.21177706
77	0xbeb7f7b3	-0.35931167
78	0xbe404790	-0.18777299
79	0xbe1c36e0	-0.15255308
80	0x3d20eeb0	0.03929013
81	0x3cbafa73	0.022824502
82	0x3e9719bf	0.2951183
83	0xbe0e3783	-0.13888364
84	0xbf06e0a5	-0.5268653
85	0xbea958b0	-0.33075476
86	0x3ec7b18e	0.3900265
87	0xbebe8065	-0.37207332
88	0x3d48f670	0.049063146
89	0xbb878a32	-0.004136347
90	0x3ce288e5	0.027653167
91	0xbf0a6ef0	-0.5407553
92	0xbe6ef969	-0.2333733
93	0xbe5ed570	-0.21761107
94	0x3da41c3e	0.08013199
95	0xbf711c62	-0.94183934
96	0xbe0e21ac	-0.13880032
97	0x3d9c2d40	0.07625818
98	0xbe292d5e	-0.16521212
99	0x3dea40ec	0.11438164
100	0xbf28a72e	-0.65880096
101	0xbca87ad0	-0.020566374
102	0xbd2f18af	-0.04274815
103	0x3cc8d23c	0.02451431
104	0xbe88edf5	-0.26744047
105	0xbe3c14f3	-0.18367366
106	0x3de0e7a7	0.10981684
107	0xbdb894c3	-0.09012749
108	0x3ea7079a	0.32622987
109	0x3d9d699d	0.0768616
110	0x3d6ccc23	0.057811867
111	0xbea57599	-0.32316282
112	0xbea11215	-0.31459108
113	0xbe53eb96	-0.20695338
114	0xbda29ae8	-0.07939702
115	0xbf195d37	-0.5990786
116	0x3f11eb0b	0.5699927
117	0xbf3819e6	-0.7191452
118	0xbf244cad	-0.641795
119	0xbe3301cc	-0.17481154
120	0xbb969c32	-0.0045962567
121	0x3dd7f762	0.105452314
122	0xbe7fd60c	-0.24983996
123	0x3e7e97a7	0.24862538
124	0xbd9f7392	-0.07785715
125	0xbe96bcae	-0.29440826
126	0xbeee8168	-0.46583104
127	0xbe1c70b7	-0.15277372
128	0xbe0f0163	-0.13965373
129	0x3cd3d0d6	0.025856417
130	0xbe098f39	-0.13433541
131	0x3cdd729f	0.027032195
132	0xbda8d5ad	-0.082438804
133	0x3ead1e9a	0.3381241
134	0x3d4d8b1b	0.05018149
135	0xbe07102c	-0.13189763
136	0xbeb64c67	-0.35605165
137	0x3d72d830	0.059288204
138	0x3d69475e	0.056952827
139	0x3d7e0f4d	0.06202631
140	0xbdfaf3c2	-0.12253524
141	0xbe404144	-0.18774897
142	0x3cfb082e	0.030643549
143	0x3df37f42	0.11889507
144	0x3ed27a93	0.41109142
145	0xbe199f6e	-0.15002224
146	0x3d636bbb	0.05552266
147	0x3e4c7064	0.19964749
148	0xbdfbc846	-0.122940585
149	0x3e84026d	0.257831
150	0x3d04f6a9	0.032461796
151	0xbef9f6ef	-0.48821208
152	0xbf641a31	-0.89102465
153	0xbe123b45	-0.14280422
154	0xbf2ad6fb	-0.66734284
155	0xbf10a2a1	-0.5649815
156	0x3e4d1bd4	0.20030147
157	0xbdc49c5d	-0.096001364
158	0xbcc5befa	-0.024138916
159	0xbf105ddd	-0.56393224
160	0xbd3b3fc8	-0.045715123
161	0x3d54190d	0.051781703
162	0x3d3e456f	0.046452936
163	0xbe3be0f2	-0.18347529
164	0xbd0f74c2	-0.03502346
165	0x3d14ec27	0.036358025
166	0x3db57795	0.08860699
167	0x3dcdfa7a	0.1005754
168	0xbe41a0d8	-0.18909013
169	0x3e52b9a4	0.20578629
170	0x3d9ffd10	0.0781194
171	0xbf5a8921	-0.8536549
172	0xbebf043c	-0.37307918
173	0x3e4b5409	0.19856276
174	0xbe46bf9c	-0.1940903
175	0x3d197ad7	0.037470665
176	0xbde26829	-0.11055023
177	0xbd4d2077	-0.05007979
178	0x3cfdc225	0.030976364
179	0x3e700fd9	0.23443545
180	0xbd21a121	-0.039460305
181	0xbdde0529	-0.10840828
182	0x3dcccb5a	0.09999724
183	0x3d11eac1	0.03562427
184	0xbe656c39	-0.22404565
185	0x3e3b2e05	0.18279274
186	0xbd76d919	-0.060265634
187	0x3d5080f5	0.050904233
188	0x3d9061e6	0.07049923
189	0xbde0edaa	-0.10982831
190	0x3d8aff20	0.067869425
191	0xbda7344c	-0.08164272
192	0xbd7681b5	-0.060182292
193	0xbeb0445b	-0.3442715
194	0x3e4a12fd	0.19733806
195	0xbe7fbce6	-0.24974403
196	0xbf4ddbec	-0.804137
197	0xbe054fba	-0.13018695
198	0x3e2feecf	0.17180942
199	0x3e893c20	0.26803684
200	0x3e8965d6	0.26835507
201	0xbf1a4c29	-0.6027246
202	0xbed941fd	-0.42433158
203	0xbe3b8ec1	-0.18316175
204	0x3e522ddf	0.20525311
205	0x3df49299	0.11942024
206	0xbf0ea351	-0.5571795
207	0xbd4e2c40	-0.05033517
208	0x3d95a813	0.07307448
209	0xbd400432	-0.046879
210	0xbde60aca	-0.112325266
211	0xbe2135bf	-0.15743159
212	0xbf038932	-0.5138122
213	0x3df75172	0.12076081
214	0x3d826727	0.06367331
215	0xbef9de86	-0.48802584
216	0x3d2a2164	0.04153575
217	0x3e1ae21f	0.15125321
218	0xbe657193	-0.22406606
219	0xbe1aadd8	-0.15105379
220	0x3cd1e84c	0.025623463
221	0x3e219515	0.15779527
222	0xbbbc3cf1	-0.0057445695
223	0xbda97065	-0.08273391
224	0xbe4547eb	-0.19265716
225	0xbb7b4a7d	-0.003834396
226	0x3d2d4a36	0.0423071
227	0xbdaf869e	-0.08570598
228	0xbdc6b02f	-0.09701573
229	0x3cf47061	0.029838743
230	0xbe839e99	-0.25706938
231	0x3e2aa27f	0.1666355
232	0xbebd5f5e	-0.36986822
233	0x3e4a1395	0.19734032
234	0xbd35fab3	-0.04442854
235	0x3dbcb559	0.09214277
236	0xbe4a8576	-0.19777474
237	0x3ee79f89	0.45238903
238	0x3ca12fac	0.019676052
239	0x3e1b5d35	0.15172274
240	0xbeeaafe4	-0.4583732
241	0x3d48ac3e	0.048992388
242	0xbd11db2b	-0.035609405
243	0xbeefbf5f	-0.46825692
244	0xbd9cbacf	-0.076528184
245	0x3e4b372a	0.19845262
246	0xbea54043	-0.3227559
247	0xbf1be7d8	-0.6090064
248	0xbbf9e393	-0.007626006
249	0xbe411f41	-0.18859579
250	0x3dcdff49	0.100584574
251	0xbeb18d07	-0.34677908
252	0x3dd273ea	0.10276015
253	0xbc51cc5f	-0.0128050735
254	0xbe9dd8fb	-0.30829605
255	0x3e9ccd47	0.30625364

policy_net.6.bias f4 [64]
0	0xbd59d370	-0.05318016
1	0x3ea6f467	0.3260834
2	0xbe420e7e	-0.18950841
3	0xbe21d800	-0.15805054
4	0xbee5c30c	-0.4487537
5	0x3e862987	0.26203558
6	0xbe23e5ba	-0.16005602
7	0xbd3d3abf	-0.046198603
8	0xbc77579c	-0.015096571
9	0x3e20ee27	0.15715848
10	0x3ec46492	0.3835798
11	0xbccf093e	-0.025272962
12	0x3eaeee96	0.34166402
13	0x3e0996d7	0.13436447
14	0x3eea27e0	0.45733547
15	0x3e9bb112	0.3040853
16	0xbe10b428	-0.14131224
17	0xbe2dab88	-0.16959965
18	0x3e0be452	0.13661316
19	0x3e1c5912	0.15268353
20	0xbda6daae	-0.081471786
21	0x3e92db79	0.2868307
22	0xbcedf035	-0.029045204
23	0x3df408c9	0.11915738
24	0x3dd11f64	0.102110654
25	0x3e73c7a5	0.23806627
26	0x3ebda4ef	0.37039897
27	0xbd8de739	-0.06928868
28	0x3e8640c1	0.26221278
29	0x3e46a204	0.19397742
30	0x3e78d4f0	0.24299979
31	0x3c823da2	0.01589853
32	0xbde228f9	-0.11042971
33	0x3eb9cfa6	0.36291236
34	0x3e283498	0.16426313
35	0x3d6fd92f	0.05855673
36	0x3dbb7b3b	0.09154364
37	0x3ddd9d17	0.10820978
38	0x3e5ce7c7	0.21572791
39	0xbec5ed60	-0.38657665
40	0x3e6f2a9a	0.23356095
41	0xbda9dc3a	-0.08293958
42	0x3d10adc5	0.03532197
43	0xbe592a79	-0.21207608
44	0x3eb3d0b1	0.35120156
45	0x3ee7a540	0.45243263
46	0xbdf60d30	-0.12014234
47	0x3d188d18	0.037243932
48	0xbe666f1f	-0.22503327
49	0xbeb2c37f	-0.34914777
50	0xbe94c7a6	-0.2905857
51	0x3ecac976	0.39606827
52	0xbe9e9826	-0.30975455
53	0x3b80550f	0.00391639
54	0xbe2e1dde	-0.17003581
55	0xbe3a18cf	-0.18173526
56	0x3efabc8f	0.48971984
57	0x3dd46208	0.103702605
58	0xbbb0db64	-0.005397247
59	0xbe80f6b8	-0.2518823
60	0x3dfc7183	0.12326338
61	0x3e70e32e	0.23524162
62	0xbd98df5c	-0.074644774
63	0x3e132317	0.14368854

policy_net.8.weight f4 [4, 64]
0	0xbe099a20	-0.134377
1	0x3d32dbca	0.04366664
2	0xbeadb54f	-0.3392739
3	0x3dc78d47	0.097437434
4	0x3decfa3f	0.11571168
5	0x3dcd3bb8	0.10021156
6	0xbafa2b19	-0.001908633
7	0xbd87a17b	-0.06622597
8	0xbe1ad791	-0.15121295
9	0x3d45c9ae	0.04828804
10	0x3cfc5150	0.030800492
11	0x3e1e340c	0.15449542
12	0xbd81fe1e	-0.06347297
13	0x3e6ed647	0.23323928
14	0x3cf3adc5	0.029745946
15	0x3dc65927	0.09684973
16	0xbd01cf95	-0.031692106
17	0xbd2d6169	-0.042329226
18	0xbd5fd19e	-0.054643266
19	0x3e01c104	0.12671286
20	0x3e20ab5d	0.1569037
21	0x3dccb22a	0.099949196
22	0xbcf1d04b	-0.029518267
23	0x3d715b01	0.05892468
24	0xbdd46341	-0.10370494
25	0xbdd9c9af	-0.10634171
26	0x3d9a4488	0.075326025
27	0x3d8593b7	0.06522315
28	0xbd0944b2	-0.03351278
29	0xbe04cbaa	-0.12968317
30	0xbd1e9b78	-0.038722485
31	0xbd0a3fca	-0.03375224
32	0x3cefe2b4	0.029282905
33	0x3ccbcd28	0.0248781
34	0xbd50b96c	-0.050958082
35	0xbd829eb8	-0.063779294
36	0x3d87f80b	0.06639107
37	0x3db5e4ee	0.088815555
38	0x3ccc7717	0.02495913
39	0x3c57b8c0	0.013166606
40	0x3dafab9b	0.08577653
41	0xbe223456	-0.15840277
42	0x3d0a4320	0.03375542
43	0xbd8187ed	-0.06324754
44	0xbd26c2ba	-0.04071305
45	0xbd85e74f	-0.06538259
46	0x3dec1b1a	0.11528607
47	0x3d34b0b8	0.044113845
48	0xbd0c980e	-0.0343247
49	0x3de29b70	0.110648036
50	0xbd51ebad	-0.05125015
51	0x39fa833b	0.0004778149
52	0x3eaa9dfc	0.33323658
53	0x3cb172cf	0.02166119
54	0xbdf0f8a9	-0.11766178
55	0xbd84d873	-0.06486597
56	0xbe249dd5	-0.16075833
57	0x3d4ade2c	0.049528286
58	0x3d563f7a	0.05230663
59	0xbd885f96	-0.066588566
60	0x3e21fcfb	0.1581916
61	0xbd84ae34	-0.06478539
62	0x3c95393d	0.01821577
63	0xbca24136	-0.019806486
64	0x3d21462d	0.039373565
65	0xbc7e3c36	-0.015517285
66	0x3e9ee205	0.31031814
67	0x3a1eacbb	0.00060529605
68	0x3e2dfeb2	0.1699169
69	0x3dc56ad1	0.09639514
70	0xbbed31bb	-0.0072385943
71	0xbd4ae97b	-0.04953907
72	0x3e7cfd96	0.2470611
73	0x3cddc6e2	0.027072374
74	0xbd08d2b4	-0.033404067
75	0xbd0d213a	-0.034455515
76	0x3d9e8378	0.077399194
77	0x3db607d2	0.0888821
78	0x3cf0587a	0.029339064
79	0xbe46c1ac	-0.19409817
80	0xbc3f391d	-0.011671332
81	0xbda4e82b	-0.08052095
82	0xbdba6011	-0.091003545
83	0xbbab0632	-0.0052192444
84	0x3da8fda6	0.082515046
85	0x3d97d3ab	0.07413419
86	0xbd1ccc28	-0.038280636
87	0x3d518178	0.05114886
88	0xbd006260	-0.031343818
89	0xbda972df	-0.08273863
90	0x3d3f11a6	0.04664769
91	0x3d29a2f3	0.041415166
92	0xbd4d25f9	-0.05008504
93	0xbde46599	-0.11152191
94	0xbdf4612c	-0.119325966
95	0x3dd36a82	0.10323049
96	0x3d9ddebe	0.077085
97	0x3dede674	0.11616221
98	0xbde1aba9	-0.1101907
99	0x3ca8bed8	0.020598814
100	0x3cfbada9	0.030722456
101	0x3dbd8d97	0.09255522
102	0x3d6499a8	0.0558106
103	0x3df22559	0.1182353
104	0x3d6253f6	0.055255853
105	0xbd7a7e7f	-0.061155792
106	0x3e23fa77	0.16013514
107	0xbd9368b5	-0.07197706
108	0xbdebb21a	-0.115085796
109	0xbd4d8544	-0.05017592
110	0x3d25e06e	0.040497236
111	0x3da8995a	0.082323745
112	0x3d466f73	0.04844613
113	0xbdc51114	-0.09622398
114	0xbd05efc9	-0.03269938
115	0xbda7f1a7	-0.082003884
116	0x3e238599	0.15968932
117	0x3d899772	0.06718339
118	0xbda17ec6	-0.07885508
119	0x3b72f84f	0.0037074273
120	0xbe02020c	-0.12696093
121	0xbdffe55e	-0.1249492
122	0xbdaa4ff7	-0.08316033
123	0xbe114455	-0.14186223
124	0x3da7f688	0.08201319
125	0xbd096f7e	-0.033553593
126	0x3e2e93bd	0.17048545
127	0x3d905233	0.07046928
128	0x3da49597	0.080363445
129	0x3c68266f	0.0141693195
130	0xbadbf1cc	-0.0016780435
131	0xbdb5f5e3	-0.0888479
132	0xbe3dd6d9	-0.18538989
133	0xbd2a28fd	-0.041542996
134	0xbe27bf1a	-0.16381493
135	0x3dca0bb0	0.098655105
136	0x3d7497c4	0.059715047
137	0x3dc929ae	0.09822403
138	0xbdd08a06	-0.10182576
139	0xbd8fa49c	-0.070138186
140	0x3df51f14	0.11968818
141	0x3cea925f	0.028634248
142	0xbe29868d	-0.16555233
143	0xbc34c372	-0.011032926
144	0xbd99f539	-0.07517476
145	0xbdcc23f8	-0.09967798
146	0xbc805725	-0.015666554
147	0xbd6b3bcf	-0.057430085
148	0xbe929c1c	-0.28634727
149	0x3c8d81cb	0.017273804
150	0xbd8550b6	-0.06509535
151	0xbc0b4ca4	-0.008502159
152	0x3e000edf	0.12505673
153	0x3e06530d	0.13117619
154	0x3db0ed5d	0.086390235
155	0x3e0b2836	0.13589558
156	0x3dc0ed52	0.09420265
157	0x3d80f63a	0.06296964
158	0xbcc5ea7c	-0.024159662
159	0x3d4a4399	0.049380872
160	0xbe1938a4	-0.14963013
161	0xbd13e51f	-0.03610718
162	0xbcac3917	-0.021023316
163	0xbdb901a6	-0.090335175
164	0x3e705de5	0.23473318
165	0xbda920a7	-0.08258181
166	0x3d4f1092	0.050552912
167	0xbe95d6ed	-0.29265538
168	0xbe90a90f	-0.2825398
169	0x3d548bcc	0.051891133
170	0xbd58d775	-0.05293985
171	0x3e29ec8e	0.16594145
172	0x3e071fcc	0.13195723
173	0x3e81acbd	0.253271
174	0xbe68ac32	-0.22721937
175	0x3d956881	0.07295323
176	0x3df0b7ae	0.11753784
177	0xbcc3740d	-0.023859048
178	0xbd0d1590	-0.03444439
179	0x3d9e6632	0.07734336
180	0x3e49b2c2	0.19697097
181	0xbe037716	-0.12838396
182	0x3d3e5c80	0.046474934
183	0x3c64c165	0.0139621245
184	0x3e86f1b8	0.26356292
185	0x3cb9c8cb	0.022678753
186	0xbcee50a7	-0.029091192
187	0x3e4816b8	0.19539917
188	0xbe87bc40	-0.2651081
189	0x3dbdc74c	0.092665285
190	0xbda6d3a5	-0.08145837
191	0x3d7a4a10	0.061105788
192	0xbdaaaaf9	-0.08333392
193	0xbe0f22ff	-0.13978194
194	0x3b5ed515	0.0034001519
195	0xbd29aeea	-0.041426577
196	0x3caccf22	0.021094862
197	0xbcd77bee	-0.026304211
198	0x3d81742d	0.06320987
199	0xbc602575	-0.013680805
200	0xbd77043f	-0.060306784
201	0x3dd1e64f	0.10249006
202	0x3c8d4eb2	0.017249439
203	0xbd44cc14	-0.048046187
204	0x3d70e399	0.058810804
205	0xbd51812a	-0.05114857
206	0x3deea353	0.116522454
207	0xbd482cfa	-0.048871018
208	0xbe07f17a	-0.1327571
209	0x3d883873	0.06651392
210	0x3c34fa93	0.01104607
211	0x3ccc6d2b	0.0249544
212	0xbdbf657c	-0.093455285
213	0xbbb6eba1	-0.0055822884
214	0xbdf7fb0c	-0.1210843
215	0xbb8fe375	-0.0043911287
216	0x3b96f78a	0.0046071457
217	0x3d7ecebc	0.062208876
218	0xbc851c28	-0.016248778
219	0xbd1f96c1	-0.03896213
220	0xbd101a1a	-0.035181142
221	0xbd0691e1	-0.032853965
222	0x3c88b897	0.016689582
223	0xbc93fcc0	-0.018064857
224	0x3cbb30d1	0.022850426
225	0x3ae24b62	0.0017264897
226	0x3d1b18e5	0.03786554
227	0x3c648f0e	0.0139501225
228	0xbd4af7ae	-0.049552612
229	0x3c913278	0.01772426
230	0xbdb527be	-0.08845471
231	0x3c72a4d4	0.014809806
232	0x3d90e101	0.07074166
233	0x3d8ef8df	0.06981062
234	0x3d703210	0.058641493
235	0xbd78bfaa	-0.06072966
236	0xbd5d61cf	-0.054048356
237	0xbd3dcece	-0.046339802
238	0x39aef44d	0.00033369884
239	0xbdc37d25	-0.09545354
240	0xbd363c72	-0.04449124
241	0xbd869f03	-0.06573298
242	0xbd4e4dbd	-0.050367106
243	0xbdb9f48b	-0.09079846
244	0x3d02945e	0.031879775
245	0x3e067601	0.13130952
246	0x3cedb37e	0.029016253
247	0x3d92c90b	0.07167252
248	0xbdfee3d4	-0.124457985
249	0xbc085b2c	-0.008322518
250	0xbcac6385	-0.021043548
251	0xbda485af	-0.080333106
252	0x3d10f830	0.03539294
253	0xbdb9210e	-0.09039508
254	0xbe8c7bc5	-0.2743818
255	0x3dad93ca	0.08475454

policy_net.8.bias f4 [4]
0	0x3d8c22bf	0.06842565
1	0xbac22c8a	-0.0014814299
2	0x3ddb8f23	0.107206605
3	0x3e5801e7	0.21094476
