IL/Model/model_reacher_87.pt (torch, 292527 bytes, 20 tensors)

policy_net.0.weight f4 [64, 24]
000000 62 75 33 bf 67 22 c1 bf b8 fa b8 3e 97 1c 04 3e
       -0.70100987 -1.5088624 0.36128783 0.12901531
000010 ab a1 b8 3e 3e e6 7b be f6 30 e8 3e d0 3a 95 bd
       0.36060843 -0.24599549 0.45349854 -0.07286608
000020 a4 1c 4d 3e 7f c0 3c 3e 45 95 df 3c bc 58 31 bd
       0.20030457 0.18432806 0.027292857 -0.043297514
000030 75 66 87 bd 66 3b 5b bd 2f 15 de 3e 16 69 59 3e
       -0.06611339 -0.053523444 0.43375537 0.21231493
000040 05 12 86 3e ac 64 38 3d 6e ff ee be 5b 81 51 bf
       0.26185623 0.045017883 -0.46679252 -0.81838006
000050 d7 c4 16 bf d3 04 3a bd af 7d 8f 3e 16 dc 71 3d
       -0.58894104 -0.045414757 0.28025576 0.05904778
000060 1f bb 68 3e f6 36 87 bf 26 23 96 be fb a0 1d 3e
       0.22727631 -1.0563648 -0.2932369 0.1539344
000070 ef 04 a4 3e 1b 9e 98 3e e5 ff 9b 3f 07 c5 ca be
       0.32035014 0.29808125 1.2187468 -0.39603445
000080 be c6 c2 bd 38 2a c7 be d8 4a eb 3e 7c ce 13 3d
       -0.09510563 -0.38899398 0.4595554 0.03608559
000090 b8 93 f5 bc 7e 7f cd be 63 0f 3e bd 52 ea 00 be
       -0.029977664 -0.4013633 -0.046401393 -0.12589386
0000a0 97 12 2a be 71 cd 9b be 49 1f d5 be 54 1d 94 be
       -0.16608654 -0.30430177 -0.4162543 -0.28928626
0000b0 2c 7d c5 be 58 7b a0 3d be e3 25 be 23 83 8c bd
       -0.3857206 0.07836026 -0.16200158 -0.0686095
0000c0 a1 fb 07 3e bb d7 76 3f e6 1e 11 bf 06 16 1f 40
       0.13279583 0.9642293 -0.5668777 2.4857192
0000d0 9a 26 88 bd 4d 32 45 be 48 69 b4 bc 2f 60 c0 3d
       -0.06647988 -0.1925747 -0.022022858 0.093933456
0000e0 56 1a 3c 3f ff 94 c0 bd 9d e1 10 3e 52 99 d0 bd
       0.73477685 -0.09403419 0.14148565 -0.101854935
0000f0 b4 8f 0d 3f 46 24 f2 3e 64 70 05 be 63 a4 40 be
       0.552974 0.472933 -0.13031155 -0.18812709
000100 dc ae 2d be 82 a3 86 be 9c 8e 7c 3b 46 ef ff 3c
       -0.16961235 -0.26296622 0.003853715 0.031242024
000110 0a d5 b5 3d 68 5d 53 3e 6a d3 18 be d7 4f 87 be
       0.088785246 0.206411 -0.14924398 -0.264281
000120 12 12 0b 3f d6 e7 51 3f fe 2a 11 bf ad dc f0 bf
       0.5432445 0.8199438 -0.56706226 -1.8817345
000130 6d 20 e8 3e 6f 5e 72 3e 44 f3 f3 3e 63 2c 14 3e
       0.4533724 0.23668836 0.47646534 0.14470057
000140 f1 73 ad bd 90 b6 39 3e 03 ce 3d be bb 1a 53 bf
       -0.0846938 0.18136048 -0.18535618 -0.8246266
000150 8b 7d 89 bd 2d 6a df bc 0f c8 c9 bb 10 6b ad bd
       -0.067133985 -0.027272308 -0.006157882 -0.08467686
000160 9c 61 f8 bd 4c db 98 bd ec 6d 17 be 33 13 dd be
       -0.121279925 -0.074637026 -0.14788026 -0.4317871
000170 20 11 0d be 19 31 87 be ff be 0e be 82 27 9f 3d
       -0.13776064 -0.26404646 -0.13940047 0.077712074
000180 45 bb 98 bd 4f 74 a2 3e a2 2c 74 be 8b 50 aa 3e
       -0.07457594 0.3172936 -0.23845151 0.33264574
000190 5f 7f 7e bc b3 5f 26 3e ef 7a db 3d 0b 17 c4 3d
       -0.015533297 0.16247444 0.10716807 0.095747076
0001a0 90 f0 2b bc cf 4d 66 be f8 89 6f be 57 b2 08 3f
       -0.010494366 -0.22490619 -0.23392475 0.53397125
0001b0 22 8e 3b bf b7 82 f7 bb 9a 37 7f 3e 96 fd 42 3e
       -0.7326375 -0.007553424 0.24923554 0.19042048
0001c0 fb 94 d6 3e 71 cd b5 3e 8e d4 4c 3e d8 57 80 3e
       0.41910538 0.35508302 0.20002958 0.2506702
0001d0 a9 70 ed bd 4d be 75 be 15 24 6a be 79 b6 63 bd
       -0.11593754 -0.23998375 -0.22865327 -0.05559394
0001e0 a2 bf cc be 84 ce 9f bf 56 53 07 3f 55 f4 fd bf
       -0.39989954 -1.2484899 0.52861536 -1.9840189
0001f0 15 59 1e be 57 57 0e be 46 dd a5 3e 21 54 70 be
       -0.1546367 -0.13900505 0.3239538 -0.23469593
000200 f3 f2 6c bf e0 83 c4 3e 5b 55 a5 be 63 ff 7a bd
       -0.9255821 0.38381863 -0.32291684 -0.061278712
000210 98 47 d5 bd f0 91 8a be 6b f6 0d 3e c0 f0 15 3e
       -0.10414046 -0.27064466 0.13863532 0.1464262
000220 fe 73 4b 3e 93 2c 38 3e f5 e2 cc 3e 1a 90 f8 3e
       0.19868466 0.17985754 0.40016904 0.4854744
000230 29 6f 8c 3e 3e e9 fb 3d 0e 5c 2b be 8e ab 95 bd
       0.27428558 0.12300347 -0.16734335 -0.07308112
000240 40 f4 cf be 20 77 9d 40 7c 33 60 3e 9e 2c 80 bf
       -0.40616035 4.9207916 0.2189464 -1.0013616
000250 19 b6 e8 be 75 60 17 3f 6c 91 e2 be 66 e4 8b 3e
       -0.4545143 0.59131557 -0.44251573 0.27322692
000260 af e2 2d 3e c7 8d 73 bd 71 42 9e 3e 0f fc 14 be
       0.16981004 -0.05946138 0.30910066 -0.14549278
000270 b6 5b 9e 3d b9 fb 10 3e c9 ad 0d 3e c8 6d 7c bd
       0.07732336 0.14158525 0.13835825 -0.061628133
000280 c6 ab 70 3e 2e 9b 8c 3e 62 55 bf 3d 5e 21 a6 3e
       0.23503026 0.27462143 0.09342457 0.32447332
000290 9f cb 23 3e 22 e1 29 be 64 80 e0 be b1 5f 2f be
       0.15995644 -0.16589788 -0.43847954 -0.17126347
0002a0 da c5 9c 3c 40 c3 0e 3f 11 6f 63 3f 76 c0 e3 3f
       0.019137312 0.5576668 0.8884135 1.779311
0002b0 78 b5 66 be f4 91 4a 3e 03 b4 3c 3e 40 9f e9 bd
       -0.22530162 0.19782239 0.18428044 -0.11407328
0002c0 73 bd 2e 3e 80 ff e5 be 41 b0 20 3c ae 55 dd 3e
       0.17064457 -0.44921494 0.009807647 0.4322943
0002d0 07 f8 91 be 44 d0 9a 3c 52 10 90 be ce b5 ba bd
       -0.28509542 0.018898137 -0.2813745 -0.09116708
0002e0 96 84 1e be df d8 2a 3e 04 e5 a4 bc 7f 09 3d bb
       -0.15480265 0.16684292 -0.020128734 -0.0028844771
0002f0 36 e5 1e 3e f0 8b 86 be a7 11 48 bd 01 6c 9d 3d
       0.15517125 -0.2627864 -0.04884496 0.07686616
000300 0a a1 8b 3f c0 b1 0e 3e 7b 72 2c bf 3e 52 35 bf
       1.090852 0.13934994 -0.67362183 -0.70828617
000310 ff 51 b8 bd 34 12 ae 3e a7 43 a3 be 3d 8b 46 3e
       -0.090000145 0.33998263 -0.31887552 0.19389053
000320 f3 d1 00 3e 21 dc d3 3e 92 7d 70 bd 16 75 31 3e
       0.1258009 0.41378883 -0.058713503 0.17329821
000330 ad c9 f5 3d 88 9d 20 3e 6c 47 52 be 9e 0a 82 bd
       0.12001357 0.15685093 -0.20535058 -0.06349681
000340 38 7c db bd a9 45 51 be 7d 5d be 3d ed a8 e7 bd
       -0.10717052 -0.2043673 0.09295175 -0.11311517
000350 89 c0 8f 3c 33 99 a5 3d d3 0a 88 bd aa 0c 78 3e
       0.017547863 0.08085861 -0.066426896 0.24223581
000360 ef 20 b6 3e 9f 34 c8 3f 69 44 4c 3e a9 c7 fa bf
       0.35572 1.5641059 0.19947971 -1.9592181
000370 8a 4b 01 bf 7e 48 a3 3e fb 03 82 be 86 74 ac 3d
       -0.5050589 0.31891245 -0.25393662 0.084206626
000380 1a fb 16 3d 55 7d fc 3e 76 07 23 3f ff cf b2 be
       0.036860563 0.4931437 0.6368326 -0.34924313
000390 8e b6 1e be a3 55 b5 be 70 b8 c4 3e 69 24 93 3e
       -0.15499327 -0.35416898 0.38421965 0.28738716
0003a0 5b 6b 7c 3e 41 be c8 3d 66 53 1c 3e f0 a6 8f be
       0.24650328 0.09801913 0.15266189 -0.2805705
0003b0 af e3 f4 be c9 3c a4 be 3a 42 00 be 61 45 9a 3d
       -0.4782996 -0.32077625 -0.12525263 0.07532764
0003c0 81 21 38 3f ea a6 07 40 30 03 c1 3e 0d 22 79 bf
       0.7192612 2.1195626 0.37697744 -0.9731758
0003d0 5f 80 c2 3e cd a8 11 3e 9b 13 27 bf fb b5 8f bd
       0.37988564 0.14224549 -0.6526429 -0.07017132
0003e0 36 11 a6 be b5 dd 1e 3f a7 87 b6 3e d2 03 d7 bc
       -0.32435006 0.6205705 0.3565037 -0.026246939
0003f0 21 ff 40 3e 5e 63 6d 3e 13 57 13 bf 46 47 0e bf
       0.18847324 0.23182437 -0.5755474 -0.55577505

policy_net.0.bias f4 [64]
000000 16 49 4a bd 8e e9 11 bd 31 d2 8f be da 2a c6 bc
       -0.049386106 -0.035623126 -0.2809005 -0.024190355
000010 be 21 1e 3e 73 7e bf be 8e 36 fd 3d 90 06 cc bc
       0.15442559 -0.3740116 0.12363921 -0.024905473
000020 21 fe 46 3e e2 8d 3d 3e 90 aa b1 bd b7 a2 85 3c
       0.1943288 0.18511155 -0.0867511 0.01631294
000030 de ea e5 be dd 5f bf be ec 9f 96 3e d3 64 82 3d
       -0.44905752 -0.37377825 0.29418886 0.06366887
000040 1a ee e4 3d bc e4 96 3e dd fa 07 3e 78 4b 2a be
       0.11178227 0.29471385 0.1327929 -0.16630352
000050 06 c9 e0 3c 9d dc 1b be a4 68 6e be 4e 84 8b 3d
       0.027439605 -0.15220876 -0.23282105 0.068123445
000060 06 a7 15 bd bb bb ed 3d e5 4d 96 3e 27 d8 e9 3d
       -0.03653624 0.11608072 0.29356304 0.11418181
000070 dc be 2a 3e fb 76 36 b9 9c 5c 0d be ee 2a 58 bd
       0.1667437 -0.00017401196 -0.13804859 -0.052775316
000080 2f a5 1f 3e 8d 70 7a 3e 6f cc 8a bd b5 d4 c2 bd
       0.15590356 0.24456997 -0.06777274 -0.09513227
000090 0b ba c6 bc 0b c5 8c 3b a7 c7 fe bd 67 28 a5 3e
       -0.024258634 0.0042959503 -0.124404244 0.32257387
0000a0 e4 4c be 3d 26 da a0 be 9c 2d d3 3d ae 1d f5 bc
       0.092920095 -0.31416434 0.10311434 -0.029921379
0000b0 1d 44 59 be a5 06 8b be dd fd c9 3e 13 83 ba bc
       -0.2121739 -0.27153507 0.39451495 -0.02276758
0000c0 0e 6f cd bc 3e d5 7d 3e 0d b0 28 3e 83 ba 08 bd
       -0.025077369 0.24788377 0.16473408 -0.033380996
0000d0 05 2b 19 3e 13 fa 86 3e 26 15 42 3d ea 88 a5 3e
       0.14957817 0.26362666 0.04738345 0.3233102
0000e0 50 98 96 be 21 48 5f bc 1c 12 44 be 05 44 36 3e
       -0.2941308 -0.013628037 -0.19147533 0.17799385
0000f0 f7 1c a3 3e a6 eb 8a be dd 5c 28 be 3e 48 1c bd
       0.31858036 -0.2713291 -0.16441675 -0.038154833

policy_net.2.weight f4 [128, 64]
000000 b0 ae 78 be ea 96 0e 3e 7d 0d c5 be dd a0 80 be
       -0.24285388 0.13924757 -0.38486853 -0.2512273
000010 78 cc 85 3d ab d1 b3 3e 04 61 39 3d d4 c8 5b 3e
       0.0653314 0.351209 0.045258537 0.21463329
000020 75 83 02 3e 8d 82 ff 3d 4c 86 f1 bd 40 e7 49 bf
       0.1274546 0.124760725 -0.11793193 -0.78868484
000030 5a 38 3e 3e 61 8f 88 be 88 2e 83 3d d3 4e 0b 3f
       0.18576184 -0.2667189 0.064053595 0.5441715
000040 1a b5 9e be 05 74 03 3d 91 da 24 be 71 72 59 bc
       -0.30997545 0.032093067 -0.16099001 -0.013271914
000050 03 be 32 be 55 72 53 be 98 99 02 3e fd c8 e7 3e
       -0.17455296 -0.20649083 0.12753904 0.4527053
000060 4c dd 4e 3e 05 af c7 be cb 78 bf be 4e cb 36 3f
       0.20201606 -0.39000717 -0.37396845 0.7140397
000070 2c 46 85 3d 81 61 3a 3e 9f 04 5e bf 42 a5 3e be
       0.06507525 0.18201257 -0.867258 -0.18617728
000080 7f 3f da be 13 7c 4e 3c 98 16 09 3c 7c 97 25 be
       -0.4262657 0.012602824 0.008367203 -0.16171068
000090 0c b3 d4 3d 43 b7 24 3e 3c be 80 be fc aa ba be
       0.10385713 0.16085534 -0.25145137 -0.36458576
0000a0 c7 cf 2c 3e 21 09 6b bf 98 ce 2f be ae 68 9a 3f
       0.16876136 -0.91810805 -0.17168653 1.2063196
0000b0 9c 34 1a be 82 d1 1e 3e e5 7f de 3d b0 77 9d 3d
       -0.15059131 0.15509608 0.10864238 0.07688844
0000c0 69 75 f0 3d 96 ee 44 bf 71 7b 1a bc 8f 7c 6c 3c
       0.11741144 -0.76926553 -0.009428845 0.014433994
0000d0 87 c5 1f be e0 dc 9e be 00 57 a1 3e f8 93 65 3d
       -0.15602694 -0.3102789 0.31511688 0.056049317
0000e0 1d 43 f2 bd 55 d7 45 3d 1c b8 8a 3e ed b7 0a bc
       -0.11829207 0.04830106 0.2709359 -0.008466703
0000f0 24 d8 99 be 66 8e 9f bd 21 67 60 3e 72 96 47 3b
       -0.30047715 -0.07790832 0.2191434 0.0030454663
000100 67 0e 39 bf 4e a3 45 3f 27 9f ac 3e 80 b9 b4 3e
       -0.722876 0.7720231 0.33715174 0.35297775
000110 83 bf 1b c0 27 8b 91 be 1c d2 ad 3e 68 7d 21 bf
       -2.433564 -0.28426477 0.33949363 -0.6308198
000120 38 54 85 3c ab 72 cb bd b2 fa c8 3c f5 32 a1 be
       0.01627551 -0.099339806 0.024533603 -0.3148419
000130 62 e5 95 3d ef 73 2b 3e 40 56 df 3d 61 c6 08 3e
       0.07319142 0.16743444 0.10905123 0.13356926
000140 77 92 1e be 09 2b 10 3d ca 0d 99 3e 11 3f 10 be
       -0.1548556 0.03519729 0.29893333 -0.14086558
000150 6c 43 9c 3d b6 bb 84 3e d9 a7 6e be 25 eb 4c bf
       0.07630047 0.25924462 -0.23306216 -0.800463
000160 5b d8 46 be 93 6a 65 bd b8 48 fe 3e 39 2f d7 3e
       -0.1941847 -0.05600984 0.49664855 0.42028216
000170 50 76 b6 3d a1 e0 65 be a5 7c 7e 3d 80 c6 03 be
       0.08909285 -0.2244897 0.06213059 -0.1286869
000180 10 d4 01 bf c5 86 0c be c4 95 41 be fb c0 b8 3d
       -0.50714207 -0.13723285 -0.18904787 0.09021183
000190 e2 ab cf 3e 69 15 19 3f 9d 74 6e bc e5 fa 92 be
       0.40560824 0.59798294 -0.01455417 -0.28707042
0001a0 3f 83 0b bf c1 fe d6 bd a9 6a 73 3e a8 db 4a bf
       -0.5449714 -0.10497809 0.23771156 -0.7924142
0001b0 e5 c9 74 3e a4 11 f8 3d 1e c1 10 3e 5c 6b 10 3e
       0.23905142 0.1211274 0.14136168 0.14103454
0001c0 52 cc 1e 3f d8 c3 00 3d 7b b5 27 bf 62 00 05 3e
       0.6203052 0.03143677 -0.6551129 0.12988427
0001d0 af a3 f5 3e 17 69 bf be a2 48 2c 3e 24 37 2f 3e
       0.47976443 -0.37384865 0.16824582 0.17110878
0001e0 27 50 01 be 09 88 a4 be ab 15 2b be fc a7 1b 3e
       -0.12628232 -0.32135037 -0.16707484 0.152008
0001f0 55 50 30 3e 92 24 64 3e 39 4c 09 be a8 d4 a5 be
       0.17218144 0.22279575 -0.13407983 -0.32388806
000200 2a 72 a8 be 4e 09 98 be c2 f4 08 bf 49 f7 78 3e
       -0.328996 -0.296946 -0.5349847 0.24313082
000210 db c5 25 3e c1 51 12 3e e4 2b 26 be 9a b9 8c 3d
       0.16188757 0.14288999 -0.1622768 0.06871338
000220 23 98 a1 bc 0d 79 a0 3e ed 7c e6 bc 1a 2c 02 be
       -0.019725865 0.31342354 -0.028135741 -0.12712136
000230 6a 04 50 be 25 9f 2d bf 79 1d 40 3e 67 e6 d9 be
       -0.20314184 -0.6782096 0.18761243 -0.42558596
000240 ab 97 b4 bd 4e e2 00 3e 56 d7 e3 3e fb 5b 3f bf
       -0.08817991 0.12586328 0.44500226 -0.74749726
000250 f6 1f 11 3e 3b 79 e1 bd ee ac 52 3e 55 04 de be
       0.14172348 -0.11009451 0.2057378 -0.4336268
000260 a5 0a fa be 09 68 e0 3e 83 0e 72 bd b3 fe 0e 3e
       -0.48836246 0.43829373 -0.05909587 0.13964348
000270 f5 84 c7 3e 8d c9 e6 bd 60 b9 16 bd 04 40 a7 3e
       0.38968626 -0.112689115 -0.03679788 0.32666028
000280 5e 69 89 3e 14 88 9a 3d 67 40 b3 be ca 53 0b 3e
       0.268382 0.07545486 -0.35010073 0.13606182
000290 32 64 17 3e 0a 5d b3 be ba 67 c8 3e 31 a4 54 3f
       0.14784315 -0.3503192 0.39141637 0.83063036
0002a0 78 e0 cd 3d 2d 7a 3c bf 53 2f 21 be ba e3 95 3c
       0.1005258 -0.73623925 -0.15740709 0.018297065
0002b0 d2 a6 ab bd d9 1a 07 3e bd 4c 4b be d6 be 58 bb
       -0.08381428 0.13193835 -0.19853492 -0.0033072731
0002c0 2c 89 92 bc 31 16 b5 3d 58 d6 38 3e 1c 1f ab be
       -0.017887674 0.08842123 0.18050516 -0.33422172
0002d0 bd 0c 99 3e cd ab a4 3c cf 62 18 be 0c 99 99 3e
       0.2989253 0.020101452 -0.14881442 0.29999578
0002e0 56 91 35 bf 12 fa a5 bd 6d ca 56 bf 55 e1 23 3e
       -0.7092489 -0.08104338 -0.8390263 0.16003926
0002f0 e4 cd df 3e 7f 07 c3 be b3 5a 81 bd 45 a5 40 bf
       0.4371177 -0.38091657 -0.06316128 -0.7525218
000300 88 d8 e3 be 32 f9 df 3e 3b 1e d5 be 7e e3 58 3d
       -0.44501138 0.43744808 -0.41624627 0.05295133
000310 6c 4e 7b be 92 7a c8 bd a0 6b e8 be 10 22 a8 3d
       -0.24541634 -0.097890034 -0.4539461 0.08209622
000320 da db 8b 3e 5a f3 f3 3e 4b 58 97 3e 47 b5 20 be
       0.2731617 0.476466 0.2955955 -0.15694152
000330 45 c6 bb be 38 40 4a 3d 1f a5 dd 3e af 56 83 bd
       -0.36674705 0.04937765 0.4329004 -0.06413018
000340 b5 81 23 3e 6a 0e 39 3e 16 ed 11 bd a9 a5 d1 be
       0.15967448 0.18071905 -0.035626493 -0.409467
000350 b5 19 47 3e 8b 94 7d be ca 0f 7e be 56 f2 58 be
       0.194434 -0.24763696 -0.2481071 -0.21186194
000360 f8 af 05 bf 66 a0 ce 3e 56 a2 b1 be 89 10 0a be
       -0.5222163 0.4035675 -0.34694165 -0.1348287
000370 92 8a 45 be 62 70 35 bd 30 30 b6 be 22 8e fa be
       -0.19291142 -0.04429663 -0.3558364 -0.48936564
000380 03 ff 46 3f b0 7e b3 3e da e8 3a be a0 13 43 3e
       0.77732867 0.35057592 -0.18252888 0.19050455
000390 0b 2f fd be f9 3c 01 be f1 69 7e 3d fc 7a 22 bf
       -0.49449953 -0.12620915 0.062112752 -0.6346891
0003a0 60 32 02 be 28 39 16 bf 10 a4 20 3e 4b 30 15 bf
       -0.12714529 -0.58680964 0.15687585 -0.58276814
0003b0 a9 c1 1a be 37 f9 5e bf 92 a6 0e bf 60 aa 47 3e
       -0.15112938 -0.8709902 -0.55722916 0.19498587
0003c0 70 ec 23 bf 55 c4 7c be 17 f1 2b 3f 99 9b da be
       -0.6403265 -0.2468427 0.6716475 -0.42696837
0003d0 9b 89 aa 3e 6d 09 e1 3e 8d 2f b3 3e 84 9a 15 3f
       0.3330811 0.43952504 0.34997216 0.584389
0003e0 2d e5 af be b1 9f d2 be 41 b8 3d be 63 74 11 bf
       -0.34354535 -0.4113746 -0.18527319 -0.5681822
0003f0 4b fb 17 be d4 64 7c be 7b be 00 be 03 6c c3 3e
       -0.14841954 -0.24647838 -0.12572663 0.38168344

policy_net.2.bias f4 [128]
000000 c2 68 ee 3d 80 d1 02 be c1 a9 2d 3e 5c e2 c8 3c
       0.11641075 -0.1277523 0.16959287 0.024521999
000010 a6 e4 f4 bb 5c d4 ba 3d 14 c7 05 bd ab 2d 8c bd
       -0.007473546 0.091225356 -0.03266056 -0.06844648
000020 ba a1 37 bc d7 2b 30 3e 7a f0 7b be db d9 11 bd
       -0.011207992 0.17204224 -0.24603453 -0.035608154
000030 84 1d a5 bd 25 f3 2d be 1d 88 0d 3e 2e cf a5 3d
       -0.0806227 -0.16987284 0.13821454 0.08096157
000040 1b 46 1c 3e 14 3d 99 be 56 d6 27 3e e0 ca 86 3e
       0.15261118 -0.2992941 0.16390356 0.26326656
000050 64 f2 ab be 66 83 a0 bc cf 85 4c be e4 a7 f6 bd
       -0.33583367 -0.019593906 -0.19972919 -0.12043741
000060 ef e7 7c bd ed 41 5e be 51 58 59 b9 7f fd 18 3d
       -0.061744627 -0.21704836 -0.00020727633 0.037351128
000070 6c 38 17 bc 70 a7 06 bd ad 77 c4 bd 04 ed 4c bd
       -0.009229761 -0.032874525 -0.09593139 -0.050030723
000080 a5 12 28 bd 38 80 49 3d be 4f bc be aa df 9e be
       -0.041033406 0.049194545 -0.36779588 -0.31030017
000090 50 0a 82 be 8b a1 6d 3e 6e a2 d2 3e dc b5 42 3e
       -0.25398493 0.23206155 0.4113955 0.19014686
0000a0 25 81 a9 bd 86 ab b5 be 24 b6 e8 3d 43 5a 74 3d
       -0.082765855 -0.35482424 0.113628656 0.059656393
0000b0 28 f2 95 be 56 4c fa bd 48 34 5e 3c 5a a1 a6 3b
       -0.29286313 -0.12221591 0.0135622695 0.0050851526
0000c0 9f 18 4d 3e cf 29 c8 be 7e 57 a4 be c5 45 97 3e
       0.20028923 -0.39094397 -0.32098 0.29545417
0000d0 ca dd 10 be 52 29 34 3e 2a 14 16 bd 4d a6 be 3c
       -0.14147106 0.17593887 -0.036640324 0.023272658
0000e0 dd 44 4b 3e 27 06 cd 3c e2 02 a5 3c 91 c2 4f 3d
       0.19850488 0.025027348 0.020142976 0.050722662
0000f0 5d cf 6d be 18 ba 4d bd e1 9c b7 3d 2e f6 74 be
       -0.23223634 -0.0502263 0.08965469 -0.23922035
000100 c2 86 01 be 41 a6 46 bc 01 50 f2 bd b7 c0 63 be
       -0.12649062 -0.012124599 -0.11831666 -0.22241484
000110 f3 b2 a7 3d e7 d5 d4 3c ed df 5c be b1 b4 5d be
       0.08188429 0.025980903 -0.21569796 -0.2165096
000120 86 23 5c 3e bd 59 55 bd 14 0f 59 3e a8 43 83 3e
       0.21497926 -0.052087534 0.21197158 0.25637555
000130 31 e5 f8 bc a9 ce 84 be 30 6b d9 3d 82 73 da 3c
       -0.030382724 -0.2593892 0.106161475 0.026666407
000140 37 73 1a bd 18 9a 4e bd 03 0d 30 bc 8f 11 7b 3d
       -0.037707534 -0.050439924 -0.01074529 0.061296042
000150 b0 6e ed 3c 3b 25 36 bd b2 4f 95 bc ed 67 be bd
       0.028983444 -0.0444691 -0.018226478 -0.09297166
000160 e9 9c 33 3e 39 6b 8f 3e 72 f3 86 3d 46 06 a4 3c
       0.17540325 0.28011492 0.06589402 0.020022523
000170 65 52 9e be 78 ca 0d 3d 1d bd 0d be 49 09 20 be
       -0.30922237 0.034616917 -0.13841672 -0.15628542
000180 85 30 90 be 69 82 55 be 77 53 3e be 2d ab e8 be
       -0.28162017 -0.20850529 -0.18586527 -0.45443097
000190 fa b6 aa 3c 5d de 17 be b0 a1 33 be 5e 07 b4 3a
       0.020839203 -0.14830919 -0.17542148 0.0013735106
0001a0 88 4a 6c bd 1a 26 a8 be f0 34 25 bd ad 3b 60 3c
       -0.057688266 -0.3284157 -0.04033369 0.013686103
0001b0 17 49 72 be fb b7 17 3d 4e ac 09 be e5 a7 8b 3d
       -0.23660694 0.03704069 -0.13444635 0.06819133
0001c0 71 80 4b be 2b f1 be 3d e3 eb 5a 3d bd 22 8e bd
       -0.19873215 0.09323343 0.053447615 -0.069402196
0001d0 01 34 97 bd c1 9c d3 3d 46 9f 92 be c0 2b 51 be
       -0.07382966 0.10332633 -0.2863714 -0.20426846
0001e0 6b b5 59 3d 5e c5 f3 3d 8a be 97 be 44 48 cc 3e
       0.05315153 0.11902879 -0.29637557 0.39898884
0001f0 b0 56 a9 bd c7 e5 5a bc 92 04 2d 3e d4 9d af bd
       -0.082684875 -0.013360447 0.16896275 -0.08575025

policy_net.4.weight f4 [128, 128]
000000 5a 54 2a bd 5a 0d 64 be 35 8a 65 bd c0 29 fa 3b
       -0.04158435 -0.22270718 -0.056040008 0.0076343715
000010 dd fb 8a be 7f 24 88 3e f1 e3 0d bd c9 03 c8 3d
       -0.2714528 0.26590344 -0.03464121 0.09766347
000020 e9 89 dd be 40 c7 8a 3c d4 2b a3 3e 92 e6 9e 3c
       -0.4326928 0.016940713 0.31869376 0.019397054
000030 8a 45 6f bd e8 a5 16 3e 49 e1 1c 3f 84 1d 84 be
       -0.058415927 0.14711726 0.6128126 -0.2580377
000040 dc 5b fb be 0a 45 2a 3f c3 e3 7b 3e 0a 6b f6 be
       -0.4909352 0.66511595 0.24598603 -0.4812854
000050 ea 1f 68 3e 66 56 57 bd d0 3b a5 3e e6 70 c4 bd
       0.22668424 -0.05257263 0.32272196 -0.09591846
000060 57 05 2a be 56 68 5d 3d 27 3a 6f bf f8 7b 26 3f
       -0.166036 0.05405458 -0.9344811 0.6503291
000070 f3 2b 45 be 92 7b 96 bf e8 8c f4 be 73 6d 73 3d
       -0.19255047 -1.1756461 -0.47763753 0.05943055
000080 9b 07 bb b9 50 54 0a 3e b4 09 e0 3e 9c 04 45 bf
       -0.00035673086 0.13508725 0.43757403 -0.7696016
000090 4c 4e 4b be cd 3b 91 be e7 1a 2e be 4f 33 65 be
       -0.19854087 -0.28365937 -0.1700245 -0.22382854
0000a0 a5 ae e1 3d a6 39 13 3e 61 1a 48 3e a3 b5 e5 3d
       0.11019639 0.1437746 0.19541313 0.11216285
0000b0 59 c2 b5 be a7 c2 b0 bf 75 7e 20 bd 4b b7 50 bd
       -0.35499838 -1.3809403 -0.0391831 -0.05095605
0000c0 68 f4 ae 3e 52 3c f0 3e 92 1e f5 3e 86 ed 73 3e
       0.34170842 0.4692102 0.47874886 0.23821077
0000d0 f9 ba ea 3e 33 51 ea be bf 12 c1 be 87 df 8d be
       0.45845774 -0.45765075 -0.37709615 -0.277096
0000e0 00 84 cf bd ba 4c 02 bf 74 b2 0e be 20 6f 44 bf
       -0.10132599 -0.50898325 -0.13935262 -0.76732063
0000f0 4c 4e 89 bd f6 7b 56 3e 0f 1d 9b bf 00 dc 66 3c
       -0.06704387 0.20945725 -1.2118243 0.014090538
000100 a8 ae ce bd cf 39 fb 3e d7 bc d0 be d4 36 b3 3b
       -0.10091907 0.49067542 -0.40769073 0.0054691825
000110 fc 9a a5 bd e1 2f 0a bf f4 2a f3 be 8b a9 08 bf
       -0.080862015 -0.5397931 -0.47493708 -0.533837
000120 e9 6c a1 be 81 6a 28 be 8e 49 75 be 4b 0f 6b be
       -0.31528404 -0.16446878 -0.2395384 -0.22955053
000130 ea f9 21 be 4b a6 9a 3a f0 5e 1d 3e 50 f7 63 be
       -0.15817991 0.0011798827 0.15368247 -0.22262311
000140 4e bc a3 3e 90 4e d6 3e 5a 53 18 3f 7d 18 2c be
       0.31979603 0.41856813 0.59502184 -0.16806217
000150 27 f3 34 be b7 56 f0 3e 68 4d f5 bd 9b db e2 3e
       -0.1767088 0.46941158 -0.11977655 0.4430817
000160 3e 46 27 bd e4 7d 62 bf c2 17 8c 3e b4 6a 83 bd
       -0.040838473 -0.88473344 0.27361876 -0.064168364
000170 ea 55 b9 3d 64 2e c1 3e 93 8c 7f bb 00 b1 dd 3e
       0.0904959 0.37730706 -0.00389937 0.43299103
000180 d6 a5 9e be 8a cf af 3e 83 03 59 bd 62 2c 04 be
       -0.30985898 0.34338027 -0.052981865 -0.12907556
000190 78 3f 27 3e aa ef 31 3e f5 35 44 3d 51 33 83 3e
       0.16332805 0.17376581 0.04790302 0.2562509
0001a0 0f 79 54 3d 53 d3 2d bf 5a 54 68 3e 81 da 5a 3e
       0.051873263 -0.6790058 0.22688428 0.21372415
0001b0 d3 a0 28 bd 32 8d c1 be cf fb 3e be 1a 7b 66 bd
       -0.041169 -0.37803036 -0.18650745 -0.056269743
0001c0 d6 6b 8b 3b 67 98 1a 3e 12 09 c2 bd b7 20 e4 be
       0.0042547984 0.150972 -0.09474386 -0.4455621
0001d0 f2 3e df be e7 9a 1d 3d e7 96 44 bc d7 ff 1f 3e
       -0.4360271 0.038477805 -0.011998869 0.15624939
0001e0 37 25 7a 3e 26 e0 fa be 28 d1 09 bf b6 65 12 bf
       0.24428259 -0.48999137 -0.5383477 -0.5718645
0001f0 68 94 9b 3d cb 73 07 3f 8c 89 f0 3d cf 05 9c bd
       0.075966656 0.5291106 0.11744985 -0.076182954
000200 3d 82 89 3d 06 d0 b8 bd e6 7d 35 bf 8a 9e b8 be
       0.06714294 -0.09024052 -0.7089523 -0.36058456
000210 5b c1 93 be e0 90 38 be 75 c5 7c be 57 45 1e 3d
       -0.28858456 -0.18024015 -0.24684699 0.038640346
000220 9a 4e af be c2 a8 0f bf 28 39 f2 3c 7d 9e 0b 3d
       -0.34239656 -0.5611688 0.02956827 0.034086693
000230 65 93 f6 be 09 07 7d 3e dd a4 18 3f 40 93 30 3e
       -0.48159328 0.24709715 0.5962656 0.17243671
000240 83 aa 87 bf 4f 00 dc bc 9f e3 3e be 12 c2 a6 3d
       -1.0598911 -0.026855616 -0.18641518 0.08142485
000250 eb a4 98 be 9c d1 a7 be 44 88 13 be cb 44 49 bd
       -0.29813322 -0.32777107 -0.1440745 -0.04913787
000260 4f f5 30 bf a8 20 aa bd ca e4 88 be 52 ab 4c bf
       -0.6912431 -0.0830701 -0.26737052 -0.79948914
000270 35 6f 1d be af 99 9c 3d b0 7c 20 be 53 41 c3 3e
       -0.15374453 0.076465 -0.15672565 0.38135776
000280 ae c6 fb be 75 ca 11 3d 90 ba d3 bc 42 bb 41 bf
       -0.49175018 0.03559347 -0.025845796 -0.7567636
000290 29 fe 01 3e 25 56 2b be b5 9b 75 3e eb 64 00 3f
       0.1269461 -0.1673208 0.23985179 0.5015399
0002a0 58 d6 9f 3e 06 b7 cc bd a5 13 60 3b aa b9 6a bd
       0.3121822 -0.099958465 0.0034191397 -0.05730597
0002b0 bc 9c 96 bd ac 45 de be 47 6b a7 bc 22 d9 12 bc
       -0.073541135 -0.4341253 -0.020436896 -0.008962901
0002c0 0c a8 62 bf 5b fb 5a 3e db 6a d5 3e b4 0b 9f bf
       -0.8853767 0.21384947 0.41683087 -1.2425447
0002d0 67 96 6a be d0 23 5f be bc 8d 41 bf b9 61 99 3e
       -0.22908936 -0.21791005 -0.75606894 0.2995737
0002e0 e2 35 93 3e 3e 95 5b 3c 25 dd 59 3e 7b 72 4b 3e
       0.28752047 0.013402281 0.21275766 0.1986789
0002f0 a9 e4 5f bf 78 d0 16 bf bd fa a9 be 18 8c 30 be
       -0.8745828 -0.5891185 -0.3319911 -0.17240942
000300 c7 1e 21 bf 23 c1 c0 bd 11 47 9b be 96 9b 88 3d
       -0.6293759 -0.09411838 -0.30327657 0.06670301
000310 b7 b8 e5 bd 16 29 d8 be 5d 61 ce bd 53 4c e5 3d
       -0.11216872 -0.42218846 -0.10077164 0.11196198
000320 a8 0f d6 be 38 8a 94 3d 38 a4 13 be 9a b2 21 3e
       -0.4180882 0.07252926 -0.14418113 0.15790787
000330 99 ed 7d 3e 18 09 af 3d 7f 8e a9 be 21 a8 b4 3e
       0.24797668 0.08546656 -0.33116528 0.35284522
000340 bf 7c 86 bf b8 23 28 be da e6 0e bf 17 51 cc 3e
       -1.050682 -0.16419876 -0.55821 0.39905617
000350 88 7e bf bd 5b 47 03 3d 96 cf 35 be e6 73 98 3e
       -0.09350306 0.03205047 -0.17754969 0.29775923
000360 e8 51 c0 be 11 7f fd 3d ca 56 82 be b9 96 a3 3d
       -0.3756249 0.123777516 -0.2545684 0.079877324
000370 5a ab 96 3e b8 2f 0b bf dd a6 d7 3e 01 41 5c bf
       0.29427606 -0.5436969 0.42119494 -0.8603669
000380 72 e4 48 bf d6 e6 00 bf ff 2a dd 3e cc 0c 5e bc
       -0.7847358 -0.5035223 0.43196866 -0.013552856
000390 3b f4 ec be 67 97 7e 3e e8 e9 07 3d 51 79 0b bf
       -0.46280083 0.24862443 0.033182055 -0.5448199
0003a0 6b 29 e0 3e 9c 3e cf 3d 01 ff 18 bb 1b 59 cc 3d
       0.437816 0.10119364 -0.0023345354 0.09977933
0003b0 56 37 ab 3e 44 43 90 3e ee b8 4e be de fb 53 be
       0.33440655 0.2817632 -0.20187733 -0.20701548
0003c0 e0 d9 be bd 3b 5c e9 be 21 c6 bc 3e f1 7a 77 3e
       -0.093189 -0.4557818 0.3686991 0.24167992
0003d0 ab 07 20 bf e7 f1 03 3f 20 d2 59 3e 7a 8f 06 3d
       -0.625117 0.5154099 0.21271563 0.032851674
0003e0 fd c4 17 3d 4b 33 2e 3d e2 20 3e 3e d2 23 4e be
       0.037053097 0.042529386 0.18567231 -0.20130852
0003f0 8d 5d 84 be 74 41 a2 3d e2 4c cc bf 0d 02 61 3e
       -0.25852624 0.079226404 -1.5960963 0.21973439

policy_net.4.bias f4 [128]
000000 49 e5 93 be 52 8b 00 be 38 ce 89 3d 5b 4a a7 be
       -0.28885868 -0.12553146 0.06728786 -0.32673916
000010 81 51 b7 bd 22 44 2f 3e 1c 73 2b be 54 87 06 be
       -0.089510925 0.17115834 -0.1674313 -0.13137561
000020 63 ee 8b be e2 c9 0a be c1 ec 94 3d dd 8d 3c be
       -0.27330312 -0.13553575 0.0727172 -0.18413492
000030 d1 74 a3 bd 4b f2 bc be 91 6c 78 bb 98 04 a0 3d
       -0.07981265 -0.36903605 -0.0037906507 0.07813376
000040 f1 5d b4 bd 9c f2 91 bd dd ef f0 bd 48 3c 4e 3e
       -0.088069804 -0.07126352 -0.117645 0.20140183
000050 2a 8b 60 be 72 f7 22 be 3f 46 ad be 30 a6 0c bf
       -0.21928087 -0.15914705 -0.33842656 -0.5494108
000060 f8 1f 91 be 49 d2 95 3e 2d 8c 0a be 93 e1 37 be
       -0.28344703 0.29261997 -0.13530035 -0.17957143
000070 12 fa 9f be bd f7 2a 3e a5 9e 5f 3c 17 c5 6b be
       -0.31245476 0.16696067 0.013648664 -0.23024403
000080 94 3d 26 3d d3 ea 86 3e 3a 44 df 3d f8 4e 6c be
       0.04058607 0.26351032 0.10901685 -0.23076999
000090 1c 49 e0 3c 40 9e 71 3d 9f 6b 11 bf e2 95 08 3e
       0.027378611 0.05898881 -0.5680484 0.13338426
0000a0 a3 0f 32 3e 53 fe 88 be c5 19 e0 bd 6a 81 c4 3d
       0.17388777 -0.26756534 -0.10942415 0.09594996
0000b0 0a 8e 7a be 82 57 41 3e 5c e0 15 3e 1e d3 15 be
       -0.24468246 0.18881038 0.14636368 -0.14631316
0000c0 60 9c fe 3c da f8 d5 be 9d 05 ca bd 85 e3 a8 3e
       0.031080425 -0.4179142 -0.09864352 0.32986084
0000d0 af 25 0e bf d7 4e be 3c b8 42 74 3e 2d f9 17 bf
       -0.5552625 0.023230953 0.23853576 -0.5936459
0000e0 3f fd 39 be a9 27 30 bd 62 c9 8c 3d 1f ad 33 be
       -0.18163012 -0.043006573 0.06874348 -0.17546509
0000f0 24 fa e4 be 7b 2e 37 be f4 c6 b3 be 53 43 48 3d
       -0.44722092 -0.17888825 -0.35112727 0.04889233
000100 41 c6 ce bd 70 5b 79 bd 85 4c 9d be ce fd 59 3d
       -0.10096408 -0.060878217 -0.30722442 0.053220563
000110 c5 66 8d be 3a ba cc be 73 f3 b3 bd 85 fd 08 bf
       -0.2761747 -0.3998583 -0.08786669 -0.5351184
000120 6f 53 a8 3e fd b5 26 3b b1 13 24 3e d3 9d 94 be
       0.32876155 0.0025438063 0.16023137 -0.2902666
000130 73 6d 93 be 1f da 76 3e 63 93 8f 3e 0f bc 0f 3e
       -0.2879444 0.24106644 0.28042135 0.14036582
000140 52 85 84 bf f8 d9 a2 be eb d1 14 3f 5f f0 a3 be
       -1.0353186 -0.31806922 0.5813281 -0.32019326
000150 e9 65 9e be 3e f6 29 3c b2 17 aa bd 4d 62 78 3e
       -0.30937126 0.01037365 -0.08305301 0.24256249
000160 0a 35 0f bf 79 34 29 3e f7 61 b5 bc 89 5f 8b be
       -0.55940306 0.16523923 -0.02214144 -0.27221325
000170 38 de 2c be f7 1b 5e bc 72 56 12 bf 6a 10 25 3e
       -0.16881645 -0.013556472 -0.57163155 0.16119543
000180 9b 40 9d be 35 95 97 bd 9f 17 0c be 9c 85 21 3d
       -0.30713353 -0.07401506 -0.13680886 0.03943406
000190 d9 e5 71 3e 09 db ea 3d 5e c1 b5 bd a6 2d 8b bb
       0.23622836 0.11467559 -0.088747725 -0.004247385
0001a0 92 b3 ff be 40 9e ad 3c 0d bc 0c 3e 73 76 18 bf
       -0.4994169 0.021193624 0.1374361 -0.5955574
0001b0 7d 79 a5 3d 37 69 51 3e 3f 5a 60 be b0 28 15 3d
       0.08079813 0.20450293 -0.21909426 0.036415756
0001c0 a1 8b 18 be 84 8a d1 3d e3 b1 36 3e 80 88 d8 3d
       -0.14897014 0.10231498 0.17841296 0.1057291
0001d0 3b c6 47 be cc 0c 39 3e 0b 78 6f be b4 70 af 3e
       -0.19509213 0.18071288 -0.23385637 0.34265673
0001e0 55 d0 9a be 57 1d 48 3e f0 b7 0f bd 59 53 2b 3e
       -0.3023707 0.19542442 -0.035087526 0.16731013
0001f0 a1 70 84 be f0 e0 3f bd 88 d9 9f bb 51 16 53 be
       -0.2586718 -0.046845376 -0.0048782267 -0.20613982

policy_net.6.weight f4 [64, 128]
000000 2d 0c b8 bc 3c 9d 43 3e 4d 97 f3 3e b3 d4 5b bf
       -0.022466743 0.19102949 0.4757637 -0.8587143
000010 24 1d 08 be 00 92 04 be 8c 8e 0c 3f 1e 39 62 3e
       -0.13292366 -0.1294632 0.5490501 0.22092101
000020 05 2a f2 3d ba a9 fa be 2d 8e 4f bd 40 9b 7b 3e
       0.11824421 -0.48957616 -0.0506727 0.24570942
000030 94 59 c2 3d 54 d4 9b be a0 43 21 be b1 f0 1d 3e
       0.09489742 -0.3043543 -0.15748453 0.15423848
000040 c0 45 10 3f c3 2a 15 3e 3c 8e 79 be 2a 38 f1 3e
       0.5635643 0.14567094 -0.24370664 0.47113162
000050 39 9c d4 3e 5a d1 42 3d 05 68 97 3e 60 c2 24 bd
       0.41525438 0.047562934 0.29571548 -0.040224433
000060 6c 08 04 bf 83 8f fa 3d d7 06 86 3d 92 90 28 3f
       -0.5157535 0.12234404 0.06544273 0.65845597
000070 b1 72 04 3e 5d 2e 41 3c e0 19 0c bf 76 79 cf be
       0.12934376 0.011790839 -0.5472698 -0.40522355
000080 04 c0 2f be 19 f1 91 bf 9f 32 20 bf 66 58 05 3c
       -0.17163092 -1.1401702 -0.6257724 0.008138752
000090 ff 3e 21 be f0 ca 01 bf 11 85 b8 bd 31 0d a7 bd
       -0.15746687 -0.50700283 -0.090097554 -0.08156813
0000a0 f3 22 07 bd 39 81 0a bf 3f 28 5b 3e 42 ca f6 3c
       -0.032992315 -0.5410343 0.21402071 0.03012574
0000b0 35 ed 1a bf 4d 27 c2 3e a3 90 91 3c 20 43 28 bd
       -0.605182 0.3792061 0.017769163 -0.04107964
0000c0 b7 91 67 bd 13 38 3d 3f 88 0f b3 be f7 2e ab 3e
       -0.05653545 0.7391369 -0.34972787 0.3343427
0000d0 b2 45 c9 3e eb 6d b5 bd a3 8a 8f 3d 13 4d 6c 3d
       0.39310986 -0.08858856 0.07008865 0.05769069
0000e0 21 12 3a 3e c0 46 9d bd e9 84 1e 3f 69 0c bb bd
       0.18170978 -0.0767951 0.61921555 -0.091332264
0000f0 ae 60 49 be c7 d5 b2 3d 9a f3 88 be 20 24 6b 3e
       -0.19665787 0.08732181 -0.26748353 0.22963
000100 85 eb d1 be 07 62 16 bb fa 06 f1 be 3a 39 b5 3e
       -0.41 -0.0022946612 -0.47075635 0.35395223
000110 f8 fc 05 be 46 61 be be cb d6 16 3d ad ea 51 bf
       -0.13084781 -0.3718359 0.036825936 -0.8199871
000120 95 4a 85 3e 5d 83 4d 3d 7e 65 4b bf d1 ab fd bc
       0.26033464 0.050174106 -0.7945174 -0.030965718
000130 4a 5c 7e be 55 a3 48 bf 60 c2 f2 be 14 38 b0 be
       -0.24839893 -0.78374225 -0.4741392 -0.34417784
000140 fb a0 70 3d b7 d1 2d bc 3c 20 a6 3e 06 78 29 be
       0.058747273 -0.010609082 0.32446468 -0.16549692
000150 47 86 27 bf 99 05 c2 be 8a 9c 05 3f 3a c8 d3 be
       -0.65439266 -0.37894896 0.52191985 -0.41363698
000160 71 3c 66 be 6e 62 0d 3d b4 a7 3b 3e 1f 91 06 bf
       -0.22483994 0.034517698 0.18325692 -0.5256519
000170 9e 73 a4 be 1d 48 18 be fc a5 02 3e 7a 4e 4c bf
       -0.3211946 -0.14871259 0.1275863 -0.79807246
000180 b4 26 b1 3d 61 25 03 be 1e 3e 97 ba ef b6 d9 3e
       0.0864996 -0.12807228 -0.0011538898 0.4252238
000190 19 0f f5 be cf 11 31 bd 7b a3 5f bd ec 6b aa bd
       -0.4786308 -0.043229874 -0.054599266 -0.08321366
0001a0 6b 25 b5 bd cf d5 d2 be bd f3 be 3e 67 c1 39 be
       -0.088450275 -0.41178748 0.37295333 -0.18140183
0001b0 e9 6a 89 3e 76 c2 cd 3d 97 76 85 3e d9 c4 97 be
       0.26839378 0.10046856 0.2606704 -0.2964237
0001c0 cc ee 3a be 4a b6 91 bd b8 82 a7 be f6 68 ba be
       -0.18255156 -0.07114847 -0.32716918 -0.36408204
0001d0 f3 16 09 3f f2 5e 4c bf 24 3b 75 bf bd 8b e1 be
       0.5355064 -0.79832375 -0.95793366 -0.44051924
0001e0 3a 7f d1 bd dc 10 c7 3d cf 4c 48 be 30 29 5e 3e
       -0.10229345 0.097200125 -0.1956055 0.216954
0001f0 b6 30 c9 3d 63 2f bb be 94 40 0d bf 4e de ae be
       0.09823744 -0.3655959 -0.55176663 -0.3415398
000200 f4 4e 99 bc b4 80 1a be 55 48 83 bd d9 ab a2 3d
       -0.018714406 -0.15088159 -0.064102806 0.079429336
000210 f5 d8 57 bd 0e dd f8 3d c5 b8 25 3e c7 a8 88 be
       -0.05269714 0.12151538 0.16183765 -0.26691267
000220 a5 b4 75 be 0d ae 0c be 18 3b 1b 3e b7 10 93 bd
       -0.23994692 -0.1373827 0.15159261 -0.071809225
000230 51 be f6 3c 98 4d 00 be d1 df 1c 3d 93 42 d4 bd
       0.030120047 -0.125296 0.038299385 -0.103642605
000240 4e 46 1a 3e 76 af d7 bb df 87 05 be ea 19 ca 3e
       0.15065882 -0.006582196 -0.13040112 0.39472896
000250 5f 15 3b be ca 56 92 3e ef 12 19 be c2 18 41 be
       -0.18269871 0.2858184 -0.14948629 -0.188571
000260 8f 24 24 bf 1c c1 7f be 3a be c4 be aa a4 10 bf
       -0.64118284 -0.24976009 -0.3842638 -0.5650126
000270 d8 cf 4a 3e 27 5d d3 3d 8b 7e 05 be 3c 19 67 bf
       0.19805849 0.10320502 -0.13036554 -0.9027288
000280 05 c1 25 be 01 b4 b0 bd 1a a1 2a be f9 a0 1b 3e
       -0.16186912 -0.08628083 -0.16663018 0.15198125
000290 e2 39 82 bd 13 79 ac 3c ae 45 1a 3d 9c 30 b5 bd
       -0.063586965 0.021053826 0.037664108 -0.08847162
0002a0 db b7 2c bd ec e4 92 3e 3d 54 95 3e c9 e2 38 bf
       -0.042167526 0.2869028 0.2916583 -0.72221047
0002b0 22 5e a3 be 34 8a bb 3d cd 20 0f ba 93 ee eb bb
       -0.31907755 0.091572195 -0.0005459905 -0.007200071
0002c0 2d 58 d0 bd f7 a0 a7 bd 4d 00 57 3d 91 f2 08 3f
       -0.10173068 -0.081849985 0.05249052 0.53495127
0002d0 81 66 84 be 76 70 2b 3d e2 81 46 3e bf b9 b6 be
       -0.25859454 0.041855298 0.19385484 -0.35688588
0002e0 52 ce 4f be a4 0f 15 3e 60 f2 56 be 5f 4b 59 3d
       -0.20293549 0.14556748 -0.20990896 0.053050395
0002f0 5b ef 9e 3d 34 e3 ba 3d 14 32 28 3e de 77 02 be
       0.07760497 0.09125367 0.16425353 -0.12741038
000300 db b7 25 3d 20 f6 90 be 05 03 db 3c 28 34 5f be
       0.04045854 -0.28312778 0.026734838 -0.2179724
000310 cf fb dd be ff 53 18 bd 49 b7 33 3e 6c 3f c7 3c
       -0.43356177 -0.03718948 0.17550386 0.024322234
000320 ef b6 6a 3e 05 5f aa bd bc bd 25 3c aa ab d2 3d
       0.22921346 -0.08318905 0.010116037 0.102866486
000330 f8 36 59 bd 8a ed e3 bd 55 c7 7c bf 1e 01 87 3b
       -0.053030938 -0.11129291 -0.98741657 0.004120006
000340 05 06 0b be 52 e0 fc bd a2 8d e3 bd aa 4f 9a be
       -0.13576515 -0.12347473 -0.11110999 -0.30138904
000350 68 3a 03 bf 62 41 ba 3d 42 5e 69 3d 64 2d ac bd
       -0.51260996 0.09094502 0.056974657 -0.08407095
000360 ac e6 c6 bd e2 20 20 3d c5 22 3f be e0 17 92 be
       -0.09711966 0.03909386 -0.18665607 -0.2853384
000370 a2 7a 8a be 2b 6a 3e 3e a4 c2 a0 3d 44 6d 19 3d
       -0.27046686 0.18595187 0.07849625 0.03745772
000380 c9 a0 ce 3b b7 e3 b8 3c a6 66 49 3c 15 5b 6f bd
       0.006305788 0.02256952 0.01229254 -0.058436472
000390 c4 d1 fb 3e c6 f5 a3 3c 4a 3c 91 3d a6 6d 36 3e
       0.49183476 0.020014655 0.07091577 0.17815265
0003a0 48 21 86 be 65 79 8f 3e 60 7f 05 be 8f aa d7 bd
       -0.26197267 0.28022304 -0.13036871 -0.10530578
0003b0 10 7e cc be 52 ee d5 3e fa 54 ea bc bc d4 8a 3d
       -0.39939928 0.41783386 -0.028604973 0.06778857
0003c0 51 b6 bd be 58 45 38 bd 9b 52 03 3e 59 94 5a bf
       -0.3705316 -0.044988006 0.1282448 -0.8538261
0003d0 e5 05 36 3e 5b 18 b1 3e 22 c8 12 bf 39 b6 19 be
       0.17775686 0.34588894 -0.5733663 -0.15010919
0003e0 4b 60 e7 bc 3c c4 f5 bd c0 ec 2c 3e f0 95 c3 be
       -0.028244158 -0.12000319 0.16887188 -0.3820033
0003f0 e9 e3 59 bc c1 6b 1c 3d 44 32 1d bf 0f 11 5a 3e
       -0.013298967 0.0381887 -0.61404824 0.2129557

policy_net.6.bias f4 [64]
000000 cf 9a 80 be 7a 29 c0 3e 54 16 fc be cb 33 01 bf
       -0.2511811 0.37531644 -0.49235785 -0.50469655
000010 8b a2 21 bf 24 db ab 3e b2 f6 f8 be 5d 16 9b be
       -0.63138646 0.3356563 -0.48625714 -0.302905
000020 40 b9 67 bc 69 33 84 3e 79 bb e6 3e a4 3e 88 bd
       -0.014143288 0.25820473 0.45064905 -0.06652573
000030 5c 8d b6 3e bf b1 08 3e 70 f3 39 3f 05 16 ac 3e
       0.35654724 0.13349055 0.7263708 0.3361055
000040 3d bb 8a be 0b 26 ef be 31 00 92 bc 2f aa 08 3e
       -0.27095976 -0.46708712 -0.017822357 0.1334617
000050 0c 06 4f be 39 0a d8 3e ea 15 17 be 64 ce e9 3d
       -0.2021715 0.421953 -0.14754453 0.11416319
000060 04 51 1a 3e 03 93 6a 3e 25 c0 07 3f 83 37 47 be
       0.15069968 0.22907643 0.53027564 -0.1945477
000070 80 2d 75 3e e3 9b 46 3e 9a e1 bb 3e c4 35 34 be
       0.23943138 0.19395404 0.36695558 -0.17598635
000080 da 91 74 be 68 e2 c6 3e 10 f0 9f 3e 3a 59 74 bd
       -0.23883763 0.3884461 0.3123784 -0.059655406
000090 37 b3 b4 3b 68 6f a3 3e 47 5c 77 3e 97 34 1e bf
       0.005514528 0.31920934 0.24156295 -0.61798996
0000a0 62 fc ea 3e 87 de 22 be d9 28 78 3d b7 f6 dd be
       0.45895678 -0.159052 0.06058583 -0.4335229
0000b0 9e 5c 0b 3f 04 e0 2c 3f 4d 94 a7 be 58 c4 d1 bd
       0.544382 0.6752932 -0.32730332 -0.10242528
0000c0 b8 c5 11 bf b2 12 d6 be 3f 42 50 be 2b 5f 05 3f
       -0.5694232 -0.41811138 -0.20337771 0.5209834
0000d0 f9 55 e3 be 88 1f a0 bd e9 ce c0 be 08 9d 8b be
       -0.4440153 -0.07818514 -0.3765786 -0.27268243
0000e0 5c 39 1c 3f 45 af 93 3e 72 d2 86 bd 6f 08 b1 be
       0.61025023 0.28844658 -0.06583108 -0.34576747
0000f0 ee 69 e5 3d 44 7b 61 3e c1 2c a2 be b7 f8 34 3e
       0.11201845 0.22019678 -0.3167477 0.17673002

policy_net.8.weight f4 [4, 64]
000000 9a 25 bf bd 48 fe 0c 3d b0 96 96 be 59 9d d1 3d
       -0.09333344 0.03442219 -0.2941184 0.1023509
000010 a1 92 76 3d 80 d3 74 3d 3f 22 9f 3c 6e 5f 5f bd
       0.06019843 0.059772015 0.01942551 -0.05453437
000020 60 96 27 be b9 29 09 3c 0a a3 b8 3b b2 d5 c2 3d
       -0.16365957 0.008371764 0.00563467 0.095134154
000030 dd 06 06 bc b7 a0 d4 3d f7 56 2b 3c 38 a6 07 3c
       -0.008180347 0.103822164 0.010457746 0.008279376
000040 e6 57 3a 3d cc 23 71 bd 5b 81 72 bd 47 2b cb 3d
       0.045493983 -0.05887203 -0.059205394 0.09920364
000050 b2 3c d5 3d 9b bc a5 3d d5 0b 7b 3c 31 0c 84 3d
       0.10411967 0.08092614 0.015322645 0.06447638
000060 8b 40 90 bd 4e 1b a3 bd 4a 32 46 3d 2a 28 5c 3d
       -0.070435606 -0.07964192 0.048387803 0.05374924
000070 1c 92 e8 bc 3b 35 b2 bd 89 23 db bc 33 c5 16 bd
       -0.028389983 -0.08701559 -0.026750343 -0.036809158
000080 16 cb 31 3c 1d 15 20 3c f6 ad 4f bd 5c 36 4f bd
       0.010851642 0.009770659 -0.05070301 -0.05058895
000090 1a ff 88 3c 3e 1f 71 3d 1d e3 be 3c 12 0e 87 3c
       0.016723204 0.058867685 0.023301655 0.016486201
0000a0 35 e5 1f 3d 60 25 ad bd d7 e2 08 3d 18 34 2a bd
       0.03903695 -0.08454394 0.033419456 -0.041553587
0000b0 6c 06 85 bc 28 dc 76 bc 13 2b 3e 3d 84 96 41 3c
       -0.016238414 -0.015067138 0.046427798 0.011815671
0000c0 1d 00 89 bd 89 77 88 3d 83 75 e5 bc 1e db 0b ba
       -0.06689475 0.066634245 -0.028010136 -0.000533508
0000d0 bd ad a3 3e 7e ec 90 3c 2a 24 84 bd a9 83 4f bd
       0.3196849 0.017690893 -0.0645221 -0.05066267
0000e0 19 63 ce bd 81 ff 3a 3d dc a1 ee 3c a5 bf 21 bd
       -0.10077495 0.045653824 0.029129915 -0.039489407
0000f0 49 d4 0a 3d 2d fd 21 bd 0d 84 59 3d 1a f2 58 bd
       0.033893857 -0.039548088 0.05310445 -0.05296526
000100 3a 58 a4 3b e8 31 ef bc b6 20 a7 3e 31 a1 04 bd
       0.0050154002 -0.029198602 0.32642144 -0.032380287
000110 06 f3 af 3d 41 72 a2 3d 9a 09 4d bc 15 25 65 bd
       0.08591275 0.079319485 -0.012514496 -0.055943567
000120 35 95 99 3e fc d5 b8 3b 4f 9e 32 bd ca 4f 2c bd
       0.29996648 0.0056407433 -0.043608006 -0.04206828
000130 6f 89 ac 3d f5 f5 b2 3d 05 cc 0a 3c 9c 58 ed bd
       0.08424651 0.08738319 0.008471494 -0.115891665
000140 da c4 bf 3b ba 68 8d bd e0 38 9d bd 8f 28 01 3d
       0.005852324 -0.06904741 -0.07676864 0.03153282
000150 a5 e8 99 3d 5e 0b 74 3d 49 b0 c8 bb 91 40 69 3d
       0.075150765 0.059581153 -0.0061245305 0.05694634
000160 4b 46 1a bc e1 67 43 bd 09 ba 14 3d a5 71 f6 3c
       -0.009416173 -0.04770649 0.03631023 0.030083487
000170 cf 92 74 bc ca 3e 99 bd 6b de 96 bd 7d 9e c1 3d
       -0.01492758 -0.07482679 -0.073666416 0.09454057
000180 c6 89 08 3d 2e 35 82 3d 34 85 91 bd ad 30 80 3c
       0.033334516 0.063577995 -0.071054846 0.01564821
000190 08 05 53 bb 54 29 8e 3d 71 d5 39 bc 48 fd 8b 3d
       -0.0032199044 0.069414765 -0.011342392 0.06835419
0001a0 a2 e3 59 3d 8e c5 a8 bc fc 0d c0 3d a6 1a 7d bc
       0.053195603 -0.020602014 0.09377667 -0.015448248
0001b0 33 49 bd bd 35 97 e1 bb f0 da c0 3c f4 2f e1 3d
       -0.09242477 -0.0068844804 0.023541898 0.109954745
0001c0 af ba e9 ba c9 4a 98 bd fc a9 b4 ba 1b e1 ae bd
       -0.0017832125 -0.07436139 -0.001378357 -0.08539029
0001d0 0d a1 2e 3e 88 25 90 3d 4a 6d 8b bd ac 99 6e 3c
       0.17053623 0.070384085 -0.068079546 0.014563005
0001e0 78 78 ab bd 00 37 92 bd ce db 53 bd 6a 20 92 bd
       -0.08372587 -0.07139397 -0.051723294 -0.07135089
0001f0 5f ff 8a 3d eb db 3e bd ec 39 f5 3c 7c 4f 19 3d
       0.067869894 -0.04659645 0.029934846 0.037429318
000200 db b3 cb 3d 51 cd d7 bc 2b 70 ad 3d e3 db 95 bd
       0.09946414 -0.02634302 0.0846866 -0.07317331
000210 3a fb 9d bd 47 de a7 bb 27 75 5c be 5f f8 9d 3d
       -0.07713933 -0.005122933 -0.21529065 0.07713389
000220 a9 4e af 3d 44 05 dd 3d 4e eb b8 bd 70 e4 58 bd
       0.08559925 0.1079202 -0.09029256 -0.05295223
000230 9e 34 9a 3d 71 c5 5e bb 51 f4 04 be 93 25 33 3c
       0.07529567 -0.0033992196 -0.12983824 0.010934251
000240 44 7b e1 bd e5 9b 4f bd 21 45 0f ba b5 9d 95 bd
       -0.11009839 -0.050685782 -0.0005465318 -0.07305471
000250 a6 c4 58 be 20 ac 37 3c 50 bb ae bd 9a 6f a6 bc
       -0.21168765 0.011210471 -0.08531821 -0.020316888
000260 fb 76 7d 3d e2 da 54 3d 20 68 47 3d a4 4d d6 3d
       0.061881047 0.051966555 0.048683286 0.104640275
000270 2d 9d 8c 3d 95 9a c4 3d 65 49 8a bb bd 0c 24 3d
       0.068659164 0.09599797 -0.004220175 0.04005121
000280 cf 3a b8 bd e2 b6 fa bc bc a4 8f 3a 2c a7 80 bd
       -0.08995592 -0.030604783 0.0010959129 -0.062818855
000290 85 a2 1e 3e dd 20 93 bd b3 0a cc 3b db 4a 07 be
       0.15491684 -0.071840025 0.0062268614 -0.13212149
0002a0 90 19 15 be 9d df cb 3d b7 fb 38 bd 28 9a 10 3e
       -0.14560533 0.0995476 -0.04516193 0.14121306
0002b0 c2 b7 9e 3d 97 78 35 3e 22 95 c9 bd 6a 76 92 3d
       0.07749893 0.17721783 -0.09842898 0.07151492
0002c0 f4 7d 8b 3d 3c 52 19 bc 99 b3 4a bd ea 78 9d 3c
       0.06811133 -0.009357985 -0.049487684 0.019222695
0002d0 04 64 53 3e 7d 0e b5 bd 5e cd c0 3d 94 36 ff 3c
       0.20643622 -0.08840654 0.09414171 0.031153955
0002e0 23 bf 3b 3e 72 8d 28 bc 9a 40 24 bd f4 d1 0d 3e
       0.18334632 -0.010287629 -0.04010067 0.13849622
0002f0 7a e4 20 be a5 ee 68 3d 47 f3 e7 bd 59 d5 a6 3d
       -0.15712157 0.056868214 -0.11325698 0.081461616
000300 fa f5 26 bd 3a 03 e6 bd f6 e7 82 bd 99 7e ca bb
       -0.040761925 -0.11231084 -0.06391899 -0.0061796424
000310 5d 31 75 3c 68 44 3b bc e4 d1 fd 3d 90 99 c2 bc
       0.014965382 -0.011429884 0.12393549 -0.023754865
000320 7a ae 70 bd 64 3e 0b 3d d8 36 10 bc e3 fb 74 bb
       -0.058760144 0.033995047 -0.008802138 -0.0037381581
000330 ab 59 0a 3d f4 40 a5 3b e3 2d aa 3d 91 3f 5b bc
       0.03377692 0.0050431434 0.083095334 -0.013381855
000340 07 9c 3d bd 2e 64 10 3d 82 dd b6 3a 90 cf de 3c
       -0.046291377 0.03525179 0.0013951513 0.027198583
000350 f2 2e 16 3d ba 83 a5 3a bd 40 8b bd 7e da 7b 3b
       0.036665864 0.0012627759 -0.06799457 0.0038429792
000360 13 0d 03 bc 4f f3 06 3d 7f 59 1c bd dd bb 8f bc
       -0.007998723 0.03294688 -0.038171288 -0.017545635
000370 69 7c a1 bc 67 62 47 bc 96 d5 81 3a 6d 32 bb 3c
       -0.019712644 -0.012169457 0.0009905573 0.022851193
000380 d9 3e 38 3d 0d f3 30 3c 08 fe 56 3d e6 c4 34 bd
       0.04498181 0.010800135 0.052488357 -0.04413309
000390 fe b5 25 bd 05 26 db 3c f8 c0 ac bd 9e 60 4d 3b
       -0.040456764 0.026751528 -0.08435243 0.0031338106
0003a0 40 7b 29 3d 4b 5f 8c 3d 9f cb de 3c 6b a1 83 bd
       0.041377306 0.06854113 0.027196703 -0.064272724
0003b0 31 58 16 bd 68 b7 1e bd f4 30 f7 3c ca b4 f8 bc
       -0.0367052 -0.03874913 0.03017471 -0.030359644
0003c0 f3 93 83 bd a9 5b 79 bd 7e 05 0d bd 3e 57 be bd
       -0.064247034 -0.06087843 -0.034429066 -0.09293984
0003d0 f0 8e fe 3d 0b 10 89 3d e9 e9 b2 3c b1 35 16 3d
       0.12429607 0.06692513 0.021840053 0.036672298
0003e0 c3 cb ad bd 87 0a 95 bc ad 3e 4e bc 8c 0e 2c bd
       -0.0848613 -0.018193496 -0.012588185 -0.04200606
0003f0 f1 d2 5e 3d 41 9d 4f bd b2 55 62 be db 25 6c 3c
       0.05440039 -0.05068708 -0.22103003 0.014413322

policy_net.8.bias f4 [4]
000000 5a 19 db 3d bb 89 ff 3c a5 50 fb 3d 1d 24 60 3e
       0.10698195 0.031193605 0.12271241 0.21888776
