IL/Model/model_reacher_39.pt (torch, 292527 bytes, 20 tensors)

policy_net.0.weight f4 [64, 24]
0	0xbecf338f	-0.40469024
1	0xbf9da025	-1.2314497
2	0x3e813364	0.2523452
3	0x3cd984f1	0.02655265
4	0x3e7bf85f	0.24606465
5	0xbe3139f4	-0.17307264
6	0x3ea970cb	0.33093867
7	0xbd7ef43e	-0.062244646
8	0x3e3aae92	0.18230656
9	0x3d83300d	0.06405649
10	0x3c8fb093	0.017540252
11	0x3b2bc8f6	0.0026212311
12	0xbdce334e	-0.10068379
13	0xbcb9fcc4	-0.022703536
14	0x3ea73e8a	0.326649
15	0x3e15d3b8	0.14631546
16	0x3e831bd8	0.2560718
17	0x3dfb6be8	0.12276441
18	0xbe84bf9c	-0.25927436
19	0xbf05de7e	-0.5229262
20	0xbedc98b0	-0.4308524
21	0xbd9e9d56	-0.07744853
22	0x3e3de7ab	0.18545406
23	0x3ca83125	0.020531246
24	0x3bec6d46	0.007215175
25	0xbf5296f1	-0.8226157
26	0xbda9b32a	-0.08286126
27	0x3e5c34f8	0.21504581
28	0x3e845cdd	0.258521
29	0x3e5e7dc9	0.2172767
30	0x3f711851	0.9417773
31	0xbe996e0b	-0.2996677
32	0xbde0866e	-0.109631404
33	0xbe973c9c	-0.2953843
34	0x3e990a8e	0.29890865
35	0x3bdfb2f2	0.006826752
36	0xbbb78d02	-0.0056015262
37	0xbeaf379b	-0.3422211
38	0xbce00b12	-0.027349029
39	0xbdd27e25	-0.102779664
40	0xbdff1466	-0.124550626
41	0xbe692f67	-0.22771989
42	0xbe9016d8	-0.28142428
43	0xbdf86b70	-0.12129867
44	0xbe85d828	-0.26141477
45	0x3e20700f	0.15667747
46	0xbdc363e4	-0.09540537
47	0xbe0c6e1b	-0.13713877
48	0x3e164ac8	0.14676964
49	0x3f412365	0.7544463
50	0xbeb3adf5	-0.35093656
51	0x3fd536b2	1.6657317
52	0xbd24c73b	-0.040229063
53	0xbd6c6da6	-0.057721756
54	0xbd20bd49	-0.039243016
55	0x3db0dc4f	0.086357705
56	0x3eeabb41	0.45845988
57	0xbd853704	-0.06504634
58	0x3d98bb30	0.07457578
59	0xbcd55fda	-0.026046682
60	0x3ecad6bc	0.39616954
61	0x3e9f82bd	0.31154433
62	0xbc330f87	-0.010928995
63	0xbda2ced9	-0.07949609
64	0xbd9d4efc	-0.07681081
65	0xbe3b0d53	-0.18266802
66	0x3d54c730	0.051947773
67	0x3c920b25	0.01782758
68	0x3d49ce48	0.04926899
69	0x3e3ccc54	0.1843732
70	0xbdc835bd	-0.09775875
71	0xbe63df2d	-0.22253104
72	0x3ece6051	0.4030786
73	0x3f19183a	0.5980259
74	0xbebfee60	-0.37486553
75	0xbfa55e41	-1.2919389
76	0x3e9b10bc	0.30286205
77	0x3dfe3158	0.12411755
78	0x3e9e7003	0.30944833
79	0x3db311f4	0.08743659
80	0xbdfe6631	-0.12421835
81	0x3dbe378a	0.09287937
82	0xbdcaf517	-0.099100284
83	0xbf14c662	-0.5811521
84	0xbd44d546	-0.048054956
85	0x3c313ef9	0.0108182365
86	0x3c64c8d3	0.013963896
87	0xbd65c9a2	-0.056100495
88	0xbdb703ba	-0.08936258
89	0xbd3c0441	-0.045902494
90	0xbde493b0	-0.11160982
91	0xbec3c96a	-0.38239604
92	0xbdd770b3	-0.105195425
93	0xbe81c894	-0.2534834
94	0xbd971d50	-0.07378638
95	0x3dc0d138	0.09414905
96	0xbdb43efa	-0.08801074
97	0x3e000cdf	0.1250491
98	0xbe1ea0f7	-0.1549109
99	0x3e8bd4d1	0.27310804
100	0x3cdac077	0.026703103
101	0x3ddca3b4	0.107734114
102	0x3d0aeefb	0.033919316
103	0x3d99b0cc	0.075044245
104	0xbd025c73	-0.031826448
105	0xbe1679d2	-0.14694908
106	0xbe28bb50	-0.16477704
107	0x3eecaf47	0.46227476
108	0xbf106a9a	-0.5641266
109	0x3d1dec2d	0.038555313
110	0x3e364d7f	0.17803
111	0x3de88f8c	0.113555044
112	0x3eb31fba	0.34985143
113	0x3e988369	0.29787758
114	0x3e26974a	0.1626865
115	0x3e8303d6	0.25588864
116	0xbd992c82	-0.07479192
117	0xbe34abf0	-0.17643714
118	0xbe306441	-0.17225744
119	0xbd8b6614	-0.06806579
120	0xbed8ac6a	-0.42319041
121	0xbe1c00d3	-0.1523469
122	0x3ea53c2b	0.32272467
123	0xbfce6d9f	-1.6127204
124	0xbe4105c8	-0.18849862
125	0xbda4a56d	-0.08039365
126	0x3e8c78ea	0.27436
127	0xbe4dcb8a	-0.20097175
128	0xbf164cbd	-0.58710843
129	0x3e36673b	0.17812817
130	0xbe8a5c1e	-0.27023405
131	0xbda91f1b	-0.08257886
132	0xbd97729b	-0.07394906
133	0xbe45e631	-0.19326092
134	0x3e2e73ce	0.17036363
135	0x3e2f7607	0.17134868
136	0x3e4a50f7	0.19757448
137	0x3df8ab7d	0.12142084
138	0x3e7b4210	0.2453692
139	0x3e7cb2fa	0.24677649
140	0x3da5f38c	0.081030935
141	0x3cb63798	0.022243306
142	0xbe186003	-0.14880376
143	0x3dcce21f	0.10004067
144	0xbe9cd8ad	-0.3063406
145	0x4034648c	2.818637
146	0x3e2eb432	0.17060927
147	0xbf188590	-0.595788
148	0xbea18502	-0.3154679
149	0x3ea6f3c6	0.3260786
150	0xbf0002da	-0.5000435
151	0x3e35d6b2	0.17757681
152	0x3de97d45	0.114008464
153	0xbc23f591	-0.010007278
154	0x3e5eebb8	0.21769607
155	0xbe0a2930	-0.13492274
156	0x3d84e250	0.06488478
157	0x3dcf4a95	0.10121647
158	0x3cde74fd	0.027155394
159	0xbe278ea1	-0.16363002
160	0x3e118fd8	0.14215028
161	0x3e458d6f	0.19292234
162	0x3cbb699d	0.022877509
163	0x3e988401	0.2978821
164	0x3e52d018	0.20587194
165	0xbda370c3	-0.07980492
166	0xbe99dd0d	-0.3005146
167	0xbe30a34b	-0.17249791
168	0xbcc9d8c7	-0.0246395
169	0x3ee295c3	0.44254884
170	0x3f1692d1	0.58817774
171	0x3fb625e9	1.4230319
172	0xbe1a6bf8	-0.1508025
173	0x3e6dde8d	0.23229428
174	0x3e445be3	0.19175677
175	0xbe158092	-0.14599827
176	0x3e00362d	0.12520666
177	0xbea72ffe	-0.32653803
178	0x3ca7b5d2	0.02047244
179	0x3e885a50	0.26631403
180	0xbe71d3b0	-0.23615909
181	0xbd0f189c	-0.03493558
182	0xbe4830ae	-0.1954982
183	0xbd11753e	-0.0355122
184	0xbe0598b5	-0.13046534
185	0x3e29a221	0.16565754
186	0xbd43fbec	-0.047847673
187	0xbd3c841e	-0.046024434
188	0x3e15922a	0.14606538
189	0xbe4acb39	-0.19804086
190	0x3cadebe2	0.021230642
191	0x3db20411	0.08692182
192	0x3f495788	0.7864919
193	0x3dc14de7	0.09438687
194	0xbee5f6c2	-0.44914824
195	0xbedbada9	-0.4290593
196	0xbdd4bb06	-0.103872344
197	0x3e718bd0	0.2358849
198	0xbe1ef2e2	-0.1552234
199	0x3e1e2cd4	0.15446788
200	0x3c922001	0.017837526
201	0x3e8fe3f3	0.281036
202	0xbb266165	-0.0025387642
203	0x3d4a38d0	0.049370587
204	0x3d736484	0.05942203
205	0x3dc9a6ac	0.09846243
206	0xbe2fbbc5	-0.17161472
207	0xbd198a1e	-0.037485234
208	0xbdbaf440	-0.09128618
209	0xbe50b25d	-0.2038054
210	0x3da209e4	0.07912043
211	0xbe002fa1	-0.12518169
212	0x3d08f20a	0.03343395
213	0x3df27f63	0.11840703
214	0xbd3ae68f	-0.045630034
215	0x3e4e5880	0.20150948
216	0x3e501f0a	0.2032434
217	0x3f97b280	1.1851349
218	0x3e582375	0.21107276
219	0xbfb1c1e1	-1.3887292
220	0xbeb6dab2	-0.35713726
221	0x3e60bd1f	0.21947144
222	0xbd92e4e8	-0.07172567
223	0x3d8c22d1	0.06842578
224	0x3d35ae08	0.044355422
225	0x3ec4332b	0.38320288
226	0x3ee25b7e	0.44210428
227	0xbe4c958a	-0.1997892
228	0xbe16528d	-0.14679928
229	0xbe94cdd8	-0.29063296
230	0x3e8f10f9	0.27942637
231	0x3e496b47	0.1966983
232	0x3e27c633	0.16384201
233	0x3d052018	0.03250131
234	0x3e07f59d	0.13277288
235	0xbe59574d	-0.21224709
236	0xbec2f652	-0.38078552
237	0xbe8ae63f	-0.2712879
238	0xbd61b06c	-0.05509989
239	0x3d7990be	0.060929053
240	0x3f079245	0.52957565
241	0x3fc91650	1.5709934
242	0x3ea4e54e	0.32206196
243	0xbf644602	-0.89169323
244	0x3e81c9e5	0.25349346
245	0x3e38ed1b	0.18059199
246	0xbf08f947	-0.5350537
247	0xbd0b1af4	-0.03396125
248	0xbe82738d	-0.25478783
249	0x3ee1dc43	0.4411336
250	0x3e9c0345	0.30471244
251	0xbd7cfb34	-0.061763003
252	0x3e31baec	0.17356461
253	0x3e4868ee	0.19571277
254	0xbeaa2452	-0.33230835
255	0xbeb8c1a4	-0.36085236

policy_net.0.bias f4 [64]
0	0xbdc7372a	-0.097273186
1	0xbddc67ae	-0.10761963
2	0xbe715912	-0.23569134
3	0xbca10a0c	-0.019658111
4	0x3e089d82	0.13341334
5	0xbe4db227	-0.20087491
6	0x3e02792b	0.12741534
7	0xbc30e841	-0.010797561
8	0x3e125a39	0.1429223
9	0x3e2cb3e4	0.16865498
10	0xbde36608	-0.11103445
11	0x3d363641	0.044485334
12	0xbe8933c1	-0.26797298
13	0xbe97b6d7	-0.29631683
14	0x3e7cfe34	0.24706346
15	0x3dd17b2b	0.102285706
16	0x3e1c2b2e	0.15250847
17	0x3e82eec9	0.25572804
18	0x3db8e47e	0.090279564
19	0xbe0fb0d0	-0.14032292
20	0x3d009f0b	0.031401675
21	0x3c36568f	0.011129036
22	0xbe454989	-0.19266333
23	0x3db6ad42	0.08919765
24	0xbd1bbba2	-0.038020737
25	0xbc11a8ff	-0.008890389
26	0x3e533b62	0.20628121
27	0x3d17f4f2	0.037098832
28	0x3e2e3658	0.17012918
29	0x3d225ff1	0.039642278
30	0xbdddd648	-0.108318865
31	0xbddd6038	-0.10809368
32	0x3da66945	0.08125547
33	0x3e80959e	0.2511415
34	0xbddb5d21	-0.10711122
35	0xbd7cb060	-0.06169164
36	0xbc8a0be4	-0.016851373
37	0x3ced85af	0.02899441
38	0xbe0e7bc3	-0.13914399
39	0x3e41859d	0.18898626
40	0x3da0c004	0.07849124
41	0xbe831285	-0.25600067
42	0x3d0f30da	0.034958698
43	0x3bcd96bb	0.006274072
44	0xbe2ffa0b	-0.17185228
45	0xbe3adc8a	-0.18248191
46	0x3e7d9cbf	0.24766825
47	0xbc113a2e	-0.008863969
48	0x3c2d917d	0.010593769
49	0x3e06df1a	0.13171044
50	0x3e1148d5	0.1418794
51	0xbbfa462b	-0.007637759
52	0x3e0d88d6	0.1382173
53	0x3e5b34af	0.21406816
54	0x3cb62953	0.022236502
55	0x3e74c204	0.23902136
56	0xbe3ae103	-0.18249898
57	0x3b921837	0.004458453
58	0xbdcce73d	-0.10005043
59	0x3e1bcbe8	0.15214503
60	0x3e15b0f3	0.14618282
61	0xbe55788e	-0.20846769
62	0xbe15a6db	-0.14614432
63	0xbd6b7522	-0.057484753

policy_net.2.weight f4 [128, 64]
0	0xbe544042	-0.20727637
1	0x3ceb0c3c	0.028692357
2	0xbe4dd4ee	-0.20100757
3	0xbe876577	-0.264446
4	0x3d8b1fe6	0.067931935
5	0x3e72ca50	0.23709989
6	0x3d09ffc0	0.033691168
7	0x3e5ee1b7	0.21765791
8	0x3e1df4bb	0.15425389
9	0x3db20f14	0.08694282
10	0xbe03323e	-0.12812135
11	0xbec80dad	-0.39072934
12	0x3e6813ca	0.22663799
13	0xbca9e5b0	-0.020739406
14	0x3e78a2c9	0.24280848
15	0x3ed01af8	0.40645576
16	0xbe48a75b	-0.19595091
17	0xbb825d93	-0.00397844
18	0xbe294bfe	-0.16532895
19	0x3d06204d	0.03274565
20	0xbe2fe3a1	-0.17176677
21	0xbdebd673	-0.11515512
22	0x3e8bb46b	0.27286085
23	0x3e965182	0.2935906
24	0x3e3536a6	0.17696628
25	0xbeacf659	-0.33781698
26	0xbec16922	-0.37775522
27	0x3ed37580	0.41300583
28	0x3d5be271	0.05368275
29	0x3e1020fd	0.14075084
30	0xbed2b3ef	-0.41152903
31	0xbe1abe28	-0.15111601
32	0xbe8595bb	-0.26090798
33	0x3de02520	0.10944581
34	0xbc8abca5	-0.016935656
35	0xbdb7ce73	-0.08974924
36	0x3d47ca4d	0.048776913
37	0x3e693549	0.22774233
38	0xbef2106d	-0.47278157
39	0xbe65d65a	-0.2244505
40	0x3d43bdfb	0.0477886
41	0xbf0cbd1d	-0.54976064
42	0xbe6ac8e8	-0.22928202
43	0x3f35cde6	0.710173
44	0xbdeed090	-0.11660874
45	0x3d932af2	0.071859255
46	0x3d5155f3	0.05110736
47	0x3d13949f	0.036030408
48	0x3dc40845	0.0957189
49	0xbee6017d	-0.4492301
50	0xbd8143ce	-0.06311761
51	0x3e25eec4	0.16204363
52	0xbd7bfb65	-0.061519045
53	0xbe9ec621	-0.31010535
54	0x3e7b7b05	0.24558647
55	0x3c72cb07	0.014818913
56	0xbdd2595b	-0.102709495
57	0x3b0c0a0d	0.0021368295
58	0x3e818bd4	0.25301993
59	0x3e035e9f	0.12829064
60	0xbdfb8e8f	-0.1228305
61	0xbe5ca935	-0.21548922
62	0x3d040aca	0.03223685
63	0x3b4dc4c0	0.003139779
64	0xbee9620f	-0.45582625
65	0x3e35a789	0.17739691
66	0x3e8a3f83	0.2700158
67	0x3d4ccafd	0.049998272
68	0xbfc35375	-1.5259844
69	0x3d93ab83	0.07210448
70	0x3e0a1490	0.13484406
71	0xbf215b6f	-0.6303014
72	0x3c177513	0.009244221
73	0xbd394c9f	-0.045239087
74	0xbc26542d	-0.010151905
75	0xbdf884e5	-0.121347226
76	0x3dcd72ea	0.10031684
77	0x3e33f54f	0.17574047
78	0x3cc06cd7	0.023489399
79	0x3e09e2df	0.1346545
80	0xbdbfde3c	-0.0936856
81	0x3deac416	0.11463182
82	0x3de72676	0.11286633
83	0xbde437cf	-0.11143457
84	0x3d053004	0.032516494
85	0x3dd0401f	0.1016848
86	0xbe53334b	-0.20625035
87	0xbf22de99	-0.6362091
88	0xbb3d7e3a	-0.0028914348
89	0x3c169b81	0.009192348
90	0x3e8bdae2	0.27315432
91	0x3ea32f84	0.3187219
92	0xbd8bc3c5	-0.068244494
93	0x3d00fdb7	0.03149196
94	0x3b508e69	0.0031823164
95	0x3d293a78	0.041315526
96	0xbf03b5ec	-0.51449466
97	0xbe8a56f0	-0.27019453
98	0x3b303283	0.0026885576
99	0x3e228a31	0.15873028
100	0x3e8426f8	0.2581098
101	0x3e2eedbb	0.17082874
102	0xbd019393	-0.03163488
103	0xbea58a94	-0.3233229
104	0xbeddc6c4	-0.4331571
105	0x3d704ffa	0.05867002
106	0x3c2dbda6	0.010604298
107	0xbf1595b3	-0.5843155
108	0x3e75d20a	0.24005905
109	0x3d8e454e	0.069468126
110	0xbcc086f1	-0.023501845
111	0x3dcd33dc	0.10019657
112	0x3ef86403	0.48513803
113	0x3e08c4fd	0.13356395
114	0xbede0241	-0.43361095
115	0xbc3e82d4	-0.011627872
116	0x3ea176eb	0.3153604
117	0xbeb23c7b	-0.34811768
118	0x3d72244f	0.059116658
119	0x3cdf1217	0.027230306
120	0x3d467145	0.048447866
121	0xbe63139c	-0.22175449
122	0xbe542286	-0.20716295
123	0xbd13cc71	-0.036083642
124	0x3e0c2bd9	0.13688602
125	0x3de4fe4a	0.11181314
126	0xbdd242ec	-0.102666706
127	0x3d6fdf85	0.058562774
128	0xbe31c436	-0.17360005
129	0xbd8c3a2c	-0.06847033
130	0xbe9c5481	-0.3053322
131	0x3e16e1d5	0.14734586
132	0x3a6a3fe7	0.0008935914
133	0x3e9831c8	0.2972548
134	0x3d953195	0.07284848
135	0x3d6cbb9c	0.057796106
136	0x3e342b7c	0.17594713
137	0x3ddfe561	0.109324224
138	0x3db293a4	0.087195665
139	0xbd2605c8	-0.040532857
140	0xbe266ca8	-0.16252387
141	0xbefd9d77	-0.495342
142	0xbd758d72	-0.059949346
143	0xbe81165d	-0.25212374
144	0xbe256809	-0.16152968
145	0x3e09b339	0.13447274
146	0x3ed6c884	0.41949856
147	0xbe90747c	-0.2821387
148	0x3d2dfd88	0.042478114
149	0xbd8ff5e3	-0.07029321
150	0xbe3ab472	-0.18232897
151	0xbe9feac7	-0.31233808
152	0xbe5ba483	-0.21449475
153	0x3eb2760a	0.34855682
154	0x3d40f544	0.047108904
155	0x3e369e5d	0.17833848
156	0x3e7eeec4	0.2489577
157	0xbe22b8cf	-0.15890811
158	0xbc635737	-0.013875774
159	0x3e57636f	0.21034025
160	0x3e1b1a1d	0.1514668
161	0xbd2a2d35	-0.04154702
162	0xbe02451c	-0.12721676
163	0x3d17d6e4	0.03707017
164	0xbc980744	-0.018558152
165	0xbf166740	-0.58751297
166	0x3e3a3012	0.181824
167	0x3ee8cd27	0.4546902
168	0xbda4226c	-0.08014378
169	0xbf1ccf7e	-0.6125411
170	0xbd399883	-0.045311462
171	0xbe0ed0f5	-0.13946898
172	0xbe8a872c	-0.27056253
173	0x3de5750a	0.11203964
174	0xbd0a5e06	-0.033781074
175	0x3dc96e86	0.09835534
176	0xbde2455c	-0.110483855
177	0x3e0b3283	0.13593487
178	0x3e8cfc8f	0.27536437
179	0xbea4d305	-0.32192245
180	0x3e44667b	0.19179718
181	0xbde6f34c	-0.11276874
182	0xbd9e36bd	-0.07725284
183	0x3c952306	0.018205177
184	0xbef067a8	-0.46954083
185	0xbdcb20ca	-0.099183634
186	0xbf00933d	-0.5022467
187	0x3dd621e8	0.10455686
188	0x3e9e157d	0.3087577
189	0xbea15c7f	-0.3151588
190	0xbdb32321	-0.08746935
191	0xbea1cb23	-0.31600294
192	0xbec7cf40	-0.39025307
193	0x3e91fa16	0.28511113
194	0xbeb51d12	-0.3537374
195	0xbd38d90b	-0.045128863
196	0xbdbbd97b	-0.091723405
197	0xbcbc6d1f	-0.023001252
198	0xbea6c643	-0.32573137
199	0x3ccdc0c3	0.02511633
200	0x3d5370a2	0.051621087
201	0x3ebd5de0	0.36985683
202	0x3e93ab54	0.2884165
203	0xbe74f38c	-0.23921031
204	0xbe448e89	-0.19194998
205	0x3d220796	0.039558016
206	0xbb951b56	-0.004550378
207	0xbd2f3fa5	-0.042785306
208	0x3cb8a9b5	0.02254186
209	0x3df1a5df	0.117992155
210	0xbdf84b10	-0.12123692
211	0xbf29d794	-0.6634457
212	0x3e0fad23	0.1403089
213	0xbdd91222	-0.10599162
214	0x3d41c494	0.047306612
215	0xbe027f9d	-0.12743993
216	0xbeefc959	-0.46833304
217	0x3e03b27c	0.12861055
218	0xbcd1c181	-0.025604965
219	0xbd8d2114	-0.06891075
220	0xbe731d3f	-0.23741625
221	0xbaab4dd5	-0.001306946
222	0xbd49422a	-0.049135365
223	0xbf172f54	-0.5905659
224	0x3ee8808f	0.45410582
225	0x3e09d5b5	0.13460429
226	0x3e15987e	0.14608952
227	0x3e2035ca	0.15645519
228	0xbd87e89e	-0.06636165
229	0x3dc9d494	0.09854999
230	0x3e143ed9	0.144771
231	0xbedebb65	-0.43502346
232	0xbd166256	-0.036714874
233	0xbee82e06	-0.45347613
234	0x3d96cece	0.073636636
235	0xbecfe6ae	-0.40605682
236	0xbdd91b44	-0.10600904
237	0xbf661f3c	-0.8989141
238	0xbf0738d0	-0.52821064
239	0x3e19350e	0.14961645
240	0xbea45763	-0.3209792
241	0xbe6a6aa0	-0.22892237
242	0x3ee23b25	0.4418575
243	0xbee96cc0	-0.45590782
244	0x3e9b491e	0.3032922
245	0x3e79e298	0.24402845
246	0x3e9af514	0.30265105
247	0x3ecc16ab	0.39861044
248	0xbe505e04	-0.20348364
249	0xbe80e3f7	-0.25173923
250	0xbe011b37	-0.12608038
251	0xbecb2766	-0.39678496
252	0xbebde893	-0.37091503
253	0xbe0a7496	-0.13521037
254	0xbc0b08f6	-0.008486023
255	0x3e1f7eb8	0.15575683

policy_net.2.bias f4 [128]
0	0x3d7b4975	0.06134935
1	0xbd7b591c	-0.06136428
2	0x3e29050f	0.16505836
3	0x3c78159d	0.015141872
4	0x3c35c375	0.011093964
5	0x3dbf8745	0.093519725
6	0xbca231d7	-0.019799156
7	0xbd7fec19	-0.06248102
8	0x3d26f088	0.040756732
9	0x3df497fb	0.119430505
10	0xbe421e54	-0.18956882
11	0x3d112b8a	0.035441913
12	0xbd88a151	-0.06671394
13	0xbdff2b6e	-0.124594554
14	0x3db06ad4	0.08614126
15	0x3d4224b1	0.047398273
16	0x3cdb60b3	0.026779508
17	0xbe36ca2e	-0.17850563
18	0x3db4adba	0.08822198
19	0x3e2b455a	0.16725674
20	0xbe604d71	-0.21904542
21	0x3d1940ae	0.0374152
22	0xbe074987	-0.13211642
23	0xbdc61355	-0.09671656
24	0x3be55c0a	0.0069994973
25	0xbd6bfa7e	-0.057611935
26	0x3cbd94a0	0.023142159
27	0x3c94ee18	0.018179938
28	0x3c7b6d22	0.0153458435
29	0xbcdf916f	-0.027291028
30	0xbd14976e	-0.036277227
31	0xbd84257c	-0.06452462
32	0x3bf43ea2	0.0074537555
33	0x3cca7cae	0.024717655
34	0xbe38e7da	-0.18057194
35	0xbe365625	-0.17806299
36	0xbe034975	-0.1282099
37	0x3e328e16	0.17437014
38	0x3e823d53	0.25437412
39	0x3dd4da40	0.103931904
40	0xbe08b851	-0.13351561
41	0xbe6b75cc	-0.22994155
42	0x3d6ac080	0.05731249
43	0x3d1bb205	0.03801157
44	0xbe311aa1	-0.17295314
45	0xbd6b8a0d	-0.057504702
46	0x3cf14d3c	0.029455774
47	0x3c25eab0	0.010126755
48	0x3e1d8efd	0.15386577
49	0xbe6e7583	-0.23287015
50	0xbe4feb04	-0.20304495
51	0x3e3796bd	0.17928596
52	0xbd3be915	-0.04587658
53	0x3e0f74c6	0.1400939
54	0x3cd392d2	0.025826845
55	0xbca1b126	-0.019737791
56	0x3dc16db6	0.09444754
57	0xbb548e6e	-0.0032433528
58	0x3cd91e68	0.026503757
59	0x3bcb2706	0.0061997203
60	0xbddef69c	-0.10886881
61	0xbdc24878	-0.094864786
62	0x3de5cff0	0.112213016
63	0xbe1e9ff0	-0.15490699
64	0xbdf9a97b	-0.12190529
65	0xbd89b83f	-0.06724595
66	0xbd8dcee8	-0.0692423
67	0xbe05aa12	-0.13053158
68	0x3d2ae904	0.041726127
69	0x3c8ad8d1	0.01694909
70	0xbe3a56f9	-0.1819724
71	0xbe17e191	-0.1483214
72	0x3df8ea16	0.12154023
73	0xbb33d080	-0.0027437508
74	0x3e120be3	0.14262347
75	0x3e20fc4a	0.1572124
76	0xbcc28cad	-0.02374872
77	0xbda3ebdc	-0.08003971
78	0x3dbb21f9	0.09137339
79	0x3cb49ae5	0.022046516
80	0x3b9463e5	0.00452851
81	0xbc131ded	-0.008979303
82	0xbc93a8a4	-0.01802475
83	0x3d0ea758	0.03482756
84	0x3c814390	0.015779287
85	0xbce4accc	-0.027914427
86	0x3cfc89ec	0.030827485
87	0xbc02b868	-0.007978536
88	0x3e0b0f14	0.1357997
89	0x3e28e019	0.16491736
90	0x3d4586c1	0.048224214
91	0xbd1c8408	-0.038211852
92	0xbe187cd8	-0.14891374
93	0x3c5353e4	0.012898419
94	0xbd273b98	-0.040828317
95	0xbd7985ff	-0.060918804
96	0xbe04c41d	-0.12965436
97	0xbe0b887f	-0.13626288
98	0xbe08b507	-0.13350306
99	0xbe95046d	-0.2910494
100	0x3d4c953b	0.049947005
101	0xbd7d7cb4	-0.061886504
102	0x3c366529	0.011132517
103	0x3d304fea	0.043044962
104	0xbcaf8625	-0.02142627
105	0xbe22fa6c	-0.15915841
106	0x3b8f3ee4	0.004371511
107	0x3d1525e8	0.036413103
108	0xbe4690d2	-0.19391182
109	0x3d843593	0.06455531
110	0xbddc590c	-0.10759172
111	0xbca7c748	-0.020480767
112	0xbd6fa84b	-0.058510106
113	0x3db24323	0.087042116
114	0x3d579650	0.052633584
115	0xbd3d6b98	-0.046245188
116	0xbd876a11	-0.066120274
117	0x3dea1864	0.114304334
118	0xbe4ba80c	-0.19888324
119	0xbdc321ba	-0.09527917
120	0x3c884e33	0.01663885
121	0x3d0b70a9	0.034042988
122	0xbe0e1a41	-0.13877203
123	0x3e8d1875	0.27557722
124	0xbd989402	-0.07450105
125	0x3d44e16b	0.048066538
126	0x3e09295d	0.13394685
127	0xbb38a07c	-0.0028171828

policy_net.4.weight f4 [128, 128]
0	0xbde84d38	-0.11342853
1	0x3e424b08	0.18973935
2	0x3df5d1c3	0.120028995
3	0xbd3be6db	-0.045874458
4	0x3c0ca468	0.008584119
5	0x3e61c2ef	0.22047018
6	0x3d246911	0.04013926
7	0x3e61dd23	0.22057013
8	0xbf12ab09	-0.5729223
9	0x3cb894ae	0.022531833
10	0xbde5b7eb	-0.1121672
11	0x3d7c79e1	0.06163967
12	0x3d17fad1	0.03710443
13	0xbcbb9bab	-0.022901377
14	0x3ecb3195	0.39686266
15	0xbecc8eab	-0.39952597
16	0xbe283663	-0.16426997
17	0x3e59f26f	0.21283887
18	0x3e053c17	0.13011204
19	0xbeca6f72	-0.3953815
20	0x3ec6f09c	0.38855445
21	0xbcb97c24	-0.022642203
22	0x3e819338	0.25307631
23	0xbe6d9af4	-0.23203641
24	0x3e404d09	0.18779387
25	0xbdd370fd	-0.10324285
26	0xbf183aec	-0.5946491
27	0x3ea2f2e5	0.3182594
28	0xbc478442	-0.012177529
29	0xbd96a962	-0.07356526
30	0xbec10a65	-0.37703243
31	0xbe904259	-0.2817562
32	0x3dee4ab1	0.1163534
33	0x3dfd3408	0.1236344
34	0x3e56dd30	0.20982814
35	0xbf168aa5	-0.58805305
36	0xbcdf04b8	-0.02722393
37	0xbe56fd08	-0.20994961
38	0xbe2a1c5e	-0.16612384
39	0xbde1b5a5	-0.11020974
40	0x3e6eefe1	0.23333694
41	0xbccd4821	-0.025058808
42	0x3e644204	0.22290808
43	0x3e31ec85	0.17375381
44	0xbe25704f	-0.16156124
45	0xbf8333b2	-1.0250151
46	0xbeaf1094	-0.34192336
47	0xbf06b598	-0.5262084
48	0x3e466de5	0.19377859
49	0x3f00999b	0.50234383
50	0x3dfce087	0.12347513
51	0x3e63c755	0.22244008
52	0x3e8d3b82	0.27584463
53	0xbe73decc	-0.23815459
54	0xbea13e71	-0.31492952
55	0xbda67dc0	-0.08129454
56	0xbdd0d5c2	-0.10197021
57	0xbeae8085	-0.34082428
58	0xbe376931	-0.17911221
59	0xbbe8b0a0	-0.0071011335
60	0x3ea4a82a	0.3215955
61	0x3e97eed6	0.29674405
62	0xbf3932c0	-0.72343063
63	0xbdd447c0	-0.10365248
64	0xbe1b486a	-0.15164343
65	0x3c6bba62	0.014387699
66	0xbe90d1c1	-0.2828503
67	0x3c9e7ac2	0.019345645
68	0xbe31f99b	-0.17380373
69	0xbec58c03	-0.38583383
70	0xbe6d3957	-0.23166405
71	0xbe5550b5	-0.20831569
72	0xbe200ef9	-0.15630712
73	0xbd472604	-0.04862024
74	0xbe06c7bb	-0.13162129
75	0xbe0e0b30	-0.13871455
76	0xbe27a9fb	-0.16373436
77	0xbe1a4059	-0.15063609
78	0x3eb727a3	0.35772428
79	0xbe0cf0d2	-0.1376374
80	0x3e92809a	0.2861374
81	0x3e298134	0.16553193
82	0x3da9394e	0.08262883
83	0xbdbdfbac	-0.09276518
84	0xbe5a7c88	-0.21336567
85	0x3eadd228	0.339494
86	0xbd003588	-0.03130105
87	0x3e1f90fa	0.15582648
88	0x3d6cc699	0.057806585
89	0xbdfba806	-0.12287907
90	0x3cdcebb8	0.026967868
91	0xbe4e0781	-0.2012005
92	0xbce885bc	-0.028384082
93	0x3dfe53b8	0.12418312
94	0xbe1e4403	-0.15455632
95	0x3ed71c9c	0.42014015
96	0xbe617394	-0.22016746
97	0x3e7744aa	0.24147287
98	0xbe8d0d00	-0.2754898
99	0xbd8d9792	-0.06913675
100	0x3dc53b58	0.096304595
101	0xbc91295e	-0.01771992
102	0xbe022566	-0.12709579
103	0x3ea0b6d8	0.313895
104	0xbde5e900	-0.11226082
105	0xbdcc83d3	-0.09986081
106	0x3e945273	0.28969154
107	0x3e17d4f8	0.14827335
108	0x3e271dc1	0.16319944
109	0xbef16188	-0.47144723
110	0xbc046276	-0.008080116
111	0xbde9cb24	-0.11415699
112	0xbe706a35	-0.23478015
113	0x3e133fda	0.14379826
114	0xbe1bcb89	-0.15214361
115	0xbe9b5ee5	-0.30345836
116	0x3d8fff9a	0.07031174
117	0xbe8f7cb9	-0.28024843
118	0x3e29b2c8	0.16572106
119	0xbd125e75	-0.035734612
120	0x3e3cdf25	0.18444498
121	0xbd841a9a	-0.06450386
122	0xbef14803	-0.47125253
123	0xbef0342f	-0.46914813
124	0x3d1185be	0.035527937
125	0x3ecd50f9	0.4010084
126	0x3dfa8803	0.122329734
127	0xbceae8aa	-0.028675396
128	0x3dbd8df8	0.09255594
129	0xbd6025c2	-0.05472351
130	0xbf173925	-0.5907157
131	0xbea89abb	-0.3293055
132	0xbe521aee	-0.20518085
133	0xbd16482b	-0.03668992
134	0x3d15e83f	0.03659844
135	0x3d8121c6	0.0630527
136	0xbeaf121b	-0.341935
137	0xbf01d713	-0.507188
138	0xbdaacdec	-0.08340058
139	0x3dedc729	0.116102524
140	0xbf04dd5d	-0.51900274
141	0xbd972258	-0.073795974
142	0x3e3bda5e	0.18345019
143	0x3e5a3b8d	0.2131178
144	0xbefe2347	-0.4963629
145	0x3e1701c1	0.14746763
146	0xbe6e6af4	-0.23282987
147	0x3ceb28b5	0.028705934
148	0xbe041cfb	-0.1290168
149	0xbec3f64e	-0.38273853
150	0xbdd6c454	-0.10486665
151	0xbe240807	-0.16018687
152	0xbeaacdce	-0.33360142
153	0x3d44cc96	0.04804667
154	0xbdbfa272	-0.09357156
155	0xbec16260	-0.37770367
156	0xbcd01cd3	-0.02540437
157	0x3d8a9a2b	0.067676865
158	0xbdcfe615	-0.101513065
159	0x3df8a4f6	0.12140839
160	0x3df0ad61	0.117518194
161	0x3d8e18ba	0.0693831
162	0xbd7353a6	-0.059405945
163	0xbf538473	-0.82623976
164	0xbe9ae785	-0.3025476
165	0xbdc1828c	-0.09448728
166	0xbcc86345	-0.024461398
167	0x3e8cfd07	0.27536795
168	0x3e8560f6	0.26050538
169	0xbe98b7dd	-0.29827777
170	0xbe42bc2d	-0.19017096
171	0xbdb0814e	-0.08618413
172	0xbe528b66	-0.20560989
173	0xbee5702a	-0.44812137
174	0xbd232855	-0.039833385
175	0xbe2b713b	-0.16742413
176	0xbea8950d	-0.32926217
177	0x3e0b76a1	0.13619472
178	0x3eac4ac1	0.33650783
179	0xbf4badfc	-0.79562354
180	0xbe5957a1	-0.21224834
181	0x3defdab9	0.1171164
182	0xbda45422	-0.080238596
183	0x3ecd4ac6	0.4009611
184	0x3dbccedb	0.09219142
185	0x3cec3658	0.028834507
186	0x3be09de2	0.0068547586
187	0x3a47be5c	0.00076196133
188	0xbf0b93b3	-0.54522246
189	0xbeb04eab	-0.3443502
190	0xbddfcdcb	-0.10927924
191	0xbe884141	-0.26612285
192	0xbed5c5a0	-0.41752338
193	0xbb67eb90	-0.003538821
194	0x3d58a05f	0.052887317
195	0x3e05083b	0.12991421
196	0xbe90ab24	-0.2825557
197	0xbe5ad04d	-0.21368523
198	0xbf204566	-0.62605894
199	0x3dcedf0d	0.10101137
200	0xbeabb0c4	-0.335333
201	0xbd8101a2	-0.062991396
202	0xbddcf4d6	-0.10788886
203	0x3e925cea	0.28586513
204	0x3e3638aa	0.17795053
205	0xbe134031	-0.14379956
206	0xbe8ecba7	-0.2788975
207	0x3e8fb3f2	0.28066975
208	0xbe4b91f3	-0.19879894
209	0xbeacd58d	-0.33756676
210	0xbe0d5a37	-0.13803945
211	0x3e6e6c97	0.23283611
212	0xbeab2c24	-0.33432114
213	0x3d5fbb01	0.0546217
214	0xbdc69011	-0.09695447
215	0x3e8f5c40	0.2800007
216	0xbe8a2d97	-0.26987907
217	0xbe302bd4	-0.17204219
218	0xbddc03c4	-0.10742906
219	0x3dcb988a	0.09941204
220	0x3e9fa3ab	0.31179556
221	0xbe72535d	-0.23664613
222	0x3d2fe9ee	0.042947702
223	0xbee80b7b	-0.4532126
224	0xbe3c83c7	-0.18409644
225	0xbe8fc5b2	-0.28080517
226	0x3effc34e	0.49953693
227	0xbdacd871	-0.084397204
228	0xbeccee2e	-0.40025467
229	0xbdcf22f0	-0.10114086
230	0x3e063bc1	0.13108732
231	0xbd78b794	-0.06072195
232	0x3e557ebe	0.2084913
233	0x3db164e5	0.08661822
234	0x3de1fe31	0.11034811
235	0xbea04cd3	-0.31308612
236	0x3e07ac4d	0.13249321
237	0x3dfa298f	0.12214958
238	0xbec07ea0	-0.37596607
239	0xbd8d8ef3	-0.06912031
240	0x3d4edf08	0.050505668
241	0xbe8828cf	-0.26593634
242	0x3ea319db	0.31855664
243	0x3eafddb3	0.3434883
244	0xbe73ab1a	-0.23795739
245	0xbd557e4a	-0.05212239
246	0x3bec7a6a	0.0072167413
247	0xbd07aba6	-0.03312268
248	0xbdb127d0	-0.08650172
249	0xbccbe155	-0.02488772
250	0x3e22fbd2	0.15916374
251	0xbe85145b	-0.25992092
252	0xbe09d53c	-0.13460249
253	0xbe3e98f8	-0.1861304
254	0xbebd1f73	-0.36938056
255	0x3dfe7af8	0.12425798

policy_net.4.bias f4 [128]
0	0xbdd372da	-0.103246406
1	0xbdd448e7	-0.103654675
2	0x3d6a7789	0.057242904
3	0xbdcc60c5	-0.09979395
4	0xbdafc6a6	-0.08582811
5	0x3d5130fe	0.051072113
6	0xbd1a92c0	-0.037737608
7	0xbe01fc8d	-0.12693997
8	0xbdb877f1	-0.09007252
9	0xbdbfbb48	-0.09361893
10	0x3e02bf98	0.127684
11	0xbc8831d1	-0.016625317
12	0x3d6002a8	0.054690033
13	0xbe129345	-0.14313991
14	0x3c14cb5e	0.00908169
15	0x3dd124d4	0.102121025
16	0xbb8a7efa	-0.0042265626
17	0xbc3235fe	-0.010877131
18	0xbdbe96ff	-0.09306144
19	0xbce7791b	-0.02825599
20	0xbdbc2696	-0.09187047
21	0x3acfe229	0.0015860248
22	0xbe2b00de	-0.1669955
23	0xbe6f3883	-0.23361401
24	0xbdc91495	-0.09818379
25	0x3e14c95f	0.14529942
26	0xbd6210b6	-0.055191718
27	0xbd5a41c5	-0.05328538
28	0xbd134291	-0.035952155
29	0x3dba3944	0.09092954
30	0x3d88f541	0.066874035
31	0xbd9903f8	-0.0747146
32	0x3e09fa41	0.1347437
33	0x3e1b8209	0.15186323
34	0x3d171483	0.036884796
35	0x3d14d65f	0.036337253
36	0x3da99819	0.082809635
37	0x3e2171d0	0.15766072
38	0xbe5ead89	-0.21745886
39	0x3d163cb5	0.03667899
40	0x3cf2a98a	0.029621858
41	0xbdd79d33	-0.1052803
42	0x3d5f7ea3	0.05456413
43	0x3dcc049d	0.099618174
44	0xbdfc75dc	-0.123271674
45	0x3dbfbb8f	0.09361946
46	0x3e1a082b	0.15042178
47	0xbc8c8a62	-0.01715583
48	0xbce45ba5	-0.02787573
49	0xbe22ce0b	-0.15898912
50	0xbdbc74dc	-0.09201977
51	0x3e04fc9b	0.12986986
52	0xbe7d4560	-0.24733496
53	0x3d8007bc	0.06251475
54	0x3d782cb7	0.06058952
55	0xbe5168d9	-0.20450152
56	0xbd649582	-0.055806644
57	0x3d831540	0.064005375
58	0x3d1fecbd	0.03904413
59	0xbbbcd94e	-0.0057632094
60	0xbe0aa6a8	-0.13540137
61	0x3cd96f2e	0.026542272
62	0xbea3307f	-0.31872937
63	0x3d8f397a	0.06993385
64	0xbc2d1f66	-0.010566568
65	0x3d5db2d1	0.05412561
66	0xbe76d2b6	-0.24103817
67	0x3e01b5c8	0.12667
68	0xbe2d0000	-0.16894531
69	0xbe05b8b2	-0.13058737
70	0xbd5ba212	-0.05362136
71	0xbe573646	-0.21016797
72	0x3e424834	0.18972856
73	0xbc5eee37	-0.0136065995
74	0x3e18b42f	0.14912485
75	0xbe0486ee	-0.12942097
76	0xbe57d232	-0.21076277
77	0x3e47cd2b	0.19511859
78	0x3e257f69	0.16161884
79	0x3d8a16b6	0.06742613
80	0xbeddfd53	-0.43357334
81	0xbdcab7c3	-0.09898331
82	0x3ea0c154	0.31397498
83	0xbe29f264	-0.16596371
84	0xbd996c0f	-0.07491314
85	0xbcc400cc	-0.023926161
86	0xbd5b3cb8	-0.053524703
87	0x3e319f12	0.17345837
88	0xbe622d83	-0.22087674
89	0x3d5770a6	0.052597664
90	0xbd916347	-0.07099014
91	0xbe3a0d73	-0.18169193
92	0xbdc8d292	-0.09805788
93	0xbc6d50da	-0.014484609
94	0xbe830299	-0.2558792
95	0x3dd31e6e	0.103085384
96	0xbe591218	-0.21198308
97	0x3db0c4f6	0.08631317
98	0xbdff4144	-0.1246362
99	0x3d825857	0.06364506
100	0x3e3f3f9e	0.18676612
101	0x3df963e0	0.12177253
102	0x3d9f3fbb	0.077758275
103	0xbd011f95	-0.03152426
104	0xbe5097e8	-0.20370448
105	0x3cbe0e7c	0.023200266
106	0xbc3113d5	-0.010807951
107	0xbe89f97b	-0.2694815
108	0xbcb507e8	-0.022098497
109	0x3d9abed4	0.07555929
110	0xbdcb3af9	-0.099233575
111	0x3d2dc3fb	0.04242323
112	0xbd882c47	-0.0664907
113	0x3decc65c	0.115612715
114	0x3dab333c	0.083593816
115	0x3e11fdef	0.14257024
116	0xbc110228	-0.008850612
117	0x3de40b78	0.11135
118	0xbdb3a859	-0.08772344
119	0x3e48f1ba	0.19623461
120	0xbe2d8220	-0.1694417
121	0x3e0a7b72	0.13523653
122	0xbb513c66	-0.003192687
123	0x3d829360	0.06375766
124	0xbe33294a	-0.1749622
125	0xbd11f555	-0.035634357
126	0x3d1da861	0.038490657
127	0xbd3dff26	-0.046385907

policy_net.6.weight f4 [64, 128]
0	0xbe3bddc5	-0.18346317
1	0x3e7ab684	0.24483687
2	0x3eadb3db	0.3392628
3	0xbf1b7520	-0.60725594
4	0xbe65d5ea	-0.22444883
5	0xbd99a2f4	-0.07501784
6	0xbcac951f	-0.0210672
7	0x3e0a3348	0.13496125
8	0x3e4bf6e7	0.19918405
9	0xbe0c9d43	-0.13731866
10	0xbe59fbf7	-0.21287523
11	0xbe054ed5	-0.13018353
12	0xbe610093	-0.21972875
13	0xbe547c43	-0.20750527
14	0xbeb61fe5	-0.3557121
15	0xbd5d584f	-0.054039296
16	0x3e3fb61e	0.18721816
17	0xbc48d0f9	-0.012256854
18	0xbe4e8196	-0.2016662
19	0x3d7133b2	0.05888719
20	0x3e52092c	0.20511311
21	0x3d080802	0.03321076
22	0x3e62242e	0.22084114
23	0x3e0d2268	0.13782656
24	0xbe8edffe	-0.27905267
25	0x3e3d9e6b	0.18517463
26	0xbe7ccfc0	-0.24688625
27	0x3eb7e4a8	0.35916638
28	0x3e267941	0.16257192
29	0x3b915bf9	0.004436013
30	0xbee88f07	-0.4542162
31	0xbe0f8bb3	-0.14018135
32	0xbd14e03f	-0.03634667
33	0xbe6ff7a0	-0.23434305
34	0xbe969895	-0.29413286
35	0xbd1067e8	-0.035255343
36	0x3dc93d23	0.09826114
37	0xbf3e7d3f	-0.7440986
38	0xbd265c5c	-0.040615425
39	0x3ea7c14d	0.32764664
40	0x3e0667db	0.13125555
41	0xbeb9fdbb	-0.36326393
42	0x3e253d68	0.16136706
43	0x3c1b6761	0.009485097
44	0xbebebe45	-0.3725454
45	0x3ea789e7	0.327224
46	0xbd9936d2	-0.07481159
47	0xbccce7e3	-0.025012916
48	0xbb96be56	-0.0046003265
49	0x3e7359c6	0.23764715
50	0xbed0fd58	-0.40818286
51	0x3dbfcf99	0.09365768
52	0x3e42783c	0.18991178
53	0xbdb1b68b	-0.086773954
54	0xbd678707	-0.056525256
55	0x3e06fe54	0.13182956
56	0x3d002f04	0.031294838
57	0xbd16df5b	-0.036834102
58	0x3eb0cee7	0.34532854
59	0xbd79ae6a	-0.06095735
60	0x3e2504d4	0.16115123
61	0x3e9a87a0	0.301816
62	0xbeaad55a	-0.333659
63	0xbe000090	-0.12500215
64	0xbe9d3dfe	-0.3071136
65	0x3d1f322a	0.0388662
66	0x3ca64116	0.020294707
67	0xbc8eeb9e	-0.017446335
68	0xbd656d41	-0.056012396
69	0xbeba8fde	-0.36437887
70	0x3d0e195b	0.03469215
71	0xbec3cd26	-0.38242453
72	0x3dafe4f9	0.08588595
73	0xbe423476	-0.18965325
74	0xbf121d13	-0.57075614
75	0x3df58a73	0.11989298
76	0xbe2eb25c	-0.17060226
77	0xbec55ff7	-0.38549778
78	0xbeca6385	-0.39529052
79	0xbe8bf1c7	-0.273329
80	0x3e1acdb2	0.15117529
81	0x3c5f527a	0.013630504
82	0x3e195eaf	0.14977525
83	0xbec2ba69	-0.38032845
84	0xbee5f48e	-0.44913143
85	0xbe7a9bd3	-0.24473505
86	0x3ea39a93	0.31953868
87	0xbee54e49	-0.4478629
88	0x3e0dd752	0.1385167
89	0xbdf0b07b	-0.11752411
90	0xbd2f3ad3	-0.04278071
91	0xbeac67ed	-0.3367304
92	0xbd8d31ce	-0.06894265
93	0xbc038cf3	-0.00802921
94	0x3e01f13f	0.12689684
95	0xbf407450	-0.7517748
96	0xbe0ec550	-0.13942456
97	0x3d826b69	0.06368143
98	0xbe5b01d0	-0.2138741
99	0x3d418ed7	0.047255363
100	0xbf32dcbb	-0.6986806
101	0x3ddc3cbc	0.10753772
102	0x3c1af7c6	0.009458488
103	0x3cfc2181	0.030777695
104	0xbe7f05bf	-0.24904536
105	0xbe0bafe7	-0.1364132
106	0xbb09bc5f	-0.002101682
107	0xbd3dc6ff	-0.046332356
108	0x3e7eb0ce	0.24872133
109	0x3def1e15	0.116756596
110	0xbce5cee6	-0.028052758
111	0xbeb1ae0b	-0.34703097
112	0xbe0e11a1	-0.13873912
113	0xbd763b78	-0.060115308
114	0xbdcea12d	-0.100893356
115	0xbf41dc40	-0.757267
116	0x3eda8e7b	0.4268683
117	0xbf0bf909	-0.5467687
118	0xbf1e8fa0	-0.61937904
119	0xbd88f438	-0.06687206
120	0xbd098c5f	-0.033581134
121	0x3e7e16c0	0.24813366
122	0xbd46370a	-0.048392333
123	0x3e1c2d28	0.152516
124	0xbdb15697	-0.08659094
125	0xbe7607b4	-0.24026376
126	0xbe45a798	-0.19302213
127	0xbd3493b3	-0.04408617
128	0xbbec0376	-0.007202561
129	0xbd62bbb1	-0.055354778
130	0xbe3e436e	-0.1858041
131	0xbdfbb797	-0.12290876
132	0xbe8c0b02	-0.27352148
133	0x3e8b0812	0.27154595
134	0xbd007962	-0.03136576
135	0xbc88b079	-0.016685711
136	0xbe693a00	-0.22776031
137	0x3d0dac09	0.034587894
138	0x3de83725	0.11338643
139	0x3d9db0fe	0.07699774
140	0xbe2efc98	-0.17088544
141	0xbe03b98b	-0.12863748
142	0x3e0d0260	0.13770437
143	0x3e88a593	0.26688823
144	0x3d7f873b	0.062384825
145	0xbe211a00	-0.15732574
146	0x3da6f05c	0.08151314
147	0x38e78167	0.000110390414
148	0xbdb1e6f7	-0.08686631
149	0x3e7746e3	0.24148135
150	0x3dc97b5e	0.098379835
151	0xbebe1752	-0.37127167
152	0xbf83b0d3	-1.0288337
153	0xbd7f8272	-0.06238026
154	0xbf193d37	-0.5985903
155	0xbf059ebc	-0.52195334
156	0x3da9daa9	0.08293659
157	0x3de3392c	0.11094889
158	0xbddee8da	-0.10884257
159	0xbf0460ee	-0.517104
160	0xbb022477	-0.001985816
161	0x3d9f2991	0.077716
162	0x3d0d86af	0.034552272
163	0xbd85f236	-0.06540339
164	0xbda9d4a2	-0.082925096
165	0x3e19a163	0.1500297
166	0xbca72eeb	-0.020408114
167	0x3db70040	0.089355946
168	0xbe187831	-0.148896
169	0x3e54f752	0.2079747
170	0x3d672db3	0.056440067
171	0xbf5f79ed	-0.8729542
172	0xbe85a38a	-0.26101333
173	0x3de1e4a8	0.11029941
174	0xbe39a42e	-0.18129036
175	0x3c3a846f	0.011384114
176	0xbd8b44b4	-0.068002135
177	0x3ce4fc5b	0.027952364
178	0xbe04387a	-0.12912169
179	0x3e74576f	0.23861478
180	0xbe1c9e18	-0.15294683
181	0x3bfa86a5	0.0076454454
182	0x3d8a6785	0.06758026
183	0x3aac4ec7	0.0013146036
184	0xbe8cf789	-0.27532604
185	0x3de2dc10	0.1107713
186	0xbd18999a	-0.03725586
187	0xbd29a710	-0.04141909
188	0x3c16348f	0.009167804
189	0xbc0a470e	-0.008439792
190	0xbd4b50a2	-0.049637444
191	0x3d83c4c6	0.06434016
192	0xbd63b59f	-0.05559313
193	0xbe621b77	-0.2208079
194	0x3e873dae	0.26414245
195	0x3d65b691	0.056082312
196	0xbf47208e	-0.7778405
197	0xbc929d50	-0.017897278
198	0x3dd8c9f0	0.105853915
199	0x3ea3d516	0.3199851
200	0x3e1b6a98	0.15177381
201	0xbf13a728	-0.57676935
202	0xbe5012cd	-0.20319672
203	0xbe7afd0f	-0.24510597
204	0x3e50b336	0.20380864
205	0x3e078249	0.13233294
206	0xbf09d4e5	-0.53840476
207	0xbcc7fe98	-0.024413392
208	0x3d324643	0.043524038
209	0xbe07f753	-0.1327794
210	0xbd43fb3f	-0.04784703
211	0xbd93e7e1	-0.07221962
212	0xbf040900	-0.5157623
213	0x3dece0e2	0.115663305
214	0x3de35ede	0.11102079
215	0xbed6d272	-0.41957432
216	0x3df57447	0.11985069
217	0x3c176618	0.00924065
218	0xbe297120	-0.1654706
219	0xbdd789a4	-0.105243
220	0xbd9202c5	-0.071294345
221	0x3e896e8c	0.26842153
222	0x3cc62f48	0.024192467
223	0xbe86686a	-0.26251537
224	0x3d0c75a0	0.034291863
225	0xbe9e779d	-0.30950633
226	0x3e41db9f	0.18931435
227	0xbe54d7d8	-0.20785463
228	0xbb9838ff	-0.0046454663
229	0x3e891837	0.26776287
230	0xbeae5c74	-0.3405491
231	0x3dd623e3	0.104560636
232	0xbe5821a9	-0.2110659
233	0x3de8869e	0.11353801
234	0xbc62c32c	-0.013840478
235	0x3d762e11	0.060102526
236	0xbec109e5	-0.3770286
237	0x3ecba34e	0.3977303
238	0x3d55feb1	0.052244846
239	0x3e7612ff	0.24030684
240	0xbf42a7e4	-0.7603743
241	0x3da5de32	0.08099021
242	0xbd87a06f	-0.06622397
243	0xbedccb2e	-0.43123764
244	0x3c22db2e	0.009939952
245	0xbd959538	-0.07303852
246	0xbe86c60c	-0.26322973
247	0xbec36b5a	-0.3816784
248	0x3d9733ae	0.07382904
249	0xbdf5e699	-0.12006874
250	0x3d87d655	0.066326775
251	0xbe4ad1d4	-0.19806606
252	0x3d2d7df9	0.042356465
253	0x3c874ac6	0.016515147
254	0xbeae3a94	-0.34029067
255	0x3e788ee0	0.24273252

policy_net.6.bias f4 [64]
0	0xbb21f26d	-0.0024711147
1	0x3e8c9100	0.27454376
2	0xbe33d043	-0.17559914
3	0xbe08d3df	-0.13362072
4	0xbebfdb94	-0.37472212
5	0x3e467669	0.19381107
6	0xbde197cd	-0.11015282
7	0xbcea5f4a	-0.02860989
8	0xbd904ae5	-0.07045535
9	0x3e1823eb	0.14857452
10	0x3e9d9fbd	0.30785933
11	0xbd3daf7b	-0.04630993
12	0x3e94a204	0.29029858
13	0x3def899a	0.11696167
14	0x3ebc4a66	0.36775512
15	0x3e664695	0.22487862
16	0xbd80ad9f	-0.062831156
17	0xbd7d0889	-0.061775718
18	0x3dd22a70	0.102620006
19	0x3de0fa5e	0.10985254
20	0xbc84a4a0	-0.01619178
21	0x3e8535fa	0.26017743
22	0xbc863a98	-0.016385362
23	0x3d71a898	0.058998674
24	0x3e02a206	0.1275712
25	0x3e623ca3	0.22093444
26	0x3e959d40	0.29221535
27	0x3c052f6a	0.00812898
28	0x3e856aec	0.26058137
29	0x3deef508	0.1166783
30	0x3e2e6c01	0.17033388
31	0x3dc62baf	0.09676301
32	0xbdf3dec3	-0.11907723
33	0x3e90490b	0.28180727
34	0x3d9317d2	0.07182278
35	0x3d769b36	0.060206614
36	0x3ddf1bc4	0.10893968
37	0x3d7b52dd	0.06135832
38	0x3e5ab2c3	0.21357255
39	0xbe976c0b	-0.29574618
40	0x3e2b92d7	0.16755234
41	0xbd1c9008	-0.038223296
42	0x3d39f8d7	0.045403328
43	0xbe47b18d	-0.19501324
44	0x3e8e6f8f	0.27819487
45	0x3ebd5cfe	0.3698501
46	0xbd3e03f2	-0.04639048
47	0x3dc16fe6	0.09445171
48	0xbdbc3d4d	-0.0919138
49	0xbe792c68	-0.24333346
50	0xbe7bcf22	-0.24590734
51	0x3e9560ae	0.29175323
52	0xbe50d8a9	-0.2039515
53	0x3cda778a	0.026668329
54	0xbd1a9cc1	-0.03774715
55	0xbe0c6404	-0.13710028
56	0x3ed89159	0.4229839
57	0x3dca0ec8	0.098661005
58	0x3dc1d347	0.09464126
59	0xbe35fccc	-0.17772216
60	0x3df3b220	0.11899209
61	0x3e48205c	0.19543594
62	0xbceb83e8	-0.028749421
63	0x3df0ed67	0.11764031

policy_net.8.weight f4 [4, 64]
0	0xbe0da0bc	-0.13830847
1	0x3d055079	0.032547448
2	0xbed46ddc	-0.41490066
3	0x3e01437e	0.12623402
4	0x3e49214c	0.19641608
5	0x3e265ebf	0.1624708
6	0xba6a131a	-0.0008929238
7	0xbd9f7f63	-0.07787969
8	0xbe33aa5f	-0.1754546
9	0x3d29e9ff	0.04148292
10	0xbb1a1dc3	-0.0023516275
11	0x3e5a78ab	0.21335094
12	0xbdc878b7	-0.097886495
13	0x3e928848	0.286196
14	0x3d6b9995	0.057519514
15	0x3e12ea37	0.14347158
16	0xbd3e26f1	-0.046423856
17	0xbce43a35	-0.027859787
18	0xbdd98ac6	-0.10622172
19	0x3e019bb8	0.12657058
20	0x3de2a30c	0.11066255
21	0x3e1fe010	0.15612817
22	0xbc3889bf	-0.01126331
23	0x3dce4cdd	0.10073254
24	0xbe2c5326	-0.16828594
25	0xbe04f960	-0.12985754
26	0x3d80c3be	0.06287335
27	0x3e0c64c6	0.13710317
28	0xbd1e64d8	-0.03867039
29	0xbe15c51a	-0.1462597
30	0xbd8eff52	-0.06982292
31	0xbcc018f1	-0.023449393
32	0x3cb6940e	0.022287395
33	0x3d061a6e	0.03274005
34	0xbcea47c9	-0.028598683
35	0xbdf47c5a	-0.11937781
36	0x3e03a119	0.12854423
37	0x3d502fc2	0.050826795
38	0xbab618c5	-0.001389288
39	0x3d49920f	0.049211558
40	0x3db5baf6	0.088735506
41	0xbe5ae901	-0.21377946
42	0xbd05927a	-0.032610394
43	0xbd4cd3da	-0.050006725
44	0xbd2927b4	-0.04129763
45	0xbd5c27bb	-0.053748827
46	0x3e19eb16	0.15031084
47	0x3d0f1639	0.034933303
48	0xbd27b0d8	-0.040940136
49	0x3db6bfc3	0.089232944
50	0xbd80f660	-0.06296992
51	0x3d85055f	0.06495165
52	0x3e512a9b	0.20426409
53	0xbbd37417	-0.006453048
54	0xbdfa83cf	-0.12232172
55	0xbe2b480e	-0.16726705
56	0xbe32f08a	-0.17474571
57	0x3d9e4ef6	0.07729904
58	0x3d8ed206	0.069736525
59	0xbd19321f	-0.037401315
60	0x3e1274be	0.14302346
61	0xbd824618	-0.063610256
62	0x3c5a2efe	0.013316868
63	0xbd050317	-0.03247365
64	0x3d4900ef	0.049073156
65	0xbccd6534	-0.025072671
66	0x3e842f27	0.25817224
67	0xbc8daad0	-0.017293364
68	0x3e59fa09	0.21286787
69	0x3e1d8b31	0.15385129
70	0xbcd8940b	-0.02643778
71	0xbdab44fd	-0.08362768
72	0x3e6fa060	0.23401022
73	0x3d23caad	0.03998821
74	0xbccda1ee	-0.025101628
75	0xbd37ba87	-0.04485562
76	0x3d5e55da	0.054281093
77	0x3e1c405e	0.15258929
78	0x3cdc355c	0.026880912
79	0xbe533da6	-0.20628986
80	0x3d01f285	0.031725425
81	0xbdf9f986	-0.12205796
82	0xbdf4f363	-0.11960485
83	0xbcfb0f9b	-0.03064709
84	0x3e5b39d6	0.21408781
85	0x3d7e7a56	0.062128387
86	0xbd4027ab	-0.04691283
87	0x3dcbeab5	0.09956876
88	0xbce12898	-0.027485177
89	0xbd95cf94	-0.07314983
90	0x3ce46a23	0.027882641
91	0x3d7b297a	0.061318852
92	0xbda28669	-0.07935793
93	0xbdf5421a	-0.119754985
94	0xbe1a5c36	-0.15074238
95	0x3d9ab797	0.07554548
96	0x3e0ba34c	0.13636512
97	0x3e156a38	0.145913
98	0xbdecc4fb	-0.115610085
99	0x3d663a45	0.056207914
100	0xbbd22a54	-0.0064137373
101	0x3de4f875	0.11180202
102	0x3d6a217c	0.05716084
103	0x3e353aa5	0.17698152
104	0x3dcce390	0.100043416
105	0xbd1b9081	-0.037979607
106	0x3e59fca3	0.2128778
107	0x3ad5de74	0.0016316907
108	0xbe1056c2	-0.14095595
109	0xbd2240f1	-0.039612714
110	0xbca03f56	-0.01956145
111	0x3d01c0cc	0.031678006
112	0x3c84984f	0.016185908
113	0xbe1795fc	-0.14803308
114	0xbca48a81	-0.020085575
115	0xbd41eb04	-0.04734327
116	0x3e519dfd	0.20470424
117	0x3d8b8f92	0.06814493
118	0xbd3ad939	-0.045617316
119	0x3c22d130	0.0099375695
120	0xbe1093ec	-0.14118928
121	0xbdd804ab	-0.10547765
122	0xbdb5e033	-0.08880653
123	0xbe6c7cda	-0.23094502
124	0x3e4edb2a	0.20200792
125	0xbd13a520	-0.036046147
126	0x3e5d5f6f	0.21618436
127	0x3d3ee89c	0.046608552
128	0x3d2f3305	0.042773265
129	0x3a545db3	0.00081011205
130	0xbccaa96d	-0.024738992
131	0xbd81130e	-0.063024625
132	0xbe913c9b	-0.2836655
133	0xbdd0ca0e	-0.10194789
134	0xbe7f691d	-0.24942441
135	0x3dec7c12	0.11547102
136	0x3e21648e	0.15761015
137	0x3daca86a	0.0843056
138	0xbe1aa7ab	-0.15103023
139	0xbd829712	-0.063764706
140	0x3e341963	0.1758781
141	0xbbd443a8	-0.006477792
142	0xbe5cc518	-0.2155956
143	0xbd007b51	-0.031367604
144	0xbdb16470	-0.08661735
145	0xbde4bc39	-0.11168713
146	0x3c13c5e1	0.009019346
147	0xbd8955e7	-0.06705838
148	0xbec2ab6a	-0.38021404
149	0xbc55fd4d	-0.01306088
150	0xbd704743	-0.05866171
151	0xbd0c683b	-0.03427909
152	0x3e1eeb0b	0.1551935
153	0x3e3c6c17	0.18400608
154	0x3e0f5b9b	0.13999788
155	0x3de425ac	0.11139998
156	0x3e0af7ae	0.13571045
157	0x3e21cf8d	0.1580183
158	0xbb55155c	-0.0032513952
159	0x3d9dc946	0.077044055
160	0xbe1a2caf	-0.15056108
161	0xbcfaacf8	-0.030600056
162	0xbc7e55e5	-0.015523409
163	0xbda0ad8c	-0.078456014
164	0x3e5350b8	0.2063626
165	0xbda40918	-0.08009547
166	0x3d67f038	0.056625575
167	0xbe8cdcfa	-0.27512342
168	0xbeb99017	-0.36242744
169	0x3d65d9df	0.05611598
170	0x3c8563a5	0.016282866
171	0x3e57c54a	0.21071354
172	0x3e1eadab	0.15495937
173	0x3e864e3d	0.26231566
174	0xbe9b366e	-0.30314964
175	0x3d7aab6d	0.06119864
176	0x3e306931	0.17227627
177	0xbd87a133	-0.06622543
178	0xbcff87de	-0.031192716
179	0x3d516898	0.05112514
180	0x3e65e51f	0.22450684
181	0xbd5af5e9	-0.053457174
182	0x3d9d05fb	0.07667156
183	0x3d8912cf	0.066930406
184	0x3e92cd59	0.28672293
185	0x3cdc0516	0.026857894
186	0xbbdfc230	-0.006828569
187	0x3dc6ee7a	0.097134545
188	0xbe9b36fb	-0.30315384
189	0x3dda1bfd	0.106498696
190	0xbdc3fe73	-0.09570017
191	0x3e1a725c	0.15082687
192	0xbdf9ae12	-0.121914044
193	0xbe36233a	-0.17786875
194	0xbdbc289f	-0.09187435
195	0xbdac013c	-0.08398673
196	0x3d44b6ff	0.04802608
197	0xbc900e0c	-0.017584823
198	0x3e04306b	0.12909095
199	0xbc90875e	-0.017642673
200	0xbdce2cb7	-0.100671224
201	0x3e1e4cd6	0.15458998
202	0xbcc2ee54	-0.023795284
203	0xbd7e0057	-0.062012043
204	0x3d0a089f	0.033699628
205	0x3b01b51a	0.0019791783
206	0x3e17ed4e	0.14836618
207	0xbd85fbb7	-0.065421514
208	0xbe167ac4	-0.14695269
209	0x3ddd7a11	0.10814298
210	0x3bfb3f33	0.007667446
211	0x3d0468d3	0.03232653
212	0xbe16d169	-0.14728321
213	0xb99d3669	-0.00029985912
214	0xbdac6516	-0.08417718
215	0xbd0f0b24	-0.034922734
216	0xbc0a3996	-0.008436581
217	0x3d1af916	0.037835203
218	0xbdaa5659	-0.08317251
219	0xbc960fc6	-0.018318068
220	0xbdad099a	-0.08449097
221	0xbcf946f4	-0.03042934
222	0x3c7937f8	0.015211098
223	0x3d0b3aeb	0.033991735
224	0x3d4dcfd4	0.05024703
225	0x3c990e88	0.018683687
226	0x3d81e2b3	0.063420676
227	0xbc4d68b2	-0.012537168
228	0x3da299c4	0.07939485
229	0xbce66fbf	-0.028129457
230	0xbdb8a689	-0.09016139
231	0x3d04b157	0.032395687
232	0x3dda8a24	0.106708795
233	0x3d02f2aa	0.031969704
234	0x3d351033	0.044204902
235	0xbddfe6c7	-0.10932689
236	0xbd3789be	-0.044809096
237	0xbd70a70e	-0.058753066
238	0x3c7e28a0	0.015512615
239	0xbdb51d43	-0.08843472
240	0xbcf69c03	-0.030103689
241	0xbd851f4a	-0.065001085
242	0xbddaf20b	-0.10690697
243	0xbe0f3c05	-0.1398774
244	0x3cf97caa	0.030454952
245	0x3e6c50db	0.23077719
246	0x3c2db217	0.010601542
247	0x3da3e57a	0.080027536
248	0xbe186fe3	-0.14886431
249	0xbc6467cc	-0.013940763
250	0x3cd0b2c7	0.025475873
251	0xbddd1752	-0.107954636
252	0x3deb45d7	0.1148793
253	0xbde83d48	-0.113398135
254	0xbe5c39a5	-0.21506365
255	0x3dcd33f0	0.10019672

policy_net.8.bias f4 [4]
0	0x3d879e2b	0.06621965
1	0xbbb1c587	-0.0054251584
2	0x3dc85ac4	0.09782937
3	0x3e5a27ea	0.21304289
