IL/Model/model_reacher_13.pt (torch, 292527 bytes, 20 tensors)

policy_net.0.weight f4 [64, 24]
0	0xbe6595a9	-0.22420372
1	0xbf905a01	-1.1277467
2	0x3e20c709	0.15700926
3	0xbe6d092e	-0.23148033
4	0x3e0eb650	0.13936734
5	0xbe06c7b5	-0.1316212
6	0x3e8096f2	0.25115162
7	0xbd2fa046	-0.042877458
8	0x3e47e396	0.19520411
9	0x3d7ab9c6	0.061212324
10	0x3cde5636	0.027140718
11	0xbc23ec08	-0.010005005
12	0xbddfa202	-0.109195724
13	0x3cb623b7	0.022233827
14	0x3e669048	0.22515976
15	0x3d8f0b99	0.06984634
16	0x3e5c6f89	0.21526922
17	0x3e087b6c	0.13328332
18	0xbe215d15	-0.15758164
19	0xbea83860	-0.3285551
20	0xbe915da0	-0.28391743
21	0xbd759686	-0.059958003
22	0x3e14afac	0.14520139
23	0x3bb3726b	0.005476286
24	0xbd6f38a5	-0.05840363
25	0xbef1e3cd	-0.4724411
26	0xbcde8518	-0.027163073
27	0x3f00b86b	0.502814
28	0x3e515620	0.2044301
29	0x3e3b4822	0.18289235
30	0x3f232f35	0.6374391
31	0xbe4f5a6d	-0.20249338
32	0xbd43039e	-0.04761087
33	0xbe738784	-0.23782164
34	0x3e5c0d50	0.21489453
35	0xbcaf6d8b	-0.021414539
36	0xbd4f0d3a	-0.050549723
37	0xbe47acee	-0.19499561
38	0x3cf05162	0.029335681
39	0xbd1dc970	-0.038522184
40	0xbd4a320c	-0.049364135
41	0xbe0f5c9a	-0.14000168
42	0xbe3a2788	-0.18179142
43	0xbcd9b264	-0.026574321
44	0xbe5dbd4f	-0.21654247
45	0x3e118e8b	0.14214532
46	0xbdd757d9	-0.105148025
47	0xbe156dd4	-0.14592677
48	0x3e5e6b43	0.21720605
49	0x3ec1c6b9	0.37846926
50	0xbe315776	-0.1731852
51	0x3f801a44	1.0008016
52	0xbd09d743	-0.033652555
53	0xbdd20085	-0.10254005
54	0xbd9e0819	-0.07716388
55	0x3d997304	0.074926406
56	0x3ea21192	0.3165403
57	0x3ce52111	0.027969869
58	0x3beab36a	0.007162501
59	0xbc6c0c13	-0.014407176
60	0x3e7b2e4f	0.24529384
61	0x3e7d856b	0.24757926
62	0x3da4abbd	0.08040569
63	0xbbc8a383	-0.0061230077
64	0xbca8ec35	-0.020620445
65	0xbe0ef7e2	-0.13961747
66	0x3d9167ef	0.07099902
67	0xb96d13df	-0.00022609484
68	0x3c6cd1b9	0.014454299
69	0x3e2b7d86	0.16747102
70	0xbd73e2ae	-0.05954235
71	0xbe3e1a47	-0.18564712
72	0x3ea68a9c	0.32527626
73	0x3e297b44	0.16550928
74	0xbe54478e	-0.20730421
75	0xbf733a93	-0.9501125
76	0x3e550da8	0.2080599
77	0x3cbf575c	0.023357086
78	0x3e95fe60	0.29295635
79	0x3d7b9b44	0.06142737
80	0xbe0ffbaf	-0.14060853
81	0x3d5103b7	0.051028933
82	0xbcec7894	-0.02886609
83	0xbed538a4	-0.41644776
84	0xbd173e53	-0.03692467
85	0x3d3f3835	0.046684463
86	0x3d037edf	0.032103416
87	0xbcfa87d9	-0.030582355
88	0xbd6d2ed0	-0.057905972
89	0xbc1890c7	-0.009311861
90	0xbd7fe12e	-0.062470607
91	0xbe9f24a9	-0.31082657
92	0xbd23a664	-0.039953604
93	0xbe5b2171	-0.21399476
94	0xbd0cacfe	-0.034344666
95	0x3dbb1f91	0.0913688
96	0xbdbee5c4	-0.09321168
97	0x3e509f33	0.2037323
98	0xbddf1759	-0.10893125
99	0x3da3f8b2	0.08006419
100	0x3d4a3e97	0.049376097
101	0x3d800f15	0.06252877
102	0x3b65057c	0.0034945896
103	0x3cc07252	0.023492012
104	0xbd81e0da	-0.06341715
105	0xbdb59034	-0.08865395
106	0xbdf22a68	-0.118244946
107	0x3eb5f200	0.35536194
108	0xbec75247	-0.3892996
109	0xbc26b8aa	-0.010175863
110	0x3d910191	0.07080377
111	0x3c04a4a2	0.008095892
112	0x3e82e1e9	0.2556298
113	0x3e6117cf	0.21981739
114	0x3de7a69c	0.11311075
115	0x3e7f8743	0.24953942
116	0xbd53c3ed	-0.05170052
117	0xbe12ab76	-0.1432322
118	0xbe0a652a	-0.13515154
119	0xbd59da18	-0.053186506
120	0xbe7dee0f	-0.24797843
121	0x3e58b508	0.21162808
122	0x3d363c2d	0.04449098
123	0xbf5d822c	-0.8652675
124	0xbe0ef7f0	-0.13961768
125	0x3db31f23	0.08746173
126	0x3e43e2c3	0.19129471
127	0xbe0e1273	-0.13874225
128	0xbdfd74f2	-0.12375821
129	0x3e0f0d7d	0.13969989
130	0xbe555e9a	-0.20836869
131	0xbe002cf9	-0.12517156
132	0xbde75fe1	-0.11297584
133	0xbe3b9823	-0.18319754
134	0x3e40bc64	0.18821865
135	0x3e3c2c5d	0.18376298
136	0x3e49836d	0.19679041
137	0x3dc76fda	0.09738131
138	0x3e3f91a5	0.18707903
139	0x3e24fb40	0.1611147
140	0xbb074522	-0.0020640572
141	0xbd41523a	-0.047197558
142	0xbe3e9580	-0.18611717
143	0x3e33c7ff	0.17556761
144	0xbe7b7a4e	-0.24558374
145	0x3fd76a47	1.6829308
146	0x3db7236f	0.08942305
147	0xbeb64d2b	-0.3560575
148	0xbe7b2110	-0.24524331
149	0x3e26c927	0.16287671
150	0xbeca06ba	-0.39458257
151	0x3df4958b	0.119425856
152	0x3da36f34	0.07980195
153	0xbd1c40f7	-0.038147893
154	0x3e1a9f39	0.15099801
155	0xbe014033	-0.12622146
156	0x3ca7a4cd	0.020464325
157	0x3d19850a	0.03748039
158	0x3c2ed547	0.0106709665
159	0xbe3c28a0	-0.18374872
160	0x3df719d7	0.120654754
161	0x3e2a7777	0.16647135
162	0xbd16a1e3	-0.03677548
163	0x3e5bdadd	0.21470208
164	0x3e3392d4	0.17536479
165	0xbccdd1a8	-0.025124386
166	0xbe4236f4	-0.18966275
167	0xbe25a1e4	-0.16175038
168	0xbdeb4a65	-0.11488799
169	0x3e33c634	0.17556077
170	0x3ea4316c	0.32068956
171	0x3f58cdfd	0.84689313
172	0xbe0c4274	-0.13697225
173	0x3e17dc10	0.14830041
174	0x3de83378	0.11337942
175	0xbe1a8da5	-0.15093096
176	0x3df8669c	0.12128946
177	0xbe8b0745	-0.27153984
178	0x3d5908b4	0.052986816
179	0x3e368f00	0.17827988
180	0xbe3a4631	-0.18190838
181	0x3c419863	0.011816117
182	0xbe4aac50	-0.19792295
183	0xbd16f246	-0.036852144
184	0xbe0aeeee	-0.13567707
185	0x3e21ce3d	0.1580133
186	0xbd62bd4f	-0.05535632
187	0xbd4f875c	-0.050666198
188	0x3e1c3ee4	0.15258366
189	0xbe2746a3	-0.1633554
190	0x3d951e12	0.07281126
191	0x3dd06d4a	0.10177095
192	0x3f01e700	0.50743103
193	0x3e0683c5	0.13136204
194	0xbea6d9ab	-0.32587942
195	0xbefc575d	-0.49285403
196	0xbdae0898	-0.08497733
197	0x3e537c85	0.20652969
198	0xbdfe4753	-0.12415948
199	0x3d954a77	0.07289594
200	0x3cc0cac7	0.023534192
201	0x3e4272bb	0.18989079
202	0xbb86120a	-0.004091506
203	0x3c5a872d	0.0133378925
204	0xbca1ad59	-0.019735979
205	0x3e0d18fe	0.13779065
206	0xbddfe6cb	-0.10932692
207	0x3c949443	0.018137103
208	0xbd37da05	-0.044885654
209	0xbe34465c	-0.17604965
210	0x3d9ee45e	0.07758401
211	0xbe1d13fd	-0.15339656
212	0x3cd44042	0.025909547
213	0x3e1b0434	0.15138322
214	0xbd750791	-0.05982167
215	0x3e1d025a	0.15332928
216	0x3e48747a	0.19575682
217	0x3f808bde	1.0042684
218	0x3e38fc97	0.18065105
219	0xbf6cc255	-0.9248403
220	0xbe9146eb	-0.2837442
221	0x3e4200a6	0.1894556
222	0xbc8a72b7	-0.016900403
223	0x3dbfa9c4	0.09358552
224	0x3d84cff6	0.06484978
225	0x3e91346c	0.28360307
226	0x3e9a9ab0	0.30196142
227	0xbdeca98a	-0.115557745
228	0xbdb9f1a1	-0.0907929
229	0xbe874add	-0.26424304
230	0x3e38becf	0.18041538
231	0x3dd69481	0.104775436
232	0x3da085f1	0.07838047
233	0xbd19e288	-0.037569553
234	0x3de7d141	0.11319209
235	0xbe19cc7e	-0.15019414
236	0xbe944546	-0.289591
237	0xbe4c0a57	-0.1992582
238	0x3ca97ba8	0.020688847
239	0x3d81c84f	0.06337034
240	0x3ead244f	0.33816764
241	0x3f8a6ee6	1.0815094
242	0x3e88ae37	0.26695415
243	0xbf599e58	-0.8500724
244	0x3e3dfd7a	0.18553725
245	0x3e241c6a	0.16026464
246	0xbed84fe0	-0.4224844
247	0xbcecc057	-0.028900309
248	0xbe7a580e	-0.24447653
249	0x3e8c84b4	0.27444994
250	0x3e31de31	0.17369916
251	0xbdd4c87b	-0.10389801
252	0x3e13016b	0.1435601
253	0x3e207f42	0.15673545
254	0xbe3e39d8	-0.18576753
255	0xbe6c56e8	-0.23080027

policy_net.0.bias f4 [64]
0	0xbdeeef6f	-0.11666762
1	0xbde83ed4	-0.113401085
2	0xbe49b331	-0.19697262
3	0xbd03d73a	-0.032187678
4	0x3e15001b	0.14550821
5	0xbe019342	-0.1265383
6	0x3e0fbdb2	0.14037207
7	0x3bc9c635	0.0061576613
8	0x3dae78ec	0.08519158
9	0x3e2a5409	0.1663362
10	0xbdeea446	-0.116524264
11	0x3d18dd4a	0.037320413
12	0xbe45c0a1	-0.19311763
13	0xbe662218	-0.22473943
14	0x3e6fde36	0.2342461
15	0x3dfffc3c	0.12499282
16	0x3e2f0dbc	0.17095083
17	0x3e6512d8	0.2237047
18	0x3dd16310	0.10223973
19	0xbdfe5109	-0.124178
20	0x3d1f78ed	0.038933683
21	0x3da3ceb7	0.07998412
22	0xbe209e95	-0.15685494
23	0x3db50a7f	0.088398926
24	0xbd12f893	-0.03588159
25	0xbd5ae7b0	-0.05344361
26	0x3e36a1e3	0.17835192
27	0xbb6094d8	-0.0034268405
28	0x3e41c0da	0.18921223
29	0x3d63065d	0.05542599
30	0xbda81faf	-0.08209168
31	0xbe1b58a2	-0.1517053
32	0x3d4b72b6	0.049669944
33	0x3e63a2a3	0.2223001
34	0xbd896918	-0.06709498
35	0xbd2380b2	-0.039917655
36	0x3ca5c941	0.020237567
37	0x3d328618	0.043584913
38	0xbddf8b45	-0.109152354
39	0x3e0c89a6	0.13724384
40	0x3d82022d	0.06348071
41	0xbe47dcce	-0.19517824
42	0x3d1353c7	0.03596857
43	0x3bfe2b34	0.007756615
44	0xbe2e82c7	-0.17042075
45	0xbe12b28d	-0.14325924
46	0x3e49275c	0.1964392
47	0xbb577176	-0.0032874024
48	0x3d24bb19	0.040217493
49	0x3db5e807	0.08882146
50	0x3e021c85	0.12706192
51	0x3d209c2b	0.039211433
52	0x3defb1ca	0.117038324
53	0x3e1e9bb9	0.15489091
54	0x3d37443d	0.04474281
55	0x3e3a03eb	0.18165557
56	0xbe17e4ca	-0.1483337
57	0x3ce9eecd	0.028556252
58	0xbd5c0c5c	-0.053722724
59	0x3e0bf4ed	0.1366765
60	0x3d342afb	0.043986302
61	0xbe369b40	-0.1783266
62	0xbdfadddc	-0.122493476
63	0xbdb75b0b	-0.08952912

policy_net.2.weight f4 [128, 64]
0	0xbdd13fd4	-0.102172524
1	0x3e0483c0	0.12940884
2	0xbbca7fdd	-0.0061797933
3	0xbe62417f	-0.22095297
4	0x3d878f6c	0.066191524
5	0x3dbcde2b	0.09222063
6	0xbda6eeb0	-0.08150995
7	0x3e030513	0.12794904
8	0x3e0c1b2d	0.13682242
9	0x3cf99d1f	0.030470429
10	0xbddc8fca	-0.10769613
11	0xbdb8bb3c	-0.09020087
12	0x3e786261	0.24256279
13	0x3d4c4b2c	0.049876377
14	0x3e7b0507	0.24513637
15	0x3e295e1e	0.16539809
16	0xbdd22391	-0.1026069
17	0xbe2fb039	-0.17157067
18	0xbde04491	-0.10950578
19	0xbcb28456	-0.021791618
20	0xbe34b9ad	-0.17648955
21	0x3cfb393a	0.030666936
22	0x3ec827c5	0.39092842
23	0x3e5bfe56	0.2148374
24	0x3dcb0a75	0.09914104
25	0xbe6c6838	-0.23086631
26	0xbe895e5b	-0.268298
27	0x3e06d2fc	0.13166422
28	0xbd29cda0	-0.041455865
29	0x3e3c3d8a	0.1838285
30	0xbe277085	-0.16351517
31	0xbe8926c7	-0.26787397
32	0xbd99e00c	-0.07513437
33	0x3d79ecfd	0.061017025
34	0x3e0c3214	0.13690978
35	0xbd03de38	-0.032194346
36	0xbdc30f1f	-0.095243685
37	0x3e2a10c7	0.16607963
38	0xbe0be0a3	-0.13659911
39	0xbe4fbd16	-0.20286974
40	0x3d218fb7	0.039443698
41	0xbe1485cb	-0.14504163
42	0xbe010eb0	-0.12603259
43	0x3e668389	0.22511114
44	0xbd34a877	-0.044105973
45	0x3df96a9d	0.12178538
46	0xbda6ff44	-0.08154157
47	0xbc1eb7d3	-0.009687382
48	0x3e05df30	0.1307342
49	0xbe40cc3e	-0.18827912
50	0x3c03c589	0.0080427015
51	0x3dcbe24e	0.099552736
52	0xbd2f2fbd	-0.042770136
53	0xbdff8783	-0.12477019
54	0x3da56538	0.080759466
55	0x3dae8da3	0.08523109
56	0xbe12424e	-0.14283106
57	0x3d20510a	0.039139785
58	0x3e44a4a0	0.19203424
59	0x3dcc40e4	0.099733144
60	0x3cf45dd1	0.029829891
61	0xbd7204a5	-0.05908646
62	0xbddad2b6	-0.10684721
63	0x3d01e96e	0.031716757
64	0xbe86ef5e	-0.26354498
65	0x3e5e5515	0.21712144
66	0x3e787e73	0.24266987
67	0xbcd8577b	-0.026408901
68	0xbf5d0cb6	-0.8634752
69	0x3dece38d	0.11566839
70	0xbd0e0f33	-0.034682464
71	0xbea8b492	-0.32950264
72	0xbdeb25ff	-0.114818566
73	0xbc41dc3d	-0.011832294
74	0xbd6813d5	-0.05665954
75	0xbe41a3b1	-0.189101
76	0xbd9e9e3d	-0.07745025
77	0x3dff8353	0.1247622
78	0xbdb5da73	-0.088795565
79	0x3dd21045	0.102570094
80	0x3c317212	0.010830419
81	0x3dabf0e7	0.08395558
82	0x3deba0ad	0.11505256
83	0xbdfcbc18	-0.123405635
84	0xbc92452b	-0.017855247
85	0x3d3d3da4	0.046201363
86	0xbe09e32c	-0.13465565
87	0xbe99da55	-0.30049387
88	0xbbcbc142	-0.0062181065
89	0x3dd7ad2d	0.105310775
90	0x3e123a73	0.14280109
91	0x3ec4d226	0.3844158
92	0xbdb6cf1a	-0.0892622
93	0x3e090944	0.13382441
94	0x3d174f66	0.036940955
95	0x3df4b5ea	0.1194876
96	0xbe59c09b	-0.2126488
97	0xbe667007	-0.22503673
98	0x3cb554fd	0.022135252
99	0x3ca1253c	0.019671075
100	0x3e28398c	0.16428202
101	0x3e0cc79f	0.13748024
102	0xbd9ec4c9	-0.077523775
103	0xbe2b7764	-0.16744763
104	0xbea81360	-0.32827282
105	0x3e217223	0.15766196
106	0xbd11d72a	-0.035605587
107	0xbeb9f7de	-0.3632192
108	0x3df203d6	0.11817138
109	0x3d9720f4	0.07379332
110	0x3c20c388	0.009812243
111	0x3df110b3	0.11770763
112	0x3eddb307	0.4330065
113	0x3d8226fb	0.06355091
114	0xbe8b62cc	-0.27223814
115	0xbdf10155	-0.11767832
116	0x3e6f6516	0.23378405
117	0xbe0f2c10	-0.13981652
118	0xbbf8a43a	-0.0075879367
119	0x3d0880b6	0.033325873
120	0x3d21e1d7	0.03952202
121	0xbe422cff	-0.18962477
122	0xbda28903	-0.07936289
123	0xbbb01645	-0.0053737485
124	0xbcc62526	-0.024187636
125	0x3dc7f556	0.09763591
126	0xbe45ca88	-0.19315541
127	0x3deaa749	0.11457688
128	0xbe3a1373	-0.18171482
129	0xbcb2e760	-0.021838844
130	0xbe2113b0	-0.15730166
131	0x3d5e9ae9	0.054346953
132	0xbd30a521	-0.04312623
133	0x3e0bc831	0.13650586
134	0x3c7b294e	0.015329672
135	0x3aba65ed	0.001422105
136	0x3e02ae8a	0.12761894
137	0x3d97fc56	0.07421176
138	0x3d3374af	0.04381245
139	0xbd91c2ec	-0.071172565
140	0xbe1f2e50	-0.1554501
141	0xbe9fdf2b	-0.3122495
142	0xbe2b2c78	-0.16716182
143	0xbdd7c943	-0.105364345
144	0xbc8e6c32	-0.017385576
145	0xbd762194	-0.060090616
146	0x3e49abcf	0.19694446
147	0xbe0031e9	-0.12519039
148	0xbc7da9fe	-0.015482424
149	0xbdd3377e	-0.10313319
150	0xbd8f1c4c	-0.06987819
151	0xbe365682	-0.17806438
152	0xbe13a45f	-0.14418171
153	0x3d5740e7	0.05255213
154	0x3da04444	0.07825521
155	0x3dd23ea7	0.10265856
156	0x3cc64dd1	0.024207028
157	0xbe0a67a3	-0.13516097
158	0xbd9dfd34	-0.0771431
159	0x3cbac49f	0.022798834
160	0x3db5c4fc	0.088754624
161	0x3c1af6a8	0.0094582215
162	0x3cf419b0	0.029797405
163	0x3cc1f125	0.023674557
164	0xbd80a23c	-0.06280944
165	0xbf098224	-0.53714204
166	0x3b9c224e	0.0047648316
167	0x3e2d2664	0.16909176
168	0xbe3ad84f	-0.18246578
169	0xbec45411	-0.38345388
170	0x3d6bc66b	0.057562273
171	0xbe38680f	-0.18008445
172	0xbe6d1d59	-0.23155726
173	0x3cf8251e	0.030291136
174	0xbda29b0a	-0.079397276
175	0x3c84f72c	0.016231142
176	0x3d1785d4	0.036992863
177	0x3db7cd4e	0.08974706
178	0x3e384165	0.17993696
179	0xbe9e3477	-0.30899402
180	0x3e879e70	0.26488066
181	0xbb6eb6fb	-0.0036424983
182	0x3d34a157	0.04409918
183	0x3d3468aa	0.044045128
184	0xbe66a1c0	-0.2252264
185	0x3da2aed1	0.079435
186	0xbda92849	-0.08259637
187	0xbe512a03	-0.20426182
188	0x3cbb4899	0.022861766
189	0xbd692e65	-0.05692901
190	0x3c207b0f	0.009794964
191	0xbea5e692	-0.32402474
192	0xbe35b40d	-0.17744465
193	0x3e07e8f1	0.13272454
194	0xbeaca9e0	-0.33723354
195	0xbd9a4e88	-0.0753451
196	0x3a5d76f9	0.0008448209
197	0xbda350b7	-0.079743795
198	0xbe105d27	-0.14098035
199	0xbda7d7fb	-0.08195492
200	0x3dbea11c	0.09308073
201	0x3e673e18	0.2258228
202	0x3e549cdd	0.20762964
203	0xbd03e7f9	-0.03220365
204	0xbe578cc1	-0.21049787
205	0x3b291bab	0.0025803845
206	0xbdbecab1	-0.09316004
207	0xbd88e210	-0.06683743
208	0xbcccdaf0	-0.025006741
209	0xbd1a7c17	-0.037715998
210	0xbd5f85a6	-0.054570816
211	0xbe6df2e2	-0.23237184
212	0x3d05440d	0.0325356
213	0xbdc16350	-0.094427705
214	0x3e466d26	0.19377574
215	0xbd0468d8	-0.03232655
216	0xbe8139c1	-0.25239375
217	0x3d832671	0.064038165
218	0x3d4494b9	0.047993395
219	0xbbfbc3b6	-0.0076832427
220	0xbe23e6d6	-0.16006026
221	0x3d7e44d1	0.062077347
222	0x3e22247f	0.15834235
223	0xbec37172	-0.3817249
224	0x3eaba20f	0.33522078
225	0x3c870d0e	0.016485717
226	0x3d02437f	0.03180265
227	0x3da4cc9c	0.08046839
228	0xbd096730	-0.033545673
229	0xbd90218e	-0.0703765
230	0xbe412bdd	-0.18864389
231	0xbe6ff1c6	-0.23432073
232	0x3cc3cbbe	0.023900863
233	0xbea68a1a	-0.32527238
234	0x3dd14042	0.10217334
235	0xbe8eaff2	-0.2786861
236	0xbd111984	-0.035424724
237	0xbf0bbf06	-0.54588354
238	0xbebab05d	-0.3646268
239	0x3dd42b53	0.10359826
240	0xbe6518e7	-0.2237278
241	0xbe1c4cc8	-0.15263665
242	0x3e7b0e44	0.2451716
243	0xbeef4024	-0.46728623
244	0x3e70ab27	0.2350279
245	0x3e36afa0	0.17840433
246	0x3df9c19b	0.121951304
247	0x3e6be2e5	0.23035772
248	0xbe72beb8	-0.23705566
249	0x3cbf30ae	0.023338642
250	0xbd535a2d	-0.05159967
251	0xbde67396	-0.11252515
252	0x3dec5fa4	0.115416795
253	0xbc88f767	-0.016719533
254	0x3e256e39	0.16155328
255	0x3d2ec494	0.04266794

policy_net.2.bias f4 [128]
0	0x3d533086	0.051559947
1	0xbd067bc2	-0.03283287
2	0x3e02cbf7	0.12773119
3	0x3d047f09	0.032347713
4	0x3cb8492b	0.022495827
5	0x3daefc67	0.08544236
6	0xbd0638a3	-0.032768857
7	0xbd3f78bb	-0.046745997
8	0x3d7f7dd0	0.062375844
9	0x3dccc72f	0.09998929
10	0xbe1679be	-0.14694878
11	0x3d1f3490	0.038868487
12	0xbcc8d28f	-0.024514465
13	0xbdbe423b	-0.09289976
14	0x3d9bca83	0.076069854
15	0x3d2889d9	0.041147087
16	0x3bb4b970	0.00551527
17	0xbdb7da5a	-0.08977194
18	0x3de1dcf3	0.11028471
19	0x3dbfe095	0.093690075
20	0xbe19c919	-0.15018119
21	0x3daeb11a	0.08529873
22	0xbd39960b	-0.045309108
23	0xbdc367cc	-0.09541282
24	0x3cddd61a	0.02707963
25	0xbc8a1880	-0.016857386
26	0x3d354bc8	0.044261724
27	0x3ca7e181	0.02049327
28	0x3d5b03b6	0.053470336
29	0xbd18228a	-0.037142314
30	0xbd099b64	-0.033595458
31	0xbd0bd74b	-0.034140866
32	0x3c61e67b	0.013787861
33	0x3b9b2f50	0.0047358647
34	0xbd9c1885	-0.07621864
35	0xbdebfc3d	-0.1152272
36	0xbd01dafc	-0.03170298
37	0x3e044424	0.12916619
38	0x3e0a434d	0.13502236
39	0x3d5de61d	0.05417453
40	0xbe0b8340	-0.13624287
41	0xbe10e4e0	-0.14149809
42	0x3c9a876f	0.018863408
43	0x3d54f5e7	0.051992323
44	0xbd99821a	-0.07495518
45	0xbccc0828	-0.024906233
46	0x3cd7f6fe	0.026362892
47	0x3d3dbbee	0.0463218
48	0x3dec1818	0.11528033
49	0xbe1aca94	-0.1511634
50	0xbe0ff158	-0.14056909
51	0x3dede8d1	0.11616672
52	0x3b8caa38	0.0042927526
53	0x3dc3f842	0.09568836
54	0x3d19461e	0.037420385
55	0xbcd696b5	-0.02619491
56	0x3b9da324	0.0048107076
57	0xbd2082cf	-0.03918725
58	0x3c77cb73	0.01512419
59	0x3d51d041	0.051223997
60	0xbc4b8ef6	-0.012424221
61	0xbdcc3471	-0.0997094
62	0x3dc015bf	0.09379148
63	0xbddbb8b6	-0.1072859
64	0xbdc354eb	-0.09537681
65	0xbd6aeb5e	-0.05735337
66	0xbc55c324	-0.013047013
67	0xbd0021e9	-0.03128234
68	0x3d3cf6c7	0.046133783
69	0x3d36ff3e	0.04467701
70	0xbdc840e1	-0.09778
71	0xbdca8420	-0.09888482
72	0x3dd98462	0.10620953
73	0xbc2b5e73	-0.01045953
74	0x3dd8b59e	0.10581516
75	0x3db56501	0.088571556
76	0xbd6348e6	-0.055489443
77	0xbca460d8	-0.02006571
78	0x3d90f271	0.07077492
79	0x3c9b2e9b	0.018943122
80	0x3ce31a92	0.02772263
81	0x3d57ab0e	0.052653365
82	0x3cb760ac	0.022384964
83	0x3d220473	0.039555024
84	0x3c5ac9c9	0.013353773
85	0x3b5ee809	0.0034012815
86	0x3ceb4668	0.028720096
87	0x3d0cdf3f	0.03439259
88	0x3dbe2b44	0.09285596
89	0x3da732ed	0.0816401
90	0xbbc2e9be	-0.0059482744
91	0xbd7797b0	-0.060447395
92	0xbd55777c	-0.052115902
93	0x3c9f3d33	0.019438362
94	0x3ca72ee6	0.020408105
95	0x3ba93e44	0.0051648933
96	0xbd640a0f	-0.055673655
97	0xbdcc193a	-0.09965749
98	0xbdad0c40	-0.08449602
99	0xbe4fd549	-0.20296206
100	0x3d9b4b6f	0.07582747
101	0xbca521da	-0.020157743
102	0x3d961f2d	0.07330165
103	0x3d2c0568	0.041997343
104	0xbd1a7666	-0.03771057
105	0xbd3e9a4e	-0.046533875
106	0x3d96b814	0.07359329
107	0x3c0b03ba	0.008484775
108	0xbe0839aa	-0.13303247
109	0x3d83e1b9	0.064395376
110	0xbdbfe050	-0.09368956
111	0xbd461a23	-0.04836477
112	0xbc2210d3	-0.0098917065
113	0x3dbb5f7c	0.091490716
114	0x3d8d7b21	0.069082506
115	0xbbf662f1	-0.007519119
116	0xbcf4cd26	-0.029882979
117	0x3e13a3ca	0.1441795
118	0xbe0bd8a8	-0.13656867
119	0xbd5bf16e	-0.053697042
120	0xbcf0ea79	-0.02940868
121	0xbd32398c	-0.043511912
122	0xbd9a7ab5	-0.07542936
123	0x3e2e0c92	0.16996983
124	0xbd97c704	-0.07411006
125	0x3d3e876d	0.04651587
126	0x3e039e50	0.1285336
127	0x3c705d54	0.014670689

policy_net.4.weight f4 [128, 128]
0	0xbd40b157	-0.047044124
1	0x3d514953	0.051095318
2	0x3d8273a7	0.06369715
3	0xbd999a40	-0.07500124
4	0xbc0adfb1	-0.008476184
5	0x3d68beb7	0.056822505
6	0xbda968a8	-0.08271915
7	0x3da47f58	0.080321014
8	0xbe8ff6ce	-0.28117985
9	0xbc95200d	-0.01820376
10	0x3e2eca2d	0.17069311
11	0xbd31cd64	-0.043408766
12	0x3d9e2ca0	0.07723355
13	0xbe1da9be	-0.15396783
14	0x3e3543d0	0.1770165
15	0xbe80ef27	-0.2518246
16	0xbd375029	-0.04475418
17	0x3e88aa7b	0.26692566
18	0x3d90f4d9	0.07077951
19	0xbe9a41c9	-0.30128315
20	0x3ea2333a	0.31679708
21	0xbd69d57d	-0.057088364
22	0x3eaea3d1	0.34109357
23	0x3c517975	0.012785305
24	0xbd835193	-0.064120434
25	0xbdb033f2	-0.08603658
26	0xbe6d0f2d	-0.2315032
27	0x3e6e4ca4	0.23271424
28	0xbcb0f075	-0.021599034
29	0xbcaca134	-0.021072961
30	0xbe9b56ee	-0.3033976
31	0xbe18e526	-0.14931163
32	0x3e6405cc	0.22267836
33	0x3e4a3d21	0.19749881
34	0x3e48904b	0.19586293
35	0xbe6dc3a4	-0.23219162
36	0x3d68fdd8	0.05688271
37	0xbe3b1a5e	-0.18271777
38	0xbe122e9d	-0.14275594
39	0xbcee0468	-0.029054835
40	0x3e36337d	0.17793079
41	0x3ce0f574	0.027460791
42	0x3e2a4d38	0.16631019
43	0x3cae2133	0.021256065
44	0x3c012c72	0.007884132
45	0xbee902a5	-0.4550983
46	0xbe7c7f32	-0.24657896
47	0x3d0e0c7d	0.03467988
48	0x3e5622df	0.2091174
49	0x3e1e107a	0.15435973
50	0x3db264f4	0.087106615
51	0x3dfc5a25	0.12321881
52	0x3e0b4876	0.1360186
53	0xbe7e8942	-0.24857047
54	0xbe351837	-0.17685018
55	0x3d4791f0	0.04872316
56	0x3910b150	0.00013798964
57	0xbeb332c4	-0.3499967
58	0xbc107359	-0.0088165635
59	0x3d9f1361	0.07767368
60	0x3ec3da7f	0.38252637
61	0x3e885d78	0.2663381
62	0xbea44923	-0.3208705
63	0xbe1c9103	-0.15289693
64	0x3d721a65	0.059107203
65	0xbe4ced13	-0.20012312
66	0xbd2a341f	-0.041553613
67	0x3db7d122	0.08975436
68	0xbe122711	-0.14272715
69	0xbe00b501	-0.12569048
70	0xbc663503	-0.014050725
71	0xbddc8e6f	-0.107693546
72	0xbdc5760e	-0.09641658
73	0xbd921599	-0.07133026
74	0xbdaf2e79	-0.08553786
75	0xbd618d8d	-0.055066634
76	0xbd1b25ba	-0.037877776
77	0x3cf76374	0.03019879
78	0x3dfacfca	0.12246664
79	0x3d4aa35a	0.04947219
80	0xbda0e2fe	-0.07855795
81	0x3d501385	0.050799865
82	0xbd17f7c6	-0.03710153
83	0x3d7e8c9d	0.062145818
84	0xbcca68b1	-0.024708124
85	0x3e54c000	0.20776367
86	0xbd4cdd58	-0.050015777
87	0x3de2a691	0.11066926
88	0x3db76fcb	0.0895687
89	0x3d8f52ed	0.06998239
90	0xbd792d03	-0.060833942
91	0xbdee812b	-0.116457306
92	0x3c0a32f8	0.008435003
93	0x3d91f915	0.07127587
94	0xbe51693f	-0.20450304
95	0x3e60a895	0.21939309
96	0xbdcdef0b	-0.100553595
97	0x3e91b498	0.28458095
98	0xbe5d9d00	-0.21641922
99	0xbd757f72	-0.059935994
100	0x3df94964	0.12172201
101	0x3d2205c4	0.03955628
102	0xbdefde5f	-0.11712336
103	0x3e85a004	0.26098645
104	0xba496ddd	-0.00076839124
105	0x3dba90eb	0.09109672
106	0x3e7408a8	0.23831427
107	0x3d7f778b	0.062369864
108	0x3d76daa0	0.06026709
109	0xbdf5a8bf	-0.119950764
110	0x3d3b9d42	0.04580427
111	0xbd371aad	-0.044703174
112	0xbe594a61	-0.2121978
113	0x3df9ffe3	0.1220701
114	0xbd84c720	-0.064832926
115	0x3c49d19a	0.012318039
116	0xbb469bae	-0.0030305195
117	0xbe8cc4cc	-0.27493894
118	0x3df7d07c	0.12100312
119	0xbd8fc8c4	-0.07020715
120	0x3e168c40	0.14701939
121	0x3cd5811b	0.026062539
122	0xbe3dcaa8	-0.18534338
123	0xbe8a6c7a	-0.27035886
124	0x3db2462c	0.087047905
125	0x3eb5aa30	0.35481405
126	0xbdb9900b	-0.09060677
127	0xbd9057e8	-0.07048017
128	0x3d7a4647	0.061102178
129	0x3b6a0de4	0.0035713846
130	0xbc997d40	-0.018736482
131	0xbea4afba	-0.3216532
132	0x3dc0fba9	0.09423
133	0x3ce752b1	0.028237673
134	0x3d0fec7f	0.03513765
135	0xbcf4ef5f	-0.029899297
136	0xbed80b24	-0.42196
137	0x3dac6b54	0.08418909
138	0xbdc8e371	-0.09809006
139	0xb9583b72	-0.0002062151
140	0xbe2d1d16	-0.16905627
141	0x3cbf8780	0.023380041
142	0xbd5b0664	-0.05347289
143	0x3e02a106	0.12756738
144	0xbea6bd85	-0.32566467
145	0x3cf173cc	0.029474162
146	0x3bb64a38	0.005563047
147	0x3e1f1a60	0.15537405
148	0x3c539b07	0.012915379
149	0xbe1f2386	-0.15540895
150	0xbdde254a	-0.10846956
151	0xbd95637a	-0.07294364
152	0xbe61009d	-0.2197289
153	0xbd2cc789	-0.04218248
154	0x3c062ca8	0.008189358
155	0xbeaea0fc	-0.34107196
156	0xbe075042	-0.1321421
157	0xbd1915b9	-0.037374232
158	0xbdef5727	-0.11686545
159	0xbcbcc8ba	-0.023044933
160	0xbe0b37ef	-0.13595556
161	0x3bf96064	0.0076103676
162	0xbe13545c	-0.1438765
163	0xbe82dccc	-0.2555908
164	0xbe06f0bc	-0.1317777
165	0xbd72a45e	-0.059238784
166	0xbd86eba2	-0.06587912
167	0x3e86f19b	0.26356205
168	0x3dc466a2	0.09589888
169	0xbe743f2a	-0.2385222
170	0xbed0f8ec	-0.40814912
171	0x3d1c84dc	0.038212642
172	0xbe14cba2	-0.14530805
173	0xbd239de1	-0.039945487
174	0xbd76ea9e	-0.060282342
175	0xbe140356	-0.14454398
176	0xbe05f44c	-0.13081473
177	0x3d9fbf50	0.07800162
178	0x3e716a58	0.23575723
179	0xbe98668c	-0.29765737
180	0xbd8eeb90	-0.06978524
181	0xbd8111d6	-0.0630223
182	0xbe368e8a	-0.17827812
183	0x3e42b11b	0.19012873
184	0x3d5827c9	0.052772317
185	0xbc99e36c	-0.018785201
186	0x3d914322	0.07092883
187	0xbb95a196	-0.0045663817
188	0xbe04bf3a	-0.12963572
189	0xbe23d5b1	-0.15999486
190	0xbd30f93b	-0.043206435
191	0xbe9374bf	-0.28800008
192	0xbebdbc60	-0.3705778
193	0x3d95fa51	0.07323135
194	0x3e11a01c	0.14221233
195	0x3cefd79d	0.029277617
196	0xbe8d44ea	-0.2759164
197	0x3cc3067a	0.0238068
198	0xbef254af	-0.47330233
199	0x3eac257f	0.33622357
200	0xbe75ba0e	-0.23996755
201	0xbdf916c6	-0.12162547
202	0xbc7a2d73	-0.015269625
203	0x3de18ed1	0.11013568
204	0x3cf7764f	0.030207781
205	0x3d9fb040	0.07797289
206	0xbdae8f04	-0.08523372
207	0x3e6b7233	0.22992782
208	0x3d0b1138	0.033951968
209	0xbe2320ef	-0.15930532
210	0x3e433a22	0.19065145
211	0x3e5f4a48	0.2180568
212	0xbe97e678	-0.2966802
213	0x3cb53607	0.022120489
214	0xbda48db0	-0.08034837
215	0x3e63f07d	0.22259708
216	0xbef6de8b	-0.48216662
217	0xbe63d7a1	-0.22250225
218	0xbe31dc01	-0.17369081
219	0x3e2b5c09	0.16734327
220	0x3e0617c7	0.13095008
221	0xbe13dc3d	-0.14439483
222	0x3dca17cb	0.098678194
223	0xbecbb7e0	-0.39788723
224	0xbcc797a8	-0.024364308
225	0xbe47c277	-0.19507776
226	0x3e98bc4c	0.2983116
227	0xbdd319ff	-0.10307693
228	0xbe603db3	-0.21898536
229	0xbd86cddb	-0.065822326
230	0x3d24a777	0.04019877
231	0x3d31d2b7	0.043413844
232	0x3c275907	0.010214097
233	0x3dff8a30	0.12477529
234	0x3c00f3eb	0.007870655
235	0xbe40e5df	-0.18837689
236	0x3d90ecfb	0.070764504
237	0x3e6b7cc2	0.2299681
238	0xbe2e10e5	-0.16998632
239	0xbbe7e7f7	-0.007077213
240	0xbb3a7ae5	-0.0028454599
241	0xbe45dad5	-0.19321759
242	0x3e5c6bf0	0.2152555
243	0x3e75134f	0.23933147
244	0xbda31f6c	-0.079649776
245	0x3daeaf65	0.085295476
246	0xbc44262d	-0.011971992
247	0xbdc1f139	-0.09469838
248	0xbce36b53	-0.027761137
249	0x3e02b89e	0.12765738
250	0xbc879564	-0.016550727
251	0xbdbf8d01	-0.09353066
252	0xbe1bdef4	-0.15221769
253	0xbdf67125	-0.12033299
254	0x3cee2828	0.029071882
255	0x3e28b32b	0.16474597

policy_net.4.bias f4 [128]
0	0xbce82eea	-0.028342683
1	0xbd4f6a61	-0.05063856
2	0xbc8e6074	-0.017379977
3	0xbd50c8e7	-0.050972845
4	0xbd8942b7	-0.06702178
5	0x3bdeb3fc	0.006796358
6	0x3cd8b5c7	0.026453866
7	0xbd5d8d67	-0.05408993
8	0xbdb8cd5c	-0.09023544
9	0xbd41f33e	-0.047351114
10	0x3dbaec28	0.091270745
11	0x3d1981f1	0.037477437
12	0x3d1b2dbd	0.037885416
13	0xbd9b91fa	-0.07596202
14	0x3d00c1e1	0.031434897
15	0x3d66acb3	0.056317043
16	0xbce9435a	-0.028474499
17	0x3ca5fb4f	0.020261435
18	0xbd32d7b1	-0.04366273
19	0xbbca85cc	-0.0061805006
20	0xbd02e5dc	-0.031957492
21	0x3d3c2ec4	0.045943037
22	0xbdc2196a	-0.094775036
23	0xbda3a1fc	-0.079898804
24	0xbcd821a9	-0.026383238
25	0x3d852022	0.065002695
26	0xbd7e9d07	-0.06216147
27	0xbcde27e6	-0.027118634
28	0x3ca592fc	0.02021169
29	0x3b717a69	0.0036846644
30	0x3d67f2b6	0.05662795
31	0xb9442f26	-0.00018709581
32	0x3dc3e9b9	0.095660634
33	0x3ddf74db	0.1091096
34	0x3d7390ea	0.059464373
35	0x3d94454a	0.07239778
36	0x3d60bdb9	0.054868434
37	0x3d9fa513	0.07795157
38	0xbe0f60a2	-0.14001706
39	0x3d419f46	0.047271036
40	0xbd42675f	-0.047461864
41	0xbcecdd19	-0.028914021
42	0x3d886b5f	0.066611044
43	0x3d975651	0.073895104
44	0xbd7a6347	-0.061129835
45	0x3cc437cf	0.023952393
46	0x3e0ea932	0.1393173
47	0x3d4785b5	0.048711497
48	0xbd886584	-0.066599876
49	0xbd5e7869	-0.05431405
50	0xbd8879a8	-0.06663829
51	0xbb0c2b64	-0.0021388168
52	0xbdf5ed80	-0.1200819
53	0x3c959436	0.018259149
54	0x3d105255	0.035234768
55	0xbd82ae97	-0.063809566
56	0xbcfa0e1f	-0.030524312
57	0x3dae9359	0.08524198
58	0x3d7113d2	0.058856793
59	0x3d3c1f02	0.04592801
60	0xbda5efe9	-0.081024
61	0x3da2e00f	0.07952892
62	0xbdf442b6	-0.119267866
63	0x3ccf96ec	0.02534052
64	0xbcbdc44f	-0.023164896
65	0x3d596e69	0.05308381
66	0xbd2f9bba	-0.04287312
67	0x3d905976	0.07048313
68	0xbd50c160	-0.050965667
69	0xbd8b47b2	-0.06800784
70	0xbd83c429	-0.06433899
71	0xbda7efb1	-0.082000144
72	0x3db21cf2	0.08696927
73	0xbceb6502	-0.028734688
74	0x3db82748	0.08991867
75	0xbbb15d1b	-0.0054127104
76	0xbde0efa5	-0.109832086
77	0x3de856f4	0.1134471
78	0x3dc836f2	0.09776105
79	0x3cb0bc09	0.021574037
80	0xbe380a05	-0.17972572
81	0xbd2d180b	-0.042259257
82	0x3e18d322	0.14924291
83	0xbe002ac3	-0.12516312
84	0xbd1ac78e	-0.037787966
85	0xbb345305	-0.0027515304
86	0x3cf47129	0.029839115
87	0x3d9ddebd	0.077084996
88	0xbdf47f1c	-0.11938307
89	0x3d2d2a59	0.042276714
90	0x3d105255	0.035234768
91	0xbdd0bfc9	-0.1019283
92	0xbd1cdae2	-0.03829468
93	0xbd745ee4	-0.059660807
94	0xbdc8ae7c	-0.09798905
95	0x3d332696	0.04373797
96	0xbdcd9355	-0.10037867
97	0x3d8a6c9c	0.06758997
98	0xbdc00846	-0.09376578
99	0x3da9f681	0.0829897
100	0x3da5c472	0.080941096
101	0x3dc67d7f	0.09691905
102	0x3dbdebad	0.09273467
103	0x3c7ebf77	0.015548578
104	0xbe2041a6	-0.15650043
105	0x3da66d00	0.08126259
106	0x3c96e896	0.018421452
107	0xbe0eee6a	-0.13958135
108	0xbb6f70a0	-0.0036535636
109	0x3d4097b0	0.04701966
110	0xbd7467c8	-0.059669286
111	0x3c92c405	0.017915735
112	0xbbba171f	-0.005679026
113	0x3da3c504	0.07996562
114	0x3d419be8	0.047267824
115	0x3d97ca6f	0.07411658
116	0xbc35b04c	-0.011089396
117	0x3d997784	0.07493499
118	0xbd6f4761	-0.05841768
119	0x3da14438	0.0787434
120	0xbdcabded	-0.09899507
121	0x3da5b69e	0.08091472
122	0xbd4e971f	-0.05043709
123	0x3d551c37	0.05202886
124	0xbd1df230	-0.038561046
125	0xbc8216d3	-0.015880024
126	0xbc01c928	-0.007921495
127	0x3d32902f	0.043594535

policy_net.6.weight f4 [64, 128]
0	0xbe61efc6	-0.22064123
1	0x3e2d7521	0.16939212
2	0x3e0e18a2	0.13876584
3	0xbe4f3c34	-0.2023781
4	0xbe87b2e2	-0.26503664
5	0xbde9b6fd	-0.11411855
6	0xbe8135fd	-0.25236502
7	0x3e5c7eb2	0.21532705
8	0x3e233651	0.15938689
9	0xbad4e5c8	-0.0016242797
10	0xbe1e95ba	-0.15486804
11	0x3c23dbb1	0.010001109
12	0xbe640b29	-0.22269882
13	0xbd72a5ae	-0.059240036
14	0xbe1e69aa	-0.15469995
15	0xbd03f31d	-0.032214273
16	0x3dcefeb6	0.10107176
17	0x3ca26244	0.019822247
18	0xbec9e324	-0.39431107
19	0x3d6b8394	0.05749853
20	0x3e028d81	0.12749292
21	0xbcfaae8f	-0.030600814
22	0x3dcd1df7	0.10015481
23	0x3d75e3b5	0.06003161
24	0xbe404934	-0.18777925
25	0x3df50796	0.119643375
26	0xbe083a5d	-0.13303514
27	0x3e9109a5	0.2832767
28	0x3e86ee05	0.2635347
29	0x3d2507d0	0.040290654
30	0xbe3e26ee	-0.18569538
31	0xbd277be9	-0.040889654
32	0x3c737117	0.014858506
33	0x3d961f88	0.07330233
34	0xbec25c5a	-0.37961084
35	0xbd34a8e2	-0.04410637
36	0x3e072cb9	0.13200654
37	0xbea35a68	-0.31904912
38	0x3dc38ab1	0.09547938
39	0x3ea8b36f	0.32949397
40	0x3e274efb	0.16338722
41	0x3df4490c	0.11927995
42	0x3d44bb70	0.048030317
43	0xbdbaf821	-0.09129358
44	0xbea6ef27	-0.32604334
45	0xbd38c17c	-0.045106396
46	0xbe70aa96	-0.23502573
47	0x3de33a97	0.110951595
48	0x3c62fab3	0.013853717
49	0xbe1bfd9b	-0.15233462
50	0xbeb60067	-0.35547182
51	0x3d5a8749	0.053351674
52	0x3bb1d670	0.0054271743
53	0x3e572624	0.21010643
54	0xbd186f53	-0.037215542
55	0xbd37fcbc	-0.04491876
56	0xbe026dc0	-0.12737179
57	0x3e087623	0.13326316
58	0x3df1e139	0.11810536
59	0xbdd7deaf	-0.105405204
60	0x3d855822	0.065109506
61	0xbbf2b0a7	-0.0074063125
62	0xbeaeef3c	-0.34166896
63	0xbedf61ab	-0.43629202
64	0xbe39647c	-0.18104738
65	0xbe832852	-0.256167
66	0xbb19ab5b	-0.0023448083
67	0xbd1c26ae	-0.038122825
68	0xbe43e254	-0.19129306
69	0xbe2a45d2	-0.16628197
70	0x3e0cacfd	0.13737865
71	0xbe53e7a5	-0.20693834
72	0xbce53c56	-0.027982872
73	0xbea01d7b	-0.31272492
74	0xbe73de02	-0.23815158
75	0x3de33ce8	0.11095601
76	0xbdbb9590	-0.09159386
77	0xbec9ec10	-0.39437914
78	0xbed61cdc	-0.41818893
79	0xbec5e446	-0.3865072
80	0x3e21500c	0.15753192
81	0x3ce68f11	0.028144391
82	0xbb889205	-0.0041677975
83	0xbe77963c	-0.24178404
84	0xbe082784	-0.13296324
85	0xbe023510	-0.12715554
86	0x3e852702	0.26006323
87	0xbe3034cb	-0.17207639
88	0x3dd14a78	0.10219282
89	0x3c624d1b	0.013812329
90	0x3e1181e1	0.14209701
91	0x3d0f60b6	0.03500434
92	0x3de7d227	0.1131938
93	0xbc8e437f	-0.017366169
94	0x3df3fb18	0.11913127
95	0xbd4f9d80	-0.050687313
96	0x3d962ba3	0.07332542
97	0x3e23220e	0.1593096
98	0xbe20af00	-0.15691757
99	0xbde885d0	-0.11353648
100	0xbedfc94c	-0.43708265
101	0x3e349d0a	0.1763803
102	0xbd98c3ba	-0.07459207
103	0xbdf33620	-0.11875558
104	0xbdb25721	-0.08708025
105	0x3ce87ff6	0.028381329
106	0xbe6bae1b	-0.23015635
107	0xbd2d19d1	-0.04226095
108	0x3d4f99b6	0.0506837
109	0x3c715be3	0.01473138
110	0x3dbfbbbb	0.093619786
111	0xbe61f414	-0.22065765
112	0xbcb537a6	-0.022121262
113	0x3d9773ce	0.07395135
114	0xbd32d365	-0.043658633
115	0xbe61730b	-0.22016542
116	0x3e313a8a	0.17307487
117	0xbebb4ad9	-0.36580542
118	0xbe7088f3	-0.23489742
119	0xbe347c48	-0.17625535
120	0x3de171a1	0.11008001
121	0xbd5ac9c5	-0.05341508
122	0x3df9e923	0.122026704
123	0x3c1b02bf	0.009461104
124	0x3d94ae00	0.0725975
125	0xbc87c2d6	-0.016572397
126	0xbc1393df	-0.009007423
127	0x3b80717b	0.003919778
128	0x3dde26f1	0.10847271
129	0x3df9cf80	0.121977806
130	0x3d834cdb	0.064111434
131	0xbdc3a790	-0.095534444
132	0xbf2b9771	-0.67027956
133	0x3d7203c0	0.059085608
134	0xbde151a0	-0.11001897
135	0x3da201e5	0.079105176
136	0xbdb35a4d	-0.08757458
137	0x3e2717a4	0.16317612
138	0x3db8690b	0.0900441
139	0x3d9a4488	0.075326025
140	0x3e2215d5	0.15828641
141	0xbd426097	-0.047455397
142	0x3d04053d	0.032231558
143	0x3e085401	0.13313295
144	0xbe5d7fb5	-0.21630748
145	0xbc7d807d	-0.0154725285
146	0xbe1197e3	-0.14218096
147	0xbcbbb83d	-0.022915
148	0xbdaf59ad	-0.08562026
149	0x3d42cabc	0.047556624
150	0x3e6caf04	0.23113638
151	0xbe03973a	-0.12850657
152	0xbf114da8	-0.5675912
153	0xbd7ff3ca	-0.062488355
154	0xbe9d646a	-0.30740672
155	0xbe122b3a	-0.14274302
156	0xbd7a57b8	-0.06111881
157	0x3d471b78	0.04861018
158	0x3c0474d0	0.008084491
159	0xbed8f9c8	-0.42378068
160	0x3bd3a6fb	0.0064591146
161	0xbd196589	-0.037450347
162	0x3d96123f	0.07327699
163	0x3c5ff707	0.013669736
164	0x3cc5cfcb	0.024146935
165	0x3b3394f5	0.0027402018
166	0x3d253713	0.040335726
167	0x3e4dbbdc	0.20091194
168	0x3d12d142	0.035844095
169	0xbd8ceb35	-0.068808
170	0x3e6a2a09	0.22867598
171	0xbeb3fdde	-0.35154623
172	0xbe119138	-0.14215553
173	0xbd92d4a7	-0.071694665
174	0xbce702dd	-0.028199608
175	0xbdc9ec84	-0.09859565
176	0xbd8de27b	-0.06927963
177	0x3dc90f22	0.098173395
178	0x3a55da76	0.00081578584
179	0x3e351409	0.17683424
180	0xbeab5c27	-0.33468744
181	0x3d9f2aea	0.07771857
182	0x3e1d55f8	0.15364826
183	0x3c343585	0.010999088
184	0xbedb28c8	-0.4280455
185	0x3d057a8b	0.03258757
186	0xbda36d78	-0.07979864
187	0x3cbb8ec0	0.022895217
188	0x3d90cedf	0.070707075
189	0x3d766a41	0.060159925
190	0xbcab6218	-0.020920798
191	0xbdac44d5	-0.08411566
192	0x3d80bec9	0.062863894
193	0xbd15dc40	-0.036587
194	0x3e231cd7	0.1592897
195	0x3d4032f5	0.046923596
196	0xbf156764	-0.58360887
197	0xbdaf6c2c	-0.08565554
198	0x3e2924af	0.165179
199	0x3e24a9f0	0.16080451
200	0x3d8fc99a	0.07020874
201	0xbdfa5dd9	-0.12224931
202	0x3d652194	0.055940226
203	0xbda51e4e	-0.08062421
204	0x3d771656	0.060324036
205	0x3d26b461	0.040699366
206	0xbeb8ac6e	-0.36069053
207	0x3d65015c	0.0559095
208	0xbe589782	-0.21151546
209	0x3cd6339b	0.026147654
210	0xbc99bff7	-0.018768294
211	0xbe0cac4a	-0.13737598
212	0xbe6d063b	-0.23146908
213	0x3d9bcbdf	0.07607245
214	0x3e2e763a	0.17037287
215	0xbf101461	-0.56281096
216	0xbd6c6858	-0.057716697
217	0x3d4aa8d4	0.049477413
218	0x3d97b24f	0.074070565
219	0xbdd80412	-0.10547651
220	0xbe899bc7	-0.2687666
221	0x3cf45ee8	0.029830411
222	0x3bb9c1a3	0.0056688352
223	0xbdcbb580	-0.09946728
224	0x3bd05e76	0.006358917
225	0x3d178ef2	0.037001558
226	0xbcfc72fb	-0.030816546
227	0xbe80eb4c	-0.25179517
228	0x3d1c8fd0	0.038223088
229	0x3de232d7	0.11044853
230	0xbe1b37cd	-0.15158005
231	0x3e28a901	0.1647072
232	0xbd865a8f	-0.065602414
233	0xbd49ffb2	-0.049316116
234	0xbe824db8	-0.2544992
235	0xbdcdf107	-0.10055738
236	0xbe9ff156	-0.31238812
237	0x3ea38136	0.31934518
238	0x3e3aca6e	0.18241283
239	0x3e030022	0.1279302
240	0xbf09cba9	-0.53826386
241	0x3dce2994	0.10066524
242	0x3dfcc161	0.123415716
243	0xbe89a620	-0.26884556
244	0xbc6bcf22	-0.014392646
245	0xbd9b14e7	-0.07572346
246	0xbe825f14	-0.25463164
247	0xbdb0d53b	-0.086344205
248	0x3de22d38	0.11043781
249	0xbe0545c7	-0.13014899
250	0x3e3b688d	0.18301602
251	0xbd7a1ec8	-0.06106451
252	0x3ddedcb7	0.10881942
253	0x3e07ad0b	0.13249604
254	0xbea0a47d	-0.31375495
255	0x3d71c01c	0.0590211

policy_net.6.bias f4 [64]
0	0x3d10f557	0.035390224
1	0x3db037e6	0.08604412
2	0xbe110cb2	-0.14164999
3	0xbccd4899	-0.025059031
4	0xbe2e37aa	-0.17013422
5	0x3d9ce2fe	0.07660483
6	0xbc956e26	-0.018241
7	0x3c9106d1	0.017703446
8	0x3be1c8cc	0.006890392
9	0x3ddd68a4	0.10810974
10	0x3e279d8f	0.16368698
11	0xbc2a33fb	-0.01038837
12	0x3e3522b0	0.17689013
13	0x3c982e53	0.018576777
14	0x3dfdd5d2	0.123942986
15	0x3dfe816c	0.12427029
16	0xbc7edc1e	-0.01555541
17	0x3d0f2e85	0.034956474
18	0x3da1e2e5	0.07904605
19	0x3c8426a0	0.0161317
20	0x3cf70332	0.03015289
21	0x3e043a32	0.12912825
22	0xbc803024	-0.015647955
23	0xbd267f04	-0.040648475
24	0x3d237815	0.03990944
25	0x3df90c7d	0.12160585
26	0x3e27684f	0.16348384
27	0xbb7a5b38	-0.0038201343
28	0x3e392cf9	0.18083562
29	0x3da15ef4	0.07879439
30	0x3dd3e785	0.10346893
31	0x3df1deb5	0.11810056
32	0xbda0219f	-0.07818913
33	0x3deb3751	0.1148516
34	0x3d46ae54	0.048506096
35	0xbc9e0486	-0.019289266
36	0x3df9ee6c	0.122036785
37	0xbb8fa1eb	-0.004383316
38	0x3db45caf	0.088067405
39	0xbe268b7c	-0.16264147
40	0x3d4e4768	0.050361067
41	0xbdb0f55d	-0.08640549
42	0x3dcc1bc1	0.09966231
43	0xbd90250b	-0.070383154
44	0x3e325bb8	0.174178
45	0x3e75ad12	0.23991802
46	0x3c9651f1	0.01834962
47	0x3d532ed2	0.051558323
48	0x3debeda5	0.115199365
49	0x3ca57fd0	0.020202547
50	0xbe28f86f	-0.1650102
51	0x3e131a8b	0.14365594
52	0xbcd779a5	-0.026303122
53	0xbc0a753c	-0.008450802
54	0x3d8ad574	0.06778994
55	0xbcbe466d	-0.023226941
56	0x3e72e7f1	0.23721291
57	0x3e24ccc0	0.16093731
58	0x3d6e8e10	0.05824095
59	0xbd329e6d	-0.043608118
60	0x3d396216	0.045259558
61	0x3de99569	0.11405451
62	0xbdb505a3	-0.08838966
63	0x3d81d996	0.06340329

policy_net.8.weight f4 [4, 64]
0	0xbe360ecd	-0.17779084
1	0xbbd6849a	-0.006546569
2	0xbea0003c	-0.3125018
3	0x3e5d24e0	0.21596098
4	0x3e371bdc	0.17881721
5	0x3e94b4ab	0.2904409
6	0xbd87fbbf	-0.06639814
7	0xbe0f3c96	-0.13987955
8	0xbe79cb5d	-0.24393983
9	0x3cf84957	0.030308409
10	0x3e0f35c1	0.13985349
11	0x3dcf8c89	0.10134227
12	0xbd41768d	-0.0472322
13	0x3ea1e686	0.31621188
14	0x3d98a36a	0.07453044
15	0x3e0d652e	0.13808128
16	0xba8f74a1	-0.0010944792
17	0x3d4b19b2	0.04958505
18	0xbe0d0d17	-0.13774525
19	0x3e3e89e5	0.1860729
20	0x3e332ae9	0.17496838
21	0x3e499da7	0.19689046
22	0x3d86c1cc	0.065799326
23	0x3ddf270d	0.1089612
24	0xbe855fd6	-0.2604968
25	0xbde133b1	-0.109961875
26	0x3d787335	0.060656745
27	0x3e85229e	0.26002973
28	0xbd604933	-0.05475731
29	0xbd83bf0b	-0.06432923
30	0xbce64094	-0.028106965
31	0x3bb4108e	0.0054951375
32	0xbe3447d6	-0.17605528
33	0x3d645dc7	0.055753496
34	0xbd3dc2ef	-0.04632848
35	0xbe3f57bf	-0.18685816
36	0x3d91464b	0.070934854
37	0x3e00d0a9	0.12579598
38	0xbd21515a	-0.039384224
39	0x3d34cf32	0.04414291
40	0x3e4fc179	0.20288648
41	0xbe90f55b	-0.2831219
42	0x3d6a7cae	0.05724781
43	0x3d52d82d	0.051475693
44	0xbd4a6ddd	-0.04942118
45	0xbda5540f	-0.080726735
46	0x3e10759e	0.14107367
47	0x3dbd7f21	0.092527635
48	0x3ddf3713	0.108991764
49	0xbce516e3	-0.027965015
50	0xbd93d02e	-0.072174415
51	0x3d5a4f00	0.053297997
52	0x3d857433	0.06516304
53	0x3dddffa7	0.108397774
54	0xbe017b1e	-0.12644622
55	0xbe02584e	-0.12728998
56	0xbe1ffcb0	-0.15623736
57	0x3da5a438	0.08087963
58	0x3e106f21	0.14104892
59	0x3da83cda	0.082147315
60	0x3e2bc49d	0.16774221
61	0xbd2e5216	-0.042558752
62	0xbe2cf463	-0.16890101
63	0xbd2d4cf8	-0.04230973
64	0x3e14355b	0.14473478
65	0xbd0fcb3e	-0.035105936
66	0x3e535a9b	0.20640032
67	0xbc88f503	-0.016718393
68	0x3e76125a	0.24030438
69	0x3e9343be	0.2876262
70	0xbe6590de	-0.22418544
71	0xbe69910c	-0.22809237
72	0x3e7a7087	0.24456988
73	0x3d046090	0.03231865
74	0x3b923cfc	0.0044628363
75	0xbd957fc0	-0.07299757
76	0x3d1b64d5	0.037937958
77	0x3d1cca28	0.03827873
78	0x3d894b0a	0.06703766
79	0xbe8e4b7d	-0.27791968
80	0xbd610355	-0.05493482
81	0xbe4a56e3	-0.19759707
82	0xbe6cf62f	-0.23140787
83	0xbd39cdea	-0.04536239
84	0x3dca86fb	0.09889027
85	0x3e153d47	0.14574157
86	0xbd6cfded	-0.05785935
87	0x3e40ff82	0.18847468
88	0xbe023da1	-0.12718822
89	0xbdd2ff6e	-0.103026256
90	0xbd486be7	-0.04893103
91	0x3cd8f0d7	0.026482029
92	0xbdaee748	-0.08540207
93	0xbe1ae752	-0.15127304
94	0xbdf80f3f	-0.12112283
95	0x3c80ccaf	0.0157226
96	0x3d8b6265	0.06805877
97	0x3e74221f	0.23841141
98	0xbe04eebc	-0.12981695
99	0x3d20387f	0.03911638
100	0xbc965004	-0.018348701
101	0x3e924c27	0.28573725
102	0x3d7aa7c8	0.061195165
103	0x3e9b0556	0.30277508
104	0xbc9ebdf2	-0.019377682
105	0xbe10703e	-0.14105317
106	0xbcdd74c3	-0.027033215
107	0x3e0d8fce	0.13824388
108	0xbe54b989	-0.20773901
109	0xbd4493d5	-0.047992546
110	0xbd67a4dc	-0.056553707
111	0xbd2d4245	-0.042299528
112	0x3c90d5c1	0.01768005
113	0xbda35154	-0.079744965
114	0x3dda9934	0.106737524
115	0xbdcfe4e4	-0.10151079
116	0x3e547318	0.2074703
117	0x3e0bc4d6	0.13649306
118	0xbdd83f35	-0.10558931
119	0xbcabc0f6	-0.020966034
120	0xbe4d5e23	-0.20055442
121	0xbe12fc20	-0.1435399
122	0xbda079a4	-0.07835701
123	0xbe59fd72	-0.21288088
124	0xbcc786c9	-0.024356263
125	0x3c5edc8a	0.013602385
126	0x3e23bb59	0.15989436
127	0x3c0e0ab0	0.00866954
128	0xbd3c022c	-0.04590051
129	0xbcea139b	-0.028573802
130	0xbdbf2ce4	-0.09334734
131	0xbb91e105	-0.0044518732
132	0xbed75c6d	-0.42062703
133	0xbda95d2b	-0.082697235
134	0xbe4bbc1f	-0.19895981
135	0x3de9cae6	0.11415653
136	0x3e4a3bae	0.19749328
137	0x3dd34061	0.10315014
138	0xbe4c30b6	-0.19940457
139	0x3c9381e9	0.018006282
140	0x3e8b6c77	0.2723119
141	0xbd11c8ad	-0.03559177
142	0xbe9bc81b	-0.30426106
143	0xbd3194cc	-0.043354794
144	0xbe0c003f	-0.13671969
145	0xbdf4e51f	-0.11957764
146	0xbcfc35e3	-0.030787414
147	0xbd1f3c32	-0.038875766
148	0xbe3d3afa	-0.18479529
149	0x3c91b456	0.017786186
150	0xbe19af7f	-0.15008353
151	0xbd18a833	-0.037269782
152	0x3df10af8	0.1176967
153	0x3e44eb95	0.19230492
154	0x3e6f35da	0.23360386
155	0x3e29dac6	0.16587362
156	0x3e26bbb9	0.16282548
157	0x3e9c0d54	0.3047892
158	0xbcbc36e8	-0.0229754
159	0x3e3b1f04	0.1827355
160	0xbe1b68bf	-0.15176676
161	0xbd9a6d0e	-0.07540332
162	0x3c3efcbc	0.011656936
163	0xbe0b024e	-0.13575098
164	0x3d45f734	0.048331454
165	0xbd29d17b	-0.04145954
166	0x3e08f411	0.13374354
167	0xbe262abb	-0.16227238
168	0xbf054286	-0.5205463
169	0xbd6d5810	-0.05794531
170	0x3d8fc687	0.07020288
171	0x3e4ce192	0.20007923
172	0x3e5ba99c	0.2145142
173	0x3e92dd53	0.28684482
174	0xbec78e57	-0.38975784
175	0x3d3dda27	0.046350624
176	0x3dd95341	0.106115825
177	0xbd82d798	-0.063887775
178	0xbd64295c	-0.055703506
179	0x3d606dc8	0.054792196
180	0x3e65e0a0	0.22448969
181	0xbd01d74a	-0.031699456
182	0x3c539e6a	0.012916187
183	0x3ca6ab53	0.020345366
184	0x3e86fc2d	0.2636427
185	0x3e040edb	0.12896292
186	0x3c3ae07e	0.011406062
187	0x3b47058b	0.0030368294
188	0xbf0092df	-0.5022411
189	0x3dfaa9db	0.122394286
190	0xbde614d2	-0.1123444
191	0x3e9edd84	0.31028378
192	0xbea16e0a	-0.31529266
193	0xbe50b2ac	-0.20380658
194	0x3c66e000	0.014091492
195	0xbdde0ef0	-0.10842693
196	0x3d810954	0.06300607
197	0xbd50ec8a	-0.05100683
198	0xbd7b3ff4	-0.061340287
199	0x3c939f2f	0.01802024
200	0xbbe3f39b	-0.0069565303
201	0x3e1e5058	0.15460336
202	0x3c80301b	0.015647938
203	0x3cc06613	0.023486173
204	0x3d433214	0.04765518
205	0xbe089307	-0.13337336
206	0x3e74c28a	0.23902336
207	0xbd1ef872	-0.038811155
208	0xbe499e7b	-0.19689362
209	0x3e4d1daa	0.20030847
210	0xbcfd44fd	-0.030916685
211	0x3d610223	0.05493368
212	0xbe13d1c1	-0.14435484
213	0x3d645abf	0.055750605
214	0xbe4b33d1	-0.19843985
215	0x3b84fed4	0.004058698
216	0xbdb04fe6	-0.086089894
217	0xbe003d62	-0.12523416
218	0xbd5d8a01	-0.05408669
219	0xbd216cb9	-0.039410327
220	0xbd5b7e3b	-0.05358718
221	0xbe4f0dfa	-0.20220175
222	0xbc1f1e22	-0.009711774
223	0xbd1b61b3	-0.03793497
224	0x3e416d70	0.18889403
225	0x3c9a30ba	0.018822063
226	0x3df6e4cd	0.12055359
227	0xbd18fcaa	-0.037350334
228	0xbcce35e1	-0.025172176
229	0xbe39b13e	-0.18134019
230	0xbe014161	-0.12622596
231	0x3e760d88	0.240286
232	0x3caf3a87	0.021390213
233	0xbcc0c55a	-0.023531605
234	0xbcabee1e	-0.020987567
235	0xbe28de65	-0.16491087
236	0x3d218d46	0.03944137
237	0xbd34bd4c	-0.04412584
238	0xbdd04008	-0.10168463
239	0xbcc44018	-0.023956344
240	0x3c0326a0	0.008004814
241	0xbd5c3e75	-0.0537705
242	0xbd9f959b	-0.07792207
243	0xbe278275	-0.16358359
244	0x3ddc65f5	0.10761634
245	0x3e248043	0.16064553
246	0x3e126684	0.14296919
247	0x3e5f9451	0.21833922
248	0xbde066ed	-0.109571315
249	0x3d67dd98	0.056607813
250	0x3d1301e8	0.03589049
251	0xbe93b477	-0.2884862
252	0x3d160ef7	0.036635365
253	0xbe0ba14e	-0.13635752
254	0xbe3e2d20	-0.18571901
255	0x3e8b6367	0.27224275

policy_net.8.bias f4 [4]
0	0x3bb8ca19	0.0056393263
1	0xbcdcee31	-0.026969047
2	0x3d2da86f	0.04239696
3	0x3e095663	0.1341186
