IL/Model/model_reacher_28.pt (torch, 292527 bytes, 20 tensors)

policy_net.0.weight f4 [64, 24]
000000 19 6e a4 be 36 a8 97 bf 2a 25 64 3e 49 0d af bd
       -0.32115248 -1.1848209 0.22279802 -0.08547456
000010 f8 b5 53 3e 99 14 23 be 59 9a 97 3e be 84 85 bd
       0.20674884 -0.15925826 0.29609945 -0.06519459
000020 15 d5 45 3e 01 27 6f 3d d6 ff a3 3c f2 fe ae ba
       0.19319566 0.058386806 0.020019453 -0.0013351126
000030 0e 78 c0 bd 85 78 95 b8 be 8f 95 3e c7 05 f8 3d
       -0.093978986 -7.127322e-05 0.2921123 0.12110477
000040 56 72 7a 3e b3 21 06 3e 44 ae 5d be 4b 34 e5 be
       0.24457678 0.13098793 -0.21648508 -0.4476646
000050 c2 f2 c2 be c4 2e a3 bd 4d d0 2a 3e 62 fc 7b 3c
       -0.38075835 -0.07967904 0.16681023 0.015379997
000060 77 d9 84 3c dd 32 1c bf b0 86 49 bd 9b 0e b0 3e
       0.016216977 -0.6101511 -0.049200714 0.34386143
000070 c4 eb 79 3e 9c a6 45 3e bd 93 5f 3f b5 cf 7d be
       0.24406344 0.19301838 0.87334806 -0.24786265
000080 5a 16 5b bd b3 83 8a be 55 02 8b 3e 29 84 24 bb
       -0.053488113 -0.27053604 0.27150217 -0.0025103188
000090 b5 7c d8 bc 09 b5 8b be 9c 20 8c 3b 0d 7e 8d bd
       -0.026426652 -0.27286556 0.0042763483 -0.06908808
0000a0 52 ef b1 bd 24 de 3c be 49 15 6e be b2 29 9b bd
       -0.08688225 -0.18444115 -0.23250307 -0.07576312
0000b0 f8 59 74 be a3 40 1f 3e 21 f2 b4 bd 69 d2 0c be
       -0.23862445 0.15552 -0.08835245 -0.1375214
0000c0 19 bf 3c 3e 5b 62 12 3f aa 12 8e be 04 16 b8 3f
       0.18432273 0.5718133 -0.27748615 1.4381719
0000d0 e3 91 fd bc 6a db b2 bd 65 2f 41 bd 75 d4 61 3d
       -0.030953353 -0.08733256 -0.04716434 0.055134255
0000e0 5b 70 d6 3e 71 7d e2 bc e7 ac 3b 3d ce e3 b4 bc
       0.41882595 -0.027647706 0.04581919 -0.022081282
0000f0 71 71 ab 3e 34 7d 95 3e 05 15 06 3d d1 be 2b bd
       0.33484986 0.29197085 0.03273489 -0.041930024
000100 33 85 3b bd 24 86 20 be ea cc 8a 3d a5 d6 87 3c
       -0.045781326 -0.1567617 0.067773655 0.016581843
000110 24 34 25 3d 1a 38 39 3e d1 be a4 bd fa 03 4b be
       0.04033293 0.18087807 -0.08044208 -0.19825736
000120 bb 10 be 3e e6 93 d9 3e bb 89 98 be 5d ba 91 bf
       0.3712214 0.4249565 -0.2979258 -1.1384999
000130 b5 70 88 3e a0 8c a4 3d bd 76 9a 3e d3 7e cd 3d
       0.2664849 0.080346346 0.30168715 0.100339554
000140 c7 a5 f1 bd cf 91 97 3d 91 ce 80 bd 84 95 06 bf
       -0.11799198 0.07400858 -0.062893994 -0.5257189
000150 fb af 57 bd bd fa a3 3c fb db c3 3c 4b f3 31 bd
       -0.052658062 0.020017022 0.023908606 -0.043444913
000160 86 28 9a bd 22 0a 01 bd 7e b2 c0 bd 1d 3e b7 be
       -0.075272605 -0.031503804 -0.09409045 -0.35789576
000170 44 0d ad bd 89 f0 73 be dc f0 47 bd d0 56 c9 3d
       -0.08449796 -0.23822226 -0.048813686 0.09831011
000180 af 3a ae bd e6 07 16 3e c5 dd fe bd 39 2a 37 3e
       -0.08507287 0.1465145 -0.12444643 0.178872
000190 c9 6b 13 3d 09 91 ea 3d 50 c1 27 bb ca f0 5c 3d
       0.035991464 0.114534445 -0.00255974 0.05394057
0001a0 e8 a2 7f bd a0 28 fb bd 3f b4 14 be 2a aa d7 3e
       -0.06241122 -0.12263608 -0.14521883 0.42122012
0001b0 9e d0 fe be 50 e7 fc 3c dc ba 0d 3e 5f ea 98 3d
       -0.49768537 0.030872017 0.13840812 0.07466578
0001c0 02 43 a1 3e 92 23 8a 3e 19 3f 16 3e 8c df 82 3e
       0.31496435 0.26980263 0.14672507 0.25561178
0001d0 fd f6 8d bd 6e 47 32 be f2 ca 31 be c6 c4 8f bd
       -0.06931875 -0.17410061 -0.17362574 -0.070199534
0001e0 d6 d1 d0 be e5 c5 cf 3d e3 5b 7a 3e ca 0a ac bf
       -0.40785092 0.10145167 0.24449115 -1.3440793
0001f0 18 1c 29 be 00 35 67 3c bd 4c 40 3e 2f a3 1d be
       -0.16514623 0.014111757 0.18779273 -0.15394281
000200 da b4 eb be 82 0e 20 3e 2b 7d 83 be 60 86 d5 bd
       -0.46036416 0.15630534 -0.25681433 -0.104260206
000210 bd 27 b8 bd 48 b4 5c be bb f3 3f 3e 94 32 3f 3e
       -0.089919545 -0.21553147 0.1874532 0.18671638
000220 04 61 53 3e 96 f5 f0 3d 7d 86 63 3e d9 b6 53 3e
       0.20642477 0.11765592 0.22219272 0.2067522
000230 dc 77 2b 3d 60 3a 35 bc 07 87 30 be 07 bd 0f 3e
       0.041862354 -0.011061281 -0.17239009 0.14036952
000240 74 a2 96 be 54 ce 19 40 18 2e 0d 3e 0a cc ee be
       -0.29420817 2.4032183 0.13787115 -0.46640044
000250 30 0c 93 be 3f e3 83 3e 69 0b ed be 5b a0 15 3e
       -0.28720236 0.25759313 -0.46297768 0.14611952
000260 8c 13 e3 3d 82 00 02 bd ac 10 46 3e 0b 57 04 be
       0.11087713 -0.031738766 0.19342297 -0.1292383
000270 f5 79 1e 3d b3 91 73 3d eb 61 eb 3b a5 3b 3a be
       0.038690526 0.05946512 0.0071833036 -0.18186815
000280 8b dc 00 3e e0 2f 36 3e e3 d5 2c ba b7 9b 8a 3e
       0.1258413 0.177917 -0.0006593151 0.27071926
000290 f2 96 4b 3e dd 8c 6e bd 53 e3 85 be f0 5b 31 be
       0.198818 -0.058239806 -0.26149997 -0.17320228
0002a0 b3 3e 14 bd c2 a3 d7 3e cb 2d ff 3e 27 57 9b 3f
       -0.036192607 0.42117125 0.49839625 1.2135972
0002b0 05 d9 10 be 95 a7 2d 3e 5d ad 2f 3e 38 f4 1c be
       -0.14145286 0.16958459 0.17155977 -0.15327537
0002c0 74 c0 ef 3d f7 30 9c be 79 22 50 3d 86 e8 60 3e
       0.117066294 -0.30506107 0.050814126 0.219637
0002d0 f9 6f 59 be f8 2d c8 bc a3 09 4b be b0 06 21 bd
       -0.2123412 -0.024435982 -0.19827895 -0.03931302
0002e0 0b f0 0b be a7 11 23 3e 3f 1d 53 bd ea 69 3d bd
       -0.13665788 0.15924703 -0.051541563 -0.046243586
0002f0 14 a1 17 3e da c9 42 be 3d 97 03 3d 6a 4f a8 3d
       0.1480754 -0.19022313 0.032126654 0.08218272
000300 6e 7c 2b 3f bc 70 a0 3d 36 ba d2 be 3a 51 e2 be
       0.6698674 0.078340024 -0.41157693 -0.44202596
000310 7b b4 d6 bd 58 3b 7a 3e de 1f 00 be f4 62 fc 3d
       -0.10483643 0.244367 -0.12512156 0.12323561
000320 ab 3d 14 3d 49 db 82 3e ac 93 fc 3a 4b 39 e8 3c
       0.036191624 0.25557926 0.0019270084 0.028347632
000330 ca 38 20 3d 6c eb f7 3d ab 9a 18 be e2 0f 91 bc
       0.03911666 0.1210545 -0.14902751 -0.017707769
000340 2e b8 99 bd d3 53 47 be 22 c3 a2 3d ab 5b 04 be
       -0.075058326 -0.1946557 0.07947375 -0.12925594
000350 e6 90 24 3d c7 20 10 3e df 5f 28 bd f5 f9 37 3e
       0.04017725 0.14075004 -0.041107055 0.17966445
000360 78 e4 45 3e 3e 28 87 3f b8 bf 59 3e 51 3c a2 bf
       0.19325435 1.0559156 0.21264541 -1.2674657
000370 ee 47 a6 be 99 08 4b 3e ac 59 71 bd 19 1c 85 3d
       -0.32476753 0.19827498 -0.05892341 0.064995
000380 7a ba 0d 3d c2 32 bb 3e 20 6c c4 3e b6 6d 2a be
       0.034601666 0.36562163 0.38363743 -0.16643414
000390 10 1f fc bd fc 45 90 be d2 5e 72 3e d7 aa 20 3e
       -0.12310612 -0.28178394 0.23668984 0.1569017
0003a0 ec b8 01 3e 39 77 a0 3a fa 7d f6 3d ce 73 45 be
       0.12668198 0.0012242562 0.12035747 -0.19282457
0003b0 1f 20 b3 be dd 02 7f be 41 e3 08 bd 3b 4e 71 3d
       -0.34985444 -0.24903436 -0.03341985 0.058912497
0003c0 35 a8 e5 3e 5f 2d b7 3f 5f b5 99 3e 06 62 6b bf
       0.44854894 1.4310721 0.30021188 -0.91946447
0003d0 60 7c 6b 3e 1b 7e 1e 3e 8a af f2 be c3 7e 27 bd
       0.22996664 0.15477793 -0.4739955 -0.040892374
0003e0 7f 22 80 be 42 06 c0 3e 80 53 88 3e 60 54 b4 bd
       -0.25026318 0.37504774 0.26626205 -0.08805156
0003f0 2d 97 28 3e 30 ef 34 3e 70 93 8c be 63 68 9e be
       0.16463919 0.17669368 -0.27456236 -0.30939016

policy_net.0.bias f4 [64]
000000 c2 fc d7 bd 97 a5 db bd 91 88 58 be 02 90 a5 bc
       -0.105462566 -0.10724943 -0.21145846 -0.02021027
000010 16 d6 04 3e 81 1d 25 be 92 94 04 3e 4c a6 6c bc
       0.12972292 -0.16124536 0.129473 -0.014443945
000020 ae 9a f0 3d 3f 96 28 3e c4 6c e2 bd 9f ac 31 3d
       0.11748253 0.16463564 -0.11055902 0.043377515
000030 de f8 79 be 4e 33 8a be dd ac 73 3e 40 91 e2 3d
       -0.24411342 -0.26992267 0.23796411 0.110628605
000040 aa bb 26 3e 4e 4e 7c 3e 98 75 ba 3d be 7b 06 be
       0.16282526 0.24639246 0.091044605 -0.13133141
000050 be e0 f7 3c f3 a0 15 3d a4 39 34 be fc 2f b8 3d
       0.030258533 0.036530446 -0.17600113 0.08993527
000060 f2 c4 17 bd a2 02 ff bc 49 21 45 3e b7 d3 94 3c
       -0.037053056 -0.031129185 0.19250979 0.01816736
000070 e2 2f 33 3e c4 d1 39 3d dd 4b c9 bd 78 77 f8 bd
       0.17498735 0.045366064 -0.09828923 -0.12132162
000080 6f 57 82 3d bb 7d 7b 3e ac d3 c9 bd 57 23 45 bd
       0.06364333 0.24559681 -0.09854826 -0.048129406
000090 90 74 87 bb 93 90 2a 3d 7b 04 08 be 2f 69 2a 3e
       -0.0041337684 0.041641783 -0.13282959 0.16641687
0000a0 e5 16 97 3d 0f d9 70 be 4b 8f dd 3c ab 5d b4 3b
       0.07377414 -0.23520301 0.027045866 0.00550433
0000b0 77 a3 2c be 7e d9 2b be d9 9a 66 3e c5 60 fb bb
       -0.16859232 -0.16782185 0.22520007 -0.007671448
0000c0 03 cd da 3c a0 fb e8 3d 14 5b 0b 3e da f2 12 3c
       0.026709085 0.11376119 0.13608962 0.008969033
0000d0 d7 1d 05 3e cb 18 49 3e db 6d aa 3c 83 80 57 3e
       0.12999664 0.19638364 0.020804336 0.21045117
0000e0 77 95 28 be 5d 0d 9a 3c 10 64 a1 bd e8 ff 10 3e
       -0.16463266 0.0188052 -0.078804135 0.1416012
0000f0 1a e4 d8 3d 5b a9 47 be 32 74 11 be ae ab 9c bd
       0.10590382 -0.19498198 -0.14204481 -0.07649933

policy_net.2.weight f4 [128, 64]
000000 00 7b 39 be c3 62 61 3d 42 06 84 bc dc 57 91 be
       -0.18113327 0.055025827 -0.016116265 -0.28387344
000010 46 a2 6b 3d 71 26 36 3e 46 fd 70 bd cf 86 5c 3e
       0.057527803 0.17788102 -0.05883529 0.215358
000020 87 88 53 3e 6a e6 b1 3d a5 73 45 be de 8d 78 be
       0.2065755 0.08686526 -0.19282396 -0.24272868
000030 2b 59 86 3e 2b 52 1d bc d6 76 99 3e 07 92 a0 3e
       0.26239905 -0.00960211 0.29973477 0.3136141
000040 2e 7b 25 be 7c d6 b8 bd fa 6b 12 be 5a f8 14 bc
       -0.1616027 -0.09025285 -0.14299002 -0.009092415
000050 74 8f 28 be 06 e5 27 bd fb 8a 99 3e 3b 46 81 3e
       -0.16460973 -0.0409899 0.29988846 0.25248894
000060 f0 a8 24 3e b3 98 9e be b7 5c b5 be 7d 7e 93 3e
       0.1608007 -0.30975875 -0.35422298 0.2880744
000070 db 22 e7 bc 0c ed 23 3e 37 e2 84 be 2b a9 19 be
       -0.028214863 0.16008395 -0.25953838 -0.15005939
000080 bd 08 29 be 3f 80 f9 3d a6 16 05 3e 55 22 8a bd
       -0.1650724 0.12182664 0.12996921 -0.067448296
000090 66 fd dc bc 48 06 85 3e 45 9e 8e be 3c 07 4f be
       -0.026976299 0.25981355 -0.27855125 -0.20217603
0000a0 b1 d3 c8 bc 0e 3e ab be 49 13 49 be e3 83 02 3f
       -0.024515005 -0.3344578 -0.19636263 0.50982493
0000b0 4e 48 ac bd 44 01 80 3d 79 47 0e 3c af 28 ec 3c
       -0.084122285 0.062502414 0.008684033 0.028827993
0000c0 6d 30 a8 3d ac 08 bd be b7 76 47 3b 76 c9 97 3d
       0.082123615 -0.3692068 0.003043575 0.074114725
0000d0 8b 53 d8 bd 00 06 94 be bf 45 51 3e 6e f6 9a 3c
       -0.105628096 -0.28910828 0.20436762 0.018916335
0000e0 d2 eb de bd c3 eb 0c 3d 98 8d 85 3e 78 b5 10 3e
       -0.10884823 0.034404527 0.2608459 0.14131725
0000f0 58 a3 68 bd f8 2c 78 be e1 b9 c3 bd 56 9a af bb
       -0.0567964 -0.24235904 -0.09556938 -0.0053589744
000100 f5 73 c8 be c0 0c 3c 3d 33 03 5d 3e 8b ca 0b 3c
       -0.39150968 0.045910597 0.21583252 0.008532177
000110 62 fe a9 bf 50 70 88 3d 41 00 ca bc 5f 55 0c bf
       -1.3280756 0.06662047 -0.024658324 -0.54817766
000120 5b 28 62 bd 6b e9 c7 bd 71 98 f2 bc 23 2c 2a be
       -0.055214267 -0.09761318 -0.029613705 -0.166184
000130 ac 24 44 bd 5d 3f 15 3e 43 e4 12 bd 76 d8 0f 3e
       -0.047886536 0.14574952 -0.03586222 0.14047417
000140 e2 32 e8 bc 6f 8c aa 3d 81 95 15 3d b5 02 a9 bd
       -0.028344575 0.08327567 0.03651953 -0.082524695
000150 59 08 2a bd 62 dc 53 3d b7 93 52 be 63 84 08 bf
       -0.041511867 0.051723845 -0.20564161 -0.53327006
000160 a2 34 87 bc 73 20 c2 3d 82 e0 60 3e e3 a7 bc 3e
       -0.01650459 0.094788454 0.21960643 0.36846837
000170 0a 34 4c bd ca 68 0e 3e 28 f3 00 3d df 79 fb 3d
       -0.049854316 0.13907161 0.031481892 0.122791044
000180 ca c9 c3 be 63 12 8b be 8b 29 f8 bc 15 d9 61 3d
       -0.3823989 -0.27162465 -0.030293247 0.055138666
000190 ab d9 71 3e bb e7 dd 3d 6d b5 12 bd 4a b9 a4 be
       0.2361819 0.10835215 -0.035817552 -0.32172614
0001a0 ad b3 ca be 70 a0 02 3e cf a9 5a 3c 1d 1b 01 bf
       -0.39590207 0.12756515 0.01334615 -0.50431997
0001b0 8b bf 51 3e 5a 6a a5 3d 1d 80 69 bd 29 73 0a 3e
       0.20483224 0.080769256 -0.057006944 0.13520493
0001c0 55 c6 d2 3e ef 36 bd 3d ad 74 ba be c4 6d f4 bc
       0.4116694 0.092389934 -0.36417142 -0.029837497
0001d0 6d 45 75 3e b7 c7 20 be 1a 3d 70 b9 e5 8c 9d 3c
       0.23952265 -0.15701185 -0.00022910946 0.019232223
0001e0 c5 bb c7 3d 5d 22 6e be cc 25 32 be 7e 62 9d bc
       0.09752611 -0.23255296 -0.17397231 -0.019212004
0001f0 f6 8e 66 3d 6c 0c c4 3d 95 38 45 be 33 1b bb 3d
       0.056288682 0.09572682 -0.19259866 0.09136047
000200 5a d2 3c be 8c d1 74 bd 1e 51 aa be 75 97 b4 3d
       -0.18439618 -0.059770152 -0.33265013 0.08817951
000210 34 20 2e bc c5 c1 8f 3e 87 7b f1 3c f2 ad f9 3c
       -0.010627795 0.28077522 0.029477848 0.030478451
000220 43 8b 09 3e 58 5a 67 3d 36 7b bf 3d 7f 14 48 bd
       0.1343203 0.056482643 0.093496725 -0.04884767
000230 6a 10 4d be 03 17 b5 be 7b 65 fe bd e9 40 38 be
       -0.20025793 -0.3536912 -0.124216996 -0.17993511
000240 f4 3f cd bd 6e c5 1b 3d 51 df 9c 3e 3c 9b 58 be
       -0.10021964 0.03803008 0.30639127 -0.21152967
000250 94 70 09 bd 29 8c ae bd 82 3c a4 bd ec 8f 87 be
       -0.03355463 -0.08522827 -0.080193534 -0.2647699
000260 e0 84 39 be 02 7f 77 3e 36 14 a3 3d 5b e8 14 3e
       -0.18117094 0.24169543 0.07962839 0.14541762
000270 f8 d1 26 3e 0f 47 32 be 3e e9 a5 bb c6 46 19 3e
       0.16291034 -0.17409919 -0.005063205 0.14968404
000280 8c 6c d6 3d b3 d5 a7 bb 15 5f 7a bd 8a 59 b8 3c
       0.104699224 -0.0051219105 -0.061125834 0.022503633
000290 cd 18 12 be f6 56 00 bf 5c f7 27 3e 53 d8 b1 3e
       -0.14267273 -0.5013269 0.16402954 0.34735355
0002a0 c9 99 05 be ac be f4 be f0 60 1a 3a 8f c3 3d be
       -0.13046946 -0.4780172 0.00058890786 -0.18531631
0002b0 d4 b8 99 be 11 57 af 3d a7 97 92 bd a6 8c da 3d
       -0.30023825 0.085615285 -0.07157832 0.10671358
0002c0 5d 6c a8 bd 92 d1 10 3e fd 9e 83 3e a7 f5 9b be
       -0.08223794 0.14142445 0.25707236 -0.30460855
0002d0 ab 21 45 3e 87 f5 b2 bd f5 27 76 bd 02 51 92 bb
       0.19251125 -0.08738237 -0.0600967 -0.0044652233
0002e0 a2 9c bf be c5 d7 9b bb 78 bb ac be d9 be 7f bb
       -0.3742419 -0.0047559463 -0.33736777 -0.0039023666
0002f0 3e 19 99 3e 85 f1 59 be 52 90 31 bd 2d 2d b9 be
       0.2990207 -0.21283539 -0.043350525 -0.3616728
000300 ff cd 93 be b0 dd 4e 3e 5e e3 ac be 5a 21 3c bb
       -0.288681 0.20201755 -0.33767217 -0.0028706403
000310 69 2a b4 bc 85 d1 4c bb 6d e3 5b be 75 1f 13 bc
       -0.021992879 -0.0031252813 -0.21473475 -0.008979668
000320 79 13 45 3d f5 6d 9c 3e 91 e3 88 3e 30 90 3d be
       0.048114274 0.3055264 0.2673612 -0.18512034
000330 d6 80 1e be d9 1c 82 3c 87 a4 89 bd e7 7d 4c bd
       -0.15478835 0.015882896 -0.06720834 -0.049924757
000340 c5 c4 0e 3d 2f 85 cf 3c 37 a2 d4 bd 44 93 04 bf
       0.034855623 0.025332062 -0.103825025 -0.5178721
000350 2b 7f de 3d c2 9f c0 bd c5 b6 1c 3e 57 65 d8 bd
       0.10864099 -0.094054714 0.15304096 -0.10566204
000360 b4 27 e6 be a1 72 36 3e a6 d1 96 3d 98 74 8e bd
       -0.44952166 0.17817165 0.07364206 -0.06955832
000370 9e 0f 69 be cd 87 32 3c 30 cb 03 3e ad 69 0b bf
       -0.22759864 0.010896635 0.12870479 -0.54458123
000380 39 e7 ed 3e 1b 49 b0 3d 83 a7 6e 3e 38 db 1c 3e
       0.4646547 0.08607694 0.23306088 0.15318
000390 d1 2c 69 bd 1a 6d a1 3d dd 26 23 3d e9 0f b1 be
       -0.056927506 0.078821376 0.039831985 -0.3458245
0003a0 37 62 89 bc 6a d6 c3 be 89 c1 18 3e 92 be ce be
       -0.016770465 -0.38249522 0.14917578 -0.4037977
0003b0 77 05 8f bd a3 56 4b bf e6 7c f2 be 82 56 07 3e
       -0.06983464 -0.7942907 -0.47360915 0.13216594
0003c0 81 1e 58 be 16 12 2d be 84 3d bc 3e 1f 48 f9 be
       -0.21105386 -0.1690143 0.36765683 -0.48687837
0003d0 86 e5 97 3e fa 11 49 3e d2 18 9e 3e 26 ea a4 3e
       0.296673 0.19635764 0.3087831 0.3220989
0003e0 8d 0c 4b be b8 5a 03 be fe b9 ce bd cf 56 a5 be
       -0.19829006 -0.12827575 -0.10094069 -0.32292792
0003f0 45 a5 6b be 44 4b fa bd fb ca 71 3b 79 b1 a7 3d
       -0.23012264 -0.12221387 0.0036894667 0.08188147

policy_net.2.bias f4 [128]
000000 74 4b 6e 3d d6 11 18 bd 84 93 1c 3e 00 42 da 3c
       0.058177426 -0.037126385 0.15290648 0.0266428
000010 9e c7 2e 3b 53 4c c3 3d 50 b2 f5 bc 25 b6 50 bd
       0.0026669274 0.09536042 -0.029992253 -0.050954957
000020 fb 12 49 3d 32 bd dc 3d 0f b7 2c be ee d8 1d 3d
       0.049090367 0.10778274 -0.16866706 0.03853696
000030 4b 1b 34 bd bb 0a fc bd 68 c8 54 3d 60 b7 f9 3c
       -0.04397134 -0.12306734 0.051948935 0.030482948
000040 bd 9b f2 3c f8 3b 06 be 3a 3d c3 3d 8e f7 00 3e
       0.029615277 -0.13108814 0.095331624 0.12594435
000050 b5 22 49 be 66 e7 2d 3d 4b 38 b8 bd 94 5b cb bd
       -0.19642146 0.042457007 -0.08995112 -0.099295765
000060 f8 7c ec 3c 48 25 b1 bc 0c 5c 18 ba 67 99 a2 3c
       0.028868183 -0.021624222 -0.0005812056 0.019848539
000070 fc 20 41 3d a5 75 da bc eb d0 0a bd b8 d8 44 bd
       0.047150597 -0.026667425 -0.033890646 -0.04805824
000080 bc 90 85 3c 55 07 fe 3b 7f 2c 1a be 61 f4 1a be
       0.016304366 0.007752339 -0.15056036 -0.15132286
000090 9c db bd bd cf 34 23 3e 88 e3 4c 3e be 5c 87 3d
       -0.09270403 0.15938114 0.20008671 0.06609486
0000a0 f0 60 03 be e4 ab 53 be 6a 5b 1f 3d 1b 70 81 3d
       -0.12829947 -0.2067104 0.03890554 0.063202105
0000b0 b9 c4 18 be 90 88 43 bd fa 4d cf 3c a6 ea e9 3c
       -0.14918794 -0.047737658 0.025305737 0.028554272
0000c0 ed 83 07 3e 3f 4b 4d be 51 a6 38 be b6 0b 08 3e
       0.1323392 -0.20048235 -0.18032195 0.13285717
0000d0 2c 80 69 bc 69 6f 06 3e fd dc 19 3d 94 57 a1 bc
       -0.01425175 0.13128437 0.037564266 -0.01969508
0000e0 13 1e 3b 3d ad 23 80 bc 25 82 0e 3d e3 92 86 3c
       0.045682978 -0.015642012 0.034792084 0.016427463
0000f0 dc af 8f bd 8b 27 b2 bd d3 3d d6 3d 7a 9f 06 be
       -0.070159644 -0.086989485 0.10461011 -0.13146773
000100 06 76 e9 bd 71 03 91 bd dd 45 54 bd 6f b8 c1 bd
       -0.11399464 -0.070807345 -0.05182444 -0.09459006
000110 5c e3 38 3d c1 4e 96 3c 18 82 1f be 9b 06 0c be
       0.0451387 0.0183481 -0.1557697 -0.13674395
000120 f6 cb e4 3d 7b ad 09 bc a8 44 05 3e de 39 04 3e
       0.11171715 -0.008403177 0.13014472 0.129127
000130 4f 01 0f bd 47 02 8a bd 72 0a ba 3d ec 63 ac 3c
       -0.034913357 -0.067387156 0.090840235 0.02104374
000140 08 04 83 3c 10 8f 04 3d 71 dd af 3a 7b 6e b1 3c
       0.015993133 0.032362998 0.0013417435 0.021659127
000150 bf 7a 9f 3c 19 6c 84 bc d4 e8 0d 3d 6f f8 00 3c
       0.01946771 -0.016164826 0.03464587 0.007871731
000160 67 bc 04 3e 61 c1 ed 3d b0 e3 2b 3d 2e 77 4e bd
       0.12962495 0.1160915 0.041965187 -0.050406627
000170 49 bb d2 bd 25 c0 8e 3c 5d 42 7a bc 95 07 10 bd
       -0.10289628 0.017425606 -0.015274611 -0.03516348
000180 c4 2a ab bd 55 ed f4 bd 90 5c ea bd 5f 88 82 be
       -0.08357766 -0.1195933 -0.11443436 -0.25494668
000190 b2 e5 88 3d 09 00 47 bd ba c2 44 3d 48 99 70 3d
       0.06684436 -0.048584018 0.04803727 0.05873993
0001a0 ba c1 80 bc 18 b4 e3 bd ad 93 22 3d f2 cb ac 3c
       -0.015717376 -0.111183345 0.039691616 0.021093342
0001b0 69 0b 2c be 3a 5c 71 3d d9 a5 e0 bd b9 c9 44 bd
       -0.16801228 0.058925845 -0.10969133 -0.04804394
0001c0 7c 56 09 bd 3d 44 c1 3d 84 10 54 3d 2e d4 ec bc
       -0.033529744 0.094368435 0.051773563 -0.028909769
0001d0 a8 c3 60 bd 40 0f 0e 3e 9a f8 38 be 8c 3d 9b bd
       -0.054874092 0.13873005 -0.18063584 -0.075800985
0001e0 fb 01 66 bc 40 b7 79 bb 94 37 d0 bd be 41 71 3e
       -0.014038558 -0.003810361 -0.10166851 0.23560235
0001f0 4b b9 a1 bd c1 d0 56 3d cb 7b 12 3e c7 60 a4 3b
       -0.0789667 0.052445177 0.14305036 0.0050164196

policy_net.4.weight f4 [128, 128]
000000 91 2d b4 bd d4 96 a5 3e db 44 22 3e 22 9b 22 bd
       -0.087977536 0.32341635 0.15846579 -0.039698727
000010 9b 51 81 bb d0 70 0f 3e 93 84 f5 3d d4 86 43 3e
       -0.0039464957 0.14007878 0.11988177 0.19094402
000020 04 5a 09 bf 08 25 32 3c 01 f6 c8 3d 88 9b 4b 3d
       -0.5365298 0.010873087 0.098125465 0.049708873
000030 a0 03 d5 3d 60 3e bf bd e4 ff a2 3e 2c 10 e8 be
       0.10401082 -0.09338069 0.31835854 -0.45324838
000040 fc ff f4 bd 66 2f 62 3e 20 49 67 3d bc 29 da be
       -0.11962888 0.22088394 0.05646622 -0.42609966
000050 12 b7 a3 3e dc c3 96 bb a6 96 8a 3e 97 f1 1b be
       0.3197561 -0.004600985 0.2706806 -0.15228878
000060 8d da 4d 3d 97 a3 0f be 36 e9 b5 be dd 9c 8a 3e
       0.050257254 -0.14027248 -0.35529488 0.27072802
000070 b5 28 b0 3c d1 f7 11 be ef 67 ab be 30 fc 72 be
       0.021503786 -0.1425469 -0.33477733 -0.23729014
000080 30 d1 79 3e 60 3d 24 bd db ab 70 3e 10 07 17 bf
       0.24396205 -0.040097594 0.23503058 -0.5899515
000090 d9 c9 97 3d f3 39 02 be 78 18 0c be 1b 92 dc bd
       0.07411546 -0.12717418 -0.13681209 -0.10770055
0000a0 cb a1 57 3e 39 8a b3 3d d2 9a 37 3e 85 05 36 3d
       0.21057813 0.08766598 0.17930153 0.044438858
0000b0 a9 eb 0b be 32 d9 61 bf 49 3a b8 be 3c a2 a9 be
       -0.13664116 -0.8822204 -0.35981968 -0.33131588
0000c0 7f 60 5d 3e ec d7 ac 3e 5e 32 02 3e ab f1 38 3e
       0.21618842 0.33758485 0.12714526 0.18060939
0000d0 f5 b4 a5 3e a8 1c 99 be d2 c5 7b be d3 d7 79 bd
       0.32364622 -0.29904675 -0.24587181 -0.06099684
0000e0 ae e5 da bc 3d 94 a0 be d3 bc 58 bd 7d 54 f0 3d
       -0.026720848 -0.31363097 -0.05291445 0.11734865
0000f0 a1 8a ce 3e 94 bf 85 3e 45 79 0d bf cf ce e9 bd
       0.4034014 0.26122725 -0.5526317 -0.11416399
000100 ff 41 c0 bd 0e 70 23 bd 8d d1 44 be d1 ce 85 3d
       -0.09387588 -0.039901786 -0.19220562 0.06533588
000110 1e e0 35 be 7c cb 86 be af 3e f7 bd 21 4d 60 be
       -0.17761275 -0.2632712 -0.12072503 -0.21904422
000120 90 36 20 be 22 64 5e bd 79 11 18 be d0 3f f6 bd
       -0.15645814 -0.054294713 -0.14850415 -0.1202389
000130 30 5c 7d be 3c 50 24 bd 82 80 64 3e 05 55 75 bc
       -0.24742198 -0.04011558 0.22314647 -0.0149738835
000140 d6 05 08 3e 68 d8 33 3e e9 38 ba 3b 4e 18 6e 3e
       0.13283476 0.17563021 0.0056830538 0.23251459
000150 d2 a8 fc bd ec 79 a7 3e cd 75 1f bd 4b d6 41 3e
       -0.123368874 0.32710207 -0.038930703 0.18929403
000160 7e 1b 8f 3d a8 63 e0 bd 06 25 5f 3d d3 e8 2a be
       0.069876656 -0.10956508 0.054478668 -0.16690378
000170 ba d3 cb bd 08 e8 3e 3d 89 36 8a be f2 55 a6 3e
       -0.09952493 0.046608 -0.26994732 0.32487446
000180 f5 7b c7 bd 80 96 7d 3e 26 5f b7 be 39 fa 90 bd
       -0.0974044 0.24764442 -0.3581478 -0.07078976
000190 dd b2 c5 3d 24 23 1b ba b9 1e 3d be db bb 9d 3e
       0.09653256 -0.0005918017 -0.18468751 0.30807385
0001a0 74 17 27 be 58 90 f0 ba 53 b1 36 3e e8 f9 ad 3d
       -0.1631754 -0.0018353565 0.17841081 0.084949315
0001b0 d9 bb 3e 3d 37 ff d6 be 53 12 7a bd 1c 0e ce bd
       0.046565864 -0.41991588 -0.06105263 -0.10061285
0001c0 0c f2 15 be 7c 3c 29 3e e7 c7 4d be 6e bc 03 be
       -0.14643115 0.16526979 -0.20095788 -0.12864849
0001d0 8a 50 04 3d f9 57 cb be 75 5a 85 3d f9 c1 5a bd
       0.03230337 -0.39715555 0.06511394 -0.053407643
0001e0 2e 3b 1c 3e c2 8b a6 3b 92 16 bf be 5d c4 b5 be
       0.1525695 0.0050825784 -0.37321907 -0.35501376
0001f0 a8 dd 6d bc 09 48 db 3e 38 6c e5 3d 53 cf 7a bb
       -0.014518179 0.42828396 0.11202282 -0.0038270548
000200 0c 47 05 3e de b0 98 bc 09 da 9c be 9a 53 ac be
       0.13015383 -0.018639024 -0.30635098 -0.33657533
000210 1f af b4 bd cc 9d eb bd 09 06 a0 3d 84 2b 22 3d
       -0.08822464 -0.11504707 0.07813651 0.03959228
000220 52 fb b6 be b1 89 92 be 02 85 df 3c ac d1 77 3e
       -0.35738617 -0.28620675 0.027285103 0.24201077
000230 f8 6f d9 be f6 37 6d bd 41 3b b6 3d 14 92 55 3e
       -0.42468238 -0.057914697 0.088980205 0.20856506
000240 b1 0d 01 bf ee b8 97 3d a3 cc 4f be 3b 63 6e 3d
       -0.50411516 0.074083194 -0.20292906 0.058200102
000250 82 53 45 bd a4 b0 95 be 3e 65 4a bd 1f 0d 25 be
       -0.048175342 -0.2923633 -0.04941296 -0.16118287
000260 8e cf 5f be af 67 86 3d a6 f9 56 bd f7 95 5d be
       -0.2185652 0.06562745 -0.052484177 -0.21639238
000270 04 01 09 bd ae 01 82 3c 09 29 22 be 3d c8 8c 3d
       -0.033448234 0.015869942 -0.15835966 0.0687413
000280 68 ac 17 3e 54 c1 6e bd 09 90 ef bd a2 11 20 bf
       0.14811862 -0.05828984 -0.116973944 -0.62526906
000290 1a 4f 94 be 23 cb d6 bd f5 0c 93 bd fb db c7 3e
       -0.289666 -0.10487964 -0.07180206 0.3903502
0002a0 cc 6a 8e 3d 0e 9c 66 be 71 9d 2b be 42 2d 05 bd
       0.06953964 -0.22520468 -0.16759278 -0.032513864
0002b0 f8 4c 7c be 73 14 29 be d4 d4 96 bd ea d8 78 be
       -0.24638736 -0.16511707 -0.073648125 -0.24301496
0002c0 02 ec 8a bd 27 0b a5 3d 3b 2f a4 3e d0 72 0d bf
       -0.06783296 0.08058768 0.32067284 -0.55253315
0002d0 d7 62 40 be 84 97 07 3e 4c b0 29 be 9f 57 aa 3e
       -0.18787704 0.13241392 -0.16571158 0.33269975
0002e0 e3 9d 09 3e 2d 3d d7 3c 4d 9e 5d 3b cf 64 f3 bc
       0.13439135 0.026274288 0.0033816278 -0.029711155
0002f0 78 ba de be 8a 78 2d be 0b 3e 9f bc ef a3 9e be
       -0.4350164 -0.16940513 -0.019438764 -0.30984446
000300 01 df 97 be c6 da 3f 3d 5c 11 00 3d ab fc cb 3c
       -0.29662326 0.046839498 0.031266555 0.024900755
000310 3a 6d 97 be 53 78 b8 bd e0 cf 25 bf f6 27 c2 3d
       -0.2957552 -0.09007325 -0.6477032 0.09480278
000320 35 32 9e be 8e 03 66 bd 12 79 46 bd e3 de 82 3e
       -0.3089768 -0.056155734 -0.048455305 0.25560674
000330 d9 f6 a9 3d 1b 55 05 be 3d de ff bd 68 86 90 3e
       0.082990356 -0.13020746 -0.124935605 0.28227544
000340 bc e6 2e bd 81 ac 9b be 9a de 5d 3d d8 cd 3a 3e
       -0.042700514 -0.30405048 0.054167368 0.18242586
000350 8c a9 af be 2d e4 d5 3d bb 4d 2f be d6 d4 86 3e
       -0.34309042 0.10443912 -0.17119496 0.26334256
000360 de 1c ab be 43 61 07 be a6 62 6b bd fc 32 16 3e
       -0.3342046 -0.13220696 -0.057467125 0.14667886
000370 f0 4d 88 3e dc b8 2c be 6e 35 38 3d 7f 1e fc be
       0.26621962 -0.16867393 0.04497283 -0.49242017
000380 e4 1f e5 bd 8c bd 7b be 59 e8 e9 3e 73 99 cf bd
       -0.11187723 -0.24584025 0.4568508 -0.1013669
000390 34 f7 75 be 03 60 77 bd 3b a9 ea 3d cb 44 77 3d
       -0.24020082 -0.0603943 0.114580594 0.06036834
0003a0 c6 96 19 3d ad e1 95 3d 9b 44 a4 3d ac 83 82 be
       0.037497304 0.07318435 0.08020898 -0.25491083
0003b0 07 67 e5 3d 36 91 fe 3d a3 bf c9 be f0 f1 62 bd
       0.112012915 0.124300405 -0.3940402 -0.05540651
0003c0 d9 45 51 3d 91 e8 81 be 5e 8c 92 3e 9a ad b4 3e
       0.051092003 -0.25372747 0.28622717 0.35288697
0003d0 1f fe 16 be 63 2c a8 bd 4e df f8 3b d6 ed 01 be
       -0.14745377 -0.08211591 0.0075949794 -0.12688383
0003e0 6a f3 c8 bd fb b0 03 3e 9e e1 ce 3d e5 e1 57 be
       -0.098120525 0.12860481 0.10101627 -0.21082266
0003f0 a8 97 e7 bd cd cc 22 be e7 12 cf bc f9 70 44 3e
       -0.11308223 -0.15898438 -0.025277568 0.1918372

policy_net.4.bias f4 [128]
000000 ff e5 a9 bd ba 9f b9 bd bd 7b 5f 3d 48 60 82 bd
       -0.082958214 -0.090636685 0.054561365 -0.063660204
000010 a5 f6 90 bd 00 1d 4b 3c 5d f1 00 bc 43 40 7f bd
       -0.07078294 0.012397051 -0.0078700455 -0.062317144
000020 7d 24 c3 bd 15 09 c8 bd ef 47 e3 3d 56 5e 94 3c
       -0.09528444 -0.09767357 0.110977046 0.01811139
000030 ae 3f 4c 3d 07 fa f0 bd 32 ca 15 3c 27 95 c6 3d
       0.049865417 -0.11766439 0.009142445 0.09696417
000040 43 d0 d8 bc b8 9a 0f bb 71 fe 83 bd ae e6 0c bd
       -0.026466494 -0.0021912288 -0.06445015 -0.03439968
000050 de 5f 82 bd 35 20 0e 3d 46 29 16 be a9 56 0c be
       -0.063659415 0.034698684 -0.14664182 -0.13704933
000060 e0 fb 44 bd f3 4d d5 3d f9 7c 4a bd e8 2b 43 bd
       -0.04809177 0.10415258 -0.04943559 -0.047649294
000070 58 02 cf 3b ea d3 4d 3d 44 01 ac 3d f1 a9 4e bd
       0.006317418 0.050250925 0.08398679 -0.050455038
000080 5c e6 e7 3d 7e 8e f4 3d 6b 3e 08 3d 29 75 3e 3d
       0.113232344 0.11941241 0.03326265 0.04649845
000090 69 0b 87 3d b6 27 c4 3d 07 14 33 be 57 42 a4 3c
       0.06593973 0.09577887 -0.17488109 0.020051165
0000a0 cf cc 03 bd 7c 58 91 bd 43 96 aa 3d 08 25 a0 3d
       -0.032177743 -0.07096955 0.083294414 0.07819563
0000b0 d0 1c b3 bd d3 0d 6e 3d df 9a fb 3d f8 82 0e 3d
       -0.0874573 0.058118653 0.12285399 0.03479287
0000c0 38 43 43 bd d1 70 ee bd 1c 89 2f bd 06 0b a7 3d
       -0.047671527 -0.11642612 -0.042855367 0.081563994
0000d0 10 34 30 be 9e 54 23 3d 08 62 31 3d 7f e6 14 be
       -0.1720736 0.03987562 0.04330638 -0.14541052
0000e0 62 d7 e3 bc 7a 22 ad 3d 52 3c 7c 3c d9 53 47 3d
       -0.027812663 0.084538415 0.015395241 0.048663948
0000f0 72 9d f6 bd df 2b df 3c e8 f2 77 be f0 c4 81 3d
       -0.12041749 0.027242599 -0.24213755 0.06336391
000100 bf 42 46 bc cf 4d 91 3d 82 1c 2b be ea 01 b5 3d
       -0.012100874 0.07094919 -0.16710094 0.08838256
000110 92 58 d5 bd b1 2a 11 be 50 e0 15 bd 65 d2 14 be
       -0.10417284 -0.14176442 -0.036590874 -0.14533384
000120 2c ff 09 3e e1 6d 4a bc 43 1e d7 3d c4 cd a1 bc
       0.13476247 -0.012355299 0.10503819 -0.019751437
000130 ba 25 2d be 72 f0 17 3e bb 8e 0f 3e 8d 62 2e 3d
       -0.16908923 0.14837816 0.14019291 0.042574454
000140 77 00 b1 be a1 c8 13 bd ac c9 65 3e a3 72 27 be
       -0.34570667 -0.036080007 0.22440213 -0.16352324
000150 5a 22 44 bd 4f b3 7c bc 84 f4 1a bc 11 ac e7 3d
       -0.047884323 -0.01542361 -0.009457711 0.11312116
000160 df 22 24 be da dc 05 3d c3 26 99 bc c1 c0 21 be
       -0.16028927 0.032681324 -0.01869524 -0.15796186
000170 7f 78 9f bd f4 3a 7f bd 93 5c 53 be 5d c3 47 3d
       -0.07786655 -0.06231208 -0.20640783 0.048770297
000180 59 91 1c be b1 70 dc 3d 99 31 00 be 7f 24 9b 3d
       -0.1528982 0.10763682 -0.1251892 0.075753205
000190 53 e9 16 3e d4 27 cc 3d db e8 dd 3d 12 5d 08 bd
       0.14737444 0.09968534 0.10835429 -0.033291884
0001a0 10 c6 31 be 4e fd 3e 3d 81 e5 d9 ba cd 03 54 be
       -0.17360711 0.04662829 -0.0016624184 -0.20704575
0001b0 d0 c9 e3 bc 2c 4b 34 3d d6 46 ee bd 0d a4 74 3c
       -0.027806193 0.044017002 -0.11634605 0.014931691
0001c0 a9 61 93 bc 98 5e d8 3d 88 8d 7c 3d cb 43 dc 3d
       -0.017990904 0.10564917 0.061658412 0.10755118
0001d0 13 a8 b5 3c 19 1c b9 3d a9 72 83 bd 8e 7b 0f 3e
       0.02217487 0.09038562 -0.06418354 0.14011976
0001e0 63 59 09 be c7 81 8b 3d 4f 9b cd bc 28 7e 75 3d
       -0.13413005 0.068118624 -0.025098471 0.059934765
0001f0 34 27 0a be 5a 9e db bc 90 98 95 3c 6b 4a d8 3c
       -0.13491517 -0.026808906 0.018261224 0.026402673

policy_net.6.weight f4 [64, 128]
000000 bc 0c 32 be 47 35 36 3e 2b 6d 8e 3e 18 54 d9 be
       -0.1738767 0.17793761 0.27817664 -0.4244697
000010 09 48 62 be ca 0c fb bd de b2 0a be 3c 47 12 3e
       -0.22097792 -0.12258299 -0.13544795 0.14284986
000020 1c 29 61 3e 42 0c 7d bd 86 6a 87 be 6b c3 ca 3c
       0.21988338 -0.061779268 -0.26448458 0.024751386
000030 a0 49 1f bc 45 7a ae be b3 68 65 be a2 4e 81 3d
       -0.009722143 -0.3407766 -0.22403221 0.06313826
000040 38 5a 40 3e 00 c3 b8 3d 89 f3 9c be 3a 91 12 3e
       0.18784416 0.09021568 -0.30654553 0.14313212
000050 2b 27 dc 3d 63 39 90 3d bb 07 a4 3d a5 13 17 3e
       0.10749658 0.07042196 0.08009287 0.14753588
000060 7a c7 95 be 34 21 55 3e 4d 71 85 be b6 1c b3 3e
       -0.2925375 0.20813447 -0.26063004 0.34982842
000070 fa 6d 20 3e 9b 4b 15 3d be f0 06 bf 14 63 c1 bc
       0.15666953 0.036449056 -0.52711093 -0.023606814
000080 a2 d3 bb 3c 6c 5a a3 bd 75 5d 8a be 13 f0 b2 bc
       0.022928063 -0.07976231 -0.27024427 -0.021842992
000090 65 12 e7 3d 1e a6 18 bf 36 22 47 3d 12 8e 94 3e
       0.11282805 -0.59628475 0.04861661 0.2901464
0000a0 68 d0 c6 3d 9a 1c c9 bd 4b 74 32 3e 5f 3c 85 bd
       0.09707719 -0.098199084 0.17427175 -0.065056555
0000b0 d4 b4 c5 be 73 3a 4f 3e 80 3b ca bd 67 d2 16 3b
       -0.38614523 0.2023714 -0.0987463 0.0023013593
0000c0 57 3d d5 3d 7d 17 22 be 3d 95 e2 be c3 5d e7 3d
       0.1041209 -0.15829273 -0.44254485 0.112971805
0000d0 c2 0a 28 3e ef 14 ef 3b 83 63 c3 3c 64 03 9a 3d
       0.16410354 0.0072961967 0.023851162 0.07520178
0000e0 18 84 1a be 85 63 20 3c d9 c0 63 3e 5c f6 c2 bd
       -0.15089452 0.009789352 0.22241534 -0.095196456
0000f0 34 58 0b 3e a6 7c 83 3e 26 14 af be 69 ae 32 be
       0.13607866 0.25681037 -0.3419506 -0.17449345
000100 f8 ea 4f be 95 d1 c4 bd 4d 65 13 be 1d ba 84 3d
       -0.20304477 -0.09610287 -0.14394112 0.06480811
000110 6f 73 b0 be d1 ce a8 be 85 7f 0a 3d 54 0f 63 be
       -0.3446307 -0.32970288 0.03381302 -0.22173816
000120 91 ba 20 3e 8b 00 67 be 93 26 02 bf 88 8c 8c 3d
       0.1569617 -0.22558801 -0.5084011 0.06862742
000130 39 2a 18 be 07 23 8c be 41 52 e1 be 20 e3 7d be
       -0.14859857 -0.27370474 -0.44008067 -0.24793673
000140 d9 dd 66 3e 2d e2 0a 3d 7e 19 aa 3d 77 ca d3 be
       0.22545566 0.033907104 0.083056435 -0.41365406
000150 fa 8e 9f be eb ed 58 be 1f 50 8c 3e ec 84 c2 be
       -0.3116377 -0.21184509 0.27404878 -0.37992036
000160 90 a9 9c 3d 7c 1f 57 bd 6c 34 d0 3d 6d e4 3c be
       0.07649529 -0.05252026 0.10166249 -0.18446513
000170 b2 07 81 3e ae 1b 20 3d 2d a3 4b 3e 67 1b 27 bf
       0.25201184 0.039088897 0.19886465 -0.6527619
000180 0a 58 83 bd ee c8 ac 3d de d7 77 be 79 18 9a bc
       -0.064132765 0.08436762 -0.2420344 -0.018810498
000190 37 5c 13 bf 58 6f fb 3d c8 c7 2d bb 4d b0 6c bd
       -0.57562584 0.122770965 -0.0026516784 -0.05778532
0001a0 dd 72 83 be 40 88 15 be 61 ac 6c bc 2b e3 a3 bc
       -0.2567357 -0.14602757 -0.014445395 -0.020005783
0001b0 20 b4 65 3e 58 f7 02 3e 01 7b fa 3d 29 5b 79 be
       0.22431993 0.12789667 0.122304924 -0.24351181
0001c0 d1 71 a6 bc a5 47 3f 3c a6 30 4d 3c bf fe ff be
       -0.020317944 0.011674796 0.012523806 -0.49999043
0001d0 63 20 82 3e bd 9d 0a bf 6b 02 08 bf 25 a2 4f be
       0.25415334 -0.5414694 -0.5312869 -0.20276697
0001e0 fe a0 2d 3d 02 f4 7b 3e 58 d2 0f 3d 7a ae dd 3d
       0.042389862 0.246048 0.03511271 0.108242944
0001f0 c7 b2 65 3d 0e 25 17 be b1 67 c1 bd cd 7c 74 bc
       0.0560787 -0.14760229 -0.09443606 -0.014922333
000200 f9 13 ba bc 4b 33 01 bc e6 a2 6a 3c c2 ac 21 be
       -0.022714602 -0.007885764 0.014321065 -0.15788558
000210 c3 cc bd be 29 a3 64 3e e4 36 02 bd 75 ec ce bc
       -0.37070283 0.22327866 -0.03179063 -0.025259236
000220 4a 11 08 be 4e 4c f2 3d 74 49 d7 3d 66 65 e0 3d
       -0.13287845 0.1183096 0.10512057 0.1095684
000230 bc eb e6 bd b7 30 e2 bd 17 c5 a7 3d 5c 94 14 3e
       -0.112754315 -0.11044448 0.08191889 0.1450972
000240 90 73 ff bd 3d 64 91 bd 24 c7 0e bd 69 d9 1c 3d
       -0.12473214 -0.07099197 -0.034857884 0.038293276
000250 b9 78 4c be fd 40 2a 3e b1 87 30 3e 34 6d c0 be
       -0.19967927 0.16626354 0.17239262 -0.37583315
000260 b1 53 72 bf cc 58 03 3d 60 8f 04 bf b4 c6 df be
       -0.9465895 0.032067105 -0.5178127 -0.43706286
000270 8e 5a 2a bb a7 f4 52 3d 7e 82 7f bc 04 1b b8 be
       -0.0025993916 0.05150285 -0.015595077 -0.3595811
000280 a4 c7 d2 bb 52 68 41 3d 49 87 67 bc 40 f2 f8 bd
       -0.0064324904 0.04721863 -0.014131376 -0.121555805
000290 d2 57 ce bd 11 25 c7 3d a4 79 8c 3c 22 48 03 be
       -0.10075344 0.09723867 0.017147847 -0.12820485
0002a0 7c 3e af bd 4f 42 32 3e 5a 78 21 3e 1f 2a ef be
       -0.0855684 0.17408107 0.15768567 -0.46711823
0002b0 84 bd 45 be 2e 26 d4 3b b1 c2 20 be 09 43 c5 bb
       -0.19310576 0.006474278 -0.15699269 -0.006019954
0002c0 f1 1d 15 be 69 60 3b 3e f5 e6 cf bd ce b2 85 3e
       -0.14562203 0.18298496 -0.101514734 0.2611298
0002d0 8d 80 77 be 66 c3 93 3d 69 34 15 3e e9 9d f1 bd
       -0.24170132 0.07215004 0.14570774 -0.11797697
0002e0 67 9b c1 be 39 43 ea 3d 2a 8f f9 bd 67 0a 30 bc
       -0.37813875 0.11438603 -0.121855095 -0.010744668
0002f0 e8 b6 9f bc 5b ff 78 3d a1 ac e3 bd a3 1a 2b 3a
       -0.019496396 0.0607904 -0.11116911 0.00065271015
000300 8d 04 d6 bc 32 28 2e be 81 68 81 3e 6e 60 e7 3d
       -0.026125217 -0.17007521 0.25275043 0.112976894
000310 00 67 36 bf a1 56 bd 3d 2a 94 b3 3d 07 f7 56 3e
       -0.71250916 0.09245039 0.087684944 0.20992671
000320 10 51 61 3e 12 b5 c2 be b8 b2 e4 bd 50 08 3c be
       0.22003579 -0.3802877 -0.111669004 -0.18362546
000330 44 a2 9a 3d 42 c7 71 3d 29 d5 05 bf 76 dd 4b bd
       0.07550481 0.059027918 -0.5227838 -0.04977175
000340 7e a4 ca bd 7f 72 29 be 67 73 22 bc 7d 5f 20 bd
       -0.09894656 -0.16547583 -0.009915209 -0.039153565
000350 a9 1a 07 bf 20 70 86 3d 5a 1f 3f 3e f2 ff e4 be
       -0.52775055 0.06564355 0.18664303 -0.4472652
000360 eb f2 62 3d 40 73 52 3c a1 bc 06 be ae 20 0e be
       0.055407446 0.012844861 -0.13157894 -0.13879654
000370 f8 86 a6 3b 02 40 33 3e 91 06 72 3d 70 b3 01 be
       0.0050820075 0.17504886 0.059088293 -0.12666106
000380 66 9f 03 3e 00 75 b4 be 19 e2 d7 3d 8c 90 9f be
       0.12853774 -0.35245514 0.105411716 -0.31164968
000390 7a 51 f5 3d 41 84 9d 3e 50 b0 8a be fc ec e3 3d
       0.11978431 0.30764964 -0.2708764 0.111291856
0003a0 17 3e 13 be c8 19 56 3d 71 5b 59 3c 01 19 79 bd
       -0.14379154 0.05227068 0.01326643 -0.06081486
0003b0 bc b3 b8 be 26 b8 ce 3e 5c af 99 3d d4 21 89 3e
       -0.36074626 0.4037487 0.0750415 0.2678362
0003c0 c8 5b 60 bf 93 02 a0 3d 4c 0c 1f be b1 40 e7 be
       -0.8764005 0.07812991 -0.15532035 -0.45166543
0003d0 a7 c5 2f bd be f7 14 bd 9f 25 34 be be 92 74 be
       -0.042913105 -0.036369078 -0.17592476 -0.23884103
0003e0 b6 2f 1c 3e 1c 13 db bd 8c 3f e7 3d 8e 59 89 bc
       0.15252575 -0.10697004 0.112914175 -0.016766336
0003f0 3b f3 0f 3e 7f 07 92 3d 59 6b be be dd 1a 36 3e
       0.14057629 0.07130336 -0.37191275 0.17783685

policy_net.6.bias f4 [64]
000000 37 bc c5 3c be c0 38 3e f1 83 45 be 50 fe 6c bd
       0.0241376 0.18042275 -0.19288613 -0.05785972
000010 a8 39 8f be 63 69 33 3e 31 ce 49 bd 82 c8 22 bd
       -0.27973676 0.1752067 -0.049268905 -0.039742
000020 12 ea 54 bd a7 ea e6 3d 61 8d 84 3e 22 10 62 ba
       -0.05198104 0.11275225 0.25889114 -0.000862362
000030 91 74 59 3e 9e ba 88 3d ee 3a 6a 3e cc 89 2a 3e
       0.21235873 0.066762194 0.22874042 0.16654128
000040 eb f4 c0 bd 19 12 19 bc e9 ba cd 3d 42 8a 3b 3d
       -0.094217144 -0.009342694 0.10045416 0.04578615
000050 61 72 a2 bb aa 85 63 3e f8 f2 19 bc f8 7f a5 3c
       -0.0049574827 0.22218958 -0.009396307 0.020202622
000060 30 2f 88 3d 3a 72 28 3e 48 6f 58 3e 34 cb 73 3d
       0.06649625 0.16449824 0.211362 0.05951996
000070 c7 f2 4a 3e 1e 17 d7 3d 03 39 21 3e 2d 5e 15 3e
       0.19819175 0.10502456 0.15744404 0.14586706
000080 76 ad 01 be 35 c7 5f 3e 5c 30 96 3d 72 59 bd 3d
       -0.12663826 0.21853335 0.073334426 0.09245576
000090 54 4a fb 3d de 09 32 3d 25 44 f4 3d 95 42 6a be
       0.12270036 0.04346644 0.1192706 -0.22876962
0000a0 1e 0b 12 3e 86 68 95 bd 59 fd 05 3e 65 d3 14 be
       0.14262053 -0.07295327 0.13084926 -0.14533766
0000b0 7f d5 6f 3e f0 7a 94 3e 32 d1 2b bd 36 61 7a 3d
       0.23421286 0.29000044 -0.04194755 0.061127864
0000c0 96 9d 3b 3c 6c 38 9b bd 4d 61 51 be 50 96 61 3e
       0.011451146 -0.07579121 -0.20447274 0.22029996
0000d0 63 1e 07 be 21 34 ed 3b 4b 32 7c 3d 6c 95 9d bd
       -0.13195185 0.0072388803 0.0615714 -0.076945156
0000e0 4f 30 b0 3e 05 62 de 3d 08 bc f1 3d 09 ad 12 be
       0.34411857 0.108585395 0.11803442 -0.1432382
0000f0 65 22 d3 3d 98 76 30 3e 48 ae 02 bd e4 90 b9 3d
       0.103092946 0.1723274 -0.03190449 0.09060839

policy_net.8.weight f4 [4, 64]
000000 86 46 ed bd 6e c2 ed 3c 02 98 b9 be dd ac 45 3e
       -0.11585717 0.029023375 -0.36248785 0.19304223
000010 ce 40 6d 3e aa 2c 6a 3e 34 89 32 3c 46 81 de bd
       0.23169252 0.228686 0.01089697 -0.10864501
000020 05 7a 76 be d1 77 74 3d 90 38 7e 3d e3 f0 5d 3e
       -0.24069984 0.05968458 0.06206566 0.21673922
000030 b7 05 87 bd 9f dc a1 3e 93 97 68 bb f5 e5 1b 3e
       -0.06592887 0.31613633 -0.0035490736 0.1522444
000040 1a 19 6f bd 88 1d 52 bc 32 fc e9 bd 2b b7 08 3e
       -0.058373548 -0.012824424 -0.114250556 0.13351123
000050 1a 2c 4a 3e e0 10 26 3e de f4 08 3d 69 d4 96 3d
       0.19743386 0.16217375 0.03343665 0.07364733
000060 d3 df 55 be c4 e8 07 be ac de 72 3d ed 8b 36 3e
       -0.20886163 -0.13272387 0.059294388 0.17826815
000070 1f 4a 90 bd b5 d5 07 bd 25 0f d3 bd d4 ca fc 3b
       -0.070453875 -0.03316279 -0.10305623 0.0077146087
000080 90 ec 46 bc a3 d2 59 3d c5 c6 d6 bc ff 3c d6 bd
       -0.012141362 0.053179394 -0.026217828 -0.10460853
000090 09 68 10 3e 9e 44 10 3e 46 83 9a bc fc 93 25 3d
       0.14102186 0.14088675 -0.018861424 0.040424332
0000a0 78 81 e3 3d fe da 7f be 24 55 02 3e 4c 13 cf bc
       0.111086786 -0.24985883 0.12727791 -0.025277756
0000b0 58 4d 44 bd b2 e2 8a bd 53 55 03 3e fe f0 7a 3d
       -0.047925323 -0.0678152 0.12825517 0.061264984
0000c0 67 68 73 3c 39 8b fe 3d a9 05 d9 bd c4 84 4a 3d
       0.014856434 0.12428898 -0.10596783 0.04944302
0000d0 b0 42 3a 3e f2 06 91 3d 24 7e ea bd 63 12 4d be
       0.18189502 0.07081403 -0.11449841 -0.20026545
0000e0 07 3f 33 be b4 81 f2 3d be 41 7c 3d 54 c1 ae 3c
       -0.17504512 0.11841145 0.061586134 0.02133242
0000f0 6c 32 0e 3e 92 d8 f8 bd 8e f8 cb bc 0d 2f 62 bd
       0.13886422 -0.121506825 -0.024898794 -0.055220652
000100 28 f1 80 3d 98 d6 cd 3c ba 76 7b 3e 80 a5 22 bc
       0.06295997 0.02512674 0.2455701 -0.009927154
000110 0c 25 87 3e 8e 60 48 3e e5 11 da bd 35 af f5 bd
       0.26395452 0.19568083 -0.10647944 -0.11996309
000120 83 83 91 3e c7 1f a1 3d 3a b9 c6 bc f4 21 f4 bc
       0.28420648 0.07867389 -0.024258245 -0.029801346
000130 1d 85 ee 3c ff dc 31 3e 52 82 a9 3d 57 d0 69 be
       0.029116208 0.1736946 0.0827681 -0.22833382
000140 c2 c3 c0 3b 1a 67 f9 bd 8e 2a 21 be 48 47 b6 bd
       0.005882711 -0.12177868 -0.1573889 -0.089003146
000150 92 29 da 3d 2b 7c bf 3d 52 f6 61 bd f5 51 cf 3d
       0.1065246 0.09349855 -0.05516655 0.10123054
000160 e3 ca a2 bd 90 a0 77 bd be 4a 5a bc 24 33 a5 3d
       -0.07948854 -0.06045586 -0.013323484 0.08066395
000170 c2 04 90 bd 15 9d 3f be 32 07 09 be 1a b0 00 3d
       -0.070321575 -0.18712266 -0.13381651 0.031417944
000180 26 89 ae 3d 12 e8 3c 3e fe 82 f5 bd c5 08 6a 3c
       0.08522253 0.18447903 -0.119878754 0.014284317
000190 66 2a c2 bd 06 07 22 3e d1 0e 99 3d 7d 66 35 3e
       -0.09480743 0.15822992 0.07473529 0.17714877
0001a0 77 da ba 3d 47 15 b8 bd f4 bb f0 3d 5a c6 8a bb
       0.091237 -0.08988433 0.11754599 -0.004235071
0001b0 fc 02 0a be 2b 8c 61 bd 7a c0 a0 bd 67 44 cf 3c
       -0.13477701 -0.055065315 -0.07849212 0.025301171
0001c0 53 fb 6e 3d bc cb 11 be b1 ca 13 bb a3 f4 6c bd
       0.05834515 -0.14237875 -0.0022551233 -0.05785049
0001d0 d4 b5 43 3e b7 d6 4a 3e f1 9c 8e bd e6 6f 09 3d
       0.1911233 0.1980847 -0.06963528 0.03355398
0001e0 44 98 28 be 09 ec c9 bd 78 70 9a bd 1d 19 91 be
       -0.16464335 -0.09859473 -0.07540983 -0.28339472
0001f0 a3 9d c1 3d 58 9d 12 bd f8 87 57 3e 95 05 5e 3d
       0.09453895 -0.035794586 0.21047962 0.054204542
000200 d5 47 81 ba da a2 e6 3b 64 79 0c be 25 44 1d bd
       -0.0009863327 0.0070384564 -0.13718182 -0.038395066
000210 ab e1 a6 be 7e ae 0c be fc 32 92 be 3f c7 14 3e
       -0.32594046 -0.13738438 -0.28554523 0.14529131
000220 f1 2d 80 3e 94 09 04 3e 2c 11 31 be 39 53 63 bc
       0.2503505 0.12894279 -0.17291707 -0.013874822
000230 29 c2 5d 3e 17 0f 98 bd 2c a3 3e be f2 b9 c9 3b
       0.21656097 -0.07424753 -0.18616933 0.0061561996
000240 99 68 8e bd f8 c0 e2 bd a6 b9 8d 3b 65 fa 84 bd
       -0.06953544 -0.11071962 0.0043251095 -0.064930715
000250 71 77 97 be a3 a3 bd bc f5 45 cb bd f1 3c 75 bd
       -0.29583314 -0.023149317 -0.099254526 -0.05987257
000260 ba d8 24 3e ad cd 4e 3e 1c e6 2c 3e 6f be b8 3d
       0.160983 0.20195647 0.16884655 0.09020697
000270 a0 6a 01 3e 74 d1 aa 3e 48 ab 40 ba 48 f6 dd 3d
       0.1263833 0.33362925 -0.00073497416 0.1083799
000280 69 96 58 be 59 2d 34 bd bd 68 00 bc 66 14 0a be
       -0.21151127 -0.04398856 -0.007837472 -0.13484344
000290 a0 86 3b 3e 16 ac b6 bd 09 22 19 3d a9 96 98 be
       0.18313074 -0.089195415 0.037385974 -0.29802445
0002a0 cb b5 ce be 7a e6 77 bc e0 62 a4 3c fb cc 87 3e
       -0.40373072 -0.0151306335 0.020066679 0.26523575
0002b0 a0 f5 5a 3e c3 f8 89 3e fd 28 ba be f6 ef a1 3d
       0.21382761 0.26947603 -0.36359397 0.07907097
0002c0 b2 10 4c 3e 10 ad 96 bd 40 51 ad bc 9a d8 e6 3c
       0.19928244 -0.07357228 -0.021156907 0.028179456
0002d0 e2 e5 90 3e 73 3c 80 b9 8a b3 e8 3c 8d b0 9f 3d
       0.28300387 -0.000244591 0.028405923 0.07797346
0002e0 db ea 96 3e ab 3a d3 3c 3e 60 02 3c a9 5e a1 bb
       0.29476056 0.025784811 0.007957516 -0.0049246144
0002f0 6e 98 ad be 99 fe 1e 3e ea 7a b5 bd 74 5e 8b 3e
       -0.33905357 0.15526809 -0.088613346 0.272205
000300 86 9f 53 be 7d c9 57 be 36 6d 27 be ba 03 5b bc
       -0.20666322 -0.21072955 -0.16350254 -0.013367588
000310 70 77 81 3d b5 c2 66 3c ac a6 9e 3d 39 ba d7 bb
       0.06321609 0.014084508 0.07746634 -0.006583479
000320 ab 0e e8 bd 48 2b 25 3e b3 be 61 3d 1b 3b aa bc
       -0.11330923 0.16129792 0.055113506 -0.020780137
000330 4c ea 16 3d f4 4d 7c 3d 68 6d 34 3e fe d0 c7 3b
       0.036844537 0.06159778 0.1761986 0.006097912
000340 1e 53 62 be fb b0 dc 3d be 7f 9e 3c 2d ed 4a 3d
       -0.22102019 0.10775944 0.019348022 0.049542595
000350 b0 52 98 bd 52 27 26 3a dc b5 cb bd cd 90 ab bb
       -0.074376464 0.00063382566 -0.09946796 -0.0052357675
000360 7a 67 4c bd a3 00 0b bd 41 b3 90 bd ce d0 26 bd
       -0.04990337 -0.033936154 -0.0706544 -0.040726475
000370 68 90 91 bd a0 9d c7 bd 32 cb d9 3c 64 7f bb bb
       -0.071076214 -0.097468615 0.026586149 -0.0057219733
000380 56 13 23 3e 36 5f d5 3c d7 6e c8 3d 32 a9 30 bd
       0.15925345 0.026046377 0.09786766 -0.043130107
000390 b8 b3 80 3d ef 77 bf bd fd 24 ec bd 22 64 79 3d
       0.06284279 -0.093490474 -0.115304925 0.06088651
0003a0 c5 d9 18 3e 28 dd 19 bd fd 14 e6 bd 32 79 b3 bd
       0.14926822 -0.037564427 -0.11234472 -0.087633505
0003b0 4b 90 67 3c a2 45 87 bd e0 86 34 bc 67 a1 9f bd
       0.014133523 -0.06605078 -0.011018485 -0.07794457
0003c0 56 62 57 3c 2a 55 2a bc 3a 3c 06 be 45 66 22 be
       0.013146004 -0.010396281 -0.13108912 -0.15859325
0003d0 ea be 35 3d 09 e0 80 3e 62 d3 a4 3d 0e 16 95 3d
       0.044371523 0.25170925 0.080481306 0.07279597
0003e0 c9 ff 0f be 0f 9a 87 3d ec a0 14 3d ac 7c 1d be
       -0.14062418 0.06621181 0.03628628 -0.1537959
0003f0 05 d0 98 3d 58 97 12 be da b7 9e be 40 59 df 3d
       0.074615516 -0.14315546 -0.30999643 0.10905695

policy_net.8.bias f4 [4]
000000 06 9d 95 3d 5f 60 83 bd 92 c3 aa 3d f9 28 10 3e
       0.073053405 -0.06414866 0.08338083 0.1407813
