IL/Model/model_reacher_59.pt (torch, 292527 bytes, 20 tensors)

policy_net.0.weight f4 [64, 24]
00000000: 43c6 07bf 748a b1bf e42f 9e3e e325 2e3e
00000010: dcf7 9a3e d6de 54be 6761 c13e f2ec 88bd
00000020: 9881 323e 9293 ce3d e512 bb3c 178a 4c3b
00000030: fc93 b6bd 6ef9 5cbd f07b bd3e e87d 333e
00000040: 1d80 853e 10e7 b93d 8a26 b3be 8394 27bf
00000050: 311f 01bf 71c6 8cbd 0c6c 693e cc42 163d
00000060: c07b 0e3e cb04 59bf f654 3bbe b26e e23e
00000070: 4b4a 8d3e 8994 863e cfa9 853f 60da bbbe
00000080: 4cfa b7bd 0455 c1be 8aad b23e 67c9 d83c
00000090: 0e90 fbbc daa6 c2be 40f0 3ebd 055e 03be
000000a0: 8da5 27be 40c4 93be 7ea2 bebe 2515 61be
000000b0: 1753 a5be 675c 0c3e 9354 bebd 4d6c d2bd
000000c0: e958 f53d 84bb 823f 80b3 e2be 6722 0640
000000d0: 3cd2 4ebd 232d c9bd 1526 b53b 5403 c23d
000000e0: bcd6 153f dc49 7fbd 6448 e33d 114f 91bd
000000f0: ea6c e43e 930f c63e cfa7 81bd f435 02be
00000100: 31e8 f0bd a9e2 60be 4ed8 e03c 905d 9b3c
00000110: d553 723d 4d53 3f3e 9294 06be 0698 77be
00000120: 562a f73e a8f1 2c3f 838c eabe 24d2 c3bf
00000130: fdb7 c03e ae58 3e3e 132f b43e c73d d63d
00000140: f811 b7bd 02cb 0b3e 2fff 18be 6b2f 35bf
00000150: ca5e 77bd 2b60 80bc 4533 b93b 7ebc 8bbd
00000160: 4fd1 d2bd f940 6ebd f256 03be e61d d1be
00000170: fd73 fabd 954c 83be 5595 c8bd fc2f bc3d
00000180: 22b0 c4bd 8489 5b3e 11ae 43be ac7d ac3e
00000190: ee59 52bb 5d65 223e 15cb 9b3d 835f ae3d
000001a0: 22e1 81bc 64fc 44be e9e4 4ebe 9dd1 023f
000001b0: aaba 23bf b3a2 463c 86d3 633e 0a72 223e
000001c0: 7730 c73e 1351 a83e 10b4 373e a173 803e
000001d0: 7555 bdbd 9739 4bbe 38ec 3dbe 0e77 82bd
000001e0: b69b c5be fb1d 3abf e325 d43e 4c93 f9bf
000001f0: 312c 33be fdc3 33be 3952 9b3e 9481 66be
00000200: 1d85 69bf 7845 953e e656 92be 6ce9 e9bd
00000210: a9e6 50bd 3d63 55be 20c6 1d3e 0ba8 243e
00000220: 2c01 513e 96de 223e 3806 a83e a848 ba3e
00000230: 6d1c 383e 6a20 a93d e9c5 10be 039e 923c
00000240: 419c aabe 12c8 6f40 f2e3 423e 335d 3fbf
00000250: e92b c5be ce7b e33e eba9 d9be 0524 6e3e
00000260: 6595 133e 4d54 efba 3d56 8f3e 1693 09be
00000270: 8e06 b23d 0aa3 fb3d b84a b13d c36b e2bd
00000280: cd7b 423e 273d 6e3e 08c8 653d 566d 9f3e
00000290: b4d6 3c3e dc72 04be 8ace bfbe 83b5 33be
000002a0: d75b 713b cea8 023f f4b1 3d3f c46a cb3f
000002b0: 5d56 3cbe f87a 7d3e 5264 263e e5af 10be
000002c0: 5959 313e 9396 d3be 4fe7 8e3c 3dd9 ab3e
000002d0: 895e 87be acc1 3bbc 42b6 58be 08fa 32bd
000002e0: a28d 06be c708 2b3e 649c 49bd 34fd 53bd
000002f0: 588c 083e 6f96 66be 9861 833b a0d8 b73d
00000300: c909 6c3f 0eb3 f13d d38f 0ebf b9be fdbe
00000310: 2c7c d3bd 04a4 823e 9aca 6dbe 2d45 2a3e
00000320: f026 953d 2a4a af3e 4a62 00bd c708 da3d
00000330: cec2 833d 4c2f eb3d 8a2f 47be e05b 6abd
00000340: 1e32 d8bd 1939 55be 6dd4 ad3d daa2 f1bd
00000350: ca63 d63c f0df c43d a338 7bbd caff 643e
00000360: 6365 8a3e 7f9b c93f 514b 473e bf7c c9bf
00000370: 9930 d9be a695 8b3e 2aa0 4cbe 2ed3 af3d
00000380: 552f fd3c 3508 d93e fbab 093f f475 8cbe
00000390: c91e 12be 2ef0 9ebe 8152 a93e 8723 793e
000003a0: e8b4 543e 4aa8 8c3d bb11 163e d75a 76be
000003b0: f292 dabe 4c21 9dbe a8ac ccbd bfcd 7b3d
000003c0: 65d1 253f 622d e83f 4e5d b03e e978 89bf
000003d0: 1ff1 9a3e 2dc3 523e ecb6 11bf eb2e 21bd
000003e0: b9d0 8abe 64cf 063f a314 b03e 2053 1ebd
000003f0: 8f96 413e 31c8 5d3e 7abe dabe 25a5 e1be
-0.530369 -1.3870378 0.30895913 0.1700664 0.30267227 -0.2078813 0.37769625 -0.06685819
0.17432249 0.100867406 0.022836158 0.0031210238 -0.089149445 -0.053948812 0.3700862 0.17528498
0.26074305 0.09077275 -0.3499034 -0.65460986 -0.5043822 -0.06873787 0.22795123 0.036684796
0.13914394 -0.8477294 -0.18294129 0.4422508 0.27595744 0.26285198 1.0442446 -0.36690044
-0.08983287 -0.37760174 0.34898025 0.026463224 -0.030708339 -0.38017923 -0.04661584 -0.12828834
-0.16371746 -0.28860664 -0.37233347 -0.21980722 -0.32289955 0.13707124 -0.09293475 -0.10274563
0.11979849 1.0213475 -0.44277573 2.0958498 -0.050493464 -0.09823062 0.0055282214 0.09473291
0.58530784 -0.062326297 0.11097792 -0.07095159 0.44614345 0.38683757 -0.06330835 -0.12715894
-0.11763037 -0.21961464 0.027446892 0.018965513 0.05916198 0.1868412 -0.13142613 -0.24179086
0.48274487 0.6755624 -0.45810327 -1.5298505 0.37640372 0.18588516 0.35192165 0.10461002
-0.08938974 0.1365166 -0.14941095 -0.7077548 -0.060393132 -0.015670856 0.0056518638 -0.068230614
-0.10293829 -0.05816743 -0.12826136 -0.40843123 -0.12229154 -0.25644365 -0.09794108 0.0918884
-0.09603907 0.21439177 -0.1910937 0.3368963 -0.003209706 0.1585898 0.07607094 0.08514311
-0.015854422 -0.19236904 -0.2020451 0.51101094 -0.639567 0.012123751 0.22248659 0.15863815
0.38904163 0.32874355 0.17939782 0.25088218 -0.09244815 -0.19846188 -0.18547142 -0.06370364
-0.3859536 -0.72701997 0.41435155 -1.9498076 -0.17497326 -0.17555232 0.30336168 -0.22510368
-0.9121874 0.29154563 -0.28581923 -0.11421475 -0.051001225 -0.20838638 0.1540761 0.16079728
0.20410603 0.15905222 0.32817245 0.36383557 0.17979594 0.082581356 -0.14137997 0.017897611
-0.33322337 3.7465863 0.19032267 -0.74751586 -0.38510063 0.44430393 -0.4251245 0.23255928
0.14412458 -0.0018259377 0.27995482 -0.13435015 0.086926565 0.122869566 0.086568296 -0.1105571
0.18992539 0.23265515 0.056098968 0.31138104 0.18441278 -0.1293444 -0.37462264 -0.1754971
0.0036828422 0.51038826 0.7409966 1.5891957 -0.1839232 0.2475394 0.16249207 -0.14129598
0.1731924 -0.41325817 0.01744428 0.33564177 -0.26439312 -0.011459749 -0.21163276 -0.04369548
-0.13139966 0.16702567 -0.04922141 -0.051755145 0.13334787 -0.22518323 0.004009437 0.08976865
0.9220243 0.1180173 -0.5568821 -0.49559572 -0.10326418 0.2551576 -0.23221818 0.16627951
0.07282817 0.3423627 -0.031343736 0.106462054 0.064336404 0.114836305 -0.19451728 -0.057216525
-0.10556434 -0.20822562 0.084877826 -0.117986396 0.02617063 0.09613025 -0.06133331 0.22363201
0.27030477 1.5750579 0.19462325 -1.5741194 -0.4241989 0.2726261 -0.19982973 0.08585201
0.030906359 0.42389074 0.53778046 -0.2743374 -0.14269556 -0.31042618 0.33070758 0.24329959
0.20772135 0.06868036 0.14655201 -0.2405809 -0.42690235 -0.30689466 -0.09993869 0.06147551
0.64772636 1.813885 0.34446186 -1.0740024 0.30262086 0.20582266 -0.5691974 -0.039351385
-0.27112368 0.526602 0.34390745 -0.038653493 0.1890509 0.21658398 -0.42723447 -0.44071308

policy_net.0.bias f4 [64]
00000000: fee2 9cbd 40ba 95bd 978f 83be 9731 71bc
00000010: a61f 103e 0995 90be 6a06 fa3d 6b35 1cbc
00000020: ff19 2f3e 765b 2e3e 8916 d5bd 3748 063d
00000030: ea18 afbe fb78 abbe 5af7 8c3e 6ba5 ab3d
00000040: f083 0a3e 784a 8e3e b6fc d03d 2477 1ebe
00000050: 6043 0a3d 20ea 5abd f7af 5abe 9e98 a83d
00000060: c63c 1bbd d176 2b3d b218 743e b703 843d
00000070: f778 303e d55b 003d 0d98 f7bd c75e a1bd
00000080: c75b da3d 7b59 773e e216 d9bd be0d aabd
00000090: 7446 d6bc f015 c33c 2428 fdbd 51dd 743e
000000a0: aaa9 b53d 835c 8fbe a735 733d f8bf 48bc
000000b0: 7dce 42be e7a1 73be ea84 993e baeb 8fbc
000000c0: e9ba 9bbb 7857 3d3e edda 203e 6975 aebc
000000d0: 35f5 123e 203d 773e 6837 ec3c a372 913e
000000e0: 775a 5ebe 05f6 ccbb 0346 17be 49fb 2d3e
000000f0: f64c 683e 9522 71be 83ca 23be 20e9 46bd
-0.07660483 -0.07310915 -0.25695488 -0.014721296 0.14074573 -0.28238705 0.12208255 -0.00953422
0.1709976 0.17027077 -0.10404689 0.032783713 -0.34198695 -0.33490738 0.27532464 0.0838116
0.13526893 0.2779119 0.10204451 -0.15475136 0.03375566 -0.053445935 -0.21356188 0.082322344
-0.037899755 0.04186136 0.23837546 0.06446021 0.17233644 0.031337578 -0.12089548 -0.078794055
0.106620364 0.24155228 -0.10600068 -0.08303402 -0.026156642 0.023814172 -0.12361172 0.2391255
0.088702515 -0.28000268 0.05937734 -0.0122528 -0.19024082 -0.2379223 0.29984218 -0.017568458
-0.004752506 0.18490398 0.15708514 -0.02129622 0.14351352 0.24144411 0.028835014 0.28407773
-0.21714197 -0.0062549138 -0.14772801 0.16990389 0.22685608 -0.23548348 -0.15995221 -0.04856217

policy_net.2.weight f4 [128, 64]
00000000: c0ca 67be fa12 c03d 17c4 a7be bf25 78be
00000010: 8d2c 963d a7fe 9e3e 24df 7c3d 02cd 613e
00000020: 0dd2 ae3d ddd7 fc3d a687 48bd 8028 14bf
00000030: 7db4 493e 04aa 4fbe 2700 1a3e f648 fa3e
00000040: b6ab 81be 98c8 64b8 8a3c 17be 32a5 843c
00000050: 9858 1abe fb4b 04be f7b3 233e 1924 c03e
00000060: 6631 4d3e 216f b6be 1959 bcbe 981e 0c3f
00000070: 47d6 213d 7fed 2e3e 91d2 1dbf f883 19be
00000080: 32fa b5be d76c 0c3d d446 cdbd 34ec 25be
00000090: 60f0 b73d 99db 453e 88ee 8dbe 6570 93be
000000a0: 2ee1 923d 20dc 41bf 2d08 25be e151 773f
000000b0: 318d 18be 3e6f f73d b94e 413d db7c 2d3d
000000c0: 5d56 d83d 2fea 1ebf 7091 67bd d63a a33d
000000d0: 7bee 01bd 57ec 9bbe 4fc1 8d3e a382 0a3d
000000e0: 09a8 cfbd a2a9 ad3b 8631 883e 5fba 433d
000000f0: abe0 3cbe 9f21 ffbd 96fb 023e 5be2 123c
00000100: 2e11 14bf 68ea 953e d4b4 993e 8a95 0b3e
00000110: 33c8 eebf 9410 9abd 024c 823e 1a39 0bbf
00000120: 10b9 043d 840f 7fbc 8d62 87bc e8d0 efbd
00000130: b574 ae3d 6ada 463e 3a6b f53d dee3 0b3e
00000140: 99da 45be 90fe 003e ba4b 623e 8f23 68be
00000150: d3b5 c73d 4d91 543e 840e 86be d831 50bf
00000160: b32d eabd bca9 ad3d 77ed a33e b0a7 993e
00000170: 3f7e f53d 2a60 53bd 9c19 ba3d 0f29 fabc
00000180: f774 13bf 73f3 33be 92b5 34be daa3 f63d
00000190: 6bc2 9e3e e1a3 c83e 71db 7fbd 1aa8 a0be
000001a0: bdf4 07bf d1dc dbbd 17b7 9a3d 440b 37bf
000001b0: 78ee 2b3e b8b5 093e 5c13 823d 759c 313e
000001c0: 23df fa3e 046c 283e 5247 04bf f743 abbc
000001d0: 21d4 d93e 9df2 bbbe d996 a13c 3aea db3d
000001e0: aeb9 8e3c 666b 9abe ba6e 8fbd 8010 dfbc
000001f0: 9a80 b13d 9c29 373e 574f 27bc 595c b33d
00000200: e8d8 7bbe 45c3 c9bd c2a1 fbbe e4ab 813e
00000210: 7d79 d93d 4f15 a53e 9b6d e5bc 3166 b43d
00000220: cecf 913d ad01 853e 720a d13c 0d1c 173a
00000230: ea92 70be b2d9 34bf 6713 3abc 2a2c bcbe
00000240: f89c 3ebe bf47 753e aecb 0a3f 0205 bbbe
00000250: 8bb4 b93d 324c 6dbd a2f8 c73c f70b d7be
00000260: 8efb 9cbe ba81 ea3e 05d3 c2bc d96c da3d
00000270: 220e a33e 6023 0ebe 7e2a d6bd 3b4b 6f3e
00000280: 9c6b 463e c1f0 c03c 0e75 4bbe 7b40 083e
00000290: 86a6 993c 710d ecbe 1bdb 903e 42f5 1d3f
000002a0: 03f4 8f3d 0536 06bf 0c3a 21be af1e 9dbd
000002b0: 92df eabd 260e 013e dfe4 93bd 39ce f03d
000002c0: dd62 aebd 36e8 0a3e 4933 7c3e 0841 bdbe
000002d0: ae09 743e 871c adbd c948 2cbe 1c3c 533e
000002e0: 4685 0cbf fe4f e7bd 30fc 36bf 9d01 d93d
000002f0: c63e 9e3e 5ec5 bdbe ac1c 25be a1fc 00bf
00000300: 8547 dcbe 3dd6 d03e 58c1 c8be ba79 24bd
00000310: cbdb 4bbe c844 4ebd ad3c e7be 6acf e63d
00000320: 5180 d03d 3b53 e23e 4147 8a3e e546 5dbe
00000330: 89c3 76be d146 9c3c 043b 173e cb27 83bd
00000340: dbf0 353d 7f4f 4b3e fcb9 babd ee25 0bbf
00000350: 7dc1 f03d c934 d2bd 9021 25bd 7399 00be
00000360: 6be0 ebbe 407c 703e 1bf4 1dbe cc02 00be
00000370: 3b22 6abe e3e2 8abc 6bc5 b7be a505 25bf
00000380: 4f77 293f dfab 583e da7b 11be b109 223e
00000390: d4b1 a2be fe95 9dbc 237c e23d 7a9f 01bf
000003a0: 646a 9cbd ac4a fabe 5665 983d 1026 00bf
000003b0: cda0 d3bd 4a6f 7fbf 7444 f6be ab33 493e
000003c0: c948 1abf 5708 88be 75b7 163f 60ea e3be
000003d0: 3cdf 943e 08f3 aa3e 9598 a33e 1481 e33e
000003e0: 167b 97be 404a bfbe 9ac3 1ebe 8729 03bf
000003f0: e250 9ebe 3eb9 1abe 90c4 8e3d 7c7e 8e3e
-0.22635937 0.093786195 -0.32766792 -0.24233149 0.07332716 0.3105366 0.06173624 0.2205086
0.08536158 0.1234586 -0.04895749 -0.578743 0.19697757 -0.202797 0.1503912 0.4888379
-0.25326318 -5.4546254e-05 -0.14769188 0.016192053 -0.15072858 -0.12919609 0.1598662 0.3752754
0.20038375 -0.3563166 -0.36786726 0.5473418 0.03951099 0.17082785 -0.61649424 -0.14991748
-0.35542446 0.034283485 -0.10023275 -0.16203386 0.08981395 0.19322051 -0.27721047 -0.28796688
0.07171856 -0.7572651 -0.161164 0.9660931 -0.1489761 0.12081765 0.047194216 0.0423554
0.105633475 -0.62076086 -0.056535184 0.079702064 -0.031721573 -0.3045375 0.27686545 0.03381599
-0.10139472 0.005299763 0.26600283 0.04778516 -0.18445079 -0.124575846 0.12791285 0.0089651
-0.57838714 0.292804 0.30020773 0.13631263 -1.8654846 -0.07522693 0.25448614 -0.54384005
0.03240305 -0.015567664 -0.016526485 -0.117097676 0.08518354 0.19419256 0.119833425 0.13661143
-0.1932167 0.12597108 0.220992 -0.22669815 0.09751477 0.20758553 -0.2618295 -0.81326056
-0.11434498 0.0847964 0.3201711 0.30010748 0.1198697 -0.05160538 0.09086916 -0.030537156
-0.5760035 -0.17573337 -0.17647389 0.12042971 0.31007704 0.3918753 -0.062465135 -0.3137825
-0.53107816 -0.10735477 0.07554453 -0.71501565 0.16790187 0.13448226 0.06351349 0.1734484
0.48998365 0.16447455 -0.51671326 -0.020906432 0.42544654 -0.36708537 0.01972525 0.107380345
0.017422523 -0.30160064 -0.07003541 -0.027229548 0.08667107 0.17886966 -0.010211787 0.08757848
-0.24594462 -0.09851698 -0.4914685 0.25326455 0.10618875 0.3224282 -0.028006366 0.08808554
0.07119714 0.2597784 0.025517676 0.0005764373 -0.23493543 -0.70644677 -0.011357165 -0.36752445
-0.18614566 0.2395315 0.5421704 -0.36527258 0.09067639 -0.057933994 0.02441055 -0.42001316
-0.3066067 0.458021 -0.023782263 0.10665292 0.3184672 -0.13880682 -0.104573235 0.23368542
0.19376987 0.0235523 -0.19868872 0.13305847 0.018756162 -0.46104005 0.28292164 0.6170236
0.070289634 -0.5242618 -0.157448 -0.07671868 -0.11468424 0.12603053 -0.07221388 0.11758084
-0.085149504 0.13565144 0.24628939 -0.36963677 0.23831818 -0.08452707 -0.1682464 0.20628399
-0.5489086 -0.11294554 -0.7147856 0.10596011 0.30907267 -0.37064642 -0.16124219 -0.5038548
-0.43023315 0.4078845 -0.3921001 -0.04015515 -0.19908063 -0.050358564 -0.4516348 0.1127003
0.101807244 0.44204125 0.27007487 -0.21609075 -0.24098028 0.019076737 0.14768606 -0.06404074
0.04441915 0.19854544 -0.09117505 -0.5435475 0.11755655 -0.10263974 -0.04031521 -0.12558536
-0.46069655 0.23484898 -0.1542515 -0.12501067 -0.2286462 -0.016953891 -0.35892805 -0.6446174
0.66197675 0.21159314 -0.14207402 0.1582401 -0.31776297 -0.01923656 0.110588335 -0.50633967
-0.0763748 -0.48885095 0.07441203 -0.5005808 -0.10333405 -0.9977919 -0.480991 0.19648616
-0.6026731 -0.26568863 0.58873683 -0.4451475 0.29076564 0.33388543 0.31952348 0.44434416
-0.29586095 -0.37361336 -0.15504304 -0.5123524 -0.30921084 -0.15109727 0.06971085 0.27830875

policy_net.2.bias f4 [128]
00000000: befb a73d 6f25 d2bd 5cd2 203e 10e9 013d
00000010: 5f6c 84bb 34ac b33d d23f 24bd d7c3 aebd
00000020: aeee ce3c 1802 1a3e 8a0f 68be d24b 04bc
00000030: 31a5 7dbd a4c9 18be de31 cb3d 271b 983d
00000040: ebce 8c3d d2af 85be 7378 af3d e48e 533e
00000050: 6b7c 90be afc9 b43c 6b00 41be 5f7e f5bd
00000060: f370 45bc 4602 fcbd 50f5 223d 63ef d83c
00000070: c7f8 deba 18fe d7bc 3dc6 68bd f051 95bd
00000080: 7171 903b f387 e13c ad2c 87be 1627 76be
00000090: 2c3b 3fbe 8262 533e 8ee5 ae3e 5d17 193e
000000a0: cd24 dcbd 314f 8fbe 9db1 ac3d 41e9 4c3d
000000b0: 90ea 6dbe 82bc d4bd 3c2d e53c e37d 8a3c
000000c0: f1f4 203e e840 8cbe 3442 8fbe d127 633e
000000d0: 5698 dfbd 1caa 2e3e 486e ab3b b0c6 823b
000000e0: f96f 193e 3e60 8c3c d4b6 8b3b 40c5 b13c
000000f0: f4e4 32be 8561 c9bd 3488 053e 20f6 5cbe
00000100: 9cb6 f6bd 89e3 5dbd 4bbe c8bd 499f 47be
00000110: e098 3b3d 363d 933c fe1d 40be 467e 2bbe
00000120: a610 2e3e 8028 fdbc de5e 473e af56 4b3e
00000130: fb67 60bc 9d45 20be 9e21 ca3d 682f c13c
00000140: f4f0 8fbb 33ce b6bc ce9e 7abc 9995 503d
00000150: 78fe d73b 732f 50bd d4bf 8c3b 44ef c2bc
00000160: 444c 103e 95cf 553e 90d2 8c3d f114 0abc
00000170: dd81 6dbe 007d f43c 778d c9bd f038 e3bd
00000180: d64d 41be c56f 38be c68e 1cbe c7aa bebe
00000190: f4dd 213d 10bf f0bd 8a0c 88bd 8763 b53c
000001a0: a9b4 e1bc d3df 80be a0e7 f93a 1af4 113d
000001b0: 526e 66be bf11 fb3c 3094 e0bd 6fb7 703c
000001c0: 16fe e2bd f97c 883d 9b0e 483d 2621 85bd
000001d0: 36f0 7ebd 509d f83d 27f8 82be aa36 01be
000001e0: 89bf 053d b855 873d 4adb 48be 33e4 a23e
000001f0: 7035 96bd 89c0 b43c 9f03 093e 315c e1bc
0.08202313 -0.10261046 0.15705246 0.031716406 -0.004041239 0.087730795 -0.040099926 -0.08533447
0.025260296 0.15039861 -0.22662178 -0.008074718 -0.061925117 -0.1492067 0.09921621 0.07427054
0.06875404 -0.26110703 0.08567896 0.20659977 -0.28219923 0.022068826 -0.18847816 -0.11986994
-0.012050855 -0.12305121 0.03978473 0.026481336 -0.0017011397 -0.026366279 -0.05682968 -0.07291019
0.0044080545 0.027530646 -0.26401272 -0.24038348 -0.18674916 0.20643046 0.3415951 0.14950319
-0.10749207 -0.27990106 0.084323145 0.050027136 -0.2323401 -0.103875175 0.027975671 0.01690573
0.15718438 -0.2739327 -0.27980196 0.22183158 -0.10917728 0.17057079 0.0052316524 0.0039909706
0.1498412 0.017135736 0.004263738 0.021700501 -0.17470151 -0.098330535 0.13040239 -0.21578264
-0.12046549 -0.054172073 -0.098019205 -0.19494356 0.04580009 0.017973524 -0.18761441 -0.16747388
0.16998538 -0.030903101 0.19469783 0.19857286 -0.013696666 -0.15651555 0.09869693 0.023582175
-0.0043927375 -0.02231512 -0.015296651 0.050923917 0.0065916143 -0.0508265 0.0042953286 -0.023795731
0.14091593 0.20879968 0.06876099 -0.008427844 -0.2319407 0.02984476 -0.098414354 -0.11094844
-0.18877348 -0.18011387 -0.15288839 -0.37239668 0.03951831 -0.11755192 -0.06643017 0.022142185
-0.027551966 -0.25170764 0.0019066222 0.035633184 -0.22503021 0.03064811 -0.109657645 0.0146921715
-0.11083619 0.06664462 0.048842054 -0.06500463 -0.0622408 0.1213938 -0.2557995 -0.12618509
0.032653365 0.066081464 -0.19614902 0.31814727 -0.07334411 0.022064464 0.13380288 -0.02750978

policy_net.4.weight f4 [128, 128]
00000000: 261e a8bd 9731 1c3e ada4 143e 7811 3b3d
00000010: ea95 dbbd ef05 483e 6851 a8bd f915 503e
00000020: 00fa e3be c7a2 833d 52ea 2ebd 9de5 c73d
00000030: 53aa a43c 69c1 143e 63bc 163f 84dd c4be
00000040: f5c6 6dbe 9c7b af3e 2794 803e fbab e3be
00000050: 90e4 b83e f8e8 f33c 9980 693e 73e2 bfbd
00000060: 378b d1bd 99cc cabd cbcf 69bf ceaa cd3e
00000070: 03d8 c9bc 311c 8fbe 258c 0abf 10c2 8ebe
00000080: b800 a43b 2c70 3e3d c647 f63e d958 14bf
00000090: 230a 82bd 3552 b8be fb30 a5be 4d84 11be
000000a0: 56e9 693e e0d2 113e 0bdd 1d3e b296 113e
000000b0: 9c33 c3be ce58 9abf 70e4 1ebe 30c6 9dbe
000000c0: 6637 903e f02d 0c3f 115b e03e 050f 4f3e
000000d0: cb2c bc3e bf86 96be af6d a9be 3d8f d2bd
000000e0: e66b 01bd 5a52 0cbf d8e4 c2be fed8 c1be
000000f0: d856 aa3d 4007 693e abb3 86bf fb0a 033d
00000100: 8612 94bd e26b 833e 5268 79be c72a a6bc
00000110: 3d5d 41be f4c1 e3be 0f47 8cbe bbe1 cebe
00000120: 0791 98be 7b36 adbd 10d4 bfbd 11f8 0ebe
00000130: 7c23 07be aa6c 37be c87f a53e fd6a 9bbe
00000140: f089 9b3e 992e 463e aeb1 a23e dc49 d2bd
00000150: 6ed6 89be 7ca3 c63e dee6 13be e552 8c3e
00000160: 9517 a4bc 194e fdbe 78ad 193e 8b32 07be
00000170: 9664 493c dd6b c03e b2c3 88be a3ad f73e
00000180: 2c84 2abe e2e6 5b3e 40f2 e2bd d74e 69be
00000190: 1ca5 363e fba8 a43d 28a8 743d 9278 8d3e
000001a0: 73c8 11be a746 0bbf f379 ba3e 7fef 823e
000001b0: 1d0a 043e ccfb 9dbe 9b80 493d 7680 00be
000001c0: e045 61be a149 ac3d c91e 6dbe f32f ebbe
000001d0: 16f5 11be 4bdc 1bbe ab8d 623d 6d15 963d
000001e0: 7375 753e 84c8 9fbe 53fc 07bf 29fa 00bf
000001f0: c9b9 a63d 60e3 ec3e 0d68 2b3c 3311 babc
00000200: 88f2 653d 26a1 afbd 32db 51bf 7ced b6be
00000210: 1e93 87be 9121 d8bb a959 1ebe eda2 043e
00000220: 4520 b1be 225e 1bbf add2 dabd 5c32 db3d
00000230: cadb f0be 4653 033d 6506 223f 30b8 443e
00000240: 5c5a 30bf c6f4 273d bd57 55be 2f82 313d
00000250: 87be 3cbe 2048 debe 94f6 53be 4045 d1bd
00000260: 7471 cebe 89be 2c3d 5a74 bdbd 2d51 00bf
00000270: 0afa 77be 61b4 c93d 9407 e1bd 03d0 033e
00000280: 7442 babd 11a5 f0bd 69ea aabd 87fb 44bf
00000290: a9b5 86bb 359e 80bd 57a1 1d3e f72f a23e
000002a0: 0e3e 603e 8e53 a5be 7c3b 0f3e 6c53 b4bd
000002b0: eadc 8fbd 04e7 d2be 13e9 96bd 3f10 46be
000002c0: 92f0 5ebf f924 633e 3a0c e73e 938f 7fbf
000002d0: ae38 36be fcf5 10bd 32d6 86be 5ab0 b53e
000002e0: 2472 7a3e 5da2 ab3a b77c 113e 6ed5 c53d
000002f0: f074 58bf 4048 dbbe 211c 3abe d1c6 37be
00000300: fa7d 1abf 6d90 1e3c 9057 063d 6983 013e
00000310: c21a 3dbe 2f8e c0be 110f b3be 2ba5 ec3d
00000320: a306 b1be f84f acbc 7862 43be 5ab5 973e
00000330: 065d 853e f4e8 d63d 3ac6 6dbe 6555 a13e
00000340: 0011 8bbe e180 77be 17a4 b9be 541a 9f3e
00000350: 6e8e 99be 5bce dbbb fe8c b2bd 729c 9e3e
00000360: 5b8f 92be ec0b 0abd 8a55 85be 46dc 213e
00000370: e08b 9d3e 91a7 97be 9a06 073e 3a4f 18bf
00000380: 4a1d 12bf 2dcd e3be 24ac dd3e f3e3 bebd
00000390: 4ac9 c0be 2c09 403e 63fb 8b3c 59a2 98bd
000003a0: e9b4 873e 7aef 1a3e 5453 383e a42e d4bc
000003b0: b1b1 573e 68ac 853e fa51 92be 2f53 d0bd
000003c0: ec6d bfbc a9bf a0be 516c 973e 4327 953e
000003d0: 9201 c1be 6bfe 873d 91f6 d33d 4ec4 57bd
000003e0: e2a2 993d 3ad2 3b3d 0b69 353e cb5b 86be
000003f0: 5437 05be 6962 2bbe 9962 53bf 763b 053e
-0.08208875 0.15253292 0.14515944 0.045670956 -0.10721953 0.19533513 -0.08218652 0.20320882
-0.44526672 0.06427532 -0.042703934 0.09760592 0.020100748 0.14526905 0.58881205 -0.38450253
-0.23220427 0.34273994 0.2511303 -0.44467148 0.3611188 0.029774174 0.22802962 -0.09369364
-0.10231631 -0.09902305 -0.9133269 0.40169376 -0.024639135 -0.27951196 -0.54120094 -0.27882433
0.0050049685 0.046493694 0.48101634 -0.5794807 -0.0634959 -0.3600022 -0.32263932 -0.14210625
0.22842917 0.14240599 0.15416352 0.14217642 -0.38125312 -1.2058351 -0.1551683 -0.30815268
0.28167266 0.54757595 0.43819478 0.20220573 0.36752924 -0.29399678 -0.33091494 -0.10281227
-0.03159704 -0.5481316 -0.3806522 -0.37860864 0.083173454 0.22756672 -1.052358 0.031992894
-0.072300956 0.25668246 -0.24356201 -0.02028407 -0.18883224 -0.44483912 -0.27397963 -0.40406594
-0.29798147 -0.08457657 -0.093666196 -0.13961817 -0.1319713 -0.17912546 0.32324052 -0.30355063
0.30378675 0.19353713 0.31776184 -0.10267994 -0.2692141 0.38796604 -0.14443538 0.27406994
-0.020030776 -0.49473646 0.1500758 -0.13202874 0.012292048 0.37582293 -0.26711804 0.48374662
-0.16651982 0.21474794 -0.11081362 -0.22783981 0.17836422 0.08040043 0.05973068 0.2763105
-0.14236622 -0.5440468 0.36421165 0.25573346 0.12894483 -0.30856168 0.049194913 -0.12549004
-0.21999311 0.08412481 -0.23156275 -0.4593502 -0.14253649 -0.15220754 0.055310886 0.073283054
0.23970585 -0.3120767 -0.5311939 -0.50381714 0.081409045 0.46267223 0.010461819 -0.02271328
0.0561395 -0.085756585 -0.8197509 -0.3572806 -0.2647943 -0.0065957983 -0.1546389 0.12952776
-0.34594932 -0.6069051 -0.106847145 0.10702965 -0.47042686 0.032061838 0.6329101 0.19210887
-0.6888788 0.04100492 -0.20834251 0.043337043 -0.18432055 -0.43414402 -0.20699531 -0.102182865
-0.40320933 0.042173896 -0.09250708 -0.50123864 -0.24216476 0.09848858 -0.109877735 0.12872319
-0.09094706 -0.11750234 -0.083454914 -0.769463 -0.004111011 -0.062801756 0.15393578 0.3167722
0.21898672 -0.3229031 0.13987535 -0.08804974 -0.07024558 -0.41191876 -0.07368674 -0.19342135
-0.8708583 0.22182073 0.45126516 -0.9982845 -0.17795059 -0.03539084 -0.26335293 0.35486108
0.24457604 0.0013094653 0.14207731 0.09659849 -0.8455343 -0.4282856 -0.18174793 -0.17946936
-0.60348475 0.0096779885 0.03279835 0.12647785 -0.18467239 -0.37608477 -0.34972432 0.11554941
-0.34575376 -0.021034226 -0.19080532 0.29630548 0.26047534 0.10493651 -0.23220149 0.31510463
-0.27161407 -0.24170257 -0.36258003 0.31074774 -0.29991478 -0.006707949 -0.087182984 0.30978733
-0.28624997 -0.033702776 -0.26041824 0.15806684 0.3077078 -0.2962003 0.13186112 -0.5949589
-0.5707594 -0.44492474 0.43295395 -0.093208216 -0.3765357 0.18753499 0.017087644 -0.0745284
0.2650521 0.15130416 0.18000537 -0.025901146 0.21063878 0.26108098 -0.28578168 -0.10172116
-0.023367845 -0.31396225 0.29574826 0.29131517 -0.3769651 0.06640323 0.10349763 -0.052677445
0.075017706 0.045854785 0.17715852 -0.26241907 -0.13009387 -0.16736759 -0.82572323 0.13010964

policy_net.4.bias f4 [128]
00000000: 9c40 47be 2d5b bfbd 3257 213d 4744 38be
00000010: c574 8ebd 4c2d bf3d 1059 66bd a239 ecbd
00000020: 5eb8 08be 7bd1 cebd 17d1 033e 3f72 2ebd
00000030: a7bd 2abc 869a 82be d6e6 b0bc ec94 a93d
00000040: 262c c4bc e7e7 79bd 58c7 14be 3459 c33c
00000050: 4b9d 07be 1944 b9bd ae2d 58be 500b bdbe
00000060: 5bf3 29be 03bd 503e dd40 95bd a931 0dbe
00000070: 9a85 1ebe 3ae4 303e c34a fa3d 407c 30be
00000080: c265 f43d e092 3d3e b843 873d 9e85 10bc
00000090: c201 c93c b058 053e fa9b c7be f48e dd3d
000000a0: c897 b43d 4050 44be a2f8 2b3c d109 c43d
000000b0: a02a 27be 4eac 2f3e 589e 123e 71b0 9cbd
000000c0: 7c4d 98bb 9a2f 7abe 66f4 9bbd 3210 613e
000000d0: 9cb4 b8be bb90 563d 9eda e03d f3b1 aabe
000000e0: f9eb 06be 7983 f43c 213f a93d 5d93 33bd
000000f0: e56b 89be 42ab 22bd 0064 babe 4d45 c53d
00000100: 21ad 05bd d401 88bc 57cb 8cbe db53 c93d
00000110: a357 49be 1d2f 91be 420d 95bd 6eb5 bbbe
00000120: d1c1 8d3e e7e9 09bc 7a1c 273e e27a 61be
00000130: 032e 64be c8c0 6b3e 6c34 4a3e 6a3b b63d
00000140: 6dc5 26bf e80f 3abe 2cbd d33e 4407 56be
00000150: b43d 18be 26cd c4bc 47bd 90bd d30c 3d3e
00000160: ea58 c4be 666d d83d 14fd b6bd aa83 5ebe
00000170: a0cd 16be 29b2 33bd 73c0 cdbe 1438 e23d
00000180: 637e 88be 4045 b7bb 76ab 03be 4750 5c3d
00000190: d102 623e 46ca da3d 0aa7 88bc 1cfd 993b
000001a0: 6683 9ebe c6c2 023d d6ac 9a3d 1dc2 a7be
000001b0: 379d c63c 8116 c93d 8058 1abe afa9 0a3d
000001c0: 7cbe b5bd 8ae1 1a3e 1480 f23d 182c 143e
000001d0: 029c cbbd f401 063e 9ede 00be a502 903e
000001e0: 461c 58be 4248 163e ef1b 5ebd d226 da3d
000001f0: c696 54be 118d 12bd 4c13 123d 4e78 1abe
-0.1945824 -0.09343562 0.039389797 -0.17994796 -0.06955866 0.093348116 -0.05623728 -0.1153443
-0.1335158 -0.10098549 0.1287273 -0.042589422 -0.010421193 -0.25508517 -0.021594446 0.08280358
-0.023946833 -0.061012175 -0.14529169 0.023846246 -0.13243596 -0.09046192 -0.21111175 -0.36922693
-0.16596739 0.20384602 -0.07287762 -0.13788475 -0.15480652 0.17274562 0.12221291 -0.17234898
0.11933471 0.1851306 0.06604713 -0.008820919 0.024536971 0.13022113 -0.38986188 0.10818282
0.088180125 -0.19171238 0.01049629 0.09572185 -0.16324854 0.17155573 0.14318216 -0.07650841
-0.0046479087 -0.24432221 -0.07614975 0.21978834 -0.36075294 0.05238412 0.10979198 -0.3333889
-0.13175954 0.029847847 0.08263994 -0.04384171 -0.2684013 -0.039714105 -0.3640442 0.09632359
-0.03263581 -0.016602434 -0.27498886 0.09830447 -0.19662337 -0.28356257 -0.07277919 -0.36661857
0.27686933 -0.008417583 0.16319457 -0.22019532 -0.22283177 0.23022759 0.1974656 0.08898051
-0.65145 -0.1817013 0.41355264 -0.20901209 -0.14867288 -0.024023604 -0.07067352 0.18461923
-0.38349086 0.10567741 -0.089349896 -0.21729913 -0.14726877 -0.04387108 -0.4018589 0.11045852
-0.26658925 -0.005592972 -0.12858376 0.053787496 0.22071387 0.10683112 -0.016681213 0.0046993624
-0.30959624 0.03192403 0.07552497 -0.32765284 0.024244888 0.098187454 -0.15072823 0.03385323
-0.08874223 0.15125099 0.11840835 0.14469945 -0.099418655 0.13086683 -0.12584922 0.28127018
-0.21104535 0.14676002 -0.05422586 0.10651936 -0.2076064 -0.035779063 0.035662934 -0.15084955

policy_net.6.weight f4 [64, 128]
00000000: d887 8cbd 943f 3d3e 0977 be3e 79ad 1ebf
00000010: ba99 55be 396e 82bd 004b 603e 0c58 4e3e
00000020: dc1a de3d 9891 b2be 01f8 2bbe fd84 013e
00000030: 80fb 92be 7d53 f1be cb5b 8ebe 3f55 65bd
00000040: 7db7 853e ac36 16bd b5c9 78bd 7e91 af3e
00000050: 1456 b63e 7714 073c 9849 263e 78f3 79bd
00000060: 2a57 0fbf 3a27 543e e11c aabd 6144 fb3e
00000070: 624d 3b3e fa72 4abd 9586 16bf 5d42 7ebe
00000080: f09a b7bd c41d 2fbf 98f1 cfbe d175 a7bd
00000090: 4c61 e7bb c032 39bf 8767 0dbe c140 263e
000000a0: 05f4 7a3d b551 bebe de0e 183e 2863 153e
000000b0: 80e8 ebbe bc2c 9a3e 2224 47be f6f9 303c
000000c0: 1638 82bd a44c 273f cfee e3be fa64 d73d
000000d0: d508 a53e 3ba5 cabc d830 153d 3f95 273e
000000e0: 6676 2b3e e378 573d ee12 d83e f447 a6bd
000000f0: 8ac4 323d 09c6 433e f5a2 3abe 6484 6fbb
00000100: 23ce b1be ba46 a73d 3e34 a7bd 1069 173e
00000110: 776f 9cbc aab7 dcbe 78d4 ac3d 285a 05bf
00000120: 842c 8c3d 2fd8 233d 59a5 2ebf 7708 453d
00000130: edc9 5fbe afa4 eabe ec63 83be 092e aabe
00000140: 7875 523e e0f6 cd3c e289 8f3e 1c26 21be
00000150: 0666 f9be 829b aabe df15 bc3e 83f9 b4be
00000160: e4cb 58be 4d6c 94bc 3f98 8ebb 95fc 21bf
00000170: aa61 9fbe cf18 4ebe 76a5 c93d 8dd9 6abf
00000180: d9f6 51be 1c0b 83bd f6f0 dfbd e777 ab3d
00000190: 314e 1cbf d7cd 8c3d 2a5c 6f3c 383a 953c
000001a0: c6e8 ddbd 8ebd 86be 8621 5b3e 7569 c0bd
000001b0: fb3d 863e 8e8f 9e3d 11fe b93d 88d8 91be
000001c0: 339a 99be ce98 6dbe 33be 1abe 7358 1bbf
000001d0: d316 1c3f ba21 4bbf cc67 2ebf 9684 49be
000001e0: 7575 15bc 4a8a 113e 5545 8cbe c0c3 5b3e
000001f0: b6c4 a8bd 73c7 a2be 6dc2 0bbf 5170 65be
00000200: 4a7a b5bd 4569 e03d f3bf dfbd 46cc 793d
00000210: 5025 66bd cf7b 813e 1565 d33d af42 67be
00000220: 4e6e a1be 0d67 043e 96ab 853d 58eb d13d
00000230: 5561 05be fb8b 12be bd9e d63a 31b5 dc3d
00000240: c280 b33e 7945 cebd 4f91 88bd 14dd 153e
00000250: 8794 08be c174 683e 007f 3bbd 309e 01bf
00000260: 4cfc 58bf c6d1 58be f360 28bf 3b8f 24bf
00000270: 8f65 3f3e 011e b2bd fbe2 cbbd 1ada 32bf
00000280: 9d45 5dbd 545c 823d 4e6c bb3d 39d1 33be
00000290: 8cc6 1abd 21df 973c f5cd 733d ee28 4c3d
000002a0: 451c 3fbe f227 083e bea7 9d3d 4f0b 46bf
000002b0: 5571 53be 89fe 393e 4d82 42be 958a ae3d
000002c0: dc34 92bd 2d88 32be 3dad 453d 4075 bf3e
000002d0: e6cc 3dbc bbc3 c6bd 7b82 953d a066 a0bd
000002e0: 62f6 83be 7e4e 3e3e 5117 edbd 26cd 16bc
000002f0: 2b12 2a3e 8d36 b1bc 288b 9c3c 075a 9abb
00000300: 2375 50bd 7979 d1be 4ce0 323e 71a1 44be
00000310: c3ee 47bf fa95 10be 06f2 003d cea5 983e
00000320: 8ed1 9b3e 04af efbe e4df b4be a0f9 e2bd
00000330: 6af6 a13d e492 a53d 8cfb 17bf dfb7 29bd
00000340: b87c e0bb e1ff 333c 0642 1ebd de00 04be
00000350: e696 f2be ffdd 963d de75 d63d 4e87 dabe
00000360: 6774 3f3d 62b0 213e 97d2 09be 20ea 10be
00000370: 5c65 23bd 023a da3d 0c1e 163d 8927 dbbd
00000380: 5f27 57be d975 11be 4bc3 863d 4449 c1bd
00000390: 6449 65bc 3ca1 06bd e5c6 52be bc3a 263e
000003a0: 0d27 d6be 169f 283e 85d8 edbd 883e b03d
000003b0: f144 8dbe fe39 ea3e 76f6 50bc 6bc1 2d3e
000003c0: 5325 ddbe 9033 813d 9c7f 38bd 393e 08bf
000003d0: a877 fdbd b265 2f3e 8051 b8be 1e31 f4be
000003e0: e010 67bb f3a5 08be 4a0f 313e 0732 9abe
000003f0: 1381 93bc d1cd c5bc 7a30 cbbe 4831 943e
-0.06861848 0.18481284 0.37200192 -0.6198345 -0.20859423 -0.063686796 0.2190361 0.20150775
0.10844967 -0.34876704 -0.16793825 0.12648387 -0.28707504 -0.4713401 -0.27804407 -0.0559895
0.26116553 -0.036673233 -0.060739238 0.3429069 0.35612547 0.008244625 0.16239011 -0.061023206
-0.55992377 0.20718089 -0.083062895 0.49075606 0.18291238 -0.049426056 -0.58799106 -0.24830003
-0.08965099 -0.68404794 -0.4061401 -0.081767686 -0.0070611592 -0.72343063 -0.13809024 0.16235639
0.06126787 -0.37171713 0.14849421 0.14588606 -0.4607582 0.30112255 -0.19447377 0.010801783
-0.06358354 0.6535132 -0.44518134 0.105173066 0.322333 -0.024736991 0.036423534 0.16365527
0.16744384 0.05260552 0.42201942 -0.08119193 0.043644466 0.19118513 -0.18226226 -0.0036547417
-0.34727582 0.08167787 -0.08164261 0.14786172 -0.01909612 -0.43108875 0.08438963 -0.5209069
0.06844428 0.04000109 -0.6822105 0.048103776 -0.21854372 -0.4582877 -0.25662172 -0.33238247
0.20552623 0.025142133 0.28034884 -0.15737194 -0.4871065 -0.33321768 0.36735436 -0.35346612
-0.21171528 -0.018118048 -0.0043516452 -0.63276035 -0.311292 -0.20126651 0.09846012 -0.91738206
-0.20504321 -0.06398603 -0.109346315 0.08372479 -0.6105681 0.06875198 0.014609376 0.018216237
-0.10835414 -0.26316494 0.21399507 -0.09395114 0.26219162 0.07742225 0.090816624 -0.28485513
-0.30000457 -0.23202822 -0.15111618 -0.6068184 0.60972327 -0.7934834 -0.6812713 -0.19679484
-0.009122242 0.1421291 -0.27396646 0.21461391 -0.08240645 -0.31792793 -0.54593545 -0.22406127
-0.088612154 0.109575786 -0.10925283 0.060985826 -0.056187928 0.2528977 0.10322014 -0.22584032
-0.31529468 0.12929936 0.06526868 0.102499664 -0.1302541 -0.14311211 0.0016374212 0.10776747
0.35059172 -0.100718446 -0.066683404 0.14635116 -0.13337909 0.22700788 -0.045775414 -0.50632
-0.84759974 -0.21173772 -0.6577293 -0.6428105 0.18691085 -0.08697129 -0.099554025 -0.69864047
-0.054021467 0.063652664 0.09151517 -0.17560281 -0.037787005 0.018539013 0.059522588 0.04984372
-0.18663128 0.13296488 0.0769801 -0.77361006 -0.20648701 0.18163504 -0.18995018 0.08522526
-0.071389884 -0.1743476 0.048260916 0.37394142 -0.011584496 -0.097053014 0.07300278 -0.07832074
-0.25773913 0.1858463 -0.11576713 -0.009204185 0.16608493 -0.021632457 0.019109324 -0.004710439
-0.05089296 -0.4091299 0.17468375 -0.1920221 -0.78098696 -0.14119712 0.03148081 0.29814
0.30433315 -0.46813214 -0.35327065 -0.110827684 0.07908328 0.08084658 -0.59368205 -0.04143512
-0.006850805 0.010986299 -0.038637184 -0.12890956 -0.4738075 0.07366561 0.104717 -0.42681354
0.04674187 0.15789941 -0.1345924 -0.14151812 -0.039891586 0.10655595 0.03664975 -0.107009
-0.21011113 -0.14205112 0.06580218 -0.094378024 -0.0139945485 -0.03286861 -0.20583685 0.16233343
-0.41826668 0.16466936 -0.116135634 0.08605677 -0.2759166 0.4574737 -0.012754073 0.16968314
-0.4319254 0.06308663 -0.045043573 -0.53219944 -0.12376338 0.17128637 -0.3599968 -0.47693723
-0.003525786 -0.13344555 0.17290989 -0.30116293 -0.018005883 -0.024145992 -0.39685422 0.2894385

policy_net.6.bias f4 [64]
00000000: 0f73 c4bd 05d7 aa3e f390 6fbe 1b2c 69be
00000010: 4c63 ebbe f682 773e 6cae 7ebe 4618 b8bd
00000020: c27e 42bc 7366 573e 7b99 cc3e 44e8 34bc
00000030: 057d ba3e 3791 103e d348 013f 7e89 923e
00000040: 0d13 17be 7a70 7dbe 8f5d 1a3e baa4 343e
00000050: 5443 b8bd 2619 9e3e 5f0e c73a 10dd d63d
00000060: 7771 073e db45 843e a3d4 ba3e 41df e0bc
00000070: 54d9 913e d478 513e d1df 8c3e a57b 1dbd
00000080: 45d5 f1bd d457 b03e 8a47 493e 92ec 673d
00000090: 8a02 763d 99ad 083e d889 613e 6cfa d4be
000000a0: c144 9a3e 89ac f5bd c3b5 663d 42a6 8abe
000000b0: 78d6 c33e 2cbb f73e ffdc 13be f9f1 483d
000000c0: 320e 9dbe 2191 afbe d213 a2be c410 d33e
000000d0: 01c3 aebe 9f66 08bc b8da 60be 76b9 3ebe
000000e0: c1e9 073f 68f8 fb3d 0c9a 073c ab98 90be
000000f0: 8abb 2a3e 4135 813e aded f6bd 2a01 243e
-0.09592258 0.33367172 -0.23395137 -0.22770731 -0.45974195 0.24171051 -0.24871224 -0.08989005
-0.011871042 0.21035175 0.39960846 -0.011041705 0.36423507 0.14117895 0.50501746 0.28620523
-0.14753361 -0.24749938 0.15074752 0.17640963 -0.08997217 0.30878562 0.0015186778 0.10491383
0.13226877 0.25834545 0.36490354 -0.027450206 0.2848612 0.20456249 0.27514508 -0.038447995
-0.11808256 0.34442008 0.19656196 0.056622095 0.060061015 0.13347472 0.2202524 -0.41597307
0.3013058 -0.11995799 0.056325685 -0.2707997 0.38249564 0.48384988 -0.14439772 0.049058888
-0.30674893 -0.34290412 -0.31655747 0.4122373 -0.3413315 -0.008325248 -0.21958435 -0.18625435
0.53091055 0.12303239 0.008276474 -0.28241476 0.16673103 0.25235942 -0.12057052 0.16016069

policy_net.8.weight f4 [4, 64]
00000000: ddca 05be 905c 293d 54dc b7be c69d c23d
00000010: 1b2f d53d d8a5 c13d 3399 c23c 50c4 76bd
00000020: 4dde 21be a277 f33c c059 b33c 2a6d 123e
00000030: a121 26bd fd41 363e 1962 983c d9dc 953d
00000040: c4c2 463d 9ec3 6dbd 01f0 4cbd aaf6 e03d
00000050: 391c e73d 354d c23d 2c9d 87bc e487 8d3d
00000060: 9e0c b2bd 2ede b2bd 9fc4 153d dec3 853d
00000070: 07d5 3abd d0aa 4cbd 1d8f e4bc 1b8c abbc
00000080: 4c26 453d c79d f03c af66 45bd d996 54bd
00000090: e3be 263d 1bb4 873d 344a 3a3c 9706 09bb
000000a0: b48a a23d a100 ffbd dbd0 1b3d ed9d 5fbd
000000b0: 1e11 e3bc cfa1 7cbd ba1a a83d 1eaa 7e3b
000000c0: bb11 7bbd 983d d13d e100 34bd f0fa 0dbc
000000d0: 815d af3e 194c e13c 44fd bfbd 2077 79bd
000000e0: b0e5 20be 9ab6 5f3d 75cd 7d3d 26b6 5cbd
000000f0: 4c3a fe3d 4fc0 47bd fa5b adbb 2c02 36bd
00000100: 98e8 223d 92dd 03bd 7e04 993e 5d9e 7dbb
00000110: 791b 033e e187 803d 5186 8d3c c5a3 0ebd
00000120: 8e81 903e 85f5 623c dcc2 b0bc b870 8abd
00000130: db06 a53d ba8f 853d 62d6 ea3c 2cf3 29be
00000140: 7f2f a53c 1f20 21bd b25e 8abd a1ad c4bb
00000150: fddf bf3d b6e8 743d 8998 19bd 8e90 223d
00000160: b177 e1bc 460f 8abd e18e 6c3c a47d 0d3d
00000170: f78b 55bd 0e23 9cbd 1f18 ccbd ac25 c33d
00000180: 7c0b 943d d764 c43d 0b61 bcbd 97a6 6a3c
00000190: 4529 dfbb 207c ce3d ee96 623c eaa8 b73d
000001a0: 675c 6d3d ce4b 29bd 1b4b ea3d f2fe 88bd
000001b0: ce51 c0bd f268 57bd 7722 133d 0bd3 763d
000001c0: b70c 883d 434b 74bd 05e9 24bc 70d0 97bd
000001d0: 6bc9 383e 56e6 ca3d b68a 6dbd f7e5 543c
000001e0: c99a e8bd 8ee9 ddbd e712 94bd d953 d9bd
000001f0: 3fdf 5c3d 301c 48bd 4c75 9e3d 20ce 7e3d
00000200: ca88 b63d ade2 ab3c a46d 663d 5d35 01be
00000210: 52b2 1cbe 741e 8abd 5793 3fbe 7069 be3d
00000220: 66b4 df3d 1ce3 c73d fc94 bcbd f734 3cbd
00000230: c7d9 df3d 06f6 11bc 8be5 14be d104 7a39
00000240: e547 afbd db69 b5bd 8641 a0bc 2f28 8bbd
00000250: e36d aebe 01c3 5cbb e722 87bd 9ae0 83bc
00000260: a264 003e 8021 fa3d f897 ac3d 524d 993d
00000270: 8f4c b73d b63c c83d df98 bbbc bd72 6a3b
00000280: 45c1 e9bd 40b8 c6bc 978a 20bc ee3f 5bbd
00000290: 7239 713e 199e a3bd aa55 413d cce2 61be
000002a0: 2670 8bbe 8f22 a73d ab44 68bd 8e36 643e
000002b0: 6f71 ed3d 6297 7d3e f64a 4dbe 057e a83d
000002c0: 8c4e 013e c6fd 26bd 8e7c cdbc 12f1 883d
000002d0: 967c 4e3e 380c e6bd e4c6 8f3d 427f dd3c
000002e0: 0ea6 813e fe03 13bb 467e 1abd bcda 303e
000002f0: f746 72be 1e1c ab3d 2097 f6bd eb06 ab3d
00000300: af1a 88bd ea31 d0bd f813 08bd 4856 e9bc
00000310: 28c8 0d3d d063 58bc 4a5f c73d 697e 9fbc
00000320: 4709 6fbd 2d71 da3d c706 a83c 8462 28bd
00000330: 4bae b03c 4761 3c3b 1ff7 d83d 794e 31bd
00000340: 16f3 c3bd 5c17 9d3d 6926 4e3c b426 413d
00000350: 3249 c5b9 eee2 8b3b 8025 c5bd c5dc 87bc
00000360: 5af3 97bb e828 703d 933a acbb 662e e5bc
00000370: bf62 1cbd 4712 4fbc 2efc 99ba 1948 78bb
00000380: 8b2f fb3c 8292 0a3c 373b 413d c101 eabc
00000390: 4370 4bbd a41a fa3c a0b2 aabd cf57 91bb
000003a0: 13af 553d f7ed 903d 019f 0e3d 57fc 05bd
000003b0: e37a 59bd 5987 34bd 8415 6e3c 8eeb a9bd
000003c0: 3f7e 81bd c81d 8ebd 0b0f 8cbd f8d4 4dbd
000003d0: 0e9c 533d c0c1 b93d 352d 893c a5d1 763d
000003e0: 1a43 fdbd 60a4 e9bb 6036 a0bc ad96 69bd
000003f0: 88e8 653d 0ee6 74bd 627a 82be a7d3 2a3d
-0.13065667 0.04134804 -0.35910285 0.09502749 0.10409375 0.0945546 0.023754692 -0.060245812
-0.15807457 0.029720131 0.021893382 0.14299455 -0.040559415 0.1779861 0.018601464 0.07317514
0.048525587 -0.058047883 -0.050033573 0.109845474 0.1128468 0.09487382 -0.016554438 0.06910685
-0.08693813 -0.08733784 0.036564466 0.06531499 -0.045613315 -0.049967587 -0.027900273 -0.02094083
0.048132226 0.02937211 -0.04819363 -0.051901672 0.040709388 0.06626149 0.0113702305 -0.002090847
0.07936612 -0.12451292 0.038040977 -0.05459397 -0.027718123 -0.06167775 0.08208223 0.0038858722
-0.061296206 0.10216826 -0.04394615 -0.008665785 0.34251025 0.027502107 -0.093744785 -0.060904622
-0.15712619 0.0546175 0.061963517 -0.053884648 0.12413463 -0.048767384 -0.0052905055 -0.044435665
0.0397726 -0.032193728 0.2988624 -0.0038699128 0.12803449 0.06275917 0.017275961 -0.03482415
0.28223842 0.013852482 -0.021577291 -0.06759781 0.08057948 0.06521554 0.028666679 -0.16596669
0.02016425 -0.039337274 -0.06756343 -0.0060021435 0.09368894 0.059792243 -0.037498984 0.03968864
-0.027522894 -0.067411944 0.014438362 0.03454365 -0.052135434 -0.07623874 -0.09965538 0.0952867
0.07228753 0.09589546 -0.09198197 0.014321945 -0.0068103396 0.10082269 0.01382993 0.08967765
0.05794945 -0.04133206 0.114401065 -0.06689252 -0.09390603 -0.052590318 0.03592154 0.06025986
0.0664305 -0.059642088 -0.010065322 -0.07412803 0.18045585 0.09907214 -0.057993613 0.012994281
-0.11357648 -0.10835563 -0.07230168 -0.10611696 0.05392384 -0.048855007 0.07737216 0.062208295
0.08912809 0.02098211 0.056256905 -0.12618013 -0.15302399 -0.0674409 -0.1870855 0.09297454
0.1092308 0.097601146 -0.09208104 -0.04594895 0.109302096 -0.008908754 -0.14540689 0.00023843652
-0.08558635 -0.08858081 -0.019562494 -0.06794774 -0.34068212 -0.0033685567 -0.06598454 -0.01609831
0.12538388 0.12213421 0.08427423 0.07485451 0.08950149 0.09777205 -0.022900043 0.0035773956
-0.11413816 -0.02425778 -0.009798667 -0.053527765 0.2355707 -0.07989139 0.047200836 -0.22059172
-0.27234 0.081608884 -0.056706112 0.22286436 0.11593901 0.24764779 -0.20048127 0.08227161
0.1262762 -0.04076936 -0.025083806 0.066866055 0.20164713 -0.11232799 0.07020357 0.02703822
0.25322002 -0.00224328 -0.03771808 0.1727094 -0.23659883 0.08354972 -0.120405436 0.08350929
-0.066457145 -0.1016577 -0.03322217 -0.028483525 0.034614712 -0.013207391 0.09734972 -0.019469457
-0.058358457 0.10666118 0.020511044 -0.041109577 0.021567484 0.0028744505 0.105940096 -0.043287728
-0.09567849 0.07670471 0.0125824 0.04715605 -0.00037629303 0.0042689955 -0.09626293 -0.016584763
-0.004637164 0.05863276 -0.005256006 -0.027976226 -0.03818011 -0.012638635 -0.0011748129 -0.003788477
0.030662319 0.008457782 0.047175612 -0.02856529 -0.049667608 0.030530281 -0.08334851 -0.0044355164
0.052168917 0.07076638 0.034819607 -0.032711353 -0.05309571 -0.04407439 0.014531497 -0.082968816
-0.06322908 -0.06939274 -0.06838807 -0.05025193 0.051662497 0.09070158 0.01674519 0.060258526
-0.12366314 -0.0071301907 -0.019557178 -0.05702846 0.056129962 -0.05978971 -0.25483996 0.041705754

policy_net.8.bias f4 [4]
00000000: 9666 973d 157e 02bc 5f19 e23d 5b35 523e
0.073926136 -0.007964631 0.110399954 0.20528166

inverse_net.0.weight f4 [64, 48]
00000000: 69bd b23d b7eb 953f 5742 d3be 2444 3d3e
00000010: 382f 00be 2f23 8f3e 3719 81be d0dd 9c3e
00000020: bc98 b83d ae53 b83e bd9c 91be 1221 56be
00000030: 4f5c 86be ab1a 2fbd a320 f7bc e0ff 203e
00000040: 22c6 abbd 6cc7 22bd 24a7 a13d d31a b73c
00000050: 1051 ddbc 0693 aebd 1479 6abd 2595 21be
00000060: a092 563e 635d 87be e07e 39be 1233 e8bf
00000070: eb7c 393d 256d 8e3c baf8 28bf 3ace 11bf
00000080: 6d67 2bbc 2696 a43e 15eb 083e 4db0 cebd
00000090: 9ef4 073e b523 90be 611f 04bd 37ec a83d
000000a0: be6a a7bc 9eba bf3d 9fc1 483d b26f e23d
000000b0: 55c3 a73d 4482 fcbc f093 e7bd c9fa d8bc
000000c0: a333 503d 15c2 4c3f f0a4 b93e 783b 953e
000000d0: 3e33 d13d d7fe 87bc ad21 13bd f2d4 45bb
000000e0: a3f1 ec3b 30ff 2b3e 882b 933d 2483 9fbd
000000f0: 1c5d 113d 22a3 0ebc 4351 9fbd 3efc 7f3b
00000100: 93e7 25bd 42ef d8bd 4c31 0ebc 63f7 a33d
00000110: dc58 08be 5123 8b3d b59d 36be 5d41 573e
00000120: 081c 30bd 14bf dcbf e287 dfbe b8c6 7f3f
00000130: ca20 343d f3f3 1bbd 673d ee3c 5d3b a5bb
00000140: 1eea 26bc 2086 653e dbd1 a440 2e33 ca3c
00000150: 3efb 23bd b23e 50bc 420a 9a3d 530e b3bd
00000160: 4970 89bd 00f0 fc3b cab3 41bd 9fc6 90bd
00000170: 3c00 8abd 4bf6 3bbe 7ad2 a43d b101 45bd
00000180: f5c9 c53e 5d7b b0bf c85b 2b3e 6dda 483e
00000190: 7db9 cdbe 7311 853e c394 e1be ac8e 43be
000001a0: 2781 313d 286e b5bd c0d1 c0be 3d1c 1e3e
000001b0: d2a3 b4be 900e 373e 4646 253d f0b3 bdbd
000001c0: bf51 44bd ee26 99bd bd91 03be bc51 e6bd
000001d0: 1ffe 2dbe c72c 51be 4f55 23be 1c5c 64bd
000001e0: 4acc 9a3e 392c 0f3f 3909 e9be 8c9b 25c0
000001f0: 349a 1abf 8d40 8bbe 9ca4 36bf 4590 24be
00000200: 8008 c0bd e9df adbd f971 e03c 8853 2f3e
00000210: c0b1 46be f4b4 633d 5300 63be 2365 d43c
00000220: 587d a23c 27a8 2dbe 4e70 25be b07b 56be
00000230: d342 0dbd 2fbc 7ebe a1fd 44be 463a 823d
00000240: d820 d7bd 4ebf 3340 a8b4 cf3e a3c7 73bf
00000250: ce1b 763e de0b 1ebf 784c 95be 6ab0 f5bd
00000260: 3a98 4bbd 42bd 023e 5b59 e3be 55d0 babd
00000270: b141 8c3d 3ac8 133e 0dfa c5bd c596 ccbd
00000280: 6e68 25be f967 16bd f2b3 6c3d ff71 83bc
00000290: ad73 bbbd 1d40 d03d 001d 8c3e 08c4 30bd
000002a0: bfb2 bdbd 74d3 5a3e 0a56 b53f af95 f5be
000002b0: f551 833e a59c 233f 51f8 65be 5bd9 e1be
000002c0: ed2e 1dbe 5fb0 883d 150c dc3d b5f0 e03d
000002d0: c43e 5b3e 54b5 4fbd 3cd5 1cbe 3895 21be
000002e0: 77d7 fabd 3f4d 12be 38e7 b6bd bcb4 d9ba
000002f0: 0000 1cbe ea3d 023e d4aa a73e d597 a0bd
00000300: c556 00bf 3359 0fbf c9b3 ddbf 2fda 9b3f
00000310: 3763 273e 15d4 b7be a7eb e93e bc01 b4be
00000320: 8208 c43d a7dd 88be c788 17be 2960 7b3e
00000330: 5cb8 4bbe f4c6 81bd a3aa 39bd d57e 94bc
00000340: e003 20be 74a9 6c3c 6c67 27be 3158 c63c
00000350: 0a65 14bd 6165 59be 2458 62be 636a f13d
00000360: 22de 55bf d501 57c0 3ff1 02bd 32cf 02c0
00000370: da69 d43d c2a4 0c3f 9878 1b3f f93f 073f
00000380: 89e6 14bd 1ceb b3be 5095 83bd ce9c 94bc
00000390: e7d9 25be 85dc 7e3c d38b 8abd 1cb5 a4bc
000003a0: c29f 09be 8654 1ebe ebaf 103d 3269 3abd
000003b0: 1a37 05be 4887 15be afd7 11be 0095 7c3d
000003c0: 71a4 29be 174e b83d b28c 4ebf f71d c0bf
000003d0: 0576 b7bd c8b2 c13e 8ce5 0c3e 7ca4 993e
000003e0: 74ca e2bd a1c5 d9be c3ac 6cbf 5611 00bf
000003f0: 01e3 093e 9a9a 0cbe 9450 f73c 36b9 bfbc
0.08727533 1.171256 -0.4126155 0.18483025 -0.12518013 0.2795653 -0.2521455 0.3063798
0.09013507 0.36001343 -0.28439894 -0.20911053 -0.262423 -0.042750042 -0.03016693 0.15722609
-0.083874 -0.039740965 0.07893208 0.022351658 -0.027016193 -0.08524136 -0.057244375 -0.1577955
0.2095437 -0.26438436 -0.18114805 -1.8140585 0.045285147 0.017386029 -0.66004527 -0.569553
-0.01046167 0.32145804 0.13370927 -0.100922205 0.13276908 -0.28152242 -0.032256488 0.082481794
-0.02043664 0.09361766 0.049012776 0.110564604 0.081915535 -0.030823834 -0.11307514 -0.026486771
0.050830495 0.79983646 0.3625865 0.29146934 0.10214852 -0.01660101 -0.035920788 -0.003018674
0.007230954 0.16796565 0.07186037 -0.07788685 0.035489187 -0.008705886 -0.07779171 0.003906026
-0.04050405 -0.1059251 -0.0086787455 0.0800617 -0.13315147 0.067938454 -0.17833598 0.21021028
-0.042995483 -1.7245812 -0.43658358 0.99912596 0.043976583 -0.038074445 0.029082013 -0.005042477
-0.010187654 0.22414446 5.150617 0.024682608 -0.040034525 -0.01271026 0.07521488 -0.087429665
-0.0671087 0.00771904 -0.0472906 -0.07069134 -0.06738326 -0.18355672 0.08047958 -0.048097316
0.38630643 -1.3787647 0.1673423 0.19614573 -0.4018058 0.25989875 -0.4405881 -0.19097394
0.04333606 -0.08858901 -0.37660027 0.1544046 -0.35281235 0.17876649 0.04035022 -0.09262836
-0.04792952 -0.074781284 -0.12848563 -0.11246058 -0.16991471 -0.20427237 -0.15950511 -0.055751905
0.30233985 0.55926853 -0.4551485 -2.5876188 -0.60391545 -0.27197686 -0.71344924 -0.1607066
-0.09376621 -0.08489973 0.027398096 0.17121708 -0.19403744 0.055592492 -0.22168092 0.025927132
0.01983516 -0.16958676 -0.16156122 -0.2094562 -0.034487557 -0.24876474 -0.19237377 0.06358771
-0.10504311 2.8085513 0.40567517 -0.95226496 0.24034044 -0.6173686 -0.29159904 -0.11996539
-0.04970572 0.12767509 -0.4440411 -0.091217674 0.06848467 0.14431849 -0.09666834 -0.099896945
-0.16153118 -0.03672025 0.057788797 -0.016045569 -0.09152923 0.10168479 0.27365875 -0.0431557
-0.09262609 0.21369725 1.4166882 -0.47965762 0.25648466 0.63910896 -0.22458006 -0.44111142
-0.15349932 0.06674265 0.10744492 0.10983411 0.21410662 -0.050710037 -0.15315717 -0.15779579
-0.12248128 -0.1428728 -0.0893082 -0.0016609649 -0.15234375 0.12718931 0.3274752 -0.0784146
-0.501324 -0.5599548 -1.7320491 1.2175959 0.16346441 -0.35903993 0.456876 -0.35157573
0.09571935 -0.26731607 -0.1479827 0.24548401 -0.19894546 -0.063367754 -0.045328747 -0.018126884
-0.15626478 0.014444698 -0.16348046 0.024211975 -0.03622917 -0.21230079 -0.22103935 0.1178787
-0.8354207 -3.3594868 -0.03196835 -2.0438962 0.10371752 0.549389 0.60730886 0.5283199
-0.036352668 -0.35140312 -0.064249635 -0.018141177 -0.16196404 0.015555506 -0.067649506 -0.02010589
-0.13439849 -0.1546193 0.03532402 -0.04551048 -0.13009301 -0.14602387 -0.14242433 0.061665535
-0.16566636 0.089992695 -0.80683434 -1.5009145 -0.08958057 0.37831712 0.1375944 0.30008304
-0.11073771 -0.4253359 -0.92451113 -0.5002645 0.13465501 -0.13730851 0.03018979 -0.023403745

inverse_net.0.bias f4 [64]
00000000: 923d 01be e487 363e 28d6 223e 65bd 8dbd
00000010: 5e9e d73d 1f92 99bd 4b14 35bd ff78 f4bd
00000020: 77e5 33be 3bc3 193d 0b41 0fbe f068 e23d
00000030: ba8e a2bd b247 16be 70cc 81bd 638e 59be
00000040: 97a8 43be d741 383e 0d20 5b3d 07b6 fabc
00000050: 56fc bd3d 620d 2c3e 32d3 06be e265 383c
00000060: eb5f 84bc a5f7 86bd 75c4 1abd 28e1 2abd
00000070: 5eda 8ebd aef7 23be f758 80be 9c90 45be
00000080: 0a03 71bd 426e ad3d aab1 bdbd f791 53be
00000090: d764 22be 72a1 3bbd 7775 2fbe 92ba c7bd
000000a0: 6d3a bf3b 3534 f4bc ac27 963c c9f1 543e
000000b0: ab43 d93d 6c8d 48bd 223b 0b3d 55be e6bc
000000c0: 9013 a5bc 7c34 77bb 0975 423d e7ae 0ebe
000000d0: e954 933d fc98 84be bca7 ecbd 1819 db3d
000000e0: 1e10 73bd 2c37 02be 9b2e acbd 82cf 063e
000000f0: d2a8 883c 3a0b fbbd 0afe 113e c955 34bd
-0.12621143 0.17825276 0.15902007 -0.0692089 0.10528253 -0.074985735 -0.044208806 -0.11937141
-0.17568003 0.037539702 -0.13989656 0.110551715 -0.07937379 -0.14675787 -0.063378215 -0.21245722
-0.1910728 0.17993866 0.053497363 -0.030604376 0.09276645 0.1680198 -0.13166502 0.0112547595
-0.016159019 -0.06590203 -0.037785012 -0.041718632 -0.06975244 -0.16012451 -0.25067875 -0.19293445
-0.05884079 0.08468296 -0.09262402 -0.2066115 -0.1585878 -0.045808263 -0.17134653 -0.09752382
0.0058358223 -0.02981005 0.018329464 0.20795359 0.1060861 -0.048962995 0.03399194 -0.02816693
-0.02015093 -0.0037720492 0.047474895 -0.13933907 0.0719393 -0.25897968 -0.1155543 0.10698146
-0.059341542 -0.12716359 -0.08407327 0.13165095 0.016682062 -0.12258001 0.14257064 -0.044027124
