IL/Model/model_reacher_85.pt (torch, 292527 bytes, 20 tensors)

policy_net.0.weight f4 [64, 24]
0	0xbf325247	-0.69656795
1	0xbfbea270	-1.4893322
2	0x3eb771f5	0.3582913
3	0x3def29b4	0.11677876
4	0x3eb68911	0.35651448
5	0xbe7ec310	-0.24879098
6	0x3ee5b800	0.44866943
7	0xbd8b33f4	-0.06797019
8	0x3e4e35fb	0.2013778
9	0x3e41f5b1	0.1894138
10	0x3cc494ff	0.023996828
11	0xbd2b4bdf	-0.041820403
12	0xbd884f58	-0.066557586
13	0xbd5efcac	-0.054440185
14	0x3edbac9e	0.42905134
15	0x3e56eff0	0.20989966
16	0x3e8646a4	0.2622577
17	0x3d4726ea	0.048621096
18	0xbeeaa938	-0.4583223
19	0xbf4e9d8e	-0.8070916
20	0xbf15926c	-0.5842655
21	0xbd4c03d2	-0.04980833
22	0x3e8c7eab	0.2744039
23	0x3d6c92e5	0.057757277
24	0x3e82f13f	0.2557468
25	0xbf8add33	-1.0848755
26	0xbe8dbd25	-0.27683368
27	0x3dd52291	0.10406984
28	0x3ea24af8	0.31697822
29	0x3e988534	0.29789126
30	0x3f97e26c	1.1865973
31	0xbed23856	-0.41058606
32	0xbe0fa866	-0.14029083
33	0xbecda5fa	-0.40165693
34	0x3ee6d2be	0.4508266
35	0x3cbc60f7	0.022995455
36	0xbc91335e	-0.01772469
37	0xbed8d775	-0.4235188
38	0xbd3a6663	-0.0455078
39	0xbe00ef4d	-0.12591286
40	0xbe2aa2f6	-0.16663727
41	0xbe9c1323	-0.3048335
42	0xbed4c8b6	-0.4155938
43	0xbe92d858	-0.28680682
44	0xbec3c988	-0.38239694
45	0x3dab0eed	0.08352456
46	0xbe1debce	-0.15421984
47	0xbd88ab5b	-0.066733085
48	0x3ded94a9	0.1160062
49	0x3f7ef49e	0.99592006
50	0xbf10079d	-0.56261617
51	0x401cf901	2.452698
52	0xbd8ba93d	-0.06819389
53	0xbe0e124c	-0.13874167
54	0xbae5b7b8	-0.0017526066
55	0x3ddd65de	0.10810445
56	0x3f373211	0.7156077
57	0xbd93bbd5	-0.072135605
58	0x3e04c721	0.12966587
59	0xbd987a68	-0.07445222
60	0x3f19219b	0.598169
61	0x3ee2775d	0.44231692
62	0xbdf7f456	-0.1210715
63	0xbe37d574	-0.1795252
64	0xbe25d5ee	-0.16194889
65	0xbe836163	-0.25660238
66	0x3c02e32c	0.007988732
67	0x3d049596	0.03236922
68	0x3db6e10d	0.08929644
69	0x3e549df5	0.20763381
70	0xbe13921d	-0.14411207
71	0xbe8876ce	-0.2665314
72	0x3f0aaf7c	0.5417402
73	0x3f4c6ae9	0.7985063
74	0xbf0e0c38	-0.55487394
75	0xbfee4861	-1.8615838
76	0x3ee6bd5c	0.45066345
77	0x3e6272ec	0.22114152
78	0x3eed5561	0.463542
79	0x3e121070	0.14264083
80	0xbd9dc86b	-0.07704242
81	0x3e2e6a31	0.17032696
82	0xbe34328f	-0.17597412
83	0xbf531d4e	-0.8246659
84	0xbd8c3244	-0.06845525
85	0xbcce69e1	-0.025196971
86	0xbbd78b7d	-0.0065779076
87	0xbdad62f9	-0.08466143
88	0xbdf7d467	-0.121010594
89	0xbd982581	-0.07429028
90	0xbe166657	-0.14687477
91	0xbedbd705	-0.42937484
92	0xbe09e2f9	-0.1346549
93	0xbe860828	-0.26178098
94	0xbe0bc6fb	-0.13650124
95	0x3da5d66b	0.080975376
96	0xbd8a333b	-0.06748053
97	0x3ebbc26c	0.3667177
98	0xbe6d44ee	-0.23170826
99	0x3eb9f843	0.3632222
100	0xbc0f50e8	-0.008747317
101	0x3e31af0b	0.1735193
102	0x3dca68e1	0.09883285
103	0x3dbaee39	0.091274686
104	0xbcaced1a	-0.021109153
105	0xbe7aadd8	-0.24480379
106	0xbe66d5d2	-0.22542503
107	0x3f085310	0.53251743
108	0xbf3a6035	-0.7280305
109	0xbc45d156	-0.012073835
110	0x3e815cce	0.25266117
111	0x3e46e45d	0.19423051
112	0x3ed8c0f2	0.42334706
113	0x3eb83465	0.35977474
114	0x3e51affe	0.20477292
115	0x3e8343dc	0.2563771
116	0xbde0d15c	-0.10977432
117	0xbe7094c5	-0.23494251
118	0xbe67f3b5	-0.2265156
119	0xbd4e55fb	-0.050374966
120	0xbec967d2	-0.3933702
121	0xbf9b483a	-1.2131417
122	0x3f061b4a	0.5238539
123	0xbffac81e	-1.9592321
124	0xbe1d4daa	-0.15361658
125	0xbe1bfbad	-0.15232725
126	0x3ea3c0bf	0.3198299
127	0xbe805d77	-0.25071308
128	0xbf6aabad	-0.91668206
129	0x3ec2cf84	0.38048947
130	0xbe9fec9f	-0.31235215
131	0xbd8b1474	-0.067910105
132	0xbde08dbf	-0.10964536
133	0xbe8a1643	-0.2697011
134	0x3e0f241d	0.1397862
135	0x3e17d676	0.14827904
136	0x3e4d9dc8	0.2007972
137	0x3e390ca6	0.18071231
138	0x3ecbdd55	0.398173
139	0x3ef5f437	0.48037884
140	0x3e8ac601	0.2710419
141	0x3df8dc68	0.12151414
142	0xbe28a63a	-0.1646966
143	0xbd8c4d4b	-0.0685068
144	0xbec6da98	-0.3883865
145	0x409ac37d	4.8363633
146	0x3e60022e	0.21875831
147	0xbf821c8a	-1.016496
148	0xbee5a63b	-0.44853386
149	0x3f158620	0.58407784
150	0xbeea6c3a	-0.45785695
151	0x3e8c323e	0.27382082
152	0x3e27f3a3	0.16401534
153	0xbdb05ec8	-0.08611828
154	0x3e9f8c23	0.31161603
155	0xbe1a61ae	-0.15076324
156	0x3db7ab70	0.08968246
157	0x3e0c3d95	0.13695367
158	0x3e0bdae6	0.13657722
159	0xbd80e439	-0.0629353
160	0x3e6fc090	0.234133
161	0x3e8c418b	0.27393755
162	0x3dbdede2	0.09273888
163	0x3ea677ef	0.32513377
164	0x3e270abb	0.16312687
165	0xbe259afa	-0.161724
166	0xbedc568b	-0.43034777
167	0xbe2cfdf3	-0.16893749
168	0x3caa941b	0.020822575
169	0x3f16d501	0.5891877
170	0x3f6341e7	0.88772434
171	0x3fe39514	1.777987
172	0xbe5e6d3f	-0.21721362
173	0x3e3e5b67	0.18589555
174	0x3e3ac429	0.18238892
175	0xbdefa5a4	-0.11701515
176	0x3e20a144	0.15686518
177	0xbeeaeffc	-0.4588622
178	0x3b614377	0.0034372488
179	0x3edbbdf6	0.42918366
180	0xbe8de7fa	-0.27716047
181	0x3c2b5cde	0.010459153
182	0xbe8cfedc	-0.27538192
183	0xbdb0a508	-0.08625227
184	0xbe1aad73	-0.15105228
185	0x3e2d7510	0.16939187
186	0xbc9f22a4	-0.019425698
187	0xbb641a56	-0.0034805737
188	0x3e210b67	0.15727006
189	0xbe83dc60	-0.2575407
190	0xbd3e4d74	-0.046460584
191	0x3da513ab	0.08060392
192	0x3f8a612c	1.0810905
193	0x3ddec604	0.10877612
194	0xbf2a2750	-0.66466236
195	0xbf3787fa	-0.7169186
196	0xbdbb57f4	-0.09147635
197	0x3eb0d002	0.34533697
198	0xbe9de917	-0.30841896
199	0x3e450b18	0.19242513
200	0x3dfaedde	0.12252401
201	0x3ed234f4	0.41056025
202	0xbd4a1100	-0.04933262
203	0x3e253363	0.16132884
204	0x3dceddf9	0.10100932
205	0x3e155157	0.1458181
206	0xbe5648d3	-0.20926218
207	0xbd8aa264	-0.06769255
208	0xbde47a38	-0.11156124
209	0xbe55748e	-0.20845243
210	0x3db7427c	0.08948228
211	0xbdeb48d7	-0.114885025
212	0x3c907fba	0.01763903
213	0x3da6fded	0.08153901
214	0xbd881e34	-0.06646386
215	0x3e75f901	0.24020769
216	0x3eb0377c	0.3441733
217	0x3fc5ca38	1.5452337
218	0x3e4eb655	0.20186742
219	0xbffb0706	-1.9611518
220	0xbf007407	-0.50177044
221	0x3ead3ab3	0.33833846
222	0xbe84e197	-0.2595336
223	0x3d9a4275	0.07532207
224	0x3d10426f	0.035219606
225	0x3ef6ea6c	0.48225725
226	0x3f212e02	0.6296083
227	0xbeaf3e2f	-0.3422713
228	0xbe1a7eda	-0.15087453
229	0xbeb40e4c	-0.35167158
230	0x3ec16358	0.37771106
231	0x3e906609	0.28202847
232	0x3e77af32	0.24187925
233	0x3dc11c90	0.09429276
234	0x3e1ab3b2	0.15107611
235	0xbe8ead6e	-0.2786669
236	0xbef3d15b	-0.47620663
237	0xbea54edf	-0.32286736
238	0xbe032210	-0.12805963
239	0x3d91131d	0.07083724
240	0x3f37f9a3	0.7186529
241	0x4006b898	2.1050167
242	0x3ec35833	0.38153228
243	0xbf79591f	-0.97401613
244	0x3ec028c4	0.37531102
245	0x3e10b836	0.14132771
246	0xbf2867f7	-0.6578364
247	0xbd996af2	-0.07491101
248	0xbea0a1e8	-0.31373525
249	0x3f18e1a7	0.5971932
250	0x3eb3d738	0.35125136
251	0xbd096895	-0.033547003
252	0x3e3e2a87	0.1857091
253	0x3e783c93	0.24241857
254	0xbf10c5c3	-0.5655176
255	0xbf0c6b1f	-0.54850954

policy_net.0.bias f4 [64]
0	0xbd50deda	-0.050993778
1	0xbd09bdbc	-0.03362821
2	0xbe90e5b0	-0.28300238
3	0xbcad04ee	-0.021120515
4	0x3e232c9e	0.15934989
5	0xbebd1b9c	-0.36935127
6	0x3e00cb3f	0.12577532
7	0xbcab554b	-0.020914694
8	0x3e44a3d4	0.1920312
9	0x3e38ef01	0.18059923
10	0xbdb0e8d6	-0.0863816
11	0x3c97a73d	0.018512363
12	0xbee3274a	-0.44365913
13	0xbebdb8af	-0.37054965
14	0x3e968ad7	0.294028
15	0x3d875235	0.066074766
16	0x3deaf119	0.11471767
17	0x3e95ba04	0.2924348
18	0x3e0620a4	0.13098389
19	0xbe25be44	-0.16185862
20	0x3d04812d	0.032349754
21	0xbe1682a6	-0.14698276
22	0xbe6da73b	-0.23208325
23	0x3d8c1d55	0.06841532
24	0xbd165cf5	-0.036709744
25	0x3de39375	0.111121096
26	0x3e9588e0	0.2920599
27	0x3ddd83f8	0.10816187
28	0x3e28df1a	0.16491356
29	0x3b0b6d01	0.0021274688
30	0xbe0bde43	-0.13659005
31	0xbd6def6c	-0.05808966
32	0x3e1e2f2f	0.15447687
33	0x3e797b48	0.24363434
34	0xbd7bb831	-0.061454955
35	0xbdc2d1c6	-0.09512667
36	0xbc9e1dad	-0.01930126
37	0x3a581208	0.0008242433
38	0xbe0465bd	-0.12929435
39	0x3ea2fef4	0.3183514
40	0x3daaf57a	0.08347602
41	0xbea049a2	-0.31306177
42	0x3dc9485e	0.09828256
43	0xbd048992	-0.03235776
44	0xbe572a20	-0.21012163
45	0xbe8d81bb	-0.2763804
46	0x3ec738d5	0.38910547
47	0xbcc9792c	-0.024593912
48	0xbcd921a2	-0.026505295
49	0x3e7e1ad5	0.24814923
50	0x3e2679be	0.16257378
51	0xbcf5269f	-0.029925643
52	0x3e2239e8	0.15842402
53	0x3e85d109	0.26136044
54	0x3d47f268	0.04881516
55	0x3ea18a92	0.31551033
56	0xbe94759d	-0.28995982
57	0xbc4749f7	-0.012163631
58	0xbe471f09	-0.19445433
59	0x3e320cf1	0.17387749
60	0x3e9f2e8e	0.31090206
61	0xbe8afbd1	-0.27145246
62	0xbe2bbb54	-0.16770679
63	0xbd16aef5	-0.036787946

policy_net.2.weight f4 [128, 64]
0	0xbe78bdc7	-0.24291144
1	0x3e23161c	0.15926403
2	0xbebaa7be	-0.36456102
3	0xbe860baf	-0.2618079
4	0x3d9814cc	0.07425842
5	0x3ec08f0e	0.37609142
6	0x3d35847f	0.04431581
7	0x3e62582d	0.22103949
8	0x3dfe1a4b	0.12407359
9	0x3df53137	0.119722776
10	0xbdd2ff24	-0.103025705
11	0xbf47d075	-0.78052455
12	0x3e4e70c8	0.2016021
13	0xbe6a0b0e	-0.2285578
14	0x3d58ac84	0.0528989
15	0x3f0c0795	0.5469907
16	0xbe9fb0c9	-0.31189564
17	0x3c8684be	0.016420718
18	0xbe257691	-0.1615851
19	0x3bf63626	0.007513779
20	0xbe25f0ec	-0.16205186
21	0xbe4cb28e	-0.19989988
22	0x3e230902	0.15921405
23	0x3ee28170	0.44239378
24	0x3e59c74d	0.21267433
25	0xbebc88b4	-0.36823046
26	0xbebe360e	-0.37150615
27	0x3f302429	0.68805176
28	0x3d8aec05	0.067832984
29	0x3e2d944c	0.16951102
30	0xbf51ad93	-0.8190548
31	0xbe491c25	-0.19639643
32	0xbeda6a7a	-0.4265936
33	0x3c5b09b6	0.0133690145
34	0x39467664	0.00018926855
35	0xbe2cf261	-0.16889335
36	0x3e079886	0.13241777
37	0x3e1fb08b	0.1559469
38	0xbe81c4c2	-0.25345427
39	0xbebc2690	-0.3674817
40	0x3e37e847	0.179597
41	0xbf6b0f83	-0.91820544
42	0xbe1120d3	-0.14172678
43	0x3f98469a	1.1896546
44	0xbe2418c3	-0.16025071
45	0x3e2a2c8b	0.16618554
46	0x3dc2d695	0.095135845
47	0x3da36a0f	0.079792134
48	0x3dd20eb2	0.10256709
49	0xbf47825b	-0.7793328
50	0xbc0f5f97	-0.008750818
51	0x3c8e2e77	0.01735614
52	0xbe078406	-0.13233957
53	0xbe9d4881	-0.3071938
54	0x3ea5bd38	0.32370925
55	0x3dae77a2	0.08518912
56	0xbddb5dbe	-0.10711239
57	0x3d30fd14	0.043210104
58	0x3e8b8f2f	0.27257678
59	0xbcff9d82	-0.031203035
60	0xbe86e8bf	-0.26349446
61	0xbdc51cd8	-0.09624642
62	0x3e43aa3d	0.1910791
63	0x3c64f906	0.013975387
64	0xbf3872fb	-0.72050446
65	0x3f549a5b	0.8304803
66	0x3eadce1f	0.3394632
67	0x3eb6bbce	0.3569016
68	0xc01a7725	-2.413522
69	0xbebc6f44	-0.3680364
70	0x3e9fd6b4	0.31218493
71	0xbf20b7bd	-0.6278036
72	0x3c78c0a9	0.0151826525
73	0xbd9c1d4a	-0.07622774
74	0x3c93d027	0.01804359
75	0xbe9a9429	-0.30191162
76	0x3de4beb9	0.1116919
77	0x3e3e7751	0.18600203
78	0x3df821e2	0.12115838
79	0x3e01bd69	0.1266991
80	0xbe3b4938	-0.1828965
81	0x3d3b7ae8	0.04577151
82	0x3e8e96ba	0.2784937
83	0xbe0621ae	-0.13098785
84	0x3d97b234	0.074070364
85	0x3e777df3	0.2416914
86	0xbe5f6b03	-0.21818165
87	0xbf56151e	-0.8362597
88	0xbe53ab47	-0.20670806
89	0xbd830198	-0.06396788
90	0x3ef21225	0.47279468
91	0x3eca0f06	0.39464587
92	0x3db28734	0.08717194
93	0xbe72e908	-0.23721707
94	0x3d4f48a7	0.050606396
95	0xbdc07722	-0.09397723
96	0xbefe34b0	-0.49649572
97	0xbe21eabb	-0.15812199
98	0xbe3523da	-0.17689458
99	0x3db29fcb	0.08721884
100	0x3ecf476c	0.40484178
101	0x3f11562d	0.5677212
102	0x3d7a3ff7	0.061096158
103	0xbea032f7	-0.31288883
104	0xbf08a6c9	-0.53379494
105	0xbe214bb4	-0.15751535
106	0x3e442f65	0.19158705
107	0xbf45d3d9	-0.7727638
108	0x3e769e06	0.24083719
109	0x3e0c1ebb	0.13683598
110	0x3e103f35	0.14086612
111	0x3e044a16	0.12918887
112	0x3f16fe29	0.5898157
113	0x3c293f11	0.010329978
114	0xbf256ae4	-0.6461623
115	0x3df54817	0.11976641
116	0x3edc1ef6	0.4299237
117	0xbeabeda8	-0.33579755
118	0x3e014c6d	0.1262681
119	0x3e0e46b2	0.13894156
120	0xbdf9ced1	-0.1219765
121	0xbe9a829e	-0.30177778
122	0xbe4af6d8	-0.19820726
123	0x3e166465	0.14686735
124	0x3e3a822b	0.18213718
125	0x3e483f97	0.19555508
126	0xbdf9ace3	-0.12191179
127	0xbe8419fe	-0.2580108
128	0xbea8332c	-0.3285154
129	0xbe932722	-0.28740793
130	0xbf141b66	-0.57854307
131	0x3e7fbfde	0.24975535
132	0x3e1e15ac	0.15437955
133	0x3e32a775	0.17446692
134	0xbe1548bf	-0.14578532
135	0x3d965505	0.07340435
136	0x3c731221	0.014835865
137	0x3e952b9b	0.2913483
138	0xbc66f164	-0.014095638
139	0xbdd845db	-0.10560199
140	0xbe6254ce	-0.22102663
141	0xbf1fda98	-0.6244292
142	0x3e199f6b	0.1500222
143	0xbedaacbc	-0.4270991
144	0xbda3dfea	-0.080016926
145	0x3e0e5d4d	0.13902779
146	0x3ee20d84	0.44150937
147	0xbf35b3d6	-0.7097753
148	0x3e0d5f65	0.13805921
149	0xbe05ca21	-0.13065387
150	0x3e6c8db5	0.23100932
151	0xbee6140a	-0.44937164
152	0xbeeee243	-0.46657
153	0x3ee6deeb	0.45091948
154	0xbd10d909	-0.03536323
155	0x3e00f29f	0.12592553
156	0x3ec3c0f6	0.38233155
157	0xbe0aa05f	-0.13537739
158	0xbc38a2b7	-0.011269263
159	0x3ea00f5a	0.31261712
160	0x3e89dc3d	0.2692584
161	0x3d4f8f4f	0.05067378
162	0xbea48146	-0.32129878
163	0x3e0ca63f	0.13735293
164	0x3e219d5f	0.15782689
165	0xbec69032	-0.38781887
166	0x3ebbeb8a	0.3670314
167	0x3f4f9d21	0.81099135
168	0x3e241460	0.16023397
169	0xbf390e7b	-0.7228772
170	0xbe3655fd	-0.1780624
171	0x3c995c8b	0.018720886
172	0xbd7d6b0e	-0.061869673
173	0x3e239b6e	0.1597726
174	0xbe14e5b4	-0.1454075
175	0xbc6f41a3	-0.014603051
176	0xbd09bfcd	-0.03363018
177	0x3d96df87	0.07366853
178	0x3e2b25d5	0.1671365
179	0xbeabea79	-0.33577326
180	0x3ea5dab1	0.3239341
181	0xba8ba807	-0.0010654934
182	0xbe24a060	-0.16076803
183	0x3e990017	0.2988288
184	0xbf302425	-0.6880515
185	0xbda5f058	-0.081024826
186	0xbf5bc42f	-0.8584623
187	0x3e15336c	0.14570397
188	0x3ee7400a	0.45166045
189	0xbecac32b	-0.39602026
190	0xbd6d23f9	-0.057895634
191	0xbf3c100e	-0.73462
192	0xbefaff86	-0.49023074
193	0x3eebe6a3	0.460744
194	0xbee49f94	-0.44652998
195	0x3d2a9b7f	0.0416522
196	0xbe6c1205	-0.23053749
197	0xbd8bdd9c	-0.06829378
198	0xbed6a14b	-0.41919932
199	0x3d604dc1	0.054761652
200	0x3e820500	0.2539444
201	0x3eebbab5	0.46040884
202	0x3e931393	0.2872587
203	0xbe2dac6a	-0.16960302
204	0xbeb81538	-0.3595369
205	0x3d735b77	0.0594134
206	0x3eec8d3b	0.462015
207	0xbd8f1995	-0.06987301
208	0x3e19edd2	0.15032127
209	0x3e68c390	0.22730851
210	0xbcefb8cd	-0.029262925
211	0xbedea6d0	-0.43486643
212	0x3e5f97bf	0.2183523
213	0xbe756d38	-0.23967445
214	0xbe826719	-0.25469282
215	0xbe59e4e2	-0.21278718
216	0xbefd00c0	-0.49414635
217	0x3ec1e28b	0.3786815
218	0xbeb16cb9	-0.3465326
219	0xbe1547fc	-0.14578241
220	0xbe47b94e	-0.19504282
221	0xbd4c3a18	-0.04986009
222	0xbec197f5	-0.37811247
223	0xbf061299	-0.5237213
224	0x3f408d81	0.7521592
225	0x3eac1f5c	0.33617675
226	0xbe572ef8	-0.21014011
227	0x3e65eea7	0.2245432
228	0xbf031240	-0.5119972
229	0xbdf8ff02	-0.12158014
230	0x3dea82bb	0.11450716
231	0xbf2005e4	-0.6250899
232	0xbe0eac42	-0.13932899
233	0xbf120fed	-0.5705555
234	0x3def7cce	0.116937265
235	0xbf146cf1	-0.5797873
236	0xbe0e8384	-0.13917357
237	0xbf5ef998	-0.870996
238	0xbf02d715	-0.5110944
239	0x3e44b99e	0.19211432
240	0xbf2085d3	-0.627042
241	0xbe81e2c2	-0.25368315
242	0x3f27ebc2	0.6559411
243	0xbee0d291	-0.4391065
244	0x3ea74ec1	0.32677272
245	0x3eddec58	0.43344378
246	0x3eaa87d2	0.33306748
247	0x3f1333e7	0.5750107
248	0xbea7c0d9	-0.3276432
249	0xbeb911ed	-0.3614649
250	0xbe413f36	-0.1887177
251	0xbf0fde18	-0.56198263
252	0xbe0af3aa	-0.13569513
253	0xbe721f14	-0.23644668
254	0xbdcb54b6	-0.09928267
255	0x3ed1a878	0.40948844

policy_net.2.bias f4 [128]
0	0x3de88bbf	0.113547795
1	0xbe052b46	-0.13004789
2	0x3e2447a6	0.16042957
3	0x3ca1c2a4	0.019746132
4	0xb9280c61	-0.0001602634
5	0x3dc4bdf9	0.09606547
6	0xbd2667b2	-0.040626235
7	0xbda8582b	-0.08219942
8	0xb8c18b3c	-9.2288916e-05
9	0x3e312454	0.17299014
10	0xbe867357	-0.26259872
11	0xbd09753f	-0.03355908
12	0xbda30d03	-0.07961466
13	0xbe30a9a1	-0.17252208
14	0x3e0adea9	0.135615
15	0x3da5cf09	0.080961294
16	0x3e159867	0.14608918
17	0xbe9aad9d	-0.3021058
18	0x3e1cbcf5	0.15306456
19	0x3e85bec7	0.26122114
20	0xbeaca762	-0.33721453
21	0xbbb3f87e	-0.005492269
22	0xbe544474	-0.20729238
23	0xbde20e56	-0.110378906
24	0xbd7bfefc	-0.06152247
25	0xbe5b71f4	-0.21430188
26	0x3bca0091	0.0061646183
27	0x3d1d5c92	0.03841836
28	0xbc3f8916	-0.011690399
29	0xbcf4ccd1	-0.02988282
30	0xbdb67fd1	-0.08911098
31	0xbd5c5449	-0.053791318
32	0xbd56650d	-0.052342463
33	0x3d2da4fc	0.04239367
34	0xbebb07a4	-0.36529267
35	0xbe9a9050	-0.30188227
36	0xbe7e01ce	-0.24805376
37	0x3e6e7c10	0.23289514
38	0x3ed8bca7	0.4233143
39	0x3e46a3be	0.193984
40	0xbdbc925d	-0.09207604
41	0xbeb1ab3e	-0.3470096
42	0x3de8589f	0.11345028
43	0x3d4c60d5	0.049897034
44	0xbe9974f3	-0.29972038
45	0xbde22f58	-0.11044186
46	0x3c02ff0a	0.007995376
47	0x3c45d4f5	0.012074699
48	0x3e3e80d0	0.18603826
49	0xbec6d145	-0.38831535
50	0xbea4fa11	-0.32222036
51	0x3e8efe79	0.27928522
52	0xbe0fd347	-0.1404544
53	0x3e2f96a4	0.17147309
54	0xbd1f48e7	-0.038887884
55	0x3c38c61f	0.0112777045
56	0x3e40bbe4	0.18821675
57	0x3d20956e	0.039205007
58	0x3cd25542	0.02567542
59	0x3d0e7840	0.034782648
60	0xbe6e70df	-0.23285244
61	0xbd5ef400	-0.054431915
62	0x3d9b93f1	0.07596577
63	0xbe783e65	-0.24242552
64	0xbdf84a71	-0.121235736
65	0xbc70e83a	-0.014703805
66	0xbdf36d68	-0.11886102
67	0xbe5eb56e	-0.21748897
68	0x3da8921e	0.08230995
69	0x3ce6b79d	0.028163726
70	0xbe5740a8	-0.21020758
71	0xbe5c3d90	-0.21507859
72	0x3e6351ec	0.2219922
73	0xbd6fafce	-0.05851727
74	0x3e661839	0.22470178
75	0x3e827265	0.254779
76	0xbd119891	-0.03554589
77	0xbe73297b	-0.23746292
78	0x3dd7997a	0.1052732
79	0x3ce02565	0.027361581
80	0xbd1c9d75	-0.0382361
81	0xbd80886c	-0.062760204
82	0xbc766906	-0.015039688
83	0x3d6adff8	0.0573425
84	0x3d079b82	0.03310729
85	0xbd2f6b01	-0.042826656
86	0xbc697a7f	-0.014250397
87	0xbdbe8b8c	-0.0930396
88	0x3e2bb048	0.16766465
89	0x3e8ba77d	0.2727622
90	0x3d87a8be	0.06623982
91	0x3c527923	0.012846264
92	0xbe9f41d3	-0.31104907
93	0x3d0b56c5	0.034018297
94	0xbe0b3f07	-0.13598262
95	0xbe27a1ae	-0.1637027
96	0xbe93ceb3	-0.28868636
97	0xbe567bfe	-0.20945737
98	0xbe3ffbf0	-0.1874845
99	0xbee6a68d	-0.45048943
100	0x3cc4dc8b	0.024030944
101	0xbe16cfdf	-0.14727734
102	0xbe1f97c2	-0.15585235
103	0x3bb72336	0.0055889143
104	0xbd7c2d41	-0.061566595
105	0xbea8f3c8	-0.3299849
106	0xbd121058	-0.035660118
107	0x3cc8a2be	0.024491664
108	0xbe701b90	-0.23448014
109	0x3ced49ec	0.028965913
110	0xbe0f1cb6	-0.13975796
111	0x3d804861	0.06263805
112	0xbe4e846b	-0.20167701
113	0x3dab2bcd	0.08357964
114	0x3d5f02f6	0.054446183
115	0xbd9323c1	-0.07184554
116	0xbd7ebdaa	-0.062192596
117	0x3dcf7fbd	0.10131786
118	0xbe92106f	-0.28528163
119	0xbe4cf5b5	-0.20015605
120	0x3d341aa1	0.043970708
121	0x3dd8f0e7	0.105928235
122	0xbe966514	-0.2937399
123	0x3eca7127	0.39539453
124	0xbda39993	-0.07988276
125	0xbc4038f8	-0.011732332
126	0x3e265528	0.16243422
127	0xbd97483f	-0.07386827

policy_net.4.weight f4 [128, 128]
0	0xbd17f480	-0.037098408
1	0xbe66d2a3	-0.22541289
2	0xbc910832	-0.017704103
3	0xbc9e326d	-0.019311154
4	0xbe62dbc2	-0.22154143
5	0x3e690fc3	0.22759919
6	0xbd20fbb2	-0.039302535
7	0x3dcc5f3c	0.09979102
8	0xbed8fb33	-0.4237915
9	0xbc33c2b8	-0.010971718
10	0x3eac69a9	0.33674362
11	0x3d211661	0.039327983
12	0xbd22a615	-0.03970917
13	0x3e34931a	0.1763424
14	0x3f1dbfac	0.61620593
15	0xbe803c5a	-0.25046045
16	0xbf024436	-0.5088533
17	0x3f28aa9b	0.65885323
18	0x3e7798ed	0.2417943
19	0xbf00b3fe	-0.50274646
20	0x3e5a62e9	0.21326794
21	0xbca3d59a	-0.019999314
22	0x3e42e6b6	0.19033322
23	0xbd8c9033	-0.06863441
24	0xbe8279a5	-0.25483432
25	0xb8dbb2f1	-0.00010476064
26	0xbf5f412c	-0.8720882
27	0x3f25e76a	0.64806235
28	0xbe116d03	-0.14201741
29	0xbf92a00e	-1.1455095
30	0xbef4e1c5	-0.47828498
31	0x3bd6ed00	0.0065590143
32	0xbc2ad761	-0.010427327
33	0x3d7cecfb	0.06174944
34	0x3ed7a1d8	0.42115664
35	0xbf44bcf4	-0.7685082
36	0xbe801529	-0.25016144
37	0xbea3b682	-0.3197518
38	0xbe2a8ce2	-0.16655305
39	0xbe66bcb2	-0.22532919
40	0x3e2b3e91	0.16723086
41	0x3e511409	0.20417799
42	0x3e2b2e15	0.16716798
43	0x3e084c98	0.13310468
44	0xbeaf0bff	-0.3418884
45	0xbfb47955	-1.4099528
46	0xbd572391	-0.052524153
47	0xbd59000a	-0.052978553
48	0x3eaf1dbe	0.3420238
49	0x3eecc69e	0.46245283
50	0x3efbf78b	0.49212298
51	0x3e745df6	0.23863968
52	0x3ec4e4e8	0.38455892
53	0xbecce057	-0.40014908
54	0xbecf98fe	-0.4054641
55	0xbe845827	-0.25848505
56	0xbd5f266f	-0.054480013
57	0xbefbe935	-0.4920136
58	0xbdead149	-0.11465699
59	0xbf3a6535	-0.7281068
60	0xbda22d7e	-0.07918833
61	0x3e446f78	0.19183147
62	0xbfa26cea	-1.2689488
63	0xbc901b9a	-0.017591286
64	0xbdc49cae	-0.09600197
65	0x3ef67531	0.48136285
66	0xbec6a1db	-0.3879536
67	0x3bb92241	0.0056498353
68	0xbe0052a0	-0.12531519
69	0xbf1d4898	-0.61438894
70	0xbf01a906	-0.50648534
71	0xbf06c062	-0.526373
72	0xbeb98297	-0.36232445
73	0xbe03cbf3	-0.12870769
74	0xbe5208f6	-0.20511231
75	0xbe1c38df	-0.1525607
76	0xbe1247d3	-0.14285211
77	0xbcb6aa4b	-0.022297999
78	0x3e4c3cba	0.1994504
79	0xbe91583f	-0.2838764
80	0x3ea07368	0.31338048
81	0x3edb23b1	0.42800668
82	0x3f0efbdd	0.5585306
83	0xbe3235de	-0.17403361
84	0xbe3fd192	-0.18732288
85	0x3ef7076e	0.48247856
86	0xbdcb706f	-0.099335544
87	0x3ecf624f	0.4050469
88	0xbd03c5a4	-0.032170907
89	0xbf6c7b0e	-0.92375267
90	0x3e8b1e7c	0.27171695
91	0xbda476b9	-0.08030457
92	0x3dda4f7b	0.10659691
93	0x3eb77fe7	0.3583977
94	0xbd18c480	-0.037296772
95	0x3edeb1d2	0.4349504
96	0xbea718c8	-0.32636094
97	0x3eb493f6	0.35269135
98	0xbdcb9088	-0.099396765
99	0xbe06597a	-0.1312007
100	0x3e48d733	0.19613342
101	0x3e475481	0.1946583
102	0x3d368180	0.044557095
103	0x3e8c79a3	0.2743655
104	0x3d90c595	0.07068936
105	0xbf257978	-0.6463847
106	0x3e85ade8	0.26109242
107	0x3e3f4386	0.18678102
108	0xbc093928	-0.0083754435
109	0xbeae8ce2	-0.3409186
110	0xbe13f70a	-0.14449707
111	0xbd1e76ee	-0.03868764
112	0xbc95ddc1	-0.018294217
113	0x3e11481f	0.14187668
114	0xbd9c5db1	-0.07635058
115	0xbee99d0e	-0.45627636
116	0xbedf2ee8	-0.43590474
117	0x3c80c2a4	0.015717812
118	0xbd3fcf46	-0.04682853
119	0x3e3680ac	0.17822522
120	0x3e4b68f0	0.19864249
121	0xbef74e42	-0.48301893
122	0xbf0246b0	-0.5088911
123	0xbf122990	-0.5709467
124	0x3db35fc4	0.087585
125	0x3f0af39d	0.54277974
126	0x3dbafb26	0.09129934
127	0xbdbdd3c6	-0.09268908
128	0x3dccdd01	0.10003091
129	0xbdecbb99	-0.11559219
130	0xbf356f37	-0.70872825
131	0xbec2fc99	-0.38083342
132	0xbe7bdda8	-0.24596274
133	0xbe18432b	-0.14869373
134	0xbe68e58e	-0.22743818
135	0x3d90f5bb	0.07078119
136	0xbeaf9fd3	-0.34301624
137	0xbf1467a4	-0.57970643
138	0x3d0cf72c	0.03441541
139	0x3d8474da	0.064676
140	0xbefc0139	-0.49219683
141	0x3e879d1a	0.26487046
142	0x3f10f87f	0.56629175
143	0x3e47d705	0.19515617
144	0xbf83454f	-1.0255526
145	0x3d04903d	0.03236412
146	0xbe382207	-0.1798173
147	0x3d80094a	0.06251772
148	0xbe94ccf9	-0.29062632
149	0xbe9bb3fd	-0.30410758
150	0xbe166827	-0.14688168
151	0xbdde1685	-0.10844139
152	0xbf3743af	-0.7158765
153	0xbdaae3cb	-0.08344229
154	0xbe6508e6	-0.22366676
155	0xbf469cfb	-0.77583283
156	0xbd8ce335	-0.06879274
157	0x3dca81a3	0.098880075
158	0xbe30ce33	-0.17266159
159	0x3eb0d475	0.34537092
160	0xbee7e2bf	-0.4529018
161	0x3d869ceb	0.065728985
162	0xbd802ed6	-0.06258933
163	0xbf3a5063	-0.7277891
164	0x3db98857	0.09059208
165	0xbe4361ed	-0.19080324
166	0x3e827e58	0.25487018
167	0x3f04fc56	0.51947534
168	0x3e87290c	0.26398504
169	0xbdf3a8ce	-0.11897431
170	0x3d6d4f6d	0.057937074
171	0xbc7e9ede	-0.015540807
172	0xbc18d29b	-0.009327556
173	0xbece681c	-0.40313804
174	0xbd90f483	-0.07077887
175	0xbc1b44b4	-0.009476829
176	0xbf75c0ba	-0.959972
177	0x3e577b13	0.21043043
178	0x3ed440bb	0.41455635
179	0xbf9f19cc	-1.2429748
180	0xbe5d3bd5	-0.21604855
181	0xbe579e1c	-0.21056408
182	0xbf3c6de9	-0.7360521
183	0x3ea0a71b	0.3137749
184	0x3e97b520	0.29630375
185	0x3d415338	0.047198504
186	0x3e33afdd	0.17547555
187	0x3e32e782	0.17471126
188	0xbf438e2d	-0.7638882
189	0xbf1e81a4	-0.61916566
190	0xbea67e4e	-0.32518238
191	0xbe40f9ff	-0.18845366
192	0xbf2525aa	-0.64510596
193	0xbdc28512	-0.094980374
194	0xbe8dffed	-0.27734318
195	0x3da27e87	0.079342894
196	0xbc9a24ec	-0.018816434
197	0xbec6fd70	-0.38865232
198	0xbe083185	-0.1330014
199	0x3df39eda	0.11895533
200	0xbebadcdc	-0.36496627
201	0x3db93f23	0.090452455
202	0xbe31e644	-0.17372996
203	0x3dcd1fc5	0.10015825
204	0x3e608898	0.21927106
205	0x3d7eed4f	0.062238034
206	0xbebb7888	-0.36615396
207	0x3eaf2706	0.3420946
208	0xbf8350d2	-1.0259039
209	0xbe33ea76	-0.17569908
210	0xbf0da37a	-0.5532757
211	0x3edd116c	0.43177354
212	0xbd8e9140	-0.06961298
213	0x3d0175fd	0.031606663
214	0xbe1250de	-0.14288661
215	0x3ea062e0	0.31325436
216	0xbea20fcb	-0.31652674
217	0x3de74164	0.11291769
218	0xbe9fb867	-0.31195375
219	0x3d818e7b	0.06326004
220	0x3ea298c2	0.3175717
221	0xbefa8bb1	-0.489347
222	0x3ecc4fbe	0.39904588
223	0xbf4fafc5	-0.8112758
224	0xbf4a1093	-0.7893154
225	0xbf0af35f	-0.54277605
226	0x3ed7abca	0.42123252
227	0xbd218448	-0.039432794
228	0xbecc7a13	-0.39936885
229	0x3e748fe7	0.2388302
230	0xbbae4765	-0.0053185695
231	0xbef72aac	-0.48274744
232	0x3f001fb4	0.50048375
233	0x3e14fc64	0.14549404
234	0x3e024544	0.12721735
235	0x3d823cda	0.06359263
236	0x3eb14527	0.34623072
237	0x3e8cc4fb	0.27494034
238	0xbe653739	-0.22384347
239	0xbe38272e	-0.17983696
240	0xbdac1234	-0.084019095
241	0xbed729e8	-0.4202416
242	0x3ebaf9eb	0.36518797
243	0x3e80af07	0.25133535
244	0xbf249b93	-0.6429989
245	0x3f02c394	0.5107968
246	0x3e47deb5	0.1951855
247	0x3d6cbcea	0.05779735
248	0x3c8b0e26	0.01697452
249	0x3d859b01	0.06523705
250	0x3e39663c	0.18105406
251	0xbe41488a	-0.18875328
252	0xbe81e1da	-0.25367624
253	0x3dc26fed	0.094940044
254	0xbfc79055	-1.5590922
255	0x3e70f72d	0.2353179

policy_net.4.bias f4 [128]
0	0xbe8e6806	-0.2781374
1	0xbdd29271	-0.10281838
2	0x3d9252af	0.07144677
3	0xbea620cf	-0.32446906
4	0xbd95e353	-0.07318749
5	0x3e20cce1	0.15703155
6	0xbe198cfb	-0.14995186
7	0xbe09a523	-0.13441901
8	0xbe867658	-0.26262164
9	0xbdfe2fc5	-0.12411455
10	0x3dadb090	0.08480942
11	0xbe307d84	-0.1723538
12	0xbd980ac8	-0.07423931
13	0xbec3c4bb	-0.3823603
14	0x3c4adef7	0.0123822605
15	0x3da122a9	0.07867939
16	0xbdad4ecb	-0.08462294
17	0xbda59f0e	-0.08086978
18	0xbdda539f	-0.10660481
19	0x3e60651e	0.21913573
20	0xbe5e4c8f	-0.21708892
21	0xbe28bad8	-0.16477525
22	0xbeac1183	-0.3360711
23	0xbf0617cf	-0.5238008
24	0xbe8cc91b	-0.2749718
25	0x3e94ed8e	0.2908749
26	0xbe04bfea	-0.12963834
27	0xbe34d1ea	-0.17658201
28	0xbeab789c	-0.33490455
29	0x3e395a4b	0.1810085
30	0x3d14e025	0.036346573
31	0xbe6d2d91	-0.23161913
32	0x3d49417a	0.04913471
33	0x3e874e1a	0.26426774
34	0x3de7d3b9	0.1131968
35	0xbe6eb53c	-0.23311323
36	0x3b261d73	0.0025347143
37	0x3d978761	0.07398868
38	0xbf0bd796	-0.54625833
39	0x3e1d52f1	0.15363671
40	0x3e339ef3	0.17541103
41	0xbe8b8beb	-0.27255186
42	0xbdc5d545	-0.096598186
43	0x3dc76bb4	0.097373396
44	0xbe772d3e	-0.24138352
45	0x3e46e911	0.19424845
46	0x3e182907	0.148594
47	0xbe096865	-0.1341873
48	0x3cdb0f6c	0.026740752
49	0xbeced139	-0.40394
50	0xbde36089	-0.11102397
51	0x3ea87ad2	0.32906204
52	0xbf03bd4b	-0.51460713
53	0x3d17face	0.03710442
54	0x3e6ad907	0.22934352
55	0xbf129a17	-0.5726637
56	0xbe3d52cf	-0.1848862
57	0xbd175e5e	-0.03695523
58	0x3d66fa1f	0.056390878
59	0xbe29255a	-0.16518155
60	0xbee137e2	-0.43987948
61	0xbe1ddd54	-0.15416461
62	0xbeb8597d	-0.36005774
63	0x3d7d7246	0.061876558
64	0xbdafdcfc	-0.08587071
65	0xbd796583	-0.060887825
66	0xbea7f9e9	-0.32807854
67	0x3d6a2401	0.057163242
68	0xbe8770c3	-0.26453218
69	0xbecd02e3	-0.40041265
70	0xbdbd76f3	-0.092512034
71	0xbf07716d	-0.5290745
72	0x3eb28642	0.34868056
73	0x3c97f501	0.018549444
74	0x3e282779	0.16421308
75	0xbe8b2473	-0.27176246
76	0xbe8e903b	-0.27844414
77	0x3e815778	0.25262046
78	0x3e906dd2	0.28208786
79	0x3e037df7	0.1284102
80	0xbf7f2408	-0.99664354
81	0xbe95b254	-0.29237616
82	0x3f140bf2	0.5783073
83	0xbea28e28	-0.31749082
84	0xbe98dd71	-0.29856446
85	0x3c49cdcb	0.012317131
86	0xbdc662c4	-0.09686807
87	0x3e7694ab	0.2408015
88	0xbf0bae41	-0.54562765
89	0x3e3608ec	0.17776841
90	0xbd057bbd	-0.03258871
91	0xbe88b852	-0.26703125
92	0xbe2b2d4c	-0.16716498
93	0xbc0aa74a	-0.008462736
94	0xbf16bcaf	-0.5888166
95	0x3e0d3e75	0.13793357
96	0xbea3e1ad	-0.32008114
97	0xbd7bd412	-0.061481543
98	0xbe0523a7	-0.13001882
99	0x3d1464da	0.036228992
100	0x3e6f4c11	0.23368861
101	0x3e001d5a	0.12511197
102	0xbdac4cda	-0.08413096
103	0xbca81314	-0.02051691
104	0xbf005c3b	-0.5014073
105	0x3ca22a2a	0.019795496
106	0x3dee3cb5	0.11632673
107	0xbf15513a	-0.58327067
108	0x3d6379a0	0.055535913
109	0x3e450240	0.1923914
110	0xbe4bb881	-0.19894601
111	0x3d2f620d	0.042818118
112	0xbe0e1090	-0.13873506
113	0x3ddac21f	0.10681557
114	0x3e2ff6f7	0.17184053
115	0x3de615c5	0.11234621
116	0xbe384b0d	-0.1799738
117	0x3e38c6b7	0.18044554
118	0xbe66852a	-0.22511736
119	0x3eafd67a	0.3434332
120	0xbe99c090	-0.30029726
121	0x3e4485ae	0.1919162
122	0xbd425f3f	-0.047454115
123	0x3e276d91	0.1635039
124	0xbe7da152	-0.2476857
125	0xbd32dbf7	-0.043666806
126	0x3c2a2f83	0.010387304
127	0xbe431421	-0.19050647

policy_net.6.weight f4 [64, 128]
0	0xbd88135f	-0.0664432
1	0x3e2e72db	0.17036001
2	0x3eee5786	0.4655115
3	0xbf57b0dd	-0.84254247
4	0xbe66b384	-0.22529417
5	0xbe1de90c	-0.15420932
6	0x3f0fbf16	0.5615095
7	0x3e52bc85	0.20579727
8	0x3dd7f461	0.105446585
9	0xbed7461d	-0.4204568
10	0xbd216d9f	-0.039411183
11	0x3e847331	0.25869134
12	0x3d72137f	0.059100624
13	0xbeafadf1	-0.34312394
14	0xbe2c9823	-0.1685491
15	0x3dca37af	0.09873902
16	0x3f0aace5	0.54170066
17	0x3db7e195	0.08978573
18	0xbe7c2067	-0.24621736
19	0x3ed575b6	0.4169137
20	0x3edd3b8a	0.43209487
21	0x3dabbb4b	0.08385333
22	0x3e80a411	0.25125173
23	0xbdaa2ac5	-0.08308939
24	0xbef9cc67	-0.4878876
25	0x3e28749c	0.16450733
26	0x3d8f52c7	0.069982104
27	0x3f248467	0.6426453
28	0x3de8c4e8	0.11365682
29	0xbd0323e2	-0.032016642
30	0xbf0bf456	-0.546697
31	0xbee5b1ca	-0.44862205
32	0xbe3a6f2b	-0.1820647
33	0xbf93fd11	-1.1561605
34	0xbf214cd3	-0.6300785
35	0xbccf1e72	-0.025283072
36	0xbe1ca3a0	-0.15296793
37	0xbf0098c6	-0.50233114
38	0xbdf46eaa	-0.1193517
39	0xbd8d215d	-0.06891129
40	0x3cd15108	0.025551334
41	0xbf06fb90	-0.52727604
42	0x3e44db9c	0.192244
43	0x3c0ee62b	0.0087218685
44	0xbf1261c0	-0.57180405
45	0x3eb21df6	0.34788483
46	0x3c6f27b0	0.014596865
47	0xbdc52c84	-0.09627631
48	0xbcf24bc1	-0.029577138
49	0x3f372d06	0.71553075
50	0xbec7007c	-0.38867557
51	0x3eabbd13	0.3354269
52	0x3ecaa87b	0.39581665
53	0xbdbd312b	-0.09237894
54	0x3d9bca16	0.07606904
55	0x3d52d55a	0.051473
56	0x3e4716c7	0.19442283
57	0xbceea58b	-0.029131671
58	0x3f1d5c81	0.61469275
59	0xbde89278	-0.11356062
60	0xbe3db602	-0.18526462
61	0x3e052441	0.13002111
62	0xbe6b2583	-0.22963528
63	0x3e2fc544	0.17165095
64	0xbeb8f467	-0.36123964
65	0x3d2f10ff	0.042740818
66	0xbef183af	-0.4717078
67	0x3eb939dd	0.3617696
68	0xbdc2051f	-0.09473633
69	0xbeb4b3c3	-0.35293397
70	0x3d4c34a1	0.04985488
71	0xbf592021	-0.8481465
72	0x3e9f2d14	0.3108908
73	0x3b9aa1fb	0.0047190166
74	0xbf4d8fc6	-0.80297506
75	0xbc220f49	-0.00989134
76	0xbe65c5be	-0.22438714
77	0xbf4a7ecd	-0.7909973
78	0xbede6df3	-0.4344326
79	0xbea8f66f	-0.33000514
80	0x3dd84293	0.10559573
81	0x3b98db00	0.0046647787
82	0x3e9e15d6	0.30876034
83	0xbe275eb8	-0.16344726
84	0xbf24541f	-0.6419086
85	0xbea32398	-0.31863093
86	0x3f01b42b	0.5066554
87	0xbee5c0b9	-0.44873598
88	0xbe1624e4	-0.1466251
89	0x3ce9ef6e	0.028556552
90	0x3e449c5d	0.19200273
91	0xbf1004ea	-0.562575
92	0xbeb35ca4	-0.35031617
93	0xbe2cf8bf	-0.16891764
94	0x3ddf9b7f	0.109183304
95	0xbf4af76c	-0.79283786
96	0x3d89a9ad	0.06721816
97	0xbe2970a2	-0.16546872
98	0xbc57388d	-0.013136041
99	0x3ed2049a	0.41019136
100	0xbeed278a	-0.46319228
101	0xbd3f6dbe	-0.046735518
102	0xbce7141e	-0.028207835
103	0xbdf5cacf	-0.12001573
104	0xbda2f63b	-0.07957121
105	0xbed0e59f	-0.40800187
106	0x3ebd3c6f	0.3696017
107	0xbe29334b	-0.16523473
108	0x3e8eb96f	0.2787585
109	0x3dcebacd	0.10094223
110	0x3e8ad065	0.27112117
111	0xbe8fb4ac	-0.2806753
112	0xbe73da6c	-0.2381379
113	0xbd8516d2	-0.06498493
114	0xbe963c55	-0.29342905
115	0xbec6ac73	-0.38803443
116	0x3f052536	0.52009904
117	0xbf48dd2c	-0.7846248
118	0xbf718307	-0.94340557
119	0xbec12f31	-0.37731317
120	0xbdf1d0aa	-0.11807378
121	0x3e296fc0	0.16546535
122	0xbe49f766	-0.19723281
123	0x3e3ec99b	0.18631594
124	0x3e09292f	0.13394617
125	0xbecc8342	-0.39943892
126	0xbf199f37	-0.6000857
127	0xbe83a5ef	-0.25712535
128	0xbc98138b	-0.018564006
129	0xbe260ce1	-0.1621585
130	0xbd7baf1b	-0.06144629
131	0x3dd0b5cc	0.10190925
132	0xbd37012d	-0.044678856
133	0x3dd1517e	0.102206215
134	0x3e093d13	0.13402204
135	0xbe96f130	-0.29480886
136	0xbe965cd6	-0.29367703
137	0xbe0cfff4	-0.13769513
138	0x3e10ff3e	0.14159867
139	0xbdce6587	-0.100779586
140	0x3cff7d12	0.031187568
141	0xbe10f21a	-0.14154854
142	0x3d4b401c	0.049621686
143	0xbdbc8aad	-0.09206138
144	0x3df8c25f	0.12146448
145	0xbd444001	-0.0479126
146	0xbe08f3fd	-0.13374324
147	0x3ec57bd8	0.38571048
148	0xbe2cd940	-0.1687975
149	0x3e92f22f	0.28700396
150	0xbddaef44	-0.106901675
151	0xbe0af459	-0.13569774
152	0xbf1452ec	-0.5793903
153	0xbe3be221	-0.1834798
154	0xbeb3dad5	-0.35127893
155	0xbf0149ce	-0.5050324
156	0x3e5e996b	0.21738212
157	0x3de5ebff	0.11226653
158	0xbddb771d	-0.107160784
159	0xbf5dca76	-0.86637056
160	0xbe1e5155	-0.15460713
161	0xbded8df8	-0.11599344
162	0xbe908162	-0.2822371
163	0x3e409cdc	0.18809837
164	0xbd6b8d29	-0.057507668
165	0xbb957edb	-0.0045622415
166	0x3d4ccb95	0.04999884
167	0xbd81115b	-0.063021384
168	0xbda48006	-0.08032231
169	0x3e903ed3	0.2817293
170	0x3e883d00	0.2660904
171	0xbf3ef17c	-0.74587226
172	0xbea3af28	-0.3196957
173	0x3da33d72	0.07970704
174	0xba97ee4d	-0.0011591405
175	0x3c869092	0.016426358
176	0xbe272cf6	-0.16325745
177	0xbd93c2af	-0.07214867
178	0x3d6c0ce5	0.057629485
179	0x3efa64be	0.48904985
180	0xbe47d939	-0.19516458
181	0x3da5e956	0.08101146
182	0x3e32d104	0.17462546
183	0xbec97d92	-0.39353615
184	0xbe6ca1b6	-0.23108563
185	0x3e007cd0	0.12547612
186	0xbe88f0c2	-0.26746184
187	0xbc35b65f	-0.011090844
188	0x3dadd1a2	0.0848725
189	0x3dbc21be	0.09186123
190	0x3e388bc8	0.18022072
191	0xbd516843	-0.051124822
192	0x3d9ca89c	0.07649347
193	0xbe91aa97	-0.28450462
194	0xbb2c05e6	-0.0026248633
195	0xbe884441	-0.26614574
196	0xbee51718	-0.44744182
197	0xbd8ed556	-0.06974284
198	0x3e1140e7	0.14184915
199	0x3d00e209	0.031465564
200	0x3e848b1d	0.25887385
201	0xbdc8c213	-0.09802642
202	0x3dae0d48	0.08498627
203	0x3dc177dc	0.094466895
204	0xbd32344c	-0.043506905
205	0xbdcf89ff	-0.101337425
206	0xbf7c14d9	-0.9846931
207	0x3bec2bf9	0.0072073904
208	0xbdbdc0fb	-0.09265324
209	0xbdd7eff1	-0.10543812
210	0xbe0f17c2	-0.13973907
211	0xbe9a4634	-0.30131686
212	0xbf05be05	-0.5224307
213	0x3d35e784	0.044410244
214	0x3d5b7a72	0.05358357
215	0xbd2a3806	-0.041557334
216	0xbe02cb8f	-0.12772964
217	0x3c2b0998	0.010439299
218	0xbe4ba8fa	-0.19888678
219	0xbe8c9b20	-0.274621
220	0xbe5d08f2	-0.21585444
221	0x3e4f9c2b	0.20274417
222	0x3dbce131	0.09222639
223	0xbc0e3401	-0.008679391
224	0x3c81a25c	0.01582449
225	0xbcda7d82	-0.026671175
226	0x3cca2b8a	0.024678964
227	0xbd47b25c	-0.04875408
228	0x3ee20ec5	0.44151893
229	0x3d3d9b24	0.04629053
230	0x3da1d45e	0.07901834
231	0x3e1bedd5	0.15227444
232	0xbe8ba094	-0.2727095
233	0x3e825da3	0.25462064
234	0xbe1705d8	-0.14748323
235	0xbd6aa60c	-0.05728726
236	0xbed17af0	-0.40914106
237	0x3ee744f7	0.45169804
238	0xbd7fdf30	-0.062468708
239	0x3d74071a	0.059577085
240	0xbe938600	-0.2881317
241	0xbd975094	-0.07388416
242	0x3d858609	0.06519706
243	0xbf4fdf22	-0.8119985
244	0x3e1ebff7	0.15502916
245	0x3eb21b80	0.34786606
246	0xbf10c30f	-0.56547636
247	0xbe3c3f12	-0.18383434
248	0xbcce0e07	-0.025153173
249	0xbd87a502	-0.066232696
250	0x3e110ea5	0.14165743
251	0xbedb6b3e	-0.42855257
252	0x3d936488	0.07196909
253	0x3cf77da8	0.030211285
254	0xbf2a4e4a	-0.6652571
255	0x3e53225c	0.20618576

policy_net.6.bias f4 [64]
0	0xbe5954dc	-0.21223778
1	0x3eb1c468	0.3472016
2	0xbef262fb	-0.4734114
3	0xbef235b4	-0.47306597
4	0xbf1892d4	-0.5959904
5	0x3eafd683	0.34343347
6	0xbefa4d84	-0.48887265
7	0xbe8befa1	-0.2733126
8	0x3cc55840	0.024089932
9	0x3e7ff07d	0.24994083
10	0x3ee9f372	0.45693547
11	0xbd8a9ac1	-0.06767798
12	0x3ec12ec0	0.3773098
13	0x3e13a441	0.14418127
14	0x3f3a47db	0.7276589
15	0x3eaf3030	0.34216452
16	0xbe894984	-0.268139
17	0xbeeddd25	-0.46457782
18	0x3b93917a	0.004503426
19	0x3dfa70c4	0.122285396
20	0xbe4ce33a	-0.20008555
21	0x3ed37436	0.412996
22	0xbe02e41a	-0.12782326
23	0x3e0256ff	0.12728499
24	0x3e22baf2	0.15891626
25	0x3e808cd0	0.2510743
26	0x3f0e18e9	0.5550676
27	0xbe464086	-0.19360551
28	0x3e89bd39	0.26902178
29	0x3e4b26ea	0.19839063
30	0x3ebdd2d6	0.37074918
31	0xbe3c579d	-0.18392797
32	0xbe77f578	-0.24214733
33	0x3ed2ea32	0.41194302
34	0x3eb5f8a1	0.3554125
35	0xbd376234	-0.04477139
36	0x3d327bb2	0.043574996
37	0x3e8f8e53	0.28038272
38	0x3e8534f0	0.2601695
39	0xbf1c96a5	-0.61167365
40	0x3ee62f84	0.44958127
41	0xbe2622ae	-0.16224167
42	0x3d52570b	0.051352542
43	0xbededa1e	-0.43525785
44	0x3f0aa830	0.54162884
45	0x3f2cf005	0.6755374
46	0xbe9c57b1	-0.30535653
47	0xbddfb5d9	-0.109233566
48	0xbf062e1f	-0.52414125
49	0xbed2aa27	-0.4114544
50	0xbe49fd39	-0.19725503
51	0x3f05474c	0.52061915
52	0xbed09c45	-0.40744224
53	0xbd67e583	-0.056615364
54	0xbebc0178	-0.3671987
55	0xbe807062	-0.2508574
56	0x3f1c879b	0.6114442
57	0x3e94584b	0.28973612
58	0xbda4a9f6	-0.0804023
59	0xbea49de8	-0.32151723
60	0x3e0243e0	0.12721205
61	0x3e73d34b	0.2381107
62	0xbea338d3	-0.3187929
63	0x3e314458	0.17311227

policy_net.8.weight f4 [4, 64]
0	0xbdc89362	-0.09793736
1	0x3d177a85	0.036982078
2	0xbe99833d	-0.2998294
3	0x3dbbe2b2	0.09174098
4	0x3d941107	0.0722981
5	0x3d909320	0.07059312
6	0x3d5d35f7	0.054006543
7	0xbd8200db	-0.063478194
8	0xbe454615	-0.19265015
9	0x3c8fd1a0	0.017556012
10	0x3b88763a	0.0041644843
11	0x3dc128fb	0.094316445
12	0x3c50ed09	0.012751826
13	0x3de956cc	0.11393508
14	0x3bb05c30	0.0053820834
15	0x3c11c9f9	0.008898252
16	0x3d3f4a77	0.046701875
17	0xbd8ad7a4	-0.067794114
18	0xbd829b08	-0.06377226
19	0x3dec6727	0.11543112
20	0x3dcfc83e	0.10145615
21	0x3dbb55d2	0.09147228
22	0x3c02ec3e	0.007990895
23	0x3d83c6b7	0.06434386
24	0xbd9db844	-0.077011615
25	0xbd9a2579	-0.075266786
26	0x3d59e9bc	0.053201422
27	0x3d646614	0.05576141
28	0xbc470619	-0.01214745
29	0xbd6b41bd	-0.05743574
30	0xbca46c6d	-0.020071233
31	0xbd3cc89c	-0.046089754
32	0x3ba849ba	0.005135742
33	0x3c2891fa	0.01028871
34	0xbd400d51	-0.0468877
35	0xbd78e4a8	-0.06076494
36	0x3cf05d67	0.029341413
37	0x3d825fdb	0.06365939
38	0x3ca7eba0	0.020498097
39	0x3cbade92	0.022811208
40	0x3d73350a	0.059376754
41	0xbd8117fc	-0.06303403
42	0x3d02e165	0.031953234
43	0xbd3f9071	-0.04676861
44	0xbc761fbc	-0.0150222145
45	0xbc2ac3be	-0.010422645
46	0x3d89d765	0.06730536
47	0x3c1708cb	0.009218405
48	0xbd309412	-0.04310996
49	0x3da4ca9c	0.08046457
50	0xbc975694	-0.0184739
51	0xbc85e940	-0.016346574
52	0x3e92e8f8	0.28693366
53	0x3d3c9e28	0.046049267
54	0xbd609e23	-0.05483831
55	0xbd7e3ff3	-0.062072705
56	0xbdd5ba72	-0.10435952
57	0x3d2ce9ea	0.042215265
58	0x3c97b936	0.018520933
59	0xbd5d9ba6	-0.054103516
60	0x3d820658	0.06348866
61	0xbd66c744	-0.05634238
62	0x3d36b959	0.044610355
63	0xbd65e387	-0.05612519
64	0x3c1295e5	0.00894687
65	0xbcd30eb2	-0.025763843
66	0x3ea5c969	0.32380226
67	0x3b50f66c	0.003188516
68	0x3dbf19d4	0.09331098
69	0x3dae8557	0.08521526
70	0xbc22cf41	-0.0099371085
71	0xbd7ce518	-0.06174192
72	0x3e78f5d3	0.24312524
73	0xbc9d4efc	-0.019202702
74	0xbd145d63	-0.036221873
75	0xbd331d59	-0.04372916
76	0x3db031d2	0.086032525
77	0x3dabea0a	0.08394249
78	0x3c615643	0.013753477
79	0xbe12a6f0	-0.14321494
80	0x3c28835f	0.010285228
81	0xbda66caf	-0.081261985
82	0xbda484d4	-0.080331475
83	0x3cef3ef2	0.02920482
84	0x3dad9c61	0.084770925
85	0x3d7eab95	0.062175352
86	0x3b318aa1	0.0027090686
87	0x3d850915	0.06495873
88	0xbc88b6a0	-0.016688645
89	0xbd281b3f	-0.04104161
90	0x3d570ae6	0.052500628
91	0x3d1a3749	0.03765038
92	0xbc851f0e	-0.01625016
93	0xbd94074d	-0.07227955
94	0xbd8605cd	-0.06544075
95	0x3dd90bd9	0.10597963
96	0x3cbe3409	0.023218172
97	0x3d795c6b	0.060879152
98	0xbdabc2ea	-0.08386786
99	0xbae00f57	-0.0017094415
100	0xbc2e4951	-0.010637597
101	0x3d5e8e39	0.054334853
102	0x3c7d2b75	0.0154522555
103	0x3d983421	0.07431818
104	0x3d69aa6b	0.05704729
105	0xbc4da1ff	-0.01255083
106	0x3db2d160	0.08731341
107	0xbd1fc896	-0.039009653
108	0xbdb87ac3	-0.0900779
109	0xbc091e17	-0.00836899
110	0x3d1b9659	0.03798518
111	0x3db92412	0.09040083
112	0x3c1758e7	0.009237505
113	0xbdae2bd9	-0.08504457
114	0xbbe85e38	-0.00709131
115	0xbdaf4ca8	-0.08559543
116	0x3e0e30fd	0.13885875
117	0x3d878696	0.06617467
118	0xbd430256	-0.04760965
119	0xbbdf051a	-0.006806028
120	0xbdaf153b	-0.08548971
121	0xbd91d2df	-0.071202986
122	0xbd697677	-0.056997743
123	0xbda39fd8	-0.07989472
124	0x3d6b4290	0.057436526
125	0xbd3812ef	-0.04493993
126	0x3c98bdcb	0.018645188
127	0x3cc00c7a	0.02344345
128	0x3de7c039	0.113159604
129	0xbc5e03bd	-0.013550696
130	0x3da2b6dd	0.07945035
131	0xbdb6fab1	-0.08934534
132	0xbda9c371	-0.082892306
133	0xbc6bdda1	-0.014396102
134	0xbe60953d	-0.2193193
135	0x3dae8b67	0.08522683
136	0x3e002c6d	0.12516947
137	0x3ddfb165	0.10922507
138	0xbd9d4dad	-0.07680831
139	0xbd4efe53	-0.05053551
140	0x3d82d979	0.06389136
141	0xbc0d79d3	-0.008635002
142	0xbe070676	-0.13186058
143	0x3c88309d	0.016624743
144	0xbdbb76bd	-0.09153507
145	0xbda675d7	-0.08127945
146	0xbbff1041	-0.00778392
147	0xbdc8a232	-0.09796561
148	0xbe56113a	-0.20905009
149	0xbba7197c	-0.0050994735
150	0xbdabdadc	-0.083913535
151	0xbc95855f	-0.018252073
152	0x3d925f06	0.071470305
153	0x3d610854	0.054939583
154	0x3d74af35	0.059737403
155	0x3dbe9388	0.09305483
156	0x3d84dc1a	0.064872935
157	0x3dc24ef5	0.09487716
158	0xbc7c725f	-0.015408128
159	0x3d0e4fe9	0.034744177
160	0xbdbe8b87	-0.093039565
161	0xbca82e24	-0.020529814
162	0xbb42a8c5	-0.0029702645
163	0xbd9e236c	-0.077216
164	0x3e16e9ea	0.14737669
165	0xbd70b3a7	-0.05876508
166	0x3c8c09f3	0.017094588
167	0xbe2495f5	-0.16072829
168	0xbe268a56	-0.16263708
169	0x3dce3aa6	0.1006978
170	0xbd6469fa	-0.05576513
171	0x3e1d52af	0.15363573
172	0x3da7a131	0.08185042
173	0x3e3d1892	0.18466404
174	0xbde3050d	-0.11084948
175	0x3d991fc8	0.07476765
176	0x3db5cd52	0.08877052
177	0xbc7b1bfc	-0.015326496
178	0xbd6a2f31	-0.05717391
179	0x3d19da45	0.037561674
180	0x3e374cb6	0.17900357
181	0xbdbe9d77	-0.09307378
182	0x3dd79a99	0.10527534
183	0x3d30c261	0.043154124
184	0x3e4817ca	0.19540325
185	0x3c1af65c	0.009458151
186	0xbd144c10	-0.03620535
187	0x3e122869	0.14273228
188	0xbe25814a	-0.16162601
189	0x3d90a4b8	0.070626676
190	0xbdc75e12	-0.09734739
191	0x3dc63b18	0.0967924
192	0xbd4721b8	-0.04861614
193	0xbde2984c	-0.110642046
194	0xbd99886f	-0.07496726
195	0xbb980bed	-0.0046400935
196	0x3c4aa69d	0.012368825
197	0xbc9ed1c8	-0.01938714
198	0x3dddd68b	0.108319364
199	0xbc4a9c5d	-0.0123663815
200	0xbd7974e5	-0.060902495
201	0x3d27ef5e	0.040999763
202	0xbc0f8198	-0.008758925
203	0x3c2d9cbe	0.010596452
204	0x3d0412d5	0.032244522
205	0x3be3dcb2	0.006953799
206	0x3da8ab5e	0.08235811
207	0xbb7169ec	-0.0036836816
208	0xbd017810	-0.03160864
209	0x3d592141	0.05301023
210	0xbbae4dfe	-0.005319356
211	0x3d26c04a	0.040710725
212	0x3aebe460	0.0017997138
213	0x39dbfb9a	0.00041958393
214	0xbda4b4b1	-0.08042277
215	0x3b09d143	0.002102927
216	0xbc51ff96	-0.012817284
217	0x3cfd53cd	0.030923748
218	0xbd20a7ee	-0.03922265
219	0xbc7ad967	-0.015310622
220	0xbc8a2983	-0.016865497
221	0xbbdbc5d8	-0.0067069344
222	0x3b4baddd	0.0031078972
223	0x3c996cc4	0.018728621
224	0x3d68c714	0.05683048
225	0x3c132969	0.008982041
226	0x3d593127	0.05302539
227	0xbd826666	-0.06367187
228	0xbd38c408	-0.045108825
229	0x3c628db0	0.013827726
230	0xbdb8a6b0	-0.09016168
231	0xbc7acc65	-0.0153075205
232	0x3d06c3e6	0.032901667
233	0x3d75efb2	0.060043044
234	0x3d108847	0.035286214
235	0xbdb7567c	-0.089520425
236	0xbca0ddd9	-0.019637035
237	0xbd26f775	-0.040763337
238	0x3ccf115d	0.025276834
239	0xbd16f2d3	-0.03685267
240	0xbd4a4881	-0.04938555
241	0xbd6aa092	-0.057282038
242	0xbd2afad3	-0.04174311
243	0xbd99340a	-0.07480629
244	0x3e0a5828	0.13510191
245	0x3d9a14bb	0.07523485
246	0x3b21ad83	0.0024670071
247	0x3cde5c7b	0.027143707
248	0xbdb53316	-0.088476345
249	0xbbef29fd	-0.0072987066
250	0xbb67946a	-0.0035336264
251	0xbcfa64a9	-0.030565577
252	0x3d92e2ce	0.07172166
253	0xbd427e3e	-0.047483675
254	0xbe45a0b5	-0.19299586
255	0x3cb3720b	0.021904966

policy_net.8.bias f4 [4]
0	0x3dcea200	0.10089493
1	0x3cf71e8e	0.030165937
2	0x3e09b28b	0.13447015
3	0x3e61982a	0.22030702
