IL/Model/model_reacher_43.pt (torch, 292527 bytes, 20 tensors)

policy_net.0.weight f4 [64, 24]
-0.44165856 -1.2851739 0.26403606 0.05657911 0.26048514 -0.18255918 0.3377883 -0.05990014
0.17366947 0.073645994 0.014712819 0.0041796775 -0.099595346 -0.027135707 0.3356691 0.15236051
0.25704747 0.116039634 -0.2778213 -0.5492922 -0.44562986 -0.07390263 0.19674975 0.020968547
0.03194909 -0.83608675 -0.09853498 0.25256538 0.26928768 0.24029577 0.963992 -0.32293916
-0.0714115 -0.30898407 0.29950392 0.016582815 -0.013271914 -0.30091542 -0.029495394 -0.1066135
-0.1315616 -0.23964421 -0.29871076 -0.13927017 -0.27203935 0.15444095 -0.09382103 -0.1295024
0.14925493 0.72263706 -0.36090592 1.7983505 -0.033856057 -0.07944562 -0.03242244 0.07931951
0.49958992 -0.065811604 0.10514755 -0.04708559 0.40063784 0.3374369 -0.013119684 -0.08146698
-0.07787009 -0.18352318 0.05329141 0.024772415 0.058322325 0.19193184 -0.09971029 -0.21857803
0.4230723 0.63493127 -0.39014438 -1.3870075 0.3198682 0.13281403 0.31753498 0.088844314
-0.10113312 0.10188181 -0.10605527 -0.60934615 -0.052126 0.0063561266 0.013871965 -0.057353236
-0.09098572 -0.046587076 -0.11220758 -0.38405788 -0.10409731 -0.24900848 -0.07318462 0.097278565
-0.09668717 0.17968477 -0.16328284 0.3041024 0.019654796 0.111138575 0.071377285 0.066007085
-0.019255463 -0.1641049 -0.18302773 0.48818737 -0.57527894 0.016093286 0.1922701 0.12780772
0.36225414 0.30715644 0.16735102 0.2546281 -0.07930672 -0.18078806 -0.17518151 -0.06815557
-0.41279033 -0.30339468 0.34429565 -1.6827065 -0.19266836 -0.11426873 0.2796831 -0.22900152
-0.64890665 0.1984153 -0.2772742 -0.071457006 -0.05413315 -0.21272826 0.16283776 0.16417965
0.19274758 0.12142788 0.2528015 0.2598941 0.094012275 0.032455266 -0.14469486 0.08369371
-0.32071114 2.963399 0.17297597 -0.6719878 -0.33645058 0.35926765 -0.4895116 0.18962559
0.11370017 0.003047226 0.23396842 -0.13911086 0.06697345 0.11202998 0.03229659 -0.15882798
0.14666991 0.19660169 0.02691276 0.29998404 0.20104495 -0.09121397 -0.31709808 -0.17811507
-0.020336378 0.41914383 0.6207771 1.4805146 -0.15857832 0.22969611 0.18728302 -0.13732015
0.12630612 -0.34621593 0.016503314 0.28467038 -0.24773295 -0.026565185 -0.19490996 -0.033754587
-0.12775901 0.168 -0.04667261 -0.04594307 0.14521623 -0.20052311 0.022265777 0.08778432
0.8092115 0.090437315 -0.46765122 -0.47333586 -0.107228465 0.24989183 -0.17563404 0.15703532
0.0228161 0.2994019 -0.0073315687 0.057091348 0.05331601 0.11405168 -0.1827321 -0.047018766
-0.09860369 -0.20775948 0.0791019 -0.12375705 0.03178819 0.113821074 -0.0488797 0.20533586
0.20792158 1.2625427 0.20692334 -1.4063137 -0.3700651 0.23081748 -0.099263884 0.070397295
0.038155057 0.40464324 0.46601468 -0.22409742 -0.14248359 -0.2917209 0.29170892 0.20811231
0.17476675 0.042013798 0.13772418 -0.21605335 -0.38790068 -0.27554235 -0.06132226 0.061957102
0.56274945 1.6420821 0.32919016 -0.91118175 0.2651622 0.18702917 -0.5450967 -0.027470015
-0.2601015 0.45196542 0.30687505 -0.057025425 0.1810369 0.20486434 -0.34996313 -0.37653798
00000000: 1221 e2be 9480 a4bf bc2f 873e 7fbf 673d
00000010: 4f5e 853e cbf0 3abe 97f2 ac3e d959 75bd
00000020: 69d6 313e b6d3 963d 090e 713c adf5 883b
00000030: a5f8 cbbd b44b debc d2dc ab3e 6504 1c3e
00000040: ba9b 833e 30a6 ed3d 983e 8ebe 6a9e 0cbf
00000050: 9929 e4be 435a 97bd c478 493e 3bc6 ab3c
00000060: 0ddd 023d c809 56bf b5cc c9bd 4050 813e
00000070: 13e0 893e 1810 763e 2ec8 763f 4858 a5be
00000080: 3140 92bd 2933 9ebe 9458 993e afd8 873c
00000090: 7172 59bc 9611 9abe 53a0 f1bc 2e58 dabd
000000a0: 16b8 06be 4b65 75be 9ef0 98be d79c 0ebe
000000b0: be48 8bbe c525 1e3e 3d25 c0bd 479c 04be
000000c0: 49d6 183e befe 383f a9c8 b8be 5930 e63f
000000d0: a6ac 0abd 63b4 a2bd 64cd 04bd 4472 a23d
000000e0: 40ca ff3e 3cc8 86bd 9957 d73d d2dc 40bd
000000f0: 6720 cd3e 88c4 ac3e f1f3 56bc 29d8 a6bd
00000100: 5b7a 9fbd 80ed 3bbe 1848 5a3d 85ef ca3c
00000110: 64e3 6e3d c889 443e e934 ccbd ebd2 5fbe
00000120: ef9c d83e db8a 223f 01c1 c7be 7689 b1bf
00000130: c4c5 a33e 6700 083e f293 a23e 02f4 b53d
00000140: e21e cfbd 69a7 d03d 8133 d9bd 1cfe 1bbf
00000150: 1382 55bd 0e47 d03b 3d47 633c 3aeb 6abd
00000160: b956 babd 17d2 3ebd 16cd e5bd 3ca3 c4be
00000170: f830 d5bd 14fc 7ebe d1e1 95bd fc39 c73d
00000180: ec03 c6bd 49ff 373e 9e33 27be 4fb3 9b3e
00000190: 1803 a13c 9f9c e33d 412e 923d b92e 873d
000001a0: a2bd 9dbc 1d0b 28be 9f6b 3bbe b2f3 f93e
000001b0: 7b45 13bf 11d6 833c 74e2 443e 07e0 023e
000001c0: 6079 b93e 9c43 9d3e 115e 2b3e 9d5e 823e
000001d0: 906b a2bd 8120 39be c862 33be 2695 8bbd
000001e0: 4159 d3be 8c56 9bbe 8547 b03e ed62 d7bf
000001f0: db4a 45be b905 eabd a032 8f3e 607f 6abe
00000200: bf1e 26bf 612d 4b3e e2f6 8dbe 0d58 92bd
00000210: b9ba 5dbd 70d5 59be f1be 263e b61e 283e
00000220: 9f5f 453e 2eaf f83d 336f 813e d710 853e
00000230: 8289 c03d d0ef 043d e42a 14be 9c67 ab3d
00000240: 4034 a4be 54a8 3d40 9d20 313e 6407 2cbf
00000250: 4043 acbe eef1 b73e 44a1 fabe 362d 423e
00000260: a2db e83d f8b3 473b 6b95 6f3e 1473 0ebe
00000270: 6029 893d f96f e53d 6e49 043d cda3 22be
00000280: a330 163e f451 493e 2678 dc3c 8297 993e
00000290: bade 4d3e 64ce babd ae5a a2be cc63 36be
000002a0: 7a98 a6bc 059a d63e 3feb 1e3f 8181 bd3f
000002b0: 5b62 22be 7535 6b3e 1fc7 3f3e a79d 0cbe
000002c0: 6456 013e 3743 b1be f531 873c 51c0 913e
000002d0: b5ad 7dbe 3b9f d9bc 7a96 47be 4042 0abd
000002e0: 42d3 02be 3108 2c3e c72b 3fbd cd2e 3cbd
000002f0: 90b3 143e ee55 4dbe b866 b63c 44c8 b33d
00000300: 7c28 4f3f 3337 b93d fb6f efbe 1459 f2be
00000310: 999a dbbd a5e3 7f3e 69d9 33be decd 203e
00000320: d4e8 ba3c 354b 993e a83d f0bb 9ed8 693d
00000330: e361 5a3d ed93 e93d 201e 3bbe c096 40bd
00000340: bbf0 c9bd e7be 54be 2d00 a23d 5674 fdbd
00000350: 5534 023d 061b e93d 1536 48bd 9043 523e
00000360: 65e9 543e 009b a13f b6e3 533e 1602 b4bf
00000370: 2c79 bdbe 6b5b 6c3e dd4a cbbd 752c 903d
00000380: 7a48 1c3d 662d cf3e 7a99 ee3e cb79 65be
00000390: 38e7 11be 715c 95be df5a 953e 651b 553e
000003a0: 0ef6 323e a916 2c3d 9107 0d3e 173d 5dbe
000003b0: eb9a c6be e313 8dbe 0d2d 7bbd bbc6 7d3d
000003c0: 5910 103f bf2f d23f 9d8b a83e 3543 69bf
000003d0: 57c3 873e 9384 3f3e 758b 0bbf cc08 e1bc
000003e0: 062c 85be 0368 e73e ba1e 9d3e 7e93 69bd
000003f0: bd61 393e f5c7 513e 5e2e b3be 96c9 c0be

policy_net.0.bias f4 [64]
-0.09603023 -0.1002918 -0.23193619 -0.015270883 0.13404351 -0.21689448 0.12115832 -0.010345386
0.148007 0.1701615 -0.10833689 0.042201363 -0.28101897 -0.3053015 0.24688818 0.09921675
0.15054101 0.26259473 0.09460084 -0.14129548 0.035961375 0.0009049208 -0.19814514 0.08995776
-0.040298846 -0.0046981513 0.20789269 0.043094315 0.16959034 0.034308515 -0.11023946 -0.09944437
0.08801879 0.25099432 -0.111820646 -0.06335289 -0.025989134 0.027064139 -0.13650091 0.19634546
0.09078883 -0.26247767 0.03846359 0.00889902 -0.17720838 -0.19125918 0.25764897 -0.01185997
0.011266071 0.13904783 0.14262019 -0.0075692926 0.13646117 0.21976376 0.025596857 0.25077993
-0.19080912 0.0036822378 -0.10916965 0.15790235 0.16320042 -0.21451044 -0.15049033 -0.05070158
00000000: 7fab c4bd ca65 cdbd ae80 6dbe ba32 7abc
00000010: b442 093e 9619 5ebe da21 f83d b27f 29bc
00000020: 268f 173e d13e 2e3e bbdf ddbd 56db 2c3d
00000030: b8e1 8fbe 7a50 9cbe 41d0 7c3e 2732 cb3d
00000040: 6c27 1a3e d172 863e 16be c13d c3af 10be
00000050: 3c4c 133d 3538 6d3a 8fe6 4abe c63b b83d
00000060: 6710 25bd f3f2 99bb d2e1 543e aa83 303d
00000070: 17a9 2d3e 1687 0c3d 3ac5 e1bd 7da9 cbbd
00000080: 3243 b43d 5482 803e 3902 e5bd 29bf 81bd
00000090: 2ae7 d4bc 9db5 dd3c e5c6 0bbe c90e 493e
000000a0: 7eef b93d 7963 86be ff8b 1d3d 32cd 113c
000000b0: 1d76 35be 72d9 43be 91ea 833e 5250 42bc
000000c0: 5495 383c 8e62 0e3e 070b 123e d407 f8bb
000000d0: 7abc 0b3e c009 613e 80b0 d13c 3a66 803e
000000e0: 7763 43be b351 713b 5694 dfbd 27b1 213e
000000f0: 031e 273e a0a8 5bbe 231a 1abe 76ac 4fbd

policy_net.2.weight f4 [128, 64]
-0.20917355 0.054420713 -0.25188765 -0.2525236 0.07969402 0.25921467 0.04705961 0.22522438
0.15725335 0.08907682 -0.09575039 -0.4415224 0.22034408 -0.03938723 0.20724519 0.44365355
-0.20661135 -0.046029646 -0.1440769 0.03726124 -0.18086587 -0.12297631 0.2533127 0.305493
0.19006047 -0.33441424 -0.36966804 0.45422158 0.038370047 0.13099024 -0.44178826 -0.13052347
-0.29140288 0.09662495 -0.04727954 -0.116129026 0.04272626 0.1692126 -0.4413413 -0.23053867
0.06712441 -0.62278795 -0.2102243 0.78026193 -0.11091452 0.061359793 0.056152247 0.03761663
0.09458337 -0.47022548 -0.06680242 0.1433076 -0.07233734 -0.30614197 0.2537665 0.022315864
-0.10982168 -0.00039264894 0.25114366 0.110725805 -0.109966695 -0.19192803 0.047304332 -0.0052799997
-0.50141406 0.23260728 0.2784906 0.08226803 -1.5441856 0.08112228 0.16172561 -0.6337556
0.0129155675 -0.05198327 -0.012727259 -0.12312853 0.11722095 0.21290267 0.09310408 0.123635955
-0.12746626 0.11166133 0.121875875 -0.1296851 0.04740154 0.12389483 -0.21697377 -0.66429985
-0.039663117 0.00132488 0.27647832 0.3251995 0.033946365 0.034976043 0.02076565 0.017800681
-0.5182919 -0.22148553 0.0025880795 0.15734276 0.2234004 0.18777129 0.013688915 -0.31024045
-0.4529012 0.0006360505 0.022183837 -0.5789891 0.21146895 0.10605756 0.036371138 0.117028885
0.490803 0.13762982 -0.44585797 0.013441855 0.344509 -0.3425103 0.055870786 0.038120043
0.044183798 -0.19445229 -0.21130271 -0.041704513 0.18650243 0.10213872 -0.09603946 0.1249299
-0.17255597 -0.14828783 -0.31531006 0.17788063 0.06090473 0.33482122 0.08050228 0.087019406
0.14737955 0.12905791 0.09439314 -0.052776784 -0.17938095 -0.5637672 -0.09582824 -0.27099767
-0.20912448 0.15028192 0.45094946 -0.29848123 0.058841582 -0.037439432 -0.15815806 -0.3463046
-0.2397539 0.3798137 0.042766623 0.18019518 0.27572244 -0.15048233 -0.077817924 0.20448205
0.13915789 -0.046920326 -0.17496613 0.06807136 -0.015000652 -0.64920974 0.16531323 0.4934377
-0.033906884 -0.57677555 -0.07236249 -0.1308193 -0.25585237 0.10736497 -0.016237333 0.10392816
-0.059481353 0.15527464 0.25817394 -0.33612096 0.21906306 -0.1265584 -0.10342719 0.07379374
-0.47683442 -0.11732601 -0.6118829 0.0764462 0.2648159 -0.33391222 -0.11705654 -0.3642934
-0.44168097 0.30481592 -0.43313155 -0.06714118 -0.10635881 -0.03973225 -0.34673393 0.04711213
0.055294108 0.37282768 0.27366722 -0.22956964 -0.23155147 0.05415344 0.059766747 -0.059783228
0.021546029 0.14860862 -0.15614133 -0.60389143 0.12967844 -0.13637666 0.045939438 -0.13282391
-0.4609102 0.11979126 -0.073191926 -0.08563114 -0.17527603 -0.008701285 -0.12267136 -0.60098773
0.4750463 0.14997247 0.048452042 0.1448357 -0.109711535 0.07794908 0.25170285 -0.44426978
0.013629201 -0.44740835 0.06741771 -0.41491914 -0.112719856 -0.91899544 -0.52154624 0.14121181
-0.3763777 -0.2514993 0.4536875 -0.41008383 0.29888955 0.25004762 0.32240817 0.40818423
-0.21742578 -0.27867362 -0.12915246 -0.4130755 -0.3716126 -0.15519582 0.04646264 0.18277244
00000000: 9731 56be 41e8 5e3d 6bf7 80be c64a 81be
00000010: 9e36 a33d c9b7 843e 94c1 403d 38a1 663e
00000020: 0607 213e e86d b63d c818 c4bd 390f e2be
00000030: e1a1 613e 8154 21bd 1538 543e 8f26 e33e
00000040: ed91 53be 9589 3cbd e588 13be 3e9f 183d
00000050: e734 39be 01db fbbd 34b2 813e 9469 9c3e
00000060: 369f 423e 5838 abbe 2145 bdbe bb8f e83e
00000070: e929 1d3d 4e22 063e 1232 e2be f2a7 05be
00000080: c232 95be 4de3 c53d 31a8 41bd 0ed5 edbd
00000090: bb01 2f3d 1146 2d3e 7df7 e1be 5412 6cbe
000000a0: 8678 893d 086f 1fbf 0a45 57be 3fbf 473f
000000b0: 2727 e3bd 6854 7b3d e6ff 653d e513 1a3d
000000c0: edb4 c13d 65c1 f0be b5cf 88bd 3abf 123e
000000d0: 9925 94bd a4be 9cbe afed 813e c2cf b63c
000000e0: 30ea e0bd 73dc cdb9 e795 803e 36c4 e23d
000000f0: 3836 e1bd c888 44be 30c2 413d d903 adbb
00000100: ac5c 00bf 9a30 6e3e 5296 8e3e 247c a83d
00000110: e0a7 c5bf 7023 a63d 669b 253e cf3d 22bf
00000120: d19b 533c 69ec 54bd fe85 50bc d02a fcbd
00000130: 8a11 f03d 2803 5a3e 5aad be3d d934 fd3d
00000140: 8486 02be b2ae e43d 0f9a f93d 2ccc 04be
00000150: 1e28 423d 93bc fd3d 5f2e 5ebe 8e0f 2abf
00000160: cb75 22bd 99a7 ad3a 918e 8d3e 8d80 a63e
00000170: 580b 0b3d 0a43 0f3d b91c aa3c bcd2 913c
00000180: c7ae 04bf 1acd 62be c59c 293b 761e 213e
00000190: 13c3 643e 1e47 403e 7947 603c d6d7 9ebe
000001a0: abe2 e7be a0bc 263a e1ba b53c a138 14bf
000001b0: 518b 583e b534 d93d e7f9 143d d7ac ef3d
000001c0: 884a fb3e d5ee 0c3e 7f47 e4be 3a3b 5c3c
000001d0: 7c63 b03e 835d afbe c4d8 643d c323 1c3d
000001e0: 12fa 343d 801e 47be bd5f 58be 5ad2 2abd
000001f0: 7efa 3e3e 1b2e d13d 56b0 c4bd 3fdb ff3d
00000200: 83b2 30be c4d8 17be 5270 a1be 5726 363e
00000210: 3d77 793d b06d ab3e 61de a43d 3b37 b23d
00000220: aaea 163e c227 043e 3151 c13d 782c 58bd
00000230: a4af 37be 0c53 10bf 9941 c4bd 35c0 8abe
00000240: ba24 56be 81e3 193e d9e2 e63e 88d2 98be
00000250: df03 713d 175a 19bd 30f4 21be d64e b1be
00000260: 0c82 75be f176 c23e 0e2c 2f3d 1685 383e
00000270: 7e2b 8d3e 0a18 1abe 015f 9fbd be63 513e
00000280: 687f 0e3e 872f 40bd 522a 33be ff68 8b3d
00000290: 4bc5 75bc 9c32 26bf df47 293e dea3 fc3e
000002a0: f2e1 0abd 90a7 13bf c932 94bd 7ff5 05be
000002b0: 15ff 82be 2ae2 db3d 2804 85bc 4ad8 d43d
000002c0: b8a2 73bd 5100 1f3e 602f 843e 0c18 acbe
000002d0: 1152 603e 8698 01be a2d1 d3bd 2c21 973d
000002e0: a423 f4be 9e48 f0bd 5ca4 1cbf d38f 9c3d
000002f0: f395 873e 8bf6 aabe 57bb efbd aa84 babe
00000300: 0224 e2be d510 9c3e 6bc3 ddbe 5181 89bd
00000310: a6d2 d9bd 49be 22bd 1c87 b1be a6f8 403d
00000320: 137c 623d 45e3 be3e 1c1e 8c3e 4e14 6bbe
00000330: d41b 6dbe ffcf 5d3d facd 743d 42df 74bd
00000340: 4c81 b03c dc2c 183e 83e3 1fbe a198 1abf
00000350: 6dca 043e 53a6 0bbe fe2a 3c3d fe02 08be
00000360: 6cfc ebbe 1f55 f53d a6e5 95bd 615f afbd
00000370: 8f7b 33be d68f 0ebc 1f3b fbbd 55da 19bf
00000380: 4539 f33e 6292 193e a675 463d cf4f 143e
00000390: 71b0 e0bd c4a3 9f3d 32df 803e 5477 e3be
000003a0: 034d 5f3c b512 e5be 4c12 8a3d 4870 d4be
000003b0: abd9 e6bd 4943 6bbf 0e84 05bf d499 103e
000003c0: 94b4 c0be 84c4 80be ba49 e83e 82f6 d1be
000003d0: 0d08 993e 3e06 803e af12 a53e 86fd d03e
000003e0: dda4 5ebe 4fae 8ebe 8b40 04be a27e d3be
000003f0: 0244 bebe a7eb 1ebe 9c4f 3e3d b328 3b3e

policy_net.2.bias f4 [128]
0.06833518 -0.06436088 0.1679173 0.0042977463 0.0120536275 0.08412124 -0.029278608 -0.06453488
0.04548024 0.1256791 -0.19441812 0.032364476 -0.060944024 -0.12548734 0.09145031 0.050504904
0.043276414 -0.19763717 0.07501008 0.18333416 -0.22431475 0.027779488 -0.14331454 -0.097431384
-0.0033760201 -0.075164065 0.03337049 0.018721458 0.008282479 -0.025999013 -0.050453484 -0.081219845
0.016400108 0.016646056 -0.18789998 -0.1897426 -0.1619508 0.17969103 0.28103924 0.113977455
-0.13627037 -0.23825864 0.06604974 0.030242953 -0.18711299 -0.06377588 0.035775203 0.023990441
0.13466233 -0.25033426 -0.2185133 0.19298446 -0.053800777 0.14815496 0.032969695 -0.0030298175
0.10691725 -0.0011093506 0.021839423 0.015161429 -0.12550418 -0.09783831 0.11584417 -0.17559984
-0.114749566 -0.06825008 -0.0778789 -0.14971334 0.045867424 0.0085753305 -0.18612084 -0.14571235
0.1354782 -0.009409243 0.15065756 0.16823865 0.0012973155 -0.087077364 0.090946846 0.020994954
0.008484179 -0.013920502 -0.011571005 0.03710915 0.01582512 -0.033683807 0.02428228 -0.013536755
0.12827393 0.18048275 0.060642913 -0.027659912 -0.15446915 0.0052258666 -0.053843144 -0.06802065
-0.14818819 -0.13757661 -0.13033779 -0.3124913 0.05224474 -0.080915414 -0.011961763 0.0555164
-0.021801634 -0.17852488 0.011846784 0.031140842 -0.20155205 0.0477053 -0.113853015 -0.0097965775
-0.06705089 0.081931874 0.036172297 -0.055407885 -0.07744248 0.11210745 -0.2103584 -0.09703331
0.02707505 0.051900588 -0.14712003 0.28819495 -0.06837819 0.05039447 0.13804056 0.004552243
00000000: 51f3 8b3d a3cf 83bd 83f2 2b3e 1cd4 8c3b
00000010: 947c 453c c247 ac3d b1d9 efbc dd2a 84bd
00000020: 7d49 3a3d 06b2 003e 8b15 47be 9d90 043d
00000030: 71a0 79bd c17f 00be 4d4a bb3d 3bde 4e3d
00000040: 9c42 313d 6661 4abe e39e 993d f3bb 3b3e
00000050: c4b2 65be cf91 e33c 0cc1 12be 1b8a c7bd
00000060: 3840 5dbb 9eef 99bd 7faf 083d be5d 993c
00000070: 3cb3 073c e2fb d4bc 50a8 4ebd 9756 a6bd
00000080: 8559 863c 4f5d 883c da68 40be e24b 42be
00000090: 6ed6 25be ed00 383e 60e4 8f3e 036d e93d
000000a0: 768a 0bbe 13fa 73be 1645 873d 12c0 f73c
000000b0: 8c9a 3fbe ee9c 82bd 0589 123d 9a87 c43c
000000c0: ece4 093e d02b 80be f3c1 5fbe b89d 453e
000000d0: 345e 5cbd efb5 173e 3b0b 073d e78f 46bb
000000e0: 6ef7 da3d a167 91ba 97e8 b23c a467 783c
000000f0: 2b84 00be 745f c8bd b53f ed3d 72d0 33be
00000100: d201 ebbd b3c6 8bbd f97e 9fbd 744e 19be
00000110: 7bdf 3b3d 8b7f 0c3c 7696 3ebe 9e35 15be
00000120: ccba 0a3e 3a29 1abc fa45 1a3e c146 2c3e
00000130: af0a aa3a 9e55 b2bd 5742 ba3d 9cfd ab3c
00000140: 3a01 0b3c d112 64bc 5094 3dbc c4ff 173d
00000150: afa3 813c 08f8 09bd a2eb c63c 44c9 5dbc
00000160: 3e5a 033e 78d0 383e b464 783d 0a97 e2bc
00000170: 292d 1ebe bf3d ab3b a18a 5cbd 694e 8bbd
00000180: a5be 17be e2e0 0cbe 4577 05be dcfe 9fbe
00000190: 95fe 553d fbb6 a5bd 45fb 43bc 2a65 633d
000001a0: 5799 b2bc 3acf 36be 0319 423c 141b ff3c
000001b0: a963 4ebe a266 433d c52b e9bd d381 20bc
000001c0: fa51 89bd e6cb a73d 6729 143d 61f3 62bd
000001d0: 2a9a 9ebd 9798 e53d 3168 57be 66b9 c6bd
000001e0: 7fcc dd3c b695 543d a2a6 16be 4a8e 933e
000001f0: dd09 8cbd 6f6a 4e3d 815a 0d3e fb2a 953b

policy_net.4.weight f4 [128, 128]
-0.1255189 0.15262355 0.13088296 -0.07636012 -0.004381872 0.21758647 0.12058182 0.25970998
-0.5807872 0.018740593 -0.13809988 0.070272535 -0.0071082674 0.033561654 0.39926773 -0.39996007
-0.17071582 0.18477456 0.16512722 -0.45814213 0.38483796 -0.00038179103 0.26825565 -0.26012456
0.101472214 -0.07777304 -0.6280336 0.35785964 0.024463205 -0.22388557 -0.3562312 -0.22735085
0.09949471 0.040063348 0.29351377 -0.57224584 -0.022653876 -0.25457838 -0.20035718 -0.104555495
0.25415272 -0.032477006 0.17520382 0.17952636 -0.12759155 -1.0265082 -0.31104365 -0.49904963
0.20292468 0.5587502 0.17231044 0.20669746 0.38083768 -0.23239183 -0.32857376 -0.096042484
-0.079236284 -0.44287527 -0.2764448 -0.08750266 0.29725325 0.26376715 -0.8568238 -0.043772236
-0.120756075 0.066047445 -0.26315293 -0.0048119393 -0.14022532 -0.3446082 -0.20636816 -0.24295138
-0.124927 -0.06498921 -0.10803082 -0.17369169 -0.1331512 -0.11643808 0.3072602 -0.22012685
0.27120364 0.15289372 0.13280964 -0.1274411 -0.25621575 0.30968022 -0.06445141 0.15395933
0.05008887 -0.21362871 0.029188469 -0.17916638 -0.03850295 0.21296264 -0.23079272 0.42361504
-0.24815638 0.27648824 -0.24309567 -0.12894568 0.13363065 -0.049123 -0.18989109 0.32274652
-0.05798821 -0.21790944 0.32635108 0.12278695 0.15990709 -0.43921494 -0.004280555 -0.12628241
-0.19297005 0.1235594 -0.18777663 -0.3363196 0.028326645 -0.4293255 0.15582202 -0.01635355
0.1803874 -0.11696332 -0.44196054 -0.46970287 0.01067424 0.40312904 0.09559386 -0.08546975
0.055149652 -0.042162355 -0.722917 -0.30591726 -0.25152516 -0.053789366 -0.0042181667 0.09205438
-0.35051113 -0.5952339 0.011367418 0.059522174 -0.51156807 -0.056361005 0.28354877 0.21016368
-0.570876 0.15287107 -0.25212812 0.03046288 -0.1426796 -0.39970228 -0.15458262 -0.13752274
-0.3068898 0.059938382 -0.15896998 -0.43878186 -0.07423627 0.06981637 -0.10559159 0.12957887
0.13380286 0.041862823 -0.09058678 -0.93189734 -0.25041452 -0.08573435 0.008811469 0.28910542
0.23507088 -0.32826 -0.1447942 -0.044470478 -0.15807185 -0.5497778 -0.05401363 -0.12892479
-0.45223606 0.17820615 0.35846597 -0.8193146 -0.1676676 0.1115327 -0.112949066 0.4244413
0.11904891 0.008976623 0.021013383 -0.012031302 -0.5986203 -0.34043127 -0.112997465 -0.25431055
-0.47737417 0.02301214 0.04819195 0.11061715 -0.30089968 -0.22930378 -0.5594667 0.08376965
-0.33801576 -0.08516613 -0.1719881 0.30617335 0.19826299 -0.14531665 -0.22491358 0.28630623
-0.17559785 -0.33436084 -0.21861681 0.2239148 -0.3776257 0.030514136 -0.11236901 0.28642845
-0.31641614 -0.10798578 -0.07444894 0.07293168 0.28798693 -0.243716 0.05120746 -0.49488175
-0.32588392 -0.33011287 0.4814992 -0.07548495 -0.42281848 -0.04538256 0.102419786 -0.07948716
0.16931044 0.08404912 0.16508032 -0.23488699 0.102023415 0.16017528 -0.37280124 -0.06379971
-0.062287394 -0.31127146 0.30556515 0.32042557 -0.23258588 0.0047006872 0.014906197 -0.08638002
-0.017317928 -0.017898971 0.16991071 -0.25141665 -0.16998078 -0.18931708 -0.38366845 0.12829427
00000000: 0788 00be 5949 1c3e 2f06 063e b262 9cbd
00000010: ce95 8fbb fdce 5e3e 9af3 f63d b5f8 843e
00000020: 78ae 14bf df85 993c 0e6a 0dbe 0ceb 8f3d
00000030: 78ec e8bb f277 093d d26c cc3e 91c7 ccbe
00000040: 21d0 2ebe 8b35 3d3e 1c17 293e 9b91 eabe
00000050: 7b09 c53e 202b c8b9 ce58 893e 0c2f 85be
00000060: aad0 cf3d 7947 9fbd cfc6 20bf 6139 b73e
00000070: 0f67 c83c 4242 65be f063 b6be a9ce 68be
00000080: e2c3 cb3d 7719 243d 7047 963e b47e 12bf
00000090: 9f94 b9bc 1958 82be 6f2a 4dbe 3121 d6bd
000000a0: 4e20 823e 9c06 05bd a168 333e c2d5 373e
000000b0: 5ca7 02be 9f64 83bf 1d41 9fbe 6f83 ffbe
000000c0: 7dcb 4f3e 410a 0f3f 2672 303e 80a8 533e
000000d0: 28fd c23e 20f8 6dbe d23a a8be ecb1 c4bd
000000e0: a246 a2bd 8cc0 e2be 2c8a 8dbe 9834 b3bd
000000f0: 9431 983e 7d0c 873e ce58 5bbf 844a 33bd
00000100: f64e f7bd e243 873d fbbb 86be 79ad 9dbb
00000110: 3a97 0fbe 7c70 b0be 2d52 53be 3fc8 78be
00000120: bad9 ffbd 1019 85bd 433f ddbd 3cdc 31be
00000130: ca58 08be 1777 eebd 3551 9d3e ef68 61be
00000140: 34db 8a3e 2c90 1c3e 40ff 073e eb7f 02be
00000150: b62e 83be 688e 9e3e 1aff 83bd 84a7 1d3e
00000160: fd29 4d3d 7cc1 5abe a81c ef3c 6477 37be
00000170: 45b5 1dbd e112 5a3e ed54 6cbe 12e4 d83e
00000180: b51c 7ebe de8f 8d3e 12ee 78be 560a 04be
00000190: 79d6 083e 3335 49bd cf72 42be 083f a53e
000001a0: 0c85 6dbd a723 5fbe 7d17 a73e b977 fb3d
000001b0: afbe 233e c8e0 e0be e643 8cbb 2d50 01be
000001c0: f199 45be b60c fd3d 8448 40be 1532 acbe
000001d0: 480d e83c 8dd0 dbbe cf8f 1f3e e1f7 85bc
000001e0: 79b7 383e 778a efbd a748 e2be e57c f0be
000001f0: 02e3 2e3c ee66 ce3e b7c6 c33d c40a afbd
00000200: 9ae4 613d 6fb2 2cbd 1711 39bf 30a1 9cbe
00000210: e8c7 80be 3d52 5cbd 8c38 8abb 0287 bc3d
00000220: 3276 b3be 4061 18bf 683e 3a3c 86cd 733d
00000230: 20f6 02bf ccda 66bd 4e2d 913e 2635 573e
00000240: ee24 12bf 3c8a 1c3e f016 81be 4a8d f93c
00000250: 9a1a 12be c7a5 ccbe e84a 1ebe c3d2 0cbe
00000260: a920 9dbe f381 753d 07c9 22be 04a8 e0be
00000270: 2f09 98bd e3fb 8e3d 6740 d8bd 53b0 043e
00000280: 9e03 093e 5a78 2b3d 9085 b9bd d390 6ebf
00000290: 5536 80be 7e95 afbd fb5d 103c a005 943e
000002a0: 6cb6 703e b211 a8be ee44 14be ad26 36bd
000002b0: 96dd 21be 3dbe 0cbf 653d 5dbd dc04 04be
000002c0: 7c8b e7be ac7b 363e da88 b73e 9abe 51bf
000002d0: 0eb1 2bbe 426b e43d d751 e7bd 5f50 d93e
000002e0: eacf f33d b012 133c 4224 ac3c f01e 45bc
000002f0: 2e3f 19bf 024d aebe 376b e7bd fe34 82be
00000300: 636a f4be f583 bc3c ec64 453d 3f8b e23d
00000310: 860f 9abe 9cce 6abe 3639 0fbf 6c8f ab3d
00000320: 6710 adbe 946b aebd a61d 30be c1c2 9c3e
00000330: 7405 4b3e e3cd 14be bf4f 66be bb96 923e
00000340: eccf 33be 5831 abbe 16dd 5fbe ec49 653e
00000350: 2858 c1be c8f8 f93c b921 e6bd c0a6 923e
00000360: 4c01 a2be a627 ddbd b078 98bd 345d 953d
00000370: 0673 933e b090 79be eabe 513d 2461 fdbe
00000380: 42da a6be 8e04 a9be 1087 f63e da97 9abd
00000390: aa7b d8be 10e3 39bd 77c1 d13d 2aca a2bd
000003a0: b75f 2d3e f221 ac3d d10a 293e 3786 70be
000003b0: a7f1 d03d fd04 243e cedf bebe 6ca9 82bd
000003c0: 1121 7fbd f95e 9fbe 0973 9c3e d20e a43e
000003d0: fe2a 6ebe 3908 9a3b 1f39 743c 02e8 b0bd
000003e0: 54de 8dbc dda0 92bc 13fd 2d3e afb9 80be
000003f0: 710f 2ebe 56dc 41be 3170 c4be 935f 033e

policy_net.4.bias f4 [128]
-0.14529766 -0.09390349 0.046328753 -0.10935762 -0.07388521 0.060305685 -0.032555275 -0.12315278
-0.095587954 -0.10225748 0.10775533 -0.020578554 0.053125355 -0.15624867 0.005198865 0.10703802
-0.0023589528 0.0016574382 -0.108876154 -0.014885484 -0.09564766 -0.024583597 -0.1853294 -0.26721463
-0.13280542 0.15408891 -0.06677248 -0.05956363 -0.063049644 0.1036905 0.08358144 -0.09201447
0.136929 0.14855845 0.046226103 0.02204479 0.0692683 0.16463184 -0.2782715 0.04947033
0.043069143 -0.11787047 0.031863548 0.11906193 -0.13835356 0.1163657 0.14473319 -0.03163277
-0.026934916 -0.18433267 -0.09893431 0.15855433 -0.25964144 0.07165678 0.049427085 -0.22607177
-0.068148576 0.06356067 0.038732015 -0.0020855123 -0.13355212 0.03553897 -0.33149946 0.056840926
-0.033081587 0.04232366 -0.26394245 0.13202178 -0.16909797 -0.16101661 -0.040254947 -0.23054089
0.21250437 -0.015933897 0.13830106 -0.12811987 -0.20876506 0.20745748 0.17682052 0.06674014
-0.48186338 -0.12173576 0.32863036 -0.17873333 -0.09203195 -0.026735209 -0.05693635 0.1855962
-0.2395121 0.042634577 -0.06978936 -0.18145424 -0.11062063 -0.04564888 -0.28064862 0.10353217
-0.22187904 0.07039118 -0.13856828 0.05713359 0.19787955 0.11421266 0.0463683 -0.01302359
-0.2018809 0.020531598 0.010573871 -0.2627608 -0.014042508 0.08519056 -0.11447357 0.031269792
-0.0722249 0.13259256 0.09441598 0.15471222 -0.034611475 0.12553844 -0.117497 0.23329388
-0.16688405 0.15262862 -0.023736991 0.070196725 -0.16854817 -0.03714669 0.039228518 -0.06865924
00000000: e9c8 14be 7950 c0bd 38c3 3d3d e3f6 dfbd
00000010: 2151 97bd 1803 773d ae58 05bd 8637 fcbd
00000020: 9ec3 c3bd 5f6c d1bd d4ae dc3d 5b94 a8bc
00000030: f999 593d a7ff 1fbe 3e5b aa3b c036 db3d
00000040: a998 1abb 663e d93a 76fa debd 3fe2 73bc
00000050: ece2 c3bd 8a63 c9bc fdc6 3dbe 5bd0 88be
00000060: 25fe 07be 7cc9 1d3e 03c0 88bd fef8 73bd
00000070: 2c20 81bd af5b d43d bf2c ab3d 1572 bcbd
00000080: 1e37 0c3e b51f 183e 9557 3d3d 4797 b43c
00000090: 8adc 8d3d 4095 283e 9a79 8ebe 67a1 4a3d
000000a0: 4569 303d 1366 f1bd 5a83 023d bed6 f33d
000000b0: 8eac 0dbe 2451 ee3d f034 143e 5d91 01bd
000000c0: 9da6 dcbc b4c1 3cbe 129e cabd 115c 223e
000000d0: b9ef 84be cac0 923d 0e74 4a3d 5c7f 67be
000000e0: 7b91 8bbd 192c 823d 76a5 1e3d 17ad 08bb
000000f0: e3c1 08be 5091 113d 4cba a9be 08d2 683d
00000100: 8f80 07bd 935b 2d3d 7723 87be b830 073e
00000110: 0528 2dbe 8ae1 24be 5fe2 24bd e912 6cbe
00000120: bf9a 593e ce87 82bc cb9e 0d3e db31 03be
00000130: 82c6 55be bc6f 543e 7010 353e 0eaf 883d
00000140: ccb6 f6be 9950 f9bd 3d42 a83e df05 37be
00000150: 3f7b bcbd cc03 dbbc 1736 69bd ee0c 3e3e
00000160: a942 75be 98a1 2e3d b9ed 8ebd 24cf 39be
00000170: 128d e2bd 52fa 3abd 2db1 8fbe ad08 d43d
00000180: 4234 63be 4029 903d d8e4 0dbe e904 6a3d
00000190: f0a0 4a3e 54e8 e93d b0ec 3d3d e560 55bc
000001a0: deb9 4ebe e231 a83c 083e 2d3c 9588 86be
000001b0: 8c12 66bc 6378 ae3d 1e71 eabd c114 003d
000001c0: a6ea 93bd 58c6 073e 2a5d c13d e16c 1e3e
000001d0: c3c4 0dbd 268d 003e 44a2 f0bd 97e4 6e3e
000001e0: a7e3 2abe ad4a 1c3e 1474 c2bc 4dc3 8f3d
000001f0: e497 2cbe 2127 18bd 15ae 203d 379d 8cbd

policy_net.6.weight f4 [64, 128]
-0.15732998 0.28632107 0.33765173 -0.60179824 -0.16258854 -0.10586382 0.020406552 0.1533383
0.24098283 -0.1597203 -0.21575356 -0.13281277 -0.16927613 -0.24071765 -0.34704787 -0.0370059
0.14449134 -0.015373044 -0.08384696 0.09610259 0.20557243 0.0023939821 0.21300834 0.0686142
-0.3389675 0.26177326 -0.23462006 0.34914678 0.17782208 -0.015265544 -0.5156111 -0.26259366
-0.04652409 -0.29294285 -0.36022678 -0.037371386 0.1294545 -0.70658445 -0.042328134 0.2817909
0.10063846 -0.45556203 0.16363573 0.14422053 -0.36143485 0.30840042 -0.09303966 -0.03603682
-0.0466064 0.3412031 -0.4002818 0.1078589 0.21792568 -0.057755202 -0.014897886 0.1783875
0.06692615 -0.011457194 0.3989454 -0.038317822 0.24373834 0.23162426 -0.3697228 -0.08134975
-0.33674312 0.08006081 -0.021797553 0.024758212 -0.09292606 -0.43770447 0.07459665 -0.4113171
0.06576761 -0.031425577 -0.71984714 0.16401127 -0.18688077 -0.35807312 -0.27960643 -0.25314763
0.11767922 0.015623011 0.20280646 -0.26753956 -0.47826242 -0.23124802 0.28357774 -0.31308952
0.10131351 -0.1694495 0.03874173 -0.42741418 -0.030693255 -0.09826469 0.12040114 -0.8868158
-0.15917236 0.028995812 -0.20293097 0.044226 -0.71773225 0.118482575 -0.024492556 -0.042678837
-0.25847358 -0.15027428 0.03607143 -0.044405375 0.2825386 0.11722397 -0.04192783 -0.3728744
-0.21928507 -0.0487292 -0.10562565 -0.6089102 0.5055992 -0.5069867 -0.6771382 -0.015007166
-0.036466427 0.17903708 -0.02894145 0.20225164 -0.16319403 -0.26019 -0.34442684 -0.10188653
-0.034989122 -0.025404837 -0.12333421 -0.05962199 -0.29235992 0.2751759 0.02395916 -0.06535867
-0.28045464 0.011657732 0.06957052 -0.00018458113 -0.20515431 -0.103695184 0.14744344 0.3087859
0.14238709 -0.19835262 0.044220496 0.035468798 -0.063076295 0.28967035 0.01824495 -0.46123558
-0.9659561 -0.058965497 -0.66302204 -0.5471179 0.19160618 0.0716301 -0.108844034 -0.5356479
-0.016687384 0.079584725 -0.014072721 -0.06247437 -0.042716812 0.06407795 0.019409759 0.17938116
-0.19493456 0.17559057 0.071088865 -0.86423665 -0.3329743 0.14284208 -0.16268115 -0.020782556
-0.12086937 -0.015792914 -0.08795381 0.2327173 0.014859182 -0.0052926983 0.028832575 0.037714355
-0.19517992 0.15463628 -0.06584923 0.0160989 0.009319802 -0.048094116 -0.030117346 -0.06551507
-0.05437479 -0.28203943 0.24373803 -0.0017376271 -0.77052456 -0.00045158205 0.0997682 0.26254916
0.17966476 -0.6146926 -0.31052965 -0.2118613 0.2244461 0.17752542 -0.5245136 -0.03562869
0.051232163 -0.12845507 -0.18572766 -0.12753245 -0.4976056 0.12664017 0.021980835 -0.49981585
0.10606852 0.07506155 -0.14209552 -0.095919676 -0.032762557 0.2722592 0.006579808 -0.19127801
0.05275015 -0.16676879 0.11775644 -0.2819955 -0.02897227 0.26228064 -0.3392227 0.12688294
-0.25228557 0.098117374 -0.015887812 0.08084275 -0.28068912 0.40189156 0.063835144 0.17278296
-0.5932162 0.08229206 -0.064379044 -0.4818564 0.0048672245 -0.01184636 -0.2944282 -0.4862048
0.037540514 -0.14719264 0.057766233 -0.23222119 0.024980964 0.0051948046 -0.38093168 0.31227893
00000000: 1c1b 21be ad98 923e b0e0 ac3e 730f 1abf
00000010: 9c7d 26be 21cf d8bd a42b a73c b704 1d3e
00000020: 34c4 763e b88d 23be 80ee 5cbe 1200 08be
00000030: b956 2dbe b07e 76be 42b0 b1be 8093 17bd
00000040: 8af5 133e 38df 7bbc f4b7 abbd 6fd1 c43d
00000050: 9481 523e 5be4 1c3b dc1e 5a3e 9a85 8c3d
00000060: 268d adbe 2507 863e 3e40 70be 5ec3 b23e
00000070: fe16 363e 551c 7abc 17ff 03bf ad72 86be
00000080: 0b90 3ebd 9bfc 95be a56f b8be bd12 19bd
00000090: b88f 043e b8e2 34bf 4460 2dbd e646 903e
000000a0: 891b ce3d 6d3f e9be 2090 273e 8cae 133e
000000b0: fd0d b9be a9e6 9d3e 948b bebd 589b 13bd
000000c0: 5ae6 3ebd 2cb2 ae3e bcf1 ccbe 21e5 dc3d
000000d0: e927 5f3e b890 6cbd 4316 74bc 36ab 363e
000000e0: 9410 893d f4b6 3bbc 9242 cc3e 26f3 1cbd
000000f0: 8b96 793e e92e 6d3e 4f4c bdbe b39a a6bd
00000100: 9869 acbe ecf6 a33d c890 b2bc bcd1 ca3c
00000110: 0550 bebd cd1a e0be 21c6 983d 2898 d2be
00000120: 2bb1 863d 1bb8 00bd e747 38bf 92f2 273e
00000130: ac5d 3fbe 5c55 b7be 9328 8fbe 919c 81be
00000140: ce01 f13d a8f7 7f3c 7fac 4f3e f2fa 88be
00000150: d0de f4be 48cc 6cbe 1a31 913e 454d a0be
00000160: 757d cf3d 2b84 2dbe a6af 1e3d 08d6 dabe
00000170: 6c70 fbbc ff3e c9bd df94 f63d 5c06 63bf
00000180: 14fe 22be a088 ed3c 23cd 4fbe 5226 353d
00000190: 4dbd 37bf fea6 f23d 9da4 c8bc 01d0 2ebd
000001a0: a656 84be 80e1 19be a3bf 133d 69e2 35bd
000001b0: e6a8 903e 1f13 f03d 84bc 2bbd 65e9 bebe
000001c0: 448c 60be 4598 47bd 4352 d8bd 8ae1 1bbf
000001d0: f36e 013f e1c9 01bf ee58 2dbf 9ee0 75bc
000001e0: d25d 15bd 7f55 373e 9f16 edbc 0e1b 4f3e
000001f0: 561c 27be a037 85be b758 b0be e3a9 d0bd
00000200: c150 0fbd ce1d d0bc a596 fcbd 3036 74bd
00000210: 33b0 95be dbe3 8c3e 0046 c43c c4da 85bd
00000220: c097 8fbe 1200 3f3c fd7a 8e3d 1f8c 41b9
00000230: f913 52be 245e d4bd 6afb 163e 2f19 9e3e
00000240: eccd 113e f31c 4bbe 8d20 353d bb47 113d
00000250: 252e 81bd ac4f 943e 6f76 953c 1227 ecbe
00000260: e648 77bf ce85 71bd d0bb 29bf eb0f 0cbf
00000270: 6934 443e cdb2 923d 9fe9 debd 3920 09bf
00000280: fbb3 88bc 51fd a23d 4591 66bc 20e5 7fbd
00000290: d3f7 2ebd 4d3b 833d 3701 9f3c b2af 373e
000002a0: ed9c 47be 04ce 333e 0a97 913d 9d3e 5dbf
000002b0: 9c7b aabe 3245 123e e395 26be 2e40 aabc
000002c0: 5c8a f7bd 2460 81bc 2121 b4bd 724d 6e3e
000002d0: ed73 733c 5f6e adbb 4b32 ec3c 5e7a 1a3d
000002e0: 3fdd 47be f958 1e3e f6db 86bd d7e1 833c
000002f0: 15b2 183c 56fe 44bd a7b8 f6bc c42c 86bd
00000300: 1ab8 5ebd 7967 90be 7696 793e 17c1 e3ba
00000310: 1941 45bf 51c2 ecb9 4553 cc3d d86c 863e
00000320: 0afa 373e 7f5c 1dbf befd 9ebe 2bf2 58be
00000330: 33d5 653e 39c9 353e 8646 06bf 64ef 11bd
00000340: d1d8 513d ba89 03be 642f 3ebe de97 02be
00000350: 29c6 febe f6ad 013e 2711 b43c dde7 ffbe
00000360: 743a d93d dfb9 993d 7d81 11be 8971 c4bd
00000370: 0832 06bd 8f65 8b3e 6e9b d73b 62de 43be
00000380: 8b10 583d 70c5 2abe 4a2a f13d b761 90be
00000390: 4157 edbc a649 863e 99ae adbe 9aed 013e
000003a0: 932b 81be c3f1 c83d 2827 82bc e290 a53d
000003b0: 7cb6 8fbe bbc4 cd3e 00bc 823d 04ee 303e
000003c0: 04dd 17bf bd88 a83d 29d9 83bd e2b5 f6be
000003d0: 3d7d 9f3b 3c17 42bc 4bbf 96be d6ef f8be
000003e0: 15c4 193d abb9 16be 499c 6c3d 64cb 6dbe
000003f0: e1a4 cc3c 2e39 aa3b 7a09 c3be 06e3 9f3e

policy_net.6.bias f4 [64]
-0.006944486 0.28966376 -0.19888884 -0.13362184 -0.39474 0.21803793 -0.12224175 -0.032364115
-0.049794797 0.15800151 0.32932696 0.0011894047 0.31628853 0.13133818 0.40090802 0.24435027
-0.08826343 -0.10194094 0.11902142 0.1426253 -0.027086237 0.28708795 -0.054630082 0.06865514
0.13375272 0.22928473 0.30989885 -0.014262935 0.25964016 0.1503422 0.1993987 0.073579684
-0.12719768 0.29629412 0.10966467 0.06061804 0.11380905 0.08821991 0.23835929 -0.32371277
0.20191768 -0.03333014 0.05445027 -0.18900014 0.2994499 0.40136716 -0.040486597 0.109102756
-0.08911929 -0.33500782 -0.2421078 0.32254425 -0.23092504 0.026638696 -0.08449171 -0.17998844
0.44183755 0.092716575 0.05932777 -0.21618463 0.110347226 0.210263 -0.021182114 0.12375833
00000000: 928e e3bb cf4e 943e 84a9 4bbe 2ad4 08be
00000010: 5c1b cabe 5645 5f3e e259 fabd 3c90 04bd
00000020: a1f5 4bbd 26cb 213e 8b9d a83e cde5 9b3a
00000030: 92f0 a13e 847d 063e d143 cd3e f536 7a3e
00000040: 75c3 b4bd 69c6 d0bd 81c1 f33d 5e0c 123e
00000050: f5e3 ddbc 31fd 923e cbc3 5fbd 119b 8c3d
00000060: 79f6 083e 9ec9 6a3e 10ab 9e3e 16af 69bc
00000070: 8eef 843e 4ef3 193e 2c2f 4c3e f2b0 963d
00000080: 1c40 02be ddb3 973e df97 e03d 9f4a 783d
00000090: b814 e93d a4ac b43d 7514 743e aebd a5be
000000a0: 82c3 4e3e 2f85 08bd 3f07 5f3d 4189 41be
000000b0: 7f51 993e ff7f cd3e 46d5 25bd 4471 df3d
000000c0: 2d84 b6bd 2586 abbe 1beb 77be 8524 a53e
000000d0: 9d77 6cbe 6539 da3c fd09 adbd e44e 38be
000000e0: 8838 e23e 30e2 bd3d ad01 733d 815f 5dbe
000000f0: bafd e13d 2f4f 573e 1d86 adbc 0275 fd3d

policy_net.8.weight f4 [4, 64]
-0.13806131 0.028007558 -0.3504712 0.13542987 0.16568993 0.14943586 -0.002143179 -0.07475365
-0.13545288 0.03273534 0.01058681 0.20573385 -0.08441793 0.29647416 0.05364399 0.09575979
-0.0315204 -0.01898193 -0.10172135 0.1642779 0.14438663 0.144023 -0.0063704313 0.081189595
-0.13845903 -0.116239145 0.05440384 0.10689356 -0.049235914 -0.15955679 -0.048323285 -0.008533499
0.044986386 0.025695102 -0.034540895 -0.112144575 0.11121331 0.065499745 -0.0035704982 0.016089577
0.1444453 -0.16078244 -0.045693047 -0.07123191 -0.054780174 -0.070431024 0.16115652 0.013008047
-0.04531835 0.11530641 -0.074913956 0.026292698 0.25507963 0.036019642 -0.13185893 -0.16383368
-0.15193091 0.07986729 0.058032457 -0.084178254 0.14520817 -0.07062416 0.012975115 -0.018638344
0.03655277 -0.008329351 0.26426542 -0.040976197 0.1913802 0.16661525 -0.014154772 -0.08034484
0.2613319 0.051705565 -0.04116796 -0.05276697 0.074087806 0.11411556 0.020350095 -0.22902812
-0.013708103 -0.091263026 -0.11223965 -0.016283166 0.24026154 0.06581865 -0.04064997 0.08503771
-0.052945267 -0.089413926 0.061453547 0.05044285 -0.04792786 -0.12795304 -0.14883971 0.088845365
0.09554077 0.13110504 -0.124551535 0.045072243 -0.047640014 0.12548767 0.07149511 0.15338296
0.1068772 -0.059483856 0.18700112 -0.042760905 -0.1396642 -0.04418706 0.014947848 0.027121648
0.019102015 -0.09902132 -0.03883345 -0.055449963 0.23823714 0.117657706 -0.040492605 0.016920125
-0.13696015 -0.11665315 -0.08148931 -0.21680585 0.23119162 -0.056447774 0.1973685 0.05062837
0.09593197 0.01806912 -0.018171884 -0.07210733 -0.244463 -0.07070195 -0.22487572 0.10564465
0.16427374 0.09748015 -0.14398392 -0.054300394 0.1649791 -0.01510828 -0.19923401 -0.038510658
-0.09860314 -0.12634996 0.018282847 -0.08397108 -0.36100733 0.0013466756 -0.08321308 -0.014503589
0.14134349 0.17751282 0.13876425 0.14492805 0.13026814 0.1262706 -0.017727243 0.06288006
-0.14744717 -0.03915896 -0.015382262 -0.06563983 0.20352139 -0.07809634 0.052724563 -0.272376
-0.34785163 0.06636384 0.0019650524 0.17689131 0.14346816 0.2699358 -0.27551836 0.0707514
0.14760816 -0.05781274 -0.015417296 0.066451356 0.24907734 -0.075417235 0.074301444 0.041440498
0.2866562 -0.00957626 -0.003034539 0.15803166 -0.31236157 0.105860025 -0.08083361 0.16098861
-0.0912515 -0.17405915 -0.05417979 -0.030566808 0.04656989 -0.028805295 0.09584253 -0.021444818
-0.13626643 0.14297917 0.0035489448 -0.026691379 0.030769706 -0.05039647 0.15274358 -0.034960326
-0.16020921 0.078962766 0.022885675 -0.0081691975 -0.1871985 0.0038682665 -0.073813066 -0.011387008
-0.011648861 0.031045115 -0.04944269 -0.034257047 -0.06891013 -0.031501926 -0.00075783895 0.0292784
0.041725185 0.019356787 0.04272726 0.0075560394 -0.002557629 -0.041437477 -0.12372022 0.004873092
0.0349876 0.028196754 0.07319433 -0.09320626 -0.046786938 -0.059295602 0.021288931 -0.08368477
-0.085028104 -0.022246579 -0.09837737 -0.092846476 0.012924256 0.22368795 -0.0013830066 0.07295724
-0.14895739 -0.021648569 -0.005172297 -0.08929401 0.076731645 -0.09654474 -0.227551 0.09559175
00000000: f25f 0dbe 1b70 e53c f670 b3be 21ae 0a3e
00000010: 9faa 293e b705 193e 9474 0cbb 7118 99bd
00000020: 29b4 0abe 7e15 063d 4d74 2d3c e5ab 523e
00000030: 4fe3 acbd 76cb 973e cdb9 5b3d b51d c43d
00000040: 891b 01bd fe7f 9bbc 4853 d0bd 7738 283e
00000050: 17da 133e c47a 133e 0dbf d0bb bb46 a63d
00000060: 34c8 0dbe ca0e eebd 90d6 5e3d 03eb da3d
00000070: 99ab 49bd db62 23be a3ee 45bd 17d0 0bbc
00000080: a543 383d 897e d23c c17a 0dbd 0eac e5bd
00000090: cec3 e33d bb24 863d 05ff 69bb 4ace 833c
000000a0: 78e9 133e 27a4 24be a228 3bbd 09e2 91bd
000000b0: 2d61 60bd 243e 90bd 3706 253e b41f 553c
000000c0: bc9f 39bd c425 ec3d 7d6c 99bd c963 d73c
000000d0: cc99 823e 5589 133d 0706 07be 04c4 27be
000000e0: c793 1bbe 7691 a33d 71b3 6d3d a665 acbd
000000f0: 73b1 143e 66a3 90bd 9495 543c 71af 98bc
00000100: 5bb8 153d d577 08bc cc4d 873e a8d6 27bd
00000110: 2cf9 433e 309d 2a3e 6be9 67bc d68b a4bd
00000120: 4bcd 853e 37c9 533d bc9f 28bd 2e22 58bd
00000130: 59bb 973d 6bb5 e93d 3eb5 a63c 5986 6abe
00000140: f497 60bc 1ce8 babd e7dd e5bd 4664 85bc
00000150: 1f07 763e eecb 863d 9580 26bd 4028 ae3d
00000160: 23dd 58bd a61e b7bd b7b6 7b3d 299d 4e3d
00000170: 0150 44bd 1f06 03be 7069 18be 8ff4 b53d
00000180: e1aa c33d 6640 063e e014 ffbd ac9d 383d
00000190: 2d22 43bd d77f 003e 076c 923d 6c10 1d3e
000001a0: 6fe2 da3d 58a5 73bd 397d 3f3e 0f26 2fbd
000001b0: 2204 0fbe 7efd 34bd d2e7 743c 382e de3c
000001c0: d47b 9c3c b1cb cabd d30f 1fbd 801f 63bd
000001d0: 70f4 733e 86f6 f03d 93db 25bd 139c 8a3c
000001e0: 483f 0cbe d9e7 eebd dee3 a6bd 5a02 5ebe
000001f0: 7fbd 6c3e c835 67bd f81a 4a3e b25f 4f3d
00000200: fb77 c43d b105 943c 34dd 94bc 02ad 93bd
00000210: 8254 7abe 2fcc 90bd d245 66be 395c d83d
00000220: 6037 283e aca3 c73d 8570 13be 176a 5ebd
00000230: 48f0 283e b888 77bc 0004 4cbe 5abd 1dbd
00000240: 71f0 c9bd e261 01be e9c5 953c 08f9 abbd
00000250: f4d5 b8be ef82 b03a 9f6b aabd 76a0 6dbc
00000260: 59bc 103e ecc5 353e 3718 0e3e 0568 143e
00000270: 0365 053e 154d 013e b938 91bc 43c7 803d
00000280: 64fc 16be 2565 20bd e205 7cbc 2d6e 86bd
00000290: e967 503e f9f0 9fbd b6f5 573d de74 8bbe
000002a0: 9c19 b2be c4e9 873d 1cc8 003b ff22 353e
000002b0: 51e9 123e 0635 8a3e be10 8dbe 1ce6 903d
000002c0: 9826 173e 0dcd 6cbd d498 7cbc a617 883d
000002d0: 210e 7f3e 5a74 9abd 5b2b 983d 83bd 293d
000002e0: 9ac4 923e bfe5 1cbc 1edf 46bb 0dd3 213e
000002f0: dbed 9fbe 24cd d83d 178c a5bd 33da 243e
00000300: 11e2 babd 903c 32be a1eb 5dbd 3e67 fabc
00000310: 12c0 3e3d 15f9 ebbc 1749 c43d 0bad afbc
00000320: 6d89 0bbe 2269 123e 6a95 683b e1a7 dabc
00000330: c010 fc3c 876c 4ebd d068 1c3e 8f32 0fbd
00000340: e20d 24be 3bb7 a13d bd7a bb3c 19d8 05bc
00000350: f7b0 3fbe be82 7d3b 4e2b 97bd 9390 3abc
00000360: ddda 3ebc 5352 fe3c 6b84 4abd 1e51 0cbd
00000370: c120 8dbd 2a08 01bd b6a9 46ba 41d9 ef3c
00000380: 07e8 2a3d 2092 9e3c c802 2f3d a798 f73b
00000390: e59d 27bb 58ba 29bd 0761 fdbd 75ae 9f3b
000003a0: 284f 0f3d e1fc e63c e9e6 953d ece2 bebd
000003b0: a9a3 3fbd f2df 72bd 2066 ae3c ec62 abbd
000003c0: 3723 aebd 753e b6bc 137a c9bd 4b26 bebd
000003d0: 42c0 533c 740e 653e 0046 b5ba 9b6a 953d
000003e0: 4988 18be 5758 b1bc 5f7c a9bb c7df b6bd
000003f0: 7b25 9d3d 40b9 c5bd 2103 69be 9cc5 c33d

policy_net.8.bias f4 [4]
0.05943259 -0.0133011835 0.1006014 0.20115378
00000000: 966f 733d 35ed 59bc 1b08 ce3d 42fb 4d3e

inverse_net.0.weight f4 [64, 48]
0.07570806 0.91405374 -0.40233213 0.2266734 -0.11725471 0.21783544 -0.20931238 0.27181736
0.096001446 0.31234354 -0.25477836 -0.18960056 -0.18288012 -0.025229955 -0.03576381 0.15163851
-0.08937556 -0.044982035 0.07403041 0.017940557 -0.030038904 -0.09090395 -0.067204975 -0.1256011
0.19824985 -0.26415855 -0.3309455 -1.327359 0.047190342 0.029407745 -0.5684378 -0.46250364
0.001472652 0.27531388 0.07052483 -0.09956357 0.119924404 -0.26902694 -0.03436028 0.080386944
-0.022442365 0.09187481 0.047609657 0.10965126 0.082378834 -0.033021133 -0.12006993 0.005845069
0.042202625 0.7286779 0.3880933 0.1812395 0.09912918 -0.05522658 -0.009775039 -0.00999472
0.004004007 0.15349017 0.08178545 -0.09446209 0.041219067 -0.0072283936 -0.06762645 0.013990727
-0.030857228 -0.09709259 -0.00024985813 0.088831544 -0.12227279 0.08235635 -0.1663348 0.22013494
-0.053654216 -1.7599591 -0.4510959 1.1807338 0.043213006 -0.018634992 0.04036381 -0.016397998
-0.018674104 0.20955855 4.1267195 0.011401966 -0.03347898 -0.009827562 0.0863502 -0.0763737
-0.056493305 0.017520452 -0.03789396 -0.060947753 -0.055536937 -0.16816027 0.09342729 -0.037768338
0.3377427 -1.0582465 0.29136065 0.13785286 -0.31953266 0.25750017 -0.35246995 -0.13392611
-0.0130555 -0.06253951 -0.3024473 0.13886262 -0.3091177 0.1446406 0.06938809 -0.06359594
-0.018902594 -0.045751072 -0.0994429 -0.08326657 -0.13922709 -0.17404953 -0.1291799 -0.050897717
0.2586462 0.6451648 -0.2889179 -2.3306084 -0.5218091 -0.33425948 -0.59474546 -0.18701151
-0.13261609 -0.05634357 0.064507075 0.16518414 -0.11167229 0.031270996 -0.19152603 0.056078117
0.04998041 -0.13943727 -0.13140021 -0.17914149 -0.0026803734 -0.21742073 -0.16116713 0.06761459
-0.06643865 2.4316576 0.32946113 -0.66767454 0.20083283 -0.4956999 -0.268338 -0.11459472
-0.039407264 0.116828896 -0.38232654 -0.09111728 0.02185737 0.15558606 -0.07990777 -0.083495125
-0.14537746 -0.020389795 0.07481536 -0.00015487983 -0.07019929 0.10574939 0.21342109 -0.04698118
-0.054456994 0.14069465 1.3625988 -0.43819162 0.21720621 0.5813452 -0.18224034 -0.38232112
-0.14442043 0.05595696 0.078356095 0.08023846 0.1855767 0.0002481413 -0.13658762 -0.14158466
-0.10652115 -0.12673308 -0.07246694 0.014049358 -0.13119249 0.13105379 0.26726255 -0.08230144
-0.42976564 -0.3656727 -1.5600771 1.1117473 0.14937991 -0.28324053 0.31580058 -0.2433769
0.052571192 -0.23083396 -0.13482168 0.15172099 -0.15018697 -0.07366029 -0.031057071 -0.0037283108
-0.14175995 0.028963938 -0.14872174 0.03967358 -0.018496083 -0.19607794 -0.19044816 0.11615783
-0.7499313 -2.6572533 -0.013481532 -1.6213553 0.084888175 0.44119552 0.42586 0.41976723
-0.034875486 -0.31934202 -0.09246142 -0.07597518 -0.17256525 0.013646903 -0.051892877 -0.0042209527
-0.11841249 -0.1386201 0.051570743 -0.02854872 -0.11085635 -0.1283081 -0.110537216 0.059358306
-0.13822694 -0.04437313 -0.80004656 -1.3068069 -0.07523255 0.3344209 0.13755889 0.2655824
-0.06927203 -0.36799526 -0.7254385 -0.43465286 0.0950971 -0.11444284 0.042481728 -0.010692139
00000000: d40c 9b3d 6dff 693f 7afe cdbe 121d 683e
00000010: 3d23 f0bd 4110 5f3e fc55 56be a52b 8b3e
00000020: 689c c43d 7eeb 9f3e 4f72 82be a626 42be
00000030: ed44 3bbe 0daf cebc 137d 12bd 2047 1b3e
00000040: 890a b7bd 153f 38bd 419d 973d 13f8 923c
00000050: 2614 f6bc da2b babd c3a2 89bd 939d 00be
00000060: 0202 4b3e ca3f 87be b071 a9be e6e6 a9bf
00000070: a94a 413d 83e8 f03c 2485 11bf 47cd ecbe
00000080: 0006 c13a f1f5 8c3e 526f 903d fce7 cbbd
00000090: ed9a f53d e6bd 89be 5dbd 0cbd e9a1 a43d
000000a0: 0dd9 b7bc dc28 bc3d 5802 433d d790 e03d
000000b0: 3cb6 a83d 2b41 07bd 39e7 f5bd fe87 bf3b
000000c0: a9dc 2c3d a38a 3a3f 2ab4 c63e d996 393e
000000d0: 3d04 cb3d 4435 62bd 7c27 20bc e5c0 23bc
000000e0: 0c34 833b 872c 1d3e 217f a73d 5775 c1bd
000000f0: 53d5 283d 29dc ecbb bc7f 8abd 5d39 653c
00000100: 4cc8 fcbc 7bd8 c6bd 64ff 82b9 50ed b53d
00000110: 286a fabd 72aa a83d ab53 2abe 0e6b 613e
00000120: 86c4 5bbd 5746 e1bf 0bf6 e6be 4922 973f
00000130: 1f00 313d 69a8 98bc 8654 253d 1855 86bc
00000140: 6ffa 98bc 8496 563e 160e 8440 50cf 3a3c
00000150: 4121 09bd c803 21bc 60d8 b03d d069 9cbd
00000160: 8665 67bd 0d87 8f3c b236 1bbd 5aa4 79bd
00000170: b37a 63bd 3532 2cbe cf56 bf3d f9b2 1abd
00000180: 9cec ac3e 9f74 87bf 392d 953e 4d29 0d3e
00000190: c999 a3be 10d7 833e f176 b4be ed23 09be
000001a0: bce6 55bc b714 80bd 5fda 9abe 0132 0e3e
000001b0: ad44 9ebe aa1c 143e 581b 8e3d 973e 82bd
000001c0: 9dd9 9abc 7a65 3bbd b8a8 cbbd aa87 aabd
000001d0: 8c91 0ebe 0a3a 32be bc47 04be 207a 50bd
000001e0: 466d 843e 8529 253f 0ced 93be b028 15c0
000001f0: 4895 05bf 0f24 abbe 3d41 18bf f27f 3fbe
00000200: 83cc 07be 84c8 66bd 491c 843d 0826 293e
00000210: 71b4 e4bd 0416 003d 661f 44be 2bb2 653d
00000220: 42b8 4c3d a5c8 0ebe c78d 06be de70 37be
00000230: 34a9 2fbb 8aa3 5ebe ff08 25be 8579 8a3d
00000240: fd10 88bd 47a0 1b40 21af a83e b8ec 2abf
00000250: 1fa7 4d3e 61cc fdbe 9963 89be a3b0 eabd
00000260: 8369 21bd fd43 ef3d 4ec0 c3be b29b babd
00000270: 3a0e b33c f451 1f3e afa6 a3bd 7eff aabd
00000280: d4dd 14be 8008 a7bc cc38 993d 3d67 22b9
00000290: a5c4 8fbd 2393 d83d 0f8b 5a3e 566f 40bd
000002a0: 4c0e 5fbd 4212 103e a369 ae3f a75a e0be
000002b0: 4e6b 5e3e 0ad3 143f 369d 3abe 98bf c3be
000002c0: f3e2 13be 2033 653d 2979 a03d 1054 a43d
000002d0: d207 3e3e f618 8239 a0dd 0bbe 92fb 10be
000002e0: c327 dabd 51c6 01be 8c69 94bd 472f 663c
000002f0: 5357 06be f732 063e a3d6 883e a88d a8bd
00000300: 3e0a dcbe 7439 bbbe 9bb0 c7bf bc4d 8e3f
00000310: 0cf7 183e e704 91be 9db0 a13e cb37 79be
00000320: e454 573d bd5f 6cbe b20e 0abe bf5c 1b3e
00000330: 9dca 19be 35db 96bd 666b febc ad56 74bb
00000340: 8529 11be c845 ed3c 834a 18be c480 223d
00000350: 1985 97bc a8c8 48be d804 43be 28e4 ed3d
00000360: 7ffb 3fbf 7010 2ac0 a5e1 5cbc 9288 cfbf
00000370: dad9 ad3d 61e4 e13e 520a da3e bbeb d63e
00000380: 99d9 0ebd cc80 a3be 6a5c bdbd e098 9bbd
00000390: f2b4 30be 4397 5f3c a08d 54bd eb4f 8abb
000003a0: 3f82 f2bd 6df2 0dbe d83b 533d 01df e9bc
000003b0: a708 e3bd 3363 03be 5661 e2bd b221 733d
000003c0: 5d8b 0dbe 99c0 35bd dacf 4cbf 7345 a7bf
000003d0: 8613 9abd 3739 ab3e 3ddc 0c3e 6bfa 873e
000003e0: 7ede 8dbd e069 bcbe 56b6 39bf d28a debe
000003f0: 45c2 c23d 0261 eabd 5201 2e3d 152e 2fbc

inverse_net.0.bias f4 [64]
-0.0922633 0.18671986 0.15364976 -0.070655406 0.10433612 -0.0762914 -0.029944766 -0.11403448
-0.17368712 0.04302562 -0.12760139 0.09746001 -0.07753475 -0.13919592 -0.039075248 -0.19640271
-0.17217281 0.20573585 0.041663334 -0.04054684 0.08018989 0.1617237 -0.1168528 0.010697224
-0.013862367 -0.04355093 -0.05787272 -0.045450963 -0.04125945 -0.13736972 -0.24565539 -0.16500954
-0.05349366 0.08304314 -0.0941866 -0.21356173 -0.12994544 -0.034802765 -0.14941785 -0.07117744
0.050318863 -0.028390532 0.026056996 0.19338875 0.10148428 -0.030742297 0.030087931 -0.050573952
-0.01627986 -0.010971496 0.06481089 -0.12197595 0.04819394 -0.23981515 -0.1325316 0.10844974
-0.044370312 -0.10594046 -0.10512113 0.12520437 0.031176008 -0.09160746 0.12969337 -0.022330478
00000000: 8bf4 bcbd 7e33 3f3e 5d56 1d3e c8b3 90bd
00000010: 2dae d53d aa3e 9cbd ba4e f5bc e98a e9bd
00000020: 09db 31be a23b 303d f0a9 02be 1d99 c73d
00000030: 8aca 9ebd 6089 0ebe 5e0d 20bd cb1d 49be
00000040: 124e 30be 6bac 523e 2ca7 2a3d 7114 26bd
00000050: 993a a43d e69a 253e 8550 efbd 6943 2f3c
00000060: fb1e 63bc 7662 32bd f20b 6dbd ca2a 3abd
00000070: abff 28bd a6aa 0cbe 168d 7bbe 43f8 28be
00000080: 2b1c 5bbd 8612 aa3d e7e4 c0bd edaf 5abe
00000090: 6b10 05be 588d 0ebd fe00 19be 7ac5 91bd
000000a0: 271b 4e3d 4393 e8bc 7b75 d53c b307 463e
000000b0: fdd6 cf3d 45d7 fbbc f77a f63c a226 4fbd
000000c0: 575d 85bc cac1 33bc 92bb 843d 87ce f9bd
000000d0: 0267 453d 1a92 75be 5db6 07be e61a de3d
000000e0: a5bd 35bd 50f7 d8bd bf49 d7bd 9335 003e
000000f0: d464 ff3c b19c bbbd 57ce 043e 68ee b6bc
