IL/Model/model_reacher_3.pt (torch, 292505 bytes, 20 tensors)

policy_net.0.weight f4 [64, 24]
0	0xbc47add3	-0.012187439
1	0xbf3461ee	-0.7046193
2	0x3d86a1f5	0.065738596
3	0xbf9e3c1f	-1.2362098
4	0x3e219c59	0.15782298
5	0xbd816619	-0.06318302
6	0x3ed08250	0.4072442
7	0x3db98273	0.09058084
8	0x3da1f076	0.079071924
9	0xbe454564	-0.19264752
10	0x3e18c2c9	0.14918055
11	0xbea5853c	-0.32328212
12	0x3cae3eda	0.021270204
13	0x3de62d05	0.112390555
14	0x3d96256e	0.07331358
15	0xbe1a9b59	-0.15098323
16	0xbe00f92d	-0.12595053
17	0xbd27e7df	-0.040992614
18	0xbd96b1b1	-0.07358111
19	0x3cf8dcca	0.030378718
20	0xbe660ee9	-0.22466625
21	0xbe2f51ab	-0.17120998
22	0xbe5c8471	-0.21534897
23	0xbd07e959	-0.033181522
24	0xbe8b724e	-0.27235645
25	0xbf0baeb1	-0.5456343
26	0x3e5ddc93	0.21666174
27	0xbe0ba00d	-0.13635273
28	0x3df4863c	0.11939666
29	0xbd249688	-0.04018262
30	0x3e13060f	0.1435778
31	0xbdb7ac56	-0.08968417
32	0x3e5c1f07	0.21496211
33	0xbe053674	-0.13009053
34	0x3e2e90d5	0.17047437
35	0x3e9f54d1	0.31119397
36	0x3e8e9793	0.27850017
37	0xbc7a31f1	-0.015270696
38	0xbdbcaa16	-0.09212129
39	0xbe3b27d9	-0.1827692
40	0x3dbd9743	0.092573665
41	0x3dd7ba91	0.105336316
42	0xbc0d84a4	-0.008637581
43	0xbe2a117e	-0.16608235
44	0x3d41ba67	0.047296908
45	0xbb720bb9	-0.0036933257
46	0x3d9db95a	0.07701369
47	0xbde60b2b	-0.11232599
48	0x3e4c1197	0.19928585
49	0x3f20c6ec	0.6280353
50	0xbe5cd4c2	-0.21565536
51	0x3e8eda3c	0.27900875
52	0x3e6c95e3	0.23104052
53	0x3e077966	0.13229904
54	0x3dc64b89	0.09682376
55	0x3d6978d8	0.05700001
56	0xbea28d7f	-0.31748578
57	0x3e776a1d	0.24161573
58	0xbe29aeb9	-0.16570558
59	0x3e08aa8d	0.1334631
60	0xbe31778d	-0.17330761
61	0xbd188f82	-0.037246235
62	0x3e0e70dc	0.1391024
63	0x3e6519b0	0.2237308
64	0xbe00e6b9	-0.12588014
65	0x3e09b2d8	0.1344713
66	0x3c89df10	0.016829997
67	0xbe06eec5	-0.13177021
68	0x3d421caa	0.047390617
69	0x3e2146c4	0.15749651
70	0xbcde5b3d	-0.027143115
71	0xbdb769d7	-0.08955734
72	0xbdc87266	-0.09787445
73	0x4005bba5	2.089578
74	0x3e32ef89	0.17474188
75	0x3f3b47e9	0.731566
76	0x3dd385ae	0.10328232
77	0x3e01bd65	0.12669905
78	0x3e6e8b96	0.23295435
79	0x3ce9e6bc	0.028552406
80	0x3e2566d7	0.16152512
81	0x3e21979e	0.15780494
82	0x3e54d4a4	0.20784241
83	0xbd44e104	-0.048066154
84	0x3e15916d	0.14606257
85	0xbbdaae20	-0.0066735893
86	0xbdc91407	-0.09818273
87	0x3d2861bc	0.04110883
88	0xbe482d1e	-0.19548461
89	0x3c6f57cc	0.014608335
90	0x3e1e2192	0.15442494
91	0x3de27b9e	0.11058734
92	0x3e73f447	0.23823653
93	0x3dbb89b6	0.09157126
94	0x3d93a5b0	0.07209337
95	0xbe749cd0	-0.23887944
96	0xbe28652d	-0.16444845
97	0xbf12d43c	-0.57355094
98	0x3e383129	0.17987503
99	0x3d15cf23	0.036574494
100	0xbd4499a5	-0.04799809
101	0x3e1f01de	0.15528056
102	0x3cb17ca6	0.021665882
103	0x3cbbcb41	0.022924067
104	0xbdc55a74	-0.09636393
105	0xbe94c5eb	-0.2905725
106	0xbe13a332	-0.14417723
107	0x3e9c9d05	0.30588546
108	0xbe6a19c4	-0.22861391
109	0xbd30edfd	-0.043195713
110	0xbe127e1b	-0.14305918
111	0x3e223b85	0.15843017
112	0x3e05ffad	0.13085814
113	0xb9d0c1cd	-0.00039817244
114	0xbe2b2f8a	-0.16717353
115	0x3df323ee	0.118720874
116	0x3e1fe4a5	0.15614565
117	0xbe2f4b66	-0.17118606
118	0x3d0ee01e	0.034881704
119	0x3d7203b5	0.059085567
120	0x3e5a4ce7	0.21318398
121	0xbf1e3ffa	-0.6181637
122	0x3e7ebc5d	0.24876542
123	0xbddc533c	-0.10758063
124	0xbe45e765	-0.19326551
125	0xbca0be98	-0.019622132
126	0x3e36a228	0.17835295
127	0xbe066c46	-0.1312724
128	0x3e8d1082	0.27551657
129	0xbd410109	-0.047120128
130	0x3cf9d3f6	0.030496579
131	0x3e56b9a0	0.20969248
132	0xbe76a10d	-0.24084873
133	0xbd897a19	-0.067127414
134	0xbd65fb92	-0.05614812
135	0x3dcdc1ab	0.10046705
136	0xbe2a5a71	-0.16636063
137	0x3db9a142	0.090639606
138	0x3e042d45	0.12907894
139	0x3dd2e7e4	0.10298136
140	0xbe7207ef	-0.23635839
141	0xbdd490be	-0.1037917
142	0x3e2cc224	0.16870934
143	0xbd891b50	-0.066946626
144	0xbdbdac65	-0.09261397
145	0x3bce73c6	0.0063004224
146	0xbe740197	-0.23828731
147	0xbe875f2b	-0.26439795
148	0xbd9c055c	-0.0761821
149	0x3dc90797	0.09815901
150	0x3da03099	0.07821769
151	0xbd177a8c	-0.036982104
152	0xbde768ac	-0.112992615
153	0x3e4d51e8	0.20050776
154	0xbd8afdc8	-0.06786686
155	0xbe8f0ed6	-0.27941006
156	0xbdf6367f	-0.12022113
157	0x3d870234	0.06592217
158	0x3e82ed7d	0.25571814
159	0x3e515429	0.20442261
160	0x3de817bf	0.11332654
161	0x3e7e2141	0.24817373
162	0x3e0d4bc7	0.13798438
163	0x3e354d16	0.17705187
164	0x3e10cb93	0.14140157
165	0xbe5e7ec2	-0.21728042
166	0x3d598d37	0.05311319
167	0xbde56cd7	-0.112024
168	0xbe88a3ee	-0.26687568
169	0xbe13bf62	-0.14428475
170	0x3e2937a5	0.16525133
171	0x3f4c2b7b	0.79753846
172	0xbe8de43a	-0.27713186
173	0x3d990a8b	0.07472714
174	0x3e157f32	0.14599302
175	0x3c982999	0.018574523
176	0xbe0be71f	-0.13662384
177	0x3e277b6c	0.16355675
178	0x3d7871ba	0.060655333
179	0x3dbd7baa	0.09252103
180	0xbe304c69	-0.17216648
181	0xbe74d469	-0.23909153
182	0x3df26f86	0.11837678
183	0x3e0c0371	0.13673188
184	0x3e8abf28	0.27098966
185	0xbe02fbc5	-0.12791355
186	0x3c3dafc8	0.011577554
187	0x3c0a575d	0.008443681
188	0x3b2198ee	0.0024657804
189	0x3dfc2b15	0.12312905
190	0xbc143519	-0.009045863
191	0x3e0bf58e	0.1366789
192	0x3dada120	0.08477998
193	0x3f3a0a83	0.7267229
194	0xbdc90fab	-0.098174416
195	0xbdc71a83	-0.097218536
196	0x3d78e5ca	0.06076602
197	0x3e3cda43	0.18442635
198	0xbe385a43	-0.18003182
199	0x3e1282b7	0.14307676
200	0x3a3f2d61	0.0007292834
201	0x3ebc0dc3	0.3672925
202	0xbe551042	-0.20806983
203	0xbea2c028	-0.3178723
204	0xbe1da695	-0.15395577
205	0xbdd4c19c	-0.103884906
206	0x3da4974e	0.080366716
207	0x3df05ca4	0.1173642
208	0xbe677f9a	-0.2260727
209	0x3e17f8ff	0.14841078
210	0xbdeeaeb9	-0.116544195
211	0xbe286799	-0.1644577
212	0x3daacde0	0.08340049
213	0xbdf47196	-0.11935727
214	0x3e3824c3	0.17982773
215	0xbd7ded46	-0.06199386
216	0xbe0e34cd	-0.1388733
217	0xbef73ede	-0.4829015
218	0x3d7e1b82	0.062037952
219	0x3f1a0ab9	0.6017261
220	0x3da281c7	0.07934909
221	0xbe6c0acf	-0.23050998
222	0xbcad3bc2	-0.021146659
223	0xbe0f93eb	-0.1402127
224	0xbbacd088	-0.0052738823
225	0xbe1d5c96	-0.1536735
226	0x3dedbe29	0.11608536
227	0x3ed741fe	0.42042536
228	0x3e06e378	0.1317271
229	0xbd953d8d	-0.072871305
230	0x3e445a7a	0.19175139
231	0xbd73ea11	-0.059549395
232	0xbd753d76	-0.059873067
233	0xbdf94c8e	-0.12172805
234	0xbd37c478	-0.0448651
235	0x3e60446c	0.21901101
236	0x3e212aba	0.15738955
237	0x3b9ff149	0.0048810584
238	0xbd60791c	-0.054803
239	0xbdf94771	-0.121718295
240	0xbee401c2	-0.4453259
241	0xbfe7a648	-1.809762
242	0xbb8ec5b0	-0.0043570623
243	0x3f61b6cb	0.88169545
244	0x3ea95606	0.33073443
245	0xbce6f81c	-0.02819448
246	0xbebd337b	-0.3695334
247	0xbc89ed72	-0.016836856
248	0x3dcb08ab	0.09913763
249	0x3e6d4ce8	0.23173869
250	0xbde99d4d	-0.11406956
251	0x3e2635c0	0.16231441
252	0xbdd6334a	-0.10459001
253	0xbc54a9a8	-0.012979902
254	0x3e3c7595	0.18404229
255	0x3d99ac7a	0.075036004

policy_net.0.bias f4 [64]
0	0x3e0f06a2	0.13967374
1	0xbd16b632	-0.03679485
2	0xbdf1bf3c	-0.11804053
3	0xbd8388e3	-0.064225934
4	0x3d9352c3	0.0719352
5	0x3dc20101	0.09472848
6	0x3d0ef6bd	0.034903277
7	0x3e23fc57	0.16014229
8	0x3d8cd062	0.06875683
9	0x3e24f4d9	0.16109027
10	0xbaf5377b	-0.0018708551
11	0xbe51d859	-0.20492686
12	0xbbd6d2b6	-0.0065558804
13	0xbde1eb7e	-0.11031245
14	0x3db841d2	0.08996929
15	0x3e159142	0.14606193
16	0x3e3c5412	0.18391445
17	0xbd9cd91e	-0.07658599
18	0xbd5a54a6	-0.053303383
19	0xbdee1d07	-0.1162663
20	0xbce4e903	-0.02794314
21	0xbdfb9111	-0.122835286
22	0xbc4aca28	-0.012377299
23	0x3df2519b	0.11831971
24	0x3e113313	0.1417964
25	0xbd96068a	-0.07325466
26	0x3de1fd66	0.1103466
27	0xbe1492c4	-0.14509112
28	0x3e251f29	0.16125168
29	0xbc91ec90	-0.017812997
30	0x3d7f671f	0.062354203
31	0x3974c4fa	0.00023343033
32	0x3d879ec2	0.066220775
33	0xbd946ec5	-0.0724769
34	0x3d83d9c0	0.06438017
35	0x3da95e30	0.08269918
36	0x3df88860	0.121353865
37	0xbd4eca29	-0.050485764
38	0xbce6a926	-0.028156828
39	0x3e182484	0.1485768
40	0xbd34e6ff	-0.044165608
41	0xbd7f0748	-0.062262803
42	0x3d9ac666	0.07557373
43	0xbe3f13ee	-0.18659946
44	0x3d3be13a	0.04586909
45	0x3da6364f	0.08115827
46	0x3e70f556	0.23531088
47	0xbe593f8d	-0.21215649
48	0x3e092b8b	0.13395517
49	0xbcc6e8b1	-0.024280878
50	0x3d568886	0.052376293
51	0xbe5bf8ce	-0.2148163
52	0x3e14daed	0.14536639
53	0xbd28a3e5	-0.041171927
54	0xbbddfc4e	-0.006774462
55	0xbdede0a8	-0.116151154
56	0xbe03c18f	-0.12866805
57	0x3cdbc10f	0.026825456
58	0xbe0e3ad6	-0.13889632
59	0x3db3bb43	0.08775952
60	0xbe36b5c0	-0.1784277
61	0x3d9e9cb2	0.07744731
62	0xbdde7ec0	-0.108640194
63	0x3e12002c	0.14257878

policy_net.2.weight f4 [128, 64]
0	0xbe43cbb9	-0.19120683
1	0xbd01670c	-0.031592414
2	0x3dd0dc73	0.10198297
3	0x3c9a21d8	0.018814966
4	0x3dec3dcd	0.11535225
5	0xbd951372	-0.072790995
6	0xbd0d9e79	-0.03457496
7	0x3c33ae68	0.010966875
8	0x3df9647d	0.1217737
9	0x3d0f1811	0.03493506
10	0xbeb6ab30	-0.3567748
11	0x3e8555e2	0.26042086
12	0x3e58e26c	0.21180123
13	0xbcd79612	-0.026316676
14	0xbe129d48	-0.1431781
15	0xbd9d2d41	-0.07674647
16	0xbd75a1bd	-0.0599687
17	0xbc742e6a	-0.014903644
18	0xbe59d4ff	-0.21272658
19	0xbe51ae77	-0.2047671
20	0xbb8fd2b9	-0.004389134
21	0x3e2df42a	0.16987672
22	0xbe6c4752	-0.23074082
23	0xbe4decb0	-0.2010982
24	0x3e3baacb	0.18326871
25	0x3e06ae91	0.1315253
26	0x3ea81557	0.3282878
27	0x3dc6145e	0.096718535
28	0xbd04014e	-0.032227807
29	0xbe41a0d9	-0.18909015
30	0xbe4aaf88	-0.19793522
31	0x3dbae487	0.091256194
32	0xbe583611	-0.21114375
33	0xbbdc4155	-0.0067216554
34	0xbe99a6f4	-0.30010188
35	0x3c579b1c	0.01315954
36	0x3daae020	0.0834353
37	0x3dc74a5c	0.0973098
38	0x3dff8db0	0.124781966
39	0xbc3ceeb9	-0.011531525
40	0xbe23c2ca	-0.15992275
41	0x3df2b530	0.11850965
42	0x3dc7db9d	0.09758685
43	0xbe038055	-0.12841924
44	0xbf0467da	-0.51720965
45	0xbdc32968	-0.09529382
46	0xbd45e78b	-0.04831652
47	0xbd9e07d6	-0.07716338
48	0x3e01bf2f	0.12670587
49	0x3d8ee42b	0.06977113
50	0xbdde5e6c	-0.10857853
51	0xbe182091	-0.14856173
52	0x3cddea59	0.027089285
53	0x3d5d9c0a	0.05410389
54	0x3d132bb4	0.03593035
55	0x3dd455a6	0.10367899
56	0x3d8b008d	0.067872144
57	0xbd2b3992	-0.04180295
58	0x3d1cc9a9	0.038278256
59	0x3c8b9c4b	0.0170423
60	0xbd9018c3	-0.07035973
61	0xbd410d46	-0.0471318
62	0x3d3aae7d	0.04557656
63	0x3cb8abc5	0.022542844
64	0xbe667649	-0.2250606
65	0x3e18f9c4	0.14939028
66	0xbd2e5203	-0.04255868
67	0x3d9a4b7d	0.075339295
68	0x3dcbf26b	0.09958347
69	0xbe8babad	-0.27279416
70	0xbe2bc131	-0.16772915
71	0x3be82486	0.007084432
72	0xbe9d99bc	-0.30781353
73	0x3e8aab2a	0.27083713
74	0x3dca0fa9	0.09866268
75	0xbe37ab36	-0.17936406
76	0x3d8a90a5	0.0676587
77	0xbdf2a1d1	-0.1184727
78	0x3e15d51c	0.14632076
79	0xbd9072e3	-0.07053163
80	0x3df3b322	0.11899401
81	0x3dac1973	0.084032916
82	0x3d336ccc	0.04380493
83	0x3cfef96b	0.031124791
84	0xbe1bbdfe	-0.15209195
85	0xbd848268	-0.064701855
86	0x3dc241ff	0.09485244
87	0x3d07a966	0.033120535
88	0x3d2ea8be	0.042641394
89	0x3dea7c5a	0.114494994
90	0xbdd420f2	-0.10357846
91	0xbd573088	-0.052536517
92	0xbe5ddf5f	-0.2166724
93	0xbe05ac53	-0.13054018
94	0xbd467c12	-0.048458166
95	0x3ddda1a6	0.108218476
96	0xbc9405db	-0.018069198
97	0x3d0a92fd	0.033831585
98	0xbdb44f9e	-0.08804248
99	0xbeb0438c	-0.34426534
100	0xbdc6e736	-0.09712069
101	0x3cbe9a59	0.023266958
102	0xbd85e53f	-0.06537866
103	0xbc8fc9bd	-0.017552251
104	0xbe35ef30	-0.17767024
105	0x3e0df339	0.13862313
106	0x3da0ca56	0.078510925
107	0x3d098b8b	0.033580344
108	0x3c3bb4ea	0.0114567075
109	0xbe40ec41	-0.18840124
110	0x3b371db1	0.0027941281
111	0x3cb3c5da	0.021944929
112	0xbe662cf4	-0.22478086
113	0xbdfdc57b	-0.12391182
114	0xbe43bb6d	-0.19114466
115	0xbdf1b59e	-0.11802219
116	0x3de8b61a	0.11362858
117	0xbd1427bd	-0.03617071
118	0xbdcb04c1	-0.09913016
119	0xbdb7088e	-0.089371786
120	0x3ead114f	0.33802268
121	0xbe5598be	-0.20859048
122	0x3e54835e	0.20753238
123	0xbd922c79	-0.07137389
124	0xbd03359d	-0.03203355
125	0x3dcf3479	0.1011743
126	0xbe7be1ce	-0.24597856
127	0x3e03f06c	0.12884682
128	0xbdd62876	-0.10456936
129	0x3e33da1d	0.17563672
130	0xbe554f5c	-0.20831054
131	0x3c24209b	0.010017539
132	0x3dd889a1	0.10573126
133	0x3d92e562	0.071726575
134	0xbc307584	-0.010770205
135	0x3e5f26d2	0.21792153
136	0xbd00823c	-0.0313742
137	0xbdc4ace9	-0.096032925
138	0x3e4dafc1	0.20086576
139	0x3bf5abb6	0.007497276
140	0xbd4926e3	-0.04910935
141	0x3cf63aab	0.030057272
142	0xbe3e31de	-0.1857371
143	0xbcc622c5	-0.024186501
144	0x3cc6478d	0.02420404
145	0xbd63e037	-0.05563375
146	0x3d7a387e	0.06108903
147	0xbe1b5d48	-0.15172303
148	0x3d623512	0.055226393
149	0x3da2199f	0.07915043
150	0xbd3fbb63	-0.046809565
151	0x3d122007	0.035675075
152	0xbd05ac0c	-0.03263478
153	0xbd96c1a3	-0.07361152
154	0x3d1f1a77	0.0388436
155	0xbe9a125b	-0.3009213
156	0xbd90be5e	-0.0706756
157	0xbd90e3d9	-0.070747085
158	0x3c5bfed3	0.013427454
159	0xbe5b871b	-0.21438257
160	0x3e5b3a60	0.21408987
161	0x3c4875d3	0.012235123
162	0x3e6eece3	0.23332553
163	0xbc94c65c	-0.018160991
164	0xbe6ba069	-0.2301041
165	0xbd9b6efc	-0.07589528
166	0xbda128db	-0.07869121
167	0x3e11c49c	0.14235157
168	0x3d1fe51d	0.03903686
169	0xbe673050	-0.22577024
170	0xbdbcdbee	-0.09221636
171	0xbe630bfc	-0.2217254
172	0xbe9bc1dd	-0.30421343
173	0xbdcac4ef	-0.09900843
174	0xbea4640d	-0.32107583
175	0x3dce78d7	0.10081642
176	0xbe1b87bd	-0.15188499
177	0x3d923981	0.07139874
178	0xbde96c0f	-0.11397564
179	0xbe4377e1	-0.19088699
180	0x3e36a4e0	0.17836332
181	0xbdc1b3e5	-0.0945814
182	0xbd991b5c	-0.074759215
183	0x3ddded0f	0.10836231
184	0x3e0e0a20	0.1387105
185	0xbd877e69	-0.06615908
186	0xbda3c714	-0.079969555
187	0x3e005ce4	0.12535435
188	0xbbc6ebb2	-0.0060705775
189	0x3cd5a29e	0.026078518
190	0xbe978545	-0.29593864
191	0xbd987d66	-0.07445793
192	0xbe06c31b	-0.13160364
193	0xbe944334	-0.28957522
194	0x3d31dd52	0.043423958
195	0xbd1caa91	-0.038248602
196	0x3d1c826f	0.03821033
197	0xbe1e79f8	-0.15476215
198	0x3d52c294	0.051455095
199	0xbde507c6	-0.11183123
200	0x3e12fe15	0.14354737
201	0xbe4b8edd	-0.19878717
202	0x3d6cd162	0.05781687
203	0x3e1d8e78	0.15386379
204	0x3dd00d53	0.101587914
205	0xbd7782eb	-0.060427587
206	0xbc2f8b84	-0.010714415
207	0x3dbd8576	0.09253971
208	0x3ab3b895	0.0013711626
209	0x3e28eb1f	0.16495942
210	0x3c2df026	0.010616338
211	0xbda7d9e9	-0.0819586
212	0xbd01959f	-0.03163683
213	0xbdf08d67	-0.1174572
214	0xbcfdbac3	-0.030972844
215	0xbe11a577	-0.14223276
216	0xbe5fb150	-0.21844983
217	0x3d9fc050	0.078003526
218	0xbb704b84	-0.0036666105
219	0x3dc02af2	0.09383191
220	0x3e2bc02b	0.16772525
221	0xbc13c1a3	-0.009018335
222	0xbe47ba80	-0.19504738
223	0xbe0a5e90	-0.13512635
224	0xbe36a536	-0.1783646
225	0xbd8526ad	-0.065015174
226	0xbda74444	-0.081673175
227	0xbcb86e76	-0.02251361
228	0x3e21e757	0.15810905
229	0xbde819c3	-0.11333039
230	0xbd62ac8f	-0.055340346
231	0xbde5f84b	-0.11228999
232	0xbd708ed3	-0.058729958
233	0xbe8b424a	-0.27199012
234	0x3de1371f	0.10996842
235	0xbd3816e0	-0.04494369
236	0xbe74c465	-0.23903044
237	0xbd6df0e1	-0.05809105
238	0xbc2b3d10	-0.01045157
239	0x3c961866	0.018322181
240	0x3d39dc65	0.0453762
241	0x3e0c8ffe	0.13726804
242	0xbd1b1009	-0.03785709
243	0x3e251770	0.16122222
244	0x3d20cfe8	0.039260775
245	0xbdfd4c81	-0.123681076
246	0x3db623d1	0.0889355
247	0x3d8c2e74	0.06844798
248	0xbd96bc7c	-0.07360169
249	0xbd0cbb15	-0.034358103
250	0xbdac600c	-0.08416757
251	0x3e104d9b	0.14092104
252	0x3d5fcf2b	0.05464093
253	0xbe435df1	-0.19078805
254	0xbe52cfa5	-0.20587023
255	0x3da94ec8	0.082669795

policy_net.2.bias f4 [128]
0	0x3d6dcb0e	0.058054976
1	0xbd51abf1	-0.051189367
2	0x3db5a1a7	0.08868723
3	0xbd4cf10e	-0.050034575
4	0xbe0d4856	-0.13797125
5	0xbe39311e	-0.18085143
6	0xbc0fb22f	-0.00877051
7	0xbda40b1a	-0.0800993
8	0x3d1bad37	0.038006987
9	0x3cbc91ac	0.02301868
10	0xbd7f80ee	-0.062378816
11	0x3d9e90ab	0.07742437
12	0xbd68f939	-0.056878302
13	0x3dd0d4a9	0.10196812
14	0xbe15de09	-0.14635481
15	0xbdf99c55	-0.12188021
16	0x3cda07c4	0.026615031
17	0x3b96444c	0.0045857783
18	0x3dea40a3	0.1143811
19	0xbdda813e	-0.10669182
20	0xbd2beb99	-0.04197273
21	0xbdcb916c	-0.099398464
22	0x3d6724db	0.056431632
23	0xbd10c22e	-0.035341434
24	0x3d2b5aae	0.041834526
25	0xbdb841c2	-0.08996917
26	0x3bb923bd	0.0056500123
27	0xbde94151	-0.11389411
28	0xbd9421a1	-0.07232977
29	0xbdab1c0b	-0.08354958
30	0xbd361771	-0.04445595
31	0xbe14f56e	-0.14546749
32	0xbe392e85	-0.18084152
33	0x3cf139e9	0.029446559
34	0x3ca62b96	0.020284455
35	0x3da1d432	0.07901801
36	0xbcb2b0b7	-0.02181278
37	0x3c80b81f	0.015712796
38	0x3c8bce26	0.017066073
39	0xbce64a3b	-0.028111568
40	0x3c6c3f4e	0.01441939
41	0xbe2159cd	-0.15756913
42	0xbd592d25	-0.05302157
43	0x3d8da4d3	0.06916203
44	0xbd935a0f	-0.07194912
45	0xbd2291dc	-0.039689884
46	0x3dd88cdf	0.10573744
47	0x3e08d061	0.1336074
48	0xbdb9cc44	-0.09072164
49	0xbd5a4f13	-0.053298067
50	0xbd972da6	-0.073817536
51	0xbb03b0da	-0.0020094425
52	0xbd1b07e7	-0.037849333
53	0xbd5b620a	-0.053560294
54	0x3e0ad493	0.13557653
55	0x3dd34e73	0.103176974
56	0xbb952614	-0.0045516584
57	0x3bd59f22	0.0065192143
58	0xbdcc4706	-0.09974484
59	0x3c5082f9	0.012726539
60	0xbdd7335a	-0.105078414
61	0x3cefce02	0.029273037
62	0x3cb3ca60	0.021947086
63	0xbc9b8746	-0.018985402
64	0xbdaaa37e	-0.08331965
65	0xbd017b61	-0.031611804
66	0xbb713be4	-0.003680938
67	0x3d216ca0	0.039410233
68	0x3d0d2277	0.034456696
69	0x3dce22a5	0.10065202
70	0xbb4f244f	-0.0031607335
71	0xbd37afc5	-0.04484536
72	0xbdafdca2	-0.08587004
73	0x3c83d21d	0.0160914
74	0xbe0dbd8d	-0.13841839
75	0xbd62811b	-0.055298906
76	0x3dbe24c1	0.09284354
77	0xbc94bb75	-0.018155793
78	0x3d72a19c	0.059236154
79	0x3d956765	0.072951116
80	0xbc287270	-0.01028119
81	0x3d7eebd7	0.062236633
82	0xbe23c848	-0.1599437
83	0xbdd7a368	-0.10529214
84	0x3d43029a	0.047609903
85	0xbd66636e	-0.056247167
86	0x3d3f82ac	0.046755478
87	0x3d45dfde	0.0483092
88	0xbe03ddb4	-0.12877542
89	0xbd679502	-0.05653859
90	0xbd2aa707	-0.041663196
91	0xbde70b8f	-0.112815015
92	0x3d1b26f7	0.037878957
93	0x3d6d657c	0.05795811
94	0x3d891ab2	0.06694545
95	0xbd7dc3ab	-0.06195418
96	0xbd8c5927	-0.06852942
97	0x3d5cb182	0.053880222
98	0xbd4c3936	-0.049859248
99	0x3d2a9929	0.04164997
100	0xbe05dbd6	-0.13072142
101	0x3de141b4	0.1099886
102	0xbdc5fa57	-0.09666889
103	0xbcc2e8c5	-0.023792634
104	0x3d6f91d0	0.058488667
105	0xbd12ac8a	-0.035809077
106	0x3d0d1c7d	0.034450997
107	0xbce705e8	-0.028201059
108	0xbd254902	-0.04035283
109	0x3d5ea6fa	0.05435846
110	0x3d22f041	0.039779905
111	0xbdc1ea79	-0.0946855
112	0x3d5fd18b	0.054643195
113	0x3dd9b39b	0.1062996
114	0x3c580471	0.013184653
115	0x3df9e098	0.12201041
116	0xbd7d84cf	-0.061894234
117	0xbd2c3032	-0.04203815
118	0xbcdf3e09	-0.02725126
119	0x3c6a15f9	0.014287465
120	0xbda0d163	-0.07852437
121	0xbd828694	-0.06373325
122	0xbb818a4a	-0.003953253
123	0xbd8bfdcb	-0.068355165
124	0x3d8df5af	0.06931626
125	0xbce5419d	-0.027985388
126	0x3d972941	0.073809154
127	0xbd4ed012	-0.0504914

policy_net.4.weight f4 [128, 128]
0	0xbc0b1faa	-0.008491436
1	0xbe4f257f	-0.20229147
2	0x3d3d3b62	0.04619921
3	0x3daace7a	0.083401635
4	0x3da1ffe9	0.07910139
5	0xbe4deb85	-0.20109375
6	0x3db7b6ad	0.089703895
7	0xbdb1e9d5	-0.08687178
8	0xbd98f769	-0.07469065
9	0x3d54777d	0.051871765
10	0x3d362918	0.044472784
11	0xbdb2b313	-0.08725562
12	0xbd9f45b7	-0.07776969
13	0xbe401abd	-0.187602
14	0x3daf229f	0.08551525
15	0x3de6e2ae	0.112737045
16	0xbe0c1de5	-0.13683279
17	0x3e2e5a1c	0.17026561
18	0xbca817ac	-0.0205191
19	0xbe2876fe	-0.16451642
20	0x3e1477a5	0.14498766
21	0x3b19edf5	0.002348778
22	0x3d15b87b	0.036552887
23	0xbe92ac6e	-0.28647178
24	0x3dcaf6e8	0.09910375
25	0x3db8e58e	0.09028159
26	0x3c527866	0.012846088
27	0xbdaa4567	-0.08314019
28	0xbdc6d54f	-0.09708654
29	0xbcbd3e3e	-0.023100968
30	0x3e12985a	0.1431593
31	0xbd925b6d	-0.07146344
32	0x3d997bcf	0.07494318
33	0xbd481937	-0.04885217
34	0xbb140641	-0.0022586735
35	0x3dc85b9e	0.097830996
36	0x3e042d91	0.12908007
37	0x3d66d918	0.05635938
38	0xbdb81e58	-0.089901626
39	0xbe962875	-0.2932774
40	0x3de2ea37	0.11079829
41	0xbe626881	-0.22110178
42	0xbe600436	-0.21876606
43	0xbe55e6d7	-0.2088884
44	0x3da2a6db	0.079419814
45	0xbe35f8fb	-0.1777076
46	0xbd23c2fa	-0.039980866
47	0x3e99b3c6	0.3001997
48	0xbdfd937e	-0.123816475
49	0x3d36cbd3	0.044627976
50	0x3c72db1c	0.014822748
51	0xbe00a20f	-0.1256182
52	0x3b43c301	0.002987087
53	0x3daf3ad5	0.08556143
54	0xbdca452f	-0.09876477
55	0x3d3ccace	0.046091847
56	0x3d0439ba	0.032281615
57	0xbcab67cb	-0.020923516
58	0xbe4de31e	-0.2010617
59	0xbdace4be	-0.084420666
60	0xbe9d578b	-0.30730852
61	0xbd29d9b8	-0.0414674
62	0x3def3cf7	0.1168155
63	0xbd586cb0	-0.052838027
64	0xbd6d0a11	-0.05787093
65	0xbc373daf	-0.01118414
66	0x3d847eee	0.064695224
67	0x3bfb9038	0.0076771043
68	0x3db9e707	0.09077268
69	0xbc852444	-0.016252644
70	0xbe12b8a8	-0.14328253
71	0xbde48188	-0.111575186
72	0xbef4b7d3	-0.47796497
73	0xbe1201b1	-0.14258458
74	0xbe05ccaf	-0.13066362
75	0xba1e243f	-0.0006032623
76	0xbc163c2e	-0.009169621
77	0x3d8d714d	0.06906376
78	0xbe6a37a1	-0.22872783
79	0xbc17af8b	-0.009258161
80	0xbd55939f	-0.052142736
81	0x3abd86de	0.0014459749
82	0xbd8a256b	-0.06745418
83	0xbee8f000	-0.45495605
84	0x3dd27e0a	0.10277946
85	0x3da01b4b	0.07817706
86	0xbe40a9c5	-0.18814762
87	0x3de8083d	0.11329696
88	0xbda84962	-0.08217122
89	0xbe765af2	-0.2405813
90	0x3d3f475e	0.04669892
91	0xbe28096f	-0.16409849
92	0x3e0b00af	0.1357448
93	0x3d4d22e5	0.050082106
94	0x3d567323	0.052355897
95	0xbe652428	-0.22377074
96	0xbe3b4ca5	-0.18290956
97	0xbd11e6ba	-0.03562043
98	0xbe8a802b	-0.2705091
99	0xbd926a58	-0.0714919
100	0xbca1bee5	-0.019744346
101	0xbb32dd08	-0.002729239
102	0xbbf724d1	-0.0075422307
103	0xbd8f817d	-0.0700712
104	0xbe1cf25a	-0.15326825
105	0x3d0c5cf1	0.034268323
106	0xbce74eb7	-0.028235776
107	0xbdf133f3	-0.11777487
108	0x3c180b3a	0.00928002
109	0xbe8b6784	-0.27227414
110	0x3e409868	0.18808138
111	0xbdcff8d3	-0.10154881
112	0x3da76231	0.081730254
113	0xbc368f64	-0.011142585
114	0x3dc85b16	0.09782998
115	0xbd800037	-0.06250041
116	0xbc41cddf	-0.011828869
117	0xbc7bd4e7	-0.015370584
118	0x3d5d9b28	0.054103047
119	0xbdb4cf8a	-0.088286474
120	0xbd913786	-0.070906684
121	0xbd239717	-0.039939012
122	0xbd0580be	-0.03259348
123	0xbdce402e	-0.10070835
124	0x3d15142d	0.036396194
125	0xbe44a61a	-0.19203988
126	0xbde924fe	-0.11384009
127	0xbde974b7	-0.11399215
128	0xbda92f49	-0.08260972
129	0x3de51a1b	0.1118662
130	0xbd2169b1	-0.039407436
131	0xbd8fc5d8	-0.070201576
132	0x3c30b577	0.010785452
133	0xbd21c787	-0.039496925
134	0xbe1eb824	-0.15499932
135	0x3cf2cbb1	0.029638143
136	0x3cbbdf50	0.022933632
137	0xbe9a3059	-0.3011501
138	0xbe01e6d6	-0.12685713
139	0x3d9d09df	0.076678984
140	0x3b540f81	0.0032357874
141	0xbdadc757	-0.08485287
142	0x3e09aa76	0.13443932
143	0xbeaa500f	-0.33264205
144	0xbdf1f0fa	-0.11813541
145	0xbd4a3746	-0.04936912
146	0x3e3a1d9e	0.1817536
147	0x3d745bd8	0.0596579
148	0xbb235b47	-0.0024926232
149	0xbca86fb1	-0.020561071
150	0xbdd06788	-0.10175997
151	0x3e981c34	0.29709017
152	0x3e5e0b18	0.2168392
153	0xbdc9bf47	-0.098509364
154	0xbd0052b6	-0.03132888
155	0x3d262cde	0.040570132
156	0x3e18e53d	0.14931197
157	0xbe2add68	-0.16686022
158	0xba399724	-0.00070797116
159	0x3d51040e	0.051029257
160	0x3e131823	0.14364676
161	0x3da39e94	0.07989231
162	0x3d051394	0.032489374
163	0x3dc759c7	0.097339205
164	0xbd94419a	-0.07239075
165	0x3d8a615b	0.0675685
166	0x3e08ca7a	0.13358489
167	0x3ec144ee	0.37747902
168	0x3e23036b	0.15919273
169	0xbdc52e46	-0.096279666
170	0x3e22bfc3	0.15893464
171	0xbe35f441	-0.17768957
172	0xbda8a743	-0.08235028
173	0xbe09df00	-0.13463974
174	0xbbb53206	-0.005529645
175	0x3d3e4eb3	0.046461772
176	0x3d34a5ff	0.04410362
177	0xbdc4fcf7	-0.09618562
178	0xbdcc8737	-0.09986728
179	0x3de62ef6	0.11239426
180	0x3dd1ec96	0.10250203
181	0xbe8c3ec5	-0.2739164
182	0x3da41031	0.08010901
183	0x3d619644	0.055074945
184	0x3e7eedb3	0.24895363
185	0x3e28078f	0.16409133
186	0xbe645329	-0.22297348
187	0x3e20b88e	0.15695402
188	0xbdcee9c4	-0.10103181
189	0x3ccd41a8	0.025055721
190	0xbe0a4109	-0.13501371
191	0xbe709795	-0.23495324
192	0x3d7869ce	0.06064778
193	0xbe8efbfd	-0.27926627
194	0x3dd35a28	0.1031993
195	0x3d0f7250	0.035021126
196	0xbdddb96d	-0.10826383
197	0x3c99a3af	0.018754808
198	0xbd882bea	-0.06649001
199	0xbc0e1313	-0.00867154
200	0x3de9a16d	0.11407743
201	0x3d89822c	0.067142814
202	0xbd9f236a	-0.077704266
203	0xbdbed578	-0.0931806
204	0xbb949ce4	-0.0045353044
205	0x3d95505b	0.07290717
206	0x3e296273	0.16541462
207	0xbe04f8b0	-0.12985492
208	0x3dfc7d4f	0.12328588
209	0x3e3f2cb2	0.18669394
210	0xbd8b41df	-0.06799673
211	0xbe0cb714	-0.13741714
212	0x3d4958c6	0.049156927
213	0xbef269b6	-0.47346276
214	0x3df0e0a5	0.117615975
215	0x3e26773f	0.16256426
216	0xbd27f937	-0.041009154
217	0x3d036ed0	0.0320881
218	0xbe2961fe	-0.16541287
219	0x3df963b3	0.12177219
220	0x3e0ad9a4	0.13559586
221	0x3e35cf38	0.17754829
222	0x3de2b3f6	0.11069481
223	0x3e6b6732	0.22988585
224	0xbc520cec	-0.012820464
225	0xbe077a5c	-0.1323027
226	0x3eac10a6	0.33606452
227	0x3e03fd33	0.12889557
228	0xbb93902e	-0.0045032715
229	0x3e85ea8c	0.26155508
230	0xbc5673fa	-0.013089174
231	0xbdfb341a	-0.12265797
232	0x3b9ee964	0.0048495997
233	0x3b91b2e9	0.0044463766
234	0x3e59dac8	0.21274865
235	0x3dcc3d8a	0.09972675
236	0xbe3cb96b	-0.18430106
237	0x3d89dc8f	0.06731521
238	0x3d3aa874	0.045570806
239	0x3dbb45eb	0.09144195
240	0xbc373731	-0.011182592
241	0x3d8233cc	0.06357536
242	0xbca74421	-0.020418229
243	0x3d8143d3	0.063117646
244	0x3ea6d9e7	0.3258812
245	0x3dc3587d	0.09538362
246	0x3ccf4cb7	0.025305135
247	0xbc8ec526	-0.017427992
248	0xbe381f79	-0.17980756
249	0x3e284ef5	0.1643637
250	0xbe10f6b0	-0.14156604
251	0xbd047877	-0.032341447
252	0x3dc76048	0.09735161
253	0x3df02b39	0.11726994
254	0xbccd5a04	-0.025067337
255	0xbddea7d2	-0.10871853

policy_net.4.bias f4 [128]
0	0x3c7563ce	0.014977409
1	0xbd09134d	-0.033465672
2	0x3dd99005	0.10623173
3	0xbd89f39f	-0.0673592
4	0x3cd1f397	0.025628848
5	0x3b2d30d6	0.0026426814
6	0xbe468f23	-0.1939054
7	0xbc9d045c	-0.019167118
8	0xbdf90747	-0.12159591
9	0x3cf8a2e2	0.030351106
10	0x3da8eabc	0.08247897
11	0x3caddbdd	0.021223003
12	0xbb8de0d4	-0.00432978
13	0x3cd2a526	0.025713515
14	0x3d6ac0d1	0.05731279
15	0x3dbf7371	0.093481906
16	0x3da03af8	0.078237474
17	0xbe187526	-0.14888439
18	0x3e10071e	0.14065215
19	0xbd05f0c2	-0.032700308
20	0xbc9eaa96	-0.019368451
21	0x3d839020	0.06423974
22	0xbd530d2f	-0.051526245
23	0xbe51ec30	-0.20500255
24	0xbc7bc2b3	-0.015366244
25	0x3de8f7d5	0.11375395
26	0xbe3853ee	-0.18000767
27	0xba143774	-0.0005654015
28	0xbe1331dc	-0.14374489
29	0xbd9ea93e	-0.07747124
30	0x3d79e5d2	0.06101019
31	0xbdbb96dd	-0.09159634
32	0x3e2043ca	0.1565086
33	0xbd0fcdb5	-0.035108287
34	0xbb2a6272	-0.002599862
35	0x3d8181ab	0.0632356
36	0x3d3db9d0	0.046319783
37	0x3cc0210e	0.023453262
38	0x3cf66d77	0.030081494
39	0xbc642b65	-0.013926362
40	0xbe00010b	-0.12500398
41	0xbde215b1	-0.110392936
42	0x3ded7568	0.11594659
43	0xbd7831d7	-0.060594406
44	0xbd8e22d5	-0.069402374
45	0x3c8c9472	0.017160628
46	0xbbc333b5	-0.0059570917
47	0x3d6e2029	0.05813614
48	0x3ca332c9	0.019921677
49	0x3e13eda8	0.14446127
50	0xbc757244	-0.014980856
51	0x3d59b05f	0.053146716
52	0xbc2aef71	-0.010433064
53	0x3cb68c40	0.022283673
54	0xbd40faff	-0.04711437
55	0x3d6990ba	0.057022788
56	0x3e13594b	0.14389531
57	0xbd629522	-0.055318005
58	0x395a75fb	0.00020834051
59	0x3e08f4a7	0.13374577
60	0x3cc356b0	0.023845047
61	0xbe03db8d	-0.1287672
62	0x3da03faa	0.07824643
63	0x3d610143	0.054932844
64	0x3dce8ddf	0.100856535
65	0xbd6de130	-0.058076084
66	0xbdf69e0e	-0.12041865
67	0x3d7f5e79	0.062345956
68	0xbd3b96b4	-0.04579802
69	0xbd6f45ca	-0.058416165
70	0xbcdd499b	-0.027012637
71	0x3de53137	0.111910276
72	0x3d8e97e2	0.06962563
73	0x3e0a2f3c	0.13494581
74	0x3d3f61c2	0.04672409
75	0x3cbfea23	0.023427075
76	0x3d8cd538	0.06876606
77	0xbcb4d4a7	-0.022074057
78	0xbc85d36f	-0.016336171
79	0xbdd3becf	-0.10339128
80	0x3ca1de65	0.019759366
81	0x3e042136	0.12903294
82	0x3dce77b3	0.100814246
83	0xbe135a5d	-0.1438994
84	0xbd19bc26	-0.037532948
85	0x3b97323c	0.0046141427
86	0x3d96925b	0.07352134
87	0x3d8d2fd8	0.06893891
88	0x3e036036	0.1282967
89	0x3b4f3560	0.0031617507
90	0x3c69ae44	0.01426274
91	0xbde0d288	-0.10977656
92	0x3b403582	0.0029328768
93	0xbd1a267c	-0.037634358
94	0x3e3ffc64	0.18748623
95	0xbdb571f4	-0.088596255
96	0xbe221319	-0.15827598
97	0x3d830d0a	0.063989714
98	0xbc6ddd8d	-0.014518154
99	0x3e073196	0.1320251
100	0x3d554de8	0.05207625
101	0x3d6d2e8a	0.05790571
102	0x3d084244	0.03326632
103	0x3d1b5ad7	0.03792843
104	0x3df7f25b	0.121067725
105	0x3e3bc52e	0.18336937
106	0x3c1f0108	0.009704836
107	0x3cf280fa	0.029602516
108	0xbbd96768	-0.0066346414
109	0x3c89c117	0.016815705
110	0x3babfb69	0.0052484763
111	0xbd794626	-0.060857914
112	0x3d0e4550	0.03473407
113	0x3d979267	0.07400971
114	0xbd1c062d	-0.038091827
115	0x3da3f561	0.08005787
116	0xbdc0dcbb	-0.09417101
117	0x3dd4e33f	0.10394906
118	0x3c8118f7	0.015758974
119	0x3dee902f	0.116485946
120	0x3d8b1f23	0.06793048
121	0xbcf980b9	-0.030456888
122	0x3d822d41	0.06356288
123	0x3d568f67	0.052382853
124	0x3ccc26d0	0.024920851
125	0xbd70674a	-0.058692254
126	0x3d6ad325	0.05733027
127	0xbda7f291	-0.08200563

policy_net.6.weight f4 [64, 128]
0	0xbd40c1c5	-0.047059793
1	0xbdc8a93d	-0.09797905
2	0x3dc8a24d	0.097965814
3	0x3ddd226c	0.10797581
4	0xbd44fcd9	-0.048092697
5	0x3d6253cd	0.0552557
6	0xbdd2ca2d	-0.10292468
7	0x3d20c69c	0.03925191
8	0xbd95ca80	-0.073140144
9	0x3d8b38bb	0.0679793
10	0x3d4b862f	0.049688514
11	0x3d63b229	0.05558983
12	0x3e14f299	0.14545669
13	0xbd6bdac6	-0.057581685
14	0x3e89cd04	0.26914227
15	0x3d351423	0.044208657
16	0xbf2f4a3d	-0.68472654
17	0x3db8f92e	0.09031902
18	0x3dfb3392	0.12265696
19	0xbefc641b	-0.49295124
20	0x3d79245c	0.06082569
21	0x3d651db1	0.05593652
22	0x3df0eaf8	0.11763567
23	0xbe17b529	-0.14815201
24	0xbd200c58	-0.039074272
25	0x3db26423	0.08710506
26	0x3d3043a4	0.043033257
27	0x3b58c074	0.0033073695
28	0xbc672502	-0.014107944
29	0xbdaceb5c	-0.08443329
30	0xbe3f9a5f	-0.18711232
31	0x3dac67fc	0.08418271
32	0xbeb0aecb	-0.34508356
33	0x3daeddb2	0.08538379
34	0xbf13e663	-0.5777342
35	0x3d0b58cb	0.034020226
36	0x3e245a5c	0.16050094
37	0xbe83d08d	-0.2574505
38	0x3d8012de	0.06253599
39	0x3df14fc9	0.11782796
40	0x3d206be5	0.039165396
41	0x3d4bd8e2	0.049767382
42	0xbd4a5cd0	-0.04940492
43	0x3da4e04b	0.08050593
44	0x3d54016a	0.05175916
45	0xbd96169c	-0.07328531
46	0x3ccab469	0.02474423
47	0xbe53d7d0	-0.20687795
48	0xbc4df88c	-0.012571465
49	0xbdf001d0	-0.11719096
50	0x3c2c7b0b	0.010527383
51	0xbcafeb39	-0.021474468
52	0x3b7fc195	0.0039025296
53	0x3de0e7eb	0.10981735
54	0x3d82c253	0.06384721
55	0x3d480310	0.048831046
56	0xbe76f19a	-0.24115601
57	0x3be5c713	0.007012257
58	0x3d693274	0.05693288
59	0xbdfb78a9	-0.122788735
60	0xbea7a02d	-0.32739392
61	0xbe2e1463	-0.16999964
62	0xbe4f97a4	-0.2027269
63	0x3d6ece9c	0.058302507
64	0xbdd5464c	-0.10413799
65	0xbdafde14	-0.0858728
66	0x3cbf6f91	0.023368629
67	0x3de25497	0.110512905
68	0xbc7fc8b8	-0.01561182
69	0xbddf4742	-0.10902263
70	0xbe1e96b6	-0.15487179
71	0x3d9cdfae	0.07659851
72	0x3e174bb2	0.14774969
73	0x3d49c2e8	0.049258143
74	0xbe5509b3	-0.20804481
75	0x3de01553	0.10941567
76	0xbbdd2c49	-0.006749664
77	0x3d97b4c8	0.07407528
78	0x3d8bf21a	0.068332866
79	0x3cf14aa1	0.029454531
80	0xbee337de	-0.4437856
81	0x3c38526a	0.011250118
82	0x3c084b5f	0.008318751
83	0x3d90b74e	0.070662126
84	0xbcf43b86	-0.02981354
85	0x3db55cd8	0.08855599
86	0x3dac44d8	0.084115684
87	0xbd858195	-0.065188564
88	0x3d53cc46	0.051708482
89	0xbce19445	-0.02753652
90	0xbd44b6d0	-0.048025906
91	0xbd944a22	-0.07240702
92	0xbce2f4cb	-0.027704617
93	0xbd6460b7	-0.055756297
94	0x3dd8e856	0.105911896
95	0x3e13f9a4	0.14450699
96	0xbd91bf1e	-0.07116531
97	0x3d597bdf	0.05309665
98	0xbe9b6e0e	-0.30357403
99	0x3dceeb51	0.10103477
100	0x3d08a7c3	0.033363115
101	0xbe34a188	-0.17639744
102	0xbd3fed3d	-0.046857107
103	0xbcb7c317	-0.022431893
104	0xbc88c7db	-0.016696861
105	0x3ca5c4a9	0.020235376
106	0xbd1923c9	-0.037387643
107	0xbd8a3b88	-0.06749636
108	0x3d0391e2	0.032121547
109	0xbeb8abe2	-0.36068636
110	0x3e028e02	0.12749484
111	0x3c9b741a	0.01897626
112	0x3dab95ba	0.083781675
113	0x3de1550c	0.110025495
114	0xbd5911da	-0.05299554
115	0xbf07593a	-0.52870524
116	0xbe238218	-0.15967596
117	0x3d09b57b	0.03362034
118	0x3d06693f	0.032815214
119	0xbd40b49f	-0.047047254
120	0x3e231cd5	0.15928967
121	0xbd963b86	-0.07335572
122	0xbdde97e5	-0.10868815
123	0xbeaff624	-0.34367478
124	0xbcfbaae7	-0.030721141
125	0xbdabf1cd	-0.08395729
126	0x3e256c61	0.16154625
127	0xbe5876aa	-0.21139017
128	0xbdc0609c	-0.09393427
129	0xbd53bd08	-0.051693946
130	0x3e70364e	0.23458216
131	0x3e62f40a	0.22163406
132	0x3daed5da	0.08536883
133	0x3de7f110	0.11325276
134	0xbe549dc0	-0.20763302
135	0x3e292c64	0.1652084
136	0x3d7fc772	0.062446065
137	0x3e733921	0.23752262
138	0xbb4cad75	-0.0031231318
139	0xbd9631b1	-0.07333697
140	0x3e4a2009	0.19738783
141	0xbec239b5	-0.37934652
142	0x3e602c47	0.2189189
143	0x3dad20e6	0.084535405
144	0x3bb7ae36	0.0056054844
145	0xbcc93950	-0.024563462
146	0x3aa9839f	0.0012932903
147	0xbed6e0ce	-0.41968387
148	0xbc774e43	-0.015094343
149	0xbd587bdb	-0.052852493
150	0x3e0a35a5	0.13497026
151	0x3cc1d171	0.02365944
152	0xbea36797	-0.3191497
153	0xbd41f910	-0.047356665
154	0x3e21da1d	0.1580586
155	0x3d591296	0.05299624
156	0xbdc345f0	-0.09534824
157	0xbdaf40ff	-0.08557319
158	0x3cd118d4	0.025524534
159	0xbe2c9aa5	-0.16855867
160	0xbe216615	-0.15761597
161	0x3e526b3b	0.20548718
162	0xbe0097f3	-0.12557964
163	0x3da2a67c	0.079419106
164	0x3dbfd2b2	0.09366359
165	0xbd8f1484	-0.06986335
166	0xbc7c3920	-0.015394479
167	0x3dea8260	0.11450648
168	0x3d4157dd	0.047202934
169	0x3d541d60	0.051785827
170	0xbe2d57db	-0.16928045
171	0xbb975967	-0.004618812
172	0x3ad09787	0.0015914299
173	0xbd6e0955	-0.05811437
174	0x3ddd6d4a	0.10811861
175	0xbe28e0d6	-0.16492018
176	0xbd2efdb5	-0.042722423
177	0xbd81046b	-0.06299671
178	0x3e7548e8	0.23953593
179	0xbe24666b	-0.16054694
180	0xbd8eacaa	-0.06966527
181	0xbc04bf6a	-0.008102277
182	0xbe0e8af3	-0.13920192
183	0x3bf964a9	0.0076108766
184	0xbcae0e2c	-0.021246992
185	0x3e2282c2	0.15870193
186	0xbd1ab4f5	-0.03777023
187	0x3cc6714d	0.024223948
188	0xbe8e75b4	-0.27824175
189	0xbe725a18	-0.2366718
190	0xbc8ac10d	-0.016937757
191	0x3e71c139	0.23608865
192	0xbd8fc278	-0.07019514
193	0xbedc7a55	-0.43062082
194	0x3d3171c0	0.04332137
195	0x3b2e5e14	0.0026606368
196	0x3df7ce7f	0.12099933
197	0xbdee9f75	-0.11651508
198	0xbe875b38	-0.26436782
199	0xbd976dc6	-0.073939845
200	0x3b6a5f60	0.0035762414
201	0x3dfb10c6	0.12259059
202	0xbe73d687	-0.23812304
203	0x3d627e50	0.055296242
204	0xbe2e24b3	-0.17006187
205	0x3ea1334a	0.31484443
206	0x3e6e59fe	0.23276517
207	0xbd968a79	-0.0735063
208	0xbe7a2fdc	-0.2443232
209	0xbdacdeff	-0.08440971
210	0x3d502e6c	0.05082552
211	0x3db92fa8	0.09042293
212	0x3e3c9f7e	0.18420216
213	0xbd7f2d30	-0.062298954
214	0x3c281c2d	0.010260624
215	0xbc923245	-0.017846236
216	0x3e898a95	0.26863542
217	0xbe1d03d0	-0.15333486
218	0xbdf99df2	-0.12188329
219	0xbd85745d	-0.06516335
220	0x3d0b850f	0.03406244
221	0xbbbe4423	-0.0058064624
222	0x3d0797c6	0.033103727
223	0xbd2a3b2c	-0.041560337
224	0x3ce30c3c	0.027715795
225	0x3e31e77b	0.17373459
226	0xbe855f67	-0.2604935
227	0x3cd26389	0.025682228
228	0xbdd96d24	-0.1061652
229	0xbd151c36	-0.036403857
230	0xbd0cb228	-0.03434959
231	0x3ddbf3d2	0.107398644
232	0xbdcb1a9c	-0.09917185
233	0xbc06407f	-0.008194088
234	0xbdd37115	-0.10324303
235	0xbe952ba0	-0.29134846
236	0x3dc43750	0.095808625
237	0xbdbe111b	-0.09280606
238	0x3dcb9204	0.0993996
239	0x3d859ff4	0.06524649
240	0x3dad08f0	0.0844897
241	0x3d13a66a	0.036047377
242	0x3dabdca2	0.08391692
243	0xbe14dbbd	-0.14536949
244	0xbe169141	-0.14703847
245	0x3d8d8a1a	0.069111064
246	0xbd48070a	-0.048834838
247	0x3e5ee270	0.21766067
248	0x3e393179	0.18085279
249	0xbba2e173	-0.0049707233
250	0xbcbbd6b2	-0.022929523
251	0xbdfc4ec7	-0.12319713
252	0xbddd5778	-0.10807699
253	0xbf02daac	-0.51114917
254	0x3d5a1ed9	0.053252075
255	0xbd478b0d	-0.048716594

policy_net.6.bias f4 [64]
0	0x3e07ce8b	0.13262384
1	0x3e332d1f	0.17497681
2	0x3e3f6ee1	0.1869464
3	0x3d225476	0.03963133
4	0xbe803836	-0.25042886
5	0x3e27184e	0.16317865
6	0x3dce9361	0.10086704
7	0x3de56473	0.112008
8	0x3d0838e5	0.033257384
9	0xbdcc5e0e	-0.09978877
10	0x3de59669	0.11210329
11	0xbd09a2a2	-0.033602364
12	0x3d73e8de	0.05954825
13	0xbc28c782	-0.010301473
14	0x3e1a144c	0.15046805
15	0xbd1dfe14	-0.038572386
16	0x3df6253e	0.12018822
17	0x3dc20a0d	0.09474573
18	0xbda1b18f	-0.07895195
19	0x3df1e4ed	0.11811242
20	0x3d12325d	0.03569256
21	0x3d382fdc	0.044967517
22	0x3e1d5f9e	0.15368506
23	0x3d169701	0.036765102
24	0xbdab6301	-0.08368493
25	0x3e46234f	0.19349407
26	0x3e28a8b9	0.16470613
27	0x3cb37adb	0.021909168
28	0xbd9cc8c0	-0.076554775
29	0x3d941983	0.072314285
30	0x3dc6e9bc	0.0971255
31	0x3d8ef6c3	0.0698066
32	0x3cb46f35	0.022025684
33	0xbd702a5e	-0.058634154
34	0x3e36a0e9	0.1783482
35	0x3e0a028f	0.13477539
36	0xbe317694	-0.1733039
37	0x3c840546	0.016115796
38	0xbd1be656	-0.038061462
39	0xbd9bb589	-0.076029845
40	0x3df2cd69	0.11855585
41	0xbd4a1228	-0.04933372
42	0x3ddbbc2f	0.107292525
43	0x3e070777	0.13186441
44	0x3e04b28e	0.12958738
45	0x3a5ab740	0.00083433464
46	0x3d47a232	0.048738666
47	0x3e43f554	0.19136554
48	0xbd8b4b57	-0.06801479
49	0xbd197ac9	-0.037470613
50	0xbddb2dae	-0.10702072
51	0xbd434be7	-0.047679808
52	0x3e211f80	0.15734673
53	0x3bc20d31	0.0059219827
54	0xbdc601cb	-0.09668311
55	0x3e16b695	0.14718087
56	0x3e5951e0	0.21222639
57	0x3d470527	0.048588898
58	0x3e1b5467	0.15168916
59	0xbdc7286b	-0.09724506
60	0x3e31ccdf	0.17363308
61	0x3dde46f1	0.10853375
62	0x3d4b2910	0.049599707
63	0x3dc6f538	0.097147405

policy_net.8.weight f4 [4, 64]
0	0x3db475d4	0.088115364
1	0x3e707c61	0.23484947
2	0xbd1caccc	-0.03825073
3	0xbcaf8a5d	-0.021428281
4	0x3d338cb4	0.043835357
5	0x3d0cbad0	0.034357846
6	0x3ca8baa6	0.020596813
7	0xbd5065af	-0.050878223
8	0xbdf2fff2	-0.11865224
9	0xbe95be6b	-0.2924684
10	0xbd864746	-0.06556563
11	0xbe65a7c2	-0.22427276
12	0xbbebc86c	-0.007195523
13	0xbe1a9716	-0.15096697
14	0x3df2dd30	0.118585944
15	0xbe83f7a7	-0.2577488
16	0xbc9ce20f	-0.019150762
17	0x3bc93301	0.0061401133
18	0xbd14b128	-0.036301762
19	0xbe0a737d	-0.13520618
20	0xbe3bfdd4	-0.18358546
21	0x3e244082	0.16040233
22	0xbe4e267a	-0.20131865
23	0xbc19794a	-0.0093672965
24	0xbcc6d42e	-0.024271097
25	0x3db43114	0.087984234
26	0xbe2504da	-0.16115132
27	0xbdf21178	-0.11819738
28	0xbda74e7d	-0.08169267
29	0xbc714c2c	-0.014727633
30	0xbd8378a3	-0.06419494
31	0xbbee46ba	-0.007271615
32	0xbe692e9e	-0.2277169
33	0xbe027a66	-0.12742004
34	0xbe12afad	-0.14324827
35	0x3df240ce	0.11828767
36	0xbe00db6b	-0.12583701
37	0x3cdfd0e1	0.02732128
38	0x3e884ab8	0.26619506
39	0x3c066e4a	0.008205006
40	0xbd4a8540	-0.049443483
41	0xbd447d2c	-0.047970936
42	0xbd551968	-0.052026182
43	0x3d4820f2	0.048859544
44	0x3dbe9b8a	0.093070105
45	0x3da13726	0.07871847
46	0xbbf4c679	-0.007469949
47	0x3e18c51c	0.14918941
48	0xbeb1cc31	-0.34726098
49	0xbb50f84b	-0.0031886275
50	0xbcb3cc67	-0.021948053
51	0xbea97f6f	-0.33105037
52	0x3e305be1	0.17222549
53	0x3e1ecced	0.1550786
54	0xbe3b707a	-0.18304625
55	0xbd4d7b89	-0.05016664
56	0x3e57f720	0.21090364
57	0x3d53c038	0.051696986
58	0x3c1c362f	0.009534403
59	0xbc303a8a	-0.010756144
60	0x3e13b397	0.14423977
61	0x3cdd1140	0.026985765
62	0x3e66198a	0.2247068
63	0x3e05eb7f	0.13078116
64	0x3d1f49ae	0.038888626
65	0xbd32edaf	-0.043683704
66	0xbe6d720b	-0.23188035
67	0x3d7a4a7c	0.06110619
68	0x3d3c4dd2	0.045972653
69	0xbe171df8	-0.14757526
70	0x3e180b18	0.14847982
71	0x3da1b9c3	0.07896759
72	0x3d7c3453	0.061573338
73	0xbcc3d6ab	-0.023906073
74	0xbe822760	-0.25420666
75	0xbe649764	-0.22323376
76	0xbd722cbb	-0.05912469
77	0xbe80832b	-0.25100073
78	0x3c082cf3	0.008311498
79	0x3d1d42f0	0.038393915
80	0x3d8e431d	0.069463946
81	0xbd87f161	-0.06637836
82	0xbe010450	-0.12599301
83	0xbc8a9b9c	-0.016919903
84	0x3cbbf48f	0.022943763
85	0x3dad170d	0.08451662
86	0xbeaa2fd7	-0.33239624
87	0x3dd619cb	0.10454138
88	0x3c2eb3be	0.010662971
89	0xbd94534c	-0.0724245
90	0x3c806fa7	0.01567824
91	0xbe33df0e	-0.17565557
92	0xbe2775b2	-0.16353491
93	0xbe0323a2	-0.12806562
94	0x3db36c20	0.087608576
95	0x3e5e5f13	0.21715955
96	0x3cd62b7f	0.026143787
97	0xbac184aa	-0.0014764268
98	0xbe712c65	-0.23552091
99	0x3e225511	0.15852763
100	0x3c960c4e	0.018316414
101	0xbe4e028f	-0.20118164
102	0xbd6e7324	-0.058215275
103	0x3e282b80	0.16422844
104	0x3e429a45	0.19004162
105	0xbea113bf	-0.31460378
106	0x3d182587	0.037145164
107	0xbcdf25a7	-0.027239634
108	0xbd994eec	-0.07485756
109	0x3d20ffca	0.03930644
110	0x3e323e98	0.1740669
111	0x3e233eae	0.15941879
112	0x3b84fdc1	0.00405857
113	0x3e09e00f	0.13464378
114	0x3c46dae8	0.012137152
115	0xbe0f48de	-0.1399264
116	0x3dc7cd73	0.09755983
117	0xbc5bc056	-0.013412556
118	0x3c9e9d48	0.019362107
119	0xbcaa231b	-0.020768693
120	0x3dc3faed	0.09569345
121	0xbdd038ed	-0.10167108
122	0x3e7f783f	0.24948214
123	0x3af86078	0.0018949648
124	0x3de3c9b6	0.11122458
125	0xbe980468	-0.29690862
126	0x3d3663eb	0.044528883
127	0x3ca3b798	0.019985005
128	0x3e1e4c1a	0.15458718
129	0x3d8ce8ef	0.06880366
130	0xbd83f781	-0.06443692
131	0x3e339263	0.17536311
132	0xbcf37813	-0.029720342
133	0x3e4997ec	0.1968686
134	0xbe43ac16	-0.19108614
135	0xbe14a01d	-0.14514203
136	0xbde99a30	-0.11406362
137	0xbdd1039c	-0.102057666
138	0xbdc74f20	-0.09731889
139	0xbdbda6b7	-0.09260314
140	0xbd445422	-0.047931798
141	0xbd96b374	-0.07358447
142	0xbdcd83fe	-0.10034941
143	0xbce09dbd	-0.027418965
144	0x3e99a11f	0.30005738
145	0x3cd93ac9	0.026517289
146	0xbdc55fc4	-0.096374065
147	0x3d41d036	0.047317706
148	0xbd02884e	-0.03186827
149	0x3d5f43d8	0.05450806
150	0xbd458b20	-0.048228383
151	0x3dfa6391	0.12226022
152	0x3cf85c98	0.03031759
153	0x3e508a03	0.20365147
154	0x3e51d3bb	0.20490925
155	0xbde3bf9d	-0.11120532
156	0xbe13865a	-0.1440672
157	0xbe020471	-0.12697007
158	0xbe490ff0	-0.19634986
159	0x3d73983f	0.059471365
160	0x3e32df08	0.17467892
161	0xbe4478aa	-0.19186655
162	0x3c39a5cd	0.011331034
163	0x3cd3872b	0.025821289
164	0x3ded5e2c	0.115902275
165	0xbdcede79	-0.10101027
166	0x3db6edd1	0.08932079
167	0x3c04c849	0.008104392
168	0xbe244c94	-0.16044837
169	0xbd0a1f95	-0.033721525
170	0xbe8c1d7a	-0.2736624
171	0xbd4e62f7	-0.05038735
172	0xbdc05bb6	-0.093924925
173	0x3bb1f394	0.005430648
174	0x3d4ac146	0.049500726
175	0xbe87a04a	-0.26489478
176	0x3e0dd512	0.13850811
177	0x3cb61fa5	0.022231886
178	0x3bdb0fa6	0.006685215
179	0x3d7626be	0.06009554
180	0xbc9f36ad	-0.019435251
181	0x3edba156	0.42896527
182	0x3cdbeb78	0.026845679
183	0x3ea5869b	0.32329258
184	0x3cba6630	0.022753805
185	0xbe96fd4d	-0.29490128
186	0xbc2e94bd	-0.010655579
187	0x3d8ad537	0.06778949
188	0xbe566d83	-0.20940213
189	0x3d666a2b	0.056253593
190	0xbe539b3e	-0.20664689
191	0x3e7e3b6f	0.2482736
192	0xbe4996f9	-0.19686498
193	0xbdb18b73	-0.08669176
194	0xbd3aa814	-0.045570448
195	0x3e1fcd78	0.15605724
196	0x3ef12041	0.4709492
197	0xbe12b97d	-0.1432857
198	0x3c925432	0.017862413
199	0x3e193daf	0.14964937
200	0x3e4686d3	0.19387369
201	0xbda7c901	-0.08192635
202	0xbc333b36	-0.01093941
203	0xbbf27e55	-0.007400314
204	0xbe12829a	-0.14307633
205	0x3d93cf05	0.0721722
206	0x3e17925b	0.14801924
207	0xbdd1905b	-0.10232612
208	0xbd032676	-0.0320191
209	0xbde12d8c	-0.109950155
210	0x3de648fe	0.11244391
211	0xbe583407	-0.21113597
212	0xbe49acd8	-0.19694841
213	0xbc4b9bca	-0.01242728
214	0xbe2ba7fa	-0.16763297
215	0x3e2d1d67	0.16905747
216	0x3c35dd08	0.011100061
217	0xbe1e67f5	-0.15469344
218	0xbe319157	-0.17340599
219	0x3e100af4	0.14066678
220	0x3e48c697	0.19607006
221	0xbdc3b63f	-0.09556245
222	0xbe164698	-0.14675367
223	0xbe2dc519	-0.16969718
224	0x3e5e9793	0.21737508
225	0xbdd5e9bf	-0.10444974
226	0xbc875937	-0.016522033
227	0xbcb15ae3	-0.021649783
228	0x3d3090a0	0.043106675
229	0x3ddb99ec	0.10722718
230	0x3e1adef4	0.15124112
231	0x3d1ced72	0.038312383
232	0xbb7c1488	-0.0038464386
233	0xbb0ed8cf	-0.0021796708
234	0x3e2c9a4d	0.16855736
235	0xbe276590	-0.16347337
236	0xbda0125e	-0.07816003
237	0xbe27ef10	-0.16399789
238	0xbce56223	-0.028000897
239	0x3e4bcfa8	0.19903433
240	0x3d98ccdf	0.07460951
241	0xbd0ede28	-0.034879833
242	0xbca85f99	-0.020553397
243	0xbe0b3780	-0.1359539
244	0x3e16a93b	0.14712994
245	0x3ebcd7a5	0.36883274
246	0x3d4dc6c1	0.050238375
247	0x3d908881	0.07057286
248	0x3e554a69	0.20829166
249	0x3ddab676	0.10679333
250	0x3d1824a9	0.037144337
251	0x3c675da2	0.014121445
252	0x3de6a24f	0.11261427
253	0x3d8b373e	0.06797646
254	0xbda10e72	-0.07864083
255	0xbdbec3d2	-0.093146935

policy_net.8.bias f4 [4]
0	0x3cafc5b0	0.02145657
1	0xbd73a80b	-0.05948643
2	0x3c8371a7	0.016045405
3	0x3cefaf08	0.029258266
