IL/Model/model_reacher_34.pt (torch, 292527 bytes, 20 tensors)

policy_net.0.weight f4 [64, 24]
-0.3619382 -1.2056112 0.23905186 0.0021490667 0.23078668 -0.17291784 0.33268705 -0.070398256
0.1836711 0.061840776 0.02465601 0.0028801644 -0.09338356 -0.0062737633 0.31340644 0.13735968
0.25341952 0.1291293 -0.23794913 -0.48904824 -0.40980253 -0.08061828 0.17329423 0.02131763
0.028614813 -0.69583637 -0.06831888 0.27255532 0.25119135 0.22249094 0.907263 -0.29205814
-0.050850254 -0.28803787 0.29634947 -0.0108789075 -0.023799289 -0.2924185 -0.015352448 -0.08934989
-0.10859599 -0.20843086 -0.25922048 -0.10101734 -0.25249085 0.1529376 -0.09614366 -0.13864157
0.1461961 0.7002389 -0.3217784 1.5463791 -0.037805744 -0.05326772 -0.031147014 0.07323991
0.4376807 -0.045449667 0.0670547 -0.013129848 0.3626291 0.30922028 0.0058209407 -0.06442578
-0.06381171 -0.1708821 0.060207896 0.019364059 0.04835547 0.18630521 -0.08857669 -0.21512002
0.3854251 0.49030268 -0.34044427 -1.2270474 0.2874995 0.111806564 0.30365455 0.09793317
-0.107524 0.07950885 -0.0820531 -0.5538664 -0.046509217 0.018145433 0.02083558 -0.04748697
-0.07995926 -0.036611263 -0.10104837 -0.36925262 -0.09539118 -0.24748181 -0.0634457 0.0982064
-0.08390387 0.19188897 -0.14101125 0.23200779 0.030427184 0.13648227 0.044816677 0.061632443
-0.046332877 -0.13569684 -0.15479052 0.44280127 -0.53117555 0.029107183 0.15822642 0.093907855
0.33212903 0.28374517 0.15458964 0.2543789 -0.07517508 -0.18142986 -0.18364868 -0.07027013
-0.42163607 -0.15619017 0.3029606 -1.4853796 -0.17683625 -0.009683645 0.23403102 -0.18551968
-0.49658424 0.13670845 -0.27386886 -0.07696463 -0.07927485 -0.21919535 0.17765664 0.17807008
0.20125824 0.11960818 0.23521252 0.22974887 0.06518 0.009441148 -0.15718774 0.12137057
-0.31535068 2.6297417 0.15882322 -0.5349165 -0.30292213 0.2884322 -0.4669506 0.17361328
0.107884824 -0.025376868 0.20283926 -0.12812749 0.05442355 0.08895492 0.013787511 -0.1757022
0.13125838 0.18326518 0.011068652 0.28654546 0.20380504 -0.070842795 -0.28200823 -0.17521562
-0.02136293 0.49357274 0.5451107 1.3378547 -0.14372614 0.20910497 0.174239 -0.15322445
0.12729119 -0.3097432 0.04392877 0.2484593 -0.22141373 -0.034019683 -0.19808991 -0.03933659
-0.13593656 0.15980926 -0.053758763 -0.05234908 0.13938996 -0.20479584 0.010277736 0.084029175
0.73473877 0.08654468 -0.42999622 -0.44108653 -0.102497965 0.25788537 -0.13602443 0.13679412
0.033927776 0.26769888 -0.0010521727 0.032797594 0.038543783 0.09772198 -0.16247554 -0.03012
-0.08599695 -0.20179214 0.077944964 -0.12671939 0.03762664 0.12948455 -0.042502347 0.19197828
0.20098141 1.1285094 0.21554457 -1.3400823 -0.3387307 0.21174775 -0.07421091 0.06634446
0.040619336 0.4021667 0.41174924 -0.19257727 -0.13384365 -0.28288028 0.26233095 0.18057124
0.14855315 0.019799845 0.12839386 -0.20295326 -0.36682495 -0.26162186 -0.04740089 0.06134499
0.4842035 1.4956529 0.3139291 -0.8898431 0.24192962 0.16729693 -0.490107 -0.028829288
-0.25281963 0.42892507 0.29717097 -0.07685964 0.15839937 0.1821911 -0.31120363 -0.34163544
00000000: f74f b9be 7851 9abf 03ca 743e 5bd7 0c3b
00000010: 5853 6c3e 6011 31be f555 aa3e f62c 90bd
00000020: 4714 3c3e c14c 7d3d 67fb c93c 24c1 3c3b
00000030: e13f bfbd 2494 cdbb cf76 a03e 04a8 0c3e
00000040: 34c0 813e 793a 043e f0a8 73be 8864 fabe
00000050: a3d1 d1be 321b a5bd 0b74 313e 4fa2 ae3c
00000060: 9d69 ea3c 5522 32bf c5ea 8bbd 5f8c 8b3e
00000070: 279c 803e aad4 633e 6342 683f a588 95be
00000080: 5b48 50bd b379 93be 1ebb 973e 723d 32bc
00000090: baf6 c2bc e1b7 95be d688 7bbc 13fd b6bd
000000a0: 9367 debd e66e 55be 8cb8 84be 2ee2 cebd
000000b0: 7b46 81be ad9b 1c3e f8e6 c4bd 0ef8 0dbe
000000c0: 6eb4 153e db42 333f 23c0 a4be c0ef c53f
000000d0: 32da 1abd 412f 5abd 0628 ffbc cefe 953d
000000e0: af17 e03e 6e29 3abd f953 893d 931e 57bc
000000f0: 85aa b93e 1f52 9e3e 97bd be3b aaf1 83bd
00000100: b7af 82bd b8fb 2ebe 8e9c 763d 60a1 9e3c
00000110: 6310 463d cbc6 3e3e b267 b5bd 6c48 5cbe
00000120: 7056 c53e f408 fb3e b64e aebe e40f 9dbf
00000130: 2233 933e d7fa e43d 9c78 9b3e 3091 c83d
00000140: 8b35 dcbd 89d5 a23d 750b a8bd 30ca 0dbf
00000150: 7380 3ebd bba5 943c 61af aa3c b281 42bd
00000160: aec1 a3bd b1f5 15bd 73f2 cebd ae0e bdbe
00000170: 735c c3bd df6b 7dbe d2ef 81bd 7020 c93d
00000180: cbd5 abbd 8b7e 443e 4165 10be 7393 6d3e
00000190: 6e42 f93c 02c2 0b3e b191 373d 4d72 7c3d
000001a0: 8bc7 3dbd 1df4 0abe 6881 1ebe d9b6 e23e
000001b0: 1ffb 07bf 3072 ee3c 1b06 223e c352 c03d
000001c0: d10c aa3e 0c47 913e bf4c 1e3e f43d 823e
000001d0: 64f5 99bd c0c8 39be 660e 3cbe c9e9 8fbd
000001e0: afe0 d7be 51f0 1fbe a71d 9b3e eb20 bebf
000001f0: 9014 35be 27a8 1ebc d4a5 6f3e dff8 3dbe
00000200: 4a40 febe 4dfd 0b3e 8a38 8cbe a29f 9dbd
00000210: da5a a2bd bf74 60be 9feb 353e 0158 363e
00000220: a416 4e3e 22f5 f43d 8ddb 703e 4a43 6b3e
00000230: 187d 853d 0baf 1a3c d3f5 20be 2291 f83d
00000240: a575 a1be b04d 2840 8ea2 223e 4af0 08bf
00000250: 9c18 9bbe 63ad 933e 2614 efbe aec7 313e
00000260: b8f2 dc3d 26e3 cfbc 18b5 4f3e da33 03be
00000270: 3aeb 5e3d ff2d b63d 03e5 613c 47eb 33be
00000280: 9968 063e dea9 3b3e 4b59 353c 16b6 923e
00000290: 45b2 503e 0716 91bd 6263 90be b96b 33be
000002a0: 5001 afbc 91b5 fc3e 608c 0b3f d33e ab3f
000002b0: f22c 13be 9d1f 563e b56b 323e dfe6 1cbe
000002c0: 9f58 023e a996 9ebe a7ee 333d 1d6c 7e3e
000002d0: 48ba 62be 3958 0bbd 15d8 4abe 671f 21bd
000002e0: f432 0bbe 0aa5 233e 2632 5cbd fd6b 56bd
000002f0: 3ebc 0e3e 00b6 51be f363 283c 7d17 ac3d
00000300: d717 3c3f 563e b13d 7728 dcbe 18d6 e1be
00000310: 74ea d1bd 8d09 843e fd49 0bbe c213 0c3e
00000320: daf7 0a3d d40f 893e 0fe9 89ba c556 063d
00000330: 16e0 1d3d 7622 c83d fd5f 26be 38be f6bc
00000340: 2b1f b0bd 99a2 4ebe 9ca1 9f3d bac2 01be
00000350: 641e 1a3d 9997 043e f116 2ebd f495 443e
00000360: 12ce 4d3e ff72 903f b7b7 5c3e d187 abbf
00000370: 1c6e adbe 67d4 583e e4fb 97bd 9bdf 873d
00000380: 7660 263d cbe8 cd3e ccd0 d23e fa32 45be
00000390: 4f0e 09be afd5 90be 3e50 863e abe7 383e
000003a0: 511e 183e 4933 a23c ae79 033e fbd2 4fbe
000003b0: 7bd0 bbbe 4df3 85be 7027 42bd e244 7b3d
000003c0: 85e9 f73e 8e71 bf3f 51bb a03e c2cc 63bf
000003d0: 66bc 773e e34f 2b3e 4eef fabe 662b ecbc
000003e0: 9371 81be 119c db3e cb26 983e 9668 9dbd
000003f0: 7233 223e 4e90 3a3e 1556 9fbe d7ea aebe

policy_net.0.bias f4 [64]
-0.097847804 -0.1088843 -0.22836041 -0.017602932 0.1301007 -0.17995676 0.12563084 -0.013290265
0.13175568 0.16836184 -0.113385834 0.046112824 -0.2579602 -0.2878818 0.24197932 0.1028123
0.1577474 0.24775057 0.09143747 -0.1393958 0.0332961 0.028263956 -0.18456537 0.090609096
-0.041338272 -0.018366264 0.20090908 0.027431324 0.17079028 0.04027144 -0.10499962 -0.113557145
0.07302262 0.24610941 -0.09153571 -0.056988306 -0.0038881376 0.036751166 -0.1389906 0.17963922
0.0864676 -0.24581051 0.03545122 0.005217438 -0.16976285 -0.17984343 0.2382228 -0.01106318
0.017673064 0.12519088 0.13784496 0.0016940701 0.13833205 0.20677304 0.021311127 0.23393914
-0.17512558 0.014814853 -0.09208295 0.14737014 0.12536326 -0.20092991 -0.14675461 -0.06270323
00000000: 6e64 c8bd bbfe debd 50d7 69be 0634 90bc
00000010: 1e39 053e 9646 38be 5fa5 003e 69bf 59bc
00000020: f6ea 063e 0c67 2c3e d536 e8bd cde0 3c3d
00000030: 5c13 84be 3e65 93be 6dc9 773e 418f d23d
00000040: 8988 213e 53b2 7d3e 9143 bb3d c6bd 0ebe
00000050: 7e61 083d d089 e73c b4fe 3cbe 4391 b93d
00000060: 5252 29bd d974 96bc 1cbb 4d3e a8b7 e03c
00000070: a6e3 2e3e aaf3 243d 0a0a d7bd a690 e8bd
00000080: e28c 953d 1b04 7c3e 1377 bbbd 926c 69bd
00000090: 20d0 7ebb 6488 163d 8d53 0ebe 58f3 373e
000000a0: ed15 b13d c0b5 7bbe 4c35 113d 0bf7 aa3b
000000b0: 50d6 2dbe e028 38be adf0 733e 5742 35bc
000000c0: 1ac7 903c 0a32 003e 3b27 0d3e 8f0b de3a
000000d0: eba6 0d3e 50bc 533e ac94 ae3c be8d 6f3e
000000e0: 1f54 33be ffb9 723c fc95 bcbd 33e8 163e
000000f0: 3a5f 003e 92c0 4dbe d746 16be 8d6a 80bd

policy_net.2.weight f4 [128, 64]
-0.19642295 0.021977771 -0.060742456 -0.24813363 0.08323118 0.23661484 0.0025406599 0.21324046
0.2029723 0.09032485 -0.14908433 -0.31987166 0.24137467 -0.04840893 0.2928237 0.36650229
-0.19423917 -0.026608234 -0.14766549 0.016916296 -0.17912138 -0.08449686 0.2596292 0.27431074
0.19652238 -0.3291243 -0.3659747 0.37033534 0.027392944 0.1337359 -0.35547614 -0.11497785
-0.20743243 0.118788145 0.06593174 -0.10768866 0.056184284 0.24615258 -0.46183804 -0.21682687
-0.011044464 -0.4597368 -0.20354405 0.6321989 -0.10637166 0.069356635 0.036515456 0.050032258
0.10666924 -0.42911917 -0.030753098 0.10331885 -0.07084828 -0.2939534 0.22279644 0.030780355
-0.09185488 0.023608183 0.25537556 0.1409568 -0.16824852 -0.23763989 -0.059503194 -0.010852606
-0.3629282 0.12750828 0.23728476 0.012234038 -1.4211012 0.02927972 0.080921695 -0.59020996
-0.02210013 -0.09462483 -0.019293068 -0.14255549 0.05090885 0.17652692 -0.05407005 0.15525895
-0.058482993 0.079083234 0.045363974 -0.09390252 0.0031056332 0.077771865 -0.2157039 -0.587332
-0.024258705 0.039201044 0.25116727 0.3453461 -0.052994013 0.10913835 0.04293852 0.1131916
-0.48183912 -0.2715654 -0.015850319 0.109971255 0.23047891 0.16019952 -0.016328046 -0.33366764
-0.42135537 0.07801126 -0.011824223 -0.5115448 0.21525496 0.07394723 -0.034363184 0.14365028
0.45330414 0.13525735 -0.37002 -0.02435819 0.25778908 -0.17888494 0.028063368 0.024440927
0.09169325 -0.20554847 -0.22007161 -0.02125123 0.15233587 0.10521552 -0.15990493 0.06592252
-0.18558355 -0.04278924 -0.35015053 0.120539494 -0.02012934 0.27769366 0.030499753 0.0356881
0.12314945 0.09439409 0.10729701 -0.06641448 -0.16197486 -0.41034406 -0.09871977 -0.21065126
-0.11649699 0.0637921 0.3951176 -0.27623537 0.017489562 -0.09115955 -0.12350217 -0.2866375
-0.19715685 0.3083251 0.05873938 0.15637156 0.2284415 -0.1549867 0.020974996 0.17995691
0.12667087 0.0016520995 -0.1011499 0.05158924 -0.08761097 -0.5640532 0.18216747 0.4225819
-0.117689684 -0.55576515 0.017503897 -0.16023593 -0.2915964 0.07083835 -0.06335811 0.10968277
-0.124618605 0.14556254 0.25077274 -0.2851238 0.17084873 -0.1001932 -0.046344668 0.0032147695
-0.43780178 -0.08245125 -0.40251964 0.03500348 0.27862573 -0.29579884 -0.047181707 -0.31732154
-0.36358985 0.21389383 -0.3995385 -0.03863543 -0.08725722 -0.039503932 -0.26871112 0.0055701393
0.05693821 0.34405267 0.29925635 -0.22359352 -0.19761844 0.035925593 -0.05188301 -0.045338612
0.021486124 0.042325288 -0.12754357 -0.5446021 0.10235227 -0.1308412 0.07078608 -0.12904608
-0.4799001 0.1411963 0.017906595 -0.083246276 -0.25350446 -0.0040225666 0.064412035 -0.5928485
0.43643355 0.123107776 0.1562498 0.16951263 -0.000261175 0.07229601 0.005997554 -0.38841903
0.013474684 -0.4277681 0.13837166 -0.42310232 -0.084634624 -0.8462742 -0.51157784 0.12829317
-0.26066378 -0.20575291 0.39287966 -0.41289294 0.31222633 0.21176869 0.3167371 0.3627765
-0.16290238 -0.27306244 -0.16149695 -0.35127535 -0.3837608 -0.14452931 -0.033185843 0.13111643
00000000: 1923 49be ba0a b43c 15cd 78bd be16 7ebe
00000010: 1c75 aa3d 294b 723e 3381 263b b55b 5a3e
00000020: f8d7 4f3e 3cfc b83d 90a9 18be 38c6 a3be
00000030: ec2a 773e 7148 46bd fdec 953e 30a6 bb3e
00000040: a2e6 46be 83f9 d9bc 9f35 17be 0b94 8a3c
00000050: 986b 37be b10c adbd 1eee 843e 7572 8c3e
00000060: 2a3d 493e fb82 a8be 0961 bbbe 989c bd3e
00000070: 2b67 e03c 10f2 083e f800 b6be 8279 ebbd
00000080: 2b69 54be 3347 f33d 3807 873d df8b dcbd
00000090: 7e21 663d 6c0f 7c3e 0976 ecbe dd07 5ebe
000000a0: d7f3 34bc 9f62 ebbe da6d 50be cad7 213f
000000b0: 63d9 d9bd da0a 8e3d 3b91 153d a0ee 4c3d
000000c0: 6775 da3d 82b5 dbbe eced fbbc d598 d33d
000000d0: e718 91bd 0f81 96be c024 643e 1527 fc3c
000000e0: 691e bcbd f365 c13c 96c0 823e fb56 103e
000000f0: 5749 2cbe df57 73be 9fb9 73bd 21cf 31bc
00000100: bad1 b9be 8891 023e c7fa 723e 4671 483c
00000110: a5e6 b5bf 06dc ef3c 46ba a53d 0018 17bf
00000120: 550b b5bc aaca c1bd 7f0c 9ebc 11fa 11be
00000130: cc85 503d 79c3 343e 8f78 5dbd 34fc 1e3e
00000140: dd8b 6fbd 64f6 a13d 93cf 393d f74f c0bd
00000150: e187 4b3b db46 9f3d 7ce1 5cbe 645b 16bf
00000160: 31ba c6bc 4691 203d ff98 803e 34d1 b03e
00000170: 4010 59bd ed83 df3d 4de0 2f3d ffd0 e73d
00000180: 9eb3 f6be 9f0a 8bbe 87d8 81bc 9c38 e13d
00000190: aa02 6c3e 580b 243e 65c2 85bc 7cd6 aabe
000001a0: e4bb d7be 5ec4 9f3d 63ba 41bc 9af4 02bf
000001b0: cc6b 5c3e a571 973d 69c0 0cbd 0f19 133e
000001c0: 7b17 e83e e780 0a3e 4373 bdbe d48a c7bc
000001d0: eefc 833e 9d2d 37be 26e5 e53c 5738 c83c
000001e0: acc9 bb3d 4c7b 52be 745a 61be 0f17 aebc
000001f0: effd 1b3e 3c7b d73d 1ebe 23be 6302 873d
00000200: 9d09 3ebe c543 2fbd ee46 b3be 69dd f63d
00000210: 49e6 a4bc dd2d 8e3e 9eda f93c af2d 123d
00000220: c735 fc3d b051 c13d 89be db3d 5104 88bd
00000230: bddc 25be 9e18 d2be 972d cabd f7b4 57be
00000240: f995 eebd 6fa5 823d db4c ca3e b96e 8dbe
00000250: 4546 8f3c dcb1 babd b5ee fcbd 27c2 92be
00000260: 7ce3 49be cadc 9d3e b498 703d de1f 203e
00000270: 92ec 693e d5b4 1ebe c1d3 ab3c a046 383e
00000280: 02b6 013e 438b d83a ae27 cfbd 3d4f 533d
00000290: 616d b3bd ca65 10bf 1c8a 3a3e a85c d83e
000002a0: 4a07 f1bd a046 0ebf 5564 8f3c e314 24be
000002b0: 204c 95be b213 913d e6c1 81bd 5ca1 e03d
000002c0: 0a38 ffbd 590e 153e 4965 803e bffb 91be
000002d0: f8f2 2e3e 1832 cdbd e8d3 3dbd e2ae 523b
000002e0: 8e27 e0be 33dc a8bd 0e17 cebe cf5f 0f3d
000002f0: 08a8 8e3e f272 97be 9b41 41bd f877 a2be
00000300: 7328 babe fc06 5b3e 4f90 ccbe 2f40 1ebd
00000310: eab3 b2bd e0ce 21bd 8194 89be b785 b63b
00000320: 0a38 693d ac27 b03e 2138 993e b3f5 64be
00000330: 7d5c 4abe b726 133d 4783 54bd fbb4 39bd
00000340: ab03 b03c 485d 2d3d c89a 02be 0b6b 0bbf
00000350: 119e d13d 3cfb 05be 4bf8 903d a824 04be
00000360: 77b5 f5be c395 103e dab0 923c 067d aabd
00000370: 56cb 81be bccf 83bb 75ea 833d ebc4 17bf
00000380: 3874 df3e ee1f fc3d f3ff 1f3e b894 2d3e
00000390: 51ee 88b9 ee0f 943d 2187 c43b dcde c6be
000003a0: ecc4 5c3c 6c04 dbbe 4db1 0d3e dea0 d8be
000003b0: eb54 adbd 6da5 58bf c4f6 02bf 495f 033e
000003c0: b975 85be e4b0 52be 8627 c93e b466 d3be
000003d0: 21dc 9f3e e4d9 583e 5d2b a23e d7bd b93e
000003e0: e2cf 26be d7ce 8bbe 755f 25be 5dda b3be
000003f0: 4c7c c4be 7eff 13be e1ed 07bd 6343 063e

policy_net.2.bias f4 [128]
0.06538521 -0.038865827 0.15836692 0.013035004 0.012567348 0.096025735 -0.03318839 -0.057081234
0.044132587 0.118687905 -0.18574347 0.025295638 -0.05966719 -0.11870633 0.066415645 0.030380098
0.03275724 -0.15722153 0.089666575 0.14806752 -0.20904376 0.021669004 -0.10903652 -0.10091467
0.0036569927 -0.046442356 0.017164435 0.020163944 0.0316302 -0.027723351 -0.039579462 -0.056438968
0.01916637 0.005618124 -0.16406728 -0.16957127 -0.11091468 0.17165825 0.23184969 0.088160455
-0.13049595 -0.22254737 0.04597243 0.049975667 -0.15719004 -0.051231276 0.02216373 0.02632856
0.13061333 -0.2178541 -0.20832229 0.16193984 -0.022747774 0.13949612 0.03248532 -0.016760366
0.06988766 -0.003053193 0.031650383 -0.0035732698 -0.09396054 -0.09285955 0.103722855 -0.15064579
-0.11494866 -0.074336275 -0.06458205 -0.10727032 0.05885217 0.01842679 -0.17495808 -0.14974606
0.10898752 -0.011390488 0.13671967 0.14392921 -0.039843425 -0.07414999 0.09576206 0.020616569
0.009239922 0.01769482 -0.007993517 0.03850721 0.016252996 -0.025843369 0.02885098 0.0068990393
0.14024025 0.14814821 0.048003834 -0.045416735 -0.13818438 0.010219795 -0.03311432 -0.041607656
-0.11826919 -0.12646456 -0.12871052 -0.27551526 0.06391171 -0.058537208 0.01934174 0.048550766
-0.01479426 -0.13364972 0.02071334 0.03251455 -0.17006607 0.056998644 -0.109358065 -0.034196474
-0.0397675 0.09437461 0.052103497 -0.0392208 -0.06192935 0.119972065 -0.17931618 -0.080984846
0.0047816625 0.00975607 -0.12376237 0.26205522 -0.074316695 0.045795295 0.13805118 0.0005433736
00000000: aee8 853d c631 1fbd f02a 223e c590 553c
00000010: 47e7 4d3c 24a9 c43d 8df0 07bd 03ce 69bd
00000020: 5fc4 343d a512 f33d 8933 3ebe cc38 cf3c
00000030: 9565 74bd 4e1c f3bd ed04 883d afdf f83c
00000040: 752c 063d aefe 20be 1ca3 b73d 039f 173e
00000050: 910f 56be 3283 b13c 8a4e dfbd 5aac cebd
00000060: 28aa 6f3b 573a 3ebd 6e9c 8c3c db2e a53c
00000070: ab8e 013d 151c e3bc 131e 22bd 8c2c 67bd
00000080: cb02 9d3c 3d18 b83b 4101 28be 17a4 2dbe
00000090: 3c27 e3bd 2ec7 2f3e 016a 6d3e 788d b43d
000000a0: bba0 05be 75e3 63be 964d 3c3d 49b3 4c3d
000000b0: 6df6 20be e3d7 51bd b690 b53c feae d73c
000000c0: 80bf 053e 2515 5fbe 7052 55be 8fd3 253e
000000d0: 8a59 babc 12d8 0e3e 540f 053d 094d 89bc
000000e0: 4321 8f3d 1418 48bb d5a3 013d 852d 6abb
000000f0: 626e c0bd 262d bebd a66c d43d e442 1abe
00000100: 346a ebbd 9e3d 98bd 9843 84bd 8bb0 dbbd
00000110: f90e 713d c8f3 963c 3628 33be 0857 19be
00000120: d934 df3d 2b9f 3abc 3e00 0c3e 2e62 133e
00000130: dc32 23bd f3db 97bd e61e c43d 14e4 a83c
00000140: 0b63 173c baf4 903c 3ef7 02bc bcb9 1d3d
00000150: 0125 853c 79b5 d3bc e458 ec3c 5611 e23b
00000160: 249b 0f3e 2ab4 173e ab9f 443d e606 3abd
00000170: 3580 0dbe ed70 273c e2a2 07bd ca6c 2abd
00000180: 1e37 f2bd ed7f 01be b1cc 03be 5610 8dbe
00000190: 25e4 823d b6c4 6fbd 9272 9e3c 2bdd 463d
000001a0: a063 72bc 79db 08be 06af a93c fa2d 053d
000001b0: cd25 2ebe 6977 693d 1ff7 dfbd 9a11 0cbd
000001c0: 3fe3 22bd 7a47 c13d 7a6a 553d fda5 20bd
000001d0: a1a9 7dbd eab3 f53d a99e 37be 62db a5bd
000001e0: 7eaf 9c3b ecd7 1f3c 2077 fdbd 1a2c 863e
000001f0: 5a33 98bd d993 3b3d 4a5d 0d3e 2f71 0e3a

policy_net.4.weight f4 [128, 128]
-0.09062511 0.23296255 0.14035037 -0.028155973 0.025683947 0.1994272 0.07712772 0.22519255
-0.55522126 -9.3984934e-05 -0.0014247571 0.04425216 0.0458164 -0.09002031 0.3992855 -0.40358448
-0.18939185 0.18480346 0.09993636 -0.3907765 0.3527522 -0.05475691 0.30191258 -0.22135974
0.09714274 -0.21909146 -0.50552946 0.2697179 0.010745985 -0.12022938 -0.38219374 -0.25963795
0.2114771 0.102392875 0.21632554 -0.6640188 0.004286168 -0.16325952 -0.14091197 -0.099474326
0.18410742 -0.0013090413 0.20213012 0.100181095 -0.15039377 -1.0002824 -0.39303613 -0.45748064
0.20826985 0.44230703 0.090337 0.20220615 0.2912153 -0.22419886 -0.2718621 -0.10330119
-0.083576545 -0.31195396 -0.1309616 0.05214574 0.38261977 0.26896107 -0.56290126 -0.10407778
-0.13291398 -0.039798398 -0.25775498 0.08933642 -0.15846114 -0.36059985 -0.20741463 -0.22243801
-0.15153053 -0.061293468 -0.11040806 -0.13205445 -0.21137346 -0.06940011 0.25190222 -0.038659506
0.24339288 0.18076286 0.05403077 0.1127035 -0.18468031 0.30038288 -0.03573834 0.16422762
0.08912528 -0.09902672 0.081170276 -0.17162561 -0.09114883 0.06387303 -0.23500045 0.40888444
-0.15513922 0.24030057 -0.37998217 -0.021600572 0.07524149 -0.011531281 -0.19487076 0.3296666
-0.15386944 -0.044548295 0.26642567 0.10625635 0.108698376 -0.44929442 -0.03552445 -0.14031087
-0.20707816 0.15192936 -0.23095772 -0.19951975 0.057307146 -0.3078374 0.13804273 -0.102851935
0.17430203 -0.06916226 -0.528597 -0.3976518 -0.0172698 0.4187191 0.13703305 0.035714068
0.1111706 -0.015942296 -0.48087323 -0.33985907 -0.17943953 -0.090028405 0.06822989 0.10286596
-0.3579369 -0.3292724 -0.035586245 0.21021183 -0.5011999 -0.09294278 0.15388277 0.221388
-0.4521428 0.11673497 -0.24549302 0.036951344 -0.046595488 -0.3269753 -0.0340913 -0.12596302
-0.23072663 0.054017387 -0.0802972 -0.4259759 -0.04356028 0.060632836 -0.10595252 0.13437083
0.104261346 0.015673544 -0.063982524 -0.7920756 -0.30821753 -0.08600939 -0.029255362 0.35856637
0.16512547 -0.2637705 -0.14759955 -0.05518712 -0.27169305 -0.3190591 -0.044473324 -0.18467551
-0.24316563 0.06309641 0.3473527 -0.6498562 -0.213617 0.18323852 -0.07737639 0.41682553
0.098671645 0.024511216 0.007721079 -0.0065596155 -0.4912416 -0.19946119 -0.058102015 -0.27299273
-0.39031026 0.019000724 0.04352033 0.072764516 -0.25191376 -0.1334336 -0.6284847 0.05554008
-0.34457096 -0.040500324 -0.12814534 0.2843609 0.16823375 -0.15747797 -0.14256427 0.2724105
-0.1066643 -0.33736303 -0.035187263 0.20328116 -0.34374264 0.082297035 -0.18805346 0.27226022
-0.3800793 -0.10512655 -0.07009108 0.13817966 0.3029368 -0.19722547 0.060509905 -0.44303426
-0.22011317 -0.27271786 0.5068321 -0.05389194 -0.3396279 -0.025022993 0.13691378 0.0045717373
0.050349813 0.09163722 0.090770334 -0.28616628 0.093450345 0.12424315 -0.378938 -0.033588022
-0.04544401 -0.28700477 0.3275179 0.36463863 -0.20762911 -0.090818316 -0.007199643 -0.08988239
-0.064761415 0.046686675 0.12951723 -0.2239121 -0.09671322 -0.17131166 -0.21230836 0.1540758
00000000: a899 b9bd bc8d 6e3e 02b8 0f3e 5ba7 e6bc
00000010: 2467 d23c a536 4c3e 23f5 9d3d e098 663e
00000020: fb22 0ebf c719 c5b8 eabe baba c141 353d
00000030: faa9 3b3d 915c b8bd 266f cc3e a0a2 cebe
00000040: f0ef 41be 1e3d 3d3e 6fab cc3d db13 c8be
00000050: f09b b43e c848 60bd 4994 9a3e 21ac 62be
00000060: c6f2 c63d 8359 60be 616a 01bf 7718 8a3e
00000070: ee0f 303c d23a f6bd e6ae c3be 44ef 84be
00000080: 748d 583e 5bb3 d13d 7184 5d3e 23fd 29bf
00000090: fc72 8c3b 812d 27be 3a4b 10be 32b9 cbbd
000000a0: a886 3c3e 2394 abba 33fb 4e3e bf2b cd3d
000000b0: d300 1abe 4109 80bf 083c c9be e73a eabe
000000c0: b144 553e 1176 e23e 9b02 b93d 210f 4f3e
000000d0: 2c1a 953e 6394 65be 8231 8bbe 938f d3bd
000000e0: 2e2a abbd 6eb8 9fbe cc1a 06be c596 553d
000000f0: bde6 c33e 44b5 893e 4c1a 10bf bb26 d5bd
00000100: 9a1a 08be a503 23bd 76f8 83be 03f6 b63d
00000110: a343 22be 8ba0 b8be 8064 54be cac6 63be
00000120: d22a 1bbe dc0e 7bbd 9f1d e2bd 4839 07be
00000130: 4972 58be a521 8ebd 54f9 803e 6e59 1ebd
00000140: fc3b 793e e619 393e 5e4f 5d3d 18d1 e63d
00000150: d61c 3dbe c9cb 993e 5e62 12bd 492b 283e
00000160: 5187 b63d 85ce cabd 9a3c a63d a0be 2fbe
00000170: 3dac babd ddcf 823d f5a3 70be 4d59 d13e
00000180: d1dc 1ebe 5a11 763e 068d c2be aff3 b0bc
00000190: 3618 9a3d b3ed 3cbc 338c 47be 10ca a83e
000001a0: f38f 1dbe 4678 36bd f268 883e ee9c d93d
000001b0: 419d de3d eb09 e6be 1682 11bd a7ad 0fbe
000001c0: 4c0c 54be 5f93 1b3e 2e80 6cbe e84e 4cbe
000001d0: e6ba 6a3d dd9c 9dbe 135b 0d3e 09a4 d2bd
000001e0: 3b7c 323e f1a4 8dbd 2252 07bf 0499 cbbe
000001f0: 6579 8dbc 5a62 d63e 6452 0c3e ea48 123d
00000200: 69ad e33d 6b99 82bc 0435 f6be 0202 aebe
00000210: ffbe 37be d060 b8bd 1dbc 8b3d 63ab d23d
00000220: 8143 b7be 6496 a8be e2c2 11bd c541 573e
00000230: a34e 00bf c958 bebd 7293 1d3e 89b3 623e
00000240: 437f e7be be12 ef3d 8662 7bbe 4b5a 173d
00000250: e9da 3ebd 4e69 a7be 52a3 0bbd 73fc 00be
00000260: 9a43 6cbe 5641 5d3d dc72 a4bd 8319 dabe
00000270: 446c 32bd 235a 783d a3fd d8bd 8298 093e
00000280: f986 d53d ce65 803c 4509 83bd 77c5 4abf
00000290: b0ce 9dbe b125 b0bd f1a8 efbc 0396 b73e
000002a0: a716 293e ed0c 87be 5624 17be e40b 62bd
000002b0: 5a1b 8bbe b75b a3be a929 36bd 941b 3dbe
000002c0: 6900 79be b138 813d 37d8 b13e fa5c 26bf
000002d0: 6abe 5abe e1a2 3b3e 8377 9ebd 286a d53e
000002e0: 5c14 ca3d bfcb c83c 1b01 fd3b 0bf2 d6bb
000002f0: 0584 fbbe 8e3f 4cbe 61fc 6dbd b4c5 8bbe
00000300: bfd6 c7be 68a7 9b3c 6042 323d 9005 953d
00000310: d7fa 80be d1a2 08be 60e4 20bf ff7d 633d
00000320: 9b6b b0be abe3 25bd 8838 03be c097 913e
00000330: 7845 2c3e e841 21be 5efc 11be 6479 8b3e
00000340: d072 dabd d9ba acbe 8520 10bd f028 503e
00000350: 09ff afbe 598b a83d 1691 40be b165 8b3e
00000360: c199 c2be 974c d7bd ea8b 8fbd f87e 0d3e
00000370: 881a 9b3e 79f5 49be 3cd9 773d 63d5 e2be
00000380: 5965 61be ada1 8bbe c0bf 013f cbbd 5cbd
00000390: b5e3 adbe 05fd ccbc 2033 0c3e 83ce 953b
000003a0: 9b3b 4e3d 4bac bb3d cce5 b93d 6384 92be
000003b0: e562 bf3d 3173 fe3d 2904 c2be 9893 09bd
000003c0: 8023 3abd 4af2 92be 6db0 a73e eab1 ba3e
000003d0: ba9c 54be f4fe b9bd fcea ebbb 4214 b8bd
000003e0: a2a1 84bd 873a 3f3d 2aa0 043e 3749 65be
000003f0: 9511 c6bd 536c 2fbe 5d67 59be 0cc6 1d3e

policy_net.4.bias f4 [128]
-0.08655498 -0.097725816 0.060384475 -0.06810348 -0.07459893 0.02542412 -0.02336584 -0.09583624
-0.085937314 -0.09987789 0.107572384 0.0048710504 0.04876829 -0.14472269 0.011344633 0.11065865
-0.0072001014 -0.024654495 -0.08880235 -0.039217576 -0.064170025 -0.014285045 -0.14772806 -0.17969663
-0.090229034 0.122575566 -0.045258272 -0.0480538 -0.011940925 0.06871958 0.08227544 -0.08282444
0.12754035 0.14999579 0.037202075 0.023423798 0.083151855 0.13153306 -0.19416398 0.02112126
0.0040279212 -0.075705126 0.07774694 0.092452414 -0.097088546 0.071382605 0.1308299 0.003979053
-0.044660356 -0.13715716 -0.078668036 0.10506604 -0.21260212 0.049730044 0.05585402 -0.16358067
-0.045333177 0.07569894 0.03452401 0.022264972 -0.12046903 0.027157303 -0.28512704 0.06491493
-0.003789283 0.066495135 -0.19341734 0.1109801 -0.13502532 -0.13796405 -0.036248777 -0.19188936
0.17531659 -0.005500681 0.14073934 -0.07484941 -0.1940578 0.16934533 0.15866643 0.065559395
-0.397621 -0.08630493 0.28348866 -0.16784583 -0.06045802 -0.027881555 -0.038317487 0.1424985
-0.20421477 0.038714632 -0.03175668 -0.18982026 -0.102690354 -0.015798187 -0.2281467 0.09861947
-0.19626904 0.09022257 -0.120459124 0.081793435 0.17515785 0.12234506 0.11987693 -0.0385635
-0.19778317 0.023103857 0.004706769 -0.23856348 -0.036119428 0.055490844 -0.11142525 0.020743333
-0.046169244 0.11676424 0.08510878 0.13340944 0.0075338855 0.09519455 -0.06272137 0.16771023
-0.15230635 0.09428145 0.0015477637 0.06143327 -0.18812838 -0.015697086 0.027689248 -0.016193517
00000000: bd43 b1bd 7924 c8bd b655 773d d679 8bbd
00000010: 53c7 98bd 3e46 d03c b869 bfbc ca45 c4bd
00000020: e7ff afbd c78c ccbd e94e dc3d 559d 9f3b
00000030: 42c1 473d 2f32 14be d7de 393c 01a1 e23d
00000040: d4ee ebbb 39f8 c9bc 02de b5bd 9ca2 20bd
00000050: 936b 83bd d20b 6abc 0646 17be 6502 38be
00000060: 00ca b8bd e608 fb3d bd60 39bd 10d4 44bd
00000070: dfa3 43bc dabc 8c3d 0780 a83d dc9f a9bd
00000080: f099 023e 7f98 193e 3461 183d 44e3 bf3c
00000090: 854b aa3d 9ab0 063e ecd2 46be 7e06 ad3c
000000a0: a7fc 833b 4a0b 9bbd ca39 9f3d b157 bd3d
000000b0: 5cd6 c6bd 0b31 923d 46f8 053e b762 823b
000000c0: c7ed 36bd ed72 0cbe b51c a1bd dd2c d73d
000000d0: 5fb4 59be bbb1 4b3d 2fc7 643d b181 27be
000000e0: 48af 39bd 0c08 9b3d 0c69 0d3d 0865 b63c
000000f0: 78b8 f6bd fe78 de3c 2cfc 91be 1ef2 843d
00000100: 9f55 78bb 9a2e 883d 320f 46be 8949 e33d
00000110: 1444 0abe 7346 0dbe 9979 14bd a57e 44be
00000120: 3186 333e 0f3f b4bb f91d 103e a64a 99bd
00000130: 17b7 46be dd68 2d3e 7479 223e 0144 863d
00000140: fb94 cbbe a4c0 b0bd 6d25 913e c7df 2bbe
00000150: d4a2 77bd dc67 e4bc ccf2 1cbd 20eb 113e
00000160: ad1d 51be 3c93 1e3d 4b13 02bd 3e60 42be
00000170: 524f d2bd 336b 81bc 4a9f 69be 01f9 c93d
00000180: c0fa 48be 9cc6 b83d 46b3 f6bd 5183 a73d
00000190: 945c 333e 0c90 fa3d 0982 f53d c3f4 1dbd
000001a0: ac87 4abe 4d44 bd3c 3d3b 9a3b fc49 74be
000001b0: f7f1 13bd 5e4a 633d ec32 e4bd eced a93c
000001c0: f61b 3dbd 1722 ef3d 834d ae3d 7c9c 083e
000001d0: d0de f63b 5cf5 c23d 1074 80bd 3bbc 2b3e
000001e0: 32f6 1bbe a216 c13d 55de ca3a 74a1 7b3d
000001f0: baa4 40be 2d97 80bc 90d4 e23c 44a8 84bc

policy_net.6.weight f4 [64, 128]
-0.17288859 0.2771465 0.29866993 -0.450291 -0.24584438 -0.10298457 -0.1381844 0.1352762
0.25718448 -0.047982384 -0.23820382 -0.0882061 -0.09181235 -0.29238802 -0.3505291 0.06088799
0.19538867 0.050926827 -0.24464874 0.034619883 0.13351816 0.027493015 0.12383955 0.11891859
-0.27142212 0.20032232 -0.22753476 0.29685414 0.15362683 -0.0011441588 -0.37365276 -0.111583546
-0.02579146 -0.14681575 -0.22293635 -0.022143517 0.13169205 -0.7672472 0.016951365 0.2841224
0.1573012 -0.28600335 0.16463101 -0.03531755 -0.37609905 0.2913394 -0.044469103 -0.04891334
0.04600664 0.13160883 -0.4221923 0.1422416 0.18068318 -0.011164781 -0.013679414 0.14753121
-0.0115620205 -0.020552963 0.3761918 -0.0734069 0.16838022 0.3162776 -0.3768317 -0.087840505
-0.27009547 -0.044953436 -0.095401414 0.002158637 -0.187547 -0.31910157 -0.017455198 -0.27576685
0.14773043 -0.18340106 -0.5227326 0.082966596 -0.14797053 -0.33937263 -0.41334718 -0.28157339
0.2012967 0.07825586 0.1418283 -0.31315678 -0.38132894 -0.27882758 0.3099581 -0.454621
0.12736931 -0.046138395 -0.05884553 -0.25580794 0.12520194 0.07474836 0.13123745 -0.7238736
-0.11691263 0.034227617 -0.26722768 0.05532596 -0.62107706 0.16287664 -0.04824064 -0.041609004
-0.26397744 -0.11440904 0.010263132 -0.029125804 0.22116128 0.12712125 -0.016742077 -0.27421093
-0.092410274 -0.05464478 -0.018146284 -0.66781706 0.32180113 -0.6227329 -0.61687046 -0.09575523
-0.03657038 0.30108318 -0.0036849717 0.13496391 -0.054768156 -0.1763396 -0.21761164 -0.12464121
-0.0286756 -0.052856803 -0.10610438 -0.12152497 -0.29768133 0.2820887 -0.0046530156 -0.0484819
-0.1420879 0.03801512 0.08829987 0.123746134 -0.12979105 -0.15532796 0.13940409 0.21651353
0.009554437 -0.026149096 0.053328235 0.05672162 -0.15364645 0.20806316 0.18662055 -0.35806498
-0.88946074 -0.026959522 -0.6711047 -0.5426183 0.01261656 0.09295887 -0.06923891 -0.4347043
-0.016540091 -0.027713174 0.034101006 -0.0644192 -0.08037582 0.098845094 -0.0021650232 -0.02181109
-0.11494267 0.18271698 0.13168703 -0.74136484 -0.22335549 0.10957558 -0.16843113 0.02774489
-0.076639 0.20341147 -0.12195259 0.24282974 -0.0659825 0.040224735 0.10938015 -0.065148465
-0.3462472 0.112226546 -0.06897383 -0.004736439 0.022576468 -0.019836525 -0.08192513 0.07361673
-0.077730924 -0.20152165 0.23772962 -0.01056557 -0.76844823 0.031253304 0.073617384 0.23868828
0.12612155 -0.4756307 -0.05533399 -0.23415582 0.14368077 0.11225444 -0.5665567 -0.062009983
-0.043848526 -0.17276327 -0.0401617 -0.011034126 -0.5215824 0.12115934 0.17237012 -0.44867343
0.049954023 -0.008349265 -0.11044902 -0.17769533 -0.072211936 0.2362588 0.05506974 -0.17649822
0.05789028 -0.31687754 0.14103241 -0.238732 0.058160342 0.3265878 -0.32393956 0.089434154
-0.16529085 0.059211656 0.028078996 -0.020913102 -0.3456783 0.3643251 0.07534077 0.2967841
-0.8365256 0.068097234 -0.12483785 -0.36385342 0.010369888 -0.096385196 -0.17635326 -0.28941435
0.16831335 -0.17022233 0.101089664 -0.13633837 0.115875006 0.05523604 -0.3184857 0.18701324
00000000: b509 31be 25e6 8d3e 44eb 983e 8b8c e6be
00000010: a1be 7bbe 93e9 d2bd 3680 0dbe d885 0a3e
00000020: afad 833e 2d89 44bd b4eb 73be 66a5 b4bd
00000030: 1d08 bcbd e2b3 95be 8d78 b3be af65 793d
00000040: f813 483e a698 503d 3385 7abe 94cd 0d3d
00000050: fcb8 083e 0839 e13c 979f fd3d 978b f33d
00000060: d7f7 8abe 4b21 4d3e dffe 68be 44fd 973e
00000070: 5a50 1d3e 99f7 95ba 6a4f bfbe ea85 e4bd
00000080: 9d48 d3bc de56 16be 6d49 64be 5266 b5bc
00000090: 48da 063e 506a 44bf 97dd 8a3c 7e78 913e
000000a0: 9113 213e 086f 92be 0895 283e 23a9 10bd
000000b0: 0e90 c0be 702a 953e 3c25 36bd 5b59 48bd
000000c0: 7571 3c3d 77c4 063e 9729 d8be c8a7 113e
000000d0: 0305 393e 7cec 36bc 9f1f 60bc 6c12 173e
000000e0: a16e 3dbc b05e a8bc 369c c03e 5b56 96bd
000000f0: dd6b 2c3e 23ef a13e 16f0 c0be b9e5 b3bd
00000100: f449 8abe 1821 38bd d161 c3bd eb77 0d3b
00000110: 520c 40be 4861 a3be 34fe 8ebc 5031 8dbe
00000120: a546 173e 7dcd 3bbe ced1 05bf 64ea a93d
00000130: 9685 17be 40c2 adbe 3ea2 d3be 632a 90be
00000140: b920 4e3e 9c44 a03d 703b 113e 1656 a0be
00000150: 8c3d c3be 7dc2 8ebe d4b2 9e3e 15c4 e8be
00000160: 1a6d 023e 9dfb 3cbd 0308 71bd 42f9 82be
00000170: f034 003e ab15 993d 1c63 063e c84f 39bf
00000180: e46f efbd 4232 0c3d 11d2 88be 799d 623d
00000190: e8fe 1ebf 22c9 263e fa97 45bd 346e 2abd
000001a0: 0d28 87be 494f eabd b226 283c 3d99 eebc
000001b0: 1a78 623e 132c 023e ae26 89bc 6065 8cbe
000001c0: 9941 bdbd 34d3 5fbd 84a7 94bc 0ff6 2abf
000001d0: 1ec3 a43e 6c6b 1fbf 39eb 1dbf 511b c4bd
000001e0: d3ca 15bd 9327 9a3e 917f 71bb fb33 0a3e
000001f0: 9354 60bd 5e92 34be 96d5 5ebe e443 ffbd
00000200: 18e9 eabc 6080 58bd 414d d9bd 15e2 f8bd
00000210: b069 98be ee6d 903e 5378 98bb f594 46bd
00000220: 7e7f 11be beb5 1b3d 90d6 b43d 9d6e fd3d
00000230: f2e7 04be 4b0e 1fbe f2bf 0e3e b9b5 5d3e
00000240: 378a 1c3c a136 d6bc b56e 5a3d ee54 683d
00000250: 7f55 1dbe 820e 553e 7519 3f3e 4b54 b7be
00000260: b3b3 63bf 37da dcbc 85cd 2bbf 08e9 0abf
00000270: b0b5 4e3c 3861 be3d 21cd 8dbd 9091 debe
00000280: 167f 87bc bd06 e3bc 7fad 0b3d 37ee 83bd
00000290: 149c a4bd 4c6f ca3d 10e3 0dbb 2cad b2bc
000002a0: 1067 ebbd 291a 3b3e f7d8 063e 16ca 3dbf
000002b0: 4db7 64be 2969 e03d 3679 2cbe 4049 e33c
000002c0: e8f4 9cbd 194b 503e 48c2 f9bd 5ca8 783e
000002d0: d521 87bd b1c2 243d b302 e03d 8f6c 85bd
000002e0: 5047 b1be 08d7 e53d 2742 8dbd 2134 9bbb
000002f0: 49f2 b83c 3580 a2bc 5dc8 a7bd 5ec4 963d
00000300: 6431 9fbd b15b 4ebe 656f 733e 361b 2dbc
00000310: 06b9 44bf 7703 003d b6c4 963d b36a 743e
00000320: 0226 013e de85 f3be e5a5 62bd 8bc6 6fbe
00000330: 0d21 133e a8e5 e53d dc09 11bf 2efe 7dbd
00000340: 839a 33bd dbe8 30be 9880 24bd 7bc8 34bc
00000350: 6d86 05bf 6322 f83d cb81 303e 86b8 e5be
00000360: 979c 4c3d 5bcb 08bc 1933 e2bd c4f5 35be
00000370: dae3 93bd d4ed 713e cf90 613d f3bb 34be
00000380: 5c1e 6d3d c63d a2be cd6a 103e 2976 74be
00000390: 8a39 6e3d 8436 a73e 68db a5be 4129 b73d
000003a0: 0142 29be ec87 723d ec05 e63c f451 abbc
000003b0: bffc b0be d288 ba3e 434c 9a3d 16f4 973e
000003c0: 8b26 56bf 9076 8b3d fdaa ffbd ff4a babe
000003d0: 76e6 293c 9a65 c5bd f395 34be 1e2e 94be
000003e0: 565a 2c3e c34e 2ebe 1908 cf3d 499c 0bbe
000003f0: e04f ed3d 303f 623d 8f10 a3be 6680 3f3e

policy_net.6.bias f4 [64]
0.028728344 0.21725793 -0.19923803 -0.09181149 -0.32279482 0.16896683 -0.06825195 -0.02448992
-0.071392894 0.14880827 0.321187 -0.044546697 0.2648765 0.07669785 0.30780986 0.184926
-0.07027838 -0.030627994 0.086707674 0.048655637 -0.0015429369 0.22502808 -0.02360692 0.06321995
0.11593184 0.18590312 0.25953498 0.02733568 0.23352642 0.12380453 0.16038461 0.12851247
-0.1287394 0.274801 0.03650869 0.08006408 0.11677264 0.054113958 0.18624271 -0.2935577
0.15392072 -0.05190138 0.055704426 -0.15607469 0.25657696 0.34477907 -0.048392564 0.104692385
-0.049113717 -0.1582133 -0.23511568 0.25918567 -0.17859119 0.011834934 0.03175056 -0.0731727
0.39189348 0.07475499 0.12797047 -0.15034588 0.100193895 0.18420804 -0.019806366 0.1380801
00000000: b457 eb3c dd78 5e3e 0e05 4cbe aa07 bcbd
00000010: 5d45 a5be a405 2d3e aec7 8bbd 169f c8bc
00000020: 7036 92bd 3261 183e 9f72 a43e 9976 36bd
00000030: e59d 873e c313 9d3d 4199 9d3e 3e5d 3d3e
00000040: 1cee 8fbd 8fe7 fabc cb93 b13d 224b 473d
00000050: 5f3c caba c36d 663e 4d63 c1bc 7679 813d
00000060: ac6d ed3d 635d 3e3e c5e1 843e 13ef df3c
00000070: 8d21 6f3e 3b8d fd3d dd3b 243e c698 033e
00000080: 43d4 03be b7b2 8c3e 238a 153d a3f8 a33d
00000090: 7e26 ef3d 99a6 5d3d 69b6 3e3e 324d 96be
000000a0: 659d 1d3e 8b96 54bd 532a 643d 0bd2 1fbe
000000b0: 0e5e 833e e286 b03e 4837 46bd f668 d63d
000000c0: 772b 49bd ab02 22be 2ac2 70be fcb3 843e
000000d0: 9ce0 36be 50e7 413c e00c 023d 92db 95bd
000000e0: 43a6 c83e 2519 993d b10a 033e 45f4 19be
000000f0: 7532 cd3d 08a1 3c3e f640 a2bc df64 0d3e

policy_net.8.weight f4 [4, 64]
-0.14385065 0.025557434 -0.39851764 0.14969221 0.20519306 0.18070364 0.021881843 -0.093966976
-0.17682962 0.06372772 0.005410237 0.19045137 -0.08513552 0.28042644 0.026495747 0.16286135
-0.017364271 -0.0070799263 -0.09824348 0.15659423 0.1303984 0.16163379 0.0010831981 0.09298516
-0.17257033 -0.1323645 0.06132971 0.15860575 -0.053427547 -0.116637416 -0.07057499 -0.0097468095
-0.027900083 0.05158502 -0.03431637 -0.150468 0.085507065 0.075623594 -0.0132186 0.02262981
0.0877998 -0.21683939 0.053607114 -0.02599764 -0.033606727 -0.06250502 0.1268322 0.02958348
-0.00016616561 0.10725277 -0.11386773 0.041448034 0.14513655 -0.007147455 -0.07241222 -0.17110354
-0.17516702 0.10924347 0.077794015 0.031249143 0.1256886 -0.071726926 -0.027683586 -0.028985662
0.054292656 0.0018102904 0.2740762 -0.026731841 0.24854328 0.16342773 -0.07700317 -0.10869444
0.270319 0.069385536 -0.0054005757 -0.039409027 0.06526994 0.14534019 0.021022113 -0.21310674
0.01792481 -0.11873556 -0.12307968 -0.0652542 0.22654209 0.050078932 -0.0726234 0.07828397
-0.05139668 -0.063068435 0.01798167 0.08010788 -0.06383594 -0.21561502 -0.15371963 0.06634211
0.09623002 0.15547024 -0.12696378 0.058530986 -0.07494199 0.13269497 0.07593947 0.16656423
0.13331167 -0.061680272 0.186096 0.00095545955 -0.13767792 -0.032826133 -0.05660989 0.031817902
0.0038471424 -0.14237428 -0.022764163 -0.06594785 0.21977237 0.12646505 -0.0443404 0.06604611
-0.15691237 -0.08400336 -0.10097271 -0.26171443 0.17853701 -0.0298166 0.1960227 0.07743054
0.027842749 0.022779686 -0.05365834 -0.040171247 -0.27005437 -0.10852052 -0.2590726 0.10895706
0.21017675 0.09989656 -0.1771046 -0.02257064 0.19728746 -0.033494025 -0.20190097 -0.012319712
-0.06807204 -0.08336006 0.006939245 -0.088573284 -0.33330613 -0.013863625 -0.084662236 -0.05396852
0.1748081 0.18779667 0.15839253 0.12356951 0.13630338 0.2594713 0.015086613 0.08267983
-0.15685096 -0.038307123 -0.04287263 -0.10918047 0.2414076 -0.04521923 0.056495544 -0.26815587
-0.3558523 0.033948917 0.048992723 0.20617697 0.18110691 0.270828 -0.31965646 0.075293265
0.18000689 -0.07008496 -0.026566638 0.039359596 0.27457753 0.0047291582 0.010441435 0.048009828
0.29773208 0.021895865 -0.01623491 0.029023817 -0.29945523 0.113968775 -0.081888914 0.17027223
-0.17132333 -0.16541517 -0.14812392 -0.049518097 0.031471647 -0.004498548 0.12325838 -0.00029442264
-0.09850813 0.17563109 -0.008775466 -0.06421018 0.052969225 0.019887356 0.1489242 -0.015935285
-0.15680829 0.115945615 0.006087166 0.051546395 -0.06675885 0.018437997 -0.07740509 0.004486955
-0.01835242 0.0079389755 -0.084054746 -0.029347582 -0.09882301 -0.09274315 0.013722889 0.023677982
0.12839182 0.0043609696 0.051660083 -0.03348793 0.10130344 -0.026930131 -0.071924634 0.097100906
0.18736209 0.026243657 -0.106131606 -0.12244709 -0.023789475 -0.057407323 0.030098664 -0.08206369
-0.019681862 -0.07291809 -0.10711472 -0.16872247 0.015608144 0.2462352 0.07177941 0.070300795
-0.13935445 0.029218284 0.023902407 -0.10285834 0.10642248 -0.1325503 -0.24758261 0.11337385
00000000: 964d 13be d35d d13c 810a ccbe ea48 193e
00000010: 211e 523e 600a 393e 8d41 b33c c271 c0bd
00000020: d312 35be ae83 823d 5b48 b13b af05 433e
00000030: 885b aebd 0e94 8f3e 9c0d d93c 20c5 263e
00000040: 843f 8ebc bafe e7bb e133 c9bd 3d5a 203e
00000050: 2887 053e 5483 253e 19fa 8d3a 016f be3d
00000060: 47b6 30be 8f8a 07be dd34 7b3d 8c69 223e
00000070: d8d6 5abd 99df eebd 9f89 90bd 15b1 1fbc
00000080: b78e e4bc d04a 533d 528f 0cbd 4914 1abe
00000090: 541e af3d 8be0 9a3d d492 58bc 2762 b93c
000000a0: 62d0 b33d 250b 5ebe 2293 5b3d 01f9 d4bc
000000b0: 35a7 09bd a202 80bd 4de0 013e 0e59 f23c
000000c0: be3c 2eb9 57a7 db3d 7c33 e9bd 6ac5 293d
000000d0: ad9e 143e 3335 eabb dc4c 94bd c435 2fbe
000000e0: fc5e 33be 0abb df3d 7852 9f3d 34fe ff3c
000000f0: 83b4 003e 91e5 92bd b0c8 e2bc 5773 edbc
00000100: fa61 5e3d 4447 ed3a b753 8c3e bcfc dabc
00000110: 2182 7e3e 9959 273e d7b3 9dbd 319b debd
00000120: 4167 8a3e 011a 8e3d 50f7 b0bb 5c6b 21bd
00000130: 3fac 853d 0fd4 143e 9136 ac3c a738 5abe
00000140: 0dd7 923c a12b f3bd 3311 fcbd fea3 85bd
00000150: a6fa 673e 911f 4d3d 94bb 94bd 5953 a03d
00000160: 5385 52bd 062a 81bd 4c4e 933c 9a0f a43d
00000170: 6bbc 82bd 2fca 5cbe ae68 1dbe 5fde 873d
00000180: 3f14 c53d 9733 1f3e cb02 02be 30be 6f3d
00000190: 307b 99bd 31e1 073e 2786 9b3d d08f 2a3e
000001a0: db82 083e 74a4 7cbd f38f 3e3e ce77 7a3a
000001b0: 71fb 0cbe b274 06bd c6df 67bd 7d53 023d
000001c0: 5720 7c3b 90ca 11be e97b babc ab0f 87bd
000001d0: 020c 613e 0e80 013e 479e 35bd 2f43 873d
000001e0: a3ad 20be f409 acbd c8ca cebd 6fff 85be
000001f0: 68d2 363e f141 f4bc 2dba 483e e793 9e3d
00000200: 7a16 e43c 779c ba3c d9c8 5bbd 9b8a 24bd
00000210: 9144 8abe 0240 debd 2aa5 84be e124 df3d
00000220: 9338 573e 9196 cc3d e95a 35be 10e6 b8bc
00000230: b905 4a3e 0831 09bd 21bf 4ebe 9ed8 49bc
00000240: 5b69 8bbd aeb8 aabd 9b62 e33b e965 b5bd
00000250: 1aa7 aabe 4224 63bc 6563 adbd 180e 5dbd
00000260: e500 333e c54d 403e a731 223e 0312 fd3d
00000270: 1d93 0b3e 6cd9 843e d72d 773c 0b54 a93d
00000280: 8a9d 20be eee7 1cbd 369b 2fbd 039a dfbd
00000290: 8e33 773e cd37 39bd df67 673d ba4b 89be
000002a0: 4632 b6be 050e 0b3d 98ac 483d 0e20 533e
000002b0: 1774 393e f8a9 8a3e 03aa a3be 5b33 9a3d
000002c0: ba53 383e b488 8fbd 47a2 d9bc 8737 213d
000002d0: 6d95 8c3e 0ef7 9a3b 8d12 2b3c f4a5 443d
000002e0: 5770 983e f55e b33c 13ff 84bc 5bc3 ed3c
000002f0: 3252 99be 7668 e93d 60b5 a7bd d85b 2e3e
00000300: 626f 2fbe 9862 29be ccad 17be 7dd3 4abd
00000310: 6ae8 003d 8e68 93bb e46e fc3d bd5c 9ab9
00000320: a1be c9bd a3d8 333e f9c6 0fbc a080 83bd
00000330: 42f6 583d cfea a23c 967f 183e b78a 82bc
00000340: 5a92 20be e574 ed3d d976 c73b 5022 533d
00000350: ddb8 88bd 480b 973c 8f86 9ebd 4e07 933b
00000360: d057 96bc 7a12 023c e524 acbd 576a f0bc
00000370: b863 cabd 1ff0 bdbd f8d5 603c 54f8 c13c
00000380: 2579 033e 77e6 8e3b 8699 533d a42a 09bd
00000390: 2e78 cf3d 949c dcbc 394d 93bd d7dc c63d
000003a0: d9db 3f3e f0fc d63c 875b d9bd 8ac5 fabd
000003b0: 25e2 c2bc f123 6bbd 7991 f63c 0211 a8bd
000003c0: db3b a1bc 1456 95bd f65e dbbd 95c5 2cbe
000003d0: 4db9 7f3c 1525 7c3e 1501 933d ddf9 8f3d
000003e0: efb2 0ebe 2f5b ef3c fbce c33c 65a7 d2bd
000003f0: 07f4 d93d 44bb 07be 4c86 7dbe 8d30 e83d

policy_net.8.bias f4 [4]
0.06932471 -0.0012315806 0.082449764 0.18631391
00000000: 1dfa 8d3d fd6c a1ba 6cdb a83d 13c9 3e3e

inverse_net.0.weight f4 [64, 48]
0.07020081 0.7110435 -0.35303575 0.29073453 -0.12620027 0.16408998 -0.19308265 0.2573261
0.07699041 0.28880954 -0.19741294 -0.18978839 -0.19079784 -0.039829414 -0.03164614 0.15575387
-0.085188806 -0.040599894 0.07859111 0.022634935 -0.025481824 -0.08720198 -0.06906906 -0.10353382
0.19389428 -0.25649676 -0.3191045 -1.027117 0.035654724 0.0022996524 -0.527738 -0.43428034
-0.018286822 0.25472277 0.121346645 -0.11319986 0.07807934 -0.24975908 -0.027935827 0.086810954
-0.015946606 0.098567106 0.054477945 0.116650514 0.08923925 -0.02701904 -0.120201096 0.028718024
0.027239116 0.7964357 0.4568797 0.14379153 0.101915814 -0.033767946 -0.011143679 -0.0085656075
0.009496009 0.14344777 0.059273485 -0.09189961 -0.0010735301 -0.018594116 -0.07218371 0.009389617
-0.035548467 -0.10197824 -0.005445822 0.08336383 -0.12768649 0.07867748 -0.17311244 0.21723203
-0.06778092 -1.6821598 -0.46684244 1.260073 0.045749392 -0.04877796 0.037449628 -0.0240236
-0.026156498 0.19800107 3.4352124 0.013764737 -0.046756357 0.004900549 0.08240357 -0.08036467
-0.06057471 0.013245063 -0.042481776 -0.06580444 -0.060340296 -0.17122465 0.08717435 -0.0404909
0.35301185 -0.9693955 0.2983206 0.14955077 -0.26505652 0.17989865 -0.28713864 -0.11030319
-0.02995411 -0.055920992 -0.27013367 0.15700349 -0.29480672 0.111626044 0.08345444 -0.049538027
-0.0048399684 -0.03165789 -0.085326895 -0.06911235 -0.12465613 -0.15952995 -0.11637958 -0.0468931
0.27106917 0.6193229 -0.24795741 -2.0140946 -0.46502843 -0.3357266 -0.49512923 -0.17342995
-0.09960446 -0.047036003 0.12890697 0.17076817 -0.12921602 0.016698427 -0.1758472 0.071748435
0.065655604 -0.1237319 -0.115672074 -0.16337512 0.013503182 -0.20128766 -0.14685267 0.071039066
-0.049833067 1.8774148 0.2279195 -0.3455316 0.17674357 -0.42971596 -0.23269103 -0.079338945
-0.043848947 0.11082861 -0.33403623 -0.0632805 0.020137042 0.14613454 -0.06840516 -0.07210804
-0.13405642 -0.008900449 0.08672387 0.011242784 -0.054382987 0.10904727 0.18129778 -0.041521296
-0.039308086 -0.04126528 1.2479249 -0.28552914 0.19360337 0.58868295 -0.1370398 -0.36265483
-0.13532914 0.0500713 0.06261267 0.096422635 0.18728128 0.020145446 -0.12495416 -0.13006683
-0.095071234 -0.11511452 -0.060425323 0.025579939 -0.115242995 0.13447471 0.23546927 -0.07680227
-0.36878416 -0.31616145 -1.347626 1.0516788 0.1267115 -0.20691887 0.2960874 -0.22426441
0.039251704 -0.16723962 -0.08390024 0.15855058 -0.14309281 -0.081033744 -0.023858588 0.0036065187
-0.13420919 0.036890756 -0.14045897 0.048184488 -0.00919064 -0.1863433 -0.17157763 0.1105733
-0.67772377 -2.3583086 0.07206919 -1.3317066 0.056219537 0.38018143 0.39833477 0.38151655
-0.056574848 -0.26267287 -0.09972168 -0.014283304 -0.15583779 0.010594668 -0.043435834 0.0043736957
-0.10960645 -0.12943734 0.06109735 -0.018765917 -0.100279495 -0.11730667 -0.09079439 0.053566072
-0.09354989 -0.11105141 -0.73067987 -1.1453825 -0.0821611 0.31589368 0.12756157 0.23622884
-0.04013344 -0.33276984 -0.5825282 -0.38304394 0.09516851 -0.10627766 0.051605735 -0.001280169
00000000: 71c5 8f3d f206 363f 1ac1 b4be 28db 943e
00000010: a53a 01be 3407 283e 75b7 45be 3fc0 833e
00000020: 26ad 9d3d d8de 933e 9e26 4abe e357 42be
00000030: 8260 43be 2b24 23bd 629f 01bd f17d 1f3e
00000040: 7877 aebd 134c 26bd 60f4 a03d e66c b93c
00000050: 42bf d0bc f496 b2bd 1474 8dbd 8a09 d4bd
00000060: 398c 463e 8b53 83be aa61 a3be 9278 83bf
00000070: b00a 123d c4b5 163b d619 07bf fe59 debe
00000080: 3fce 95bc 066b 823e 9784 f83d 54d5 e7bd
00000090: 10e8 9f3d d8c0 7fbe add9 e4bc f1c9 b13d
000000a0: 75a2 82bc 8ddd c93d 4424 5f3d 77e6 ee3d
000000b0: 11c3 b63d 0957 ddbc fe2b f6bd 1042 eb3c
000000c0: 9124 df3c 36e3 4b3f 23ec e93e 163e 133e
000000d0: 3db9 d03d 4250 0abd fa93 36bc c356 0cbc
000000e0: 2695 1b3c f9e3 123e c1c8 723d dd35 bcbd
000000f0: b1b5 8cba b052 98bc 0ed5 93bd e8d6 193c
00000100: 459b 11bd f8d9 d0bd de72 b2bb a8ba aa3d
00000110: 3fc0 02be a921 a13d 6344 31be 1372 5e3e
00000120: b9d0 8abd 0351 d7bf f905 efbe 124a a13f
00000130: b763 3b3d 66cb 47bd c864 193d 24cd c4bc
00000140: 2746 d6bc cbc0 4a3e 85da 5b40 7e85 613c
00000150: 9883 3fbd c994 a03b 34c3 a83d 3b96 a4bd
00000160: 301d 78bd d201 593c 5f01 2ebd 7ac4 86bd
00000170: 6327 77bd 8455 2fbe 7788 b23d c9d9 25bd
00000180: f8bd b43e 4e2a 78bf 7abd 983e d623 193e
00000190: 7db5 87be 5a37 383e d603 93be a4e6 e1bd
000001a0: 5262 f5bc 690d 65bd f64e 8abe 86c5 203e
000001b0: e8f0 96be 329c e43d 29ea aa3d 63e8 4abd
000001c0: 9998 9ebb b4ab 01bd debf aebd c78a 8dbd
000001d0: b74b ffbd d25b 23be 6b58 eebd fb12 40bd
000001e0: 94c9 8a3e f28b 1e3f 8ce8 7dbe ede6 00c0
000001f0: 3518 eebe 5be4 abbe 9481 fdbe 9f97 31be
00000200: 6cfd cbbd d3a8 40bd 3000 043e dadd 2e3e
00000210: 3451 04be 24cb 883c 4a11 34be d8f0 923d
00000220: 7276 863d 2667 fdbd 7be5 ecbd cf4b 27be
00000230: 733c 5d3c 5a1e 4ebe 8c60 16be ee7c 913d
00000240: c21d 4cbd 214f f03f bb63 693e 85e9 b0be
00000250: 44fc 343e bb03 dcbe 8f46 6ebe 757c a2bd
00000260: f49a 33bd 1cfa e23d cc06 abbe 3599 81bd
00000270: 70f6 a43c 4ba4 153e 0118 8cbd 61ad 93bd
00000280: 1646 09be 30d3 11bc 499c b13d a733 383c
00000290: b2c0 5ebd 2d54 df3d 20a6 393e 3c12 2abd
000002a0: 8401 21bd c805 29bd 01bc 9f3f e030 92be
000002b0: f63f 463e edb3 163f 2954 0cbe e5ad b9be
000002c0: b993 0abe 9017 4d3d 123b 803d 3b79 c53d
000002d0: aac6 3f3e 1008 a53c f7e7 ffbd 3d30 05be
000002e0: b5b4 c2bd 29c1 ebbd 8b80 77bd 058d d13c
000002f0: 8504 ecbd bdb3 093e db1e 713e 824a 9dbd
00000300: 47d1 bcbe eadf a1be 027f acbf 699d 863f
00000310: a9c0 013e 8ae2 53be c598 973e 92a5 65be
00000320: 65c6 203d dd40 2bbe e4d3 abbd 155b 223e
00000330: ec86 12be 05f5 a5bd 1673 c3bc 585b 6c3b
00000340: 226e 09be c31a 173d 7ad4 0fbe 195d 453d
00000350: 5794 16bc c7d0 3ebe 0cb2 2fbe 4174 e23d
00000360: 4e7f 2dbf 87ee 16c0 0399 933d 5d75 aabf
00000370: 7546 663d 24a7 c23e 89f2 cb3e 2356 c33e
00000380: 07bb 67bd 0f7d 86be e13a ccbd 8504 6abc
00000390: f193 1fbe 4295 2d3c c6e9 31bd 3851 8f3b
000003a0: 5979 e0bd 398b 04be 3741 7a3d fbba 99bc
000003b0: 565f cdbd 7b3e f0bd 69f2 b9bd 1968 5b3d
000003c0: 1697 bfbd ec6e e3bd d60d 3bbf e59b 92bf
000003d0: 1444 a8bd d1bc a13e 809f 023e f9e5 713e
000003e0: f662 24bd cf60 aabe 9120 15bf 561e c4be
000003f0: b5e7 c23d 1aa8 d9bd 8960 533d 58cb a7ba

inverse_net.0.bias f4 [64]
-0.07040429 0.18259022 0.15533611 -0.06430701 0.09902998 -0.0798664 -0.01937527 -0.11377265
-0.1575004 0.06732869 -0.11595646 0.07839432 -0.07529777 -0.14179541 -0.01996565 -0.18815564
-0.1623536 0.2142301 0.030076098 -0.04963069 0.07337795 0.15362105 -0.11312167 0.016407985
-0.01987124 -0.03755171 -0.069748215 -0.058030553 -0.032357756 -0.118677 -0.22622646 -0.15026316
-0.05538958 0.08106126 -0.091135785 -0.21460615 -0.13968775 -0.028865932 -0.13348432 -0.07151344
0.06199916 -0.02830637 0.03014019 0.17754641 0.09343904 -0.027692778 0.029763298 -0.06238024
-0.010612776 0.00031102676 0.06385437 -0.11773444 0.04009919 -0.22315231 -0.14605685 0.10744071
-0.03840462 -0.056435205 -0.11749928 0.13040128 0.046920918 -0.07190092 0.11988546 -0.007897299
00000000: 2030 90bd eef8 3a3e 6e10 1f3e 65b3 83bd
00000010: 3bd0 ca3d ff90 a3bd e3b8 9ebc a301 e9bd
00000020: c947 21be a0e3 893d 957a edbd 348d a03d
00000030: b835 9abd d132 11be 018f a3bc dfab 40be
00000040: 0640 26be 235f 5b3e 2662 f63c 8d49 4bbd
00000050: 2e47 963d d64e 1d3e 56ac e7bd 0a6a 863c
00000060: 03c9 a2bc d2cf 19bd 27d8 8ebd 72b1 6dbd
00000070: 9189 04bd ed0c f3bd e9a7 67be 96de 19be
00000080: 2fe0 62bd 7203 a63d 66a5 babd b7c1 5bbe
00000090: 4e0a 0fbe 3f78 ecbc 1db0 08be a375 92bd
000000a0: d5f2 7d3d c3e2 e7bc 8fe8 f63c bace 353e
000000b0: f85c bf3d f7db e2bc 29d2 f33c 6c82 7fbd
000000c0: 35e1 2dbc 4e11 a339 14c6 823d c11e f1bd
000000d0: 0c3f 243d 0a82 64be ed8f 15be e009 dc3d
000000e0: 2a4e 1dbd 9a28 67bd 76a3 f0bd ea87 053e
000000f0: 2630 403d ca40 93bd 8286 f53d ac63 01bc
