IL/Model/model_reacher_44.pt (torch, 292527 bytes, 20 tensors)

policy_net.0.weight f4 [64, 24]
000000 63 f0 e2 be d2 1f a4 bf a3 00 89 3e 67 14 76 3d
       -0.44324026 -1.2822211 0.26758298 0.06007805
000010 06 fa 86 3e e6 87 3d be 14 15 aa 3e 9b 50 95 bd
       0.26362628 -0.18508872 0.33219206 -0.07290765
000020 dc 17 30 3e a1 e0 92 3d 7f fd a1 3c 4b 69 29 3b
       0.17196602 0.07171751 0.019774197 0.0025850113
000030 1e 81 d2 bd 21 33 e0 bc 3d 66 ad 3e a5 22 1e 3e
       -0.102785334 -0.02736813 0.33867064 0.15442903
000040 67 fa 83 3e 25 0c eb 3d 32 6d 90 be c8 34 0e bf
       0.2577698 0.11476926 -0.2820831 -0.5554929
000050 63 c3 e5 be 32 c9 94 bd 23 f9 4a 3e 6a 64 b1 3c
       -0.4487563 -0.072649375 0.198216 0.021654326
000060 e8 ca f9 3c 98 9a 54 bf 2a b8 d0 bd 18 10 80 3e
       0.030492261 -0.8304839 -0.101913765 0.2501228
000070 b3 b6 89 3e 68 fd 57 3e 84 00 7b 3f 64 d0 a5 be
       0.268972 0.2109276 0.9804766 -0.32385552
000080 52 72 b2 bd e1 e6 9f be 47 db 9b 3e 5c 70 ac 3c
       -0.08713211 -0.31230834 0.30440733 0.02104967
000090 85 ce 10 bd b9 8d 95 be 91 88 01 bd 39 32 df bd
       -0.035353202 -0.29209688 -0.03162438 -0.10898251
0000a0 c9 a5 09 be 7f f9 78 be 0e 1e 9b be 11 a7 12 be
       -0.13442148 -0.24313925 -0.30296367 -0.14321543
0000b0 e0 62 8c be 33 62 1d 3e 3b ed c4 bd 13 d6 04 be
       -0.27419186 0.15369491 -0.096155606 -0.12972288
0000c0 65 56 03 3e 8a c3 38 3f fa bc bf be 3a d5 ec 3f
       0.12825926 0.7217337 -0.37448865 1.8502572
0000d0 e3 52 2a bd 10 2f c2 bd 97 9b ce bc ac 90 91 3d
       -0.041582953 -0.09481633 -0.025220675 0.07107672
0000e0 b9 2f 00 3f 11 91 69 bd 69 d6 9e 3d 0b 54 04 bd
       0.5007282 -0.05702311 0.07755739 -0.032306712
0000f0 a3 63 db 3e a7 22 a7 3e 95 84 a3 bc e2 fb b2 bd
       0.42849454 0.32643625 -0.019960681 -0.08739449
000100 17 6b a9 bd 77 b3 3f be 2e a7 52 3d fa c1 cf 3c
       -0.08272379 -0.18720804 0.051428966 0.02536105
000110 63 42 76 3d 36 3d 46 3e 6f c9 d4 bd ba b5 66 be
       0.060121905 0.19359288 -0.10389983 -0.2253026
000120 6a e8 d7 3e 9a 67 22 3f c8 00 cb be 97 be b2 bf
       0.42169505 0.63439333 -0.39649034 -1.3964413
000130 19 b0 a3 3e 43 ee 19 3e 40 0a a5 3e 1a d9 ae 3d
       0.3197029 0.15032296 0.32234383 0.085375026
000140 78 b3 e4 bd eb 15 d8 3d c5 36 ee bd 3b e4 1b bf
       -0.111670434 0.105510555 -0.1163154 -0.6089513
000150 4e 62 44 bd 9f 81 85 3b 94 7e 2e 3c c4 15 79 bd
       -0.047945313 0.00407429 0.010650296 -0.060811773
000160 5c 85 c1 bd d0 39 4c bd 9d e9 ec bd bc b7 c6 be
       -0.094492644 -0.04985982 -0.11567996 -0.38812053
000170 eb c1 dc bd 00 50 81 be 59 60 a2 bd 76 a3 bf 3d
       -0.107791744 -0.25256348 -0.07928533 0.093573496
000180 63 4b d2 bd f8 2b 2c 3e 63 92 2d be 43 31 95 3e
       -0.10268285 0.16813648 -0.16950373 0.29139146
000190 16 6e 9c 3c e0 53 f4 3d 13 db 70 3d bd 4a 88 3d
       0.019095462 0.119300604 0.058802675 0.0665488
0001a0 e8 3d a0 bc ec 65 20 be f1 72 3e be 75 81 fd 3e
       -0.01956077 -0.1566388 -0.18598534 0.4951283
0001b0 fd 37 14 bf 42 59 bf 3b d4 02 4b 3e 16 d2 08 3e
       -0.5789793 0.005839498 0.19825298 0.13361391
0001c0 cf 21 bc 3e 3f 76 9f 3e 7f 7b 2e 3e fe 3d 83 3e
       0.36744544 0.31144902 0.17039298 0.25633234
0001d0 1b 3a a0 bd a6 13 38 be fc fe 33 be 2c 8d 8a bd
       -0.07823583 -0.17976245 -0.17577738 -0.06765208
0001e0 d8 db cb be 99 b5 8f be a5 53 b4 3e 52 48 db bf
       -0.39816165 -0.28068236 0.35220066 -1.7131445
0001f0 b8 cd 42 be 8a 12 fc bd cb b4 88 3e 14 42 72 be
       -0.19023788 -0.123082235 0.26700434 -0.2365802
000200 6a 8d 1d bf cc b6 49 3e d0 5e 94 be 5b 6a 91 bd
       -0.61543906 0.19698638 -0.28978586 -0.07100364
000210 82 45 7b bd 48 8d 54 be 2a a4 28 3e bc 20 2a 3e
       -0.061345585 -0.2075702 0.16468874 0.1661405
000220 7a 1c 48 3e fd 53 00 3e c7 36 84 3e fc 51 88 3e
       0.19542113 0.12532039 0.25823042 0.2662505
000230 0b 64 cb 3d 38 4a 19 3d 51 d2 0a be 5d 5c a9 3d
       0.09931191 0.037424296 -0.13556792 0.0826957
000240 d9 e6 a2 be 2f 07 42 40 57 93 36 3e 0c 35 2b bf
       -0.31816748 3.0316885 0.17829643 -0.6687782
000250 d8 e5 ac be e5 30 b0 3e ff 5e fd be e0 52 46 3e
       -0.33769107 0.34412304 -0.4948654 0.19367552
000260 91 0a 00 3e ca bc 78 3c 97 69 72 3e 9b c8 0e be
       0.12504031 0.01518173 0.23673092 -0.13943712
000270 16 ad 8c 3d 0b e5 df 3d d2 f8 17 3d 14 51 1e be
       0.06868951 0.10932358 0.037102528 -0.15460616
000280 c1 36 1a 3e 2f f3 4c 3e 10 60 f8 3c f0 fb 9a 3e
       0.1505995 0.20014642 0.030319244 0.30270338
000290 f6 c2 4e 3e 05 ad bd bd 4d f6 a4 be c0 98 34 be
       0.20191559 -0.092615165 -0.32219163 -0.17636395
0002a0 e9 fb ba bc e6 a3 d4 3e e8 89 20 3f 0f 0c be 3f
       -0.022825198 0.41531295 0.6271043 1.484743
0002b0 19 9e 25 be 0b 70 6e 3e 47 b2 36 3e 49 7e 18 be
       -0.1617359 0.23284929 0.17841445 -0.14891924
0002c0 d4 09 00 3e 4f 4c b2 be 50 4d 8d 3c e2 b3 96 3e
       0.12503749 -0.34823844 0.01724878 0.29434115
0002d0 d1 01 83 be d1 f7 d9 bc e3 22 48 be 39 9f 0b bd
       -0.25587323 -0.026607426 -0.19544558 -0.034087393
0002e0 91 f8 02 be 22 a6 2b 3e 41 01 43 bd 77 51 41 bd
       -0.12790133 0.16762593 -0.047608618 -0.04719683
0002f0 cd 49 13 3e 45 15 4f be ef e5 ac 3c bf 46 b2 3d
       0.14383622 -0.20222957 0.021105735 0.087049
000300 be 91 4f 3f 29 b5 86 3d e1 a9 f4 be 56 83 e6 be
       0.8108176 0.06577522 -0.47785857 -0.45022076
000310 2b ea e6 bd 59 48 8d 3e 50 5b 2d be f8 4f 18 3e
       -0.11275133 0.2759426 -0.16929364 0.14874256
000320 41 a9 f4 3c 95 21 9c 3e ce 03 94 bc 10 0d 8c 3d
       0.029865863 0.3049437 -0.01806822 0.06838429
000330 fe 35 81 3d 36 15 d0 3d 56 ce 3e be 0b 9e 4d bd
       0.06309126 0.10160296 -0.18633398 -0.05019955
000340 d1 40 cf bd ab 7f 56 be 54 ec 9f 3d 65 5f ff bd
       -0.101197846 -0.20947139 0.07808748 -0.12469367
000350 c9 e7 f1 3c 20 d3 de 3d d1 f4 60 bd e4 45 4f 3e
       0.02952947 0.10880113 -0.054920975 0.20241505
000360 ea ee 54 3e 8f fa a3 3f 37 b1 4d 3e 9c 70 b5 bf
       0.20794263 1.281084 0.20087133 -1.4174991
000370 dc db c0 be 0d 85 74 3e 8c d8 ee bd 51 4a 93 3d
       -0.3766774 0.2387888 -0.11662397 0.07191909
000380 be 21 2a 3d 4a fd d1 3e ea 7d f0 3e ed e4 64 be
       0.041536085 0.41013557 0.46971065 -0.22352953
000390 ba 7a 0f be 9a b7 97 be 1b eb 93 3e b3 12 52 3e
       -0.1401166 -0.29632264 0.2889031 0.20514946
0003a0 58 e0 2f 3e f0 31 1d 3d 23 b6 07 3e c2 dd 64 be
       0.17175424 0.038377702 0.13253073 -0.22350219
0003b0 6d cc ca be 59 1d 91 be 3a 0d 91 bd 74 76 68 3d
       -0.3960909 -0.28342703 -0.07082601 0.05675359
0003c0 4a 92 10 3f c4 d7 d4 3f 4a a9 a7 3e c5 1a 6a bf
       0.5647322 1.6628346 0.32746345 -0.914471
0003d0 d0 f1 86 3e 69 cb 30 3e e5 e6 0a bf 19 1a c2 bc
       0.26356363 0.17265095 -0.5425857 -0.023694085
0003e0 48 1e 86 be 16 a5 ed 3e 67 0b 9f 3e 43 28 5d bd
       -0.26194978 0.46415013 0.31063387 -0.053993475
0003f0 56 49 2d 3e 29 d8 61 3e ee e8 b6 be 18 04 c4 be
       0.16922507 0.22055115 -0.35724586 -0.38284373

policy_net.0.bias f4 [64]
000000 07 c6 c2 bd 01 a1 cd bd c9 8b 74 be 50 ba 97 bc
       -0.09510427 -0.10040475 -0.23881449 -0.018521458
000010 01 f1 09 3e 3e 28 5f be ed 6e fb 3d 44 f4 33 bc
       0.13470842 -0.21792695 0.12277017 -0.01098353
000020 5d e9 14 3e c7 f7 28 3e a8 c7 e3 bd ba 35 19 3d
       0.14542146 0.1650077 -0.11122066 0.037404753
000030 91 fe 90 be cb 68 9d be 09 95 82 3e b5 ca c5 3d
       -0.2831922 -0.30744013 0.2550433 0.09657804
000040 a2 83 1b 3e 24 8b 87 3e d7 a6 c0 3d 98 09 15 be
       0.15186933 0.26473343 0.09406822 -0.14554441
000050 9c 42 0b 3d a9 e8 6a bb 70 20 4d be e5 a1 b5 3d
       0.03399907 -0.0035844243 -0.20031905 0.088687696
000060 23 5e 1a bd b0 5a 48 ba e1 3f 56 3e df 75 2e 3d
       -0.037687432 -0.0007642908 0.20922805 0.04259288
000070 91 48 32 3e dc 66 0a 3d 23 d3 e6 bd 7b 95 ce bd
       0.17410494 0.0337895 -0.1127074 -0.10087105
000080 8c b1 b4 3d a6 f0 81 3e 52 49 df bd a5 b3 83 bd
       0.08822927 0.25378913 -0.109026566 -0.06430749
000090 57 b2 c9 bc 56 5c 08 3d ce d2 00 be b1 7a 4e 3e
       -0.024621172 0.033291183 -0.12580416 0.2016399
0000a0 a5 4b b3 3d c9 b9 86 be cd c6 26 3d a4 3a fd 3b
       0.087546624 -0.26313618 0.040716935 0.007727938
0000b0 7f 02 36 be aa 82 45 be 43 d3 84 3e a0 79 35 bc
       -0.1777439 -0.19288126 0.2594243 -0.011076361
0000c0 9d 57 26 3c 51 01 0e 3e ad d0 13 3e 29 a2 0f bc
       0.010152725 0.1386769 0.14435072 -0.008766689
0000d0 48 e6 0b 3e db af 62 3e 4b 5d d3 3c 74 62 80 3e
       0.13662064 0.22137396 0.025801321 0.25075114
0000e0 40 1a 43 be 14 9d e4 3b 21 ef e0 bd c8 08 22 3e
       -0.19052982 0.006976733 -0.1098311 0.15823662
0000f0 3b 38 2d 3e 1d b7 5b be 37 b6 19 be 76 c4 60 bd
       0.16915981 -0.21456571 -0.15010916 -0.05487486

policy_net.2.weight f4 [128, 64]
000000 ee 06 57 be 31 0f 01 3d 19 0d 91 be c8 dd 77 be
       -0.20998737 0.03150863 -0.28330305 -0.24205697
000010 f2 7b b0 3d 41 40 81 3e 7e 14 15 3d eb 8f 61 3e
       0.08617391 0.25244334 0.036396496 0.22027557
000020 93 89 14 3e a7 da ba 3d 65 99 bd bd 58 79 e4 be
       0.14505605 0.09123736 -0.09257773 -0.44623828
000030 b5 d8 52 3e 4b a8 43 bd c3 48 65 3e 80 05 e1 3e
       0.2059048 -0.04776792 0.22391038 0.4394951
000040 28 b9 55 be 91 6f 68 bd 4c 4a 1a be 26 dc 18 3d
       -0.20871413 -0.056747023 -0.15067405 0.037319325
000050 64 cd 2e be eb 71 0c be d5 c0 80 3e c4 c1 9f 3e
       -0.17070538 -0.13715331 0.2514712 0.3120252
000060 8d 98 42 3e 89 de ab be 8d c5 bd be ec 14 e8 3e
       0.19003506 -0.33568218 -0.37064782 0.45328462
000070 a1 e2 89 3c b8 6d 07 3e 89 05 e7 be 37 29 00 be
       0.016831698 0.13225448 -0.4512141 -0.12515722
000080 48 9b 97 be 1b 6c bd 3d 34 87 5f bd 6d de ff bd
       -0.29610658 0.09249135 -0.0545723 -0.12493596
000090 70 1b 5b 3d ab 8c 3e 3e be d9 d4 be 64 89 6f be
       0.053492963 0.18608348 -0.41572374 -0.23392254
0000a0 70 46 21 3d f0 33 24 bf ac 92 54 be 14 b3 4b 3f
       0.039373815 -0.6414175 -0.20759076 0.79570127
0000b0 60 a8 e1 bd 83 01 b6 3d c6 57 71 3d bf 9e da 3c
       -0.11018443 0.08887007 0.058921598 0.026687024
0000c0 b5 99 ae 3d 8a 91 f4 be 32 4f 9e bd 1f 84 04 3e
       0.08525411 -0.47767287 -0.07729949 0.12941025
0000d0 ef b0 6e bd d2 47 9c be 8b 4a 82 3e 86 14 dd 3c
       -0.058274206 -0.30523545 0.25447497 0.026987325
0000e0 e0 c1 d9 bd 03 66 b0 3b 94 9c 78 3e 27 31 e7 3d
       -0.10632682 0.0053832545 0.2427848 0.11288672
0000f0 b9 37 05 be 2b e8 3c be 42 39 50 3d 66 61 12 3c
       -0.13009538 -0.1844794 0.050835855 0.008934354
000100 bd d0 0a bf 66 53 64 3e 86 c3 84 3e 5c cf c0 3d
       -0.5422476 0.22297439 0.25930423 0.09414551
000110 ef ea cc bf 6e f6 fe 3d f0 2b 25 3e 65 ca 1f bf
       -1.6009196 0.124493465 0.16130042 -0.62418205
000120 97 ab 72 3c 34 88 61 bd c5 48 7a bc ae 43 05 be
       0.014811418 -0.055061534 -0.015276139 -0.13014099
000130 e5 83 10 3e 24 9d 53 3e 4f fe a7 3d 91 16 08 3e
       0.14112814 0.20665413 0.082028024 0.13289858
000140 be ed 01 be d9 0e ac 3d 55 23 07 3e ed cd 03 be
       -0.12688348 0.084012695 0.13197072 -0.12871523
000150 c7 5c 7d 3d de 51 0b 3e 67 5f 69 be 55 07 2c bf
       0.061856057 0.13605449 -0.227903 -0.6719869
000160 76 0e 24 bd 4b bf f9 3c 0c 84 90 3e 9a af aa 3e
       -0.040052854 0.030486723 0.28225744 0.33337098
000170 e7 04 4a 3d f7 2c 14 3d 16 66 0d 3d 30 b4 9f 3b
       0.04932108 0.036175694 0.034521185 0.004873775
000180 0d fa 06 bf aa 65 4d be a2 4d 0b bc 13 f0 17 3e
       -0.527253 -0.20058313 -0.008502396 0.14837675
000190 03 f5 64 3e f4 53 63 3e a0 6b de 3c 77 65 b4 be
       0.2235909 0.22199994 0.027150929 -0.35233662
0001a0 88 10 f1 be 7c 08 9b 3a 9d cc 31 3d 25 f1 10 bf
       -0.47082925 0.001182809 0.043408025 -0.5661796
0001b0 80 70 53 3e f6 73 de 3d fb 48 21 3d 6b 90 fe 3d
       0.20648384 0.108619615 0.03937624 0.12429889
0001c0 0f 75 f4 3e e5 14 e4 3d 9e ad e9 be f0 7a af bb
       0.4774556 0.11136798 -0.45640272 -0.0053552315
0001d0 a0 7c b3 3e 6e c7 a2 be a0 02 70 3d a1 bc 3a 3d
       0.3505602 -0.31792778 0.058596253 0.045590047
0001e0 2a e7 58 3d 2a 96 5a be cc 7b 4b be 95 60 34 bd
       0.05295483 -0.21346346 -0.19871444 -0.04403742
0001f0 77 94 2e 3e ed 57 d2 3d 58 10 0f be 34 09 f0 3d
       0.17048822 0.10270677 -0.13971078 0.11720505
000200 36 87 2f be c2 9a 11 be 06 a9 ac be 7c 13 4c 3e
       -0.17141423 -0.14219192 -0.33722705 0.19929308
000210 51 fd 51 3d 33 e8 a6 3e 59 ff ba 3d 71 ff 9d 3d
       0.051266972 0.3259903 0.09130735 0.07714737
000220 31 6d 01 3e 9a 75 01 3e f0 6c b3 3d 5d d5 35 bd
       0.1263931 0.12642518 0.087610126 -0.044392932
000230 37 c2 33 be a2 a8 08 bf 0a 79 ba bd b5 85 8a be
       -0.17554556 -0.53382313 -0.091051176 -0.27055135
000240 63 6e 3e be 93 71 2a 3e 5d 4a e8 3e 19 81 95 be
       -0.18596797 0.16644888 0.45369235 -0.29200056
000250 76 8d 44 3d 0b e5 01 bd c4 01 31 be 33 a9 b5 be
       0.04798647 -0.031712573 -0.1728583 -0.3548065
000260 b7 2c 7e be 3c 21 cb 3e 2d c4 33 3d 83 66 2b 3e
       -0.24821745 0.39673793 0.04388826 0.16738324
000270 57 fa 8d 3e a0 a2 25 be 71 4e ae bd 79 de 66 3e
       0.27730057 -0.16175318 -0.08511055 0.22545804
000280 c2 4c 06 3e 13 4f 46 bd 60 a8 85 be c0 1b a4 3d
       0.13115218 -0.048415255 -0.26105022 0.080131054
000290 2a db 3f 3c 14 e3 1c bf c7 0d 2a 3e 30 a5 02 3f
       0.011709968 -0.61283994 0.16606818 0.51033306
0002a0 b0 8f a7 bb 76 74 0e bf 97 51 b2 bd eb 7d f4 bd
       -0.0051135644 -0.55646455 -0.08706968 -0.119380794
0002b0 04 d0 67 be 99 7d e5 3d 06 b9 c0 bc 08 12 f1 3d
       -0.22637945 0.112055965 -0.023525726 0.11771017
0002c0 0e 26 a4 bd 7d 69 1d 3e 92 78 75 3e 79 1a b0 be
       -0.08015071 0.15372272 0.23971775 -0.34395197
0002d0 d3 1d 45 3e 0a 82 0a be 44 8e c2 bd 7a 2c 85 3d
       0.19249658 -0.13526168 -0.09499791 0.06502624
0002e0 4c 3e f2 be c2 a8 ea bd 3b 15 1c bf 7d d4 ce 3d
       -0.47313154 -0.11457969 -0.60969895 0.10099123
0002f0 a9 30 7e 3e 62 18 ad be 6c 9d 08 be fe e3 b4 be
       0.2482325 -0.33807665 -0.13341302 -0.35330194
000300 a7 0d e1 be e4 ab a6 3e 50 50 d6 be 56 d4 5f bd
       -0.43955728 0.32553017 -0.4185815 -0.05464586
000310 60 6a c0 bd 33 7e af bc 6e 31 b6 be dd a2 8f 3d
       -0.093952894 -0.021422481 -0.35584587 0.070134856
000320 83 24 10 3d 77 89 cc 3e 90 8c 98 3e a0 e0 57 be
       0.03519107 0.39948627 0.2979474 -0.21081781
000330 24 e1 5f be a8 89 0d 3d ba 50 8b 3d 0f 4f 54 bd
       -0.21863228 0.034555107 0.06802507 -0.05183321
000340 59 95 e3 3c ee 2b 14 3e 67 8c 14 be 34 59 1b bf
       0.027781175 0.14469883 -0.14506684 -0.6068299
000350 76 f2 f4 3d df bb f3 bd c3 b8 f4 3c 05 43 e7 bd
       0.11960308 -0.11901068 0.029873258 -0.1129208
000360 36 f9 f3 be 6f 26 06 3e fd 64 6f bd 5b db 9b bd
       -0.4765107 0.13100599 -0.05844592 -0.07610198
000370 4b 72 29 be ba 91 e5 3b 60 56 1d be 95 f5 15 bf
       -0.16547506 0.0070058974 -0.1536498 -0.58577853
000380 64 77 03 3f 21 29 2a 3e c9 34 88 3d 1d 54 28 3e
       0.5135405 0.16617252 0.06650693 0.16438337
000390 f0 40 31 be ca 52 59 3d c1 bb 79 3e 28 11 d8 be
       -0.17309928 0.05305747 0.24388029 -0.4220059
0003a0 bb 3b 09 3b b8 b9 da be 71 1c ba 3d 7f 5a d1 be
       0.0020940143 -0.42719817 0.09087456 -0.40889356
0003b0 90 9f c1 bd 76 24 67 bf 51 d2 09 bf d2 c2 1c 3e
       -0.09454262 -0.9029001 -0.5383654 0.15308693
0003c0 8c bb be be b4 fe 6c be 56 a8 f1 3e bd 2d cf be
       -0.37252462 -0.23144037 0.47198743 -0.40464583
0003d0 71 b6 99 3e 75 18 88 3e 9e d4 a5 3e 08 19 d7 3e
       0.30022004 0.2658116 0.32388777 0.42011285
0003e0 f5 1a 5e be 91 98 94 be 15 1b f2 bd e0 81 d4 be
       -0.21689971 -0.2902265 -0.11821572 -0.41505337
0003f0 7c 9e df be dc 64 19 be f7 20 8e 3d cd 00 55 3e
       -0.436756 -0.14979881 0.06939881 0.20801087

policy_net.2.bias f4 [128]
000000 0d ad 8d 3d 21 70 75 bd db 8e 30 3e 44 52 a0 3c
       0.069177724 -0.059921388 0.17241995 0.019570477
000010 25 c3 37 3b c4 61 ae 3d 5b e3 ae bc 09 17 91 bd
       0.00280399 0.08514741 -0.021348646 -0.07084472
000020 01 2f 22 3d 0a 07 f2 3d ff b8 57 be bb 04 ef 3c
       0.039595608 0.11817749 -0.21066664 0.02917706
000030 57 98 7c bd 31 0c fd bd 3c 2c b3 3d 35 62 4f 3d
       -0.06166872 -0.12355841 0.087486714 0.050630767
000040 32 d5 04 3d a1 df 4b be 42 00 a6 3d e0 3f 33 3e
       0.03242988 -0.19909526 0.08105518 0.17504835
000050 31 6a 6b be d6 0f 83 3c 29 02 0e be 92 30 da bd
       -0.22989728 0.015998762 -0.13868012 -0.10653795
000060 5f cf 8e bb 1a 35 88 bd 7f 3f da 3c 69 54 24 3c
       -0.0043582167 -0.06650753 0.026641605 0.010029891
000070 e8 97 09 3c f6 d0 e4 bc 50 37 42 bd 03 83 9e bd
       0.008398034 -0.027931672 -0.04741603 -0.07739832
000080 90 8a 52 3c d4 50 79 3c e0 9c 47 be b0 54 4c be
       0.012850419 0.015217025 -0.19493437 -0.1995418
000090 2a fb 2c be b9 bf 3a 3e 46 46 8e 3e 03 24 ec 3d
       -0.16892686 0.18237199 0.2778799 0.11530306
0000a0 5f e9 05 be 80 ef 82 be 58 6d 71 3d 57 5f 27 3d
       -0.13077305 -0.2557335 0.05894217 0.040862408
0000b0 ab 75 42 be 6d 3b 90 bd 83 14 14 3d d7 de 07 3d
       -0.189902 -0.070425846 0.036152374 0.0331715
0000c0 3e 78 15 3e 77 f5 82 be 2a fb 64 be f7 3f 50 3e
       0.1459665 -0.255779 -0.22361436 0.203369
0000d0 ae 14 8c bd 49 cc 1e 3e 7a cf 05 3d cd 45 15 bb
       -0.06839882 0.15507616 0.03266857 -0.00227772
0000e0 ee 7b e1 3d 27 30 17 bb 5a fe 78 3c 40 4f 9b 3b
       0.11009966 -0.0023069473 0.015197361 0.004739672
0000f0 ea de 02 be dc d5 c2 bd a7 d2 ed 3d d8 36 2f be
       -0.12780347 -0.09513447 0.11612444 -0.17110765
000100 d7 e8 ed bd 96 80 83 bd 76 74 8c bd 1f 18 12 be
       -0.11616676 -0.0642101 -0.06858151 -0.14267014
000110 8c c1 28 3d 0d 9b 1d 3c f8 2e 35 be 0a 56 17 be
       0.041200206 0.0096194865 -0.17693698 -0.14778915
000120 b2 88 0e 3e be 56 ce bb b3 40 23 3e 1a fb 29 3e
       0.13919333 -0.0062969616 0.1594265 0.16599694
000130 01 1d b2 ba f1 15 c2 bd ef 53 b9 3d 46 60 cd 3c
       -0.0013588966 -0.09476841 0.09049212 0.02507032
000140 e0 e9 89 3b d0 40 39 bc 09 ce 38 bc 24 59 3a 3d
       0.0042087883 -0.011306956 -0.011279591 0.045495167
000150 b5 e4 9d 3c fb 12 2d bd 39 cf bd 3c da c1 7f bc
       0.019274095 -0.04225443 0.0231701 -0.015610183
000160 ee 3d 0c 3e 37 48 35 3e a3 e1 4e 3d 37 6f a8 bc
       0.136955 0.17703329 0.050508153 -0.020560844
000170 bb 2c 27 be 8e b3 22 3c bc b7 78 bd 21 eb 94 bd
       -0.16325657 0.0099305045 -0.060722098 -0.0727141
000180 98 80 1a be f7 8f 13 be d5 04 09 be 9f a5 9e be
       -0.15088117 -0.14410387 -0.1338075 -0.30985734
000190 b4 51 4f 3d 8d 20 9f bd 67 82 e2 bc 1a 1f 63 3d
       0.050615028 -0.077698804 -0.027650071 0.055449583
0001a0 cd f1 cc bc 18 b5 39 be 69 6e 0d 3c 4a 47 0c 3d
       -0.025017643 -0.18135488 0.008632281 0.034247674
0001b0 b2 4f 54 be 7c 51 41 3d 56 36 e4 bd 8a 49 57 bc
       -0.20733526 0.04719685 -0.11143176 -0.013140092
0001c0 0d e9 93 bd 9e 7e a5 3d 5a ad 29 3d 4a 38 41 bd
       -0.07222185 0.08080791 0.041425087 -0.047172822
0001d0 bf 7e 99 bd e7 24 f8 3d 01 69 54 be f0 b3 d9 bd
       -0.07494878 0.121164136 -0.20743181 -0.106300235
0001e0 4a 2b 17 3d 96 b4 24 3d 98 09 21 be 19 ec 97 3e
       0.036906518 0.040211283 -0.15726316 0.29672316
0001f0 2a 3b 97 bd 42 ee 4e 3d f2 26 12 3e be 6d a8 3b
       -0.073843315 0.05052019 0.14272669 0.0051400354

policy_net.4.weight f4 [128, 128]
000000 17 b4 0d be 63 76 2e 3e 6e 4c 1a 3e 7c 4e ab bd
       -0.1383823 0.17037348 0.15068218 -0.08364579
000010 8e b7 8b bb 71 0f 68 3e 42 be d6 3d 0f 1d 76 3e
       -0.004263825 0.2266214 0.104855075 0.24034522
000020 61 14 13 bf 02 c3 1b 3c 86 7a 2d be e0 1c be 3d
       -0.5745297 0.009506943 -0.1694127 0.09282851
000030 d8 fe 15 3c 81 3f 1c 3c 70 77 d2 3e f6 6e c7 be
       0.009154998 0.009536625 0.4110675 -0.38951844
000040 26 d7 29 be 09 b4 39 3e e8 61 39 3e 7c 11 ef be
       -0.16585979 0.18135084 0.18103755 -0.46693027
000050 75 93 bf 3e d9 a4 31 bc ae a7 91 3e f7 1f 90 be
       0.37417188 -0.010842525 0.28448242 -0.28149387
000060 fe 9d 0b 3e 78 c2 92 bd ec b6 1a bf 12 c2 c2 3e
       0.13634488 -0.07165998 -0.60435367 0.3803869
000070 f0 6c 60 3d 7a 29 78 be f8 f7 ac be 47 70 72 be
       0.05479139 -0.24234572 -0.33782935 -0.23675643
000080 53 be 99 3d 74 b9 a3 3d 00 ac 9a 3e 6f c3 0b bf
       0.075070046 0.07994357 0.3020935 -0.54595083
000090 09 8b b9 3b 15 8e 62 be 91 0b 52 be 89 78 de bd
       0.0056623262 -0.22124512 -0.20512225 -0.10862834
0000a0 a7 d9 7b 3e 09 64 a9 3b 3e 6f 2c 3e 3b f4 0b 3e
       0.24594747 0.005169396 0.1683931 0.13667385
0000b0 3d eb 1f be f4 92 86 bf 77 b9 85 be 33 47 ff be
       -0.1561708 -1.0513597 -0.2611806 -0.49859008
0000c0 ee b8 54 3e 6c bb 10 3f 2e 56 62 3e 4b fa 53 3e
       0.2077367 0.56535983 0.22103187 0.20700948
0000d0 18 9d d6 3e 80 48 78 be d8 a8 ab be fc 2c c6 bd
       0.41916728 -0.24246407 -0.33527255 -0.09676549
0000e0 86 3e 84 bd c6 f6 eb be c0 28 96 be 6b bd b6 bd
       -0.06457238 -0.4608671 -0.29327965 -0.08922847
0000f0 8b 06 82 3e 9d a4 9a 3e a0 17 57 bf e9 4e 75 bd
       0.25395617 0.30203715 -0.84020424 -0.059889708
000100 4a e9 10 be 02 99 8c 3d 5c 31 86 be d6 2c 31 bc
       -0.14151493 0.068651214 -0.26209533 -0.010813912
000110 a7 e9 0f be 26 6e af be c4 0a 5b be 77 8a 7e be
       -0.14053975 -0.34263724 -0.21390826 -0.24857508
000120 7f 78 18 be 7f c8 b4 bd c3 c7 f7 bd 76 f6 34 be
       -0.14889716 -0.08827304 -0.120986484 -0.17672142
000130 f5 44 27 be 25 84 ed bd 77 ba b3 3e 99 c4 89 be
       -0.16334899 -0.1159747 0.351032 -0.26907805
000140 58 f3 92 3e 1c e2 3f 3e a6 cd 0d 3e 95 db ff bd
       0.28701282 0.18738598 0.1384798 -0.12493054
000150 13 e6 81 be 85 78 9f 3e 49 fb a7 bd 61 32 27 3e
       -0.25370845 0.31146637 -0.08202226 0.16327812
000160 59 ee 41 3d 8f 20 6a be 34 51 84 3d b0 cb 44 be
       0.047346447 -0.22863983 0.06460801 -0.19218326
000170 4f bb 33 bd cf a1 7d 3e b3 c9 69 be 92 56 d8 3e
       -0.043879803 0.24768756 -0.22830848 0.42253548
000180 fe b9 83 be 29 8f 8a 3e 27 76 8b be 17 d4 0a be
       -0.25727838 0.27062348 -0.2723858 -0.13557468
000190 e1 29 c7 3d 75 51 03 bd c7 08 53 be 18 a0 a4 3e
       0.09724785 -0.032060105 -0.20608817 0.32153392
0001a0 8e 98 34 bd 4b 11 82 be e4 29 a6 3e 80 35 1f 3e
       -0.0440908 -0.25403818 0.32453835 0.15547752
0001b0 13 8d 21 3e 07 c7 d8 be 81 0f 01 3d d4 87 13 be
       0.15776472 -0.42339346 0.031508926 -0.14407283
0001c0 dd 0c 2a be 4d 30 f8 3d 3e 07 40 be 6b b7 ba be
       -0.1660647 0.12118588 -0.18752763 -0.36468062
0001d0 1f 26 98 3c d6 86 c8 be 8f 34 1a 3e 56 7e f7 bc
       0.018572865 -0.39165372 0.15059112 -0.030211609
0001e0 8a aa 37 3e 5e 75 b1 bd 75 86 d9 be fb 66 f8 be
       0.17936149 -0.08664964 -0.42485395 -0.48516068
0001f0 29 dd 81 3c 98 93 d7 3e 32 21 e9 3d 6e 95 b6 bd
       0.015852528 0.42104793 0.11383285 -0.0891522
000200 d6 0b 92 3d b1 08 3b bd 28 b3 4e bf ff 5d 83 be
       0.07131164 -0.045662586 -0.8074212 -0.2565765
000210 46 4c 89 be f8 b6 6e bd 3c 86 10 bc 22 b1 59 3d
       -0.26816005 -0.05827996 -0.0088210665 0.053147443
000220 c7 2c b4 be 17 50 22 bf 3d 22 a1 bb d5 f5 3c 3d
       -0.35190412 -0.6340346 -0.0049174116 0.04613288
000230 c4 fb 06 bf 05 93 21 bd 69 ad 8d 3e 1d 78 60 3e
       -0.52727914 -0.03944685 0.27671364 0.2192082
000240 60 b7 14 bf 71 2c 44 3e 9b c6 87 be 0f 5c 8f 3b
       -0.5809231 0.19157578 -0.2651871 0.004374988
000250 58 aa 35 be e4 ec be be 08 49 1d be 40 15 08 be
       -0.17740762 -0.37290108 -0.1535989 -0.13289356
000260 ab 3f 91 be 54 3f 82 3d 8e 83 2a be bd a1 e3 be
       -0.28368887 0.06359735 -0.16651747 -0.44459334
000270 0c c6 95 bd 5f e4 ad 3d 59 f7 e5 bd 9a 82 09 3e
       -0.07313165 0.08490824 -0.112288184 0.13428727
000280 7b c2 c4 3d f8 23 2a 3d c7 80 c6 bd c8 c9 6c bf
       0.09607407 0.04153821 -0.09692531 -0.92495394
000290 6d ee 5d be e0 e9 b4 bd f4 8a ef 3b 77 d3 9a 3e
       -0.21672983 -0.088336706 0.0073102657 0.3023946
0002a0 8d 4f 83 3e aa 86 bd be b3 06 e9 bd e1 07 54 bd
       0.2564663 -0.37016803 -0.11378231 -0.051765326
0002b0 9a 5a 16 be 07 65 f3 be a9 77 5a bd 1a ba dd bd
       -0.14682999 -0.47538015 -0.053336773 -0.10826512
0002c0 3a 2f fb be ae 9a 55 3e a7 cf ba 3e 5f f9 53 bf
       -0.49059469 0.20859787 0.3648655 -0.82802385
0002d0 14 a6 3e be bf 74 1a 3e 28 b1 da bd df 76 c9 3e
       -0.18618041 0.15083598 -0.10678321 0.39348504
0002e0 47 bd e1 3d d3 33 9a 3c b3 22 0b 3d 18 3e 1b ba
       0.1102243 0.01882354 0.03396864 -0.00059220335
0002f0 e1 40 17 bf 3b 93 b2 be cd 90 05 be 1e 1f 89 be
       -0.5908337 -0.34877953 -0.13043518 -0.26781553
000300 b1 b9 08 bf 80 56 79 3c a1 a4 39 3d 93 ab db 3d
       -0.5340834 0.015218377 0.045323018 0.107260846
000310 f0 33 9c be 9e 1b 8f be 48 cd 03 bf c7 e6 c6 3d
       -0.30508375 -0.27950758 -0.5148511 0.09711986
000320 7e e2 ab be b8 4d 60 bd 8a 12 2c be 27 a4 9c 3e
       -0.33571237 -0.05476162 -0.16803947 0.30593988
000330 b0 b5 35 3e de 54 01 be f7 3c 45 be 44 d8 8f 3e
       0.1774509 -0.1263003 -0.19261537 0.28094685
000340 16 c9 56 be 7c 57 b6 be 05 77 69 be 4e fb 61 3e
       -0.20975146 -0.3561362 -0.22799309 0.22068521
000350 07 50 ba be 46 26 2b 3d de e4 ef bd 84 be 92 3e
       -0.3638918 0.041784547 -0.11713575 0.28660977
000360 b5 a8 9c be 5d 5a e7 bd 6b 21 ec bd fd 49 a7 3d
       -0.30597463 -0.11296532 -0.115298115 0.08168409
000370 9e 93 9d 3e 87 47 6c be 5e 6f 6b 3d d8 5d 01 bf
       0.30776685 -0.2307416 0.057479255 -0.5053382
000380 75 e1 a0 be 09 5e 97 be 27 5d e8 3e 21 e2 ab bd
       -0.3142201 -0.2956393 0.4538357 -0.0839274
000390 7a 6d c8 be be fe 16 3c f1 b9 f1 3d 2c d9 a3 bd
       -0.39146024 0.009216009 0.11803044 -0.080004066
0003a0 58 fb 2e 3e 75 a6 b8 3d 39 2b 5e 3e 0e ab 50 be
       0.17088068 0.09016124 0.21696176 -0.20377752
0003b0 37 75 01 3e 3b b3 29 3e 7c 3a b7 be 13 72 4b bd
       0.1264237 0.16572277 -0.35786808 -0.049669337
0003c0 ab 69 bc bc 09 cc a0 be d6 77 9d 3e 8a fc a0 3e
       -0.022999605 -0.31405666 0.3075549 0.31442672
0003d0 13 04 6b be ef 88 c6 3c 4e 1d 16 3c 14 fe 55 bd
       -0.22950773 0.024235217 0.00916226 -0.05224426
0003e0 cd fd b6 bc c2 fa c6 bc 88 9d 59 3e b0 93 80 be
       -0.022337819 -0.024289493 0.212515 -0.25112677
0003f0 75 b0 20 be 01 32 3b be 4d 79 e0 be fe 51 17 3e
       -0.15692313 -0.18280794 -0.43842545 0.14777371

policy_net.4.bias f4 [128]
000000 ae d9 1d be 70 88 bd bd 93 1b 41 3d 4a 32 ee bd
       -0.1541507 -0.09254539 0.047145437 -0.116306856
000010 00 3c b1 bd e1 5e 72 3d 30 e6 e8 bc 6b b7 02 be
       -0.08654022 0.059172515 -0.028430074 -0.12765281
000020 18 a3 9d bd cd b2 df bd 67 8c eb 3d 59 0d 97 bb
       -0.07697123 -0.109227754 0.11501389 -0.0046097455
000030 8c 5f 53 3d 78 af 2b be 2e ef e7 3b bc 71 cb 3d
       0.051604792 -0.16766155 0.007078073 0.099338025
000040 19 f7 5d 3b f6 ff 1c 3a da 06 d8 bd e9 0d 33 bc
       0.0033869206 0.0005989069 -0.10548182 -0.010928609
000050 ba 50 bf bd 68 a7 33 bd e7 f9 49 be b4 bf 87 be
       -0.09341569 -0.043860823 -0.19724236 -0.26513445
000060 69 1f 10 be 0a 49 25 3e 11 8f 94 bd 9f 5d 84 bd
       -0.14074482 0.16141143 -0.0725385 -0.06463169
000070 5d d8 88 bd d7 b0 b1 3d b8 57 c0 3d fd 20 d6 bd
       -0.06681893 0.08676308 0.09391731 -0.10455511
000080 fd 23 07 3e af 22 1e 3e 54 80 66 3d ff f3 0b 3d
       0.13197322 0.15442918 0.056274727 0.03416824
000090 14 28 94 3d 1e 64 21 3e df c6 90 be 7e 6a 43 3d
       0.07234207 0.15760848 -0.28276727 0.04770898
0000a0 e5 63 78 3d da 22 e4 bd c1 4f 0d 3d 96 b3 ea 3d
       0.06064214 -0.1113946 0.034499887 0.114600345
0000b0 37 15 16 be 8d 41 f5 3d ac f4 18 3e 7a 2f e5 bc
       -0.1465653 0.119753934 0.14937085 -0.02797674
0000c0 12 f8 a2 bc df 57 38 be 25 0a b7 bd 10 89 29 3e
       -0.01989368 -0.1800227 -0.08937482 0.16556191
0000d0 c2 21 8b be 96 a8 8e 3d 47 f1 4f 3d 01 d6 62 be
       -0.27174193 0.06965749 0.05076721 -0.22151949
0000e0 95 fc 99 bd 9b 5c 7c 3d 1f f7 1b 3d d4 f4 58 3b
       -0.07518879 0.061611753 0.03807747 0.0033104913
0000f0 ff 86 26 be 58 09 e6 3c b5 25 b4 be f8 42 57 3d
       -0.16262434 0.028080627 -0.35185018 0.0525541
000100 23 61 10 bd ce 3f 0b 3d 02 f3 8e be ef 08 eb 3d
       -0.035248887 0.033996396 -0.27919775 0.11476313
000110 5f e8 29 be 49 11 26 be 8e 48 31 bd a9 f7 6e be
       -0.16592549 -0.16217531 -0.043282084 -0.23336662
000120 e6 67 65 3e 25 81 a8 ba a8 9c 09 3e f0 2a 0a be
       0.22402915 -0.0012855871 0.13438666 -0.13492942
000130 2c 9a 4e be 2a dd 56 3e ed 4d 39 3e d8 31 8e 3d
       -0.20176 0.20982805 0.18096133 0.06943101
000140 bc f7 fd be f0 c2 06 be 13 66 a4 3e 21 a6 3e be
       -0.4960307 -0.131603 0.32109126 -0.1861806
000150 3e 28 af bd 03 b0 00 bd a5 87 83 bd 68 5d 34 3e
       -0.085525975 -0.031417858 -0.064223565 0.17613757
000160 6d 92 81 be 7a af 29 3d cf 9c 9f bd 4e e4 41 be
       -0.25307027 0.041427113 -0.07793581 -0.18934748
000170 bd eb e1 bd 84 86 0b bd f8 89 94 be a5 ee 02 3e
       -0.11031292 -0.03406383 -0.29011512 0.12786348
000180 02 e8 57 be dc 73 8e 3d 98 fc 1a be 6c 01 60 3d
       -0.21084598 0.06955692 -0.1513542 0.054688856
000190 f3 ba 55 3e 1d 20 fd 3d b1 d3 11 3d 33 f6 8c bc
       0.20872097 0.12359641 0.035602275 -0.01720724
0001a0 6f f9 68 be d5 35 f3 3c 66 2e fc 3a a8 98 84 be
       -0.22751401 0.029688755 0.0019239902 -0.25897717
0001b0 9d c3 2d bb 83 94 a7 3d ed 25 e3 bd 65 cf c0 3c
       -0.00265143 0.08182623 -0.11091218 0.023536393
0001c0 b9 2c 87 bd c5 43 00 3e 53 4c d7 3d 99 ce 1f 3e
       -0.06600327 0.12525852 0.105126046 0.15606155
0001d0 9b ef 09 bd bb ab fc 3d 1c 3d c6 bd ac c7 6c 3e
       -0.03367577 0.123374425 -0.096796244 0.23123044
0001e0 29 93 33 be 00 5e 18 3e d8 52 9b bc 0a 9c 85 3d
       -0.17536606 0.14879608 -0.018960401 0.06523903
0001f0 06 d7 37 be af cb 36 bd 40 3f 2b 3d 81 59 b4 bd
       -0.17953119 -0.04462784 0.041808367 -0.08806134

policy_net.6.weight f4 [64, 128]
000000 3e 29 2b be a7 54 8e 3e 64 cf a5 3e 10 63 24 bf
       -0.16714951 0.2779896 0.3238479 -0.6421366
000010 37 8f 1d be d5 a3 c6 bd 2f 56 dd 3c 29 2b 1a 3e
       -0.15386663 -0.09699217 0.027018635 0.15055527
000020 98 61 85 3e 13 98 4c be b5 1f 79 be ca 0d f2 bd
       0.2605102 -0.19979887 -0.24328502 -0.11819036
000030 e3 1a 5b be 38 cd 81 be b7 ab 91 be 81 59 b3 bb
       -0.21396975 -0.25351882 -0.2845132 -0.005473316
000040 b1 32 53 3e bb 0e 38 bc 06 2d 9f bd 5e ec 01 3e
       0.20624806 -0.011233981 -0.077722594 0.12687823
000050 14 c1 77 3e 81 fc 63 bc 7c 98 5f 3e 07 ad 26 3c
       0.24194747 -0.013915182 0.21835512 0.010173089
000060 e9 df c0 be 4d e1 89 3e 60 5e 95 be 8f 26 da 3e
       -0.3767083 0.26929703 -0.29173565 0.42607543
000070 ab dd 19 3e b8 24 5c bd 37 0c 0f bf 94 f7 83 be
       0.15025966 -0.053745955 -0.55878013 -0.25774825
000080 04 8f bd bc 55 17 9f be c9 8f a4 be d8 b5 98 bc
       -0.023139484 -0.31072488 -0.3214095 -0.018641397
000090 a3 17 ca 3d 3e 93 2b bf 3f 18 a7 bd af 2d 93 3e
       0.098677896 -0.6702155 -0.081589215 0.2874579
0000a0 54 2f b1 3d c9 8f d0 be b5 ea 14 3e e9 ac d9 3d
       0.08651605 -0.407347 0.14542659 0.10628683
0000b0 d1 c6 b7 be f6 92 8b 3e 5f 72 bf bd b1 71 e5 bc
       -0.35893872 0.2726056 -0.093479864 -0.028008314
0000c0 70 ba 5c bd e9 75 b7 3e e4 25 cd be 26 13 af 3d
       -0.05388874 0.35832146 -0.4006797 0.08548574
0000d0 82 f4 7a 3e 85 56 61 bd 10 5f 2b bd 60 c9 32 3e
       0.24507335 -0.055014152 -0.041838706 0.17459631
0000e0 96 d7 98 3d 0e a0 ba bc f5 8a ca 3e 69 00 5d bd
       0.07462995 -0.022781398 0.3955914 -0.05395547
0000f0 ff 22 85 3e f5 8e 7f 3e 5d 93 b5 be 6a a9 73 bd
       0.26003262 0.24956878 -0.35463992 -0.059487738
000100 26 c1 99 be 46 de c3 3d cb 66 15 bd 43 4e eb 3c
       -0.30030173 0.0956388 -0.036474984 0.028723842
000110 0d 19 c7 bd 0b 08 da be 5e f2 89 3d e6 16 da be
       -0.09721575 -0.4258426 0.06735681 -0.42595595
000120 e0 70 5f 3d 99 ad 5b bd 95 6d 3e bf 49 6b 17 3e
       0.054551005 -0.053632353 -0.7438596 0.1478702
000130 ac a4 35 be f3 68 c1 be b2 7a 90 be 22 d3 6d be
       -0.17738599 -0.37775382 -0.2821861 -0.23225072
000140 e8 95 6d 3d b5 3d 0e 3d f0 2a 6d 3e ec 00 8e be
       0.05800429 0.034726817 0.2316091 -0.27735078
000150 e6 61 f3 be b8 cf 71 be 7a a5 9b 3e fa d7 af be
       -0.47535628 -0.23614395 0.30399686 -0.34344465
000160 cf 21 e5 3d 3c 08 41 be f8 ec 46 3d 2b 4b d0 be
       0.11188089 -0.18850797 0.048565835 -0.4068235
000170 3b a3 7c bd 2e a5 ac bd 5e 6e e6 3d 60 6f 65 bf
       -0.061679106 -0.08429943 0.112515196 -0.8962307
000180 40 b8 15 be a9 a1 50 3d c0 67 46 be 74 72 8a 3d
       -0.14621067 0.05093542 -0.19375515 0.067601115
000190 b1 2a 46 bf 1c 27 06 3e 29 e2 b7 bb 00 30 d0 bb
       -0.7740889 0.13100857 -0.005611677 -0.0063533783
0001a0 4c c7 96 be d0 53 05 be 09 8b 19 3d c1 1a 20 bd
       -0.29448926 -0.13020253 0.03748611 -0.039088015
0001b0 c8 8a 8b 3e c1 d8 d2 3d 81 15 75 bd 8f cf c3 be
       0.2725432 0.10295249 -0.05983496 -0.38244292
0001c0 d0 f3 52 be e8 25 b2 bd 69 54 94 bd f7 37 22 bf
       -0.2060082 -0.08698636 -0.072426625 -0.63366646
0001d0 4a 1a fc 3e 06 c1 0a bf 48 1b 22 bf 03 c2 73 bd
       0.49238807 -0.5420078 -0.6332288 -0.059511196
0001e0 35 8b 0f bd 73 85 2c 3e 52 8e b0 bd dc c3 3d 3e
       -0.035044868 0.16847782 -0.086208954 0.18531746
0001f0 4d 1a 04 be 4e 46 94 be bd 55 c8 be 96 7d ca bd
       -0.12900658 -0.28959888 -0.39127913 -0.09887235
000200 44 34 0d bd 84 06 33 3c 43 02 19 be 59 6a 98 bd
       -0.034473673 0.010926846 -0.14942269 -0.07442159
000210 95 9d 98 be 6d a0 89 3e f4 7b e2 3c 14 db a4 bd
       -0.29807726 0.26880208 0.027646996 -0.08049598
000220 89 1c 9e be cb aa 45 3d 26 47 89 3d c5 48 44 3d
       -0.30881146 0.048258584 0.067030236 0.04792096
000230 81 5d 2f be b8 ae fb bd 13 43 00 3e 89 64 8d 3e
       -0.17125513 -0.12289184 0.12525587 0.27615765
000240 db a9 17 3e a2 7f 1e be 3a 9d 58 3d db 47 45 3d
       0.14810888 -0.15478376 0.052884318 0.04816423
000250 56 8b dd bc 54 47 9a 3e 9e e1 75 3d a8 4a f5 be
       -0.02704398 0.30132544 0.06002962 -0.4790852
000260 a9 3e 6d bf 56 3e 23 bd fd 7a 2c bf 49 31 12 bf
       -0.92673737 -0.03985437 -0.67375165 -0.57106453
000270 69 7d 3b 3e e7 27 4f bc b0 88 ee bd aa a8 f4 be
       0.18309559 -0.012643791 -0.11647165 -0.4778493
000280 81 2d 9d bc 87 71 16 3d 15 93 f1 bb 9b ad a9 bd
       -0.019186737 0.03672936 -0.00737227 -0.08285066
000290 be 90 45 bd 3d 1b 06 3d 2b 0f ec 3c dc 95 59 3e
       -0.04823374 0.03274082 0.028815826 0.21248573
0002a0 ec 57 23 be 47 0b 25 3e 31 e4 a0 3d 37 80 57 bf
       -0.15951508 0.16117583 0.07856024 -0.84180015
0002b0 e7 90 b4 be 2d 6d 18 3e a5 25 10 be 59 1f b8 bc
       -0.35266802 0.14885397 -0.1407686 -0.022475885
0002c0 f7 2f 06 be 86 a1 36 3b 04 4b ea bd be d4 70 3e
       -0.13104235 0.0027867272 -0.11440089 0.23518655
0002d0 dc d9 1f 3d b8 bc 42 bc ca 40 37 3d b5 05 0d 3e
       0.039026126 -0.011885814 0.044739522 0.13771708
0002e0 c7 62 4a be 77 a2 24 3e 7f 0f 45 bd 22 6b 40 bc
       -0.19764243 0.160776 -0.04811048 -0.011744292
0002f0 6b fa 84 3c 72 ec 96 bd e7 e3 42 bd 40 7f e0 3c
       0.01623269 -0.07369317 -0.047580626 0.027404428
000300 8a ab 17 bd 68 fc 86 be 3b 72 77 3e 2a 7a cf 3c
       -0.037028827 -0.26364446 0.24164669 0.025326807
000310 78 57 38 bf 1b 9e 2a bc 1e 51 e3 3d dd 58 a5 3e
       -0.72008467 -0.010413672 0.11099456 0.3229436
000320 11 82 53 3e 1a a2 24 bf 66 56 9c be 7f 40 5a be
       0.20655085 -0.6430985 -0.30534667 -0.21313666
000330 ef b3 60 3e 90 7e 42 3e 14 e7 07 bf 89 00 58 bc
       0.21943639 0.18993592 -0.5308697 -0.013183721
000340 01 58 6a 3d 5d c6 da bd 66 f6 51 be 3d 19 eb bd
       0.057212833 -0.10682366 -0.2050415 -0.11479423
000350 0d 52 fa be 6d 5b 17 3e b1 fe d3 ba 08 5b 00 bf
       -0.48890725 0.1478097 -0.0016173926 -0.501389
000360 ac c5 f7 3d b6 5c b4 3d bd c2 07 be b9 68 c9 bd
       0.1209825 0.08806746 -0.1325788 -0.098344274
000370 c0 01 0e 3b 2a b5 9a 3e bd 54 0a 3d b8 39 39 be
       0.0021668524 0.30216342 0.03377222 -0.18088424
000380 6a af 5d 3c f4 41 f0 bd 94 57 0b 3e d9 5c 83 be
       0.0135305915 -0.117313296 0.13607627 -0.25656775
000390 aa 7d 79 bd 96 e7 49 3e 4b 19 b3 be b6 7c e3 3d
       -0.06091086 0.1971725 -0.34980235 0.11107771
0003a0 f1 22 82 be e1 22 fc 3d 7c eb ce 3c df ef d5 3d
       -0.25417283 0.1231134 0.025258772 0.104461424
0003b0 56 d4 7d be 31 f7 d6 3e 81 fc 8e 3d be 8d 36 3e
       -0.24788031 0.41985467 0.06981755 0.17827508
0003c0 75 4c 0a bf 88 06 8d 3d 2c 2a 84 bc d3 d6 e5 be
       -0.54022914 0.06886011 -0.01613339 -0.4489046
0003d0 dc 14 c6 bc 26 49 86 bc ac 1d 9c be 20 0f f5 be
       -0.024179868 -0.016392302 -0.30491388 -0.47863102
0003e0 ed 26 df 3c 00 ed 0a be 07 fe 81 3d 00 88 8d be
       0.027240241 -0.13566971 0.0634728 -0.27642822
0003f0 49 6d e2 3d d0 4d bb 3c 26 9f ac be 97 98 96 3e
       0.11056001 0.022864252 -0.3371517 0.29413292

policy_net.6.bias f4 [64]
000000 97 62 b8 bc 51 c5 8f 3e 92 0d 2d be ae ad 01 be
       -0.022507949 0.28080228 -0.16899708 -0.1266391
000010 56 6c cc be 6b 15 5a 3e 44 6a ff bd 55 55 ac bc
       -0.39926404 0.21297233 -0.124714404 -0.021036783
000020 f4 63 53 bd a7 47 13 3e 8d 9d a5 3e 8c 78 de bb
       -0.051608995 0.14382802 0.32346764 -0.0067892727
000030 d1 5d a2 3e 67 5c 0f 3e c2 d7 c8 3e be 73 77 3e
       0.317122 0.14000092 0.3922711 0.24165246
000040 e6 d7 e5 bd 5a aa e2 bd 9c 7b 04 3e cf 55 15 3e
       -0.1122282 -0.11067648 0.12937778 0.14583515
000050 22 58 dc bc 56 98 91 3e 0b 59 00 bd 9a 3a 7f 3d
       -0.026897494 0.28436536 -0.031334918 0.062311746
000060 3e 33 03 3e 23 fa 72 3e 62 46 a0 3e b5 10 6b bc
       0.12812516 0.23728232 0.31303698 -0.014347245
000070 e2 c7 87 3e 08 54 14 3e a7 aa 51 3e b9 50 ab 3d
       0.26519686 0.1448518 0.20475255 0.08365006
000080 a0 c8 ea bd b0 8c 98 3e 90 1d ee 3d 06 72 50 3d
       -0.114640474 0.29794836 0.11626732 0.05088999
000090 71 d7 f3 3d 89 37 d6 3d 1e 43 68 3e 9c d5 ac be
       0.119063266 0.10459811 0.22681853 -0.3375672
0000a0 11 04 4d 3e 03 23 20 bd 2e d6 3c 3d 74 bb 44 be
       0.20021082 -0.03909589 0.046102695 -0.19212133
0000b0 8c 58 a1 3e a5 c4 cf 3e 83 41 8a bd 37 85 b5 3d
       0.31512868 0.40579715 -0.067507766 0.08863299
0000c0 8b b1 e7 bd cc 42 a9 be 18 04 73 be eb a5 aa 3e
       -0.113131605 -0.33058774 -0.2373203 0.3332971
0000d0 45 6f 71 be 36 4d 17 3c 6a dc 91 bd fa 2a 4b be
       -0.23577602 0.009234717 -0.07122119 -0.19840613
0000e0 b5 42 e5 3e 47 5b 97 3d 8d 29 7c 3d c3 22 6a be
       0.44777456 0.07390457 0.061563063 -0.22864823
0000f0 14 42 f6 3d f3 02 68 3e 64 8d 0c bd 46 76 0c 3e
       0.12024322 0.22657375 -0.034314528 0.13716993

policy_net.8.weight f4 [4, 64]
000000 c7 8f 07 be f0 da 74 3c 29 06 b8 be c3 37 dd 3d
       -0.1323844 0.014944777 -0.359422 0.10801651
000010 05 ae 2e 3e be d6 13 3e 29 5a 09 3b b6 eb 74 bd
       0.1705857 0.14437386 0.002095828 -0.059795104
000020 bb 2d 30 be 27 a5 33 3d 6d e4 dc 3c 9c 4c 3f 3e
       -0.17204945 0.043858673 0.02696439 0.18681568
000030 0d 20 b6 bd 78 a6 8f 3e c6 f6 4f 3d ca 39 ec 3d
       -0.08892832 0.28056693 0.05077245 0.1153446
000040 2b df d5 bc d7 fb 28 bd 11 82 a2 bd bd 09 0f 3e
       -0.026107391 -0.0412558 -0.079349644 0.13968559
000050 07 21 27 3e 71 be 10 3e b0 74 4a 3c d1 15 a9 3d
       0.16321193 0.14135148 0.012356922 0.08256114
000060 b3 a5 09 be e2 23 fc bd ac c4 46 3d 50 cc 06 3e
       -0.13442115 -0.123115316 0.048527405 0.13163877
000070 60 85 7e bd f9 17 01 be aa af 71 bd ed 79 84 bc
       -0.062138915 -0.12606801 -0.059005417 -0.01617142
000080 99 66 67 3d c0 7c b9 3c 8d c0 97 bc c8 4c dd bd
       0.05649433 0.022642493 -0.018524433 -0.108056605
000090 73 8c f0 3d a1 f9 7b 3d 6b fa 0f bc 46 49 ee 3c
       0.117455386 0.06151736 -0.008787732 0.029087674
0000a0 1c 2e 03 3e b3 31 20 be 1b af 08 bd c5 89 80 bd
       0.12810558 -0.15643959 -0.03337012 -0.062762775
0000b0 9b be 68 bd a1 70 9b bd 83 c3 0b 3e 1b ad 93 3b
       -0.0568224 -0.07589842 0.136488 0.0045067198
0000c0 cf ba f4 bc c5 ab 13 3e 4a c8 91 bd bd 1e ab 3c
       -0.029874234 0.14420994 -0.0711828 0.02088868
0000d0 7e 29 94 3e c4 1e 65 3d 79 4e b2 bd 11 22 1f be
       0.28937906 0.055937544 -0.08706374 -0.15540339
0000e0 43 59 2a be 7a aa 9a 3d bb ae 8a 3d 68 17 8d bd
       -0.16635613 0.07552047 0.067716084 -0.0688923
0000f0 ab a4 34 3e 26 6a b6 bd 46 9c 9e 3c 92 56 ce bc
       0.17640941 -0.08906965 0.019361626 -0.025187764
000100 9e f0 45 3d c9 f3 3f bd 44 cc 94 3e d8 8a 87 bc
       0.048325174 -0.04686335 0.29062092 -0.016545698
000110 6f 31 4c 3e fd 3b 1a 3e 1b 2b 47 bd ac 6a 85 bd
       0.19940732 0.15061946 -0.048625093 -0.06514487
000120 5f 45 87 3e 29 e5 dc 3c 46 db f1 bc ce 82 1b bd
       0.26420113 0.02696474 -0.029523503 -0.037966542
000130 93 f0 aa 3d b6 49 f6 3d 60 bc d0 3c c4 fb 4a be
       0.08346667 0.12025778 0.02548045 -0.19822603
000140 5e 66 88 3b 5e 8d a0 bd ac c9 ec bd 47 02 c5 bc
       0.0041625937 -0.07839464 -0.11561903 -0.024048937
000150 35 84 55 3e f2 6c 66 3d 67 0f 09 bd 69 dd a2 3d
       0.20851214 0.056256242 -0.033461954 0.07952387
000160 d2 ef 32 bd 63 32 b8 bd 5c 56 35 3d b0 a9 32 3d
       -0.04368574 -0.089939855 0.04427181 0.043618858
000170 dd ce 65 bd 01 88 01 be af e3 03 be 85 ab c2 3d
       -0.056105483 -0.12649538 -0.12879823 0.09505371
000180 7e 3b b9 3d 5a c3 05 3e 96 f3 f8 bd 62 e8 78 3d
       0.0904455 0.13062802 -0.12155835 0.060768493
000190 99 2d cd bc 2e 79 d9 3d 45 40 97 3d f8 ce 22 3e
       -0.025046157 0.10618816 0.07385305 0.15899265
0001a0 f5 18 bc 3d 8f 52 09 bd 3d 06 44 3e 9e d8 a1 bd
       0.09184448 -0.033526 0.19143005 -0.079026446
0001b0 7b 9b 11 be 0d b2 25 bd 81 34 95 3c 8b 32 78 3d
       -0.14219467 -0.040453006 0.018213512 0.060595077
0001c0 54 05 12 3d 8e 12 f5 bd 24 24 f3 bc 6e 6a b3 bd
       0.035649613 -0.1196643 -0.02968032 -0.08760534
0001d0 87 cd 4f 3e f8 59 c4 3d de a0 db bc b9 6b 64 bc
       0.20293246 0.09587473 -0.026810106 -0.013941699
0001e0 30 39 0a be b5 40 e7 bd 5b c7 d6 bd 8c 91 58 be
       -0.13498378 -0.11291639 -0.10487243 -0.21149272
0001f0 97 2e 69 3e 16 3c 5e bd 8c fe 3b 3e 71 68 ae 3d
       0.22771679 -0.05425652 0.1835882 0.08516014
000200 ed 54 be 3d ca 01 d7 3c 60 74 d1 bc 5e c9 cb bd
       0.09293542 0.02624597 -0.025568187 -0.09950517
000210 47 ff 6f be 7e dd 6d bd a1 c1 62 be 6d 7c bd 3d
       -0.23437224 -0.05807256 -0.22144176 0.09252248
000220 0e c7 0e 3e dd 68 b9 3d 60 fa 06 be d1 ea 7d bd
       0.13943121 0.09053204 -0.13181448 -0.061991517
000230 46 2c 1c 3e 6e bc 24 bd 07 e0 45 be 39 8f 6d bd
       0.15251264 -0.040218763 -0.19323741 -0.057997916
000240 35 54 b6 bd ff eb 0f be 8a f7 43 3b 36 bf 9b bd
       -0.0890278 -0.14054869 0.0029902183 -0.0760483
000250 b0 17 b4 be 00 f5 3a bc 54 c6 a1 bd 08 e9 8c bc
       -0.35174322 -0.011410952 -0.07899156 -0.017200962
000260 3c c7 14 3e 9c a5 2a 3e 3f f5 f0 3d 10 84 e5 3d
       0.14529127 0.16664737 0.11765527 0.112068295
000270 67 cf 02 3e ad 82 02 3e 18 71 cb bc 18 26 40 3d
       0.1277443 0.12745161 -0.0248342 0.04691133
000280 38 99 21 be e3 52 07 bd 7c d0 79 bc ac 3c d7 bd
       -0.15781105 -0.03303803 -0.01524746 -0.10509619
000290 d5 98 52 3e b3 9b 8f bd fb c8 63 3d 9a 95 90 be
       0.20566113 -0.07012119 0.05561159 -0.28239137
0002a0 af 91 a9 be a5 02 7d 3d 3d 3b 36 3d f8 bb 22 3e
       -0.3311896 0.0617701 0.044490088 0.15892017
0002b0 35 2e 15 3e 94 f9 87 3e 00 12 84 be a9 c9 8e 3d
       0.14568408 0.265576 -0.25794983 0.06972057
0002c0 58 12 1e 3e 60 6c 81 bd 9a f3 c6 bc 35 e9 4a 3d
       0.15436685 -0.06319499 -0.02428608 0.04953881
0002d0 23 6f 4f 3e 17 aa 83 bd 0b fa 84 3d 26 6e 23 3d
       0.20257239 -0.064289264 0.064930044 0.039899968
0002e0 20 1a 8d 3e 18 20 d9 bb 2a 3f bc bb cd 91 11 3e
       0.27558994 -0.0066261403 -0.0057448344 0.14215775
0002f0 68 60 a1 be ff db d4 3d 60 e2 ad bd 9a d8 fe 3d
       -0.31518865 0.103935234 -0.08490443 0.12443657
000300 4f 58 e4 bd 83 b9 12 be 1b 04 84 bd b9 dc 72 bc
       -0.11149656 -0.1432858 -0.064460956 -0.014823132
000310 42 26 4e 3d 47 fd cc bc 7c cf e5 3d a1 75 74 bc
       0.050329454 -0.025023116 0.11221215 -0.014920623
000320 a5 2d f6 bd fc 68 fd 3d 82 0c c1 3b 45 31 15 bd
       -0.12020425 0.1237354 0.0058913836 -0.03642394
000330 57 c7 0c 3d c6 08 d8 3a e6 7f e9 3d c4 f4 2b bd
       0.034369793 0.0016482107 0.11401348 -0.041981474
000340 f3 de 33 be d6 7a a9 3d 6c 03 58 3c 97 6b 13 3d
       -0.17565517 0.08275382 0.01318441 0.035991278
000350 d0 ea 10 be bf 49 30 3b d3 45 a7 bd 0d 5f 28 bc
       -0.14152074 0.0026899425 -0.08167615 -0.010276568
000360 ef 22 36 bc f7 4d 1c 3d f4 8b 27 bd 72 f4 c0 bc
       -0.011116727 0.03816029 -0.040904954 -0.02355406
000370 53 20 9a bd 50 43 f3 bc fd e2 3f 3c a6 d8 c8 3c
       -0.075256966 -0.029695183 0.011711833 0.024517369
000380 42 cf 47 3d d1 bb 93 3b b8 a2 47 3d fc 94 97 bc
       0.04878164 0.0045084734 0.048739165 -0.018503658
000390 f4 60 a7 3c 8a 66 09 bc 1b bf d5 bd 27 4a cf bc
       0.020431973 -0.008386264 -0.10436841 -0.025303913
0003a0 29 9c 86 3d e6 fe 67 3c db 68 01 3e 94 5b c8 bd
       0.06572754 0.014159894 0.12637655 -0.09783092
0003b0 52 17 4b bd 4f 52 4b bd bc 82 45 3c d2 83 8a bd
       -0.049582787 -0.049639042 0.012055095 -0.06763424
0003c0 ea 1f 5e bd f6 06 2d bd 4a 1f a1 bd a0 1d c5 bd
       -0.054229654 -0.042242967 -0.07867296 -0.09624791
0003d0 02 e7 1d 3d b1 e8 5d 3e b4 7d 94 3b 8a 71 75 3d
       0.038550384 0.21670796 0.0045315865 0.059922732
0003e0 ea 26 18 be 54 70 9f bc d3 d8 9c 3b 53 78 dc bd
       -0.14858595 -0.019462742 0.0047865896 -0.107651375
0003f0 1c 72 fb 3d 8a 25 ab bd ad 41 5d be cc c8 d0 3d
       0.12277624 -0.083567694 -0.21607085 0.10194549

policy_net.8.bias f4 [4]
000000 81 3e 4e 3d 83 74 8d bc 2c 6e e2 3d a1 bd 4f 3e
       0.050352577 -0.017267471 0.1105617 0.20287181
