IL/Model/model_reacher_67.pt (torch, 292527 bytes, 20 tensors)

policy_net.0.weight f4 [64, 24]
000000 d9 12 18 bf 7d b3 b4 bf 90 e6 a6 3e 5b ee 08 3e
       -0.5940376 -1.4117275 0.3259778 0.13372175
000010 2c 19 a5 3e 28 5b 59 be ee ef ca 3e 9b 06 7c bd
       0.32245767 -0.2122618 0.39636177 -0.061529737
000020 6a c0 42 3e 8c a7 00 3e 41 9c b1 3c 30 d0 6e bc
       0.19018713 0.12563914 0.021680953 -0.014576003
000030 74 cb c5 bd 06 33 8d bd 37 7f c4 3e fa 90 3b 3e
       -0.09657946 -0.068944976 0.38378307 0.18317023
000040 65 b6 84 3e 27 4a 9b 3d d5 e4 c4 be dd a1 33 bf
       0.25920406 0.07582503 -0.38455835 -0.7016886
000050 08 91 07 bf 27 15 82 bd 9e 71 76 3e 28 8e 27 3d
       -0.52955675 -0.06351691 0.24066779 0.040907055
000060 c5 dc 3b 3e 97 6b 6e bf 66 7b 5e be ca 63 d3 3e
       0.18345936 -0.9313292 -0.2172676 0.4128707
000070 8e ac 91 3e 64 05 87 3e 7e 9e 8b 3f d7 16 c6 be
       0.2845196 0.263713 1.0907743 -0.386893
000080 ff c3 10 be 82 de cb be da db c4 3e ac d4 29 3d
       -0.14137267 -0.39818197 0.38448983 0.041462585
000090 06 b5 15 bd 98 a6 c6 be b2 26 43 bd 02 3b 05 be
       -0.03654959 -0.38798976 -0.047644325 -0.13010791
0000a0 ec 54 2d be 2a c4 99 be 2d 00 ca be 70 0c 7e be
       -0.16926926 -0.30032474 -0.3945326 -0.24809432
0000b0 7e 9c af be 9c 28 01 3e 7d b0 ca bd 8b bf bd bd
       -0.34299082 0.12613147 -0.09896944 -0.092650495
0000c0 ab 26 06 3e 88 12 85 3f 9a bf ef be 52 b0 10 40
       0.13100688 1.039628 -0.46825868 2.2607617
0000d0 71 6a 4f bd 41 3f e4 bd df 0a be bc 9a 4e cc 3d
       -0.05063862 -0.11144877 -0.023198543 0.099759296
0000e0 1a 5f 21 3f a3 25 7e bd 99 ab f3 3d d0 d1 a4 bd
       0.6303574 -0.062047612 0.11897964 -0.08047831
0000f0 fd 4e fd 3e 47 75 df 3e e4 ef 8d bd 21 d6 05 be
       0.49474326 0.43644163 -0.06930521 -0.13069965
000100 f5 f7 f1 bd 2b 56 5f be 9d f5 09 3d fe 7e 0f 3d
       -0.11814872 -0.21810214 0.0336815 0.03503322
000110 ed 1a a3 3d 29 1d 51 3e 5e c8 01 be cc c3 73 be
       0.0796412 0.2042128 -0.1267409 -0.2380516
000120 55 9f 01 3f 1c 90 2e 3f 95 a1 f8 be 86 bc d2 bf
       0.50633746 0.68188643 -0.48560777 -1.6463783
000130 fe 25 cd 3e 42 9e 54 3e d7 cf c1 3e 45 2a f0 3d
       0.40068048 0.20763496 0.37853882 0.11726812
000140 c0 a2 c7 bd 01 66 0f 3e 44 80 2b be 54 42 3f bf
       -0.09747839 0.14003755 -0.16748148 -0.74710584
000150 b4 f9 89 bd e1 08 a7 bc 4c 58 09 ba fc 6f 9a bd
       -0.0673708 -0.020389976 -0.00052392925 -0.075408906
000160 1b c8 e1 bd 9d 92 84 bd 03 b6 0a be a3 fc d4 be
       -0.11024495 -0.06473277 -0.13545994 -0.41598997
000170 e8 f5 00 be 30 8b 84 be 70 d8 e7 bd ef ee b2 3d
       -0.12593806 -0.25887442 -0.11320579 0.08736979
000180 ba d4 b8 bd 78 b2 89 3e d2 ee 4f be dc 37 a7 3e
       -0.09024949 0.26893973 -0.20305946 0.32659805
000190 8c 20 47 bc 77 16 1f 3e a8 9c a8 3d 93 70 b7 3d
       -0.012153756 0.15535913 0.08233005 0.08957019
0001a0 7a 31 ad bc ad 4d 4c be 37 19 56 be e9 46 04 3f
       -0.021141756 -0.19951506 -0.20908056 0.516707
0001b0 d4 58 2c bf 25 96 3d 3c 7d 45 6e 3e 78 c7 2f 3e
       -0.6732304 0.011571442 0.23268695 0.17165935
0001c0 67 42 ce 3e 98 a3 af 3e 2d 33 45 3e cd 99 83 3e
       0.40285036 0.343045 0.19257803 0.25703278
0001d0 23 42 c0 bd 08 42 55 be 8d 5c 50 be e3 1c 7e bd
       -0.093876146 -0.2082597 -0.20347805 -0.062039267
0001e0 01 95 c7 be 30 2e 4d bf c8 2d e2 3e 03 d5 fc bf
       -0.38980868 -0.801486 0.44175553 -1.9752506
0001f0 47 9a 34 be 34 93 14 be ab b2 a2 3e ad 04 71 be
       -0.17636977 -0.14509279 0.31776938 -0.2353694
000200 3c dd 74 bf 12 74 a7 3e ae 60 9b be c3 41 9a bd
       -0.95650077 0.32705742 -0.30347198 -0.07532074
000210 6e e9 46 bd 67 08 57 be 5e 80 18 3e 6d 26 20 3e
       -0.04856246 -0.20999299 0.14892718 0.15639658
000220 b3 47 50 3e bc b3 2a 3e d2 cb b3 3e ee 0c cd 3e
       0.20339851 0.16670126 0.3511644 0.40048927
000230 07 d9 54 3e 8a f9 c0 3d af 87 1e be 1c 5e 87 bc
       0.20785914 0.09422596 -0.15481447 -0.016524367
000240 69 0f a9 be 1a 77 86 40 42 34 3f 3e 1e be 65 bf
       -0.3301957 4.202039 0.18672279 -0.8974322
000250 85 e3 d1 be 4d ea 00 3f 4d 38 e9 be 2e d5 80 3e
       -0.40993896 0.50357515 -0.45550767 0.25162643
000260 a9 c7 0b 3e fc aa 24 bd dd 2c 8f 3e 92 fb fc bd
       0.13650383 -0.040202126 0.27963915 -0.12352671
000270 9d 84 b2 3d cc 63 00 3e f0 91 de 3d 74 91 b8 bd
       0.087167 0.1253807 0.10867679 -0.09012118
000280 15 e8 55 3e 23 66 80 3e 04 35 94 3d 6a cf a3 3e
       0.20889314 0.25077924 0.072366744 0.31994182
000290 72 91 3a 3e 14 f8 0c be 5c d4 c7 be 6a 70 32 be
       0.18219545 -0.1376651 -0.39029205 -0.17425695
0002a0 79 69 a3 3c 02 61 0d 3f fc 33 4c 3f f8 91 d3 3f
       0.019947754 0.5522615 0.7976682 1.6528921
0002b0 d3 df 41 be f3 16 6a 3e 7b 7b 33 3e f4 9e f4 bd
       -0.18933038 0.22860317 0.17527573 -0.119443804
0002c0 93 56 34 3e 23 05 e3 be 40 92 28 3c 27 aa b1 3e
       0.1761115 -0.44339857 0.010288775 0.34700128
0002d0 b5 1b 89 be 5c 71 f1 38 c6 66 69 be 02 8a 5e bd
       -0.2677895 0.0001151289 -0.22793111 -0.054330833
0002e0 13 8e 0a be a5 b3 2d 3e e7 f4 20 bd 9b 77 1b bd
       -0.1353076 0.1696306 -0.039296057 -0.03795586
0002f0 90 37 11 3e 80 cf 6e be 28 27 3b bc 7f d9 be 3d
       0.14181352 -0.23321342 -0.01142291 0.09318828
000300 4f 07 7f 3f 8d 5f 1e 3e 42 8b 17 bf e4 26 08 bf
       0.9962053 0.15466137 -0.59196866 -0.5318434
000310 04 b0 c0 bd 81 df 8b 3e 38 18 88 be c8 2f 47 3e
       -0.09408572 0.27318957 -0.26580977 0.19451821
000320 08 aa b1 3d 20 8c b0 3e 05 47 01 bd 2e e2 f5 3d
       0.08675009 0.34481907 -0.03156187 0.12006031
000330 f4 e7 74 3d 8f 79 ed 3d 0a fd 47 be cc 4a 68 bd
       0.05979152 0.11595451 -0.1953012 -0.056711957
000340 a9 a3 d4 bd 18 a3 51 be ea 7e b6 3d 41 7c eb bd
       -0.10382778 -0.20472372 0.08910926 -0.11498309
000350 6c 22 bd 3c fd 0e b5 3d a5 78 91 bd 9a 9b 72 3e
       0.023087703 0.088407494 -0.07103089 0.2369217
000360 97 23 94 3e 6e 95 cc 3f 6e de 4b 3e 30 3c d5 bf
       0.28933403 1.5983102 0.19909069 -1.6658993
000370 55 35 e7 be e5 e6 95 3e 1a ed 7f be 31 19 bb 3d
       -0.45157877 0.2927772 -0.24992791 0.09135664
000380 8b ae 13 3d 12 ec ec 3e b6 4b 12 3f 83 8d 9b be
       0.03605513 0.46273857 0.57146776 -0.30381402
000390 83 9e 17 be 57 7d a0 be 70 07 b0 3e f5 33 82 3e
       -0.14806561 -0.31345627 0.34380674 0.25430265
0003a0 6d 1d 5f 3e 5c 16 9c 3d 42 0d 17 3e 0a 9d 81 be
       0.21788569 0.07621452 0.14751151 -0.25315124
0003b0 5b 56 e3 be 7a 0e a3 be ca 21 ea bd 7e 79 81 3d
       -0.44401821 -0.31846982 -0.11432226 0.06322001
0003c0 64 ea 2f 3f cd 03 fb 3f 57 d1 b4 3e 70 dd 8e bf
       0.68717027 1.9610535 0.35315964 -1.1161327
0003d0 04 1d aa 3e 8f bc 47 3e 8a dc 15 bf 23 1f 42 bd
       0.33225262 0.19505523 -0.5853964 -0.047392976
0003e0 65 ac 8c be d8 f1 08 3f 1a 1b bb 3e e6 f7 2f bd
       -0.27475277 0.53494024 0.36544114 -0.042961024
0003f0 3e 15 47 3e d8 8c 3a 3e ea 93 ee be 4e 2c f1 be
       0.19441697 0.1821779 -0.46597224 -0.47104114

policy_net.0.bias f4 [64]
000000 a2 90 90 bd 78 4f 7e bd c8 2f 82 be 6b e3 90 bc
       -0.070588365 -0.062087506 -0.2542708 -0.017686566
000010 4a 7d 13 3e 2d 27 a2 be 90 16 fb 3d fa ca dc bb
       0.14403263 -0.31670514 0.12260163 -0.006738064
000020 0e 1f 3e 3e 8a 66 30 3e 6e 89 c5 bd e2 02 f6 3c
       0.18566534 0.17226616 -0.09645353 0.030030672
000030 3b 60 be be bd c6 af be e8 90 8f 3e 95 13 a1 3d
       -0.37182793 -0.34331313 0.28040242 0.07865063
000040 4c 8c 09 3e 79 44 92 3e 0f 90 e5 3d 76 2b 1d be
       0.13432425 0.28567865 0.112091176 -0.1534861
000050 4d b6 0b 3d 3d 69 a2 bd 2e c0 61 be db 1a 9f 3d
       0.034109402 -0.07930229 -0.22045967 0.07768794
000060 09 49 08 bd d8 99 80 3d 73 df 81 3e 17 63 9f 3d
       -0.033272777 0.06279343 0.2536579 0.07782572
000070 cc 16 37 3e ba 11 a4 3c 1e dd 02 be a3 2d 8e bd
       0.1787979 0.020027984 -0.12779662 -0.06942298
000080 d4 08 f2 3d 8a 33 76 3e 0e 67 b0 bd 28 83 a8 bd
       0.1181809 0.24043098 -0.08613406 -0.08228141
000090 29 cd b0 bc b0 d1 95 3c 4b ad fd bd 74 a1 86 3e
       -0.021582203 0.018288463 -0.12386569 0.26295054
0000a0 47 49 b1 3d bd e0 94 be 57 8c 89 3d e3 36 a0 bc
       0.08656555 -0.29077712 0.06716221 -0.019557422
0000b0 ab 19 49 be 15 e5 7d be 6c 3e a7 3e c6 12 92 bc
       -0.19638698 -0.24794419 0.32664812 -0.017831217
0000c0 71 fb 2c bc 1d 8b 4e 3e ab 9b 24 3e 22 5a 98 bc
       -0.010557995 0.20170255 0.16075008 -0.018597666
0000d0 fd c0 12 3e 90 54 7f 3e d6 15 1b 3d 01 65 96 3e
       0.14331432 0.24934602 0.03786262 0.29373935
0000e0 d3 1f 72 be d3 e1 be bb 7e 6b 29 be be 60 2d 3e
       -0.23644952 -0.00582526 -0.16544911 0.16931435
0000f0 ca 21 84 3e b0 24 7a be 23 23 26 be 92 1b 21 bd
       0.2580703 -0.24428058 -0.16224341 -0.039332934

policy_net.2.weight f4 [128, 64]
000000 2a b7 62 be cc da d7 3d 54 99 90 be e4 34 7c be
       -0.22140184 0.10539779 -0.2824198 -0.24629551
000010 b3 4c 91 3d 13 ba 95 3e f2 bb f8 3c b5 cb 62 3e
       0.07094707 0.29243526 0.030363057 0.2214802
000020 68 d9 b0 3d a8 42 fe 3d a6 d5 88 bd b2 86 1f bf
       0.08635217 0.124150574 -0.06681375 -0.62314904
000030 9e 0e 3b 3e 24 d4 7d be 06 bd 76 3d 52 1a 00 3f
       0.18267295 -0.24787956 0.06023886 0.5004016
000040 18 78 8a be 26 26 97 3b 80 4b 12 be 6f 32 9c 3b
       -0.2704475 0.004612702 -0.14286613 0.0047667543
000050 25 7c f2 bd 66 ac 0e be 51 8a 32 3e 7b 29 ce 3e
       -0.11840085 -0.13932952 0.17435576 0.40266022
000060 0a 62 58 3e 35 30 c3 be 24 94 c4 be 98 d1 11 3f
       0.21131149 -0.38122717 -0.38394272 0.5696044
000070 b8 a6 9e 3d c4 88 17 3e 5f 1b 39 bf 1c d9 27 be
       0.07746643 0.14798266 -0.7230739 -0.16391414
000080 fb b2 c8 be ba 5c bc 3c 4b 7b 13 bd 08 4a 26 be
       -0.3919905 0.022993434 -0.036006253 -0.16239178
000090 46 c2 42 3d ea 08 29 3e 8f ae 3a be c1 df a6 be
       0.047548555 0.16507307 -0.18230651 -0.32592586
0000a0 1f d5 f3 3d 71 d4 4d bf 4d 42 33 be 32 9a 86 3f
       0.11905884 -0.80402285 -0.1750576 1.0515807
0000b0 ba 11 1a be 75 a8 10 3e e7 9a 58 3d 01 72 3d 3d
       -0.15045825 0.14126761 0.0528821 0.0462513
0000c0 f7 2c 99 3d b0 c7 31 bf 73 f7 e1 bb fd a1 48 3d
       0.074792795 -0.69445324 -0.0068959533 0.04898261
0000d0 86 43 81 bd 6d 91 9f be e0 3c 96 3e 7d 86 58 3d
       -0.06311707 -0.3116564 0.2934332 0.052862633
0000e0 00 58 c4 bd ac 80 06 3d dd b2 90 3e 85 dd 22 3d
       -0.09587097 0.032837555 0.28261462 0.03976204
0000f0 00 30 6a be 6c 73 e2 bd 53 e3 1c 3e 65 3d 44 3a
       -0.22869873 -0.11057171 0.15321092 0.0007485955
000100 40 8e 17 bf 00 e4 0b 3f 2c 06 8d 3e 81 19 46 3e
       -0.5920143 0.54644775 0.2754377 0.19345666
000110 e5 c6 03 c0 61 f8 65 be 1e ea 98 3e 69 74 15 bf
       -2.0590146 -0.2245803 0.29866117 -0.5838075
000120 2f 21 63 bc 0d 15 8f bc a9 74 e8 bb ce cd 2e be
       -0.013862892 -0.017466092 -0.007093985 -0.17070696
000130 e0 f2 a7 3d 20 5c 30 3e 08 2f 5d 3e b3 bf 1c 3e
       0.082006216 0.17222643 0.21599972 0.15307502
000140 eb d9 23 be 1d f6 1b 3e 1d 8c 86 3e 31 cb a0 be
       -0.16001098 0.15230604 0.26278773 -0.31405023
000150 c7 c5 9e 3d e7 58 86 3e fd 6f 87 be fd 73 50 bf
       0.07752567 0.26239702 -0.26452628 -0.81426984
000160 0a 9b 74 be 1a 01 22 3d 7c 92 c1 3e 5f a1 9d 3e
       -0.23887268 0.03955183 0.3780707 0.3078718
000170 3f 41 9a 3d 16 53 d9 bd f3 8f bd 3c 3d 1e 42 bd
       0.07531976 -0.106115505 0.02313993 -0.04739212
000180 10 0a fb be 81 8b 11 be 5c 47 5c be db a5 02 3e
       -0.49031115 -0.14213373 -0.21511596 0.12758581
000190 e0 1a 9f 3e 21 e1 03 3f 9a df ae bd f4 6a a3 be
       0.31075191 0.51515394 -0.08538742 -0.31917536
0001a0 07 7d 0b bf 16 3c 44 be 46 eb a7 3d 2e 9e 3c bf
       -0.5448765 -0.19163546 0.08199172 -0.73678863
0001b0 ee dd 3d 3e e9 4a 18 3e e9 8c ec 3d b3 5f 28 3e
       0.1854169 0.14872326 0.11550314 0.16442756
0001c0 72 58 f6 3e 1e c6 19 3e da 67 09 bf 80 56 ce 3c
       0.48114353 0.15016982 -0.5367409 0.02518773
0001d0 fc 5a e2 3e 69 6b bd be 5c 7b c7 3c d5 d5 10 3e
       0.4421004 -0.3699601 0.024350815 0.1414407
0001e0 bd d9 a9 bc 6b 6c ab be 1f 25 27 be 5d b7 41 3d
       -0.020733709 -0.33481154 -0.16322754 0.04729401
0001f0 23 78 13 3d 22 e5 5d 3e 39 60 cf bd 19 42 97 bb
       0.036003243 0.21669438 -0.10125775 -0.0046160338
000200 cc 4b 84 be e1 0f 0b be 39 3f f7 be 8e e6 53 3e
       -0.25839078 -0.13580276 -0.48290423 0.20693418
000210 04 77 06 3e b6 9e 96 3e 84 4f 98 bd 83 58 d8 3d
       0.13131338 0.29417962 -0.074370414 0.10563757
000220 65 67 1f 3d 4d ac 8d 3e 9f f6 d9 bc a1 9a 09 bd
       0.038916964 0.27670518 -0.026606856 -0.03359473
000230 00 f0 67 be 0a f3 28 bf 51 58 09 3d 2f 33 d2 be
       -0.22650146 -0.6599585 0.03353149 -0.41054675
000240 f3 85 10 be a0 9f 46 3e 8c 1e f0 3e d7 76 ba be
       -0.14113598 0.1939683 0.46898305 -0.36418793
000250 b1 63 82 3d a0 e1 3f bd 03 fb bd 3d 1f ee d7 be
       0.06366671 -0.046846032 0.09276392 -0.4217386
000260 46 4d db be c2 d6 e4 3e 9a e9 1b 3c ff 7a 10 3e
       -0.42832392 0.44695097 0.009516144 0.1410942
000270 79 24 be 3e cc 5e 03 be 4c a7 c1 bd 6c 33 89 3e
       0.371372 -0.12829131 -0.094557375 0.26797044
000280 92 a5 73 3e 07 3d 9f 3c e0 e5 a4 be 49 a0 1c 3e
       0.23793629 0.01943828 -0.3220663 0.15295519
000290 c1 ce d1 3d df 81 de be fc e0 90 3e 66 e3 27 3f
       0.10244513 -0.4345846 0.2829665 0.6558136
0002a0 3e cb 6c 3e 17 a9 12 bf 48 13 21 be 64 85 c3 bc
       0.23124406 -0.5728926 -0.15730011 -0.023867317
0002b0 a4 36 db bd da 7d 1b 3e 9f 79 4a bd ea 55 ac 3d
       -0.10703781 0.15184727 -0.049432393 0.08414824
0002c0 c5 d3 9c bd a1 86 02 3e 5c 91 7b 3e 0d 2b a9 be
       -0.07657579 0.1274667 0.24567169 -0.33040658
0002d0 55 bd 8d 3e 9a 86 45 bd 12 ce 4c be a8 f4 85 3e
       0.2768351 -0.04822407 -0.20000485 0.2616322
0002e0 6a d0 1d bf ae df a6 bd a9 e8 55 bf e4 11 2a 3e
       -0.6164614 -0.08148132 -0.83558136 0.16608387
0002f0 c9 db ca 3e ad 48 bc be 65 6c 1d be 7c cd 1d bf
       0.39620808 -0.36774197 -0.1537338 -0.6164167
000300 7a ab fb be f1 02 f4 3e b8 f1 d9 be 0e 99 18 bd
       -0.49154264 0.47658494 -0.4256723 -0.03725534
000310 e1 94 57 be d0 b3 18 bd 90 20 c8 be 45 87 e7 3d
       -0.21052887 -0.037280858 -0.39087343 0.113050975
000320 53 70 3a 3e 82 23 e0 3e 99 a8 8d 3e 6e 3a 18 be
       0.18206911 0.4377709 0.27667692 -0.14866039
000330 10 d4 8c be 56 7a 34 3d 8d 07 84 3e 78 f2 cd bd
       -0.2750554 0.04406198 0.2578701 -0.10056013
000340 1d c7 d4 3d 82 d9 4e 3e 1a 76 72 bd 33 1f 05 bf
       0.1038954 0.2020016 -0.05919466 -0.5200073
000350 04 8e cf 3d 23 88 11 be 90 39 c9 bd 71 f7 21 be
       0.10134509 -0.14212088 -0.09825432 -0.15817048
000360 99 21 ec be 73 3b a4 3e 0b fa 42 be b1 78 e9 bd
       -0.46119383 0.32076606 -0.19040696 -0.11399973
000370 84 b3 9c be dd 50 c6 bc 6d ab be be 2e 21 17 bf
       -0.3060571 -0.02420848 -0.37240162 -0.59035003
000380 ce b3 4a 3f 73 96 82 3e 26 be 29 be bf 90 32 3e
       0.7918061 0.2550541 -0.16576442 0.17438029
000390 41 e6 b9 be 2b 25 c9 bc 92 43 30 3e 1b 1d fe be
       -0.36308482 -0.024553856 0.17213276 -0.4963158
0003a0 84 00 11 be 00 e5 02 bf 45 5b 08 3d a4 4b 0c bf
       -0.14160353 -0.51130676 0.033290166 -0.5480292
0003b0 98 ac c5 bd 3b 20 52 bf f1 31 ce be 1e 3c 42 3e
       -0.0965206 -0.8208043 -0.40272477 0.18968245
0003c0 35 99 18 bf 7e 7c 88 be a0 94 25 3f f1 57 de be
       -0.59608775 -0.2665748 0.6467991 -0.4342647
0003d0 88 8c 9c 3e 7d 4f ba 3e 76 c5 a8 3e d6 8f f9 3e
       0.30575967 0.3638877 0.3296315 0.4874255
0003e0 59 86 93 be bc b7 ab be e4 12 18 be bc 83 ed be
       -0.28813437 -0.33538616 -0.14850956 -0.46389568
0003f0 5a 59 95 be 12 ed 3a be 17 cf 08 3d c6 19 ad 3e
       -0.29169732 -0.18254498 0.03340062 0.33808726

policy_net.2.bias f4 [128]
000000 f8 5b b6 3d 6f 05 bc bd ee 41 26 3e ec 3f dd 3c
       0.089042604 -0.09180724 0.16236088 0.02700802
000010 fe 26 9f 3c 05 c9 9b 3d f2 19 32 bd 2b 10 a8 bd
       0.019427773 0.07606701 -0.043481775 -0.08206209
000020 28 a3 05 3d 36 21 16 3e ae 0a 75 be 3e f6 8d bc
       0.0326263 0.14661106 -0.23929855 -0.017329331
000030 de 05 7c bd f4 ae 25 be 49 e8 f1 3d a9 db 84 3d
       -0.061529033 -0.1618002 0.11811883 0.06487209
000040 08 55 c5 3d 49 64 8e be 8f 8a ee 3d 8e b4 62 3e
       0.09635359 -0.27810887 0.11647522 0.22139189
000050 39 7d 9f be 8b 05 9c 3c f3 36 4c be d1 c4 ec bd
       -0.31150225 0.019045612 -0.19942836 -0.11560977
000060 d2 d0 9c bc 54 c5 13 be e8 a4 d6 3c fc c3 e5 3c
       -0.019142542 -0.14430743 0.02620168 0.028047554
000070 6a e8 c6 3b 61 ba c6 bc ea a9 98 bd f1 f6 91 bd
       0.0060701864 -0.024258794 -0.074542835 -0.071271785
000080 22 34 0a 3a fd 7f e6 3c d0 18 a0 be 62 d4 8b be
       0.00052720506 0.028137201 -0.3126893 -0.27310473
000090 cf 9a 65 be 2d d3 56 3e f2 38 c3 3e 20 19 24 3e
       -0.22422336 0.20978995 0.38129383 0.1602521
0000a0 3e 64 b6 bd 2d 6c 97 be 53 d2 c1 3d 5d 69 6e 3d
       -0.089058384 -0.2957472 0.09463944 0.05820595
0000b0 85 14 7f be f7 29 d4 bd de 21 49 3c ca ff a0 3b
       -0.24910171 -0.10359567 0.012276141 0.004913305
0000c0 65 f3 34 3e a2 a7 a0 be a2 72 9d be 8d 6d 70 3e
       0.17670973 -0.31377894 -0.3075152 0.2347929
0000d0 c1 d2 fd bd 98 06 2f 3e 35 e9 25 bc d1 0d 2c bb
       -0.12393714 0.17092359 -0.010126402 -0.0026253352
0000e0 ef 4a 2b 3e dd 0d d4 3c 75 09 9e 3c 30 6a eb 3c
       0.16727804 0.025885517 0.019291619 0.028737158
0000f0 6e 71 44 be 05 ed 9b bd 2a b9 f8 3d 29 77 63 be
       -0.19183895 -0.07613567 0.12144692 -0.22213425
000100 5c 94 dd bd e4 12 30 bd ed e2 e2 bd b9 c9 4b be
       -0.10819313 -0.042986766 -0.11078439 -0.1990117
000110 59 6b 75 3d 6a 85 d5 3c 0b ff 49 be 11 75 4c be
       0.059916828 0.026064593 -0.19726197 -0.19966532
000120 69 23 4e 3e 75 dd d8 bc 68 36 53 3e 84 00 67 3e
       0.20130695 -0.026472786 0.20626223 0.2255879
000130 4d 17 37 bd 19 94 3d be 7c 41 c9 3d 10 c0 ec 3c
       -0.044699956 -0.18513526 0.09826943 0.028900176
000140 d9 99 1e bc 5c 6d df bc 9c ab 63 bc f1 78 46 3d
       -0.009680235 -0.027273826 -0.013895895 0.048455182
000150 6f 19 75 3c b8 58 3e bd 0e 04 05 bc c9 2c 4c bd
       0.014959677 -0.046471328 -0.0081186425 -0.049847398
000160 22 8b 14 3e 6a c0 64 3e b4 9e 85 3d c5 9a 9b 3b
       0.145062 0.22339025 0.06524411 0.0047486746
000170 b1 9c 85 be d6 5d 8c 3c 28 d7 f8 bd e7 16 f2 bd
       -0.2609611 0.017134588 -0.12150413 -0.118207745
000180 a3 e3 63 be e4 06 3c be 46 bc 2c be 3e b5 cc be
       -0.22254805 -0.18362004 -0.16868696 -0.39982027
000190 5a ce 0b 3d 10 1d 06 be 93 ef d7 bd b2 79 fc 3c
       0.03413234 -0.13097024 -0.10543742 0.030819748
0001a0 8b 30 07 bd de 24 91 be 27 c3 92 3b 54 a6 06 3d
       -0.03300528 -0.2834844 0.0044788304 0.032873467
0001b0 20 0d 68 be 11 10 e1 3c 87 b2 f9 bd 51 ec db 3c
       -0.22661257 0.027473481 -0.121922545 0.026846083
0001c0 bc f5 10 be df fe 96 3d c4 77 82 3d eb 06 91 bd
       -0.1415624 0.073728316 0.063705 -0.070813976
0001d0 41 c4 76 bd 54 e3 d2 3d 97 9d 80 be 82 4d 18 be
       -0.060245756 0.10297266 -0.25120232 -0.14873317
0001e0 28 09 0b 3d 42 16 a3 3d c1 6d 66 be 27 ed ad 3e
       0.03394428 0.0796323 -0.22502805 0.33969995
0001f0 55 78 a7 bd e3 21 3a bb e4 bd 1b 3e 29 bb 0e bd
       -0.081772484 -0.0028401546 0.15209156 -0.03484646

policy_net.4.weight f4 [128, 128]
000000 78 d9 d5 bd b0 ca a5 bc 04 7e f9 3d 9c 5d 14 bc
       -0.104418695 -0.02023825 0.12182239 -0.009055521
000010 33 0f fe bd fa 71 50 3e ac 3d 90 be b2 6b d9 3d
       -0.12405243 0.20355979 -0.28172052 0.106162444
000020 88 76 01 bf 61 bb 6b 3d 08 d4 f6 ba 14 2a d7 3d
       -0.5057149 0.057551745 -0.0018831501 0.10506073
000030 d9 c5 54 bc b5 44 85 3d 60 c0 25 3f 73 7b 9f be
       -0.012986624 0.065072455 0.64746666 -0.31148872
000040 3f 3f a2 be 27 25 f1 3e c6 40 89 3e 26 fb fa be
       -0.31688878 0.47098657 0.2680723 -0.49019736
000050 23 e7 a9 3e 68 e2 c7 3d 26 31 d5 3e b3 30 2e bd
       0.33184156 0.097599804 0.4163906 -0.042526912
000060 19 be 88 be 4b a9 02 bd 6c 48 82 bf 5d 33 fc 3e
       -0.26707533 -0.03189973 -1.0178351 0.49257937
000070 14 80 81 bd 53 07 f3 be c5 00 02 bf fc bd 56 be
       -0.06323257 -0.47466525 -0.50782424 -0.20970911
000080 74 16 00 bd 11 f1 20 3d 82 4a e3 3e 58 b0 30 bf
       -0.031271413 0.0392924 0.44392782 -0.6901908
000090 bb 39 01 be 97 04 ac be 2b 40 98 be 09 66 25 be
       -0.12619679 -0.33597252 -0.29736456 -0.16152205
0000a0 52 08 51 3e a8 f1 5d 3e c9 fd 0f 3e e7 11 1a 3e
       0.2041333 0.21674216 0.14061655 0.15045892
0000b0 e5 22 e2 be e6 de a9 bf 0c 00 21 be ba 2a 1d be
       -0.44167247 -1.3271148 -0.15722674 -0.1534833
0000c0 a9 02 99 3e 99 a8 fa 3e 08 ee fd 3e dc 16 61 3e
       0.29884842 0.48956755 0.49595666 0.21981376
0000d0 df 25 b0 3e d1 b1 b7 be 52 21 9b be b8 27 53 be
       0.34403893 -0.3587785 -0.3029886 -0.2062062
0000e0 d4 f2 b6 b9 71 07 02 bf bf 07 b2 be 02 6e d9 be
       -0.00034894666 -0.50792605 -0.34771535 -0.42466742
0000f0 01 6b ac 3d 04 4d 2a 3e 16 cc a3 bf 9b bd a0 bc
       0.08418847 0.16630942 -1.2796657 -0.019621661
000100 fe cc 41 bd 2f 30 b9 3e ba 5f 72 be b2 27 db 3b
       -0.047314636 0.36169574 -0.2366933 0.0066880817
000110 bc ae 63 be 4e ba f4 be c2 c1 c6 be e3 21 01 bf
       -0.22234625 -0.4779839 -0.388197 -0.5044233
000120 c0 e1 a7 be d7 01 9c bd 9f 95 50 be dc b2 32 be
       -0.3278942 -0.076175384 -0.20369576 -0.17451042
000130 d9 84 41 be a4 df de bd 83 30 8e 3e 95 3a b7 be
       -0.18898334 -0.108825 0.27771387 -0.35786882
000140 54 8b 85 3e 9c 66 ab 3e 7a 33 d5 3e cd 5f bb bd
       0.2608286 0.33476722 0.41640836 -0.09149132
000150 e2 f0 4d be 78 e7 c9 3e 4e 9a 1d be b9 9e a6 3e
       -0.20111421 0.3943441 -0.15390894 0.3254297
000160 a1 ba d4 bc 4d d2 13 bf b3 f5 43 3e f4 c5 bc bd
       -0.025967898 -0.5774277 0.19136696 -0.09217444
000170 d9 be b9 3b d7 8e a9 3e a6 c3 a5 be 4b 85 c7 3e
       0.0056685028 0.3311679 -0.3237583 0.38968882
000180 9c 3e 86 be db 88 72 3e 72 54 c0 bd fa d9 5f be
       -0.26219642 0.23685019 -0.09391107 -0.21860495
000190 65 f5 89 3d 6e 28 55 3e cc a9 58 3d 9a 7f 9e 3e
       0.067362584 0.20816204 0.052896306 0.30956727
0001a0 b8 b6 6f bd 00 8b 00 bf bf 3b 92 3e 43 07 51 3e
       -0.058523864 -0.502121 0.28561208 0.20412926
0001b0 dd 0c 2f 3e de e1 a9 be 0e fd a8 3b 6f df 9e bd
       0.1709475 -0.33180135 0.0051571196 -0.0775746
0001c0 0e 35 19 be 72 d7 c0 3d d4 14 78 be dd 80 d1 be
       -0.14961645 0.09416093 -0.24226695 -0.40918627
0001d0 56 9d a1 be 6b ed 75 bd f0 a3 ff 3c b8 a1 0e 3e
       -0.3156535 -0.060040873 0.031206101 0.13928878
0001e0 9a 29 88 3e 28 a1 e3 be 17 ad 18 bf 4a 39 f8 be
       0.2659424 -0.4445889 -0.59639114 -0.48481208
0001f0 81 f3 95 3d c7 00 f3 3e 45 ac 41 3d 2e 97 f7 bd
       0.07321835 0.4746153 0.04728343 -0.12089382
000200 27 f4 95 3d d9 0a a7 bd 0f f5 49 bf 14 d3 d9 be
       0.07321959 -0.08156366 -0.78889555 -0.42543852
000210 0c 31 77 be c5 a1 43 bd ee 77 3f be 67 d6 34 3e
       -0.24139804 -0.047761697 -0.18698093 0.17659913
000220 e8 63 d2 be 06 a9 0b bf a7 71 03 be e0 b2 ed 3d
       -0.41091847 -0.54554784 -0.12836324 0.11606383
000230 2c 19 f5 be 47 bf 7c 3d ca 0e 17 3f 43 bb 48 3e
       -0.47870767 0.061705854 0.5900694 0.19602685
000240 eb 74 37 bf fc 76 cf 3d c2 76 43 be 13 92 5d 3d
       -0.7166278 0.10130116 -0.19088271 0.054094385
000250 00 61 9c be 3c 35 e0 be 92 6c 64 be 48 a1 14 be
       -0.30542755 -0.43790615 -0.22307041 -0.14514649
000260 45 4a 01 bf 9c f5 98 bd e7 8f 29 be 6b 02 0a bf
       -0.5050395 -0.07468721 -0.165588 -0.5390994
000270 0e 89 2d be e6 ba b7 3d d6 3e 00 be 4d 16 3f 3e
       -0.16946813 0.08971195 -0.1252397 0.18660851
000280 5a fd 33 be 01 ce 9f bd d0 5c 05 be 50 d3 3d bf
       -0.17577115 -0.07802964 -0.13023686 -0.7415056
000290 56 62 ae 3c fe 01 02 be 0d e2 2c 3e 66 8b c3 3e
       0.021287125 -0.12696072 0.16883107 0.3819229
0002a0 4c ec 8c 3e 2a 18 3f be 6b cf d9 3d 55 98 22 be
       0.2752403 -0.18661562 0.10635265 -0.15878423
0002b0 db 49 c3 bd 82 83 e1 be 0a 89 72 bd a7 17 34 be
       -0.09535571 -0.44045645 -0.059212722 -0.17587148
0002c0 c4 ba 63 bf 8d f5 35 3e 2b 80 ed 3e 12 dc 86 bf
       -0.88956857 0.17769451 0.46386847 -1.053591
0002d0 9a 54 72 be 90 fc 73 bd c6 84 db be d5 89 99 3e
       -0.23665085 -0.059567034 -0.42874736 0.2998797
0002e0 de c2 91 3e 7f 73 47 3d 8d 1b e4 3d fe b0 b5 3d
       0.28468984 0.04869413 0.111380674 0.08871649
0002f0 8a 40 57 bf 5c 5b fd be 1b da 1b be 38 a1 58 be
       -0.84082854 -0.49483764 -0.1521992 -0.2115525
000300 9c cb 38 bf d3 f5 53 bc b6 6a 02 bd f4 6b 93 3d
       -0.72185683 -0.012937027 -0.03184005 0.07198325
000310 a8 f9 12 be 69 f5 d7 be 3c 97 87 be 55 00 d1 3d
       -0.14353049 -0.4217942 -0.2648257 0.102051415
000320 d0 39 a9 be 00 25 c3 3c 6c 52 34 be 36 cb 8e 3e
       -0.3305192 0.023821354 -0.17609566 0.27889413
000330 98 95 99 3e 41 54 1b 3e 17 e9 b1 be a0 7b b6 3e
       0.29996943 0.15168859 -0.34748146 0.35641193
000340 3a 33 ec be 8e 0f 00 be 46 ad bc be b0 9e d5 3e
       -0.46132833 -0.12505934 -0.36850947 0.4172263
000350 d2 02 87 be ff 5b f5 ba 08 cc d7 3b 2a 73 8b 3e
       -0.2636934 -0.0018719434 0.0065856017 0.272363
000360 8a 67 31 be e2 3a ae 3d 62 78 7d be d0 e2 f1 3d
       -0.17324653 0.08507325 -0.24752954 0.11810839
000370 7e a2 9b 3e 89 1b bc be a1 10 4c 3e 18 a6 2b bf
       0.3039741 -0.36739758 0.19928218 -0.67050314
000380 42 6f 40 bf 15 6b 11 bf 42 e3 da 3e aa 9b a8 bd
       -0.75169766 -0.5680402 0.4275151 -0.082328156
000390 c8 f1 d6 be df e8 7d 3e 8d 86 8a 3c 68 64 67 be
       -0.4198134 0.24795865 0.016909862 -0.22596896
0003a0 d2 ad c7 3e b3 4b e7 3d 87 89 85 3e be c8 8b 3d
       0.38999802 0.11293735 0.26081488 0.06825398
0003b0 41 1a 6b 3e 24 a9 93 3e 2f a4 94 be f8 a3 2b be
       0.22959234 0.28839982 -0.29031512 -0.16761768
0003c0 92 49 6f bd c5 54 82 be 2f 91 92 3e 12 ba 8a 3e
       -0.05841977 -0.254553 0.2862639 0.27095085
0003d0 ce ad 14 bf a4 9d 30 3e f9 26 d6 3d 0d 80 61 bc
       -0.58077705 0.17247635 0.10456652 -0.01376344
0003e0 20 60 a3 3d 14 d9 a1 3c 4c 49 43 3e e2 00 7f be
       0.07977319 0.019756831 0.1907093 -0.2490268
0003f0 69 f5 18 be c1 20 37 be 9e ef 7e bf e7 69 a4 3d
       -0.14937367 -0.17883588 -0.99584377 0.08028012

policy_net.4.bias f4 [128]
000000 b9 fe 55 be b1 b6 c1 bd 90 a1 2a 3d 15 7d 4e be
       -0.2089795 -0.09458674 0.041657984 -0.20164903
000010 86 46 a3 bd 15 1e e3 3d d5 92 94 bd 97 70 db bd
       -0.07972436 0.11089722 -0.072545685 -0.10714834
000020 8d d9 1b be 12 c8 cb bd 89 e3 ea 3d 1a 60 b4 bd
       -0.15219708 -0.0995027 0.1146918 -0.088073924
000030 26 96 19 bd 9f f4 9c be 5f 72 5f bc 66 ce a0 3d
       -0.03749671 -0.3065538 -0.013638108 0.078518674
000040 29 3e 25 bd c8 d1 ab bd ce ef ce bd d1 a1 db 3d
       -0.040342484 -0.08389622 -0.10104333 0.107242234
000050 9b 59 12 be 19 45 ff bd d8 47 6b be 2a 18 d4 be
       -0.14291994 -0.12464351 -0.22976625 -0.41424686
000060 c3 6d 53 be d3 0b 65 3e 62 26 8d bd c3 ad 20 be
       -0.2064734 0.22367792 -0.068920866 -0.15691285
000070 a7 df 63 be fb 36 49 3e 88 86 04 3e 02 b1 41 be
       -0.22253285 0.1964988 0.12941945 -0.1891518
000080 23 47 fd 3d 25 9c 53 3e 09 1f b7 3d b4 16 ba bd
       0.12367084 0.20665033 0.08941466 -0.090863615
000090 f9 8a 2d 3d f5 92 ae 3d 7a d3 e4 be af 59 e5 3d
       0.042368863 0.085241236 -0.44692594 0.111987464
0000a0 dd 5b e3 3d 7d f3 4a be 0f 57 68 bc ee 31 cb 3d
       0.11101506 -0.19819446 -0.014180913 0.09921633
0000b0 a2 16 44 be d1 66 3d 3e f8 06 0c 3e f6 92 cc bd
       -0.19149259 0.18496253 0.13674533 -0.09988968
0000c0 73 46 a1 bb 59 0c 98 be ad 2c e0 bd 25 9f 60 3e
       -0.0049217283 -0.2969692 -0.10946021 0.21935709
0000d0 2b 10 da be 9e 7b 84 3d 2c 3a 20 3e e8 aa d2 be
       -0.4259046 0.064688906 0.15647191 -0.41146016
0000e0 ab 10 25 be 90 c9 1d 3c 33 5b b5 3d 9e 6c b3 bd
       -0.1611964 0.009630576 0.088552855 -0.087609515
0000f0 14 59 ad be 29 75 c6 bd 0c 09 a5 be 9e 52 d0 3d
       -0.33857024 -0.09690315 -0.32233465 0.10172008
000100 c0 b8 89 bd c4 33 e7 bc d4 41 98 be 8e 1e e2 3d
       -0.067246914 -0.028222926 -0.29737723 0.11040984
000110 1e 56 77 be 8d 0f 92 be b6 95 a9 bd 83 ce d5 be
       -0.24153945 -0.2852749 -0.08280508 -0.41759118
000120 11 0b 94 3e 3f d8 9d 3a 0d 93 1e 3e 62 33 55 be
       0.28914693 0.0012042596 0.15485783 -0.20820382
000130 86 36 78 be 2a 79 81 3e 4c 5d 71 3e d1 73 ac 3d
       -0.24239549 0.25287753 0.23570746 0.08420528
000140 41 da 45 bf dd 71 49 be 5e aa f1 3e fb 19 64 be
       -0.77286154 -0.19672342 0.47200292 -0.22275536
000150 e7 93 3c be e3 53 00 bd 57 f8 b7 bd 72 81 5c 3e
       -0.18415795 -0.03133 -0.08982914 0.21533754
000160 61 9b d4 be 26 87 e5 3d f5 f1 8d bd b3 4a 85 be
       -0.41524795 0.11207418 -0.06930915 -0.26033553
000170 c2 3b 2a be 32 71 25 bd d4 00 ed be 9a b1 e0 3d
       -0.16624358 -0.040391155 -0.46289694 0.10971375
000180 a8 31 8b be e7 21 02 bd 1e 21 0f be 04 3a 3c 3d
       -0.27186322 -0.031770613 -0.13977477 0.045953766
000190 05 3f 65 3e 88 dc e9 3d 28 f3 18 bd e2 02 b6 3c
       0.22387321 0.11419016 -0.037341267 0.022218172
0001a0 ef 4b d1 be 46 f0 bf 3c db 6f a8 3d 37 84 d5 be
       -0.40878245 0.023430001 0.0822446 -0.41702434
0001b0 c9 cc 47 3d d6 63 eb 3d ba 78 37 be ec 2e ca 3c
       0.048779283 0.114936516 -0.17917147 0.024680577
0001c0 59 9e dd bd 67 ca 23 3e 6d 16 b6 3d 69 5c 1a 3e
       -0.10821218 0.15995179 0.08890996 0.15074314
0001d0 d5 a8 d6 bd b1 d9 1c 3e 0f 80 11 be a2 af 96 3e
       -0.10481421 0.15317418 -0.14209007 0.29430872
0001e0 94 9f 70 be fb de 22 3e 48 da f6 bc 4a f2 c7 3d
       -0.23498374 0.15905373 -0.030133381 0.0976301
0001f0 0e d2 57 be c8 49 10 bd 53 f5 cf 3c 63 77 20 be
       -0.21076223 -0.035226613 0.025385534 -0.15670542

policy_net.6.weight f4 [64, 128]
000000 41 ac a0 bd 4f 6b 3d 3e cd a0 a7 3e 6b 8b 3d bf
       -0.07845355 0.18497966 0.3273987 -0.7404086
000010 87 98 62 be eb 03 bd bd 59 46 c1 3e 12 c6 55 3e
       -0.22128497 -0.09229263 0.37748984 0.20876339
000020 b2 4c 0b 3d e3 58 d2 be 23 41 42 be 1c 0a c2 3d
       0.03400869 -0.4108344 -0.1897016 0.094745845
000030 57 ff 88 be 08 57 d8 be 8b 74 96 be ee 75 8f 3d
       -0.2675731 -0.422539 -0.2938579 0.07004915
000040 dc 94 ac 3e 8e 91 6c 3d 91 51 ce bd f3 ac d7 3e
       0.3370732 0.057756 -0.10074151 0.42124137
000050 f7 f0 cd 3e 63 1f bb 3d 15 ed 43 3e f1 a8 ce bd
       0.40222904 0.09136846 0.19133408 -0.10090817
000060 a7 20 1c bf 53 08 ac 3d 5b 43 14 bd 32 ec 1b 3f
       -0.60987324 0.08400025 -0.036197048 0.6090728
000070 7e a8 28 3e ee 04 0e bd 6a d3 f2 be f3 7a 8a be
       0.16470525 -0.03467267 -0.4742692 -0.27046928
000080 a7 d5 cb bd c6 8e 54 bf 6c bb 00 bf 08 ec 5f bd
       -0.0995286 -0.83030355 -0.50285983 -0.054668456
000090 33 58 3e bd 3a b5 21 bf 80 dd cc bd 41 d0 b8 3d
       -0.046470832 -0.63167155 -0.10003185 0.09024096
0000a0 79 8d 8a 3d d4 2d bd be 9b 4b 3f 3e e0 d0 82 3d
       0.06765265 -0.36949027 0.18681185 0.06387496
0000b0 0a cf f7 be f4 cd af 3e c2 77 44 bd 15 f2 03 bc
       -0.48400146 0.34336817 -0.047965772 -0.008053322
0000c0 02 ec 63 bd 14 58 45 3f ac e4 cf be f5 6a 0b 3e
       -0.055644996 0.7708752 -0.4060415 0.1361502
0000d0 3e 5b ae 3e ca cd 44 3c e0 6d d5 3d c8 01 eb 3d
       0.34053987 0.012011955 0.104213476 0.11474949
0000e0 ad 07 04 3e 05 bb 97 bc 7f b0 07 3f d2 c0 88 bd
       0.12893553 -0.018521795 0.53003687 -0.066774026
0000f0 d9 95 a7 bd 53 d8 11 3e bc 7d 83 be 0a fc d8 3d
       -0.08182878 0.14242677 -0.25681865 0.10594948
000100 74 7f ae be 57 2b 0a 3d 48 b0 44 be d5 cb 00 3e
       -0.34081614 0.03373274 -0.19207871 0.12577756
000110 bf 51 5e 3d a9 bb bc be 48 d9 8e 3d 80 d3 3d bf
       0.054277178 -0.36861923 0.06975037 -0.7415085
000120 88 97 24 3d 4d 16 d0 3d 2d 72 3a bf 43 2b 37 3d
       0.040183574 0.101605035 -0.7283047 0.044718992
000130 74 04 55 be 87 b5 10 bf 21 58 a2 be 60 1d d1 be
       -0.2080248 -0.5652699 -0.31707862 -0.40842724
000140 3c 9e 6c 3e df cf 11 3d ec f1 9d 3e 22 86 08 be
       0.23107237 0.035598632 0.30848634 -0.13332418
000150 5b 37 eb be fa 0b c2 be 82 25 e0 3e 23 67 ad be
       -0.4594067 -0.37899762 0.43778616 -0.3386775
000160 ab d0 14 be 4f b5 53 bd 04 bb 65 3d ff 06 15 bf
       -0.14532726 -0.05168658 0.056086555 -0.582138
000170 8c 69 bb be 75 7b 24 be b1 bc 76 3d e4 aa 5c bf
       -0.36603963 -0.1606272 0.060238544 -0.8619826
000180 a5 e5 13 be 65 24 9b bd ad f8 f4 bd a0 f8 9b 3d
       -0.14443071 -0.07575301 -0.11961494 0.07615781
000190 f7 74 1f bf 4f d7 c3 3b c0 4a b2 3d 2d 76 66 bb
       -0.6228785 0.0059765945 0.08705664 -0.0035165653
0001a0 bd 56 5a bd 2e 65 aa be ab e3 a3 3e e8 db b3 bd
       -0.053305376 -0.3328032 0.32009634 -0.08782178
0001b0 50 cd 85 3e 19 46 9c 3d 6b e3 33 3e 26 14 13 be
       0.26133204 0.076305576 0.17567222 -0.14363155
0001c0 4d 33 98 be f1 68 25 be 03 38 72 be 14 ae e6 be
       -0.2972664 -0.16153313 -0.2365418 -0.45054686
0001d0 2f 00 f2 3e c9 a2 4d bf ee 52 2e bf 3b c7 96 be
       0.47265765 -0.80326515 -0.6809529 -0.29448876
0001e0 81 7a 9b bd 70 e2 00 3d 77 f3 b2 be 78 04 4c 3e
       -0.07591725 0.031465948 -0.34951374 0.1992358
0001f0 f1 1d bf bd 94 d7 7c be 20 f2 04 bf 46 b9 5d be
       -0.09331883 -0.24691612 -0.51931953 -0.21652707
000200 a7 2d ad 3c 74 e2 11 3e 3e 48 1c bc 58 6b 57 3d
       0.021139933 0.14246541 -0.009538708 0.052592605
000210 17 37 1f 3d d4 23 51 3e f4 05 2d 3e 62 42 93 be
       0.038870897 0.20423824 0.16896802 -0.28761584
000220 e0 1d 79 be 31 1e 36 3e 78 b2 61 3d ac 21 15 3e
       -0.24327803 0.17784955 0.05510184 0.14563626
000230 c6 0d 80 bd f1 c4 47 be 69 7b a1 bc 84 85 61 3d
       -0.06252627 -0.19508721 -0.019712167 0.05505897
000240 f8 49 98 3e e9 74 00 be 41 a4 b8 bd e5 6d e1 bb
       0.29743934 -0.12544598 -0.09015704 -0.0068795555
000250 01 22 ae bd 34 2e 39 3e b2 a0 8e bd f4 98 07 bf
       -0.085025795 0.18084031 -0.06964244 -0.5296776
000260 0b cb 43 bf fe 8d 49 be ca 37 25 bf 89 5a 22 bf
       -0.76481694 -0.19683072 -0.6453825 -0.63419396
000270 a5 27 50 3e c1 2c 67 bd a8 66 d5 bd 54 ae 4c bf
       0.20327623 -0.056439165 -0.10419971 -0.79953504
000280 45 37 02 be 66 66 88 bd 29 4f 93 bd cc 20 93 bd
       -0.12716396 -0.06660156 -0.07192833 -0.0718399
000290 65 aa 74 bd 89 42 01 3b 4a 61 ea 3d d1 3e 0d be
       -0.059732813 0.0019723496 0.11444338 -0.13793494
0002a0 64 8b e8 bd da 1d 24 3e eb a0 15 3e 42 48 2b bf
       -0.11354712 0.16027012 0.14612167 -0.6690713
0002b0 08 35 2d be 96 f3 2c 3d 9d 7d 90 bd 64 69 32 3e
       -0.16914761 0.04222449 -0.07055209 0.17423016
0002c0 42 9a 0a be 00 73 3e be be 3a 95 3c 29 cc ba 3e
       -0.13535407 -0.18598557 0.018216487 0.36483887
0002d0 13 5f 45 be 6c 27 e7 bd 27 9b 1a 3e 54 79 b0 be
       -0.19274549 -0.11286816 0.15098248 -0.34467566
0002e0 49 ca 27 be c0 64 18 3e d4 64 1b be 10 49 27 bd
       -0.1638576 0.14882183 -0.15175182 -0.040841162
0002f0 54 c4 3a 3e 26 bf d8 bc b8 24 cc 3d fb e5 22 3d
       0.18238956 -0.026458334 0.09967941 0.039770108
000300 ac 6e 34 bd a6 de ce be 90 6c 51 3e 6e 7c 81 be
       -0.044050857 -0.40404242 0.2045157 -0.25290245
000310 80 f3 3e bf 78 3d 3d be d4 64 a1 3d 9c c6 0a 3e
       -0.745903 -0.1848048 0.078805596 0.13552326
000320 90 91 8d 3e 9d 64 a2 be 66 fe 32 be e2 8d 75 3d
       0.27650118 -0.31717387 -0.17479858 0.059949763
000330 7d 75 5c 3d 2c 73 28 bd e6 38 33 bf 29 6f 3a bc
       0.053822983 -0.04112546 -0.70008695 -0.011379042
000340 47 63 ce 3c 5e 53 de 3c 80 c4 8c bd 71 29 5c be
       0.025193824 0.027139362 -0.06873417 -0.21500184
000350 f3 41 f8 be 6f f3 97 3d 27 05 a2 3d f3 f1 a4 be
       -0.48487815 0.07419478 0.07911139 -0.32215843
000360 c4 f6 cd bd 24 bd db 3d d8 ee 57 be 64 81 9e be
       -0.100568324 0.10729435 -0.21087205 -0.30958092
000370 33 46 b9 bd 3b 0b 8c 3e 26 ed 4f 3d 1e 62 13 bb
       -0.090465926 0.27352318 0.05076327 -0.0022488902
000380 c4 02 45 be 2a b2 2c be aa 6a 16 3e 37 03 15 be
       -0.19239336 -0.16864839 0.14689127 -0.14552008
000390 88 56 4e 39 46 c2 24 bc e8 24 7e be fb eb 1c 3e
       0.00019677926 -0.010056084 -0.24818766 0.15324394
0003a0 1d 05 c9 be cf 14 4b 3e bd 9a 11 be 7a 34 15 3c
       -0.39261714 0.19832157 -0.14219184 0.00910675
0003b0 33 b1 ce be b1 45 cf 3e 2f 20 ec bd ce 14 81 3d
       -0.40369567 0.40482858 -0.11529576 0.06302796
0003c0 4d 46 9d be b9 5f ce bc 3d 76 41 3d 25 16 0f bf
       -0.30717698 -0.025192128 0.0472319 -0.55893165
0003d0 65 2f 06 be e4 06 89 3e e7 a5 bd be 26 ee 04 bf
       -0.13104017 0.2676307 -0.37040636 -0.51925886
0003e0 18 60 1f 3d 97 30 c3 bd 71 a6 21 3e 80 01 a1 be
       0.03891 -0.09530752 0.15786149 -0.31446457
0003f0 bb 0c ce 3d 8a 35 f2 bc 51 3e 09 bf 63 bf 91 3e
       0.10061022 -0.029566545 -0.5361071 0.2846633

policy_net.6.bias f4 [64]
000000 2a b5 19 be 82 5a 9e 3e 74 6f a5 be 69 66 a8 be
       -0.15010515 0.30928427 -0.32311594 -0.32890633
000010 f3 95 fb be e9 0d 84 3e 99 d0 91 be e9 e6 05 be
       -0.4913784 0.25791863 -0.2847946 -0.13076366
000020 bb b1 7f 3c 90 fa 5e 3e e4 fd e3 3e c8 47 94 3b
       0.015606339 0.2177527 0.4452964 0.0045251586
000030 b2 92 c9 3e 6f 00 01 3e 7d 83 0f 3f d3 82 8f 3e
       0.39369732 0.12597822 0.5606001 0.28029498
000040 f5 e0 5a be e9 64 9e be dc 8a bd 3d 44 e4 36 3e
       -0.21374877 -0.30936363 0.09255001 0.17860514
000050 fa 48 02 be 96 b9 9e 3e 4e a7 7a bd 2b fd 13 3e
       -0.12723151 0.31000966 -0.06119471 0.14452045
000060 29 cc 2f 3e 82 cb 87 3e a2 77 bd 3e 40 76 a8 bd
       0.17167725 0.26522452 0.37005335 -0.082256794
000070 30 94 90 3e 5d 02 48 3e 22 bc 97 3e eb 7c c2 bd
       0.28238058 0.19532152 0.2963572 -0.094964825
000080 ce 0d e1 bd 99 7a 9d 3e 4e f6 6c 3e 6e e8 02 3d
       -0.10988961 0.30757597 0.23140833 0.031959943
000090 be 56 8d 3d 73 5d 2d 3e 8d c8 80 3e 86 7a f4 be
       0.069013104 0.1693018 0.25153008 -0.47749728
0000a0 06 56 b3 3e 25 3f 06 be 7a a5 76 3d f1 03 ab be
       0.35026568 -0.13110025 0.060216404 -0.33401445
0000b0 58 0e d7 3e ea e7 0b 3f 17 89 3e be df 4d 05 3d
       0.4200313 0.5465075 -0.18606983 0.032544967
0000c0 41 e8 c1 be 47 a3 ca be 07 ce b6 be f9 ea d1 3e
       -0.37872508 -0.39577696 -0.3570406 0.40999582
0000d0 0c 17 cb be 3b 41 36 bc 7d 12 9c be 4b 29 50 be
       -0.3966602 -0.011123951 -0.30482855 -0.20328252
0000e0 ce f8 0f 3f 75 9d 42 3e 06 56 67 3c 58 aa 99 be
       0.5623902 0.19005378 0.014119631 -0.30012774
0000f0 2f 3b 25 3e 47 ad 87 3e 5b 33 25 be f9 7c 29 3e
       0.16135858 0.26499388 -0.16132872 0.1655158

policy_net.8.weight f4 [4, 64]
000000 9c 2c 0e be ed d2 26 3d f3 d2 a6 be a3 33 9d 3d
       -0.13884205 0.0407285 -0.32582816 0.076758645
000010 9a 4a c3 3d e0 40 ac 3d 24 e4 4a 3d bc d7 8e bd
       0.095357135 0.084108114 0.049533978 -0.06974742
000020 c2 e0 3a be cf c7 51 3d 4c 9b 8a 3c de 6f 0f 3e
       -0.18249801 0.051215943 0.016919754 0.14007518
000030 cc 01 48 bc d8 1d 28 3e 27 a3 85 3c 18 90 07 3d
       -0.01220746 0.16417634 0.016313149 0.033096403
000040 51 e1 5b 3d c6 04 71 bd 7a da 7e bd 92 45 07 3e
       0.053681675 -0.058842443 -0.062220074 0.13210133
000050 02 64 e6 3d dd 77 ca 3d 97 d3 c4 bc 89 fd 8b 3d
       0.11249544 0.09886143 -0.024026675 0.06835467
000060 e6 5c a6 bd e0 73 99 bd 81 3b 04 3d ca b4 79 3d
       -0.08123188 -0.074928045 0.03228331 0.06096343
000070 a6 e0 23 bd 04 e5 69 bd 78 49 9f bc ef 02 3a bd
       -0.040009163 -0.057103172 -0.019444212 -0.045412954
000080 ff 17 46 3c 58 64 a9 3c 46 d6 65 bd b5 78 82 bd
       0.012090682 0.02067773 -0.05611255 -0.06370679
000090 bd bb 12 3d 76 a8 88 3d 39 88 aa 39 f3 98 30 3c
       0.035823572 0.066727564 0.0003252642 0.010778653
0000a0 0e 59 92 3d f7 fa e9 bd b3 2a cf 3c 9b f1 8f bd
       0.07145892 -0.11424821 0.025288915 -0.070285045
0000b0 14 a5 b1 bc ce 6f 28 bd 15 d2 c4 3d 82 09 64 3c
       -0.02168516 -0.04112225 0.096103825 0.013918282
0000c0 fe 5f 80 bd 41 5d c3 3d 74 f1 21 bd 2f 83 63 bc
       -0.06268309 0.09539271 -0.03953691 -0.013886257
0000d0 13 ae a3 3e c9 a0 c1 3c f9 cd dd bd 94 02 96 bd
       0.31968746 0.023636239 -0.10830302 -0.073247105
0000e0 e5 78 0f be e5 35 2c 3d 0c b4 65 3d 28 98 82 bd
       -0.14010961 0.042043585 0.05607991 -0.06376678
0000f0 0d d9 bf 3d 23 69 66 bd 13 43 50 3d 09 f6 38 bd
       0.09367571 -0.05625261 0.050845217 -0.045156512
000100 c0 e5 02 3d fb 08 d1 bc be f6 90 3e 2e 42 f2 bc
       0.031957388 -0.025516978 0.2831325 -0.029572573
000110 3b 9b eb 3d 89 13 58 3d d9 26 79 3c 1a 7a 04 bd
       0.11504217 0.052753005 0.015207016 -0.032343008
000120 ed 4a b1 3e fe c0 1c bc c9 de ab bc 42 64 96 bd
       0.34627476 -0.009567497 -0.020980256 -0.073433414
000130 9e 92 a0 3d 04 6d bf 3d e6 fb 02 3d 99 ff 19 be
       0.07840465 0.09346965 0.03197851 -0.15038909
000140 12 8d 3a 3d 13 02 6d bd 23 d7 9b bd cf 2e 0c 3d
       0.04554469 -0.057863306 -0.076093934 0.034224328
000150 d5 de a0 3d 75 8a 81 3d 24 f4 85 bc 92 01 3a 3d
       0.07855002 0.06325237 -0.016351767 0.045411654
000160 01 95 ac bc fe f8 39 bd 88 87 70 3c 8c d2 37 3b
       -0.021067144 -0.045403473 0.014680751 0.002804908
000170 1e d8 32 bd 33 02 9f bd 95 88 ac bd 52 bb a4 3d
       -0.043663137 -0.07764091 -0.084244885 0.08043541
000180 e4 31 12 3d ff 0e b8 3d 86 7f b3 bd 73 17 9f 3c
       0.03569211 0.08987235 -0.087645575 0.019420361
000190 06 23 9d bb ae 59 cb 3d 7d 1b 2f 3c 86 a0 c1 3d
       -0.004795435 0.099292144 0.010687706 0.094544455
0001a0 f5 dc 75 3d 98 7a 22 bd bd 4e d9 3d 02 08 7c bd
       0.060025174 -0.039667696 0.10610721 -0.061531074
0001b0 33 8a b6 bd d2 c3 0b bd 8c 46 0f 3d ca 0a 38 3d
       -0.08913078 -0.034122296 0.034979388 0.044932164
0001c0 0f 1a 57 3d 10 d2 99 bd 46 ce 0a bc d9 45 4d bd
       0.052515086 -0.07510769 -0.008472031 -0.05011544
0001d0 05 65 3e 3e e0 f5 7e 3d a7 00 86 bd 71 a0 db 3a
       0.18593223 0.062246203 -0.06543093 0.0016756189
0001e0 16 9b d0 bd 25 e9 d7 bd 21 07 b1 bd 14 98 dc bd
       -0.1018583 -0.10542516 -0.08643938 -0.10771194
0001f0 d7 c4 3b 3d 42 2a 2d bd 60 f9 83 3d f6 c0 96 3d
       0.045842018 -0.04227663 0.06444049 0.07361023
000200 c2 b9 a0 3d 86 6a 9a bb 49 11 f8 3d b7 5e 01 be
       0.078479305 -0.0047124056 0.12112672 -0.12633787
000210 69 0a fa bd 42 4b 48 bd 98 e3 55 be ba 08 a4 3d
       -0.12209017 -0.048899896 -0.20887601 0.08009477
000220 3a 53 aa 3d cd 54 02 3e 14 69 b6 bd 15 83 41 bd
       0.083166555 0.12727661 -0.08906761 -0.04724415
000230 52 48 a5 3d b7 80 75 3b 56 b1 07 be a4 c2 0d bd
       0.08070435 0.0037460753 -0.13251242 -0.034609452
000240 7d 38 ce bd cf a8 9a bd b4 ad 5c bb 57 ed 84 bd
       -0.10069368 -0.07551729 -0.003367287 -0.064905815
000250 97 ad 8a be 32 dc 56 3b fc 15 81 bd b5 31 73 bb
       -0.27085564 0.0032785055 -0.06303021 -0.0037108485
000260 73 8b d4 3d fa 57 e5 3d f1 a7 98 3d a1 dc 84 3d
       0.1037816 0.11198421 0.07453907 0.06487394
000270 f9 c4 99 3d 9c ce 8a 3d 38 a5 e7 bc 29 d2 82 3c
       0.07508273 0.06777689 -0.028277025 0.015969353
000280 8b fb f8 bd 8b 1a 67 bc 66 70 89 bc ee 06 5a bd
       -0.12157353 -0.014105449 -0.016777229 -0.053229265
000290 ae 53 3a 3e f4 c6 6f bd ee 9d 55 3d 89 fb 48 be
       0.18195984 -0.058539346 0.052152567 -0.19627203
0002a0 85 5d 6c be 63 f6 dc 3d a1 17 15 3c 61 79 58 3e
       -0.2308255 0.10789182 0.009099872 0.21140052
0002b0 67 7c b5 3d bd 3e 69 3e 96 37 19 be 2d ef ed 3d
       0.088616185 0.22777839 -0.1496261 0.11617885
0002c0 3f 28 c1 3d 96 2f 97 bd ab 53 e5 bc 7e ce 76 3d
       0.094315045 -0.07382123 -0.027993998 0.06025552
0002d0 ab 53 53 3e 2f a2 cd bd f0 d3 fa 3d 22 03 55 3d
       0.20637386 -0.100407 0.12247455 0.05200494
0002e0 5b 67 72 3e c3 51 aa bb 67 b1 3a bd 22 85 47 3e
       0.2367224 -0.005197735 -0.04557934 0.1948438
0002f0 3a 0d 69 be 2a 59 a9 3d 35 43 bf bd 95 3a b9 3d
       -0.22758952 0.0826896 -0.093389906 0.09044377
000300 75 e9 8f bd 86 01 e7 bd 2c 43 96 bd 45 72 f9 bc
       -0.0702695 -0.112795874 -0.07337031 -0.030449996
000310 1a 0d d4 3c 2d 5d c5 bb a3 36 f2 3d 93 7d 8c bc
       0.025885154 -0.0060230703 0.118268274 -0.017149722
000320 ca 92 54 bd b8 db 77 3d dc 9a 8f 3c e1 9e 46 bd
       -0.0518978 0.060512275 0.017529897 -0.048491362
000330 19 da f7 3c 6b ab d9 b9 ad 70 ee 3d e3 2b bf bc
       0.030255364 -0.00041517182 0.11642585 -0.023336357
000340 a5 7e 9f bd 38 bd f3 3c 3a 42 8b 3b bd 32 b0 3c
       -0.077878274 0.029753312 0.004249838 0.021508569
000350 b8 13 71 3d 37 9e 21 3c e9 54 d2 bd 3c 25 3b 3b
       0.058856696 0.0098643815 -0.102701016 0.002855613
000360 b9 aa 1e 3b 13 eb eb 3c df 66 c7 bc be f2 5a bc
       0.0024210645 0.028798616 -0.024341045 -0.013363538
000370 76 8a fd bc fd f8 09 bd 00 8e 0b 3c 65 5e 29 bb
       -0.030949812 -0.03368472 0.008517742 -0.0025843617
000380 db 38 2c 3d 61 b1 4a 3c 43 dc 41 3d 45 60 fa bc
       0.04204641 0.012371392 0.0473292 -0.030563483
000390 9b a0 42 bd 8e fd 4d 3d ae 30 a2 bd cd dd 5e bb
       -0.047516447 0.050290637 -0.07919441 -0.0034006715
0003a0 e6 65 86 3d 14 2b a2 3d 73 04 27 3d ee 46 a6 bd
       0.06562404 0.07918373 0.040775727 -0.081189975
0003b0 43 8b 32 bd 9b 02 63 bd 0e d6 93 3c 72 06 59 bd
       -0.04358984 -0.055422407 0.018046405 -0.052984662
0003c0 52 6f 77 bd 8a b7 9d bd 38 e4 9b bd 39 e5 2e bd
       -0.060408898 -0.07701023 -0.07611889 -0.042699073
0003d0 c3 67 ab 3d 3c e1 c3 3d 68 eb cd 3c 0c 86 1b 3d
       0.083694 0.095644444 0.025136665 0.037969634
0003e0 3f 4e c2 bd 56 30 85 bc 9e ce ab bc 96 dd 8f bd
       -0.094875805 -0.0162584 -0.020972546 -0.07024686
0003f0 6f 9e 60 3d 8e 85 2c bd aa 8b 65 be ac a9 0c 3d
       0.054838594 -0.042119555 -0.22416559 0.0343415

policy_net.8.bias f4 [4]
000000 65 24 ab 3d eb b2 03 3b 06 a7 e4 3d 07 a2 4c 3e
       0.08356551 0.0020095657 0.1116467 0.19983684
