IL/Model/model_reacher_58.pt (torch, 292527 bytes, 20 tensors)

policy_net.0.weight f4 [64, 24]
-0.52419025 -1.3723723 0.30326104 0.17780815 0.30092332 -0.18789488 0.37540278 -0.064657494
0.1743123 0.09477132 0.023067294 0.004709003 -0.092195265 -0.051961385 0.367012 0.17289254
0.2594236 0.09092016 -0.34731364 -0.6502706 -0.5019572 -0.068118125 0.22803172 0.035292484
0.12496787 -0.8625056 -0.16830014 0.422981 0.2797481 0.23619664 1.0598438 -0.3670449
-0.06775574 -0.37517762 0.35157162 0.017680563 -0.030996805 -0.388023 -0.04272326 -0.12399978
-0.15872526 -0.282418 -0.3642117 -0.2102428 -0.314111 0.14543426 -0.08406089 -0.09975543
0.12618189 1.0100706 -0.43023646 2.068512 -0.04375039 -0.12228405 0.018140208 0.11214608
0.57694834 -0.07387538 0.12212355 -0.07543502 0.43111345 0.3920586 -0.056285467 -0.12017998
-0.110517435 -0.21205705 0.035142086 0.02651368 0.06705163 0.19654067 -0.120247826 -0.23478143
0.4798722 0.67786777 -0.45691437 -1.5309863 0.3719755 0.17923006 0.34925455 0.10767381
-0.08984937 0.13589846 -0.14128749 -0.7034307 -0.053590104 -0.024538767 0.0083667245 -0.06556483
-0.10024502 -0.0554913 -0.12538043 -0.4054177 -0.11963306 -0.25388205 -0.09507783 0.09333277
-0.09152878 0.24432167 -0.18518241 0.3352665 0.00063353684 0.13996045 0.08958011 0.100945264
-0.027738158 -0.19558398 -0.20276555 0.50712824 -0.6382087 0.0016507191 0.22471836 0.16051927
0.390961 0.33083543 0.18211648 0.2552141 -0.08619916 -0.18985562 -0.17615752 -0.060331583
-0.3888006 -0.7079968 0.4081545 -1.9537781 -0.1776632 -0.15192601 0.29102466 -0.2308179
-0.8910862 0.2935124 -0.2883023 -0.1164167 -0.05142276 -0.20398167 0.15332642 0.15993078
0.20278895 0.15662414 0.3235479 0.35696137 0.17321645 0.07656282 -0.1441115 0.020269057
-0.33497244 3.6960819 0.18434364 -0.7388076 -0.38627267 0.45303178 -0.43272007 0.23897147
0.13684504 0.00031562927 0.2735417 -0.1325563 0.07660214 0.12675291 0.079919554 -0.11661219
0.1842595 0.22731906 0.05125351 0.30784622 0.1831186 -0.12910476 -0.37122425 -0.1786908
-0.003877637 0.52733034 0.7267745 1.5839226 -0.18939969 0.24109316 0.16221157 -0.13256873
0.16863076 -0.40738 0.0098080365 0.3427522 -0.26553097 -0.017852917 -0.21543463 -0.047898583
-0.13603896 0.16204119 -0.054329146 -0.056581922 0.12962879 -0.2262033 0.0041688876 0.08356716
0.9184192 0.112797044 -0.54802984 -0.47649798 -0.105256826 0.26724946 -0.23865007 0.16679484
0.08350523 0.33354476 -0.02361625 0.098692134 0.050574996 0.11309203 -0.195985 -0.05883688
-0.10738932 -0.2103368 0.08240552 -0.12089648 0.023501156 0.093244456 -0.06489543 0.22177894
0.2648063 1.5720949 0.19258602 -1.5678262 -0.4213028 0.26883346 -0.2023694 0.09031206
0.036624312 0.42124408 0.5347626 -0.2697904 -0.1475721 -0.30082673 0.33005664 0.24299571
0.20772718 0.069174364 0.1482202 -0.23707461 -0.42212865 -0.3026151 -0.09556884 0.06193084
0.6423721 1.8035825 0.34580097 -1.0781044 0.2990196 0.20699693 -0.553426 -0.034964785
-0.2745876 0.52582014 0.34391865 -0.038106207 0.18791735 0.21869045 -0.42051923 -0.43489388
00000000: 5531 06bf e5a9 afbf 0845 9b3e 5713 363e
00000010: 9f12 9a3e 8467 40be cb34 c03e 266b 84bd
00000020: ec7e 323e 7717 c23d 9ff7 bc3c fb4d 9a3b
00000030: dfd0 bcbd 76d5 54bd ffe8 bb3e be0a 313e
00000040: 2cd3 843e 5934 ba3d 18d3 b1be 2278 26bf
00000050: 4480 00bf 8481 8bbd 2681 693e da8e 103d
00000060: 28ef ff3d 2bcd 5cbf df56 2cbe f790 d83e
00000070: 253b 8f3e 88dd 713e f6a8 873f 4fed bbbe
00000080: 85c3 8abd 4817 c0be 3201 b43e d4d6 903c
00000090: 03ed fdbc f3aa c6be 96fe 2ebd 99f3 fdbd
000000a0: e088 22be 1899 90be f579 babe e349 57be
000000b0: 28d3 a0be b8ec 143e 1e28 acbd 934c ccbd
000000c0: d335 013e fe49 813f f447 dcbe 8062 0440
000000d0: 9c33 33bd 0f70 fabd c69a 943c d8ac e53d
000000e0: e3b2 133f fa4b 97bd e91b fa3d ad7d 9abd
000000f0: e7ba dc3e e8bb c83e 978b 66bd ec20 f6bd
00000100: f756 e2bd 7c25 59be 26f1 0f3d 3833 d93c
00000110: 5d52 893d f541 493e 7e44 f6bd 8b6a 70be
00000120: cfb1 f53e be88 2d3f aef0 e9be 5cf7 c3bf
00000130: 9373 be3e 1688 373e 7ed1 b23e 1684 dc3d
00000140: f202 b8bd f728 0b3e abad 10be 0914 34bf
00000150: 4c81 5bbd 8605 c9bc 9614 093c db46 86bd
00000160: 434d cdbd d84a 63bd ba63 00be e992 cfbe
00000170: 2e02 f5bd d4fc 81be 2ab8 c2bd 4025 bf3d
00000180: 7173 bbbd 762f 7a3e 75a0 3dbe 0da8 ab3e
00000190: f013 263a cb51 0f3e c775 b73d 64bc ce3d
000001a0: 223b e3bc 2b47 48be c6a1 4fbe 28d3 013f
000001b0: a561 23bf f15c d83a 921c 663e 2a5f 243e
000001c0: 0a2c c83e 4363 a93e be7c 3a3e 6cab 823e
000001d0: 2f89 b0bd 8369 42be a362 34be 401e 77bd
000001e0: df10 c7be 473f 35bf a0f9 d03e 6715 fabf
000001f0: 58ed 35be 7e92 1bbe 2f01 953e 875b 6cbe
00000200: 3a1e 64bf 4247 963e 5c9c 93be e16b eebd
00000210: aca0 52bd 92e0 50be 9a01 1d3e e5c4 233e
00000220: e8a7 4f3e 1462 203e 12a8 a53e a4c3 b63e
00000230: a75f 313e f8cc 9c3d f791 13be 4b0b a63c
00000240: 8281 abbe 9b8c 6c40 94c4 3c3e 7f22 3dbf
00000250: 88c5 c5be c8f3 e73e 7c8d ddbe f0b4 743e
00000260: 1b21 0c3e 0b7b a539 a80d 8c3e d7bc 07be
00000270: 95e1 9c3d 84cb 013e ddac a33d 5fd2 eebd
00000280: 86ae 3c3e 54c6 683e 33ef 513d 059e 9d3e
00000290: 7183 3b3e 0a34 04be 1b11 bebe b9fa 36be
000002a0: f41f 7ebb 1fff 063f e50d 3a3f fabd ca3f
000002b0: fef1 41be 20e1 763e ca1a 263e 19c0 07be
000002c0: 8bad 2c3e 1d94 d0be e3b1 203c 377d af3e
000002d0: adf3 87be 4840 92bc e59a 5cbe 4e31 44bd
000002e0: cc4d 0bbe 20ee 253e 3d88 5ebd 72c2 67bd
000002f0: 69bd 043e d6a1 67be 2a9b 883b 4225 ab3d
00000300: 851d 6b3f 2302 e73d af4b 0cbf 8bf7 f3be
00000310: e490 d7bd ecd4 883e af60 74be 44cc 2a3e
00000320: ca04 ab3d 61c6 aa3e de76 c1bc 1a1f ca3d
00000330: ba27 4f3d cb9c e73d 4bb0 48be f1fe 70bd
00000340: efee dbbd 8862 57be 3ac4 a83d 9398 f7bd
00000350: 7f85 c03c f3f6 be3d e5e7 84bd 051a 633e
00000360: b194 873e 683a c93f 4535 453e 87ae c8bf
00000370: 00b5 d7be 8aa4 893e ed39 4fbe 88f5 b83d
00000380: 6003 163d 4ead d73e 34e6 083f f821 8abe
00000390: 241d 17be f605 9abe 2ffd a83e ded3 783e
000003a0: 6fb6 543e 4aab 8d3d 09c7 173e b0c3 72be
000003b0: 3f21 d8be 5ef0 9abe 99b9 c3bd 31ab 7d3d
000003c0: 7f72 243f cbdb e63f d30c b13e 53ff 89bf
000003d0: 1919 993e 01f7 533e 54ad 0dbf 3c37 0fbd
000003e0: bf96 8cbe 269c 063f 1b16 b03e 4115 1cbd
000003f0: 686d 403e 64f0 5f3e 4c4e d7be 69aa debe

policy_net.0.bias f4 [64]
-0.07825842 -0.07022977 -0.24994855 -0.013848181 0.14392556 -0.27998623 0.1190965 -0.0155950915
0.16919132 0.17071095 -0.10376017 0.033540968 -0.3412057 -0.3343341 0.2723697 0.08468283
0.13974458 0.27677968 0.1017987 -0.15101945 0.035656765 -0.0514444 -0.21588714 0.081805885
-0.038571253 0.03651997 0.23451406 0.0644129 0.17379098 0.029778559 -0.11871963 -0.07394378
0.10588483 0.23875234 -0.10494842 -0.08079584 -0.03493533 0.022083329 -0.12689553 0.23981896
0.09201778 -0.28107217 0.06517556 -0.011169889 -0.1876334 -0.23603202 0.30071357 -0.019318061
-0.006840495 0.18301345 0.15616074 -0.02117269 0.14151512 0.24177015 0.027199237 0.27975
-0.21581142 -0.0068255793 -0.1452316 0.16281252 0.2281752 -0.23244393 -0.15691851 -0.04345542
00000000: f345 a0bd a0d4 8fbd 83f2 7fbe 7be3 62bc
00000010: 3961 133e 5b5a 8fbe dee8 f33d 8e82 7fbc
00000020: 7d40 2d3e dace 2e3e 3680 d4bd 4162 093d
00000030: 83b2 aebe d72d abbe 0b74 8b3e 316e ad3d
00000040: 3419 0f3e 11b6 8d3e d67b d03d d8a4 1abe
00000050: d40c 123d 5db7 52bd 8511 5dbe d889 a73d
00000060: e4fc 1dbd f795 153d 7424 703e e9ea 833d
00000070: 43f6 313e 2af2 f33c 4723 f3bd d66f 97bd
00000080: 25da d83d 7e7b 743e 32ef d6bd 4a78 a5bd
00000090: 5918 0fbd 19e8 b43c e7f0 01be 1a93 753e
000000a0: d173 bc3d b1e8 8fbe c47a 853d e901 37bc
000000b0: f822 40be 61b2 71be 21f7 993e e940 9ebc
000000c0: 3b26 e0bb e167 3b3e 9ae8 1f3e 5972 adbc
000000d0: 57e9 103e 9892 773e efd0 de3c 643b 8f3e
000000e0: abfd 5cbe 1ca9 dfbb 98b7 14be 53b8 263e
000000f0: c2a6 693e c805 6ebe 3faf 20be 4ffe 31bd

policy_net.2.weight f4 [128, 64]
-0.22424497 0.07826346 -0.33633265 -0.23072597 0.065849714 0.28820354 0.049338263 0.21351579
0.07826752 0.12505987 -0.048822872 -0.5625283 0.17544685 -0.15252961 0.16491577 0.48175687
-0.24202286 -0.04469399 -0.15843405 0.023988927 -0.14780977 -0.14242598 0.15581162 0.37933502
0.19143856 -0.3680344 -0.36487556 0.54040235 0.04384972 0.15779455 -0.5702025 -0.15955357
-0.34431794 0.038999055 -0.09115393 -0.16057877 0.08428256 0.20942144 -0.2821333 -0.28770098
0.03374103 -0.74904966 -0.16399294 0.9665855 -0.1415659 0.108184375 0.05921317 0.040239487
0.11632994 -0.6186332 -0.08891811 0.09264005 -0.054813992 -0.29870197 0.28377783 0.023045504
-0.10122187 0.00059298135 0.27472383 0.050779305 -0.21711293 -0.13266943 0.11515808 0.04049753
-0.5811027 0.2982682 0.30394936 0.11698387 -1.8520296 -0.07487218 0.23923184 -0.55758435
0.025532708 -0.019242935 -0.027561013 -0.11504321 0.104234695 0.19723254 0.09882968 0.13491857
-0.19642936 0.11795195 0.2017809 -0.22368589 0.092703514 0.18936627 -0.2576487 -0.7897622
-0.11073521 0.08216827 0.31489858 0.30599624 0.13399382 -0.046540573 0.091011524 -0.03160268
-0.5814735 -0.16532561 -0.17554893 0.121185936 0.2883065 0.35212156 -0.032518454 -0.32044578
-0.515194 -0.106627695 0.0696133 -0.68344873 0.1740889 0.14963318 0.0739302 0.1719667
0.4823367 0.14399555 -0.50868475 -0.009774888 0.4179019 -0.35535276 0.02197074 0.099929154
0.021899668 -0.26253882 -0.11620622 -0.037815493 0.10751791 0.17906243 -0.016470585 0.08757016
-0.2440069 -0.085947774 -0.4886193 0.27911606 0.09820202 0.3221734 0.01784372 0.086199865
0.111050755 0.24151224 0.021499868 -0.014141667 -0.2366192 -0.7232859 -0.019754203 -0.36597565
-0.17791146 0.2502702 0.53742015 -0.3692969 0.09541359 -0.056525752 -0.000898147 -0.4347748
-0.27951893 0.4669376 -0.017576998 0.11671556 0.31260243 -0.15332289 -0.11567789 0.21899256
0.19594748 0.016516982 -0.2095575 0.11253802 0.038220577 -0.4490927 0.28154507 0.58460367
0.058319055 -0.5467089 -0.17822228 -0.107799575 -0.12986492 0.119541444 -0.058919773 0.11454817
-0.094664186 0.113263935 0.23499797 -0.37131917 0.25099462 -0.10945505 -0.14670672 0.1972839
-0.55786556 -0.112610444 -0.76316965 0.11510044 0.30457386 -0.3676675 -0.1733877 -0.5091864
-0.4228941 0.40119505 -0.3870518 -0.035959486 -0.19948106 -0.034290016 -0.44567668 0.116553254
0.10523722 0.4316141 0.28584445 -0.2100698 -0.22760536 0.014250155 0.118749656 -0.050031
0.030346068 0.20975107 -0.10129334 -0.5121591 0.11144224 -0.09358808 -0.042466328 -0.13801464
-0.4386831 0.24085735 -0.11940164 -0.11387151 -0.22684635 -0.012819477 -0.35080642 -0.60792404
0.6492727 0.21359025 -0.12113045 0.15000473 -0.2714122 -0.043390296 0.1405533 -0.49262345
-0.056599174 -0.48630205 0.07862982 -0.49350458 -0.09887739 -0.9830977 -0.45793596 0.22054595
-0.6118589 -0.25800222 0.5839363 -0.43987226 0.30999258 0.34704602 0.29864022 0.45027217
-0.28539285 -0.39106724 -0.17172015 -0.52734387 -0.2574262 -0.145247 0.07319977 0.26718217
00000000: 79a0 65be 9848 a03d cb33 acbe 6e43 6cbe
00000010: 37dc 863d 6a8f 933e eb16 4a3d e2a3 5a3e
00000020: b94a a03d b20f 003e 7efa 47bd db01 10bf
00000030: 57a8 333e b930 1cbe aedf 283e d6a8 f63e
00000040: d7d4 77be 0c11 37bd 893c 22be 6d84 c43c
00000050: 725b 17be 1ed8 11be 158d 1f3e 3338 c23e
00000060: 7808 443e 016f bcbe f8d0 babe cf57 0a3f
00000070: c49b 333d e594 213e cbf8 11bf 0362 23be
00000080: 714a b0be 79bd 1f3d e9ae babd c36e 24be
00000090: 569c ac3d 9372 563e c773 90be 8b4d 93be
000000a0: 0934 0a3d b8c1 3fbf c4ed 27be 2672 773f
000000b0: a7f6 10be c58f dd3d 8289 723d 29d2 243d
000000c0: 643e ee3d bf5e 1ebf b31a b6bd 11ba bd3d
000000d0: a384 60bd 77ef 98be 544b 913e edc9 bc3c
000000e0: 694d cfbd 4e72 1b3a 9aa8 8c3e f6fd 4f3d
000000f0: da52 5ebe 7fda 07be 00d8 eb3d bde0 253d
00000100: 26c3 14bf 9cb6 983e 409f 9b3e 3d95 ef3d
00000110: 4e0f edbf 9656 99bd 31f9 743e d9bd 0ebf
00000120: f829 d13c 5ca3 9dbc a2c7 e1bc c69b ebbd
00000130: 0079 d53d 54f7 493e 3767 ca3d 1828 0a3e
00000140: c724 49be cb90 f13d a79f 4e3e ea0d 65be
00000150: 57db bd3d 3be9 413e 88ea 83be db2d 4abf
00000160: 24c9 e2bd d747 a83d 633a a13e 8aab 9c3e
00000170: ad35 093e 54a1 3ebd 4064 ba3d d071 01bd
00000180: 73db 14bf 1e4b 29be 19c3 33be 5530 f83d
00000190: e99c 933e 4749 b43e 1232 05bd 7811 a4be
000001a0: c1e3 03bf 9f5f dabd 6b91 8e3d 7ff6 2ebf
000001b0: 5c44 323e 7139 193e b768 973d 0a18 303e
000001c0: d6f4 f63e 9273 133e 2a39 02bf da26 20bc
000001d0: 3df7 d53e ccf0 b5be fbfb b33c a8a7 cc3d
000001e0: ef66 b33c 7d6b 86be 87fd edbd 6be4 1abd
000001f0: 5a32 dc3d 245c 373e 52ed 86bc fc57 b33d
00000200: f2dc 79be 6305 b0bd 4f2c fabe 4de8 8e3e
00000210: 241e c93d e9f3 a43e fe2c 923c 8e89 b03d
00000220: 946e e33d fc4e 773e 7e20 b03c 73b2 67bc
00000230: 4e4c 72be 4429 39bf 91d3 a1bc 2961 bbbe
00000240: 6c2e 36be 6a23 803e 5e94 093f 7c14 bdbe
00000250: 3368 c33d 8c87 67bd a071 6bba cd9a debe
00000260: 1b1d 8fbe 7212 ef3e a3fd 8fbc 9108 ef3d
00000270: 6d0d a03e ad00 1dbe 88e8 ecbd 963f 603e
00000280: 75a6 483e 9f4e 873c 3e96 56be 557a e63d
00000290: 2e8d 1c3d 7aef e5be ad26 903e 96a8 153f
000002a0: f6df 6e3d 1df5 0bbf e77f 36be 06c6 dcbd
000002b0: 4ffb 04be 25d2 f43d dc55 71bd 3b98 ea3d
000002c0: 4cdf c1bd ecf6 e73d 4fa3 703e 8c1d bebe
000002d0: 5e82 803e f829 e0bd 493a 16be ca04 4a3e
000002e0: 47d0 0ebf 4ea0 e6bd 165f 43bf c8b9 eb3d
000002f0: 1bf1 9b3e ea3e bcbe 8c8c 31be 0a5a 02bf
00000300: 9385 d8be 7069 cd3e a72b c6be 414a 13bd
00000310: c344 4cbe b073 0cbd bc2f e4be 79b3 ee3d
00000320: 9d86 d73d 86fc dc3e 345a 923e 8a1c 57be
00000330: 6111 69be 7b79 693c 0533 f33d 4eed 4cbd
00000340: 5198 f83c fcc8 563e e272 cfbd dc1c 03bf
00000350: d43b e43d 1bab bfbd 2cf1 2dbd b653 0dbe
00000360: 129b e0be 4fa3 763e d988 f4bd 7735 e9bd
00000370: 694a 68be c908 52bc e69c b3be e9a0 1bbf
00000380: bc36 263f 67b7 5a3e 3e13 f8bd d79a 193e
00000390: 8af6 8abe 06ba 31bd 34ed 0f3e 2439 fcbe
000003a0: 89d4 67bd 95fc f8be ac08 a13d a2ac fcbe
000003b0: 3b80 cabd 4aac 7bbf 9576 eabe ccd6 613e
000003c0: c9a2 1cbf de18 84be d97c 153f f036 e1be
000003d0: 59b7 9e3e 04b0 b13e 5fe7 983e 138a e63e
000003e0: 031f 92be f739 c8be 68d7 2fbe 0200 07bf
000003f0: 5ecd 83be a1bb 14be c3e9 953d 1acc 883e

policy_net.2.bias f4 [128]
0.080187865 -0.099507764 0.14826441 0.035938527 -0.00048136566 0.08315672 -0.040334377 -0.08780464
0.027736563 0.14007908 -0.21814491 -0.008730464 -0.060358983 -0.13759933 0.10445842 0.07507115
0.06663415 -0.25721675 0.077914774 0.2009789 -0.27771214 0.015428987 -0.18217185 -0.11736598
-0.0072742463 -0.118163124 0.041843817 0.020580417 -0.0073205223 -0.031924337 -0.06193739 -0.07677876
-0.0013373579 0.029169671 -0.25916415 -0.24176404 -0.19974896 0.1985434 0.33149526 0.1524321
-0.10498422 -0.27930543 0.076329954 0.053563766 -0.22536643 -0.10346771 0.031805646 0.014416045
0.15813309 -0.27430314 -0.2689665 0.22486813 -0.10580985 0.17091021 0.015185565 0.0053798254
0.15053956 0.018223908 0.0026081128 0.0191598 -0.17751257 -0.09182965 0.13250093 -0.2120827
-0.11894445 -0.058570035 -0.09838805 -0.18966351 0.048368797 0.01862574 -0.19418646 -0.16802807
0.18113245 -0.026868913 0.19577505 0.19745621 -0.020384656 -0.14219113 0.09989341 0.033365056
-0.0053174687 -0.016548596 -0.017253354 0.050344717 0.0050966456 -0.05085568 -0.0011629019 -0.032116212
0.14074877 0.20403884 0.06870237 -0.008529183 -0.2197068 0.014210443 -0.09633203 -0.10871707
-0.19677944 -0.17548724 -0.16162644 -0.37109876 0.03660332 -0.12028393 -0.07122415 0.028298413
-0.03161562 -0.24470371 0.0081139775 0.02838479 -0.22990727 0.031080114 -0.10830688 0.014963503
-0.11473337 0.06762628 0.045274526 -0.06464901 -0.06617553 0.11878942 -0.24621752 -0.12296764
0.04101143 0.07246785 -0.19222628 0.32000205 -0.07694862 0.027640894 0.14069454 -0.028731953
00000000: 8939 a43d baca cbbd a0d2 173e 4734 133d
00000010: ce5f fcb9 124e aa3d a935 25bd ebd2 b3bd
00000020: ca37 e33c e470 0f3e 6161 5fbe 380a 0fbc
00000030: fb3a 77bd d7e6 0cbe 4cee d53d e7be 993d
00000040: 7c77 883d eab1 83be c891 9f3d 6acd 4d3e
00000050: 4930 8ebe ddc9 7c3c 428b 3abe 935d f0bd
00000060: cd5c eebb 82ff f1bd 6c64 2b3d 4398 a83c
00000070: fee0 efbb 18c3 02bd 10b2 7dbd 2f3e 9dbd
00000080: 494a afba 3cf5 ee3c 2ab1 84be fe90 77be
00000090: fe8a 4cbe f64e 4b3e bfb9 a93e 2917 1c3e
000000a0: f701 d7bd 1f01 8fbe e152 9c3d ae65 5b3d
000000b0: 75c6 66be e1e6 d3bd a346 023d 4631 6c3c
000000c0: a4ed 213e 7671 8cbe fab5 89be d543 663e
000000d0: d6b2 d8bd 1603 2f3e e0cc 783c 3f49 b03b
000000e0: 0b27 1a3e 4e4a 953c dfec 2a3b 03f5 9c3c
000000f0: dbc5 35be 2f11 bcbd 53ae 073e 352c 59be
00000100: 2699 f3bd 22e7 6fbd ad7f c9bd 2737 42be
00000110: 5c1e 463d 0295 983c d1d8 46be 8d0f 2cbe
00000120: c97a 393e 321c dcbc 4179 483e f631 4a3e
00000130: b9fd a6bc 8d9a 11be eb94 cc3d cca9 083d
00000140: 293e aebb ec90 87bc e856 8dbc 4336 4e3d
00000150: c301 a73b 0c4e 50bd 836c 98ba 4a8c 03bd
00000160: 7220 103e 8fef 503e d4b3 8c3d fdbd 0bbc
00000170: d2fa 60be ebd2 683c ba49 c5bd 0ea7 debd
00000180: 8d80 49be edb2 33be 6781 25be a800 bebe
00000190: 5ded 153d 6c57 f6bd f8dd 91bd 13d2 e73c
000001a0: 617f 01bd 9c93 7abe 7df0 043c 3887 e83c
000001b0: d06c 6bbe b99b fe3c ffcf ddbd 7b29 753c
000001c0: 54f9 eabd a67f 8a3d c871 393d b366 84bd
000001d0: 0987 87bd de47 f33d 7220 7cbe 75d6 fbbd
000001e0: 9afb 273d 066a 943d f7d6 44be 4fd7 a33e
000001f0: 3d97 9dbd 286f e23c 3b12 103e 465f ebbc

policy_net.4.weight f4 [128, 128]
-0.079115726 0.1882323 0.14577419 0.032660525 -0.09687769 0.2038526 -0.018627996 0.23822021
-0.45890316 0.04793824 -0.055517565 0.0972941 0.025837898 0.1407435 0.6068392 -0.3790506
-0.2136005 0.34025285 0.2514994 -0.4491155 0.37410998 0.026879676 0.23281035 -0.11539421
-0.08369028 -0.07902433 -0.9061565 0.40101534 -0.030950872 -0.2464303 -0.5184571 -0.26114398
0.02066232 0.023066098 0.4964714 -0.5528036 -0.080169246 -0.3296221 -0.33255053 -0.1199624
0.23933613 0.10180016 0.1632016 0.13849479 -0.3393987 -1.2029972 -0.15980433 -0.34318772
0.28838998 0.53941697 0.44672027 0.19271621 0.37984595 -0.31633 -0.32632282 -0.089104764
-0.029300597 -0.54124844 -0.3768013 -0.36015356 0.110229224 0.24132818 -1.0003011 -0.0006413968
-0.06384805 0.21490833 -0.21643877 -0.017490322 -0.17312503 -0.49367583 -0.29438472 -0.40597007
-0.30865723 -0.08468968 -0.105879515 -0.15037273 -0.17208965 -0.2268802 0.32080498 -0.29907995
0.29601303 0.21668729 0.32836947 -0.08557478 -0.26672357 0.3675079 -0.13745387 0.29726487
-0.03584386 -0.47506097 0.14390184 -0.11354992 -0.0027736828 0.38366678 -0.28535143 0.44947308
-0.15448059 0.18758385 -0.10912072 -0.25413558 0.16748676 0.028707527 0.03376686 0.28409094
-0.13659273 -0.523064 0.35277003 0.24136028 0.121848576 -0.29056716 0.06340942 -0.12667938
-0.25838012 0.09313161 -0.23199622 -0.427166 -0.12681015 -0.1601966 0.060393155 0.07966648
0.24431479 -0.30365998 -0.5244155 -0.4849512 0.080488466 0.46344596 0.031110017 -0.0153608145
0.045804728 -0.081292264 -0.79454094 -0.3171239 -0.29879898 -0.0020424358 -0.16506575 0.12859859
-0.33136967 -0.63736 -0.077802524 0.114454396 -0.48403132 0.028517444 0.6140452 0.19695902
-0.6661433 0.0077095143 -0.22570911 0.056851853 -0.21065007 -0.4464942 -0.21536906 -0.07016162
-0.3741302 0.045162678 -0.109406315 -0.50795376 -0.21698454 0.1079032 -0.11703703 0.13802142
-0.11377864 -0.08851045 -0.11000436 -0.8176445 -0.00035099775 -0.057552546 0.13200355 0.31399956
0.15791008 -0.31184587 0.12164942 -0.12370386 -0.0974342 -0.41210294 -0.0667951 -0.20532158
-0.8032369 0.21069945 0.44583818 -0.9795709 -0.1720491 -0.013884624 -0.22290055 0.37678534
0.22166564 0.008102567 0.1387944 0.104416884 -0.8536462 -0.38801697 -0.16717969 -0.20832886
-0.5853696 0.0050422903 0.04188788 0.12261253 -0.18366995 -0.39082703 -0.33980477 0.11857915
-0.3427687 -0.009974197 -0.2087096 0.3101762 0.24146493 0.09987235 -0.19506462 0.31707063
-0.23529267 -0.27460918 -0.38726652 0.29105914 -0.30293787 -0.01518749 -0.069578394 0.29113957
-0.30207133 -0.013418743 -0.26144385 0.1320396 0.2924292 -0.31695157 0.14108738 -0.56321645
-0.58455867 -0.4668619 0.43905064 -0.057825 -0.39338514 0.14965102 -0.0018999911 -0.09908353
0.20946103 0.1460048 0.20686994 -0.022386184 0.19552004 0.27391884 -0.31074697 -0.09425179
-0.059145447 -0.33822253 0.28732672 0.29545346 -0.38371938 0.047650795 0.08977288 -0.102075785
0.07845133 0.04503382 0.17634419 -0.25923735 -0.15418947 -0.16893405 -0.7838703 0.12371018
00000000: 6d07 a2bd f8bf 403e d445 153e 0bc7 053d
00000010: cf67 c6bd bcbe 503e bd99 98bc 00f0 733e
00000020: 5bf5 eabe e35a 443d 6366 63bd 2142 c73d
00000030: 00aa d33c 101f 103e d059 1b3f ec12 c2be
00000040: 17ba 5abe 9f35 ae3e 88c4 803e 78f2 e5be
00000050: 588b bf3e c432 dc3c d665 6e3e cd53 ecbd
00000060: cf65 abbd 82d7 a1bd dff9 67bf e251 cd3e
00000070: af8c fdbc 3958 7cbe 9bb9 04bf aab4 85be
00000080: 0744 a93c 1df5 bc3c 8031 fe3e 8984 0dbf
00000090: c62f a4bd 3ac4 a8be 1044 aabe d9ae f5bd
000000a0: 8814 753e 9a7c d03d 521e 273e 94d1 0d3e
000000b0: abc5 adbe d0fb 99bf bfa3 23be 4db6 afbe
000000c0: daa7 933e 3b17 0a3f 85b8 e43e 6657 453e
000000d0: 2b7b c23e 01f6 a1be c913 a7be 8f7c b6bd
000000e0: ce07 f0bc 428f 0abf 1aec c0be 0c66 b8be
000000f0: dcbf e13d bc1e 773e de09 80bf 6923 28ba
00000100: c4c2 82bd ee10 5c3e 20a2 5dbe dd47 8fbc
00000110: b047 31be 14c3 fcbe 98b9 96be 4fdb cfbe
00000120: 5208 9ebe c871 adbd 5cd7 d8bd 4ffb 19be
00000130: 4538 30be 4853 68be 8d40 a43e 0221 99be
00000140: 058f 973e 46e3 5d3e 0b20 a83e d541 afbd
00000150: fe8f 88be ff29 bc3e b5c0 0cbe 1a33 983e
00000160: 03d1 12bd 313b f3be 015b 133e dc8c e8bd
00000170: adc6 35bb f96f c43e 9519 92be 5621 e63e
00000180: 2930 1ebe fb15 403e af7a dfbd 0f1e 82be
00000190: a681 2b3e 0c2c eb3c 1e4f 0a3d 5e74 913e
000001a0: f7de 0bbe 86e7 05bf 469e b43e 2627 773e
000001b0: bf8b f93d 38c5 94be ccdc 813d 3db8 01be
000001c0: 664a 84be c9bb be3d 6b90 6dbe 80b5 dabe
000001d0: 85da 01be 940a 24be d05e 773d 2e28 a33d
000001e0: a82d 7a3e 5279 9bbe 1840 06bf 864b f8be
000001f0: 23d7 a43d ca48 ed3e 6fda fe3c edab 7bbc
00000200: bd9d 3b3d 8f7c a6bd 0967 4bbf 105e a2be
00000210: 2efc 98be 63da 05bb ff06 29be 59af 033e
00000220: 49a9 a9be 062a 23bf ee56 9fbd 1167 ea3d
00000230: f4d2 f7be 6a9d e93c 1132 1d3f a0af 493e
00000240: 5e88 2abf 18a0 fc3b 4a20 67be 7ddd 683d
00000250: a7b4 57be e39a e4be b589 5cbe e5b0 8fbd
00000260: fe8d bfbe 80fc 383d 6b10 e0bd 4209 02bf
00000270: 3231 5ebe 5afc dc3d 1cb1 efbd 7d55 0d3e
00000280: c704 e9bd f844 b5bd f749 e1bd 2651 51bf
00000290: 1f06 b8b9 38bc 6bbd f02b 073e 8dc4 a03e
000002a0: 2eb3 213e 43aa 9fbe 5523 f93d 7358 fdbd
000002b0: 958b c7bd 28ff d2be dfcb 88bd d23f 52be
000002c0: efa0 4dbf 99c1 573e e744 e43e 29c5 7abf
000002d0: a42d 30be 557c 63bc 0b40 64be 02ea c03e
000002e0: 51fc 623e a1c0 043c 1f20 0e3e 85d8 d53d
000002f0: 8f88 5abf 29aa c6be 2731 2bbe 2954 55be
00000300: c8da 15bf cc39 a53b a092 2b3d 471c fb3d
00000310: fa13 3cbe 7b1a c8be e4fa adbe a0d9 f23d
00000320: 617f afbe d06a 23bc f8b7 55be 6acf 9e3e
00000330: 9542 773e e089 cc3d 05bf 47be 1557 a23e
00000340: 90f0 70be 9399 8cbe cc47 c6be b405 953e
00000350: ac1a 9bbe f3d4 78bc 1e7f 8ebd 3f10 953e
00000360: 18a9 9abe 4ada 5bbc f8db 85be 6435 073e
00000370: 48b9 953e 7a47 a2be 3679 103e f42e 10bf
00000380: a3a5 15bf 8608 efbe 3fcb e03e e8d9 6cbd
00000390: c769 c9be 1e3e 193e 1f09 f9ba 4eec cabd
000003a0: f47c 563e 4882 153e b7d5 533e 3b63 b7bc
000003b0: 6836 483e 173f 8c3e 3a1a 9fbe 1507 c1bd
000003c0: 7f42 72bd 812b adbe 7d1c 933e ad45 973e
000003d0: de76 c4be 7b2d 433d d8da b73d 1c0d d1bd
000003e0: 17ab a03d 6275 383d 9293 343e c2ba 84be
000003f0: d8e3 1dbe 0cfd 2cbe b9ab 48bf c35b fd3d

policy_net.4.bias f4 [128]
-0.19245724 -0.09228281 0.0603237 -0.17292255 -0.07165485 0.108920485 -0.049907513 -0.11058798
-0.13678767 -0.09451818 0.1226713 -0.030724969 0.008728344 -0.2423247 -0.022719612 0.08672867
-0.014432527 -0.06506332 -0.14018252 0.028409965 -0.13342676 -0.079062596 -0.21891645 -0.34405872
-0.15059969 0.2020732 -0.07188206 -0.10799699 -0.16328682 0.15965484 0.11365211 -0.16319084
0.108364075 0.18490711 0.07374602 -0.019430814 0.033973664 0.13601318 -0.37860215 0.10622786
0.085841864 -0.2000878 0.018818032 0.09628066 -0.15254134 0.15461975 0.14563155 -0.07130433
-0.0051370505 -0.22874662 -0.0729401 0.21026374 -0.3656584 0.060161788 0.11517021 -0.34214845
-0.13175839 0.024108209 0.08705272 -0.04259599 -0.2633824 -0.035195254 -0.3567333 0.092878826
-0.033758845 -0.013562157 -0.2779948 0.10678794 -0.21074119 -0.27978313 -0.06876922 -0.33680686
0.26911905 -0.004273236 0.16575025 -0.22602665 -0.21967483 0.22682987 0.19122413 0.09219072
-0.6455575 -0.1848387 0.4117803 -0.20109378 -0.14042838 -0.014798985 -0.06515792 0.19912007
-0.3687416 0.089569226 -0.09427054 -0.21241651 -0.14531536 -0.048477314 -0.40247986 0.12685333
-0.2562749 0.010295547 -0.13023728 0.06909295 0.2247322 0.1047331 -0.0046960306 0.01884922
-0.28852752 0.030384349 0.06032991 -0.3318619 0.017938798 0.100399345 -0.1491171 0.030066129
-0.09120267 0.15346925 0.122101665 0.15604891 -0.08582091 0.13268651 -0.14316949 0.27755442
-0.21362849 0.13432421 -0.051633712 0.10652224 -0.19962896 -0.04315194 0.046458963 -0.13066378
00000000: 8313 45be c5fe bcbd fc15 773d 9c12 31be
00000010: c7bf 92bd b411 df3d d26b 4cbd f37b e2bd
00000020: 1112 0cbe bf92 c1bd 173b fb3d eeb2 fbbc
00000030: 5401 0f3c f723 78be 7b1e babc cd9e b13d
00000040: 6876 6cbc eb3f 85bd 028c 0fbe 04bc e83c
00000050: 06a1 08be 92eb a1bd a22b 60be 7728 b0be
00000060: ce36 1abe 47ec 4e3e e736 93bd 872d ddbd
00000070: a934 27be 8f7c 233e 70c2 e83d 801b 27be
00000080: fced dd3d 4a58 3d3e 2708 973d 5f2d 9fbc
00000090: f827 0b3d 0a47 0b3e 24d8 c1be fe8d d93d
000000a0: dccd af3d d1e3 4cbe 4628 9a3c cb2e c53d
000000b0: cc33 1cbe a454 1e3e 7020 153e 0108 92bd
000000c0: b454 a8bb 8e3c 6abe 9f61 95bd 614f 573e
000000d0: 9437 bbbe 356c 763d 5cde eb3d 152e afbe
000000e0: aceb 06be 947e c53c b248 b23d 2279 2ebd
000000f0: 0fda 86be e628 10bd bfa5 b6be 4137 be3d
00000100: b746 0abd cf33 5ebc 5655 8ebe a3b3 da3d
00000110: 8acc 57be bc3f 8fbe e0d6 8cbd f371 acbe
00000120: f9c9 893e 8006 8cbb 6fba 293e 8873 67be
00000130: 70f2 60be 1746 683e 42d0 433e 7dce bc3d
00000140: 4243 25bf 5b46 3dbe ded4 d23e 87eb 4dbe
00000150: 75cc 0fbe 7177 72bc 8471 85bd 22e6 4b3e
00000160: b3cb bcbe 1270 b73d ea10 c1bd b783 59be
00000170: 8dcd 14be 2690 46bd d711 cebe d7e5 013e
00000180: 7736 83be a7ae 283c ec5c 05be 9b80 8d3d
00000190: 3320 663e 4f7e d63d 29e1 99bb ae69 9a3c
000001a0: e1b9 93be 99e8 f83c 7f1c 773d cee9 a9be
000001b0: 63f4 923c 2c9e cd3d 27b2 18be 3e4d f63c
000001c0: 77c8 babd 0b27 1d3e 7010 fa3d 49cb 1f3e
000001d0: e0c2 afbd f9de 073e 069b 12be 9d1b 8e3e
000001e0: 6dc1 5abe 498c 093e df7d 53bd 5528 da3d
000001f0: 896b 4cbe 17c0 30bd c14b 3e3d bacc 05be

policy_net.6.weight f4 [64, 128]
-0.10890542 0.20441557 0.37071347 -0.5967782 -0.18118721 -0.04134547 0.23166792 0.22514689
0.081899606 -0.3224475 -0.21293153 0.102359585 -0.3245269 -0.45656255 -0.29107147 -0.08930914
0.2337781 -0.07079157 -0.054735802 0.29959065 0.34352517 0.01127895 0.18290898 -0.05001182
-0.5372437 0.21289137 -0.12158617 0.4977719 0.1634947 -0.081769675 -0.59264237 -0.24952249
-0.07900805 -0.68691415 -0.38761666 -0.08041727 0.0066562085 -0.74486756 -0.12887904 0.17274477
0.06297753 -0.34872937 0.13014883 0.16158654 -0.43099496 0.30629954 -0.1747101 -0.0059874565
-0.09542692 0.65063995 -0.46087113 0.076166734 0.30213633 -0.007088461 0.0110610295 0.1669846
0.170784 0.07964152 0.40875843 -0.076950766 0.033487882 0.19578798 -0.23030557 -0.01103171
-0.31303245 0.09184626 -0.063897684 0.109605916 0.0023810628 -0.44093138 0.0837794 -0.5566546
0.0030842125 0.056130186 -0.69832814 0.068431 -0.20688452 -0.4494358 -0.23024882 -0.3128554
0.14787978 0.011623102 0.30440748 -0.15426941 -0.49496013 -0.33715764 0.37628233 -0.3802495
-0.18402709 -0.0091208145 -0.019373957 -0.57719576 -0.25067174 -0.2015668 0.104215205 -0.895573
-0.17288958 -0.03885453 -0.13259885 0.109671146 -0.62833333 0.04890927 0.024641274 0.048830517
-0.120665394 -0.23765218 0.21191218 -0.05892509 0.27546635 0.06652405 0.108883366 -0.299837
-0.32750654 -0.21505775 -0.16057085 -0.6073883 0.6271698 -0.75689876 -0.687146 -0.19743425
-0.0023400888 0.13362484 -0.28264838 0.23561616 -0.08096261 -0.30965492 -0.5594274 -0.23860782
-0.10730562 0.06266593 -0.10146199 0.03481599 -0.06603734 0.25682077 0.123411104 -0.1858523
-0.2971146 0.13312495 0.08167598 0.09221359 -0.15180804 -0.17532958 -0.021375095 0.14296769
0.3557203 -0.11075315 -0.024552247 0.12924246 -0.15634905 0.2627741 -0.007696737 -0.5557901
-0.9163909 -0.1667221 -0.66318536 -0.62671083 0.21446711 -0.11406999 -0.094640315 -0.66838914
-0.05741109 0.11361944 0.075712204 -0.16813245 0.012638302 0.03629124 0.043812156 0.072206676
-0.22409412 0.1373685 0.03431232 -0.75006676 -0.23695001 0.17973994 -0.21208836 0.078507505
-0.08570509 -0.14679313 0.05544368 0.3669892 -0.004890212 -0.11578851 0.088352196 -0.06571498
-0.2209847 0.20437457 -0.09380582 0.04876508 0.11320555 0.011845143 -0.012449281 -0.012567204
-0.051748466 -0.37097 0.17893286 -0.22996436 -0.8429357 -0.11590239 0.08033645 0.29196855
0.2872539 -0.5668191 -0.35705984 -0.09372215 0.09376114 0.111423805 -0.5177275 -0.035533622
-0.0139378095 0.016208326 -0.052324127 -0.12646385 -0.41769868 0.06907266 0.09239352 -0.46905553
0.011179621 0.14709897 -0.13120486 -0.13941184 -0.011993502 0.12993515 0.04191537 -0.08799403
-0.26135895 -0.17843686 0.052752405 -0.119493425 -0.028075676 -0.0183457 -0.2135514 0.1836609
-0.39223492 0.1794423 -0.098826006 0.084022805 -0.27147135 0.4917489 -0.027208159 0.18925071
-0.4853157 0.08937639 -0.06917199 -0.4898598 -0.099646404 0.18788476 -0.33109364 -0.4608128
0.033369284 -0.1430502 0.16987617 -0.31776863 0.034136742 -0.0022818977 -0.35068196 0.26098812
00000000: ce09 dfbd 5152 513e 28ce bd3e 75c6 18bf
00000010: 2489 39be de59 29bd 5b3a 6d3e e88c 663e
00000020: fbba a73d d717 a5be b90a 5abe e7a1 d13d
00000030: 6428 a6be 91c2 e9be 5207 95be b6e7 b6bd
00000040: 8763 6f3e 2cfb 90bd a632 60bd f263 993e
00000050: 88e2 af3e 58cb 383c 7e4c 3b3e 32d9 4cbd
00000060: ce88 09bf 3200 5a3e 2b02 f9bd f5db fe3e
00000070: 286b 273e dc76 a7bd 69b7 17bf d382 7fbe
00000080: f9ce a1bd 9bd9 2fbf b175 c6be cfb1 a4bd
00000090: 531c da3b a4af 3ebf def8 03be 01e4 303e
000000a0: 5dfa 803d a88c b2be bc45 053e f176 253e
000000b0: 5fab dcbe 4bd3 9c3e 34e7 32be 6d32 c4bb
000000c0: 306f c3bd 5790 263f 4df7 ebbe 4efd 9b3d
000000d0: 9db1 9a3e 5246 e8bb 5239 353c 03fe 2a3e
000000e0: 00e2 2e3e 181b a33d c948 d13e 5d98 9dbd
000000f0: 972a 093d a57c 483e 39d5 6bbe 58be 34bc
00000100: ca45 a0be e419 bc3d cadc 82bd 1179 e03d
00000110: 9b0b 1c3b c2c1 e1be 8994 ab3d ea80 0ebf
00000120: 8020 4a3b c4e8 653d a2c5 32bf 8d25 8c3d
00000130: 89d9 53be 731c e6be 59c6 6bbe 952e a0be
00000140: cc6d 173e d36e 3e3c 4cdb 9b3e cdf8 1dbe
00000150: 6a6b fdbe ed9f acbe 14a8 c03e 10b0 c2be
00000160: 9971 3cbe 786f 15bc 22b6 9ebc 1ac3 13bf
00000170: 0c58 80be 8767 4ebe c86e d53d 4644 65bf
00000180: f709 31be ed25 1fbd fec7 07be 449b e03d
00000190: 74da 20bf 1655 483d 7fdc c93c 8202 483d
000001a0: 6b1f f7bd 185b 73be 82ff 583e 6f5b 71bd
000001b0: ed09 8d3e c33d 883d 3efe de3d 3c84 99be
000001c0: f0ae a7be 1938 5cbe af6c 24be cd7d 1bbf
000001d0: 338e 203f 1ec4 41bf cde8 2fbf 342c 4abe
000001e0: 2d5c 19bb f3d4 083e 4ab7 90be 5d45 713e
000001f0: bacf a5bd 178b 9ebe a236 0fbf 9c55 74be
00000200: 0dc3 dbbd ff56 803d 4ecb cfbd 369b 0e3d
00000210: 963e 87bd 037e 833e f6be fc3d 1150 3ebe
00000220: 681f 98be e851 083e bc45 a73d 7bda bc3d
00000230: 9173 1bbe 9989 33be d31a afbc 1f66 123e
00000240: f920 b63e 8cd2 e2bd cb21 c9bc 2358 043e
00000250: f719 20be 548a 863e e934 fcbb 4348 0ebf
00000260: 9898 6abf 33b9 2abe 84c6 29bf 1f70 20bf
00000270: 449d 5b3e 879d e9bd c8d2 c1bd 8d1b 2bbf
00000280: e427 6bbd 4fb1 e83d 000f 9b3d ea2a 2cbe
00000290: e110 4f3c 20a6 143d 6074 333d 18e1 933d
000002a0: ee78 65be 54aa 0c3e 138b 0c3d 6004 40bf
000002b0: 06a3 72be bf0d 383e b12d 59be 8bc8 a03d
000002c0: 2686 afbd f050 16be ea18 633d 02e6 bb3e
000002d0: 123e a0bb 8722 edbd fff1 b43d 9395 86bd
000002e0: d049 62be 9147 513e 441d c0bd e4bd 473d
000002f0: 50d8 e73d 2112 423c 12f8 4bbc ade6 4dbc
00000300: 33f6 53bd c8ef bdbe 2d3a 373e c77b 6bbe
00000310: a2ca 57bf 3b5e edbd 7087 a43d e77c 953e
00000320: f112 933e 0e1b 11bf 8cd0 b6be 66f1 bfbd
00000330: d705 c03d 2a32 e43d ca89 04bf b48b 11bd
00000340: 695b 64bc 53c7 843c d351 56bd bd7f 01be
00000350: 9adc d5be f775 8d3d d038 bd3d 0c28 f0be
00000360: bb2a 373c 1da1 163e 915a 06be fac1 0ebe
00000370: 6580 44bc b80d 053e 73af 2b3d 3736 b4bd
00000380: d7d0 85be 27b8 36be e812 583d f8b8 f4bd
00000390: f6fe e5bc b949 96bc 38ad 5abe 9a11 3c3e
000003a0: 04d3 c8be b9bf 373e 4a65 cabd 2614 ac3d
000003b0: 4bfe 8abe 83c6 fb3e a5e3 debc f0ca 413e
000003c0: 4d7b f8be f80a b73d 0baa 8dbd e7ce fabe
000003d0: 6a13 ccbd dd64 403e 1b85 a9be a8ef ebbe
000003e0: 3bae 083d c07b 12be 05f4 2d3e 92b2 a2be
000003f0: f8d2 0b3d e48b 15bb 968c b3be 3ca0 853e

policy_net.6.bias f4 [64]
-0.0766067 0.33391002 -0.21527094 -0.2045952 -0.45573038 0.259943 -0.21388009 -0.0753365
-0.009042071 0.17350157 0.40695727 -0.0136890095 0.3474902 0.149358 0.5174484 0.28392673
-0.13272987 -0.24028645 0.14098158 0.20192768 -0.089172006 0.32965478 -0.025541693 0.1225844
0.12202293 0.246908 0.38364843 -0.049051743 0.27074048 0.1928136 0.28743854 -0.011840945
-0.10982029 0.35241705 0.19624418 0.03403745 0.07502006 0.12485487 0.20992433 -0.40767094
0.2826196 -0.10327136 0.042041685 -0.26238552 0.36984143 0.47572172 -0.15063484 0.03539275
-0.28943825 -0.33358184 -0.32681346 0.40843388 -0.33655888 0.00071978697 -0.22531274 -0.2070501
0.5207439 0.115495585 0.01526215 -0.28181538 0.1595158 0.23902074 -0.10272654 0.15667607
00000000: f9e3 9cbd 41f6 aa3e fc6f 5cbe 6781 51be
00000010: 7e55 e9be 4017 853e 6203 5bbe 064a 9abd
00000020: 3225 14bc 65aa 313e b45c d03e de47 60bc
00000030: 3cea b13e 4ef1 183e 8077 043f d85e 913e
00000040: 57ea 07be a70d 76be 7a5d 103e 21c6 4e3e
00000050: d09f b6bd 83c8 a83e d03c d1bc 880d fb3d
00000060: 28e7 f93d 73d5 7c3e 916d c43e 7bea 48bd
00000070: 7f9e 8a3e ee70 453e 252b 933e 8600 42bc
00000080: 76e9 e0bd 0270 b43e 3cf4 483e da6a 0b3d
00000090: 1ea4 993d e9b3 ff3d 67f6 563e 3fba d0be
000000a0: 84b3 903e ef7f d3bd e733 2c3d 6557 86be
000000b0: db5b bd3e cc91 f33e 0540 1abe fdf7 103d
000000c0: 4031 94be 3dcb aabe 1854 a7be 3f1e d13e
000000d0: 7251 acbe 16b0 3c3a 62b8 66be f104 54be
000000e0: 794f 053f f388 ec3d 190e 7a3c 1b4a 90be
000000f0: 1c58 233e dac1 743e 4b62 d2bd b16f 203e

policy_net.8.weight f4 [4, 64]
-0.12637608 0.060527716 -0.3621175 0.10461632 0.11227415 0.10983113 0.031915274 -0.05589673
-0.15615891 0.045853354 0.008066319 0.13837978 -0.034062117 0.21350785 0.01912145 0.059202123
0.037075005 -0.075568646 -0.05298837 0.11529008 0.10637557 0.10600957 -0.029191729 0.06762027
-0.093818404 -0.09211035 0.06725528 0.05938498 -0.021894911 -0.05388703 -0.021616517 -0.0397779
0.031385735 0.028187325 -0.050159357 -0.06295125 0.061294846 0.07188405 0.028607698 -0.015439964
0.08915763 -0.16104254 0.058743306 -0.05783692 -0.033259973 -0.054535758 0.0885318 0.017488273
-0.03124265 0.091962025 -0.05476985 0.008844051 0.33153436 0.012656531 -0.123469196 -0.07860911
-0.15618993 0.052850973 0.065237544 -0.06359273 0.13786045 -0.0346043 0.016272007 -0.04714907
0.06667401 -0.005541732 0.30652997 -0.021056114 0.15190306 0.08732397 -0.021845238 -0.026695667
0.27050945 0.0105138095 -0.033246942 -0.063079886 0.08245398 0.13095728 0.02097459 -0.17664956
0.0267927 -0.07665428 -0.0778396 -0.0010197839 0.10436238 0.078386255 -0.014491158 0.06092898
-0.033956368 -0.06622896 0.04842692 0.035870455 -0.038599446 -0.074648716 -0.09644286 0.09717504
0.061643053 0.10604231 -0.093618125 0.03655947 0.018699795 0.119051546 0.04385199 0.07777341
0.05599162 -0.073062554 0.121723905 -0.051136743 -0.0926511 -0.04357719 0.025771923 0.0773046
0.07811864 -0.07797916 -0.02715221 -0.06841684 0.16778551 0.06684201 -0.07510641 -0.011842366
-0.11447621 -0.0956262 -0.076389335 -0.089302994 0.042395007 -0.019447803 0.11837862 0.07489948
0.075958304 0.013130946 0.074263215 -0.15257826 -0.16404091 -0.062481824 -0.18589015 0.09166643
0.080911554 0.10999478 -0.09258753 -0.052216567 0.11377748 0.0017425626 -0.15007234 -0.0067105535
-0.077531636 -0.08564923 -0.02520939 -0.08288197 -0.32251996 0.002599932 -0.06535299 -0.009744014
0.14073412 0.11243836 0.08582808 0.08350683 0.07945258 0.08077385 -0.016507428 0.016280532
-0.11938586 -0.020564487 -0.018839713 -0.04579487 0.23050517 -0.10583222 0.03871327 -0.22184065
-0.28734612 0.09139443 -0.0733788 0.21052976 0.112702265 0.2436416 -0.21846955 0.072085425
0.13882485 -0.032069977 -0.010889725 0.075741306 0.20971633 -0.10848867 0.07229864 0.04231131
0.2555421 -0.011485531 -0.027873669 0.18975185 -0.25476617 0.07746676 -0.117255904 0.07672577
-0.07037153 -0.11506916 -0.006350778 -0.042531718 0.028394861 -0.033783905 0.086514264 -0.012688595
-0.08693383 0.11413826 0.02220329 -0.039277576 0.029466933 -0.020570667 0.11878649 -0.05732789
-0.11128933 0.06117367 0.0189133 0.032894783 -0.027693955 0.0006880815 -0.1129888 -0.00016224533
0.0063907695 0.0563903 -0.031055687 -0.02686208 -0.045590855 -0.046291504 -0.00019582672 -0.020374738
0.027555853 0.0075399703 0.042318475 -0.032582507 -0.058330018 0.031790793 -0.08614759 0.013214477
0.06044974 0.063147895 0.040820062 -0.07100207 -0.046325635 -0.044985592 0.03514451 -0.07863704
-0.07322532 -0.060649756 -0.0733838 -0.06367385 0.07185543 0.118831955 0.024056368 0.052471623
-0.10804756 -0.01566866 -0.019872751 -0.07325557 0.07548628 -0.06603885 -0.23720412 0.052843984
00000000: bb68 01be e9eb 773d 7767 b9be 1541 d63d
00000010: fdef e53d 25ef e03d 97b9 023d f8f3 64bd
00000020: 1fe8 1fbe bad0 3b3d 9828 043c 6eb3 0d3e
00000030: b884 0bbd cda1 5a3e 96a4 9c3c ed7d 723d
00000040: f6db 173d bcc3 9abd 550a 59bd 351d ec3d
00000050: 6fdb d93d 8c1b d93d 7e23 efbc 7f7c 8a3d
00000060: dd23 c0bd 5aa4 bcbd 23bd 893d aa3d 733d
00000070: f55c b3bc a5b8 5cbd 1f15 b1bc 27ee 22bd
00000080: 548e 003d 1be9 e63c e673 4dbd 96ec 80bd
00000090: 4e10 7b3d f237 933d b15a ea3c e7f7 7cbc
000000a0: 4798 b63d 56e8 24be d29c 703d 68e6 6cbd
000000b0: 9c3b 08bd e360 5fbd 2950 b53d 9143 8f3c
000000c0: 96f0 ffbc 9656 bc3d 5a56 60bd a3e6 103c
000000d0: dfbe a93e 575d 4f3c 6bdd fcbd d0fd a0bd
000000e0: 41f0 1fbe 437a 583d 439b 853d e83c 82bd
000000f0: 4a2b 0d3e 3dbd 0dbd df4c 853c 621f 41bd
00000100: 628c 883d 6b97 b5bb 7ff1 9c3e df7d acbc
00000110: 7a8c 1b3e e9d6 b23d c9f4 b2bc dfb0 dabc
00000120: 3780 8a3e 1d42 2c3c f22d 08bd 0730 81bd
00000130: a2dd a83d aa19 063e e7d2 ab3c 9fe3 34be
00000140: 5d7c db3c ebfc 9cbd 5e6a 9fbd 45aa 85ba
00000150: f2bb d53d f988 a03d 526c 6dbc ab90 793d
00000160: d515 0bbd 0da3 87bd 4e5b 463d e6ec 123d
00000170: 741a 1ebd 6de1 98bd d683 c5bd b503 c73d
00000180: 6d7d 7c3d b62c d93d dcba bfbd 62bf 153d
00000190: 5030 993c 4cd1 f33d 259e 333d aa47 9f3d
000001a0: 7857 653d d2a1 95bd 624a f93d c374 51bd
000001b0: dcbf bdbd ff7d 32bd a41f d33c e051 9e3d
000001c0: aafc 9f3d 8ab3 9fbd 506e debc 211e 8cbd
000001d0: f7cf 2b3e 77e4 883d 64d1 99bd 7c06 42bc
000001e0: 8172 eabd abd7 c3bd 0372 9cbd 7de4 b6bd
000001f0: 63a6 2d3d 0051 9fbc 7d70 f23d e664 993d
00000200: 0790 9b3d 2e23 573c 5017 983d 7a3d 1cbe
00000210: 57fa 27be f1ec 7fbd fd59 3ebe 9cbb bb3d
00000220: f5b4 a53d f144 e13d 889e bdbd 0ae1 55bd
00000230: 2b04 e93d b366 e43a 90ac 19be 34e4 dbbb
00000240: e8c8 9ebd dd68 afbd ec83 cebc 06be a9bd
00000250: 5621 a5be 9f63 2a3b cad7 85bd 5ba5 1fbc
00000260: 9b1c 103e 1546 e63d a2c6 af3d a105 ab3d
00000270: 09b8 a23d c36c a53d 963a 87bc c05e 853c
00000280: 9380 f4bd db76 a8bc be55 9abc 6793 3bbd
00000290: 8c09 6c3e 90be d8bd ce91 1e3d 322a 63be
000002a0: 081f 93be 012d bb3d a047 96bd 1d95 573e
000002b0: 72d0 e63d 2f7d 793e 7bb6 5fbe 86a1 933d
000002c0: 1a28 0e3e cf5b 03bd d16a 32bc 421e 9b3d
000002d0: e1bf 563e 4f2f debd 4f11 943d a04e 2d3d
000002e0: 6ad6 823e cf2d 3cbc 5257 e4bc 4f4e 423e
000002f0: b670 82be e5a6 9e3d dd23 f0bd 6722 9d3d
00000300: f31e 90bd 61a9 ebbd 301a d0bb bd35 2ebd
00000310: 579c e83c fe60 0abd 642e b13d d3e3 4fbc
00000320: 5d0a b2bd 52c1 e93d ade3 b53c 86e1 20bd
00000330: a364 f13c d183 a8bc 5546 f33d a6d0 6abd
00000340: a9eb e3bd 3e91 7a3d 11f0 9a3c aebc 063d
00000350: 6fde e2bc 5e60 343a ac66 e7bd 6620 2ab9
00000360: a969 d13b 84f9 663d 7f68 febc dd0d dcbc
00000370: 7abd 3abd 299c 3dbd d656 4db9 ece8 a6bc
00000380: d0bc e13c db11 f73b 2356 2d3d 3c75 05bd
00000390: 75eb 6ebd 1037 023d 266e b0bd 8981 583c
000003a0: 269a 773d af53 813d f032 273d 8969 91bd
000003b0: f3bf 3dbd d042 38bd b1f3 0f3d 750c a1bd
000003c0: 28f7 95bd e16b 78bd 3f4a 96bd 6f67 82bd
000003d0: f128 933d 2b5e f33d dc11 c53c 7cec 563d
000003e0: 0a48 ddbd 905b 80bc 2ecc a2bc 0407 96bd
000003f0: 8d98 9a3d 603f 87bd a3e5 72be ef72 583d

policy_net.8.bias f4 [4]
0.08504541 0.01179845 0.089932725 0.2087406
00000000: 4a2c ae3d 494e 413c a62e b83d 19c0 553e

inverse_net.0.weight f4 [64, 48]
0.08376025 1.1845824 -0.5041419 0.17574981 -0.108106956 0.26837105 -0.24203213 0.3013248
0.082169645 0.35728806 -0.2661798 -0.21000317 -0.2782309 -0.031636436 -0.0327986 0.15459955
-0.08649129 -0.042339113 0.07636256 0.01982718 -0.029448492 -0.08792885 -0.059311535 -0.15771905
0.20828243 -0.2212226 -0.2638286 -1.8012516 0.060948003 0.0011594952 -0.6494874 -0.5830306
0.0059152637 0.31867757 0.12024959 -0.10068592 0.14244579 -0.26794675 -0.0348746 0.07986838
-0.02304032 0.09103311 0.04645709 0.108054206 0.07949718 -0.033498824 -0.115251176 -0.02652217
0.048343845 0.78415024 0.34850556 0.2806563 0.10945264 -0.016507909 -0.02081336 0.005327432
0.0067592817 0.16206639 0.07605495 -0.09017211 0.0019807583 0.0017406915 -0.07050868 0.011181696
-0.033245295 -0.09870673 -0.0014816149 0.08728293 -0.12585305 0.07544452 -0.17044759 0.21891691
-0.04524813 -1.7298707 -0.45132127 1.0352788 0.051952258 -0.014419461 0.04099937 -0.02118218
-0.011905402 0.21820165 5.067199 0.010402781 -0.033975504 0.002455104 0.08263459 -0.08001688
-0.059712972 0.015074227 -0.039956238 -0.063331746 -0.05994671 -0.17591235 0.08850336 -0.03935806
0.3883018 -1.3866307 0.18791883 0.2024514 -0.41128168 0.30676752 -0.45302525 -0.20071918
0.023471134 -0.08073573 -0.36312854 0.13624296 -0.36786368 0.17711984 0.0423218 -0.09065809
-0.045962825 -0.07282074 -0.12652577 -0.11049107 -0.16785656 -0.20221587 -0.15659031 -0.053246304
0.3043583 0.5493186 -0.42614296 -2.5481477 -0.61366725 -0.26961067 -0.72818196 -0.16753843
-0.114899546 -0.07811046 0.0010481664 0.15780798 -0.15480593 0.05948431 -0.21955079 0.028056115
0.02196075 -0.16746773 -0.15944299 -0.20732802 -0.03226999 -0.24654895 -0.18937178 0.06602136
-0.10373057 2.798929 0.38297155 -0.91160524 0.2330182 -0.6128562 -0.2896464 -0.10008472
-0.047099654 0.13214016 -0.42857507 -0.075575635 0.069095336 0.14481997 -0.09875871 -0.10201558
-0.16368316 -0.038901817 0.05564155 -0.018221484 -0.09324306 0.098909 0.26731566 -0.043933902
-0.090768926 0.25789842 1.3983867 -0.4431553 0.24877307 0.6066809 -0.22198072 -0.453871
-0.1555155 0.070951834 0.08558874 0.12459476 0.22730884 -0.048544228 -0.15522301 -0.15988915
-0.124608405 -0.1450297 -0.091430016 -0.0038114318 -0.15403235 0.12443844 0.32115456 -0.07921589
-0.49511796 -0.5809543 -1.6826499 1.2378466 0.16405694 -0.36442468 0.44668984 -0.33785322
0.09115797 -0.26720944 -0.12410143 0.23447357 -0.21202528 -0.07806107 -0.044773016 -0.017564895
-0.15572128 0.014897407 -0.16303086 0.024809038 -0.03542725 -0.2118847 -0.21628644 0.11813043
-0.8292721 -3.362031 0.016904965 -1.9764351 0.10354814 0.53918296 0.5992758 0.54226226
-0.039401826 -0.35202402 -0.067953534 -0.02456791 -0.17269668 0.013277383 -0.06691934 -0.019369544
-0.13368045 -0.1539928 0.03594813 -0.04473848 -0.1291159 -0.14543208 -0.13751295 0.061902143
-0.15489754 0.09881666 -0.78963476 -1.4618512 -0.086025104 0.3873356 0.1257623 0.30115262
-0.08598413 -0.42127407 -0.93278897 -0.48739523 0.10549673 -0.12984546 0.028645208 -0.024920445
00000000: 7e8a ab3d 65a0 973f 720f 01bf c2f7 333e
00000010: 2e67 ddbd ee67 893e 45d7 77be 3f47 9a3e
00000020: 8f48 a83d 76ee b63e b848 88be 120b 57be
00000030: 4874 8ebe 3595 01bd d357 06bd 584f 1e3e
00000040: 5822 b1bd c76b 2dbd f963 9c3d 9c6c a23c
00000050: f73d f1bc 0a14 b4bd a7f0 72bd 1a81 21be
00000060: fd47 553e 2d88 62be 8b14 87be 6a8f e6bf
00000070: 9da4 793d 34fa 973a ce44 26bf 7e41 15bf
00000080: d4d4 c13b b529 a33e 6b45 f63d 6b34 cebd
00000090: 4fdd 113e 5130 89be abd8 0ebd 0992 a33d
000000a0: 0ebf bcbc 916f ba3d ca49 3e3d 864b dd3d
000000b0: 6bcf a23d 1036 09bd cf08 ecbd 0645 d9bc
000000c0: 3204 463d 12be 483f 526f b23e 2fb2 8f3e
000000d0: b528 e03d 983b 87bc c880 aabc bd91 ae3b
000000e0: f77c dd3b bbf4 253e b3c2 9b3d 28ac b8bd
000000f0: 9ccf 013b ea27 e43a db66 90bd 6f33 373c
00000100: 382c 08bd c126 cabd bf32 c2ba 65c1 b23d
00000110: 9fdf 00be a882 9a3d d089 2ebe c12b 603e
00000120: 1a56 39bd 676c ddbf 9513 e7be 0484 843f
00000130: e4cb 543d 9a3f 6cbc f5ee 273d 4086 adbc
00000140: e00e 43bc 4170 5f3e 7f26 a240 6d70 2a3c
00000150: e629 0bbd cfe5 203b 533c a93d e4df a3bd
00000160: 9795 74bd e4f9 763c 27a9 23bd 13b4 81bd
00000170: ae8a 75bd 5e22 34be 4041 b53d eb35 21bd
00000180: 7ecf c63e 1d7d b1bf cb6d 403e 6b4f 4f3e
00000190: 8393 d2be a210 9d3e edf2 e7be 5489 4dbe
000001a0: 8946 c03c c658 a5bd fceb b9be 4683 0b3e
000001b0: a158 bcbe e75e 353e a059 2d3d f3aa b9bd
000001c0: 8443 3cbd 0a23 95bd f98f 01be 2449 e2bd
000001d0: 97e2 2bbe ad11 4fbe 3659 20be cc18 5abd
000001e0: dad4 9b3e 25a0 0c3f 692f dabe da14 23c0
000001f0: 4c19 1dbf 690a 8abe 226a 3abf 328f 2bbe
00000200: 7450 ebbd 60f8 9fbd a162 893a 6a98 213e
00000210: 7285 1ebe d2a5 733d ecd1 60be f0d5 e53c
00000220: 08e7 b33c a97c 2bbe 0645 23be cc4d 54be
00000230: 892d 04bd 5477 7cbe adea 41be 3536 873d
00000240: b170 d4bd a721 3340 d914 c43e f65e 69bf
00000250: 539c 6e3e 25e4 1cbf 884c 94be 38f9 ccbd
00000260: 91eb 40bd c04f 073e 316e dbbe 66c7 9abd
00000270: db81 8d3d b04b 143e 0242 cabd 8bed d0bd
00000280: 8f9c 27be 8357 1fbd 65e8 633d 3945 95bc
00000290: 38f6 bebd cd90 ca3d 99dd 883e 09f4 33bd
000002a0: 0fe5 b9bd 430b 843e 56fe b23f 40e5 e2be
000002b0: 5ebe 7e3e 714f 1b3f ea4e 63be c861 e8be
000002c0: 753f 1fbe 324f 913d 2649 af3d 8a2b ff3d
000002d0: a6c3 683e 50d6 46bd c8f2 1ebe fbb9 23be
000002e0: b132 ffbd aa82 14be a93f bbbd 37c9 79bb
000002f0: a8ba 1dbe 95d9 fe3d 5f6e a43e f13b a2bd
00000300: 1a80 fdbe 6cb9 14bf 1261 d7bf c271 9e3f
00000310: 8bfe 273e df95 babe 88b4 e43e 19fb acbe
00000320: 08b1 ba3d adcf 88be e428 febd d719 703e
00000330: 281d 59be 7bde 9fbd e963 37bd 41e4 8fbc
00000340: 6675 1fbe 4114 743c 90f1 26be 533c cb3c
00000350: 2a1c 11bd 4ef8 58be 317a 5dbe 5eee f13d
00000360: 2d4b 54bf 842b 57c0 487c 8a3c d3fb fcbf
00000370: 0c11 d43d e507 0a3f 246a 193f b3d1 0a3f
00000380: cf63 21bd 7e3c b4be 392b 8bbd a442 c9bc
00000390: 66d7 30be 6189 593c 020d 89bd e1ac 9ebc
000003a0: 87e3 08be 4ab0 1dbe 593e 133d b23f 37bd
000003b0: f536 04be 26ec 14be 32d0 0cbe 1a8d 7d3d
000003c0: 769d 1ebe 6460 ca3d 8125 4abf f11d bbbf
000003d0: ee2d b0bd da50 c63e d5c7 003e ad30 9a3e
000003e0: 7318 b0bd 3cb1 d7be 42cb 6ebf de8b f9be
000003f0: ab0e d83d 35f6 04be 5ba9 ea3c f625 ccbc

inverse_net.0.bias f4 [64]
-0.12587757 0.18692482 0.16031359 -0.06975883 0.105573095 -0.07849919 -0.041415572 -0.11642406
-0.18255365 0.037567258 -0.136859 0.11292643 -0.08314822 -0.14423753 -0.0682797 -0.21707995
-0.18759686 0.18772784 0.044254538 -0.03373101 0.088374585 0.16521865 -0.13093738 0.0060926666
-0.012933797 -0.06006825 -0.043100983 -0.04192885 -0.069395125 -0.14830256 -0.25631303 -0.19268991
-0.05887224 0.083106205 -0.08851773 -0.20772684 -0.15765536 -0.043647185 -0.16854537 -0.08618987
0.00062066386 -0.029104091 0.019255277 0.20761204 0.10726528 -0.036394715 0.031974193 -0.029796595
-0.017196922 -0.002098878 0.05026576 -0.14121312 0.074023604 -0.2534451 -0.11198199 0.10436295
-0.06092988 -0.12757507 -0.08880474 0.12953982 0.017097391 -0.122538775 0.14122377 -0.040222634
00000000: 0de6 00be 3869 3f3e 3f29 243e b8dd 8ebd
00000010: b536 d83d 2fc4 a0bd 60a3 29bd bd6f eebd
00000020: 58ef 3abe 20e0 193d c424 0cbe f945 e73d
00000030: 9d49 aabd 01b3 13be 3ad6 8bbd 354a 5ebe
00000040: 6419 40be ba3b 403e 3f44 353d 8729 0abd
00000050: bcfd b43d 142f 293e 7314 06be fea4 c73b
00000060: 47e8 53bc 200a 76bd a88a 30bd 96bd 2bbd
00000070: 081f 8ebd a0dc 17be 763b 83be 8150 45be
00000080: 0524 71bd 9633 aa3d c948 b5bd 58b6 54be
00000090: 6870 21be 64c7 32bd 2897 2cbe 5184 b0bd
000000a0: 0cb4 223a b46b eebc 3ebd 9d3c 4098 543e
000000b0: e6ad db3d a012 15bd 5ff7 023d fd17 f4bc
000000c0: 8fe0 8cbc 548d 09bb 78e3 4d3d 2c9a 10be
000000d0: b099 973d 8ec3 81be d056 e5bd 3ebc d53d
000000e0: 9c91 79bd 0aa3 02be 42df b5bd 16a6 043e
000000f0: d40f 8c3c 9cf5 fabd f79c 103e 7dc0 24bd
