IL/Model/model_reacher_94.pt (torch, 292527 bytes, 20 tensors)

policy_net.0.weight f4 [64, 24]
-0.74793136 -1.5483807 0.35974213 0.12798114 0.37077573 -0.24831435 0.4923302 -0.081723355
0.20650001 0.20389897 0.02586698 -0.052406173 -0.06759635 -0.03717388 0.45526415 0.2252528
0.2642254 0.03497724 -0.4943823 -0.85797745 -0.6100451 -0.039729796 0.2925654 0.058725644
0.22543345 -1.2472147 -0.32622936 0.15184963 0.33746564 0.3018653 1.3076298 -0.410365
-0.16910562 -0.40212896 0.4714125 0.0487577 -0.025209565 -0.39642948 -0.045910142 -0.122979656
-0.16283372 -0.30267307 -0.4184017 -0.29662457 -0.3934079 0.07056365 -0.17010632 -0.064945854
0.11677892 1.0258762 -0.62320304 2.6028543 -0.07700004 -0.2133235 0.01223541 0.09405806
0.74201167 -0.08109798 0.14277565 -0.122891426 0.59684855 0.4773789 -0.1475338 -0.2026632
-0.18019518 -0.26914316 0.006732595 0.04633578 0.10934112 0.22262211 -0.15717822 -0.27221292
0.5841419 0.8842494 -0.5965857 -1.9778773 0.4734377 0.22209054 0.48153642 0.1429639
-0.09776324 0.19337313 -0.19933902 -0.8514044 -0.06805309 -0.024464108 -0.0019070056 -0.0826476
-0.12095367 -0.07502725 -0.14920706 -0.43461046 -0.14092265 -0.26398015 -0.1408104 0.07992864
-0.052086137 0.31005058 -0.23935868 0.35042033 -0.012738116 0.16037564 0.11688667 0.091398224
-0.0010430275 -0.2498934 -0.24625011 0.54647154 -0.7382771 -0.023606414 0.25685257 0.19762966
0.42413 0.35821488 0.20209731 0.24799702 -0.123717636 -0.24780239 -0.22385696 -0.053012464
-0.40653005 -1.3391787 0.5468521 -1.9666873 -0.149906 -0.14624873 0.3280274 -0.2316455
-0.9589609 0.41306588 -0.35853526 -0.06421868 -0.112606406 -0.28970286 0.14230391 0.14868963
0.20187706 0.18785055 0.41885614 0.5143736 0.29363078 0.12274169 -0.19407882 -0.08361444
-0.44767264 5.0740623 0.23360188 -1.0697881 -0.47354457 0.6400395 -0.4798466 0.2975484
0.15024899 -0.06685251 0.32620487 -0.15356755 0.08160333 0.13527839 0.14536078 -0.053710453
0.24358913 0.28479567 0.10530031 0.33279148 0.16143821 -0.16516861 -0.4397198 -0.17180239
0.008132405 0.52401316 0.92432463 1.8380775 -0.2372947 0.17587453 0.19189617 -0.113492765
0.16132818 -0.45593214 -0.011585674 0.4623219 -0.27237406 0.026551738 -0.29401565 -0.09919364
-0.15873724 0.16760246 -0.011331963 0.014504439 0.16575685 -0.26069698 -0.040374354 0.07337075
1.1467301 0.0794656 -0.71468985 -0.8368254 -0.09655356 0.3377742 -0.31980655 0.20136699
0.13338141 0.4121632 -0.0606839 0.19692943 0.12602684 0.16724598 -0.21417485 -0.07206696
-0.11527899 -0.21074323 0.08851607 -0.11910231 0.008932192 0.07198007 -0.06523012 0.23873848
0.37715328 1.5283728 0.19693005 -2.085018 -0.5281839 0.32733634 -0.2721498 0.09469937
0.03230755 0.51872236 0.65127355 -0.3675747 -0.16577542 -0.35437194 0.39577723 0.29526815
0.25109214 0.099690296 0.14893745 -0.29433316 -0.49204332 -0.32075202 -0.12239184 0.07663698
0.7391404 2.100962 0.39703247 -0.95576346 0.3832686 0.12655346 -0.68395597 -0.07302415
-0.3232532 0.65615445 0.36488217 -0.03349994 0.2211727 0.24396525 -0.62334055 -0.59240204
00000000: 6e78 3fbf 5731 c6bf 1f30 b83e 7d0d 033e
00000010: 51d6 bd3e 1e46 7ebe b412 fc3e 935e a7bd
00000020: bd74 533e e4ca 503e fde6 d33c dba7 56bd
00000030: f56f 8abd a343 18bd 6218 e93e aca8 663e
00000040: 8d48 873e 4b44 0f3d ad1f fdbe 69a4 5bbf
00000050: ea2b 1cbf b6bb 22bd 22cb 953e 4d8a 703d
00000060: 07d8 663e bba4 9fbf 8907 a7be 787e 1b3e
00000070: 4cc8 ac3e 178e 9a3e 6a60 a73f 5c1b d2be
00000080: 062a 2dbe d9e3 cdbe fb5c f13e 27b6 473d
00000090: 4a84 cebc cef8 cabe 460c 3cbd c2dc fbbd
000000a0: e2bd 26be f7f7 9abe bf38 d6be 2ddf 97be
000000b0: c36c c9be ad83 903d 5a30 2ebe 5502 85bd
000000c0: c929 ef3d e94f 833f 3c8a 1fbf 2a95 2640
000000d0: 32b2 9dbd 7a71 5abe 0777 483c 83a1 c03d
000000e0: 7af4 3d3f b316 a6bd c833 123e 80ae fbbd
000000f0: 11cb 183f 026b f43e 1a13 17be f186 4fbe
00000100: 1685 38be 22cd 89be 1a9d dc3b 96ca 3d3d
00000110: 3dee df3d 0df7 633e 54f3 20be 7e5f 8bbe
00000120: 538a 153f 2b5e 623f d7b9 18bf 152b fdbf
00000130: 6d66 f23e b46b 633e f18b f63e 2165 123e
00000140: 1838 c8bd 9b03 463e 871f 4cbe a4f5 59bf
00000150: 6b5f 8bbd f468 c8bc 7df4 f9ba 2543 a9bd
00000160: 8fb6 f7bd e3a7 99bd bcc9 18be 4385 debe
00000170: 074e 10be 6828 87be 9a30 10be a0b1 a33d
00000180: 4658 55bd f3be 9e3e 711a 75be 4b6a b33e
00000190: 88b3 50bc 8339 243e 4762 ef3d fe2e bb3d
000001a0: 32b6 88ba 0ee4 7fbe fd28 7cbe 8fe5 0b3f
000001b0: baff 3cbf 3d62 c1bc 2e82 833e 6e5f 4a3e
000001c0: 9127 d93e f167 b73e 99f2 4e3e eef2 7d3e
000001d0: ac5f fdbd e9bf 7dbe c23a 65be 9923 59bd
000001e0: b524 d0be 356a abbf 80fe 0b3f 69bc fbbf
000001f0: f580 19be 3ac2 15be 35f3 a73e 7a34 6dbe
00000200: 767e 75bf 5f7d d33e ef91 b7be 1585 83bd
00000210: 309e e6bd ef53 94be 1eb8 113e 1842 183e
00000220: dcb8 4e3e e55b 403e 5074 d63e fdad 033f
00000230: c656 963e ff5f fb3d 99bc 46be 0c3e abbd
00000240: 5935 e5be b85e a240 5535 6f3e d1ee 88bf
00000250: 6f74 f2be a1d9 233f 74ae f5be 4458 983e
00000260: dfda 193e f8e9 88bd 5304 a73e d040 1dbe
00000270: a61f a73d 6b86 0a3e 75d9 143e 7eff 5bbd
00000280: 6e6f 793e bdd0 913e b0a7 d73d a563 aa3e
00000290: 0f50 253e f621 29be f422 e1be f7ec 2fbe
000002a0: c73d 053c ba25 063f 8aa0 6c3f 2046 eb3f
000002b0: 62fd 72be 7418 343e 6e80 443e e56e e8bd
000002c0: 3733 253e f06f e9be d7d1 3dbc 75b5 ec3e
000002d0: 9d74 8bbe 0883 d93c 3889 96be 0926 cbbd
000002e0: 048c 22be fb9f 2b3e b3a9 39bc 07a4 6d3c
000002f0: 2abc 293e 137a 85be 945f 25bd 6743 963d
00000300: 0dc8 923f dcbe a23d eaf5 36bf 303a 56bf
00000310: dfbd c5bd bdf0 ac3e afbd a3be 2633 4e3e
00000320: 2395 083e 0e07 d33e ae8f 78bd dea7 493e
00000330: 2e0d 013e 8842 2b3e a750 5bbe d897 93bd
00000340: 6417 ecbd 13cd 57be ea47 b53d e9eb f3bd
00000350: 5458 123c 496a 933d 5f97 85bd dc77 743e
00000360: 3c1a c13e b8a1 c33f 08a8 493e ef70 05c0
00000370: 0f37 07bf a198 a73e 3857 8bbe bef1 c13d
00000380: ec54 043d fdca 043f ddb9 263f c032 bcbe
00000390: 08c1 29be 3d70 b5be 50a3 ca3e 632d 973e
000003a0: 268f 803e 6d2a cc3d 0f83 183e d6b2 96be
000003b0: 1aed fbbe 9c39 a4be 93a8 fabd d9f3 9c3d
000003c0: 4e38 3d3f 2976 0640 d747 cb3e eaac 74bf
000003d0: c83b c43e 3b97 013e bd17 2fbf b08d 95bd
000003e0: 7281 a5be bdf9 273f d6d1 ba3e 3c37 09bd
000003f0: 197b 623e 07d2 793e 3f93 1fbf a9a7 17bf

policy_net.0.bias f4 [64]
-0.04844491 -0.031131566 -0.28902176 -0.02122703 0.158312 -0.3843307 0.123061895 -0.029389428
0.19189635 0.18633221 -0.08712593 0.008640325 -0.469005 -0.37924016 0.30065843 0.056311477
0.1060429 0.29936975 0.13351671 -0.17790227 0.035467457 -0.18066345 -0.23615213 0.06947303
-0.041617267 0.12512976 0.3078564 0.124602616 0.16489707 -0.0094553735 -0.14046107 -0.051205903
0.16585574 0.24878174 -0.060304143 -0.09407365 -0.022542294 0.00081411994 -0.12790155 0.33949363
0.095274545 -0.32066786 0.11243361 -0.031455744 -0.21550675 -0.2900677 0.4132086 -0.02722544
-0.03315287 0.25696936 0.16143979 -0.03797773 0.15671265 0.26965353 0.051664054 0.3341291
-0.31066176 -0.017050387 -0.19362292 0.17750795 0.33306515 -0.2764119 -0.16827098 -0.03021209
00000000: 2c6e 46bd a007 ffbc a9fa 93be 4fe4 adbc
00000010: 8a1c 223e fec6 c4be e007 fc3d 19c2 f0bc
00000020: 7a80 443e dfcd 3e3e 146f b2bd 2690 0d3c
00000030: 6c21 f0be c42b c2be e7ef 993e dda6 663d
00000040: 052d d93d fe46 993e 9bb8 083e 032c 36be
00000050: 5346 113d d7ff 38be ddd1 71be e047 8e3d
00000060: de76 2abd 0422 003e 5b9f 9d3e a82f ff3d
00000070: c7da 283e b6ea 1abc 07d5 0fbe 48bd 51bd
00000080: 16d6 293e a4c0 7e3e 7a01 77bd b0a9 c0bd
00000090: 9eaa b8bc aa6a 553a a0f8 02be 1cd2 ad3e
000000a0: 4d1f c33d 942e a4be 9843 e63d bdd7 00bd
000000b0: cdad 5cbe c183 94be 1490 d33e e307 dfbc
000000c0: 4ecb 07bd 7d91 833e 7950 253e 898e 1bbd
000000d0: 4879 203e 0710 8a3e b09d 533d f812 ab3e
000000e0: 0f0f 9fbe 41ad 8bbc 1645 46be a5c4 353e
000000f0: 8487 aa3e dc85 8dbe 3a4f 2cbe 587f f7bc

policy_net.2.weight f4 [128, 64]
-0.27156654 0.098214164 -0.4036687 -0.27737194 0.06641197 0.40136844 0.09183303 0.22106402
0.15906018 0.13127486 -0.1053491 -0.8416877 0.16718154 -0.25537416 0.071760185 0.5886005
-0.29174098 0.034265757 -0.15283932 -0.01017725 -0.154703 -0.21442318 0.09504356 0.44129154
0.23431471 -0.3538756 -0.36875322 0.7470146 0.06952916 0.15482548 -0.8861667 -0.2155068
-0.4749417 0.0016257777 -0.053865336 -0.17666578 0.14225067 0.16638334 -0.23842466 -0.39502287
0.19283943 -0.9510209 -0.13877022 1.258241 -0.16061293 0.19556314 0.11817204 0.08536863
0.11675697 -0.7824787 -0.0018626612 0.04249695 -0.12983467 -0.30885565 0.31728125 0.07596608
-0.10512909 0.028212858 0.2826776 -0.047864664 -0.3025156 -0.07409168 0.21722348 -0.0025613848
-0.63141257 1.0100052 0.37464792 0.31041417 -2.4713397 -0.22388463 0.35206446 -0.59992707
0.013565043 -0.113699146 -0.023691433 -0.29890627 0.05644011 0.13712746 0.10175798 0.1337891
-0.13185875 -0.0016744357 0.34813982 -0.14721306 0.04859685 0.27078462 -0.21680862 -0.80858463
-0.12232284 -0.037886683 0.514509 0.41858488 0.11329192 -0.22969781 0.057617072 -0.16014302
-0.5633024 -0.070387825 -0.3081004 0.043649998 0.42479694 0.48294947 -0.026315505 -0.2109328
-0.53184134 -0.057298917 0.2730265 -0.7766524 0.2635625 0.12553336 0.1070291 0.14940844
0.6654246 -0.0008367189 -0.66851676 0.14671166 0.4416615 -0.39994767 0.17183667 0.147219
-0.14016302 -0.35461503 -0.2084409 0.21946861 0.20286036 0.2748832 -0.10595763 -0.40221336
-0.32293618 -0.28585085 -0.51845115 0.25112712 0.18846929 0.12700322 -0.11783902 0.113623284
0.007530766 0.25859228 -0.061179925 -0.12568778 -0.20131722 -0.72573864 0.19861156 -0.41767156
-0.051312312 0.11197065 0.4326433 -0.7752754 0.09193445 -0.0924142 0.18910566 -0.4527947
-0.51563215 0.44347748 -0.042982277 0.21881513 0.44026348 -0.1108032 -0.020604592 0.3038665
0.30504766 0.084753975 -0.3725351 0.09062841 0.06482279 -0.30128047 0.42371964 0.8762401
0.11354795 -0.8328425 -0.15156426 -0.0012359183 -0.061065808 0.14382918 -0.18858461 0.0022921024
-0.11139223 0.08440765 0.15292105 -0.32349056 0.33764654 0.019952485 -0.047212802 0.31528813
-0.718226 -0.113629535 -0.80736333 0.20009571 0.51829433 -0.36776534 -0.10637669 -0.75097
-0.5130507 0.4259281 -0.41693464 0.15937091 -0.27680713 -0.12968989 -0.4363762 0.06640121
0.2795968 0.51455486 0.2915604 -0.18477027 -0.38834578 0.076449566 0.41255698 -0.041229527
0.18284476 0.16324994 -0.05300722 -0.48624626 0.16273157 -0.23544198 -0.27749407 -0.20413224
-0.51427644 0.4283461 -0.33915168 -0.090966195 -0.28147182 -0.041761238 -0.41655874 -0.49840152
0.75917745 0.3741737 -0.31776083 0.17823124 -0.6050753 -0.2026394 0.07228644 -0.6371542
-0.106235966 -0.70918536 0.170257 -0.56166995 -0.14174892 -0.8134222 -0.5733246 0.20132476
-0.65257955 -0.23236975 0.6735835 -0.46697453 0.33262062 0.4671802 0.36970916 0.6366976
-0.35962573 -0.49080238 -0.20643808 -0.54617965 -0.20452286 -0.24779062 -0.12490806 0.3696364
00000000: c50a 8bbe 8224 c93d aaad cebe b203 8ebe
00000010: 0003 883d 2a80 cd3e f512 bc3d 9b5e 623e
00000020: ace0 223e eb6c 063e 45c1 d7bd d878 57bf
00000030: a331 2b3e 67c0 82be 01f7 923d 86ae 163f
00000040: 135f 95be 405a 0c3d e981 1cbe 7bbe 26bc
00000050: 776a 1ebe c091 5bbe 33a6 c23d f7f0 e13e
00000060: 32f0 6f3e 2f2f b5be 39cd bcbe 593c 3f3f
00000070: 4e65 8e3d 928a 1e3e d2db 62bf d1ad 5cbe
00000080: 8f2b f3be 0c18 d53a e6a1 5cbd e0e7 34be
00000090: 29aa 113e 6560 2a3e 9825 74be 7040 cabe
000000a0: b377 453e 1b76 73bf c819 0ebe 0b0e a13f
000000b0: b777 24be b441 483e 2f04 f23d c0d5 ae3d
000000c0: 471e ef3d 8650 48bf 8a24 f4ba 4811 2e3d
000000d0: 61f3 04be 5422 9ebe b072 a23e 1b94 9b3d
000000e0: ec4d d7bd a71e e73c 1ebb 903e bd0d 44bd
000000f0: 53e3 9abe 61bd 97bd d56f 5e3e e8dc 27bb
00000100: 41a4 21bf da47 813f dad1 bf3e 9bee 9e3e
00000110: 6e2a 1ec0 0342 65be cb41 b43e d294 19bf
00000120: ea3f 5e3c 19db e8bd 8914 c2bc 3e0a 99be
00000130: bf2d 673d 246b 0c3e 7d66 d03d 0300 093e
00000140: fb05 07be bd78 dbba 623f b23e 05bf 16be
00000150: 7e0d 473d 48a4 8a3e 1403 5ebe 67ff 4ebf
00000160: 6684 fabd 112f 1bbd ddb6 033f c250 d63e
00000170: 9805 e83d e735 6bbe e1ff 6b3d 88fc 23be
00000180: 9634 10bf 7e27 90bd 56bf 9dbe 57ca 323d
00000190: fc7e d93e 2745 f73e 9d93 d7bc c5fe 57be
000001a0: c126 08bf 45b2 6abd 21ca 8b3e b1d2 46bf
000001b0: aaf1 863e d18b 003e 1332 db3d 87fe 183e
000001c0: 4459 2a3f 4157 5bba ea23 2bbf 953b 163e
000001d0: 7521 e23e f1c5 ccbe f4f5 2f3e 94c0 163e
000001e0: e586 0fbe 1a90 b5be 8871 55be 61bc 603e
000001f0: a0ba 4f3e 7ebd 8c3e 5000 d9bd e9ee cdbe
00000200: e457 a5be 0b5b 92be 37b9 04bf bc93 803e
00000210: 18fe 403e 220d 023e 9655 f1bd 53b3 e83d
00000220: a5c4 f63b 3566 843e cd97 7abd 4cb4 00be
00000230: 1a26 4ebe 02ca 39bf d460 4b3e 0cd9 d5be
00000240: dc2c 52bd de50 e53d 6c83 dd3e 7378 46bf
00000250: 2148 bc3d a843 bdbd eaa4 413e b5d4 e7be
00000260: 7800 04bf 7b0f e33e 2f0e 30bd 1311 603e
00000270: 376a e13e caec e2bd f6ca a8bc 6494 9b3e
00000280: 352f 9c3e 7e93 ad3d ecbc bebe 639b b93d
00000290: d0c1 843d 6f41 9abe c8f1 d83e 4551 603f
000002a0: d48b e83d 2b35 55bf a933 1bbe 89fe a1ba
000002b0: 2420 7abd f547 133e 531c 41be 1937 163b
000002c0: 9c21 e4bd ebdd ac3d 5697 1c3e 8ea0 a5be
000002d0: 02e0 ac3e 6573 a33c 3662 41bd 726d a13e
000002e0: a9dd 37bf 9ab6 e8bd 5daf 4ebf e4e5 4c3e
000002f0: f0ae 043f bd4b bcbe 06dc d9bd 923f 40bf
00000300: 4a57 03bf 3f13 da3e 7578 d5be 2132 233e
00000310: aab9 8dbe 6dcd 04be b46c dfbe 5cfd 873d
00000320: 5027 8f3e deb9 033f 6847 953e 6b34 3dbe
00000330: 42d5 c6be 9791 9c3d ab3a d33e 4be0 28bd
00000340: a83b 3b3e fe2a 273e 191e 59bd 45f5 f8be
00000350: 1ba3 263e b417 71be b413 8ebe 0b08 51be
00000360: 9fa7 03bf 2e50 db3e 4aa5 adbe 7c4c babd
00000370: 131d 90be d50d 2bbd 3047 d5be 7c2e ffbe
00000380: 7459 423f b293 bf3e 8cb1 a2be 4082 363e
00000390: 37e6 1abf b480 4fbe ea0a 943d 8a1c 23bf
000003a0: 3e92 d9bd 2c8d 35bf da57 2e3e 9ac9 0fbf
000003b0: a126 11be 703c 50bf 67c5 12bf 1428 4e3e
000003c0: 740f 27bf 56f2 6dbe f86f 2c3f 4917 efbe
000003d0: 404d aa3e 3e32 ef3e 854a bd3e 9dfe 223f
000003e0: dd20 b8be 734a fbbe 8164 53be 6ed2 0bbf
000003f0: 716e 51be d3bc 7dbe cccf ffbd fb40 bd3e

policy_net.2.bias f4 [128]
0.13126452 -0.13515821 0.17502567 0.03213766 -0.014819126 0.08715741 -0.01949728 -0.08703102
-0.0034483995 0.19334298 -0.25948513 -0.02992702 -0.085426345 -0.17144637 0.15030383 0.079171285
0.191818 -0.30574033 0.1739718 0.2909801 -0.36842868 -0.012824301 -0.208008 -0.115527116
-0.08793147 -0.23336841 -0.017457386 0.05791833 -0.02022329 -0.033905268 -0.10031505 -0.040790573
-0.06250611 0.069232374 -0.40429312 -0.3245983 -0.2654846 0.24115275 0.43368056 0.20606968
-0.089810506 -0.3611436 0.121976785 0.0459214 -0.33488482 -0.12961678 0.0016593956 -0.008314906
0.19288966 -0.4208748 -0.32142726 0.30354077 -0.13928899 0.17385156 -0.04512771 0.018955875
0.21436252 0.02014249 0.0040764078 0.042029705 -0.24334905 -0.044951893 0.05012561 -0.2537186
-0.13139649 -0.00490498 -0.12813851 -0.2284014 0.09516237 0.027779803 -0.23569404 -0.21471083
0.22103882 -0.043611176 0.22442158 0.25590214 -0.02555955 -0.2722891 0.10796982 0.029954357
-0.056558985 -0.050198797 -0.030314766 0.06839543 0.033263348 -0.044137932 -0.028652344 -0.11807633
0.16848817 0.30118504 0.05068184 0.022094674 -0.33565187 0.017154157 -0.12796126 -0.16468124
-0.30532542 -0.22593679 -0.19297834 -0.4655265 0.025517482 -0.1598004 -0.18463477 -0.016462408
-0.05985695 -0.34736675 -0.033496942 0.020620424 -0.24595068 0.034665238 -0.13353656 0.07978106
-0.21595335 0.09875966 0.033193953 -0.08021349 -0.0782311 0.10064437 -0.30323538 -0.22223698
0.059334077 0.13788803 -0.34947145 0.41662243 -0.08687642 -0.029933386 0.16327003 -0.114034
00000000: 356a 063e ea66 0abe ee39 333e c7a2 033d
00000010: ebcb 72bc 967f b23d c2b8 9fbc 523d b2bd
00000020: 8bfe 61bb b4fb 453e 3cdb 84be 8329 f5bc
00000030: 02f4 aebd a38f 2fbe 3fe9 193e 8e24 a23d
00000040: f06b 443e ff89 9cbe aa25 323e 58fb 943e
00000050: afa2 bcbe 041d 52bc 0d00 55be 7b99 ecbd
00000060: 6a15 b4bd 21f8 6ebe cb02 8fbc c53b 6d3d
00000070: 50ab a5bc 40e0 0abd fa71 cdbd 0414 27bd
00000080: 3403 80bd b4c9 8d3d 82ff cebe c031 a6be
00000090: 99ed 87be bff0 763e 610b de3e ee03 533e
000000a0: 92ee b7bd d0e7 b8be f7ce f93d 1418 3c3d
000000b0: 0676 abbe 43ba 04be 1480 d93a 3e3b 08bc
000000c0: de84 453e e77c d7be 1d92 a4be b269 9b3e
000000d0: c6a1 0ebe 2506 323e d5d7 38bd 5a49 9b3c
000000e0: d981 5b3e dd01 a53c 6393 853b 5727 2c3d
000000f0: 7e30 79be 7a1f 38bd 8350 4d3d 68e7 81be
00000100: cd8c 06be f4b9 a0bb be36 03be 0ee2 69be
00000110: 7de4 c23d 7892 e33c c759 71be 28dd 5bbe
00000120: 0058 623e a2a1 32bd c5ce 653e 9b05 833e
00000130: 4362 d1bc 7a69 8bbe 481f dd3d d762 f53c
00000140: 65aa 67bd 419d 4dbd ac56 f8bc e712 8c3d
00000150: 263f 083d fac9 34bd 52b8 eabc 01d2 f1bd
00000160: 2a88 2c3e ed34 9a3e c397 4f3d e4ff b43c
00000170: 90da abbe e086 8c3c 4708 03be 33a2 28be
00000180: 9d53 9cbe f95b 67be 1d9c 45be 7d59 eebe
00000190: 0a0a d13c b7a2 23be e610 3dbe 2cdc 86bc
000001a0: 902c 75bd 0eda b1be 1734 09bd 2aec a83c
000001b0: 7fda 7bbe 23fd 0d3d cfbd 08be 4164 a33d
000001c0: e022 5dbe 8142 ca3d 62f6 073d f846 a4bd
000001d0: a137 a0bd a31e ce3d ab41 9bbe 1792 63be
000001e0: 4a08 733d 8532 0d3e eced b2be 894f d53e
000001f0: 44ec b1bd dc36 f5bc 4230 273e a88a e9bd

policy_net.4.weight f4 [128, 128]
-0.06916299 -0.20498702 -0.09652774 0.113479115 -0.24329306 0.28750116 -0.029243307 0.23717031
-0.4501336 0.021174215 0.28388122 0.029593665 -0.056143492 0.26266375 0.6466774 -0.26645598
-0.49915275 0.65060294 0.3215325 -0.49241352 0.22352017 -0.09425051 0.3647852 0.057482455
-0.1723717 0.11357732 -0.9061254 0.82035786 -0.25485164 -1.0543704 -0.63820493 0.12508388
0.07072638 0.2694587 0.4642319 -0.9100887 -0.18936536 -0.20094962 -0.1400592 -0.29909435
0.07661999 0.09202064 0.21433173 0.055788353 -0.41868737 -1.283905 -0.1318321 0.0177052
0.2705929 0.44160333 0.4246797 0.23667489 0.40052125 -0.5329627 -0.3961242 -0.14091176
-0.11873411 -0.52391875 -0.12653571 -0.7912564 -0.003912043 0.20976193 -1.1911149 -0.046807684
-0.23423263 0.53697675 -0.45526877 0.062943466 -0.08840624 -0.4635618 -0.39074877 -0.60317117
-0.20179184 -0.13154097 -0.31114092 -0.233292 -0.10844597 -0.0353239 0.090975516 -0.17738767
0.32800734 0.45260766 0.6007582 -0.1773066 -0.18448219 0.5511468 -0.099756144 0.46957812
-0.016405568 -0.85875064 0.37978163 -0.037199106 0.07910609 0.30079618 -0.08363156 0.43981567
-0.2988637 0.3731645 -0.07180003 -0.07745775 0.14580326 0.1451028 0.12062879 0.32419264
0.09711955 -0.53951126 0.19762608 0.09611436 -0.054041535 -0.3950649 -0.18718769 -0.033313423
0.036526527 0.0949073 -0.10495083 -0.382026 -0.493243 0.10674301 -0.0067495466 0.11672968
0.2101173 -0.5638813 -0.57042366 -0.6333635 0.06676934 0.5465851 0.13518088 -0.05497284
0.08355421 -0.07090881 -0.8420489 -0.34339428 -0.17829011 -0.26090735 -0.25397968 0.012706724
-0.33578545 -0.6014758 0.142504 -0.012064414 -0.44464225 0.2841185 0.54617995 0.19083966
-1.0993792 -0.048442572 -0.15745603 0.08356918 -0.3185002 -0.34752452 -0.19474244 -0.12392385
-0.5736351 -0.045890618 -0.34159523 -0.82352954 -0.2666412 0.027245717 -0.28203964 0.427277
-0.5505419 0.028219132 0.009474013 -0.66692895 0.14489141 -0.19558215 0.20922211 0.41983175
0.29573604 -0.18123831 0.035234805 0.026414607 -0.09157354 -0.29012948 -0.03653744 -0.03815336
-0.8465935 0.14211965 0.38860318 -1.186346 -0.19702302 -0.20246232 -0.86182415 0.34939706
0.26079208 -0.03811966 0.20026883 0.24489821 -1.0608758 -0.53729045 -0.2948574 -0.13532262
-0.68118024 -0.0711441 -0.40888655 0.0399544 -0.17302594 -0.5158521 -0.1380039 0.12839152
-0.28346947 0.08739544 -0.15775375 0.18267198 0.24067278 0.09230809 -0.231514 0.35366854
-1.2506644 -0.19234188 -0.68432397 0.41942534 -0.08510745 0.034167327 -0.20805296 0.2767671
-0.26832446 0.12237755 -0.17883621 0.02515043 0.32583207 -0.43933615 0.34061 -0.8664846
-0.82855815 -0.5480052 0.42914334 -0.014303647 -0.49958068 0.26088014 -0.049437344 -0.6281757
0.41917896 0.025737856 -0.091321036 0.19385079 0.42488828 0.3182569 -0.25916255 -0.24227375
0.000111095156 -0.5247458 0.36987218 0.22372483 -0.6526105 0.6943278 0.19144717 0.011049576
0.10384693 0.115464896 0.20552196 -0.16823786 -0.25555223 0.16357395 -1.6462954 0.21060534
00000000: 53a5 8dbd 1ee8 51be 56b0 c5bd bd67 e83d
00000010: d121 79be 5a33 933e a98f efbc c6dc 723e
00000020: e977 e6be 8c75 ad3c e158 913e 6a6e f23c
00000030: b8f6 65bd dd7b 863e a68c 253f eb6c 88be
00000040: f390 ffbe ea8d 263f e89f a43e a01d fcbe
00000050: 79e2 643e 6906 c1bd 20c5 ba3e b972 6b3d
00000060: 3582 30be 3a9b e83d d6f7 67bf f902 523f
00000070: ea7b 82be 9cf5 86bf 6661 23bf fd15 003e
00000080: fed8 903d 7ef6 893e ceaf ed3e 93fb 68bf
00000090: fee8 41be bdc5 4dbe ae6b 0fbe e522 99be
000000a0: f1ea 9c3d 5175 bc3d c779 5b3e 5482 643d
000000b0: 315e d6be 0057 a4bf fefe 06be 7f0a 913c
000000c0: 278b 8a3e d519 e23e 9e6f d93e e75a 723e
000000d0: 1f11 cd3e 3e70 08bf cbd0 cabe 2c4b 10be
000000e0: de2a f3bd 8a1f 06bf 9492 01be c88f 4abf
000000f0: 9830 80bb d5cb 563e 7476 98bf 6ab9 3fbd
00000100: aeda 6fbe 4f77 093f fd18 e9be 81e8 803d
00000110: 550e b5bd f957 edbe 3910 c8be 6d69 1abf
00000120: 85a2 4ebe adb2 06be dd4d 9fbe 19e4 6ebe
00000130: ec18 debd cbaf 10bd 5f51 ba3d 1da5 35be
00000140: 94f0 a73e 31bc e73e 4acb 193f dd8f 35be
00000150: e6e8 3cbe f517 0d3f f34c ccbd 8b6c f03e
00000160: f864 86bc 15d7 5bbf bd72 c23e 175e 18bd
00000170: 6002 a23d f501 9a3e 0647 abbd 852f e13e
00000180: aa04 99be 6b0f bf3e e50b 93bd 2ba2 9ebd
00000190: 734d 153e d495 143e 3a0c f73d 94fc a53e
000001a0: 9de6 c63d 691d 0abf 7e5e 4a3e 9bd7 c43d
000001b0: a85a 5dbd f245 cabe 21ae 3fbe a873 08bd
000001c0: d79c 153d c25e c23d 76f0 d6bd e998 c3be
000001d0: 598a fcbe 149c da3d 4d2b ddbb f80f ef3d
000001e0: fd28 573e 865a 10bf 4907 12bf 1c24 22bf
000001f0: 5dbe 883d 00ed 0b3f db6c 0a3e 332b 61bd
00000200: 781e ab3d a338 91bd 8490 57bf 60d1 afbe
00000210: af91 36be a695 85be a009 82be dd2f 503c
00000220: 12ec abbe 51fa 19bf 92ec 113e d2a9 45bc
00000230: 26a8 e3be fb77 913e 73d2 0b3f 796b 433e
00000240: 75b8 8cbf b86b 46bd 273c 21be 5126 ab3d
00000250: 7512 a3be bcee b1be 906a 47be cacb fdbd
00000260: c0d9 12bf cdf7 3bbd 92e5 aebe d5d2 52bf
00000270: 3285 88be 6932 df3c 8067 90be 0dc4 da3e
00000280: 50f0 0cbf cf2b e73c e438 1b3c dbbb 2abf
00000290: 6a5e 143e b046 48be 523e 563e 30f4 d63e
000002a0: b76a 973e 8996 39be 5f52 103d 7263 d83c
000002b0: e88a bbbd da8b 94be 48a8 15bd b346 1cbd
000002c0: 5aba 58bf d087 113e fff6 c63e 30da 97bf
000002d0: 67c0 49be 4852 4fbe 82a0 5cbf 2ce4 b23e
000002e0: 8a86 853e 5c23 1cbd 4613 4d3e 99c6 7a3e
000002f0: c7ca 87bf de8b 09bf 8df7 96be 0392 0abe
00000300: d461 2ebf ffb3 91bd 9459 d1be 3aa7 233d
00000310: b62d 31be e20e 04bf e550 0dbe 1179 033e
00000320: e922 91be 61fc b23d 338a 21be 5d0e 3b3e
00000330: ed72 763e 060c bd3d 0212 6dbe 0b14 b53e
00000340: c515 a0bf 45f5 44be db2f 2fbf ebbe d63e
00000350: d14c aebd 0af3 0b3d d60b 55be 6bb4 8d3e
00000360: d361 89be 15a1 fa3d d720 37be 4608 ce3c
00000370: 76d3 a63e abf0 e0be 6f64 ae3e efd1 5dbf
00000380: 631c 54bf 124a 0cbf adb8 db3e d859 6abc
00000390: 0ac9 ffbe 1592 853e d07e 4abd 1fd0 20bf
000003a0: a09e d63e 32d8 d23c 8606 bbbd d280 463e
000003b0: f58a d93e 92f2 a23e f4b0 84be 9c16 78be
000003c0: c2fb e838 be55 06bf e35f bd3e 1f18 653e
000003d0: 7b11 27bf 77bf 313f ba0a 443e 4809 353c
000003e0: b3ad d43d dc78 ec3d 5974 523e 8c46 2cbe
000003f0: bed7 82be ee7f 273e cfb9 d2bf eda8 573e

policy_net.4.bias f4 [128]
-0.32455727 -0.14573985 0.07591976 -0.3483449 -0.06577495 0.1454773 -0.16791129 -0.15133117
-0.33157897 -0.12297707 0.05737304 -0.21652652 -0.053830005 -0.39147505 0.0073099295 0.05867529
-0.09544905 -0.07576339 -0.14350191 0.21018426 -0.22144258 -0.1670426 -0.31969956 -0.56494695
-0.317788 0.31486106 -0.11496744 -0.16212024 -0.34174526 0.18099053 -0.034002714 -0.24210127
-0.00019205206 0.28476498 0.11102332 -0.2840324 0.00042056057 0.07095371 -0.6357419 0.15654582
0.20759523 -0.29196265 -0.14101738 0.070827805 -0.268192 0.2100097 0.14356612 -0.1724947
0.04345211 -0.43189353 -0.13592614 0.37987202 -0.55126756 0.06229815 0.21118113 -0.6438489
-0.18072055 -0.05855983 0.0497542 -0.21156469 -0.4720877 -0.19769791 -0.3562432 0.026858326
-0.080267206 -0.05867406 -0.2750706 0.066056535 -0.28763917 -0.43416876 -0.09925262 -0.6049403
0.35516244 -0.007378739 0.17863953 -0.3180474 -0.32476658 0.25428185 0.29803932 0.14873655
-1.085933 -0.39179978 0.6700091 -0.35927072 -0.30147672 0.016837262 -0.075755455 0.21347651
-0.5657272 0.19464777 -0.0016125302 -0.2747779 -0.19571288 -0.034448672 -0.5920657 0.17607583
-0.33450657 -0.073996276 -0.102412894 0.020243628 0.23180927 0.069763556 -0.103056036 -0.025817676
-0.5298174 -0.0024934565 0.15779853 -0.6287181 0.09317091 0.24693637 -0.28589657 0.045430087
-0.16582729 0.105455354 0.19105881 0.11048992 -0.21785901 0.16671656 -0.2644461 0.3935366
-0.3059719 0.19832413 -0.029729176 0.18627629 -0.275986 -0.03735048 0.001592701 -0.20056123
00000000: 5f2c a6be d43c 15be d27b 9b3d 435a b2be
00000010: 04b5 86bd 00f8 143e f0f0 2bbe 8ff6 1abe
00000020: b8c4 a9be 67db fbbd feff 6a3d 21b9 5dbe
00000030: da7c 5cbd 6b6f c8be 2288 ef3b 8055 703d
00000040: cb7a c3bd d629 9bbd 2af2 12be 8b3a 573e
00000050: d8c1 62be 370d 2bbe a9af a3be 5da0 10bf
00000060: 1cb5 a2be 7835 a13e 0d74 ebbd d902 26be
00000070: 3cf9 aebe 9555 393e 6e46 0bbd 65e9 77be
00000080: 9561 49b9 b7cc 913e 3260 e33d b26c 91be
00000090: af7e dc39 2e50 913d fbbf 22bf 8c4d 203e
000000a0: d893 543e 217c 95be dc66 10be 2b0e 913d
000000b0: 7650 89be c80c 573e ff02 133e 73a2 30be
000000c0: d7fa 313d 2621 ddbe 3930 0bbe 967e c23e
000000d0: df1f 0dbf 582c 7f3d de3f 583e 48d3 24bf
000000e0: cf0e 39be 6fdc 6fbd 0fcb 4b3d 6aa4 58be
000000f0: 7bb5 f1be 5271 4abe 8265 b6be fe05 dc3c
00000100: 2263 a4bd 3654 70bd 0ed6 8cbe a648 873d
00000110: 7145 93be 5e4b debe f544 cbbd 5edd 1abf
00000120: dad7 b53e 59c9 f1bb 48ed 363e 1cd7 a2be
00000130: ce47 a6be 3b31 823e 9c98 983e 654e 183e
00000140: daff 8abf fb99 c8be b785 2b3f 55f2 b7be
00000150: 285b 9abe 4cee 893c ad25 9bbd 9699 5a3e
00000160: 7fd3 10bf bf51 473e 895b d3ba b0af 8cbe
00000170: f568 48be 0d1a 0dbd 9e91 17bf 394d 343e
00000180: 7244 abbe 5c8b 97bd dabd d1bd f7d5 a53c
00000190: 695f 6d3e 32e0 8e3d 0b0f d3bd 977f d3bc
000001a0: 1da2 07bf 4269 23bb f095 213e abf3 20bf
000001b0: 64d0 be3d e3dc 7c3e 0961 92be e614 3a3d
000001c0: a1ce 29be faf8 d73d eca4 433e 8a48 e23d
000001d0: 6f16 5fbe bfb7 2a3e 7b65 87be a17d c93e
000001e0: 59a8 9cbe 7b15 4b3e 9a8a f3bc 36bf 3e3e
000001f0: 094e 8dbe d1fc 18bd 2dc2 d03a ec5f 4dbe

policy_net.6.weight f4 [64, 128]
-0.06836866 0.1833366 0.5264865 -0.8578253 -0.10916935 -0.117942676 0.5044068 0.2328981
0.2414626 -0.69136435 -0.12558413 0.19055814 0.1599612 -0.2753677 -0.17719479 0.13341497
0.57181627 0.20382111 -0.36310634 0.49327916 0.41838565 0.038449544 0.2798002 0.015235994
-0.461571 0.026655177 0.009886188 0.78976744 0.056048956 -0.006400041 -0.4436491 -0.5947979
-0.24380086 -1.3023552 -0.6246029 -0.043631162 -0.11924817 -0.357174 -0.12349425 -0.12075161
-0.041611757 -0.5241243 0.21019863 0.016151644 -0.72820634 0.37826276 -0.03393885 0.0019281112
-0.0198593 0.82137597 -0.3887672 0.3553272 0.42519927 -0.038753655 0.028308209 0.100750186
0.26400435 -0.11324648 0.627608 -0.16960502 -0.22335094 0.21599679 -0.3486662 0.21254262
-0.34287852 0.02868955 -0.43115383 0.43686447 -0.20008045 -0.35159287 0.025355242 -0.82566553
0.2745113 0.006882943 -0.7207798 -0.014514439 -0.3057196 -0.8026566 -0.4760513 -0.3848535
-0.01028869 -0.026187386 0.35405788 -0.21871199 -0.59664804 -0.319844 0.57290494 -0.52853143
-0.32124242 -0.077299595 0.24668275 -0.48769903 -0.35481668 -0.114482105 0.15028904 -0.7040937
0.12564215 -0.06676484 -0.014725009 0.31168383 -0.46320108 -0.05251142 -0.04405006 -0.16333294
-0.09640115 -0.38607383 0.37837797 -0.21056506 0.29078385 0.15321627 0.28536406 -0.2254609
-0.10586818 -0.055018965 -0.3295085 -0.3571236 0.4539779 -0.8232873 -1.0347335 -0.4352391
-0.124161705 0.15071984 -0.21888657 0.13242617 0.12505493 -0.36432782 -0.63631636 -0.47515956
0.00033843415 -0.113880426 -0.18914577 0.041892506 -0.05085319 0.13550174 0.16070436 -0.27415156
-0.3104145 -0.25504938 0.117253274 -0.098134406 0.06866603 -0.12260401 0.06616534 -0.10209602
0.26131535 -0.04770162 -0.16919462 0.38617983 -0.111283526 0.39594784 -0.17152528 -0.2723416
-0.7434655 -0.23935233 -0.23414147 -0.4977363 0.1819062 0.13532844 -0.09854878 -0.89423084
-0.11338791 -0.16754372 -0.17828748 0.091625616 0.022225387 -0.09939027 0.046068206 -0.08338026
-0.048701238 0.3163426 0.25950843 -0.6608055 -0.35204265 0.11779523 -0.045597643 -0.0089040445
-0.117201135 -0.10430614 0.039299175 0.4964522 -0.26405895 -0.008636178 0.087319665 -0.37477174
-0.09006476 0.16482764 -0.2344786 -0.049618036 0.11185655 0.10349956 0.1910756 -0.15913574
0.08485633 -0.26919726 0.11503656 -0.20820887 -0.21286921 -0.10117672 0.15824895 -0.0089161275
0.24809206 -0.07299276 -0.05301589 0.070296906 -0.049389318 -0.07335028 -0.98457503 -0.055378065
-0.14260453 -0.30162138 -0.061187275 -0.24525271 -0.4838284 0.091500625 -0.028170437 -0.09618439
-0.10624027 0.024890862 0.007020884 -0.19811194 -0.4027632 0.1189347 0.1159565 -0.06180293
0.046434388 -0.07139431 -0.011278391 -0.056444414 0.5417859 0.08396322 0.13042012 0.10082307
-0.16263293 0.2258785 -0.16367124 -0.05240543 -0.34519795 0.39136502 0.017297959 0.12544793
-0.2864728 -0.045061782 0.13461058 -0.93492794 0.025924372 0.24867052 -0.5511073 -0.07344703
0.07924142 -0.12378462 0.17292257 -0.43861344 -0.20152804 0.10772974 -0.52526 0.2158371
00000000: de04 8cbd 97bc 3b3e d2c7 063f 709a 5bbf
00000010: 2e94 dfbd ee8b f1bd ce20 013f d77c 6e3e
00000020: f941 773e 41fd 30bf 2099 00be ac21 433e
00000030: decc 233e fffc 8cbe 8d72 35be ef9d 083e
00000040: 8d62 123f 7bb6 503e 13e9 b9be 168f fc3e
00000050: a536 d63e 457d 1d3d f941 8f3e 64a0 793c
00000060: 0953 ecbe f55b da3c aef9 213c 332e 4a3f
00000070: 9793 653d 6fb7 d1bb fa25 e3be ad44 18bf
00000080: efa6 79be 93b3 a6bf fae5 1fbf 97b6 32bd
00000090: 6238 f4bd 83df b6be 8eea fcbd 9f4c f7bd
000000a0: 1771 2abd 032d 06bf 4f3e 573e 7450 843c
000000b0: bb6b 3abf a8ab c13e 7703 0bbd adb8 fc3a
000000c0: f9af a2bc b245 523f 7f0c c7be 72ed b53e
000000d0: b8b3 d93e 27bc 1ebd 9ee6 e73c 1d56 ce3d
000000e0: 942b 873e c5ed e7bd ebaa 203f f0ac 2dbe
000000f0: 1cb6 64be 432e 5d3e 6084 b2be c6a4 593e
00000100: c68d afbe 5906 eb3c 32c0 dcbe b3ac df3e
00000110: e4e1 4cbe fb03 b4be ccb5 cf3c d15e 53bf
00000120: bf8c 8c3e 508a e13b 0685 38bf f8cd 6dbc
00000130: 4887 9cbe e77a 4dbf ffbc f3be 850b c5be
00000140: e591 28bc ee86 d6bc 1347 b53e 09f6 5fbe
00000150: edbd 18bf 98c2 a3be e6a9 123f d64d 07bf
00000160: e379 a4be 404f 9ebd 679a 7c3e b0b3 f9be
00000170: 88aa b5be 9875 eabd 5fe5 193e 7c3f 34bf
00000180: 56a8 003e 01bc 88bd 2a41 71bc 0695 9f3e
00000190: b128 edbe 3716 57bd d66d 34bd c040 27be
000001a0: f76d c5bd 78ab c5be c2ba c13e 5e9e 57be
000001b0: 9fe1 943e bae4 1c3e 3d1b 923e 39df 66be
000001c0: 6bd1 d8bd 915b 61bd 57b5 a8be e8d8 b6be
000001d0: cb6f e83e f5c2 52bf 2672 84bf a9d7 debe
000001e0: 7e48 febd 4d56 1a3e cd23 60be ba9a 073e
000001f0: 660e 003e 2d89 babe a1e5 22bf 1d48 f3be
00000200: dd6f b139 243a e9bd 6eaf 41be 7a97 2b3d
00000210: 6f4b 50bd f8c0 0a3e af8f 243e 985d 8cbe
00000220: a6ee 9ebe d595 82be 7c22 f03d b1fa c8bd
00000230: c7a0 8c3d d017 fbbd b281 873d b817 d1bd
00000240: 20cb 853e c662 43bd 5b41 2dbe 5db9 c53e
00000250: 9ee8 e3bd adb9 ca3e 53a4 2fbe 5c70 8bbe
00000260: c153 3ebf c718 75be c8c2 6fbe 4bd7 febe
00000270: 9e45 3a3e 8a93 0a3e f1d3 c9bd 50ec 64bf
00000280: ec37 e8bd 9590 2bbe fe90 36be 36a6 bb3d
00000290: 0412 b63c 208d cbbd 04b2 3c3d 45c3 aabd
000002a0: f37a 47bd a8f7 a13e 4ade 843e 8d2a 29bf
000002b0: ef3e b4be a03e f13d 98c4 3abd 45e2 11bc
000002c0: 2607 f0bd 759e d5bd 2cf8 203d fc2e fe3e
000002d0: bc32 87be c27e 0dbc a7d4 b23d 15e2 bfbe
000002e0: df73 b8bd 94c8 283e 281b 70be 483c 4bbd
000002f0: 0c15 e53d 94f7 d33d 52a9 433e 7bf4 22be
00000300: 28c9 ad3d 39d4 89be 4a98 eb3d b534 55be
00000310: 63fa 59be bd35 cfbd 030c 223e f314 12bc
00000320: d80b 7e3e 3a7d 95bd 3127 59bd d3f7 8f3d
00000330: 744c 4abd ac38 96bd 1c0d 7cbf 1cd4 62bd
00000340: ec06 12be 1e6e 9abe 829f 7abd 8723 7bbe
00000350: 5bb8 f7be ae64 bb3d b0c5 e6bc 52fc c4bd
00000360: 8094 d9bd ece7 cb3c 720f e63b dbdd 4abe
00000370: fa36 cebe 0994 f33d 9a7a ed3d 1225 7dbd
00000380: fc31 3e3d 2e37 92bd 00c9 38bc 4232 67bd
00000390: 7bb2 0a3f e9f4 ab3d da8c 053e 537c ce3d
000003a0: 3f89 26be b24c 673e 6f99 27be 13a7 56bd
000003b0: c9bd b0be ff60 c83e 73b4 8d3c 6c75 003e
000003c0: 90ac 92be b492 38bd 5bd7 093e 7057 6fbf
000003d0: 595f d43c 7ca3 7e3e 5e15 0dbf 656b 96bd
000003e0: 5349 a23d ca82 fdbd 9d12 313e f191 e0be
000003f0: 5e5d 4ebe 69a1 dc3d 7077 06bf 6704 5d3e

policy_net.6.bias f4 [64]
-0.34935957 0.3673712 -0.57911706 -0.6058328 -0.704886 0.36180696 -0.5538583 -0.29009262
-0.05612944 0.21355005 0.45726627 -0.011450507 0.38312232 0.13831569 0.7841583 0.3590969
-0.24176371 -0.52689743 -0.0064206375 0.1410159 -0.26388747 0.4852514 -0.20277685 0.15637852
0.16285223 0.27035123 0.5292614 -0.23578756 0.25211424 0.1799674 0.38331473 -0.21791393
-0.25404954 0.38498867 0.32835165 -0.13673136 -0.025727233 0.32607216 0.14138152 -0.62577206
0.53453183 -0.16435118 0.06873461 -0.51670545 0.56088316 0.7431287 -0.334729 -0.17507295
-0.6811351 -0.5019533 -0.19216618 0.57126594 -0.49475193 -0.11029661 -0.35513222 -0.24117786
0.6525152 0.29263934 -0.15244044 -0.37121218 0.099561974 0.25624067 -0.37776932 0.23293357
00000000: 42df b2be 1418 bc3e 0441 14bf dc17 1bbf
00000010: 6973 34bf c33e b93e a8c9 0dbf 0587 94be
00000020: fce7 65bd ddac 5a3e ce1e ea3e e89a 3bbc
00000030: 9c28 c43e a1a2 0d3e 99be 483f 8ddb b73e
00000040: e890 77be c0e2 06bf 3664 d2bb 7966 103e
00000050: 421c 87be df72 f83e bca4 4fbe b121 203e
00000060: bcc2 263e 7a6b 8a3e ad7d 073f 4b72 71be
00000070: 1e15 813e 6049 383e d441 c43e d424 5fbe
00000080: c812 82be 3c1d c53e b51d a83e 4e03 0cbe
00000090: ebc1 d2bc eef2 a63e 51c6 103e 9932 20bf
000000a0: 14d7 083f ad4b 28be bbc4 8c3d cf46 04bf
000000b0: 0a96 0f3f af3d 3e3f 9961 abbe 5346 33be
000000c0: df5e 2ebf 0380 00bf 36c7 44be 7c3e 123f
000000d0: 2050 fdbe 30e3 e1bd e4d3 b5be 54f7 76be
000000e0: 3c0b 273f d3d4 953e 5919 1cbe 860f bebe
000000f0: 26e7 cb3d fa31 833e fb6a c1be 2386 6e3e

policy_net.8.weight f4 [4, 64]
-0.10878442 0.023250693 -0.27596036 0.09014948 0.08165822 0.055393893 0.07348481 -0.05785418
-0.18864596 -0.00010334381 0.009669497 0.1025194 -0.0024622353 0.11440305 0.017529944 0.010679556
0.04853994 -0.05079561 -0.063328244 0.085896865 0.114989795 0.08973954 0.011984801 0.05565112
-0.067499824 -0.06933236 0.046565633 0.054077104 -0.024759633 -0.057375144 -0.03703686 -0.023511298
0.013595529 0.013260695 -0.050612908 -0.061104484 0.03630883 0.06459289 0.0005345458 0.03403758
0.051295638 -0.08009552 0.031406686 -0.04046064 -0.005067265 -0.0146657135 0.065040395 0.009178833
-0.047685783 0.0724742 -0.031713787 -0.035465945 0.3217013 0.038749777 -0.062171753 -0.03154072
-0.09604458 0.051152177 0.02337811 -0.03948807 0.083996445 -0.058189835 0.047637377 -0.038897987
0.015478611 -0.039103363 0.32652625 -0.013737668 0.08029024 0.07587454 -0.00737309 -0.05589965
0.3137077 -0.027836276 -0.04536348 -0.030077029 0.0934041 0.06329778 0.007684308 -0.121113285
0.0016285942 -0.08131005 -0.07372396 0.03508391 0.08763507 0.061627287 -0.026811156 0.05584362
-0.014241353 -0.0414961 0.037490398 0.028971717 -0.009800257 -0.050512474 -0.07681727 0.096663415
0.01672757 0.05343791 -0.07058862 -0.0028408805 -0.014453074 0.044846687 0.0035224461 0.069070384
0.044534273 -0.010458059 0.08905982 -0.024453096 -0.07815612 -0.00043531455 0.014245039 0.08244297
0.009887593 -0.059077088 0.0017952252 -0.07404382 0.19395028 0.049027376 -0.058333546 0.018692495
-0.08968489 -0.08050352 -0.046447303 -0.0570519 0.04150904 -0.052239124 0.04653674 0.033134438
0.10932971 -0.009003487 0.068793945 -0.08253118 -0.081706576 -0.026936695 -0.23273376 0.07636291
0.09169036 0.10485801 -0.07633193 -0.053382996 0.056786563 -0.022373678 -0.12701525 0.016578956
-0.09737888 -0.054329827 0.014514572 -0.096721545 -0.23741189 -0.016016558 -0.08013053 -0.018045096
0.073877454 0.03881913 0.04432814 0.08192324 0.06846272 0.0617782 -0.0026879644 0.04650055
-0.0875291 -0.01923647 -0.0044416687 -0.050998587 0.1400455 -0.042726323 0.030357836 -0.12428682
-0.12008792 0.116228014 -0.047466516 0.13510364 0.072816715 0.16394304 -0.11403695 0.09494066
0.06842275 -0.007926702 -0.06036873 0.059667576 0.18536516 -0.08649069 0.07218895 0.024449632
0.17953461 -0.008663641 -0.033024076 0.11308427 -0.15291323 0.074958615 -0.12146566 0.06928671
-0.04157277 -0.09169826 -0.07381748 0.036624637 0.010579687 9.797921e-05 0.1253088 -0.025725838
-0.071296036 0.019527553 -0.007943852 -0.010198378 0.03506469 -0.005705204 0.08527037 -0.016242398
-0.046294015 0.063067265 0.007437871 0.029301029 0.05210409 -1.6711832e-05 -0.045178358 -0.0029962165
-0.0026838072 0.033596095 -0.052945655 -0.015195909 -0.030928405 -0.01989658 0.00011497232 0.021295456
0.039861932 0.014647222 0.041904595 -0.047319595 -0.058787014 0.04940883 -0.076337904 0.019577855
0.04372452 0.06549739 0.023271585 -0.058689184 -0.039814238 -0.051663265 0.023348907 -0.029428441
-0.07464563 -0.056553025 -0.05182443 -0.06222578 0.13581021 0.08679018 0.027629448 0.04753053
-0.07006813 -0.03284904 -0.00757364 -0.03294806 0.046056695 -0.051311947 -0.2586548 0.010743171
00000000: 5eca debd 3d78 be3c ad4a 8dbe 4aa0 b83d
00000010: 6d3c a73d b5e4 623d 347f 963d 81f8 6cbd
00000020: 682c 41be 49ba d8b8 cf6c 1e3c b1f5 d13d
00000030: 745d 21bb 254c ea3d f59a 8f3c 4ef9 2e3c
00000040: d1d1 463d 0f0f 50bd 3db2 81bd b2ea af3d
00000050: c57f eb3d 5dc9 b73d e65b 443c 6ef2 633d
00000060: 593d 8abd 20fe 8dbd 9bbb 3e3d f47f 5d3d
00000070: b7d4 cabc 3302 6bbd f6b3 17bd c49a c0bc
00000080: c8bf 5e3c 6343 593c 7b4f 4fbd b248 7abd
00000090: 91b8 143d 4749 843d c320 0c3a fd6a 0b3d
000000a0: 601b 523d 1f09 a4bd 4ca4 003d 0eba 25bd
000000b0: 4d0b a6bb 7648 70bc e633 853d d162 163c
000000c0: 2b52 43bd 5a6d 943d 51e6 01bd bd44 11bd
000000d0: 08b6 a43e 16b8 1e3d cfa7 7ebd d830 01bd
000000e0: 05b3 c4bd f284 513d 7383 bf3c 3ebe 21bd
000000f0: 5406 ac3d 7758 6ebd 691f 433d 7f53 1fbd
00000100: 009a 7d3c d92a 20bd 732e a73e f513 61bc
00000110: 366f a43d 1c64 9b3d f699 f1bb 08f7 64bd
00000120: 4c9e a03e e708 e4bc 0ecf 39bd 1a64 f6bc
00000130: a64a bf3d 44a2 813d a6cc fb3b 3e0a f8bd
00000140: 8e76 d53a e285 a6bd 96fc 96bd 25b4 0f3d
00000150: 047a b33d e56c 7c3d 12a3 dbbc 48bc 643d
00000160: 9054 69bc d1f7 29bd 888f 193d 1856 ed3c
00000170: 4291 20bc 2be6 4ebd 5f52 9dbd 78f7 c53d
00000180: 4208 893c b6e1 5a3d c490 90bd 112e 3abb
00000190: 96cc 6cbc 29b1 373d d7d8 663b c674 8d3d
000001a0: 9269 363d 4758 2bbc ff64 b63d dc51 c8bc
000001b0: 5110 a0bd ee3a e4b9 0664 693c dcd7 a83d
000001c0: 92ff 213c d1fa 71bd c34d eb3a 49a4 97bd
000001d0: e79a 463e eed0 483d 28ef 6ebd 0121 993c
000001e0: b6ac b7bd 08df a4bd 873f 3ebd 41af 69bd
000001f0: 6205 2a3d b1f8 55bd 4f9d 3e3d fab7 073d
00000200: 41e8 df3d 5d83 13bc d7e3 8c3d 1b06 a9bd
00000210: c755 a7bd 58aa dcbc c251 6ebe 2864 9c3d
00000220: 28c8 bb3d ccbf d63d ea53 9cbd 21a8 5abd
00000230: 0799 683d 0149 b7bc 4910 02be 97d0 873c
00000240: 946e c7bd f488 5ebd 87ce 6d3c f215 c6bd
00000250: 1a1c 73be 2835 83bc 7a1b a4bd 4fd3 93bc
00000260: 104d 973d cf00 1f3d 6c91 353d 5fc7 a73d
00000270: 2f36 8c3d 230b 7d3d 8f28 30bb 5c77 3e3d
00000280: 7542 b3bd cd95 9dbc 6b8b 91bb e5e3 50bd
00000290: 1668 0f3e cc01 2fbd ffb0 f83c 178a febd
000002a0: a8f0 f5bd f408 ee3d 406c 42bd 9c58 0a3e
000002b0: ee20 953d afe0 273e 348c e9bd 4070 c23d
000002c0: 3a21 8c3d ffde 01bc 3445 77bd fd65 743d
000002d0: 5dd0 3d3e 0822 b1bd cdd7 933d 984a c83c
000002e0: ecd7 373e f2f1 0dbc 4144 07bd ba98 e73d
000002f0: 4995 1cbe e783 993d fdc2 f8bd 31e6 8d3d
00000300: 3548 2abd 4ccc bbbd 9e2d 97bd b703 163d
00000310: 6c56 2d3c 307a cd38 f350 003e febe d2bc
00000320: a803 92bd 3ff8 9f3c ee26 02bc 1917 27bc
00000330: fe9f 0f3d b8f2 babb 3ba2 ae3d c70e 85bc
00000340: cb9e 3dbd 6929 813d 62b9 f33b b608 f03c
00000350: 196b 553d 6330 8cb7 f10c 39bd 2c5c 44bb
00000360: d0e2 2fbb 0f9c 093d 8bdd 58bd 43f8 78bc
00000370: 915d fdbc 27fe a2bc 4b1d f138 cf73 ae3c
00000380: 4446 233d e7fa 6f3c 27a4 2b3d 31d2 41bd
00000390: a7ca 70bd ea60 4a3d 0c57 9cbd bd61 a03c
000003a0: 7b18 333d 7f23 863d 0da4 be3c 1264 70bd
000003b0: 4114 23bd dc9c 53bd 3546 bf3c ea13 f1bc
000003c0: cfdf 98bd 25a4 67bd da45 54bd 76e0 7ebd
000003d0: d511 0b3e 0dbf b13d 2757 e23c 5faf 423d
000003e0: e17f 8fbd b78c 06bd 4c2c f8bb 8cf4 06bd
000003f0: f2a5 3c3d 7a2c 52bd 676e 84be 2004 303c

policy_net.8.bias f4 [4]
0.11748966 0.043284576 0.12450784 0.22944108
00000000: 6b9e f03d 2b4b 313d f7fd fe3d 9af2 6a3e

inverse_net.0.weight f4 [64, 48]
0.20495848 1.3155786 -0.62479854 0.68493974 -0.09708391 0.43322724 -0.27279976 0.3987439
0.15817368 0.4674695 -0.387294 -0.25827795 -0.33148947 -0.027564133 -0.02315572 0.16410919
-0.07746808 -0.034325283 0.08338183 0.02567822 -0.024128707 -0.076025784 -0.02304425 -0.21729398
0.31769493 -0.43597028 -0.078792065 -2.3757873 0.08498741 0.0337699 -0.79971194 -0.6600107
-0.026112499 0.42340612 0.13755345 -0.13470136 0.13318823 -0.18908505 -0.029688371 0.084917784
-0.018484421 0.09457022 0.04900242 0.10944266 0.080380745 -0.025979111 -0.08145239 -0.085318595
0.054365676 0.754986 0.2018348 0.51757526 0.10866333 -0.022510378 -0.04054105 0.01904228
-0.013637417 0.1845795 0.07658791 -0.0970357 0.01240198 0.000579295 -0.08150608 0.00046685597
-0.043349452 -0.107849635 -0.009782544 0.08008081 -0.13274392 0.06453493 -0.18183208 0.23539016
-0.033401005 -1.4283737 -0.04496931 0.9233471 0.04762412 0.01519996 0.025218993 -0.0140539445
-0.012149138 0.23604524 6.6229734 -0.0029687183 -0.031995397 -0.027338706 0.070943296 -0.09142416
-0.07050558 0.005243616 -0.04894108 -0.071233384 -0.06752835 -0.18752623 0.07605294 -0.02313929
0.40513575 -1.830194 -0.02917044 0.08886907 -0.5423992 0.44782582 -0.5939118 -0.17804694
0.006884073 -0.11381857 -0.4269969 0.15841694 -0.3996793 0.2576489 0.011841331 -0.121119216
-0.07637749 -0.103182726 -0.15697137 -0.14124471 -0.20076595 -0.23494264 -0.1874416 -0.07396808
0.31867817 0.5173053 -0.70520896 -2.8734214 -0.7477648 -0.23107164 -0.9757353 -0.17555377
-0.10041185 -0.11320136 -0.062171884 0.17235118 -0.23174576 0.10728159 -0.25042737 -0.002801263
-0.008850781 -0.19822736 -0.19028234 -0.2384798 -0.06557652 -0.27967516 -0.2214679 0.047366273
-0.095079266 3.6218696 1.1773659 -1.5869621 0.27504513 -0.80590993 -0.29711476 -0.14408836
-0.10021957 0.18719317 -0.5557077 -0.0766879 0.07327005 0.15215595 -0.14036117 -0.14278534
-0.20354187 -0.07816383 0.015307554 -0.059373748 -0.1410168 0.09298628 0.36242786 -0.03781429
-0.080482654 0.5758019 1.5206121 -0.5157318 0.2949647 0.90240926 -0.26098627 -0.51399773
-0.21423753 0.12724407 0.058643047 0.18102653 0.23875837 -0.04793525 -0.19614862 -0.1999766
-0.1637799 -0.18360496 -0.13109381 -0.04432055 -0.20116894 0.119217165 0.41519293 -0.072201885
-0.5791253 -0.8761617 -2.4397936 1.7291725 0.16336276 -0.55019355 0.86615956 -0.5389145
0.18253736 -0.28960565 -0.13068265 0.42036957 -0.35384482 -0.13518193 -0.08046646 -0.05302553
-0.1910288 -0.021342367 -0.19646987 -0.0035724773 -0.06256222 -0.23399992 -0.2510852 0.13266549
-0.92124045 -4.2142687 -0.19997735 -2.3510706 0.10872705 0.6831383 1.0655441 0.70073986
0.0570811 -0.3738112 -0.09404943 0.13392246 -0.19319473 0.030880159 -0.10392707 -0.056146655
-0.17030059 -0.19154045 0.0011915227 -0.074457824 -0.15758131 -0.16888298 -0.17311777 0.0771605
-0.28948063 0.50701433 -0.87406594 -1.8934678 -0.07117464 0.3704729 0.14783667 0.2980207
-0.14866222 -0.58419913 -1.1512764 -0.5661164 0.17423885 -0.16900226 -0.009359857 -0.064057484
00000000: a3e0 513e e164 a83f ccf2 1fbf 3658 2f3f
00000010: eed3 c6bd f6cf dd3e 69ac 8bbe 2928 cc3e
00000020: 48f8 213e 2a58 ef3e 664b c6be 023d 84be
00000030: fdb8 a9be 2dce e1bc 11b1 bdbc 3d0c 283e
00000040: 96a7 9ebd ab98 0cbd 18c4 aa3d 215b d23c
00000050: 91a9 c5bc 68b3 9bbd 4cc7 bcbc 5082 5ebe
00000060: e9a8 a23e 7f37 dfbe bc5d a1bd e60c 18c0
00000070: e10d ae3d 4f52 0a3d ecb9 4cbf 76f6 28bf
00000080: e1e9 d5bc b0c8 d83e d0da 0c3e 27ef 09be
00000090: 7f62 083e 839f 41be 0735 f3bc 60e9 ad3d
000000a0: a46c 97bc 08ae c13d c3b6 483d 7923 e03d
000000b0: a99e a43d 25d2 d4bc 83d0 a6bd 84bb aebd
000000c0: 8bae 5e3d c346 413f c8ad 4e3e d07f 043f
000000d0: e18a de3d af67 b8bc 5f0e 26bd 8efe 9b3c
000000e0: 796f 5fbc 6902 3d3e 1fda 9c3d a7ba c6bd
000000f0: ad31 4b3c d4db 173a a9ec a6bd 59c4 f439
00000100: 328f 31bd 45e0 dcbd f746 20bc 6801 a43d
00000110: 06ee 07be e42a 843d 3032 3abe 1e0a 713e
00000120: 7ecf 08bd f3d4 b6bf bd31 38bd 7a60 6c3f
00000130: 8211 433d 4109 793c 1098 ce3c 8442 66bc
00000140: 2e0d 47bc d8b5 713e 66ef d340 d48e 42bb
00000150: 9b0d 03bd 6cf5 dfbc b84a 913d 973c bbbd
00000160: 3b65 90bd a4d2 ab3b 7176 48bd cfe2 91bd
00000170: 4e4c 8abd e006 40be a5c1 9b3d 9c8e bdbc
00000180: f46d cf3e cc43 eabf d9f6 eebc fd00 b63d
00000190: adda 0abf 6d49 e53e 9b0a 18bf f051 36be
000001a0: ca93 e13b b619 e9bd 569f dabe 0d38 223e
000001b0: c4a2 ccbe 8eea 833e 2402 423c 5a0d f8bd
000001c0: cd6b 9cbd 7751 d3bd 1abd 20be 74a2 10be
000001d0: 9795 4dbe ce94 70be b1f0 3fbe 947c 97bd
000001e0: c929 a33e 1f6e 043f 9388 34bf 23e6 37c0
000001f0: 846d 3fbf 0b9e 6cbe cac9 79bf 5ec4 33be
00000200: baa4 cdbd 1dd6 e7bd f2a7 7ebd d47c 303e
00000210: c34e 6dbe 73b6 db3d 0438 80be 6595 37bb
00000220: de02 11bc 1dfc 4abe 60d9 42be 0c34 74be
00000230: fc4c 86bd 9531 8fbe 7bc8 62be 2303 423d
00000240: ebb8 c2bd b6cc 6740 edb3 963f 9321 cbbf
00000250: b7d2 8c3e 1d50 4ebf 6d1f 98be e68b 13be
00000260: eb3f cdbd 91af 3f3e dc42 0ebf 8c0e 9dbd
00000270: 9c0e 963d c5ce 1b3e d7ba 0fbe 5236 12be
00000280: 486d 50be 5c14 a0bd 89cc 7a3c e331 73bd
00000290: b566 10be 976f be3d 2590 b93e 28e3 1abd
000002a0: 17d4 a4bd c167 133f 6ba3 c23f 0007 04bf
000002b0: 9d05 973e 4b04 673f fe9f 85be 5b95 03bf
000002c0: 1561 5bbe 454c 023e b133 703d 055f 393e
000002d0: 137d 743e c157 44bd 2fdb 48be aac6 4cbe
000002e0: ebb5 27be f002 3cbe 753d 06be 7789 35bd
000002f0: 3bff 4dbe 2128 f43d 2b94 d43e 95de 93bd
00000300: 8e41 14bf 224c 60bf 9425 1cc0 8655 dd3f
00000310: 9148 273e 7cd9 0cbf a2bc 5d3f 4df6 09bf
00000320: 13eb 3a3e 3147 94be acd1 05be ae3a d73e
00000330: 262b b5be 226d 0abe 99cb a4bd 4c31 59bd
00000340: 0e9d 43be 30d6 aebc 662f 49be 3920 6abb
00000350: 9f20 80bd ad9d 6fbe 3d8e 80be 76d9 073e
00000360: 6ad6 6bbf 4adb 86c0 ddc6 4cbe f177 16c0
00000370: 4aac de3d 27e2 2e3f c063 883f b063 333f
00000380: dfcd 693d 2e64 bfbe fd9c c0bd f822 093e
00000390: d7d4 45be 63f8 fc3c b7d7 d4bd 09fa 65bd
000003a0: 4763 2ebe 2e23 44be de2c 9c3a 587d 98bd
000003b0: ff5c 21be a9ef 2cbe c945 31be 5306 9e3d
000003c0: ce36 94be b1cb 013f c9c2 5fbf 275d f2bf
000003d0: 02c4 91bd a0ae bd3e 7f62 173e 2b96 983e
000003e0: e93a 18be 138e 15bf 065d 93bf 01ed 10bf
000003f0: ab6b 323e ee0e 2dbe 165a 19bc 9230 83bd

inverse_net.0.bias f4 [64]
-0.18921718 0.20668799 0.15496686 -0.072403334 0.11814335 -0.06744638 -0.08092152 -0.13713188
-0.20997682 0.0067947614 -0.17301773 0.107469335 -0.0856898 -0.13352412 -0.11165582 -0.2199142
-0.2295526 0.14784732 0.0673928 -0.018921848 0.10899387 0.18275487 -0.15494634 0.0034025908
-0.024519082 -0.09461211 -0.0043884004 -0.05342291 -0.13674438 -0.22216837 -0.2760861 -0.26992318
-0.07581027 0.10247398 -0.10437753 -0.20181389 -0.18157959 -0.06367677 -0.20343389 -0.1075822
-0.0056496887 -0.040181164 0.021081556 0.17791511 0.07059467 -0.055819314 0.031506203 -0.00655384
-0.03735953 0.006271719 0.03959414 -0.13442715 0.13115342 -0.30523393 -0.15320136 0.06251769
-0.086618386 -0.16176882 -0.042576242 0.1351696 0.0064215744 -0.14024103 0.16276506 -0.09865434
00000000: 26c2 41be 04a6 533e a2af 1e3e 3348 94bd
00000010: 24f5 f13d 5421 8abd 2fba a5bd 4d6c 0cbe
00000020: 2a04 57be 97a6 de3b 8f2b 31be e218 dc3d
00000030: 227e afbd 8cba 08be ceab e4bd 3031 61be
00000040: d60f 6bbe 4a65 173e 3c05 8a3d fe01 9bbc
00000050: 2e38 df3d 1824 3b3e 41aa 1ebe 00fe 5e3b
00000060: 3edc c8bc fec3 c1bd 92cc 8fbb fbd1 5abd
00000070: b806 0cbe 1b80 63be 285b 8dbe 5f33 8abe
00000080: 6a42 9bbd e1dd d13d e3c3 d5bd 4da8 4ebe
00000090: 00f0 39be f768 82bd f950 50be 0e54 dcbd
000000a0: 0621 b9bb 0195 24bd 3ab3 ac3c 612f 363e
000000b0: f093 903d cba2 64bd a60c 013d 98c1 d6bb
000000c0: 4e06 19bd fe82 cd3b 772d 223d 45a7 09be
000000d0: 154d 063e 9f47 9cbe d1e0 1cbe 4609 803d
000000e0: fb64 b1bd baa6 25be 6d64 2ebd e669 0a3e
000000f0: 126c d23b 589b 0fbe e2ab 263e 490b cabd
