IL/Model/model_reacher_81.pt (torch, 292527 bytes, 20 tensors)

policy_net.0.weight f4 [64, 24]
000000 1a f9 29 bf 05 5b c3 bf b1 84 b4 3e 61 1b b8 3d
       -0.66395724 -1.5262152 0.35257486 0.08989597
000010 52 b7 b2 3e 0d f6 76 be 57 36 e1 3e f6 13 87 bd
       0.34905487 -0.24117298 0.4398677 -0.06595604
000020 90 c0 45 3e a5 c0 28 3e e8 ff bd 3c 50 f8 0a bd
       0.19311738 0.16479738 0.023193315 -0.033928216
000030 2f 1c b0 bd 13 88 79 bd 20 b0 d5 3e f2 56 4f 3e
       -0.085991256 -0.060920786 0.41735935 0.20248011
000040 cd 35 85 3e 46 e3 59 3d 7a df e2 be 93 bf 48 bf
       0.2601761 0.05319526 -0.44311124 -0.7841732
000050 8b b7 12 bf 88 6e 5f bd 50 d5 87 3e 03 02 64 3d
       -0.57311314 -0.05454877 0.26529932 0.05566598
000060 6f bc 86 3e d8 a1 8b bf c2 b7 8b be 88 5d 4f 3e
       0.26315638 -1.0908766 -0.27288634 0.20250523
000070 6f a7 9c 3e e4 25 82 3e 36 8e 94 3f 3b 13 ce be
       0.30596492 0.25419533 1.1605899 -0.40249047
000080 87 27 07 be 3a d2 d0 be 40 f9 e2 3e 39 ef d9 3c
       -0.13198672 -0.4078539 0.44330788 0.026603328
000090 80 fd 1b bd 88 de ca be f2 ab 39 bd 19 14 02 be
       -0.038083553 -0.39622903 -0.045329995 -0.12702979
0000a0 4c 3d 2c be 5c 36 9c be 57 67 d3 be 07 7e 8f be
       -0.16820258 -0.30510223 -0.4128978 -0.2802584
0000b0 b9 49 bf be df 09 c6 3d 1c dc 0b be 1a 30 90 bd
       -0.37360933 0.096698515 -0.13658184 -0.07040425
0000c0 37 1e ee 3d b5 6e 85 3f 65 8d 0e bf fe a2 1e 40
       0.11626857 1.042441 -0.556845 2.4786983
0000d0 d1 6d 87 bd 0d f6 09 be 80 cd 43 bd 46 ba 94 3d
       -0.06612743 -0.13472767 -0.047803402 0.07262091
0000e0 90 58 2c 3f 77 eb 3a bd 86 e6 07 3e 99 fd 7e bd
       0.67322636 -0.045634713 0.13271531 -0.06225357
0000f0 86 04 10 3f e5 cc e7 3e e9 bc ca bd 9c 64 22 be
       0.562569 0.4527351 -0.09899313 -0.15858692
000100 12 9b 12 be c0 d4 76 be 92 41 99 3c 80 04 11 3d
       -0.14316967 -0.24104595 0.018708024 0.035404682
000110 45 cd b1 3d 5c 04 53 3e 50 f3 0f be c7 c6 84 be
       0.0868173 0.20607132 -0.1405766 -0.25932905
000120 a0 fc 06 3f ed 6b 43 3f ff 7e 09 bf 27 12 e7 bf
       0.52729225 0.76336557 -0.53709406 -1.8052415
000130 9a fe df 3e b2 5e 58 3e 5c d5 ea 3e 13 d7 1e 3e
       0.43748933 0.21129873 0.45865905 0.15511732
000140 14 5c a0 bd 59 41 29 3e ea 65 33 be 2e 45 4d bf
       -0.078300625 0.16528834 -0.17519346 -0.80183685
000150 c2 ac 82 bd 22 b7 f8 bc f0 97 11 bc 96 bb b0 bd
       -0.06380607 -0.030360762 -0.008886322 -0.08629529
000160 7e 3a fa bd 25 27 9b bd 06 78 17 be a0 89 db be
       -0.12218188 -0.075758256 -0.14791879 -0.42878437
000170 37 6c 09 be 17 b3 86 be dd 4c 0b be c6 c3 a4 3d
       -0.13420187 -0.2630851 -0.1360354 0.08045153
000180 80 46 95 bd 70 e1 a3 3e d6 a5 63 be 99 e6 be 3e
       -0.072888374 0.32007933 -0.2223123 0.37285307
000190 6c db 21 bc cb dc 2b 3e 5c 83 be 3d 0b b7 c5 3d
       -0.009878974 0.16783445 0.093023986 0.09654053
0001a0 47 71 87 bc 2f b7 61 be d3 19 66 be 12 af 06 3f
       -0.016533507 -0.22042535 -0.22470789 0.52610886
0001b0 04 2d 37 bf 99 53 33 bb ad 04 7c 3e 7b 79 3f 3e
       -0.71553063 -0.002736306 0.24611159 0.18698685
0001c0 11 1b d5 3e f7 f6 b4 3e 44 5b 4c 3e 4c 8b 82 3e
       0.41622213 0.3534467 0.1995669 0.254969
0001d0 54 40 d9 bd 72 3d 6a be 57 81 65 be e5 a8 56 bd
       -0.10607973 -0.22875002 -0.2241262 -0.052407164
0001e0 45 ac be be 4e 84 91 bf 7a 37 03 3f b6 8f fb bf
       -0.37240806 -1.1368501 0.51256526 -1.9653232
0001f0 c5 06 1e be 82 29 0a be 9f 64 a5 3e 3a 05 7e be
       -0.1543227 -0.13492396 0.3230333 -0.24806681
000200 b1 2b 68 bf b3 06 ba 3e ce 1d 9e be 97 3e a5 bd
       -0.9069167 0.36333236 -0.30882114 -0.08068579
000210 fe 1f bf bd fc 44 86 be d7 00 10 3e 75 50 19 3e
       -0.09332274 -0.26224506 0.1406282 0.14972098
000220 82 e8 4e 3e 19 9a 37 3e 8a 9f c7 3e 0e 42 ee 3e
       0.20205882 0.17929877 0.38988906 0.4653477
000230 38 c1 84 3e 23 a4 ee 3d eb be 25 be dc ab 6a bd
       0.25928664 0.116524 -0.1618611 -0.057292804
000240 3f 45 bc be 20 24 97 40 64 3c 54 3e 30 46 77 bf
       -0.3677158 4.72316 0.20726162 -0.9659147
000250 9f fd e4 be ed 9b 15 3f 8e 1b dd be 29 79 84 3e
       -0.44724748 0.5844105 -0.43185085 0.25873688
000260 b8 bd 25 3e 2d 41 b2 bd 29 70 a0 3e 18 89 14 be
       0.16185653 -0.087038375 0.3133557 -0.14505422
000270 50 f1 7a 3d 9f 55 0c 3e 99 7e 05 3e 34 0a 8d bd
       0.06126529 0.13704537 0.13036574 -0.06886712
000280 f8 53 6a 3e f8 ce 89 3e 92 48 b5 3d 52 85 a6 3e
       0.22883594 0.26915717 0.08851732 0.3252359
000290 fd 61 2e 3e 2b bd 1b be 01 18 d4 be 48 52 30 be
       0.17029567 -0.1520888 -0.41424564 -0.17218888
0002a0 a0 bc b5 3c 67 37 18 3f 15 03 5e 3f f0 62 e1 3f
       0.02218467 0.5945954 0.8672345 1.7608318
0002b0 65 d8 57 be 42 3a 46 3e 38 ae 40 3e e6 bb e7 bd
       -0.21078642 0.19358161 0.18816459 -0.11315136
0002c0 60 2e 2e 3e 6a af e6 be 00 bc c7 3b 90 97 d5 3e
       0.17009878 -0.45055705 0.0060954094 0.41717196
0002d0 55 09 89 be a2 44 3b 3c ad 57 89 be c5 8d a9 bd
       -0.26764932 0.011429938 -0.26824704 -0.082789935
0002e0 44 ee 1a be 2e e3 29 3e d5 43 dc bc 2b 3a 60 bc
       -0.15129954 0.16590568 -0.026887814 -0.013685743
0002f0 d4 93 1c 3e 16 a6 81 be 70 2b 37 bd 8f 15 a5 3d
       0.15290767 -0.25322026 -0.04471916 0.080607526
000300 f6 98 86 3f bc f0 cb 3d 15 f7 26 bf 93 a9 21 bf
       1.051543 0.09958026 -0.6522077 -0.63149375
000310 00 fe bc bd 97 13 a8 3e 8c 21 93 be da 3c 41 3e
       -0.09228134 0.32827446 -0.28736532 0.1887087
000320 77 a2 f7 3d 1d fb d3 3e 40 20 31 bd 93 17 17 3e
       0.120915346 0.41402522 -0.043243647 0.14755087
000330 c7 4b 9e 3d 6f 03 0b 3e 44 7c 50 be 2f f8 80 bd
       0.07729297 0.13575529 -0.20359904 -0.06297337
000340 b2 63 dc bd 69 46 52 be 95 9b bc 3d c3 cf e4 bd
       -0.10761203 -0.20534672 0.092093624 -0.1117244
000350 50 d0 b1 3c 98 9b ab 3d a9 b4 8d bd e3 19 77 3e
       0.021705776 0.083792865 -0.06919224 0.24130969
000360 b7 7f a5 3e f4 4a c9 3f 80 a8 54 3e 68 2b f0 bf
       0.32324 1.5725999 0.20767403 -1.8763247
000370 c2 e1 f7 be 07 61 9c 3e 06 a2 72 be 53 d6 b6 3d
       -0.48414427 0.30542776 -0.2369462 0.08927598
000380 c1 ae 30 3d d2 bf fa 3e d3 d6 1f 3f 12 97 ad be
       0.04313541 0.48974472 0.6243717 -0.3390432
000390 78 5f 16 be 12 84 b2 be b1 63 be 3e 64 69 8e 3e
       -0.14684856 -0.34866387 0.37185434 0.27814782
0003a0 6e f3 74 3e 6d 7e be 3d 93 f0 1c 3e fc a9 89 be
       0.23920986 0.093014576 0.15326147 -0.268875
0003b0 ec fc ed be 58 41 a4 be 52 48 03 be a4 3a 93 3d
       -0.46482027 -0.32081103 -0.12820557 0.07188919
0003c0 49 22 34 3f 1f 4e 02 40 9f 7c c2 3e e8 e0 85 bf
       0.70364815 2.0360181 0.37985703 -1.0459261
0003d0 1b da bc 3e 58 03 24 3e 88 3d 1e bf c4 3d 86 bd
       0.3688515 0.160169 -0.6181264 -0.065547496
0003e0 72 2e a7 be bc 31 16 3f 51 6c b2 3e 7f a1 05 bd
       -0.32652622 0.5866964 0.34848264 -0.032624718
0003f0 26 d6 42 3e ed b2 66 3e 42 d2 0a bf 16 c3 07 bf
       0.19027004 0.22529192 -0.5422708 -0.5303205

policy_net.0.bias f4 [64]
000000 59 c4 5a bd 3f 0e 1a bd 5b 41 8d be 59 95 b5 bc
       -0.053409908 -0.037611242 -0.27588925 -0.022165941
000010 c3 2d 20 3e 00 5c b7 be d1 26 fb 3d 5a 5f a8 bc
       0.15642457 -0.35812378 0.12263263 -0.02055328
000020 61 f7 44 3e 06 06 3a 3e b5 48 b4 bd 83 cc b3 3c
       0.19234993 0.1816636 -0.0880293 0.021948105
000030 98 71 dc be 68 97 bc be 2c db 91 3e 55 c1 87 3d
       -0.43055415 -0.36834264 0.28487527 0.06628672
000040 a6 dc ec 3d 15 7d 95 3e 11 b7 06 3e 7c 4f 2b be
       0.11565523 0.29196993 0.13155772 -0.1672954
000050 96 10 dd 3c d5 82 04 be bc d0 6a be de 30 8d 3d
       0.026985448 -0.12940533 -0.22931188 0.06894086
000060 25 22 11 bd 5a 03 d3 3d 25 7b 91 3e 4f 68 cc 3d
       -0.035432953 0.10303374 0.28414264 0.09980833
000070 79 4a 2d 3e b7 d0 f8 3b 58 39 0a be 4c 14 68 bd
       0.1692294 0.00759324 -0.13498437 -0.05665998
000080 96 31 19 3e 1b 79 7b 3e c8 10 8c bd 90 37 b3 bd
       0.14960322 0.24557917 -0.06839138 -0.08750832
000090 d6 6b b3 bc c6 69 ae 3b 2b 78 01 be 2b d9 9e 3e
       -0.021902006 0.005322668 -0.12643497 0.3102506
0000a0 92 fe ad 3d 69 cb 9d be ef 9e c0 3d 27 9c 0c bd
       0.08495821 -0.30819252 0.09405314 -0.034328606
0000b0 0a d2 53 be 30 d1 89 be 6a ff bf 3e 2c 58 8e bc
       -0.20685592 -0.2691741 0.37499553 -0.017376028
0000c0 54 11 cf bc 51 06 78 3e ec 89 2b 3e b7 68 01 bd
       -0.025276817 0.2422116 0.16751832 -0.031594004
0000d0 4f 62 16 3e c1 52 84 3e da 29 45 3d c3 0b 9f 3e
       0.14685939 0.25844386 0.048135616 0.3106366
0000e0 93 eb 90 be 36 63 4c bc ed 8a 42 be 19 65 31 3e
       -0.2830473 -0.012474826 -0.18998308 0.17323722
0000f0 f3 e8 9a 3e 0e 30 86 be 27 5b 2a be dd 1a 25 bd
       0.3025585 -0.26208538 -0.16636334 -0.040308822

policy_net.2.weight f4 [128, 64]
000000 a9 85 76 be 3f c5 05 3e fc 7d 92 be 59 c3 84 be
       -0.24074425 0.13063525 -0.28611743 -0.25930288
000010 56 84 92 3d 15 50 a0 3e a3 c5 39 3d e5 fe 64 3e
       0.07154147 0.31311098 0.045354497 0.2236286
000020 cd cd bd 3d 43 4e 01 3e 3d 30 ba bd 1d 99 38 bf
       0.09267769 0.1262751 -0.09091232 -0.7210863
000030 61 f3 23 3e 43 a6 83 be e4 97 0a 3d 0f a6 03 3f
       0.1601081 -0.25712785 0.03383626 0.5142526
000040 d5 f7 92 be d9 e5 33 3c e1 21 29 be 12 09 52 3c
       -0.28704706 0.010980093 -0.1651683 0.012819545
000050 0a 35 19 be 05 22 38 be f3 21 35 3e 3e 4e e2 3e
       -0.14961639 -0.17981727 0.17688732 0.4420032
000060 36 08 64 3e 67 af cf be ff 34 c0 be 75 7a 28 3f
       0.22268757 -0.4056351 -0.37540433 0.65811855
000070 e4 aa a0 3d 7b e7 18 3e 53 96 52 bf fe e9 37 be
       0.07845095 0.14932053 -0.82260627 -0.17960355
000080 82 0f d9 be c3 32 bc 3c 59 4b b4 3c 7c eb 27 be
       -0.42394644 0.022973424 0.022008585 -0.16398424
000090 26 36 23 3e 61 6d 12 3e 57 00 90 be e9 42 ba be
       0.15938625 0.14299537 -0.2812526 -0.36379173
0000a0 22 6d 2b 3e 3c 7d 61 bf 59 06 1e be cb 4d 93 3f
       0.1674085 -0.8808172 -0.15432109 1.1508116
0000b0 02 70 16 be 5d 33 1c 3e 0d d4 c3 3d a3 ea d4 3d
       -0.14691165 0.15253969 0.0956193 0.10396316
0000c0 99 ba e6 3d 65 9c 46 bf d4 dc a2 3b 7f ec db 3c
       0.112660594 -0.7758239 0.0049701724 0.026846169
0000d0 42 04 c6 bd 02 3c a9 be f9 21 aa 3e dd fc c6 3d
       -0.09668781 -0.33053595 0.33229044 0.097161986
0000e0 bd 63 f1 bd 6e d5 55 3d 71 0c 91 3e 9e 56 dd bb
       -0.11786602 0.052205496 0.28329805 -0.0067547103
0000f0 d7 93 84 be e9 f8 b9 bd 30 aa 3c 3e 83 0c 86 3c
       -0.25894043 -0.09080679 0.18424296 0.016363388
000100 75 9c 2a bf 55 81 37 3f 3b eb b3 3e 74 00 a4 3e
       -0.66644984 0.7168172 0.35140404 0.32031596
000110 a3 8d 15 c0 cc dd 5f be 3f 58 ab 3e 8f 88 19 bf
       -2.3367698 -0.21861953 0.33465764 -0.59973997
000120 86 81 9c 3b 3f 49 52 bc 87 d8 0c 3d 5d f3 92 be
       0.0047761826 -0.012834846 0.034386184 -0.28701296
000130 a9 bd b7 3d 88 ba 47 3e 2f e2 57 3d 18 62 1b 3e
       0.08971722 0.1950475 0.05270594 0.15174139
000140 cc 59 3f be 9b e0 ee 3d 57 c2 b4 3e 84 bb c2 bd
       -0.18686599 0.11663934 0.3530452 -0.09508422
000150 bf 44 e9 3d 27 83 8d 3e 89 eb 76 be 64 cb 4b bf
       0.113900654 0.27639124 -0.24113287 -0.79607224
000160 6b 1e 6b be aa 30 67 bd 18 ca eb 3e 58 a1 c2 3e
       -0.22960822 -0.056442894 0.46052623 0.3801372
000170 26 66 d4 3d bf ac 59 be 4f a2 49 3d 56 08 88 bd
       0.10371046 -0.21257304 0.049227055 -0.06642215
000180 59 16 00 bf 2c 40 27 be 7e 4e 21 be 9a 50 09 3e
       -0.500341 -0.16333073 -0.15752599 0.13409653
000190 75 e8 cd 3e 6d 31 11 3f d8 10 6a 3d e3 ce 97 be
       0.40216413 0.5671604 0.05714497 -0.2965003
0001a0 a7 18 0d bf 0a 33 e8 bd 2e 7e 7b 3e 56 a9 45 bf
       -0.5511574 -0.1133786 0.24559852 -0.7721151
0001b0 dc b1 7a 3e 88 fe 03 3e 2d a3 ed 3d af 95 13 3e
       0.2448191 0.12890065 0.11603389 0.14412569
0001c0 09 5d 22 3f 59 ab ab 3d a8 48 24 bf ae 57 f7 3d
       0.6342321 0.08382291 -0.64173365 0.120772704
0001d0 42 28 e1 3e 9c 53 c2 be a5 22 ca 3d 24 19 1f 3e
       0.43976027 -0.37954414 0.09869889 0.15536934
0001e0 d4 f1 e9 bd d9 ca b5 be d2 d1 2a be 1a 17 03 3e
       -0.11423078 -0.35506323 -0.16681603 0.12801781
0001f0 90 aa 13 3e 79 30 6b 3e 1d c4 dd bd d6 44 a5 be
       0.14420533 0.2296771 -0.10828421 -0.3227908
000200 e2 3a 95 be 1a 11 8a be 62 74 1b bf fb 9f 90 3e
       -0.29146487 -0.26966172 -0.6072446 0.28247055
000210 22 9a 20 3e c5 7e 53 3e dc b5 55 be cc 57 9a 3d
       0.15683797 0.20653827 -0.20870155 0.07536277
000220 34 b4 55 bb 9e 8e 88 3e 18 4d 31 3b 8f 01 73 bd
       -0.003260863 0.26671308 0.0027054008 -0.05932766
000230 51 0f 60 be 90 1a 1a bf 48 90 47 3e 65 af e4 be
       -0.21880843 -0.6019678 0.19488633 -0.44665065
000240 f6 71 b3 bd bf 3e 0e 3e 1a 90 e2 3e 5a 37 15 bf
       -0.08761971 0.13891123 0.44250566 -0.58287585
000250 82 a8 02 3e 6a c6 b0 bd 43 36 5c 3e 2c be e9 be
       0.12759593 -0.086315945 0.21505074 -0.45652902
000260 9b 9c f3 be 11 68 e7 3e a9 44 84 39 f6 54 f9 3d
       -0.47580418 0.45196584 0.00025228158 0.12174408
000270 f3 f2 d4 3e cf 5c 09 be b5 49 c0 bc 24 ce a1 3e
       0.41591606 -0.1341431 -0.023472646 0.31602585
000280 ed 16 a4 3e 8a 59 0a 3d 6d 9f b4 be 46 0c 12 3e
       0.3204874 0.033776797 -0.35277882 0.14262494
000290 7d e8 22 3e 3d 28 cc be df fa ad 3e 9f a3 47 3f
       0.15909 -0.3987445 0.33980462 0.7798404
0002a0 e9 59 07 3e 1b 71 30 bf 49 3d 37 be 6a 12 cd bb
       0.13217892 -0.68922585 -0.17894472 -0.0062582986
0002b0 fd 34 0a bd 6b 47 4e 3e 0c af 9b bd b0 17 1b 3d
       -0.03374194 0.20144431 -0.07601747 0.037864387
0002c0 10 43 15 bd f0 c1 92 3d 34 0e 36 3e 92 e9 a0 be
       -0.03644091 0.07165897 0.17778856 -0.314282
0002d0 ba 84 a5 3e b5 1b 56 3c a8 a4 48 be db 97 9a 3e
       0.32327825 0.013068129 -0.19594061 0.30193982
0002e0 96 5d 30 bf 5f 01 94 bd 9b 5f 5e bf c6 13 08 3e
       -0.688928 -0.07226824 -0.8686463 0.13288793
0002f0 f0 dd db 3e 48 f9 d6 be a8 d2 c8 bd 25 11 20 bf
       0.42942762 -0.41987062 -0.098058045 -0.6252616
000300 3e 96 f1 be 7a a6 df 3e dc 68 c2 be 2e 6a 4b bc
       -0.47184938 0.436817 -0.37970626 -0.012415452
000310 9e 71 47 be f1 83 d7 bd 19 dd c9 be 49 2a b6 3d
       -0.19476935 -0.10523213 -0.39426497 0.08894784
000320 ad 5f 7c 3e db 80 eb 3e 55 45 91 3e 4b a3 20 be
       0.24645872 0.45996746 0.2837321 -0.15687291
000330 58 03 c4 be 9f b4 a2 3c d8 d3 d9 3e b0 9e a0 bd
       -0.382838 0.019861517 0.42544436 -0.07842767
000340 fc 47 fd 3d f7 d5 0c 3e 28 bb 24 bb c2 68 af be
       0.123672456 0.13753496 -0.0025135968 -0.3425961
000350 cf a9 1b 3e 00 34 58 be ff 67 76 be 51 c9 5f be
       0.15201496 -0.21113586 -0.24063109 -0.2185414
000360 77 a6 01 bf 71 8e bb 3e ea 23 93 be 55 fa 11 be
       -0.5064463 0.36632112 -0.28738338 -0.1425565
000370 29 81 3f be a1 76 81 bd af 62 d6 be 92 27 13 bf
       -0.18701614 -0.06321455 -0.41872165 -0.57482255
000380 2c 00 49 3f c2 73 a3 3e b6 a4 54 be fb 06 4a 3e
       0.7851589 0.31924254 -0.20765957 0.19729225
000390 d1 fd f5 be ac 49 14 be 15 8b 26 3e 16 e3 13 bf
       -0.4804521 -0.14481229 0.16263993 -0.5776838
0003a0 be d3 20 be 1c 7e 08 bf 4c 76 e4 3d 39 b2 11 bf
       -0.15705773 -0.5331743 0.11155376 -0.5691257
0003b0 83 ca 29 be 86 ac 5b bf 2c 44 ea be 4b 84 50 3e
       -0.16581158 -0.85810125 -0.45755136 0.20362966
0003c0 7c bf 11 bf 49 b1 81 be a3 69 2a 3f 95 61 db be
       -0.56932807 -0.2533057 0.6656744 -0.42847887
0003d0 6f 5e a4 3e 7c a3 cb 3e c4 4b b3 3e 28 cf 0d 3f
       0.32103297 0.39773166 0.35018742 0.5539422
0003e0 b4 8f 9b be 3d 71 b4 be 45 96 39 be 86 36 19 bf
       -0.30383074 -0.35242644 -0.1812373 -0.5984882
0003f0 76 f0 7e be 72 36 81 be 6d 93 73 bd fe a8 c8 3e
       -0.24896416 -0.2523685 -0.059466768 0.3919143

policy_net.2.bias f4 [128]
000000 ec ef cd 3d 40 98 e8 bd 09 1c 32 3e 8c 3c e1 3c
       0.10055527 -0.113571644 0.17393507 0.027494691
000010 b1 4d 4f 3a e0 35 c8 3d c1 95 37 bd 5f 78 a9 bd
       0.0007908 0.09775901 -0.04482055 -0.08274912
000020 df 48 e1 b9 68 31 20 3e ef 4c 81 be 10 86 b3 bc
       -0.00042969637 0.15643847 -0.25254008 -0.021914512
000030 72 4a 8e bd 89 6a 2e be 3a f6 07 3e b6 b6 9f 3d
       -0.06947793 -0.17032827 0.13277522 0.07798521
000040 4e ac fe 3d 74 5d 93 be 72 2f 12 3e bd 04 84 3e
       0.12435208 -0.28782237 0.14275911 0.25784865
000050 fb c5 a8 be 32 6c d3 bb af 4b 52 be 82 5e fb bd
       -0.32963547 -0.006452107 -0.20536683 -0.12273885
000060 60 c2 4f bd 64 1d 48 be d3 40 c3 3a f8 81 03 3d
       -0.05072248 -0.19542462 0.0014896638 0.03210637
000070 cf 31 5a bc 41 ca d4 bc 3b 74 a8 bd 3a be 68 bd
       -0.013317539 -0.025975348 -0.08225294 -0.05682204
000080 06 38 de bc 0b b7 06 3d 95 27 af be 4c f3 91 be
       -0.027126323 0.032889407 -0.34209886 -0.28505933
000090 7f a5 76 be da 48 64 3e 24 38 d4 3e f4 7e 3e 3e
       -0.24086569 0.22293416 0.41449082 0.18603116
0000a0 0d f4 bd bd 6a a2 ab be 13 ff e4 3d ed 1b 8b 3d
       -0.092750646 -0.3352235 0.11181464 0.06792436
0000b0 84 02 8e be da f3 e8 bd da 2e c4 3c cf b6 c1 3b
       -0.27736294 -0.11374636 0.023948122 0.005911685
0000c0 2a 3d 41 3e 40 67 b9 be af 5c a3 be 7a 04 90 3e
       0.18870988 -0.36211586 -0.3190665 0.28128415
0000d0 43 b8 f9 bd ae 71 3e 3e 6b c3 0b bd 7c d6 f7 3a
       -0.12193348 0.18598053 -0.034121912 0.0018908526
0000e0 b9 54 46 3e 61 bc ee 3c 2e d2 ce 3c 8a 71 23 3d
       0.19368257 0.02914256 0.025246706 0.0399032
0000f0 78 16 5e be c3 35 71 bd 6c d6 cd 3d d3 6c 67 be
       -0.21688259 -0.05888916 0.10050663 -0.22600107
000100 fd d8 ee bd 54 ae 37 bc b6 35 03 be c7 ef 66 be
       -0.11662481 -0.011210997 -0.12813458 -0.22552405
000110 bc c7 aa 3d a5 db 9c 3c 5d b4 53 be 6b 05 62 be
       0.083388776 0.019147703 -0.20674272 -0.2207238
000120 8a b1 5f 3e e1 a8 88 bd 0c 36 50 3e 7e e6 7e 3e
       0.2184507 -0.06672836 0.20333117 0.24892613
000130 38 07 2c bd b6 dc 71 be e2 af d2 3d 62 0f d2 3c
       -0.04199907 -0.23619351 0.10287453 0.0256421
000140 1b d2 01 bd e8 b5 1b bd d3 c4 c5 bb 27 42 38 3d
       -0.031694513 -0.038015276 -0.006035426 0.044984963
000150 3d 17 61 3c 7b de 2e bd f3 ea 58 bc 0f 79 a2 bd
       0.013738451 -0.042692643 -0.01323961 -0.07933246
000160 7a 23 24 3e 27 be 86 3e c7 af 86 3d 95 87 92 3c
       0.16029158 0.2631695 0.065764956 0.017886916
000170 ed db 92 be 52 95 e7 3c af 58 f3 bd 93 07 14 be
       -0.28683415 0.028269444 -0.118821494 -0.14456014
000180 e7 7b 85 be a2 99 4d be 2b b7 34 be e5 df de be
       -0.26071092 -0.20078138 -0.17647998 -0.43530193
000190 3d a7 ec 3c 8b 36 1a be c5 d5 1f be d6 62 29 3c
       0.02888834 -0.15059869 -0.1560889 0.010338506
0001a0 19 2d 59 bd 5c 77 a4 be 8f e7 cb bc 9e 26 93 3c
       -0.053021524 -0.32122314 -0.02489069 0.01796275
0001b0 96 55 6a be 34 07 f1 3c e8 ab 0e be 25 5e 63 3d
       -0.22884211 0.02942238 -0.13932765 0.055509705
0001c0 6f fd 3d be 81 df ae 3d 6f 8e 4f 3d b7 0c 96 bd
       -0.18553708 0.08538724 0.050672945 -0.07326644
0001d0 d5 b2 60 bd 6a 85 e6 3d 4f 1b 8f be aa ee 42 be
       -0.054858048 0.112559155 -0.27950522 -0.19036356
0001e0 94 2a 26 3d ff df b5 3d 58 05 8d be 91 89 c7 3e
       0.04056795 0.088806145 -0.2754314 0.38972142
0001f0 ca e5 94 bd af 12 23 bb bc 1e 23 3e 06 02 85 bd
       -0.07270391 -0.0024882962 0.15929693 -0.064945266

policy_net.4.weight f4 [128, 128]
000000 d0 28 4d bd 42 4a 0e be 3f 95 25 bc d4 40 9d bb
       -0.05008775 -0.13895515 -0.010106384 -0.004798988
000010 fc 44 60 be c9 6b 6e 3e 93 cc 02 be 56 d4 bd 3d
       -0.21901315 0.23283304 -0.12773351 0.092690155
000020 aa 60 f4 be de 40 c9 3c ef 61 8f 3e 6b 7d 2f 3c
       -0.4773 0.024567064 0.28004405 0.010711054
000030 cd a9 86 3c 8c a3 3c 3e 36 1e 22 3f df 21 96 be
       0.01643839 0.18421763 0.6332735 -0.29322717
000040 cf a5 ff be b9 6e 17 3f 22 9e 81 3e b9 31 15 bf
       -0.4993119 0.59153324 0.25315958 -0.58278996
000050 61 fb 5c 3e 32 da c7 3c 8b 95 84 3e cb 25 34 bd
       0.21580268 0.024396036 0.25895342 -0.043981355
000060 83 d5 66 be e6 69 65 3d f3 29 61 bf 3b 87 1c 3f
       -0.22542386 0.056009196 -0.87954634 0.61143845
000070 40 0d 95 bd 41 8f 82 bf 57 4c e7 be f5 ee 1a bd
       -0.07277918 -1.0199968 -0.4517543 -0.037825543
000080 7e 84 09 3d 62 53 b0 3c 6f 12 d2 3e 6c c3 43 bf
       0.03357362 0.021524135 0.4102969 -0.76470065
000090 36 01 48 be 0a e6 88 be ec bc 96 be a6 a0 1a be
       -0.19531712 -0.26738006 -0.2944101 -0.15100345
0000a0 c0 f2 1a 3e af 05 25 3e 3c 82 16 3e 02 18 07 3e
       0.15131664 0.1611545 0.14698118 0.13192752
0000b0 7a 67 a8 be 39 47 b6 bf 2c 84 99 bd 70 96 05 be
       -0.32891446 -1.4240485 -0.07495913 -0.13045669
0000c0 01 c9 a1 3e 1d 25 e1 3e b9 b5 ff 3e 66 07 63 3e
       0.31598666 0.43973628 0.4994333 0.22170791
0000d0 ae 04 9e 3e ca db b0 be 51 44 b8 be e4 e4 70 be
       0.30862945 -0.34542686 -0.3598962 -0.23524815
0000e0 93 02 8a 3c bf df fd be 0d 1f f0 bd ca d2 1c bf
       0.01684693 -0.49584767 -0.117246725 -0.6125914
0000f0 61 70 6f 3c 9c 5e 54 3e 79 23 aa bf 8a 95 2a 3b
       0.014614196 0.20739216 -1.3292075 0.0026029074
000100 0b c7 81 bd 70 ca e0 3e b2 c2 a7 be c1 c0 a0 bc
       -0.063367926 0.43904448 -0.32765728 -0.019623162
000110 9b d2 31 be 86 37 ec be 98 a7 e3 be bf 58 0a bf
       -0.17365496 -0.4613611 -0.444638 -0.54041666
000120 3e 25 c5 be 20 3f 05 be be 20 5b be 50 c3 64 bd
       -0.38504976 -0.13012362 -0.21399209 -0.055850327
000130 a9 f0 01 be 7b fc ba bd f6 e1 84 3e be ba b3 be
       -0.12689461 -0.09130188 0.25953645 -0.3510341
000140 1e 9d 96 3e f6 84 ee 3e 77 45 16 3f ce 33 ca bd
       0.29416746 0.46585816 0.58699745 -0.09873162
000150 6e 74 37 be af ca e6 3e 29 b5 fe bd c8 22 b9 3e
       -0.17915508 0.4507651 -0.12436897 0.36159348
000160 c1 81 1b bd 74 72 5e bf 25 9f 42 3e e1 b8 88 bd
       -0.03796554 -0.8689339 0.19006021 -0.06675888
000170 fb 86 a6 3d e4 55 b6 3e ea 2c d5 bd 9b 95 c2 3e
       0.08131214 0.35612404 -0.10408957 0.38004765
000180 63 5b 91 be 53 14 a9 3e 9d 96 e4 bd b6 20 ad bd
       -0.28390035 0.3302332 -0.1116154 -0.08453505
000190 0c b9 42 3e 16 73 0e 3e ea 3e 95 3d 37 2d 88 3e
       0.19015902 0.1391109 0.072873905 0.26596996
0001a0 06 da 59 3d c7 64 1f bf 8e 66 32 3e 49 b3 9b 3e
       0.05318644 -0.6226315 0.17421934 0.3041022
0001b0 db 97 c7 3b 50 a4 ba be 85 06 13 3c 8f ac 78 bd
       0.0060911006 -0.36453485 0.008973722 -0.06071144
0001c0 72 e8 09 be 03 7d 01 3e 33 94 22 be 78 c5 c6 be
       -0.13467577 0.12645344 -0.15876846 -0.38822532
0001d0 39 b7 df be ae 17 0e bc c4 9a 05 bd 8d 52 62 3e
       -0.43694475 -0.008672638 -0.0326183 0.22101803
0001e0 9c 29 6c 3e 19 23 cb be b5 9e ec be 56 a2 1b bf
       0.23062748 -0.39675215 -0.46214834 -0.6079458
0001f0 bd 49 d7 3d c8 16 04 3f ea e6 c9 3d 2a 15 1f be
       0.10512111 0.5159726 0.098584965 -0.15535417
000200 3f 16 c9 3d 95 d4 b7 bd a2 52 3b bf e9 8a d0 be
       0.09818696 -0.08976094 -0.7317296 -0.4073098
000210 13 6c 84 be c6 54 05 be a8 2d 75 be 16 a2 d1 3d
       -0.25863704 -0.1302062 -0.23943198 0.102359936
000220 48 92 9a be 63 d0 f8 be ac 10 52 bd 95 0f 06 3e
       -0.3018973 -0.48596486 -0.05128543 0.13091882
000230 f8 fb 08 bf d8 6e 77 3e e6 30 21 3f 53 be 38 3e
       -0.53509474 0.24163377 0.6296524 0.18041353
000240 62 a9 5f bf 47 2d 64 3d b0 18 75 be 94 96 ec 3d
       -0.8736783 0.055707242 -0.23935199 0.11552158
000250 f0 eb a4 be 6e 9e 9f be 6e 3c 11 be 1a e2 99 bd
       -0.32211256 -0.3117556 -0.14183208 -0.075138286
000260 60 0d 1e bf 48 57 f4 bd ca ce 98 be 54 cf 40 bf
       -0.6173916 -0.1193071 -0.29845268 -0.7531636
000270 69 5d 75 bd ff 2c fb 3d 53 39 1d be 3a d9 a2 3e
       -0.059903536 0.12264442 -0.15353899 0.31806356
000280 f6 83 ab be c4 76 5b 3d a7 63 9c bd 6b 20 39 bf
       -0.33499116 0.05358006 -0.07636195 -0.7231509
000290 97 dd 89 3d ee 39 4a be 9f 34 6f 3e c8 0c 05 3f
       0.06731718 -0.19748661 0.23359917 0.5197263
0002a0 d8 8a 76 3e 49 21 a2 bd d0 0a 92 3d ea 6a 72 bd
       0.24076402 -0.07916505 0.071309686 -0.059183992
0002b0 c9 2c 46 bd a7 4f c9 be 14 3a 88 bd 4b 8c 45 bb
       -0.048382554 -0.39318582 -0.066517025 -0.0030143436
0002c0 c8 14 71 bf d5 57 53 3e f4 0c e6 3e 51 42 91 bf
       -0.94172335 0.20638974 0.44931757 -1.1348363
0002d0 48 77 50 be 88 68 54 be 88 a1 28 bf fb fa 78 3e
       -0.20358002 -0.20743 -0.6587148 0.24314491
0002e0 be d6 a7 3e bb e3 49 3d 40 3f 26 3e 27 70 01 3e
       0.32781023 0.049289446 0.16235065 0.12640439
0002f0 1c 0a 3c bf e0 ac 1d bf bb f9 69 be c5 11 75 be
       -0.73452926 -0.6159191 -0.22849171 -0.2393256
000300 a4 13 2c bf 5d b4 c1 bd d4 88 3b be ee a5 de bc
       -0.6721747 -0.0945823 -0.18313915 -0.02717873
000310 e2 8a 65 bd 93 1e ae be d0 3e 00 be 05 ea 15 3e
       -0.056040652 -0.340077 -0.12523961 0.14640053
000320 f8 51 cf be 31 80 0b 3e cb b6 03 be 3b f4 05 3e
       -0.40492225 0.1362312 -0.12862699 0.13081448
000330 8f 66 75 3e 20 82 13 3e 17 ea c0 be 9d 60 bc 3e
       0.23964904 0.14405107 -0.37678596 0.3679246
000340 3b 20 6e bf c1 c3 ed bd d4 d4 02 bf 30 cc ec 3e
       -0.9301793 -0.11609603 -0.51106 0.46249533
000350 16 e3 d8 bd 02 b0 7a bc 91 a5 58 bc 3b 16 a1 3e
       -0.10590188 -0.015300753 -0.013223068 0.31462273
000360 10 3a ba be 45 e5 69 3d d3 40 87 be 08 ea b7 3d
       -0.36372423 0.057103414 -0.26416644 0.08980185
000370 09 2f 8b 3e 64 9c 01 bf 92 8d 9f 3e b1 f5 4f bf
       0.27184322 -0.5062926 0.31162697 -0.8123427
000380 f7 33 50 bf 4f 75 15 bf e1 07 df 3e be 8c 1e bd
       -0.8132929 -0.58382124 0.435607 -0.03870844
000390 2f 8a ba be 35 b8 5a 3e ac d4 92 bd 79 91 12 bf
       -0.3643355 0.21359332 -0.0716947 -0.57253224
0003a0 cb 58 fa 3e b1 6e 1a 3e a1 85 66 3e 90 bf d1 3d
       0.4889587 0.15081288 0.22511913 0.10241616
0003b0 71 7f 95 3e 1e 17 60 3e 8e 64 8c be 22 88 02 be
       0.29198793 0.21883819 -0.27420467 -0.12747243
0003c0 c0 56 13 be c3 eb de be 0c ba d3 3e 0c a6 81 3e
       -0.14388561 -0.43539247 0.4135288 0.25321996
0003d0 73 c9 30 bf 08 96 ce 3e 17 52 e7 3d cc e2 b6 3a
       -0.6905739 0.4034884 0.11294954 0.0013953089
0003e0 ec 74 8d bb b8 83 c4 3b e0 e4 26 3e 69 ab 6e be
       -0.0043169167 0.0059971474 0.16298246 -0.23307575
0003f0 99 30 8a be 9b f6 1f 3b ef a8 bc bf e2 93 34 3e
       -0.26990202 0.0024408463 -1.4739054 0.17634538

policy_net.4.bias f4 [128]
000000 e9 56 92 be 35 ed 01 be 37 8d 8a 3d 2a 02 87 be
       -0.28581932 -0.12688144 0.06765216 -0.2636884
000010 ae f9 63 bd ce ea 0a 3e ea 31 0a be 20 99 0a be
       -0.055658035 0.13566133 -0.13495603 -0.13534975
000020 ab 0c 5a be cb 56 be bd 60 23 a0 3d d2 de 14 be
       -0.21293895 -0.09293898 0.07819247 -0.14538124
000030 13 b6 63 bd a0 18 b9 be d2 74 a1 3b 93 62 b9 3d
       -0.05559356 -0.361516 0.004927256 0.09052005
000040 03 3c a2 bd 92 29 c5 bd 82 7b ec bd 2f e7 4d 3e
       -0.079216026 -0.096270695 -0.11546995 0.20107721
000050 0b 79 4c be ed 00 15 be ee 67 a5 be be 35 00 bf
       -0.19968049 -0.14551134 -0.32305855 -0.50082004
000060 09 e6 83 be 25 c8 92 3e 7e 43 d5 bd 0a 5f 25 be
       -0.2576144 0.28668323 -0.10413264 -0.16149536
000070 28 e3 93 be be d0 24 3e 94 83 4c 3d 5b b6 59 be
       -0.28884244 0.16095254 0.04993017 -0.2126097
000080 dd 2d 83 3d af ac 67 3e 05 db db 3d 22 3a 48 be
       0.06405232 0.22624467 0.10735134 -0.19553426
000090 55 7d 48 3c 82 c9 95 3d 08 14 09 bf 8b e7 06 3e
       0.012236913 0.07313825 -0.5354619 0.13174264
0000a0 c3 d8 29 3e 33 ad 94 be d8 70 a3 bd 37 3f db 3d
       0.16586594 -0.2903839 -0.079805076 0.10705417
0000b0 7f 6f 77 be e7 4f 43 3e a4 9a 1d 3e e4 f2 de bd
       -0.24163626 0.19073449 0.15391022 -0.108861715
0000c0 b0 a9 ab 3c 4f d0 b6 be 7d 4f de bd 0d 4a 9b 3e
       0.020954937 -0.35705802 -0.10855005 0.30329934
0000d0 e3 84 fb be c7 5e 49 3d 90 17 6f 3e 72 df 06 bf
       -0.49124822 0.049162652 0.23348832 -0.526847
0000e0 d5 cb 24 be 3a ce 83 bc de 2b 93 3d f4 64 24 be
       -0.16093381 -0.016089547 0.071861014 -0.16054136
0000f0 a6 0d dc be 26 9e 1e be a7 a2 b1 be fc 28 a0 3d
       -0.42979163 -0.15490016 -0.34694406 0.07820317
000100 0e aa c3 bd 89 70 17 bd 49 2f ae be e7 dc 9e 3d
       -0.0955392 -0.036972556 -0.3402045 0.077569775
000110 70 e3 8c be 6e 31 af be 52 96 b3 bd fb f8 ee be
       -0.2751727 -0.342174 -0.08768906 -0.46674332
000120 3c 21 aa 3e 34 95 07 3d 2c 7b 1b 3e 96 35 88 be
       0.3322848 0.033101276 0.15183705 -0.26603383
000130 27 c2 8d be c2 5f 86 3e 69 b7 88 3e ce 8a c8 3d
       -0.2768719 0.26244932 0.2670243 0.097921
000140 55 ef 78 bf db d8 8a be a2 bb 09 3f 7c 93 91 be
       -0.9724019 -0.27118573 0.5380193 -0.28432834
000150 a5 9c 8c be 22 fb 79 37 bd b7 d1 bd c8 c5 76 3e
       -0.2746326 1.4900028e-05 -0.102401234 0.24098885
000160 2d 29 06 bf d1 b6 27 3e 38 6b 0c bd 97 f5 8c be
       -0.5240658 0.16378333 -0.03428194 -0.2753112
000170 8a ef 3d be 07 af d5 bc a6 a5 13 bf c0 29 30 3e
       -0.18548408 -0.026084436 -0.57674634 0.17203426
000180 c1 03 97 be e2 d4 94 bd dd aa 0f be 62 6d e0 3c
       -0.29495052 -0.07267167 -0.14030023 0.027395908
000190 d6 bd 5c 3e 51 f3 e5 3d ed ec a2 bd 73 00 8e ba
       0.21556792 0.112280495 -0.07955346 -0.0010833874
0001a0 a2 cb f6 be 83 96 c7 3c f0 86 f5 3d 96 8a 07 bf
       -0.48202235 0.024363762 0.11988628 -0.5294584
0001b0 8c dc af 3d e3 7c 33 3e 4b 98 62 be c4 45 f7 3c
       0.08586988 0.17528109 -0.22128408 0.030184634
0001c0 08 42 08 be 0b e4 06 3e fa ac 13 3e 0a e0 01 3e
       -0.13306439 0.13172929 0.14421454 0.1268312
0001d0 99 c5 25 be ba 24 42 3e b1 78 54 be a3 13 a9 3e
       -0.16188659 0.18959323 -0.20749165 0.33022794
0001e0 e3 02 91 be c5 27 3a 3e d1 6b 29 bd f0 b0 20 3e
       -0.28322515 0.18179233 -0.041362587 0.15692496
0001f0 bb 6e 80 be 31 0d d0 bc fb 14 5a 3c fa 9f 5d be
       -0.2508448 -0.025396915 0.013310666 -0.21643057

policy_net.6.weight f4 [64, 128]
000000 fe bb 82 bd 18 59 02 3e 05 42 d1 3e 95 44 55 bf
       -0.06383513 0.12729299 0.4087068 -0.8330777
000010 25 27 4b be 6d ee 0e be dd 22 01 3f 9b 75 34 3e
       -0.19839151 -0.1395814 0.5044382 0.17622988
000020 21 de 22 3e 8b 98 e4 be 53 b1 14 be fe 97 5f 3e
       0.15905048 -0.4464763 -0.14520769 0.21835324
000030 17 b1 b5 ba 5d 49 ab be cf 6e 18 be d5 5b 19 3d
       -0.0013861981 -0.3345441 -0.1488602 0.037441093
000040 ac ab d8 3e 81 b4 25 3e 2c 07 96 be e7 39 d5 3e
       0.42318475 0.16182138 -0.29302347 0.41645738
000050 50 f8 e2 3e de c9 c9 3d c8 9c 82 3e e0 fd 03 be
       0.44330072 0.09852956 0.2551024 -0.12889814
000060 26 44 0b bf c1 e6 38 3e e7 9f 0e 3e ea e6 18 3f
       -0.5440086 0.18056776 0.13928185 0.59727347
000070 6d c4 25 3e 85 27 2f 3d 07 84 08 bf 4e 73 da be
       0.16188212 0.042762298 -0.5332646 -0.42666095
000080 99 33 6b be c3 7e 7e bf 3e e3 0f bf 83 5d a4 b9
       -0.22968902 -0.99412173 -0.5620612 -0.0003135019
000090 d8 23 b9 bd 2d fb 18 bf 13 b8 91 bd 64 18 ae bc
       -0.0904004 -0.59758264 -0.071151875 -0.021251865
0000a0 cf 6d 9c 3c 5f 7f 07 bf e8 70 74 3e ed 64 d6 3c
       0.01909533 -0.5292873 0.23871195 0.026171172
0000b0 c5 62 09 bf 30 d4 c5 3e 5a 47 cb ba 61 db 8c bc
       -0.53666335 0.3863845 -0.0015508935 -0.017194452
0000c0 b8 82 21 bd 9a 5d 3d 3f 59 51 e0 be 7d fb 81 3e
       -0.039431304 0.7397095 -0.43812063 0.25387183
0000d0 ae 50 cd 3e e0 4c 62 bd ad 3c b8 3d 29 73 6e 3d
       0.40100616 -0.055249095 0.08995948 0.058215294
0000e0 fb 27 ac 3d 20 a9 a8 bc ea 3c 10 3f d8 91 bc bd
       0.08406063 -0.020588458 0.5634295 -0.09207505
0000f0 7f 01 57 be 20 0e 0e 3d 95 fc 5d be fe 99 69 3e
       -0.20996664 0.03468144 -0.21678384 0.2281265
000100 ee 87 c2 be a2 9c 6b 3c 9b c7 c1 be 57 a5 d2 3e
       -0.3799433 0.014380606 -0.378476 0.4114177
000110 cd 1a 2d bd f4 b5 e9 be c1 78 c1 3c e0 bf 5a bf
       -0.042261887 -0.45646632 0.02361715 -0.8544903
000120 99 40 42 3e 9d ad cd 3c f1 c6 3a bf b2 0d ad 3c
       0.18969955 0.0251072 -0.7295981 0.021124694
000130 3e ac 8a be 20 5a 39 bf 53 fb b4 be ea 5c ba be
       -0.27084535 -0.72403145 -0.35347995 -0.36399013
000140 9e d4 36 3e 5e 37 70 3c 3e 28 a0 3e bc 7a 80 be
       0.17854545 0.014661638 0.31280702 -0.2509364
000150 34 83 1b bf 19 d2 b0 be 56 aa 04 3f b7 91 b2 be
       -0.60747075 -0.34535292 0.5182241 -0.34876797
000160 1e 30 1a be 52 81 31 3c c3 83 1e 3e e9 81 20 bf
       -0.15057418 0.010834055 0.1547995 -0.6269823
000170 bc 8e ad be 58 6e 21 be ba 17 b9 3d 90 ba 61 bf
       -0.3389796 -0.15764749 0.090377286 -0.88175297
000180 d6 33 6b 3d c7 94 99 bd 17 ad 0d bd 3c 50 e0 3e
       0.05742248 -0.0749908 -0.0345889 0.43811214
000190 9e 96 ea be f8 0e ab bd 89 41 e5 bb 91 44 dc bd
       -0.45818037 -0.083524644 -0.006996338 -0.107552655
0001a0 0f e4 a7 bd 65 91 a2 be e2 22 b2 3e 2d 50 c9 bd
       -0.081977956 -0.31751552 0.34792238 -0.098297454
0001b0 e7 f8 91 3e 79 73 27 3e 82 8c 54 3e 3f 04 8a be
       0.2851021 0.16352643 0.20756724 -0.26956365
0001c0 ee 01 38 be 2d aa ba bd 0b 95 bb be 1a 5a a4 be
       -0.17969486 -0.0911449 -0.36637148 -0.32099992
0001d0 0a 21 01 3f 29 94 32 bf 06 21 64 bf 76 ae b0 be
       0.5044104 -0.69757324 -0.8911289 -0.34508103
0001e0 43 62 e4 bd d1 fe 86 3c 5b 53 76 be b5 5a d5 3d
       -0.111515544 0.016478928 -0.24055235 0.104176916
0001f0 d2 b7 19 3e e8 78 9f be e8 0e 19 bf 46 ce 86 be
       0.15011528 -0.31146932 -0.5978837 -0.2632925
000200 07 a5 a5 bd 47 a2 1f be af 10 23 bd 37 84 18 3e
       -0.08088117 -0.15589248 -0.039810833 0.14894186
000210 70 32 8a bb 75 d7 dd 3d 27 aa 37 3e 04 27 50 be
       -0.0042174384 0.10832111 0.17936002 -0.20327383
000220 99 b5 97 be e6 9a 7c bd cd 07 e8 3d 7d 63 c6 bc
       -0.29630736 -0.06167116 0.11329613 -0.024217362
000230 29 dc 84 3c f1 87 0e be 73 dc a4 3c 04 aa 0a be
       0.016218262 -0.13919045 0.02012465 -0.13541418
000240 8f 72 8a 3e 3c 80 83 bd c2 58 b4 bb 1f 41 84 3e
       0.27040526 -0.06420943 -0.005503745 0.25830933
000250 fc 91 32 be 5d b3 82 3e 79 8e 0d be 00 a7 7c be
       -0.17438501 0.25527468 -0.1382388 -0.2467308
000260 5d e9 c0 be 81 88 d2 bd 04 4f d9 be 0c b3 ed be
       -0.37678042 -0.10279942 -0.42443097 -0.46425664
000270 aa fa 50 3e 87 47 ba 3d 25 a8 d6 bd 03 f7 64 bf
       0.20408121 0.09095674 -0.1048129 -0.8943941
000280 05 92 06 be 90 2f 4b be da 30 47 be 89 76 bb 3d
       -0.1314164 -0.19842362 -0.19452229 0.09153468
000290 cb 04 c9 3c cb f3 f4 3b fa 17 e4 3d 77 06 95 bd
       0.024538418 0.0074753514 0.11137386 -0.07276624
0002a0 3a 7e a0 bb d1 3a 77 3e 5a de 86 3e be 97 3c bf
       -0.00489786 0.2414353 0.26341516 -0.7366904
0002b0 79 6a b0 be 31 d8 c7 bc 36 4c 17 bd 9d bd f2 3d
       -0.34456232 -0.02439508 -0.036937915 0.11852572
0002c0 1f 86 e5 bd 2e 2d 18 be 6a c5 71 3c f7 82 d5 3e
       -0.11207222 -0.14860985 0.01475654 0.4170148
0002d0 0c 23 57 be 5b bf 3b 3b 58 9e 2d 3e 7a cc ab be
       -0.21009463 0.0028647992 0.16954935 -0.3355444
0002e0 b0 eb fb bd ad 83 34 3e 31 bc 69 be d4 4a fa bb
       -0.12300813 0.17628355 -0.22825696 -0.0076383147
0002f0 e7 f1 fd 3d 22 81 ff 3c d9 ef 14 3e 23 30 d5 3c
       0.12399655 0.031189505 0.1454462 0.02602393
000300 07 4f 72 3d c1 93 ac be 51 00 d2 3c 93 f8 8e be
       0.059157398 -0.33706477 0.025634916 -0.27924022
000310 58 35 1f bf ad 88 53 bc 03 71 a9 3d fe 6a ec 3c
       -0.6219077 -0.012911004 0.082735084 0.028859612
000320 42 fe 91 3e 8f 7d 9a bc 78 3a 5d 3d a2 f2 94 3d
       0.28514296 -0.0188587 0.05401084 0.07272841
000330 52 31 87 3c 38 19 8b bd 6d 63 7d bf 0e ca 26 3d
       0.01650301 -0.067919195 -0.98979837 0.040720038
000340 f0 dd 0b be dd 79 e5 bd 11 48 0d be d6 ee 91 be
       -0.13658881 -0.11204884 -0.13797022 -0.2850253
000350 30 36 07 bf 70 72 14 3d 07 2c 98 3d 40 c1 d3 bd
       -0.5281706 0.03624195 0.074302725 -0.10339594
000360 f7 96 19 be 37 27 ef 3c ba bd 5d be ab 8f 88 be
       -0.14998995 0.029193504 -0.21654406 -0.2667211
000370 4c 90 7f be 96 d6 60 3e 02 a9 c9 3d 24 bf 98 3c
       -0.24957389 0.21956858 0.09846689 0.01864583
000380 f5 84 4d bd 16 3e 3f bd aa 1d 6d 3d 0d e3 95 bd
       -0.050175626 -0.04669007 0.057889618 -0.07318697
000390 cc 32 be 3e 76 3e 9b 3d aa 00 d2 bc 38 41 4c 3e
       0.3714813 0.07580273 -0.025635082 0.19946754
0003a0 7e ee 99 be 92 a2 53 3e fe c8 29 be 8b 61 a4 bc
       -0.30064768 0.20667484 -0.16580579 -0.020066043
0003b0 57 70 ef be 9d 9a c9 3e 9b 0a f8 bd 48 a2 cd 3d
       -0.46765396 0.39375773 -0.12111398 0.10040718
0003c0 c2 9d 71 be dd 01 d3 bd b3 e3 ca 3d 9a f7 58 bf
       -0.23595336 -0.1030309 0.099067114 -0.8475281
0003d0 69 3b 18 3e bc dc d6 3e 93 16 1d bf cc df 86 be
       0.14866413 0.41965282 -0.6136257 -0.26342618
0003e0 6f da 04 3c 9d b2 37 bc f8 bc 5c 3e 62 2c e2 be
       0.008108719 -0.011212018 0.21556461 -0.44174486
0003f0 dd d0 04 bd b9 66 5d bd a7 cf 2b bf 5a bd 2d 3e
       -0.03242575 -0.054053042 -0.6711373 0.16966763

policy_net.6.bias f4 [64]
000000 aa 2f 75 be a9 34 ad 3e 7a 10 d2 be 8a 79 de be
       -0.23943964 0.3382924 -0.41028196 -0.43452102
000010 25 ff 10 bf 73 36 90 3e 4e 50 dc be b0 a6 88 be
       -0.5663932 0.2816654 -0.43030018 -0.26689672
000020 a7 1a 14 3d fa 1e 89 3e 8b fd e7 3e e2 fb 6f bd
       0.03615823 0.26781446 0.45310625 -0.058589824
000030 53 01 c1 3e 4c d0 06 3e dc 61 32 3f 0a 19 9b 3e
       0.37696323 0.13165396 0.6968057 0.3029254
000040 c6 f8 66 be ce e4 ee be a5 f1 c6 3c 3c 3d 19 3e
       -0.22555837 -0.4665894 0.024285147 0.14964765
000050 8a b5 30 be 81 85 c0 3e 01 6c 17 be 8d 40 c4 3d
       -0.17256752 0.37601855 -0.14787294 0.095826246
000060 b4 f9 28 3e cd b6 75 3e 60 fb 09 3f 7c af f4 bd
       0.16501504 0.23995514 0.5389919 -0.119475335
000070 d7 59 90 3e c1 a1 4a 3e 1c 32 b6 3e 2a 93 40 be
       0.28193542 0.19788267 0.35585105 -0.18806139
000080 1e 82 45 be 11 f5 c3 3e 4d f3 9c 3e 45 e8 2f bd
       -0.19287917 0.38272908 0.30654374 -0.04294612
000090 2d f3 31 3d dd b9 8d 3e 90 05 93 3e 09 8d 15 bf
       0.0434448 0.27680865 0.2871518 -0.5841833
0000a0 a6 11 da 3e 9d c6 4b be d6 54 9e 3d dc 62 cc be
       0.4259159 -0.19899984 0.07731025 -0.39919174
0000b0 d2 06 01 3f 70 60 23 3f ba 1b 95 be c7 1b bf bd
       0.5040103 0.63819027 -0.29122716 -0.0933147
0000c0 e9 2e ff be 18 85 ca be ee 45 91 be ff 36 f2 3e
       -0.49840477 -0.39554667 -0.28373665 0.47307584
0000d0 35 1e c9 be 15 95 87 bd b9 5b b3 be 87 fd 81 be
       -0.3928086 -0.06620232 -0.35030916 -0.2538874
0000e0 71 08 1b 3f 0d 98 84 3e 8b 4c 6b bd c0 12 a2 be
       0.60559756 0.25897256 -0.057446044 -0.3165493
0000f0 21 0b 09 3e b3 bc 74 3e bd 26 9a be 62 99 2e 3e
       0.13383152 0.23900108 -0.3010768 0.17050698

policy_net.8.weight f4 [4, 64]
000000 74 66 c0 bd 98 d9 14 3d 8c ca 93 be 85 3a ab 3d
       -0.093945414 0.036340326 -0.28865469 0.08360771
000010 67 fb 92 3d e1 87 6d 3d c7 c6 88 3d a3 9d 77 bd
       0.071768574 0.057990912 0.06678539 -0.06045307
000020 4e 73 29 be fe d3 92 3c f8 ba 36 bc f2 6a e9 3d
       -0.16547891 0.017923351 -0.011152975 0.11397351
000030 36 d6 1f bc cb 4b c8 3d 8b 1a 6c 3c 03 eb 6b 3c
       -0.009755662 0.09780081 0.014410625 0.014399293
000040 54 fa 37 3d bb 89 74 bd ce 53 52 bd 35 ac ef 3d
       0.044916466 -0.059701663 -0.051349454 0.11702768
000050 38 0a e4 3d da ff a4 3d 32 65 43 bc b9 6d 8f 3d
       0.111347616 0.08056612 -0.011925982 0.0700335
000060 8d c6 8a bd 3c 2b 81 bd e0 2d 1f 3d 31 46 62 3d
       -0.06776152 -0.063070744 0.03886211 0.05524272
000070 07 dc a9 bc ef 90 77 bd 61 36 b8 bc a7 aa 46 bd
       -0.0207348 -0.060440954 -0.022486867 -0.04850259
000080 04 da 4f 3c 44 d6 6f 3c 19 40 48 bd 71 3e 7a bd
       0.012686256 0.014638487 -0.048889253 -0.061094705
000090 a7 62 8f 3b 33 29 51 3d 57 7d af 3c e2 9f 11 3d
       0.004375774 0.05106468 0.021422071 0.035552867
0000a0 a9 b6 93 3d 50 64 a4 bd 7f 8c b5 3c 96 69 83 bd
       0.07212574 -0.080269456 0.02216172 -0.06416623
0000b0 29 30 9f bc 39 f3 1b bd ae 65 80 3d 75 4b 97 3c
       -0.019432144 -0.038073752 0.06269394 0.018468598
0000c0 cb 69 59 bd 18 5e b5 3d 63 47 c1 bc b2 c0 82 bc
       -0.053079408 0.088558376 -0.02359361 -0.015961025
0000d0 b4 6b 93 3e 21 7a 02 3d c6 d2 9b bd e5 68 49 bd
       0.28793108 0.031854752 -0.07608561 -0.0491723
0000e0 ea 28 e0 bd 90 af 75 3d 1a ed 14 3d bd 4c 85 bd
       -0.10945304 0.059981883 0.03635893 -0.06508777
0000f0 5b 48 b3 3d 7a 57 86 bd 15 4e 70 38 6d 75 9b bd
       0.08754035 -0.065596536 5.729318e-05 -0.075907566
000100 71 24 1b 3d 15 76 e0 bc f3 17 a7 3e c3 be 0a bd
       0.03787655 -0.027400056 0.3263546 -0.03387333
000110 87 eb c8 3d ac 50 8e 3d e6 d3 37 bc 40 af 3b bd
       0.09810548 0.06948981 -0.011219954 -0.04582143
000120 a9 8f a0 3e 4d b7 d8 3b e1 eb 65 bd d9 45 3c bd
       0.31359604 0.006613648 -0.056133155 -0.04596505
000130 ac 11 cf 3d 3c 0b 81 3d 5c b1 23 3c 0e 1c 15 be
       0.101107925 0.06300971 0.009991016 -0.14561483
000140 66 af 08 bc 57 84 a3 bd 86 a0 9b bd 2e 71 db 3c
       -0.0083425995 -0.07984226 -0.07598977 0.026787367
000150 14 0e c1 3d fd 26 88 3d fc 82 cb bc 36 7d 64 3d
       0.09426513 0.066480614 -0.024842732 0.055783473
000160 b5 49 4a bc 11 69 54 bd 6d 41 1d 3d 86 3a c9 3c
       -0.012346675 -0.05185801 0.038392473 0.024564039
000170 8d 2d 67 bc 1a 67 a7 bd c5 7c 8f bd 8c 3d ad 3d
       -0.014109981 -0.08173962 -0.0700622 0.08459005
000180 31 69 e7 3c 02 30 86 3d 41 e2 8f bd f9 07 8b 3b
       0.028248401 0.065521255 -0.070255764 0.004242894
000190 d5 9c 0b bd 5f 03 9e 3d 4b ae 1e 3c f0 99 89 3d
       -0.034085114 0.07715487 0.009685109 0.067188144
0001a0 9e 6c 5b 3d 75 88 a2 3b 2f ba d0 3d 8e 6b 2f bd
       0.053570382 0.0049601146 0.10191762 -0.04282718
0001b0 af 2c b4 bd ff b4 63 bc 86 95 0b 3d 18 e5 c0 3d
       -0.08797585 -0.013898133 0.034078144 0.09418696
0001c0 25 32 97 3c 3b 8c 9f bd 7b b0 93 bb 75 4d 8a bd
       0.018456528 -0.07790419 -0.004507122 -0.06753055
0001d0 26 90 21 3e c7 cc 8e 3d 75 65 a6 bd 7d 7d c6 3c
       0.15777645 0.06972652 -0.0812482 0.02422976
0001e0 85 08 bc bd cb b8 9d bd 2d 55 87 bd 8d c2 da bd
       -0.091813125 -0.07701262 -0.06608043 -0.10681639
0001f0 f8 6f a8 3d af 92 4c bd 08 f8 4a 3c eb dd e4 3c
       0.08224481 -0.049944576 0.012388237 0.02793785
000200 79 23 c8 3d e0 e0 8c bc e7 16 8d 3d 0a c3 a6 bd
       0.09772391 -0.017197073 0.06889134 -0.081426695
000210 81 ae ca bd 21 31 8f bc ed 02 47 be d8 b2 b0 3d
       -0.09896565 -0.017479481 -0.1943471 0.08627862
000220 03 c8 a4 3d 7c d6 e3 3d c7 90 cb bd c9 d3 24 bd
       0.08045962 0.11124894 -0.099397235 -0.040241037
000230 63 f6 8d 3d 96 80 0f bc 16 dd 0d be c5 a2 81 bc
       0.0693176 -0.008758685 -0.13853869 -0.015824685
000240 3c c6 b2 bd 08 be 82 bd 94 2b 29 bc 61 ab b9 bd
       -0.087292165 -0.06383902 -0.010325331 -0.09065891
000250 15 3d 3e be e6 08 cf 3b 65 1a ae bd b3 f0 b9 bc
       -0.18577988 0.0063181994 -0.08501128 -0.022697782
000260 d8 54 a5 3d 7c 8c 79 3d bf 19 81 3d 97 88 a0 3d
       0.08072823 0.060924992 0.06303739 0.078385524
000270 44 7c 94 3d cb 0c 89 3d 0b 76 6d bc 4d ff 6f 3d
       0.07250264 0.06691893 -0.014493476 0.058593083
000280 e7 94 cc bd 36 14 f0 bc e5 54 dc ba 46 89 72 bd
       -0.09989338 -0.029306512 -0.0016809969 -0.059212945
000290 8c eb 22 3e 2e 90 68 bd 88 6a 98 3c d7 cf 0a be
       0.15910167 -0.056778125 0.018605486 -0.13555847
0002a0 aa c3 31 be ca 76 bb 3d 50 2c 59 bc 5a d6 44 3e
       -0.17359796 0.091535166 -0.013255194 0.19222394
0002b0 6d 7f b2 3d a9 a9 3d 3e cc 26 d6 bd 66 ad cb 3d
       0.08715711 0.18521751 -0.10456619 0.099451825
0002c0 09 25 b1 3d 62 82 df bc 29 bd 3d bd 4e 11 6a 3d
       0.08649642 -0.027283851 -0.046322975 0.05714541
0002d0 2f 1f 29 3e ee 39 a5 bd d7 71 af 3d 22 83 a5 3c
       0.16515802 -0.0806769 0.08566635 0.02020413
0002e0 71 a6 4e 3e 7a 7a bd bc 68 ac 35 bd bc 15 32 3e
       0.2018068 -0.02312969 -0.044353873 0.17391104
0002f0 1d a9 2a be 25 eb 94 3d 0d df f2 bd 27 48 d3 3d
       -0.16666074 0.07271413 -0.1185895 0.10316496
000300 3e 94 a0 bd 46 d5 d8 bd 7c 51 9f bd 6e f6 6e bc
       -0.07840775 -0.10587554 -0.07779214 -0.014585121
000310 86 f9 91 3c 6b ac 83 bc 45 49 c0 3d 49 35 fb bb
       0.017819177 -0.016073426 0.09388975 -0.007666264
000320 0d c1 ab bd 90 eb 2e 3d 13 e7 cf bb 81 bc ae 3b
       -0.08386431 0.04270512 -0.006344685 0.00533253
000330 a5 db 92 3c 79 33 2d ba 3f b6 ad 3d c3 2c 80 bc
       0.017927 -0.00066070963 0.08482026 -0.015646344
000340 55 06 1b bd b0 2e 84 3d 3b 73 ae 3b 0b 42 73 3d
       -0.037847836 0.064542174 0.005323795 0.059389155
000350 1a 6a 12 3d 9e 97 84 b9 cc 73 9b bd 51 84 a9 3b
       0.035745718 -0.00025289966 -0.07590446 0.005173244
000360 e4 3b c5 bb ee 18 d0 3c 33 60 33 bd 30 fc 9a bc
       -0.0060191024 0.025402512 -0.043792915 -0.01891908
000370 2f 27 c6 bc 64 67 31 bd 79 f2 af 3b 0d e0 70 3c
       -0.024188606 -0.04331149 0.005369481 0.014701855
000380 63 19 18 3d 5c 58 25 3b 9f 9c 8c 3d e9 b8 70 bd
       0.037133586 0.0025229668 0.068658106 -0.058770094
000390 8f 1d 4b bd d5 4a 93 3c cb ad ae bd c1 3d 02 3c
       -0.049588736 0.017980019 -0.08529242 0.007949294
0003a0 32 b5 47 3d d2 dd 9c 3d 50 0f 26 3d 89 7c 9e bd
       0.048756786 0.07659496 0.040541947 -0.07738597
0003b0 3f c4 bd bc e6 35 6a bd f1 c8 74 3c 96 78 91 bc
       -0.023164866 -0.057180308 0.014940486 -0.017757695
0003c0 cd ed 3c bd b9 62 7d bd 76 26 4a bd 00 90 9a bd
       -0.046125222 -0.061861727 -0.049353085 -0.07546997
0003d0 0d 30 d5 3d 97 e2 ca 3d 96 81 73 bb 3a c1 13 3d
       0.104095556 0.099065 -0.0037156097 0.036072947
0003e0 ed 70 b8 bd 6b 87 0c bc f8 86 15 bc b1 66 fc bc
       -0.09005914 -0.008577208 -0.009126417 -0.030810686
0003f0 94 71 32 3d 9f 07 6f bd b9 7f 68 be 77 3c b0 3c
       0.043565348 -0.058356877 -0.22704972 0.021513207

policy_net.8.bias f4 [4]
000000 e5 c7 bc 3d 50 87 cb 3c c6 2a 03 3e 1b cb 54 3e
       0.09217814 0.024844795 0.12809286 0.20780604
