IL/Model/model_reacher_73.pt (torch, 292527 bytes, 20 tensors)

policy_net.0.weight f4 [64, 24]
-0.6204351 -1.46936 0.33581617 0.1486277 0.3366565 -0.2114509 0.40708756 -0.06293751
0.18855774 0.1529155 0.018940032 -0.023487143 -0.08670276 -0.06770677 0.39849153 0.19186367
0.26008877 0.06699209 -0.4078357 -0.7340469 -0.5464211 -0.060018234 0.25335026 0.046910245
0.21940841 -1.0137402 -0.24730738 0.34444365 0.29386458 0.26252452 1.1415795 -0.3889686
-0.13353096 -0.39000782 0.41556314 0.02606066 -0.02545838 -0.38961035 -0.040993176 -0.12326587
-0.16345723 -0.29739287 -0.39795646 -0.25790378 -0.35377774 0.11382956 -0.117559105 -0.081217
0.1221213 1.0625943 -0.50870794 2.4185104 -0.06345529 -0.11177306 -0.055216525 0.0651921
0.62741125 -0.055720743 0.12530428 -0.05819595 0.4987449 0.44352412 -0.084519945 -0.14419238
-0.12996168 -0.23004538 0.024677526 0.032073412 0.07932769 0.204348 -0.13441166 -0.25404194
0.52798826 0.6693298 -0.50245583 -1.7217811 0.4174578 0.21782407 0.4083507 0.14435363
-0.082323365 0.13950464 -0.16650684 -0.7815109 -0.06377472 -0.019831939 -0.0066292477 -0.082427636
-0.117664985 -0.071816824 -0.1428838 -0.4224176 -0.12838522 -0.25893068 -0.12165158 0.08637265
-0.08697521 0.2752562 -0.21776627 0.32042167 -0.014294794 0.1616955 0.0886049 0.094062835
0.006865712 -0.20825812 -0.21823731 0.51990056 -0.6824963 -0.017330961 0.23881817 0.17888959
0.40943283 0.34881437 0.19739915 0.25845608 -0.09674677 -0.21697316 -0.21870461 -0.05889858
-0.37307468 -0.9475091 0.48149824 -1.930691 -0.1666535 -0.1385443 0.34229514 -0.2624721
-0.90302956 0.34268913 -0.29116765 -0.0729049 -0.0671723 -0.2530269 0.1487914 0.15555595
0.20354259 0.17181075 0.3667477 0.42693952 0.23036383 0.10669674 -0.15228412 -0.030214531
-0.33131576 4.4266906 0.19278191 -0.8620433 -0.42581233 0.5277001 -0.4447128 0.2587076
0.16711242 -0.061998747 0.29520953 -0.1331722 0.08700578 0.15322515 0.123530656 -0.07630806
0.22129814 0.26189902 0.08150171 0.32355884 0.17748976 -0.14594409 -0.4049314 -0.17048396
0.016646435 0.56179595 0.8122228 1.7182544 -0.20625012 0.22935352 0.15006304 -0.12270419
0.18163505 -0.43056774 0.010750783 0.36562082 -0.27466998 -0.005578299 -0.2519354 -0.073018566
-0.14830498 0.16241819 -0.03936144 -0.03338905 0.13981974 -0.25123265 -0.042763233 0.08147869
1.0171689 0.18829355 -0.61927694 -0.5877406 -0.0919737 0.3130986 -0.2707367 0.1796514
0.09232906 0.3724734 -0.019926593 0.13353567 0.056708578 0.13151503 -0.19824252 -0.058253102
-0.10373323 -0.20256825 0.09336917 -0.110213056 0.025308656 0.08897633 -0.069410264 0.23899691
0.30212647 1.5944841 0.19973122 -1.7280852 -0.46327922 0.3077128 -0.28559864 0.08086732
0.039884314 0.49058732 0.5971091 -0.32542235 -0.1432937 -0.31906995 0.35733852 0.26556736
0.22743176 0.083375305 0.14975283 -0.25966266 -0.4524796 -0.3199436 -0.12089787 0.068146534
0.70831066 2.0213077 0.3595479 -1.0783037 0.3462851 0.20223983 -0.60039073 -0.056503277
-0.31076157 0.5441523 0.35822406 -0.037011806 0.19399972 0.1929488 -0.49921846 -0.49773154
00000000: d6d4 1ebf fd13 bcbf 19f0 ab3e dc31 183e
00000010: 3e5e ac3e 9686 58be c86d d03e 62e5 80bd
00000020: 4815 413e e195 1c3e 2028 9b3c 1c68 c0bc
00000030: 3791 b1bd d9a9 8abd 1507 cc3e e977 443e
00000040: 5b2a 853e 2633 893d d7cf d0be 7fea 3bbf
00000050: 41e2 0bbf aed5 75bd 20b7 813e f524 403d
00000060: 99ac 603e 3dc2 81bf 253e 7dbe eb5a b03e
00000070: 6b75 963e 9d69 863e 471f 923f e426 c7be
00000080: 57bc 08be 1baf c7be b1c4 d43e 2a7d d53c
00000090: 188e d0bc 027b c7be 76e8 27bd d172 fcbd
000000a0: 5561 27be e143 98be f3c0 cbbe f70b 84be
000000b0: 5b22 b5be 791f e93d d4c2 f0bd 1955 a6bd
000000c0: bb1a fa3d 1703 883f af3a 02bf e0c8 1a40
000000d0: d9f4 81bd 46e9 e4bd b92a 62bd 7083 853d
000000e0: 069e 203f 6f3b 64bd c44f 003e e05e 6ebd
000000f0: 7e5b ff3e 9815 e33e cb18 adbd 2ba7 13be
00000100: ad14 05be 0491 6bbe 8628 ca3c 695f 033d
00000110: 8e76 a23d 9a40 513e 36a3 09be c911 82be
00000120: 3d2a 073f 3359 2b3f f2a0 00bf 5363 dcbf
00000130: 07bd d53e 460d 5f3e 5813 d13e 70d1 133e
00000140: 2799 a8bd 4eda 0e3e c580 2abe 1911 48bf
00000150: 529c 82bd 9776 a2bc 293a d9bb d2cf a8bd
00000160: 57fa f0bd b314 93bd 2250 12be 1f47 d8be
00000170: 6a77 03be 9092 84be 7724 f9bd 25e4 b03d
00000180: 0f20 b2bd 61ee 8c3e 1ffe 5ebe 4f0e a43e
00000190: b634 6abc 8193 253e 7c76 b53d 04a4 c03d
000001a0: c4f9 e03b 9e41 55be 9a79 5fbe 3418 053f
000001b0: 14b8 2ebf a9f9 8dbc c08c 743e d52e 373e
000001c0: 2ea1 d13e cc97 b23e 0123 4a3e 5b54 843e
000001d0: 2c23 c6bd 362e 5ebe 1af4 5fbe a33f 71bd
000001e0: a503 bfbe f58f 72bf f086 f63e e220 f7bf
000001f0: 37a7 2abe 8fde 0dbe 4f41 af3e be62 86be
00000200: f22c 67bf f374 af3e ed13 95be 2a4f 95bd
00000210: a191 89bd be8c 81be c65c 183e 0f4a 1f3e
00000220: 786d 503e 28ef 2f3e 5bc6 bb3e d197 da3e
00000230: 7fe4 6b3e d283 da3d 5ef0 1bbe 7784 f7bc
00000240: 38a2 a9be 73a7 8d40 9f68 453e dfae 5cbf
00000250: 1304 dabe 5b17 073f 65b1 e3be 5375 843e
00000260: 851f 2b3e 66f2 7dbd b425 973e 4b5e 08be
00000270: 1630 b23d 0ee7 1c3e a4fd fc3d 6647 9cbd
00000280: fb9b 623e a117 863e 5eea a63d 81a9 a53e
00000290: e0bf 353e 5e72 15be 2b53 cfbe 5993 2ebe
000002a0: 1b5e 883c dcd1 0f3f d5ed 4f3f c3ef db3f
000002b0: 3b33 53be a6db 6a3e 20aa 193e 564c fbbd
000002c0: 8afe 393e 6073 dcbe 0d24 303c a732 bb3e
000002d0: 8ba1 8cbe 2aca b6bb adfd 80be c28a 95bd
000002e0: 43dd 17be f450 263e 7639 21bd f5c2 08bd
000002f0: e82c 0f3e 91a1 80be 8028 2fbd 4dde a63d
00000300: 9732 823f 06d0 403e ef88 1ebf 2b76 16bf
00000310: b55c bcbd 764e a03e 009e 8abe 89f6 373e
00000320: 0517 bd3d d5b4 be3e 183d a3bc 93bd 083e
00000330: 4147 683d e0ab 063e 1600 4bbe ce9a 6ebd
00000340: 1672 d4bd 0d6e 4fbe 5638 bf3d 62b7 e1bd
00000350: 1954 cf3c 3939 b63d f826 8ebd 9bbb 743e
00000360: 52b0 9a3e 0e18 cc3f 5786 4c3e e531 ddbf
00000370: ef32 edbe 888c 9d3e fc39 92be c49d a53d
00000380: bc5d 233d 432e fb3e 24dc 183f c29d a6be
00000390: 95bb 12be 235d a3be 13f5 b63e 72f8 873e
000003a0: dfe3 683e acc0 aa3d ce58 193e 81f2 84be
000003b0: 68ab e7be a6cf a3be 4d99 f7bd 6990 8b3d
000003c0: d953 353f 1b5d 0140 aa16 b83e db05 8abf
000003d0: 484c b13e f517 4f3e 35b3 19bf fb6f 67bd
000003e0: 241c 9fbe 914d 0b3f 2569 b73e b199 17bd
000003f0: dda7 463e 5f94 453e 9099 ffbe abd6 febe

policy_net.0.bias f4 [64]
-0.063447304 -0.049572226 -0.27097356 -0.017557837 0.14815423 -0.33047107 0.12599616 -0.018949887
0.18858351 0.17764436 -0.09591402 0.030402664 -0.39001697 -0.3571144 0.2845523 0.073897086
0.12500584 0.28052437 0.120741285 -0.15507957 0.02856898 -0.09737171 -0.22371633 0.07232864
-0.035760596 0.077381745 0.26495543 0.08334154 0.17397168 0.012605751 -0.13145061 -0.06549161
0.12869586 0.24365276 -0.0763656 -0.08937812 -0.022414014 0.010895766 -0.117499255 0.28390667
0.084195 -0.29910955 0.0701073 -0.026650365 -0.20296477 -0.257119 0.3472871 -0.017870879
-0.010818344 0.21960352 0.16610901 -0.02401076 0.14405635 0.25370586 0.040633827 0.30027363
-0.2542916 -0.004624548 -0.17393947 0.17266144 0.2782073 -0.25408015 -0.155816 -0.033737928
00000000: a9f0 81bd 3f0c 4bbd 0cbd 8abe 74d5 8fbc
00000010: beb5 173e 8133 a9be 2305 013e cb3c 9bbc
00000020: 091c 413e 67e8 353e 926e c4bd 020f f93c
00000030: 4eb0 c7be b3d7 b6be d7b0 913e 5b57 973d
00000040: 8801 003e e4a0 8f3e 3547 f73d 2ecd 1ebe
00000050: 7e09 ea3c d26a c7bd e515 65be 0a21 943d
00000060: b479 12bd 527a 9e3d 3da8 873e f8ae aa3d
00000070: a225 323e 5a88 4e3c fd9a 06be 7720 86bd
00000080: d9c8 033e 1c80 793e 9165 9cbd e00b b7bd
00000090: 989d b7bc 2884 323c 73a3 f0bd 375c 913e
000000a0: 6e6e ac3d e324 99be 6b94 8f3d de51 dabc
000000b0: ffd5 4fbe 1aa5 83be 9dcf b13e f365 92bc
000000c0: 6c3f 31bc bfdf 603e 7b18 2a3e 37b2 c4bc
000000d0: 8283 133e bce5 813e a86f 263d 77bd 993e
000000e0: 8232 82be 8589 97bb 301d 32be 29ce 303e
000000f0: 3071 8e3e cb16 82be 3b8e 1fbe c830 0abd

policy_net.2.weight f4 [128, 64]
-0.21276018 0.15796146 -0.23750399 -0.24404381 0.06338158 0.28927973 0.026259638 0.2084001
0.08511853 0.12702201 -0.07542554 -0.6698341 0.18356599 -0.2646937 0.055156108 0.51397276
-0.26647598 0.031541973 -0.13856374 0.01544575 -0.15867892 -0.15237072 0.13921455 0.41957363
0.17797095 -0.37966236 -0.37834576 0.6124027 0.072789244 0.13218285 -0.7665142 -0.14837578
-0.4207238 0.020594398 -0.009800231 -0.15383849 0.04642614 0.16290408 -0.18823344 -0.35758063
0.11020951 -0.84672683 -0.15952313 1.1053358 -0.15261377 0.13730879 0.07036916 0.07030695
0.100855924 -0.7345442 -0.009739718 0.06741428 -0.10554847 -0.29715732 0.29570705 0.06550949
-0.10680221 0.030015854 0.2912062 0.027590396 -0.22328344 -0.10800867 0.17366941 0.0010927062
-0.6906512 0.6006155 0.2581443 0.15665929 -2.1162663 -0.2801944 0.3064143 -0.5539931
-0.026284968 -0.032741718 0.024697859 -0.25469843 0.021686453 0.13928272 0.08531973 0.15607215
-0.15484525 0.15771157 0.31381357 -0.16152403 0.081709184 0.254448 -0.2560176 -0.85168517
-0.2590983 0.017227877 0.39257213 0.28974745 0.09948945 -0.15737183 0.036533825 -0.058742803
-0.5409386 -0.11672782 -0.13923676 0.10867637 0.39020988 0.4980576 -0.017733414 -0.2511493
-0.5324631 -0.14105116 0.17232727 -0.79506457 0.21755044 0.14117403 0.101089336 0.16814552
0.54119706 0.13654754 -0.5873733 0.08505943 0.46282792 -0.4023296 0.06296825 0.14554553
-0.03321479 -0.3379507 -0.203058 0.06640327 0.011470658 0.22615185 -0.07975748 -0.09722384
-0.2945456 -0.19197537 -0.4773213 0.20985514 0.12032262 0.2080275 -0.13616152 0.08156246
-0.0006707227 0.2922284 0.02316522 -0.03812215 -0.24729677 -0.59205234 0.050610665 -0.4329401
-0.08572859 0.23906177 0.45640543 -0.4999026 0.09869372 -0.046704844 0.08774481 -0.43350035
-0.4691075 0.4302349 0.010596877 0.11480946 0.3709208 -0.120650396 -0.07958729 0.27663356
0.2634095 0.010615299 -0.401995 0.18123367 0.14387128 -0.36404362 0.2947211 0.72359633
0.17323834 -0.64413184 -0.15099193 -0.041695196 -0.06458111 0.1654021 -0.06381103 0.09353418
-0.031955793 0.12703061 0.21907271 -0.33803833 0.2770459 -0.059391186 -0.13941018 0.32023588
-0.68785894 -0.054935932 -0.8180083 0.17743276 0.41804746 -0.37841702 -0.09123204 -0.65461385
-0.5439498 0.4434558 -0.39506528 -0.047839466 -0.1993299 -0.06876878 -0.37979993 0.082587525
0.21528289 0.4468097 0.301375 -0.15398657 -0.3133459 0.05624132 0.39056823 -0.08975734
0.10127252 0.11131203 -0.041039113 -0.40031013 0.09496173 -0.1990503 -0.14269915 -0.19544819
-0.4511563 0.33637208 -0.24015963 -0.11955148 -0.31694958 -0.058837596 -0.41115797 -0.56062734
0.74453783 0.2771954 -0.19879673 0.16284886 -0.42699528 -0.034840547 0.17312367 -0.54578155
-0.1644701 -0.55434 0.13389342 -0.54597276 -0.12074078 -0.74723995 -0.41540182 0.16432826
-0.63213444 -0.30751213 0.6376176 -0.43967217 0.3210213 0.38843244 0.31794992 0.5317526
-0.27373034 -0.308479 -0.15031384 -0.5166032 -0.2790073 -0.24441288 -0.0061985846 0.3687326
00000000: cedd 59be a6c0 213e 3f34 73be 9fe6 79be
00000010: 34ce 813d 791c 943e 741e d73c d666 553e
00000020: a052 ae3d 0f12 023e b578 9abd 3f7a 2bbf
00000030: b9f8 3b3e ef85 87be 5feb 613d b893 033f
00000040: 8a6f 88be 2832 013d a7e3 0dbe 2c10 7d3c
00000050: ba7c 22be 1207 1cbe 428e 0e3e 5bd2 d63e
00000060: 043e 363e 1b63 c2be 89b6 c1be 6cc6 1c3f
00000070: 8712 953d f15a 073e 463a 44bf d2ef 17be
00000080: 1c69 d7be 95b5 a83c 2691 20bc d687 1dbe
00000090: 5629 3e3d 54d0 263e 44c0 40be cf14 b7be
000000a0: 86b5 e13d 17c3 58bf 085a 23be a57b 8d3f
000000b0: c946 1cbe ad9a 0c3e b51d 903d 17fd 8f3d
000000c0: 8d8d ce3d 170b 3cbf 5793 1fbc 7f10 8a3d
000000d0: cc29 d8bd 0125 98be ea66 973e d729 863d
000000e0: 1ebb dabd cfe3 f53c fb18 953e 4105 e23c
000000f0: 6aa4 64be a633 ddbd 65d6 313e 2339 8f3a
00000100: 84ce 30bf f0c1 193f 7d2b 843e 4b6b 203e
00000110: e870 07c0 a475 8fbe 56e2 9c3e 7ed2 0dbf
00000120: 9353 d7bc 2e1c 06bd 2a53 ca3c d567 82be
00000130: caa7 b13c 21a0 0e3e 1cbc ae3d 61d1 1f3e
00000140: c18f 1ebe 247f 213e 2cac a03e 8e66 25be
00000150: 2557 a73d 0247 823e bd14 83be 0a08 5abf
00000160: 88a8 84be 7a21 8d3c 37ff c83e c759 943e
00000170: 20c1 cb3d 1526 21be 7ea4 153d 4b9c 70bd
00000180: f47a 0abf ff0e efbd 1594 0ebe b791 de3d
00000190: 97c9 c73e 6801 ff3e aa45 91bc a496 80be
000001a0: 804f 08bf b76f 10be 8f76 303e 5a89 4bbf
000001b0: 8bc5 5e3e ed8f 103e ed07 cf3d 572e 2c3e
000001c0: e48b 0a3f 1ed3 0b3e 195e 16bf a333 ae3d
000001d0: c8f7 ec3e 25fe cdbe 7ff5 803d e309 153e
000001e0: 3b0c 08bd e007 adbe 70ee 4fbe 70fe 873d
000001f0: 6def 3b3c 5a94 673e e457 a3bd 4b1d c7bd
00000200: aece 96be 3195 44be 7563 f4be 44e4 563e
00000210: b56b f63d 2905 553e ed6d 0bbe 380a a73d
00000220: 70d3 2fba f69e 953e fdc4 bd3c f925 1cbd
00000230: 5d3b 7dbe be90 17bf 214d 4f3d 53aa ddbe
00000240: 7992 afbd 9ccc 743e f9ad e93e 3cf3 ffbe
00000250: ef1f ca3d 944d 3fbd 8db3 b33d c2f3 ddbe
00000260: dc2e f0be c047 dc3e 869e 2d3c 3921 eb3d
00000270: 55e9 bd3e 8e17 f7bd a9fe a2bd eaa2 8d3e
00000280: 9cdd 863e cbeb 2d3c 4ad2 cdbe 5295 393e
00000290: fe52 133e ed63 babe afe5 963e 9c3d 393f
000002a0: 6465 313e d3e5 24bf a19d 1abe 95c8 2abd
000002b0: 1a43 84bd 2b5f 293e 5baf 82bd d98e bf3d
000002c0: 14e4 02bd 5014 023e 9954 603e 5c13 adbe
000002d0: f6d8 8d3e 2c44 73bd 8bc1 0ebe f5f5 a33e
000002e0: 8617 30bf 8004 61bd fe68 51bf efb0 353e
000002f0: 510a d63e e0bf c1be ddd7 babd c694 27bf
00000300: 4b40 0bbf a30c e33e ff45 cabe 51f3 43bd
00000310: 231d 4cbe a5d6 8cbd 2375 c2be a623 a93d
00000320: 1e73 5c3e 3ec4 e43e d34d 9a3e a8ae 1dbe
00000330: e06e a0be 4c5d 663d 8ff8 c73e b2d2 b7bd
00000340: f867 cf3d 90f7 e33d a118 28bd 73f5 ccbe
00000350: 4c7b c23d d8d3 4bbe ba1f 12be 9223 48be
00000360: f5fd e6be f638 ac3e 68ec 75be 68d7 f4bd
00000370: 3747 a2be b1ff 70bd 4c83 d2be 4685 0fbf
00000380: 089a 3e3f 8eec 8d3e 5f91 4bbe dac1 263e
00000390: 209f dabe f6b4 0ebd 5547 313e 57b8 0bbf
000003a0: da6a 28be 3ae9 0dbf 5b1b 093e dfc4 0bbf
000003b0: f146 f7bd 1e4b 3fbf 8caf d4be ab45 283e
000003c0: 90d3 21bf 3b72 9dbe e83a 233f b61c e1be
000003d0: e75c a43e 9ee0 c63e 55ca a23e f020 083f
000003e0: 6226 8cbe f6f0 9dbe dfeb 19be 1b40 04bf
000003f0: 0bda 8ebe 5f47 7abe 7f1d cbbb 85ca bc3e

policy_net.2.bias f4 [128]
0.093572 -0.112639725 0.16110255 0.022642385 0.006624157 0.085767396 -0.052367892 -0.08587907
0.016666733 0.16208911 -0.23929684 -0.023899717 -0.0629343 -0.17129242 0.12199792 0.06809426
0.10569247 -0.29486573 0.12517577 0.2317207 -0.33037978 0.003142874 -0.20628396 -0.12092722
-0.029238408 -0.16599053 0.01447515 0.03618424 0.0034852028 -0.02959697 -0.07924229 -0.068189435
-0.017772414 0.028501453 -0.3233401 -0.28927836 -0.23194799 0.21335141 0.40462086 0.17562099
-0.07938116 -0.3037301 0.100911014 0.057056226 -0.25551978 -0.103742674 0.010398493 0.0056222645
0.1856545 -0.3361373 -0.31822264 0.2551251 -0.123229414 0.18207654 -0.03201407 -0.009754364
0.17591357 0.034424677 0.019472813 0.029174596 -0.19705242 -0.07110458 0.12573178 -0.24388468
-0.11573914 -0.03115951 -0.12575841 -0.21074957 0.076598905 0.024462871 -0.2037816 -0.20886037
0.20542312 -0.049255416 0.19170465 0.24212381 -0.043053795 -0.20933717 0.099969216 0.024392966
-0.016524812 -0.03034101 -0.012347522 0.058035254 0.0077172574 -0.042844 -0.0049623144 -0.060876574
0.14521211 0.22907366 0.061034884 0.009716312 -0.2576323 0.028653262 -0.1269104 -0.12762176
-0.23767807 -0.20359747 -0.19018117 -0.41592824 0.032942872 -0.13269883 -0.11665297 0.019077126
-0.04573166 -0.29734468 0.0011567075 0.01565607 -0.22966792 0.021014346 -0.13577035 0.041851487
-0.16254404 0.081686154 0.05871548 -0.07453366 -0.0642175 0.113160744 -0.26809034 -0.16371189
0.040899254 0.08544106 -0.23988613 0.3472414 -0.08984548 0.0039539393 0.14381957 -0.03953629
00000000: ada2 bf3d a8af e6bd 11f8 243e 867c b93c
00000010: 750f d93b d1a6 af3d b77f 56bd 5ee1 afbd
00000020: ac88 883c b0fa 253e 3b0a 75be 57c9 c3bc
00000030: b3e3 80bd 4867 2fbe 0cda f93d 0175 8b3d
00000040: 4b75 d83d a4f8 96be 142e 003e 3148 6d3e
00000050: 8a27 a9be adf8 4d3b 1a3c 53be b1a8 f7bd
00000060: 6385 efbc 6cf9 29be 2e29 6d3c ed35 143d
00000070: 0068 643b 5875 f2bc c849 a2bd e7a6 8bbd
00000080: 7497 91bc e17b e93c d58c a5be 4b1c 94be
00000090: c683 6dbe cb78 5a3e 772a cf3e fdd5 333e
000000a0: 9792 a2bd 8382 9bbe 6faa ce3d cab3 693d
000000b0: 7dd3 82be 0a77 d4bd 715e 2a3c f93a b83b
000000c0: 371c 3e3e 301a acbe 14ee a2be c29f 823e
000000d0: b45f fcbd 4672 3a3e 2f21 03bd c5d0 1fbc
000000e0: b022 343e e400 0d3d 7385 9f3c 90ff ee3c
000000f0: 1cc8 49be 479f 91bd d5bf 003e e8bc 79be
00000100: a408 edbd 3b42 ffbc d0c6 00be bcce 57be
00000110: e3df 9c3d 5c66 c83c 20ac 50be 7edf 55be
00000120: 705a 523e 0cc0 49bd 394e 443e 4eef 773e
00000130: 2d59 30bd 7c5c 56be a9bc cc3d c2d3 c73c
00000140: 0b5f 87bc b68d f8bc 434d 4abc 60b6 6d3d
00000150: 0ce1 fc3b 317d 2fbd e99a a2bb b759 79bd
00000160: 7cb2 143e 4992 6a3e b7ff 793d 2b31 1f3c
00000170: 61e8 83be 3fba ea3c cdf4 01be 47af 02be
00000180: e161 73be db7b 50be dabe 42be 8cf4 d4be
00000190: 1bef 063d 34e2 07be c1e7 eebd a247 9c3c
000001a0: 1f51 3bbd 903d 98be aa9c 973a 2941 803c
000001b0: 112e 6bbe 4726 ac3c 6207 0bbe 776c 2b3d
000001c0: f271 26be 124b a73d a57f 703d 1ba5 98bd
000001d0: 7784 83bd d2c0 e73d 2343 89be 17a4 27be
000001e0: fa85 273d b9fb ae3d b6a4 75be a0c9 b13e
000001f0: e800 b8bd 0c90 813b 7045 133e cef0 21bd

policy_net.4.weight f4 [128, 128]
-0.11066304 -0.100342736 0.028371638 0.030613922 -0.15701966 0.2057848 -0.22726625 0.12314144
-0.4689503 0.019384177 0.071122974 0.12753937 0.002651795 0.07833688 0.6092727 -0.25611597
-0.43895555 0.5657668 0.23537408 -0.5075637 0.3010676 0.0867661 0.38550147 -0.05274572
-0.2587652 -0.022320896 -1.0216538 0.5430806 -0.05355518 -0.80123556 -0.4986838 -0.05996166
0.01214421 -0.024773005 0.42068 -0.7841502 -0.18536973 -0.31053364 -0.328163 -0.22034068
0.17166722 0.17797224 0.14213513 0.13977513 -0.49134412 -1.3318257 -0.13472934 -0.11971548
0.349604 0.40233815 0.46478847 0.23171102 0.31539676 -0.43186682 -0.331972 -0.23813432
0.01744281 -0.49742767 -0.2850045 -0.45651993 0.033181544 0.17757125 -1.3225669 -0.05064049
-0.07480863 0.39239055 -0.27638853 0.021767039 -0.24520211 -0.49332336 -0.42655185 -0.50463825
-0.32204515 -0.0491095 -0.17081909 -0.13456836 -0.17891392 -0.09136584 0.28343597 -0.32878196
0.2811084 0.43616596 0.47678563 -0.10383388 -0.15064318 0.41270924 -0.10474289 0.34071872
0.001642698 -0.70171726 0.1930653 -0.036461778 0.04187608 0.3410669 -0.20879987 0.3872466
-0.2879735 0.32369882 -0.14719228 -0.18809351 0.16257152 0.21355018 -0.008940733 0.29893562
-0.05403426 -0.63418007 0.21332827 0.30988637 0.03382021 -0.3661011 -0.037259933 -0.07717748
-0.10665919 0.05945911 -0.22949062 -0.38146067 -0.40180472 -0.061353862 -0.085933 0.15755141
0.26949182 -0.44430798 -0.5487364 -0.6057586 0.057535578 0.46321493 0.079904795 -0.19373852
0.10529556 -0.06792084 -0.69878465 -0.43122172 -0.16938093 -0.10172679 -0.19137858 0.08828343
-0.33434075 -0.50727165 -0.15143807 0.19202115 -0.5384566 0.11405711 0.6174133 0.1304344
-0.7778982 0.06052361 -0.24097139 0.08194237 -0.3252168 -0.36274767 -0.18013465 -0.17403874
-0.5346513 -0.092324845 -0.25749573 -0.68565446 -0.072342165 0.08729081 -0.14089571 0.21249788
-0.25059715 -0.09667751 -0.13800989 -0.7381119 0.07309852 -0.16928232 0.26582566 0.383758
0.27248332 -0.08951914 0.13250154 -0.07364181 -0.054641336 -0.42068562 -0.051667053 -0.16078804
-0.95964634 0.22515446 0.49453765 -1.0391443 -0.2553047 -0.1452266 -0.50937736 0.23748149
0.32853103 0.07215882 0.11269738 0.08174139 -0.7727176 -0.4862612 -0.23442155 -0.2604989
-0.79472864 -0.08204708 -0.10444989 -0.024098996 -0.070528075 -0.4534727 -0.22319157 0.18479505
-0.2920844 0.12353769 -0.15359479 0.21836358 0.30501577 0.21995369 -0.31225947 0.3643474
-0.66156924 -0.17231435 -0.47247285 0.4127405 -0.16935655 0.012780049 0.083047904 0.31442443
-0.2476951 0.059922963 -0.35427412 0.09421136 0.31139082 -0.48106456 0.28080696 -0.68713295
-0.7168928 -0.64840066 0.45544684 -0.04340713 -0.3197034 0.21372251 0.022029985 -0.37563786
0.41948932 0.14055848 0.26760486 0.13432646 0.22371787 0.23495872 -0.16172466 -0.10486934
-0.01754672 -0.27371442 0.36412677 0.29391629 -0.63344896 0.34355697 0.104429774 0.08168256
0.06494962 -0.0071807993 0.21393962 -0.2989843 -0.22908597 -0.14158322 -1.2194887 0.13363974
00000000: 4ea3 e2bd 7e80 cdbd a36b e83c 0cca fa3c
00000010: c3c9 20be 40b9 523e 7cb8 68be 9431 fc3d
00000020: 411a f0be 91cb 9e3c eca8 913d ae99 023e
00000030: bdc9 2d3b 166f a03d 4cf9 1b3f a221 83be
00000040: c8be e0be 18d6 103f e705 713e b2ef 01bf
00000050: 8825 9a3e 6db2 b13d 7360 c53e e50b 58bd
00000060: df7c 84be 50da b6bc 8dc5 82bf 5507 0b3f
00000070: ad5c 5bbd c61d 4dbf 7c53 ffbe 5c9a 75bd
00000080: 82f8 463c c2f0 cabc 5e63 d73e 11be 48bf
00000090: 90d1 3dbe 44fe 9ebe fb04 a8be fda0 61be
000000a0: 88c9 2f3e 5b3e 363e df8b 113e 3621 0f3e
000000b0: 7591 fbbe 4479 aabf 7df6 09be 642d f5bd
000000c0: 4cff b23e 44ff cd3e c1f8 ed3e a745 6d3e
000000d0: af7b a13e a61d ddbe 3cf8 a9be 7cd9 73be
000000e0: 39e4 8e3c d7ae febe 1cec 91be fbbc e9be
000000f0: 5fe9 073d 3dd5 353e df49 a9bf 676c 4fbd
00000100: 4435 99bd 6ae7 c83e cc82 8dbe ca50 b23c
00000110: 4316 7bbe e194 fcbe 0165 dabe f92f 01bf
00000120: 1ae3 a4be 0b27 49bd 33eb 2ebe 4acc 09be
00000130: 3635 37be 031e bbbd 851e 913e 1c56 a8be
00000140: 71ed 8f3e 2551 df3e 3f1d f43e dba6 d4bd
00000150: 3542 1abe a04e d33e 7183 d6bd af72 ae3e
00000160: cc4f d73a bea3 33bf e9b2 453e f258 15bd
00000170: 4186 2b3d 52a0 ae3e a2cf 55be 3045 c63e
00000180: 4371 93be dabb a53e 93b9 16be 969b 40be
00000190: 2679 263e e6ac 5a3e 277c 12bc 170e 993e
000001a0: 0753 5dbd a059 22bf ba72 5a3e 6da9 9e3e
000001b0: 0f87 0a3d 9a71 bbbe df9d 18bd 3a0f 9ebd
000001c0: 2270 dabd 658b 733d 97ff 6abe d04e c3be
000001d0: 59b9 cdbe 304e 7bbd a4fd afbd 2855 213e
000001e0: d5fa 893e 567c e3be fd79 0cbf ff12 1bbf
000001f0: 6daa 6b3d 822a ed3e 20a5 a33d 6463 46be
00000200: 33a5 d73d 151a 8bbd 8de3 32bf 18c9 dcbe
00000210: 3272 2dbe 2356 d0bd bff8 43be f1cd b43d
00000220: b62e abbe 8edc 01bf 9512 1bbe 31a1 443e
00000230: 4bd8 09bf c696 e93d cc0e 1e3f 9890 053e
00000240: 5624 47bf 9be7 773d 34c1 76be 67d1 a73d
00000250: d182 a6be 10ba b9be 3875 38be 3637 32be
00000260: e8de 08bf cf14 bdbd 7bd6 83be 0d87 2fbf
00000270: 2128 94bd 86c5 b23d f746 10be 0b99 593e
00000280: 454e 80be dcfe c5bd 7752 0dbe e7f4 3cbf
00000290: adb4 953d 5858 2dbe 4d1a 883e ee7b c43e
000002a0: ef82 8b3e d055 b7bd 7cae 073e 84d1 96bd
000002b0: 98cf 5fbd 1b64 d7be d5a0 53bd 9fa5 24be
000002c0: 62ab 75bf e48e 663e 0a34 fd3e ae02 85bf
000002d0: 4cb7 82be 48b6 14be 8e66 02bf 592e 733e
000002e0: 3835 a83e 01c8 933d e2cd e63d 0868 a73d
000002f0: d2d0 45bf 3af7 f8be 340c 70be 1d60 85be
00000300: 5673 4bbf 4d08 a8bd d3e9 d5bd 426b c5bc
00000310: 0671 90bd 932d e8be 558c 64be ea3a 3d3e
00000320: 168c 95be 5401 fd3d f447 1dbe b49a 5f3e
00000330: 072b 9c3e 8a3b 613e 79e0 9fbe be8b ba3e
00000340: 9a5c 29bf 2c73 30be f6e7 f1be b952 d33e
00000350: ce6b 2dbe 6963 513c 0515 aa3d 3dfc a03e
00000360: c9a3 7dbe c871 753d 6b63 b5be e3f1 c03d
00000370: 9e6e 9f3e 184e f6be eec5 8f3e f2e7 2fbf
00000380: 4986 37bf 96fd 25bf 5430 e93e adcb 31bd
00000390: 2ab0 a3be 13da 5a3e 3a78 b43c 9b53 c0be
000003a0: 4ec7 d63e 90ee 0f3e 8103 893e e08c 093e
000003b0: 4c16 653e 0599 703e 269b 25be bdc5 d6bd
000003c0: 24be 8fbc 4c24 8cbe d36e ba3e 327c 963e
000003d0: b629 22bf b3e6 af3e 47df d53d 3049 a73d
000003e0: 4e04 853d e94c ebbb fd12 5b3e 7814 99be
000003f0: 8395 6abe 31fb 10be 3518 9cbf dbd8 083e

policy_net.4.bias f4 [128]
-0.25240648 -0.12026567 0.020933388 -0.23168294 -0.068300754 0.1379992 -0.10456352 -0.10861341
-0.18266445 -0.07266304 0.09931144 -0.12513366 -0.07613374 -0.34309655 0.0047027627 0.07748416
-0.051132012 -0.089698985 -0.08348868 0.120166324 -0.160834 -0.14066674 -0.27972487 -0.4560007
-0.23414609 0.25070614 -0.072543055 -0.17716019 -0.24685974 0.18142538 0.09832337 -0.19722794
0.09291184 0.21132483 0.09409737 -0.14197676 0.037707154 0.08125037 -0.47526234 0.122109
0.12806684 -0.24967152 -0.038835477 0.11927924 -0.22288364 0.19261688 0.1287245 -0.10079682
-0.005367059 -0.33046502 -0.11205404 0.2519326 -0.46384588 0.068214275 0.18692699 -0.47742575
-0.17168099 0.0024617405 0.0714776 -0.12016851 -0.35989118 -0.12337409 -0.350786 0.097236544
-0.062544756 -0.03391285 -0.317947 0.09685683 -0.30954635 -0.28974825 -0.08320385 -0.42299938
0.31479797 0.008813605 0.15310727 -0.24150904 -0.21745643 0.24333723 0.2558192 0.07968264
-0.8651938 -0.21202098 0.48797473 -0.23437907 -0.23640828 0.00018331248 -0.105390385 0.22693084
-0.49922204 0.13770962 -0.06368862 -0.28888026 -0.16278292 -0.050687496 -0.5251123 0.14188752
-0.2731946 -0.06652711 -0.11996428 0.05514727 0.16367508 0.12438797 -0.072570734 -0.014060647
-0.42800865 0.024669213 0.09944643 -0.4529703 0.050642096 0.12459479 -0.20790192 0.045235712
-0.11378197 0.13419335 0.12297556 0.123914905 -0.116379574 0.1782155 -0.18092322 0.3149229
-0.26138827 0.16915564 -0.0465969 0.1295682 -0.2248656 -0.030395836 0.012275971 -0.17931026
00000000: 6c3b 81be d94d f6bd 7f7c ab3c 4b3e 6dbe
00000010: 44e1 8bbd aa4f 0d3e 6625 d6bd b570 debd
00000020: 640c 3bbe 5cd0 94bd cc63 cb3d 0a23 00be
00000030: 02ec 9bbd 5aaa afbe a219 9a3b 04b0 9e3d
00000040: cd6f 51bd 1ab4 b7bd 1dfc aabd c319 f63d
00000050: abb1 24be f10a 10be 1938 8fbe ec78 e9be
00000060: fec3 6fbe 8e5c 803e 7491 94bd 7b69 35be
00000070: cdc8 7cbe 93c7 393e c35d c93d 1ff6 49be
00000080: 9048 be3d 8965 583e 1fb6 c03d 5b62 11be
00000090: d172 1a3d 9866 a63d 9655 f3be 4914 fa3d
000000a0: f423 033e e4a9 7fbe f311 1fbd ad48 f43d
000000b0: 9c3b 64be 5c3d 453e 5bd0 033e 906e cebd
000000c0: 27de afbb b632 a9be 977c e5bd 4ffd 803e
000000d0: 357d edbe edb3 8b3d ca69 3f3e 2671 f4be
000000e0: 24cd 2fbe 2755 213b d962 923d e81a f6bd
000000f0: a843 b8be 8eab fcbd 399a b3be f423 c73d
00000100: 7717 80bd 33e8 0abd f3c9 a2be e05c c63d
00000110: dc7c 9ebe e259 94be c866 aabd 6093 d8be
00000120: 332d a13e f066 103c 27c8 1c3e 254e 77be
00000130: e6ac 5ebe 652d 793e bcfa 823e a730 a33d
00000140: 577d 5dbf 071c 59be d3d7 f93e 1101 70be
00000150: 0315 72be 9237 4039 ead6 d7bd 8f60 683e
00000160: 089a ffbe c003 0d3e 2e6f 82bd 1de8 93be
00000170: 91b0 26be b19d 4fbd c26d 06bf f64a 113e
00000180: 2ae0 8bbe 5e3f 88bd d5af f5bd 1be2 613d
00000190: 719a 273e 1fbf fe3d f79f 94bd a15e 66bc
000001a0: f323 dbbe 1717 ca3c 92aa cb3d b9eb e7be
000001b0: 166e 4f3d 8e2b ff3d 3ee4 54be 1549 393d
000001c0: 8606 e9bd fb69 093e 9cda fb3d 19c7 fd3d
000001d0: 6a58 eebd 207e 363e f043 39be 933d a13e
000001e0: afd4 85be 2337 2d3e 64dc 3ebd 87ad 043e
000001f0: 2b43 66be b000 f9bc 2721 493c 1c9d 37be

policy_net.6.weight f4 [64, 128]
-0.10894575 0.17084062 0.42572877 -0.84779924 -0.20244353 -0.1260361 0.41984135 0.22272518
0.04401993 -0.40402415 -0.19723283 0.16781464 -0.19346419 -0.46993256 -0.2770576 0.09417855
0.39425907 0.18892922 -0.17978972 0.44875893 0.36477816 0.07913255 0.18017198 -0.11954695
-0.63201565 0.20513335 0.05204938 0.5963434 0.16091138 0.063402824 -0.5385228 -0.35698014
-0.16822387 -0.9234319 -0.5192458 -0.038521424 -0.061064463 -0.62588143 -0.10063308 0.03709623
0.06923619 -0.4149281 0.20895949 0.06684093 -0.5255527 0.35079616 0.036898736 0.011554035
-0.056874037 0.78300077 -0.44568178 0.28034264 0.30579874 0.0020030877 0.07333239 0.14006898
0.119696885 -0.017842824 0.5311072 -0.03151344 -0.20784767 0.046074398 -0.17182763 0.20364104
-0.38080457 0.08976062 -0.23772117 0.35044923 0.07832137 -0.37289432 0.06525482 -0.7499858
0.1337734 0.11277941 -0.7646231 -0.009349585 -0.27066898 -0.69224566 -0.33577 -0.3576482
0.19066435 0.02870375 0.3085275 -0.13623744 -0.4774587 -0.35593712 0.435588 -0.35790148
-0.1300796 -0.10659778 0.0696829 -0.59174687 -0.36317194 -0.15715565 0.07587128 -0.8328754
-0.102684654 -0.124340355 -0.088548504 0.35172144 -0.6208719 -0.032993533 0.06015301 -0.012920391
-0.11948965 -0.36236897 0.27820337 -0.069215074 0.25509873 0.11214584 0.13929184 -0.22444017
-0.26775604 -0.13825493 -0.2488266 -0.32342046 0.4853062 -0.73518336 -0.79982364 -0.20813152
-0.13497014 0.032667138 -0.3276591 0.19636278 0.012256741 -0.29989228 -0.5377485 -0.13742882
-0.057590228 -0.052973613 -0.13535704 0.15513538 -0.008042457 0.1528465 0.13899972 -0.2848678
-0.3406624 0.0660796 0.057499472 0.111623116 -0.09501468 -0.17277227 0.06563409 -0.018614888
0.16318554 -0.1933762 -0.08162727 0.12197254 -0.096401766 0.16286477 -0.1256518 -0.34729528
-0.67947686 -0.22179681 -0.5804225 -0.51188856 0.17738046 0.016693749 -0.13094597 -0.84528553
-0.10630657 -0.11267622 -0.13019285 0.008469065 -0.04245795 -0.016550843 0.09530524 0.018641686
-0.0634648 0.1687887 0.16842034 -0.60533845 -0.26548767 0.036732156 -0.040802937 0.21590792
-0.11403017 -0.10893995 -0.03818215 0.35640293 -0.2999164 0.00495514 0.13272525 -0.37804663
-0.19316998 0.10652896 -0.17857109 -0.00094138575 0.12597817 -0.01066153 0.10274327 -0.042552013
-0.006457235 -0.37759712 0.1563274 -0.11791442 -0.7202294 -0.090285696 0.1659792 0.13262117
0.25564387 -0.010683266 -0.09297712 0.02023145 0.045282736 -0.09787525 -0.82253444 0.051655512
-0.07189501 -0.04655277 -0.056390896 -0.26735985 -0.5359932 0.06762776 0.026688874 -0.19319178
-0.081184596 0.017423509 -0.17523056 -0.2722077 -0.13495007 0.18212712 0.08702666 -0.01922077
-0.16326368 -0.16821466 0.081282035 -0.048503857 0.14997652 0.0318491 -0.16986449 0.20086007
-0.3735815 0.16903304 -0.17651682 -0.049385164 -0.5461641 0.39439845 -0.20318712 -0.031131761
-0.15628654 0.00084151566 0.049534403 -0.68242896 0.09119073 0.35906538 -0.44280323 -0.38027084
0.013035046 -0.047300193 0.22543809 -0.35303658 -0.17160264 -0.053534817 -0.7592696 0.3204117
00000000: f31e dfbd d8f0 2e3e 1ff9 d93e 5f09 59bf
00000010: 5b4d 4fbe 9b0f 01be 72f5 d63e 1212 643e
00000020: 3e4e 343d 41dc cebe 67f7 49be 9ad7 2b3e
00000030: 7a1b 46be 009b f0be 7eda 8dbe afe0 c03d
00000040: 53dc c93e a976 413e cc1a 38be bbc3 e53e
00000050: 34c4 ba3e 3f10 a23d 017f 383e 08d5 f4bd
00000060: c7cb 21bf 7a0e 523e bb31 553d f6a9 183f
00000070: f4c5 243e 57d9 813d a1dc 09bf 1ac6 b6be
00000080: e142 2cbe 0866 6cbf 4bed 04bf a4c8 1dbd
00000090: bb1e 7abd c439 20bf b718 cebd 37f2 173d
000000a0: b4cb 8d3d 7571 d4be 7af9 553e e6e3 883d
000000b0: 9f8a 06bf 8e9b b33e 2123 173d 234d 3d3c
000000c0: c0f4 68bd bd72 483f 6730 e4be 1289 8f3e
000000d0: a791 9c3e 3c46 033b 4b2f 963d 3e6e 0f3e
000000e0: a423 f53d 1d2b 92bc a4f6 073f 3d14 01bd
000000f0: 05d6 54be 82b8 3c3d 95f3 2fbe 4787 503e
00000100: d1f8 c2be 6ad4 b73d 2e6d 73be 156e b33e
00000110: f466 a03d 01ec bebe 52a4 853d 12ff 3fbf
00000120: e5fb 083e e4f8 e63d 57be 43bf 002f 19bc
00000130: 2095 8abe 0337 31bf 0cea abbe aa1d b7be
00000140: 843d 433e 2024 eb3c 51f7 9d3e d481 0bbe
00000150: 7775 f4be 643d b6be 6405 df3e dd3e b7be
00000160: 9633 05be f04f dabd e9b5 8e3d b97c 17bf
00000170: acf1 b9be 69ed 20be 6762 9b3d 5237 55bf
00000180: 554c d2bd 28a6 febd eb58 b5bd d514 b43e
00000190: 76f1 1ebf 3a24 07bd 0163 763d 0cb0 53bc
000001a0: fdb6 f4bd 6d88 b9be ac70 8e3e a2c0 8dbd
000001b0: 4d9c 823e b8ac e53d 85a2 0e3e a5d3 65be
000001c0: 5217 89be b392 0dbe 66cc 7ebe 5e97 a5be
000001d0: 0e7a f83e fa34 3cbf 3ec1 4cbf 6e20 55be
000001e0: 9d35 0abe facd 053d efc2 a7be 5313 493e
000001f0: 7fd0 483c 7b8b 99be e3a9 09bf 24ba 0cbe
00000200: bbe3 6bbd dcfa 58bd 099b 0abe cfdb 1e3e
00000210: 82c4 03bc cb83 1c3e f155 0e3e 31da 91be
00000220: 4d6b aebe be54 873d 9184 6b3d a99a e43d
00000230: 0e97 c2bd 37eb 30be 2a6b 863d 407e 98bc
00000240: 1c1a 273e 6904 46be 332c a7bd bdcc f93d
00000250: 4a6e c5bd 06c6 263e deaa 00be b0d0 b1be
00000260: 32f2 2dbf b41e 63be 9296 14bf 210b 03bf
00000270: 39a3 353e 54c1 883c b316 06be a264 58bf
00000280: 42b7 d9bd cac2 e6bd 4651 05be d5c1 0a3c
00000290: 63e8 2dbd a295 87bc 652f c33d 73b6 983c
000002a0: d5f9 81bd f2d6 2c3e 6276 2c3e 76f7 1abf
000002b0: 00ee 87be 7574 163d fb20 27bd f716 5d3e
000002c0: a688 e9bd e91b dfbd e364 1cbd 727a b63e
000002d0: a48e 99be ba5e a23b 21e9 073e 548f c1be
000002e0: 5ace 45be db2b da3d 57db 36be 54c7 76ba
000002f0: 6c00 013e b3ad 2ebc 106b d23d 054b 2ebd
00000300: 3797 d3bb 6954 c1be 4a14 203e 1e7d f1bd
00000310: f460 38bf b5e7 b8bd 74f6 293e d8cd 073e
00000320: c1e3 823e de08 2fbc ca6a bebd 6dbc a53c
00000330: 647a 393d d272 c8bd 9e91 52bf bb94 533d
00000340: b13d 93bd 1eae 3ebd 24fa 66bd 64e3 88be
00000350: da36 09bf 6c80 8a3d a0a2 da3c 11d4 45be
00000360: 1c44 a6bd bfbb 8e3c a46f 33be cf5e 8bbe
00000370: 5a30 0abe 887f 3a3e 093b b23d e074 9dbc
00000380: 982e 27be 7740 2cbe 3277 a63d fbab 46bd
00000390: 7293 193e 3474 023d f5f0 2dbe 43ae 4d3e
000003a0: 1346 bfbe ff16 2d3e d3c0 34be 1948 4abd
000003b0: 69d1 0bbf 98ee c93e 4910 50be 0908 ffbc
000003c0: 9409 20be 2999 5c3a 96e4 4a3d aab3 2ebf
000003d0: 35c2 ba3d 6bd7 b73e 1bb7 e2be dcb2 c2be
000003e0: f290 553c d9bd 41bd 3ed9 663e 36c1 b4be
000003f0: 9ab8 2fbe 5347 5bbd 7e5f 42bf 010d a43e

policy_net.6.bias f4 [64]
-0.17620018 0.32998422 -0.32837892 -0.33662462 -0.516904 0.2689133 -0.3286466 -0.18869817
0.041306168 0.2744223 0.4739741 -0.038157627 0.3485207 0.13636433 0.62657696 0.32181183
-0.2237796 -0.37946692 0.03948817 0.15375671 -0.11937799 0.34994838 -0.080887005 0.1349334
0.17122693 0.23378892 0.41639212 -0.09973822 0.28457376 0.21802838 0.3437891 -0.14495523
-0.17363228 0.3657127 0.26604062 0.026900994 0.050292496 0.20383476 0.24419613 -0.5595789
0.36959535 -0.16347013 0.041089647 -0.35703227 0.44040048 0.5606429 -0.21719752 -0.0027760835
-0.43169215 -0.36312947 -0.35547757 0.42048934 -0.39929637 -0.033196043 -0.32643682 -0.20776094
0.56493086 0.19688576 -0.004729415 -0.28962737 0.15055244 0.21921858 -0.21414477 0.13932665
00000000: d26d 34be b1f3 a83e 4821 a8be 105a acbe
00000010: d253 04bf 01af 893e 5e44 a8be 183a 41be
00000020: a830 293d 1481 8c3e bcac f23e 2c4b 1cbd
00000030: 4e71 b23e 17a3 0b3e 5967 203f 85c4 a43e
00000040: 7b26 65be 7d49 c2be 59be 213d 6672 1d3e
00000050: 737c f4bd 6f2c b33e 16a8 a5bd fb2b 0a3e
00000060: 1d56 2f3e 5d66 6f3e 5931 d53e 8d43 ccbd
00000070: a7b3 913e d542 5f3e 2005 b03e 256f 14be
00000080: a9cc 31be b23e bb3e 7a36 883e 795f dc3c
00000090: 81ff 4d3d 0fba 503e 8d0e 7a3e 9040 0fbf
000000a0: 9a3b bd3e b764 27be 9e4d 283d efcc b6be
000000b0: 2c7c e13e 4b86 0f3f 0769 5ebe f4ee 35bb
000000c0: c106 ddbe 1bec b9be 2801 b6be 614a d73e
000000d0: 9370 ccbe 93f8 07bd ba22 a7be 49bf 54be
000000e0: 4f9f 103f 6c9c 493e 35f9 9abb 0a4a 94be
000000f0: 6b2a 1a3e d67a 603e c448 5bbe a5ab 0e3e

policy_net.8.weight f4 [4, 64]
-0.11197803 0.026306456 -0.29752532 0.06501119 0.08309684 0.07657376 0.063321464 -0.06612111
-0.17737761 0.015525029 0.016670419 0.09706083 -0.011835192 0.13310444 0.024288114 0.040465258
0.034767635 -0.07164725 -0.06995838 0.12773351 0.0881407 0.085431606 -0.0044985777 0.07102383
-0.0747091 -0.06201227 0.036118675 0.06810692 -0.027624752 -0.053280137 -0.02350345 -0.050045215
0.02086514 0.0165877 -0.059944697 -0.053778965 -0.014350346 0.063384786 0.013668279 0.048065893
0.067073815 -0.09340951 0.025904033 -0.07107716 -0.013790323 -0.017346457 0.07772575 0.01662396
-0.09308163 0.07481937 -0.036806457 -0.013975855 0.25681108 0.010233652 -0.08603824 -0.059573635
-0.109472364 0.042443268 0.0411025 -0.060448505 0.07368276 -0.04518085 0.023237055 -0.054876294
0.01796097 -0.02868082 0.28110194 -0.009427373 0.09953625 0.055609524 0.012860393 -0.03127076
0.30928802 -0.04394073 -0.032034114 -0.08303015 0.059857324 0.076410644 0.03846915 -0.13289298
0.04687188 -0.06169422 -0.07784513 0.04156194 0.08859828 0.06004908 -0.008442271 0.0442462
-0.009790322 -0.045553457 0.019857507 0.01738403 -0.03284493 -0.08523274 -0.07881197 0.09599094
0.04419921 0.07850846 -0.075629584 0.0391116 -0.048140332 0.065082416 0.017209064 0.07475081
0.057247188 -0.03191256 0.08952256 -0.03287467 -0.08144979 -0.030511573 0.028150983 0.053928662
0.021245765 -0.07986214 -0.011198877 -0.049467638 0.1028562 0.087821856 -0.060633823 0.01337674
-0.089062065 -0.092345566 -0.06837122 -0.104922645 0.06243151 -0.045037474 0.051670488 0.049599916
0.08938435 -0.018565403 0.09557355 -0.11531375 -0.10096226 -0.026669497 -0.19536898 0.08020487
0.08965141 0.121080644 -0.085056975 -0.0439477 0.062111955 0.013753165 -0.12763551 -0.00039657817
-0.07989509 -0.073096365 -0.008169685 -0.06581755 -0.23154506 0.0101317195 -0.08883596 -0.01855819
0.086216226 0.085526496 0.076402344 0.06807106 0.058697507 0.09299019 -0.018676732 0.0594678
-0.104491435 -0.023603333 -0.00713087 -0.06564579 0.18221314 -0.059814885 0.038453065 -0.16680676
-0.21144642 0.10411785 0.012548152 0.21156038 0.089164004 0.19803582 -0.13360891 0.09617114
0.066734836 -0.034497943 -0.04314425 0.06950093 0.20363465 -0.1009355 0.10904925 0.04910349
0.21047813 -0.008861639 -0.05903515 0.20117179 -0.17647125 0.06895764 -0.11926283 0.09176624
-0.054408852 -0.09981144 -0.09856689 -0.01600759 0.020014009 -0.0027402027 0.09989151 -0.012343276
-0.02184075 0.038560923 0.016637072 -0.03596734 0.03668757 0.0022832325 0.09457453 -0.019971611
-0.03985833 0.042019386 -0.002693631 0.048074033 0.03822442 0.0095662065 -0.09644015 0.005664763
0.00095968426 0.034500726 -0.0396683 -0.02152285 -0.032577917 -0.044836216 0.004140311 0.0225921
0.053424574 0.009772659 0.07004927 -0.03360542 -0.07823002 0.046971664 -0.091851056 0.021811942
0.04423964 0.05930415 0.03219545 -0.101037316 -0.030153483 -0.06249138 0.026903497 -0.024043182
-0.053770065 -0.050142832 -0.06299154 -0.04661785 0.062473804 0.08937801 0.025693417 0.034180664
-0.09564718 -0.02500701 -0.027623383 -0.03511206 0.055272866 -0.038588576 -0.22179294 0.020657627
00000000: bd54 e5bd a380 d73c 3d55 98be 9624 853d
00000010: ad2e aa3d b4d2 9c3d afae 813d 816a 87bd
00000020: 7aa2 35be b15c 7e3c 6790 883c d4c7 c63d
00000030: 65e8 41bc 884c 083e def7 c63c e6be 253d
00000040: 8268 0e3d cbbb 92bd 5746 8fbd 93cc 023e
00000050: 1c83 b43d c4f6 ae3d ce68 93bb f174 913d
00000060: 1601 99bd 9400 7ebd 2df1 133d a47b 8b3d
00000070: 4e4d e2bc 463c 5abd 4f8a c0bc 36fc 4cbd
00000080: 5fed aa3c eee2 873c 9288 75bd 5547 5cbd
00000090: b71d 6bbc e2cf 813d ebf0 5f3c bee0 443d
000000a0: ff5d 893d 7c4d bfbd b234 d43c e790 91bd
000000b0: cff0 61bc 281a 8ebc ae2e 9f3d f92e 883c
000000c0: 95a1 bebd e63a 993d 5ec2 16bd fcfa 64bc
000000d0: be7c 833e 0cab 273c d134 b0bd 7c03 74bd
000000e0: 0c33 e0bd fed8 2d3d 185b 283d da98 77bd
000000f0: fde6 963d 8e0f 39bd a35b be3c f7c5 60bd
00000100: e222 933c 0af4 eabc 98ec 8f3e 4575 1abc
00000110: a9d9 cb3d d0c6 633d 66b4 523c c515 00bd
00000120: 005b 9e3e 32fb 33bd 3436 03bd b60b aabd
00000130: f42c 753d 2f7d 9c3d d491 1d3d 1915 08be
00000140: bafc 3f3d 14b3 7cbd 446d 9fbd da3c 2a3d
00000150: 0473 b53d 06f6 753d 7351 0abc 813b 353d
00000160: 9667 20bc 4396 3abd 36ac a23c f468 8e3c
00000170: 6888 06bd 818e aebd 2c68 a1bd e696 c43d
00000180: 3b0a 353d 0bc9 a03d afe3 9abd 7c33 203d
00000190: cc2e 45bd ee49 853d 06fa 8c3c f416 993d
000001a0: 077c 6a3d bfb6 02bd 9b57 b73d 97a7 06bd
000001b0: 26cf a6bd 68f3 f9bc e49c e63c 4de4 5c3d
000001c0: 990b ae3c c38e a3bd 7f7b 37bc 949e 4abd
000001d0: 45a6 d23d f2db b33d 2c5b 78bd 1d2a 5b3c
000001e0: 2c66 b6bd ac1f bdbd 3606 8cbd afe1 d6bd
000001f0: 2fb8 7f3d 3779 38bd 6fa4 533d 4829 4b3d
00000200: 240f b73d 7916 98bc 11bc c33d 9e29 ecbd
00000210: 4dc5 cebd fd79 dabc ce0e 48be 7342 a43d
00000220: 299b b73d 21f9 f73d 5a32 aebd 8102 34bd
00000230: 1b69 7e3d f454 613c e2b2 02be d2eb cfb9
00000240: 09a0 a3bd 8cb3 95bd 24da 05bc 5acb 86bd
00000250: 261a 6dbe 83ff 253c a1ef b5bd 5807 98bc
00000260: 2292 b03d 8428 af3d d578 9c3d d768 8b3d
00000270: cc6c 703d a471 be3d f2ff 98bc 8294 733d
00000280: 9bff d5bd c75b c1bc 13aa e9bb 4d71 86bd
00000290: 1596 3a3e 7400 75bd f680 1d3d 64cf 2abe
000002a0: 6985 58be bd3b d53d c496 4d3c 49a3 583e
000002b0: 9e9b b63d e7c9 4a3e c6d0 08be 60f5 c43d
000002c0: 46ac 883d b74d 0dbd 06b8 30bd 8156 8e3d
000002d0: 9a85 503e 45b7 cebd 3755 df3d be20 493d
000002e0: 9487 573e 6830 11bc d7ce 71bd faff 4d3e
000002f0: e1b4 34be aa39 8d3d 1240 f4bd f0ef bb3d
00000300: d1db 5ebd f169 ccbd 70dd c9bd 5922 83bc
00000310: 6bf4 a33c f994 33bb ec93 cc3d 743b 4abc
00000320: 5feb b2bc 0ff2 1d3d 784a 883c 7d52 13bd
00000330: b545 163d 49a2 153b 4bb0 c13d 819b a3bc
00000340: 7d42 23bd 851c 2c3d a187 30bb 47e9 443d
00000350: 3691 1c3d 94bb 1c3c 6a82 c5bd 7a9f b93b
00000360: 5293 7b3a a250 0d3d 3a7b 22bd b050 b0bc
00000370: 6c70 05bd 2ea6 37bd 72ab 873b 1113 b93c
00000380: bad3 5a3d 811d 203c fe75 8f3d d6a5 09bd
00000390: 1037 a0bd 5c65 403d 681c bcbd f5ae b23c
000003a0: a034 353d e9e8 723d 60df 033d a7ec cebd
000003b0: 7004 f7bc f6f6 7fbd b964 dc3c 35f6 c4bc
000003c0: 003e 5cbd 9262 4dbd b501 81bd 5cf2 3ebd
000003d0: 88e4 7f3d d10b b73d 007b d23c 0601 0c3d
000003e0: abe2 c3bd 80db ccbc 6f4a e2bc aad1 0fbd
000003f0: cd65 623d 0e0f 1ebd b01d 63be 2f3a a93c

policy_net.8.bias f4 [4]
0.10388318 0.014700204 0.109201714 0.2027254
00000000: b4c0 d43d 20d9 703c 26a5 df3d 3f97 4f3e

inverse_net.0.weight f4 [64, 48]
0.13780253 1.2626878 -0.51272494 0.41049677 -0.097459875 0.37971994 -0.28146946 0.30512023
0.10129479 0.41922846 -0.31675422 -0.2134447 -0.2596836 -0.0391858 -0.03397748 0.15334645
-0.08788708 -0.04399066 0.07435267 0.017142575 -0.032920282 -0.08856703 -0.05048742 -0.19439119
0.25750118 -0.313521 -0.13456225 -2.1013815 0.07678651 0.022802792 -0.7285979 -0.599045
-0.0007935846 0.37897566 0.122715496 -0.097324155 0.13818786 -0.21367104 -0.03830665 0.076360546
-0.026691956 0.087121785 0.042187106 0.10311084 0.07377893 -0.03636424 -0.107652254 -0.0628377
0.04594233 0.77729684 0.33916715 0.39373344 0.09637805 0.0077264984 -0.024007112 -0.022182416
-0.01087267 0.16688773 0.05031997 -0.08700134 0.027532531 -0.005058563 -0.07524609 0.0065857675
-0.037472542 -0.10234415 -0.004626817 0.08461611 -0.12914157 0.069037475 -0.18268226 0.22060233
-0.04585919 -1.6128875 -0.26139227 0.9526938 0.036575057 -0.04361857 0.042877268 -0.005717155
0.004536979 0.22245875 5.8041086 0.0060756747 -0.03464882 -0.01770545 0.07735311 -0.08515647
-0.064481154 0.010896905 -0.043639317 -0.06654838 -0.06378553 -0.18286484 0.07580161 -0.03787265
0.37052867 -1.6516911 0.18083629 0.28130573 -0.46660596 0.33386073 -0.5309223 -0.22116482
0.029512258 -0.1016708 -0.39963025 0.16803573 -0.35807455 0.21096413 0.023492139 -0.10948047
-0.06476188 -0.09157887 -0.1452832 -0.1293393 -0.18784894 -0.22216119 -0.17621396 -0.0635751
0.28431046 0.504319 -0.44540355 -2.5837493 -0.67133003 -0.26992115 -0.8604381 -0.1403089
-0.108505405 -0.09976413 -0.05113478 0.17946622 -0.21287228 0.080488876 -0.23796414 0.009650467
0.0035780733 -0.18581171 -0.17778352 -0.22576088 -0.051845368 -0.26607823 -0.20924826 0.05652114
-0.1283492 3.183232 0.5703179 -1.1840018 0.2602892 -0.6634205 -0.32161418 -0.14535408
-0.05986533 0.1569973 -0.47738305 -0.08985613 0.056835853 0.18931167 -0.11823262 -0.1210864
-0.18233168 -0.05722397 0.036914047 -0.03689476 -0.11909127 0.08997808 0.31677663 -0.045048583
-0.11237456 0.5335961 1.3781068 -0.4002499 0.277531 0.7673389 -0.2675658 -0.4708547
-0.19088444 0.094850376 0.027799735 0.13366546 0.23017399 -0.055997305 -0.17427246 -0.17853458
-0.14282894 -0.1629241 -0.10973625 -0.022070922 -0.17946984 0.11593239 0.37046397 -0.07995356
-0.52708983 -0.71168256 -2.0047174 1.3031161 0.163805 -0.42884982 0.6096867 -0.42013064
0.13167566 -0.2713845 -0.12824929 0.31495512 -0.23088837 -0.09093923 -0.048563756 -0.021436322
-0.15962632 0.011057223 -0.1669653 0.020435777 -0.0406794 -0.21728519 -0.23936766 0.12557316
-0.8662984 -3.8132792 -0.10916057 -2.2920556 0.10850991 0.64274424 0.77183896 0.63717526
-0.008881362 -0.35399234 -0.062322184 0.02454647 -0.1781732 0.02322289 -0.07134031 -0.023872199
-0.13821769 -0.15845925 0.031383198 -0.04975276 -0.13500617 -0.15147026 -0.16114564 0.069774784
-0.24268238 0.24219935 -0.72900605 -1.66221 -0.0733412 0.40802655 0.15660428 0.33684075
-0.12678385 -0.4972051 -1.0169954 -0.5177972 0.093071476 -0.170043 0.004486222 -0.049487714
00000000: 1b1c 0d3e c19f a13f f141 03bf a22c d23e
00000010: 0b99 c7bd a76a c23e c41c 90be b838 9c3e
00000020: a573 cf3d 1da5 d63e 9c2d a2be 3f91 5abe
00000030: 40f5 84be 4a81 20bd f82b 0bbd da06 1d3e
00000040: 24fe b3bd 8d2f 34bd 3646 983d 966e 8c3c
00000050: 6bd7 06bd a262 b5bd e6cb 4ebd 7c0e 47be
00000060: 32d7 833e d385 a0be b0ca 09be 097d 06c0
00000070: 3f42 9d3d eccc ba3c 6485 3abf 035b 19bf
00000080: 9008 50ba 1909 c23e 4352 fb3d e351 c7bd
00000090: 1e81 0d3e 95cc 5abe 6fe7 1cbd eb62 9c3d
000000a0: 17a9 dabc e86c b23d 63cc 2c3d c72b d33d
000000b0: 6819 973d abf2 14bd c978 dcbd 0db1 80bd
000000c0: 062e 3c3d edfc 463f 51a7 ad3e 6e97 c93e
000000d0: db61 c53d 912e fd3b 90aa c4bc e6b7 b5bc
000000e0: 4923 32bc 9ee4 2a3e 501c 4e3d c22d b2bd
000000f0: e78b e13c 4dc2 a5bb 9f1a 9abd 6ccd d73b
00000100: cf7c 19bd cf99 d1bd 8e9c 97bb 364b ad3d
00000110: b03d 04be 8563 8d3d 0f11 3bbe 94e5 613e
00000120: d9d6 3bbd 1973 cebf 35d5 85be bee3 733f
00000130: bacf 153d 63a9 32bd 13a0 2f3d f956 bbbb
00000140: f0aa 943b 3acc 633e 42bb b940 7416 c73b
00000150: eceb 0dbd 050b 91bc 4f6b 9e3d 8466 aebd
00000160: b20e 84bd ef88 323c 24bf 32bd 844a 88bd
00000170: fda1 82bd ec40 3bbe e03d 9b3d 5a20 1bbd
00000180: efb5 bd3e 9d6a d3bf 262d 393e 4e07 903e
00000190: fae6 eebe cbef aa3e 86ea 07bf 0879 62be
000001a0: b1c3 f13c c838 d0bd 569c ccbe 8f11 2c3e
000001b0: 8c55 b7be fb06 583e 9672 c03c 4c37 e0bd
000001c0: e0a1 84bd b48d bbbd 1fc5 14be 8571 04be
000001d0: 795b 40be 397e 63be 6f71 34be a933 82bd
000001e0: 2491 913e 0d1b 013f ef0b e4be 265c 25c0
000001f0: 49dc 2bbf 1b33 8abe ac45 5cbf 23ad 0fbe
00000200: 1538 debd 2351 ccbd b472 51bd fec5 373e
00000210: 31fb 59be 5ad7 a43d dfac 73be fe1c 1e3c
00000220: 1c7e 6a3b 6d45 3ebe e20c 36be dc2d 67be
00000230: cf5b 54bd 683b 88be 2d45 56be b682 673d
00000240: f96d 03be 13ba 4b40 5b00 123f 5f8d 97bf
00000250: a044 853e edd5 29bf 9daa a4be b3d7 14be
00000260: 5935 75bd e6c3 203e 8d6b f4be 7e06 b8bd
00000270: b6cc 683d ebda 413e f223 f2bd 25fc f7bd
00000280: 28b5 3abe ae63 6abd 2f33 173d f61e 17bd
00000290: 20e6 f3bd 6d46 b83d 8c30 a23e dd84 38bd
000002a0: a224 e6bd c199 083f ce65 b03f 8eed ccbe
000002b0: 8b18 8e3e 5270 443f 62fe 88be de13 f1be
000002c0: 3677 43be ea40 c23d 45bc e33c 99df 083e
000002d0: bbb2 6b3e 6e5d 65bd 7b74 32be c5d1 36be
000002e0: c041 12be 93d5 26be 66bd e0bd 14ce b4bc
000002f0: f1c6 37be f66d ed3d 74ad bd3e b1be a3bd
00000300: 5cef 06bf d430 36bf 4a4d 00c0 82cc a63f
00000310: 7fbc 273e 3492 dbbe 6d14 1c3f 5d1b d7be
00000320: fcd5 063e e9f2 8abe c853 03be cc41 a13e
00000330: 006e 6cbe 593e babd caea 46bd 3a9b afbc
00000340: 1575 23be 5b29 353c f4f8 2abe ee68 a73c
00000350: 719f 26bd 0280 5ebe cc1c 75be 4096 003e
00000360: bbc5 5dbf c40c 74c0 948f dfbd 0ab1 12c0
00000370: 723a de3d e38a 243f 3d97 453f eb1d 233f
00000380: 2283 11bc 7c3e b5be 8c45 7fbd ae15 c93c
00000390: 0973 36be ee3d be3c de1a 92bd a18f c3bc
000003a0: f088 0dbe 2443 22be ab8b 003d 8dc9 4bbd
000003b0: 0f3f 0abe 051b 1bbe 5d03 25be 15e6 8e3d
000003c0: bb81 78be 1b03 783e 24a0 3abf 4cc3 d4bf
000003d0: e933 96bd dbe8 d03e df5c 203e 6476 ac3e
000003e0: a0d3 01be ab91 febe e82c 82bf 5b8e 04bf
000003f0: 429c be3d c11f 2ebe 2801 933b a1b3 4abd

inverse_net.0.bias f4 [64]
-0.16530004 0.18892467 0.15847501 -0.07388484 0.1118522 -0.07722622 -0.052509315 -0.12482051
-0.17967752 0.024411716 -0.15941475 0.10802375 -0.0956832 -0.13842836 -0.06272296 -0.22782513
-0.20798641 0.16644539 0.05663921 -0.025635928 0.0994486 0.17326304 -0.13893282 0.017709263
-0.018939234 -0.08405998 -0.025506431 -0.05119164 -0.09200809 -0.17897159 -0.26691505 -0.20231198
-0.068336405 0.09206148 -0.09275861 -0.2027841 -0.16661598 -0.053884204 -0.18480493 -0.10795338
-0.010650867 -0.033993486 0.007115944 0.20665948 0.08184386 -0.049899608 0.033355 -0.023820255
-0.018072749 0.008399855 0.05914818 -0.1421107 0.098710574 -0.27030435 -0.1435849 0.08224447
-0.060203727 -0.14754178 -0.06592733 0.1399459 0.012022177 -0.13705751 0.15048152 -0.06253828
00000000: 6a44 29be 7875 413e 4647 223e ef50 97bd
00000010: c412 e53d c828 9ebd 0214 57bd e5a1 ffbd
00000020: 62fd 37be 14fb c73c 9f3d 23be 8e3b dd3d
00000030: 8ef5 c3bd 2ac0 0dbe e574 80bd fe4a 69be
00000040: 64fa 54be a970 2a3e 84fe 673d 7002 d2bc
00000050: b5ab cb3d de6b 313e 6844 0ebe 0413 913c
00000060: 7426 9bbc a427 acbd ddf2 d0bc 53ae 51bd
00000070: bd6e bcbd 5444 37be 17a9 88be df2a 4fbe
00000080: f5f3 8bbd bb8a bc3d 3af8 bdbd a3a6 4fbe
00000090: 619d 2abe afb5 5cbd 813d 3dbe a916 ddbd
000000a0: f980 2ebc c13c 0bbd dd2c e93b 8b9e 533e
000000b0: c19d a73d 8863 4cbd 419f 083d b222 c3bc
000000c0: 4d0d 94bc 8c9f 093c 5d45 723d 7885 11be
000000d0: c528 ca3d 5565 8abe ec07 13be ca6f a83d
000000e0: 2f98 76bd 3115 17be e804 87bd fa4d 0f3e
000000f0: aaf8 443c ce58 0cbe d417 1a3e 1214 80bd
